training_model/wandb/run-20200708_154214-9asqat0g/fir_6cov_1.pt (torch_old, 69680 bytes, 12 tensors)

encode_conv1.weight f4 [4, 12, 3]
0.09717338 -0.17332317 0.024875812 0.10200026 0.04524663 -0.09035914 0.01283322 0.12946416
-0.11274974 0.026961071 -0.0907202 -0.16664174 -0.07792822 0.11495183 -0.09524313 0.049459197
-0.057174087 -0.07550863 0.033391096 0.02941871 0.11458154 -0.05456642 0.08241041 -0.08916617
-0.1336672 0.088471405 0.03348172 -0.15701354 -0.0052921604 0.11995468 -0.11803166 -0.07941183
0.10837278 -0.08629375 -0.10659884 0.05989699 -0.045931704 0.16680382 0.14389339 0.21599142
0.11693154 0.07072998 0.14559892 0.03165909 0.21728888 0.12946914 -0.030006185 0.1118939
0.0052188947 0.219729 0.0040580197 -0.012120356 0.10469157 0.13623555 -0.01900995 0.10145779
-0.0029509356 0.09940379 0.0865552 0.17208363 0.035595175 0.028388351 0.2796291 0.17583898
0.21995884 0.14695002 0.03904483 0.1874485 0.17878905 0.11840654 0.074869014 0.03992734
-0.45576063 -0.36971053 -0.38229954 -0.14199516 -0.07159186 -0.27124688 -0.018644849 -0.18825848
-0.09179472 -0.13855258 -0.13378336 0.26733977 -0.14754991 -0.08623861 -0.4263467 -0.054374933
0.098127306 -0.054409288 -0.14508145 -0.04100015 -0.0011600462 0.085476615 -0.053672742 0.013886348
-0.19222766 0.034238134 -0.4566268 0.2239864 -0.003171931 -0.22826788 -0.005304531 0.050979856
-0.06440902 -0.12678237 -0.15925594 -0.37109303 0.21822637 0.09627832 0.027632397 0.008300279
-0.20626487 -0.06455716 -0.0670407 -0.13589989 -0.11484842 0.04129231 0.06367503 0.049813297
0.35483542 0.23585519 0.23044994 -0.06271899 -0.040311173 -0.21122664 -0.011201344 0.007873277
0.032075662 0.08390646 0.10642565 0.055323042 0.1880398 0.20294575 0.056610562 0.10248805
-0.14468639 -0.15796775 -0.012311062 -0.03313119 0.031144813 0.22147198 0.0011942335 0.06839537
00000000: d602 c73d a17b 31be 5cc8 cb3c 83e5 d03d
00000010: 8854 393d 360e b9bd 6d42 523c 4192 043e
00000020: 56e9 e6bd 77dd dc3c 83cb b9bd 22a4 2abe
00000030: d598 9fbd dd6b eb3d d50e c3bd ba95 4a3d
00000040: 602f 6abd 45a4 9abd 1ac5 083d 82ff f03c
00000050: baa9 ea3d 0a81 5fbd cac6 a83d c19c b6bd
00000060: 0ee0 08be 7f30 b53d 2124 093d 28c8 20be
00000070: dc69 adbb cdaa f53d 95ba f1bd aba2 a2bd
00000080: 8cf2 dd3d c7ba b0bd 7e50 dabd 8c56 753d
00000090: e222 3cbd 9fce 2a3e ca58 133e db2c 5d3e
000000a0: ce79 ef3d e1da 903d e217 153e f6ac 013d
000000b0: fa80 5e3e 8f93 043e 88cf f5bc a128 e53d
000000c0: 4303 ab3b a400 613e 23f9 843b 7594 46bc
000000d0: 8968 d63d 5581 0b3e c1ba 9bbc 1ac9 cf3d
000000e0: 7c64 41bb 3794 cb3d da43 b13d b136 303e
000000f0: 3fcc 113d b08e e83c 8c2b 8f3e 220f 343e
00000100: e43c 613e 117a 163e 79ed 1f3d 80f2 3f3e
00000110: 7a14 373e 217f f23d ed54 993d da8a 233d
00000120: 7559 e9be b34a bdbe c4bc c3be 2e67 11be
00000130: c19e 92bd dfe0 8abe 15bd 98bc d5c6 40be
00000140: dffe bbbd bae0 0dbe 81fe 08be c2e0 883e
00000150: 5317 17be de9d b0bd 1d4a dabe 40b8 5ebd
00000160: f8f6 c83d 46dc 5ebd 3b90 14be c6ef 27bd
00000170: b10c 98ba 5d0e af3d f3d7 5bbd 9183 633c
00000180: 54d7 44be 493d 0c3d fdca e9be b15c 653e
00000190: 2ce0 4fbb 0ebf 69be a2d1 adbb 41d0 503d
000001a0: e0e8 83bd 3dd3 01be fd13 23be e8ff bdbe
000001b0: bc76 5f3e 912d c53d 565d e23c e5fd 073c
000001c0: 1937 53be 8b36 84bd a24c 89bd 5729 0bbe
000001d0: a635 ebbd 2022 293d 0e68 823d 0709 4c3d
000001e0: fdac b53e 0684 713e 12fb 6b3e d072 80bd
000001f0: 541d 25bd cc4b 58be d885 37bc ebfe 003c
00000200: c561 033d 26d7 ab3d b1f5 d93d 6a9a 623d
00000210: 818d 403e 03d1 4f3e 7ae0 673d 41e5 d13d
00000220: ab28 14be 4cc2 21be 56b4 49bc 92b4 07bd
00000230: 6823 ff3c 8dc9 623e d487 9c3a df12 8c3d

encode_conv1.bias f4 [4]
-0.07086166 -0.116467364 -0.07481814 0.14072916
00000000: eb1f 91bd 7186 eebd 413a 99bd 4e1b 103e

encode_conv2.weight f4 [4, 4, 3]
-0.09284703 0.11316823 -0.14800434 0.061219797 -0.2027938 0.1823793 0.22050978 -0.16996811
-0.32463655 0.22777164 -0.04474341 0.09693555 -0.22697788 0.29498723 0.14345372 0.021504687
-0.31171435 -0.30944952 -0.013723532 0.14796755 0.3114722 0.06519473 0.3707329 -0.16932109
-0.007827013 0.032703012 0.029960325 0.23589693 0.20615889 0.23082186 -0.10141665 0.09406841
-0.4134569 -0.12938875 -0.1603742 0.30328178 -0.05119194 0.17034289 -0.21998441 -0.1641197
-0.04231448 -0.3091898 -0.16506529 0.27666193 0.3190411 0.32301018 0.3346156 0.14109987
00000000: 9526 bebd bfc4 e73d 738e 17be 9cc1 7a3d
00000010: 2ea9 4fbe a4c1 3a3e 51cd 613e 1f0c 2ebe
00000020: c336 a6be f83c 693e de44 37bd 2586 c63d
00000030: e46c 68be 9108 973e 88e5 123e 992a b03c
00000040: 0699 9fbe 2b70 9ebe aad8 60bc ce84 173e
00000050: 4979 9f3e d184 853d b4d0 bd3e 8262 2dbe
00000060: df3c 00bc 98f3 053d 5b6f f53c f78e 713e
00000070: 511b 533e 915c 6c3e 88b3 cfbd f0a6 c03d
00000080: 9fb0 d3be 7c7e 04be 2239 24be c047 9b3e
00000090: a4ae 51bd 5e6e 2e3e 9843 61be ff0e 28be
000000a0: f351 2dbd 204e 9ebe e006 29be a2a6 8d3e
000000b0: 5b59 a33e 9761 a53e bc52 ab3e 7c7c 103e

encode_conv2.bias f4 [4]
0.16855414 -0.07278235 0.21602108 -0.18699588
00000000: 7599 2c3e ea0e 95bd a134 5d3e d97b 3fbe

encode_conv3.weight f4 [8, 4, 3]
0.18591847 -0.19800128 -0.14605388 -0.19902362 0.14852329 0.010301666 0.19877374 0.1498719
-0.06310784 0.07354483 0.20214123 0.0602896 -0.06766159 0.15466961 0.08864505 -0.09936402
0.0804804 0.21255773 0.29895324 0.17519233 -0.2615824 -0.06298292 0.0064790836 0.120367445
0.30479553 0.18804893 0.32990617 -0.10587018 0.061660703 -0.66191715 -0.08092471 -0.35905823
0.12954776 0.07487724 0.14921188 -0.25103742 -0.075648315 0.06269797 0.09630213 -0.042950887
0.2001017 -0.31518567 0.17701341 0.25515747 0.19295473 0.2902653 0.015061029 -0.23739393
0.17242153 0.14210312 0.1115797 0.19261673 0.100440085 -0.17894924 0.30093747 -0.10034014
0.23472613 0.21337985 0.20260759 -0.06887318 0.16923822 -0.16504319 0.30488667 -0.105225466
0.0015267776 -0.17814623 0.03895172 0.11980569 -0.032749888 -0.30179608 -0.3389775 0.24793221
0.22077563 0.3723158 0.10017068 -0.14500311 -0.18567114 -0.05526038 -0.004981059 0.10653447
-0.32040155 0.21090631 0.119965956 0.46723095 0.022775436 0.17988706 -0.020498496 0.3113728
-0.13114682 0.25232053 -0.21731472 0.29705256 0.043721776 0.22223663 -0.12787731 0.28170052
00000000: 6961 3e3e d9c0 4abe 268f 15be d9cc 4bbe
00000010: 7d16 183e 52c8 283c 588b 4b3e 0578 193e
00000020: af3e 81bd ac9e 963d 1cfe 4e3e 3af2 763d
00000030: 2992 8abd b661 1e3e 898b b53d 5d7f cbbd
00000040: e8d2 a43d bca8 593e 6610 993e 9e65 333e
00000050: 21ee 85be 30fd 80bd 7e4e d43b 3583 f63d
00000060: 290e 9c3e e68f 403e 76e9 a83e 77d2 d8bd
00000070: ef8f 7c3d 6773 29bf dbbb a5bd 7bd6 b7be
00000080: 2ba8 043e 3d59 993d 00cb 183e fa87 80be
00000090: 81ed 9abd cb67 803d 0d3a c53d 45ed 2fbd
000000a0: 76e7 4c3e 0460 a1be 0143 353e 00a4 823e
000000b0: ed95 453e a79d 943e 89c2 763c 6517 73be
000000c0: 458f 303e 7b83 113e e683 e43d 523d 453e
000000d0: 88b3 cd3d 783e 37be 7a14 9a3e 227f cdbd
000000e0: 0c5c 703e 3f80 5a3e 5d78 4f3e 620d 8dbd
000000f0: c94c 2d3e 1501 29be 1b1a 9c3e 7380 d7bd
00000100: 281e c83a f76b 36be d78b 1f3d b05c f53d
00000110: bf24 06bd 0485 9abe 758e adbe f1e1 7d3e
00000120: 0213 623e 2da0 be3e 4926 cd3d b27b 14be
00000130: 9320 3ebe b558 62bd 2738 a3bb bf2e da3d
00000140: ac0b a4be d3f7 573e b6b0 f53d e538 ef3e
00000150: 8d93 ba3c 5034 383e 76ec a7bc 416c 9f3e
00000160: 5a4b 06be 2830 813e c087 5ebe 4617 983e
00000170: 9b15 333d 0092 633e 45f2 02be 0d3b 903e

encode_conv3.bias f4 [8]
-0.170918 -0.10013076 0.39597106 0.035952147 -0.02059928 0.15182136 -0.12511496 0.24066803
00000000: 2105 2fbe 5b11 cdbd b8bc ca3e 8f42 133d
00000010: d2bf a8bc 0f77 1b3e 231e 00be ae71 763e

encode_conv4.weight f4 [8, 8, 3]
0.18744855 -0.02600445 0.03468962 0.12642154 0.20029049 0.14833103 0.2132295 -0.08535315
0.25227663 -0.14325969 -0.02971587 0.06740593 -0.112395786 0.052605394 -0.14087877 -0.10166621
0.07396388 0.20902638 -0.19373815 -0.21063273 -0.14670072 0.12097901 0.14740184 -0.12889265
-0.024407355 -0.010157137 -0.004371089 0.10452092 0.18027751 -0.0937898 0.07595845 -0.04337968
0.23991835 0.022196023 -0.017291473 0.016300954 0.1898731 0.081478454 0.16533399 0.21177073
-0.16605668 -0.09351651 0.048442304 0.09941423 -0.04412247 0.22376604 -0.08121276 0.09581954
-0.07155813 -0.15558952 0.14802842 -0.21178046 -0.19409683 0.28218725 0.0028717124 0.014063464
-0.50646627 -0.18147121 0.105034314 -0.033800486 0.23089635 0.024142325 0.21821128 -0.22381882
0.07100646 0.09118545 0.08224661 -0.520027 0.18675464 -0.042130332 0.059961557 -0.020735014
0.09960262 -0.038863264 0.08427432 -0.08993628 -0.39757565 -0.19988966 0.112215504 0.5360103
-0.47595188 -0.10331255 0.16482759 0.021963794 -0.06497822 0.20344147 0.1552055 -0.018878954
-0.029353138 -0.016420417 0.10368165 -0.8923102 -0.33382297 -0.1310475 -0.17678459 0.25319082
-0.09590767 0.015786877 -0.08200294 0.13547558 0.01807758 -0.06370919 0.28701073 -0.13373871
0.34481844 0.031466544 0.17377886 0.033249583 -0.18561545 0.18764202 0.16940475 0.06658455
0.02683347 0.019877665 -0.20581396 0.08144236 0.032853197 -0.08201838 -0.15123896 -0.11184974
0.19571029 0.19538514 -0.16359553 0.013737415 0.08726345 -0.098857366 -0.22328298 -0.40976578
0.1518758 -0.10355057 -0.10144035 0.01320637 -0.17174083 -0.13473648 0.13948481 0.21455193
0.07098632 0.12624165 0.14895728 0.15308772 -0.1925028 0.11144762 0.03277197 -0.010883141
-0.41145554 0.11251644 0.3675562 -0.1219786 -0.30306703 -0.15981169 0.013476061 0.542525
-0.034955487 -0.12540697 0.050078284 0.23195979 -0.13301528 0.29700282 -0.037865303 -0.20675944
-0.101725236 -0.03199615 -0.39375165 -0.069671705 -0.6029741 -0.094774105 -0.0024592653 0.28041303
0.22227074 0.009362233 -0.009197877 0.11809776 0.28399312 0.07769914 -0.44736725 -0.38034496
0.094820954 -0.096714646 -0.08817071 -0.21719842 0.083698094 0.16386096 0.0061874883 0.18484752
-0.005246839 -0.11105953 -0.10167507 0.17840971 0.15536593 0.14940035 -0.14760049 -0.17848335
00000000: 83f2 3f3e 4907 d5bc b416 0e3d a674 013e
00000010: f318 4d3e 17e4 173e d658 5a3e a2cd aebd
00000020: 672a 813e abb2 12be b26e f3bc 1f0c 8a3d
00000030: c32f e6bd c178 573d 8642 10be 6036 d0bd
00000040: 607a 973d 030b 563e 4b63 46be 1bb0 57be
00000050: b738 16be d8c3 f73d 82f0 163e 6ffc 03be
00000060: eff1 c7bc 1f6a 26bc 5a3b 8fbb 100f d63d
00000070: ab9a 383e de14 c0bd 1b90 9b3d e4ae 31bd
00000080: 28ad 753e 6fd4 b53c d9a6 8dbc 9489 853c
00000090: 186e 423e 2dde a63d 504d 293e 6dda 583e
000000a0: c30a 2abe 9685 bfbd 706b 463d b099 cb3d
000000b0: c3b9 34bd ed22 653e e052 a6bd 093d c43d
000000c0: 128d 92bd dc52 1fbe c394 173e fadc 58be
000000d0: 52c1 46be d97a 903e 5733 3c3b 716a 663c
000000e0: c6a7 01bf 97d3 39be 3b1c d73d 6172 0abd
000000f0: 1870 6c3e 20c6 c53c c772 5f3e c330 65be
00000100: d66b 913d 70bf ba3d e970 a83d 7d20 05bf
00000110: 9c3c 3f3e db90 2cbd 409a 753d 7adc a9bc
00000120: 75fc cb3d 162f 1fbd 0498 ac3d 8330 b8bd
00000130: 098f cbbe e0af 4cbe 3ed1 e53d f937 093f
00000140: f7af f3be 8895 d3bd 90c8 283e 6aed b33c
00000150: 4d13 85bd f652 503e 31ee 1e3e 09a8 9abc
00000160: fe75 f0bc 1c84 86bc 0b57 d43d 716e 64bf
00000170: d8ea aabe 5131 06be 0507 35be 3aa2 813e
00000180: 3e6b c4bd 7b53 813c 28f1 a7bd 1cba 0a3e
00000190: 6f17 943c f779 82bd 12f3 923e cdf2 08be
000001a0: 0b8c b03e 10e3 003d 16f3 313e b730 083d
000001b0: fa11 3ebe 3b25 403e 7078 2d3e 7b5d 883d
000001c0: ded1 db3c 7cd6 a23c e5c0 52be 41cb a63d
000001d0: 1391 063d 41f9 a7bd 63de 1abe 7a11 e5bd
000001e0: 4768 483e 0b13 483e 9685 27be e512 613c
000001f0: 2eb7 b23d bb75 cabd 4ba4 64be d2cc d1be
00000200: 5485 1b3e 5212 d4bd f5bf cfbd 885f 583c
00000210: d4dc 2fbe 5cf8 09be 1bd5 0e3e 80b3 5b3e
00000220: 4761 913d 7e45 013e 4288 183e 07c3 1c3e
00000230: 741f 45be a63e e43d e73b 063d 344f 32bc
00000240: 4daa d2be 056f e63d 5430 bc3e ebcf f9bd
00000250: 9a2b 9bbe ada5 23be b2ca 5c3c ebe2 0a3f
00000260: 7c2d 0fbd af6a 00be e31e 4d3d de86 6d3e
00000270: 2835 08be c110 983e a618 1bbd bfb8 53be
00000280: 5255 d0bd 650e 03bd d199 c9be 0ab0 8ebd
00000290: 835c 1abf ed18 c2bd a02b 21bb 4c92 8f3e
000002a0: f19a 633e 0d64 193c b1b2 16bc 3ddd f13d
000002b0: 8c67 913e ba20 9f3d 520d e5be 93bc c2be
000002c0: 7d31 c23d 5412 c6bd d892 b4bd 4369 5ebe
000002d0: e869 ab3d 2bcb 273e 6ac0 ca3b ab48 3d3e
000002e0: aded abbb 2e73 e3bd 053b d0bd 09b1 363e
000002f0: 3f18 1f3e 68fc 183e 9524 17be 57c4 36be

encode_conv4.bias f4 [8]
0.12662299 0.15844333 -0.13225217 -0.14545104 0.1972214 0.24221112 -0.16520515 0.06411847
00000000: 75a9 013e f83e 223e 1d6d 07be 1ef1 14be
00000010: 68f4 493e 3106 783e 8a2b 29be 8b50 833d

fc1.weight f4 [200, 56]
0.11222187 0.08345504 0.0863928 -0.08122794 -0.058335707 -0.13277592 -0.009669286 -0.055173997
-0.12272933 0.0841445 -0.04600799 0.025111036 0.05889491 0.05545763 0.008173231 -0.0068619214
-0.039296363 0.024411328 0.11472735 0.01794995 -0.07627141 -0.086436376 0.03649126 0.16769569
0.04140032 0.08733322 0.08703653 0.11913738 -0.096842885 -0.14735334 -0.16019428 -0.00973327
-0.047850665 0.11136361 0.037722707 -0.019847887 0.0055168862 0.012176591 0.16225854 0.1301495
0.08936336 -0.11434805 -0.05753396 0.00719232 -0.18544632 -0.047421977 0.051797293 -0.02521433
0.03378075 -0.07773938 0.13090612 -0.011653269 -0.05691933 -0.064704545 0.08754867 -0.008748871
-0.07971013 0.058216088 -0.025582928 0.10962188 0.04989515 -0.11052592 0.013252029 0.04417311
0.1396614 0.14165966 0.079267226 0.14502189 0.101437755 0.031380624 0.08677224 -0.036212664
-0.11173277 0.10632405 0.012922109 -0.049920578 0.07662827 0.075511254 0.09453583 -0.07354616
0.009959597 -0.17354107 -0.13351797 0.07217559 0.0027370846 0.11150259 -0.052371025 0.08932888
0.031197133 0.032751787 -0.039445158 0.11495225 -0.047140937 -0.12433496 -0.21046834 0.084327266
0.10105012 0.008294479 0.061200075 0.061095696 0.076201506 -0.07628596 0.01999826 -0.11135709
0.059814107 -0.094290614 0.02188988 0.12809834 -0.02434232 -0.13242106 0.013840288 0.0018486901
-0.055481542 0.066042006 -0.061943065 -0.09294121 0.029340366 -0.060021404 -0.0030911409 0.13145332
0.07505315 0.00402614 -0.08737211 0.039748725 -0.030837718 0.054331943 -0.044189285 0.018145245
-0.11724607 0.0786314 -0.017778648 -0.18103008 0.050297808 0.07133864 0.10923536 -0.04602232
-0.172224 -0.066574976 0.11671899 -0.04843309 0.0533314 0.025366617 -0.049054123 0.08799941
0.119460195 0.1203201 0.08342205 0.017244043 -0.1740387 0.12280032 -0.27076516 -0.1444056
-0.0036041648 -0.02628025 0.022397047 -0.10938198 0.26786223 0.054036997 0.02699126 0.04631317
0.072819985 0.09456421 -0.242432 -0.023671791 -0.06184883 -0.087268904 -0.10905767 0.10973829
0.045326464 0.06626433 -0.070833296 0.064127766 0.001591978 -0.14028607 0.107164204 -0.13751066
0.05043849 0.040137943 -0.15842536 -0.068242386 -0.04531845 -0.12406037 -0.08953419 -0.08518554
-0.08064994 -0.0057650786 0.038973376 0.06916295 0.091041 -0.13730805 -0.19350529 0.19233431
0.13618046 0.007778269 -0.09686561 0.01818662 -0.120513156 -0.096254736 -0.0703607 0.056329627
-0.14415386 -0.14301835 -0.1488134 0.09954036 0.094164 0.098900296 0.21000956 0.1127543
0.12437236 -0.13432229 0.032366972 -0.025847197 0.030448286 0.09366875 0.15364748 -0.07262212
-0.07149141 -0.09057968 0.06417827 0.040129606 -0.042117596 0.14321381 -0.08139206 -0.029473199
0.09303326 -0.1127728 0.037588518 -0.069813326 -0.07198493 0.070724264 -0.10905792 -0.13366283
-0.05650929 0.010885086 -0.019535962 0.12195156 -0.07499125 0.1184868 0.12191796 -0.14426255
0.20844041 -0.03026518 0.09593375 0.010764041 0.05442675 0.033453397 0.047711078 0.38888505
0.37084743 -0.06410711 0.057568487 0.05962228 0.07100892 0.11866611 0.08743612 0.13169453
00000000: 94d4 e53d 7aea aa3d b5ee b03d d65a a6bd
00000010: 6cf1 6ebd 69f6 07be ed6b 1ebc 21fe 61bd
00000020: 8459 fbbd f453 ac3d e072 3cbd a9b5 cd3c
00000030: ca3b 713d 8a27 633d 04e9 053c f8d9 e0bb
00000040: 39f5 20bd 44fa c73c 2cf6 ea3d c60b 933c
00000050: 2f34 9cbd 8e05 b1bd dc77 153d 6bb8 2b3e
00000060: 6293 293d c2db b23d 3540 b23d 4cfe f33d
00000070: 9055 c6bd cbe3 16be f809 24be 4b78 1fbc
00000080: 0fff 43bd 9b12 e43d 2083 1a3d 0998 a2bc
00000090: ffc6 b43b 5380 473c 1a27 263e e945 053e
000000a0: 2304 b73d 4f2f eabd bba8 6bbd 8ead eb3b
000000b0: a4e5 3dbe 8c3d 42bd 6629 543d 488e cebc
000000c0: af5d 0a3d d335 9fbd 410c 063e 5aed 3ebc
000000d0: 3e24 69bd d183 84bd b84c b33d 6d57 0fbc
000000e0: 113f a3bd fe73 6e3d 4a93 d1bc 7081 e03d
000000f0: db5e 4c3d 6a5b e2bd 0a1f 593c ddee 343d
00000100: 6603 0f3e 3b0f 113e db56 a23d 9e80 143e
00000110: 99be cf3d f888 003d a5b5 b13d bb53 14bd
00000120: 27d4 e4bd 6cc0 d93d 41b7 533c 8579 4cbd
00000130: 48ef 9c3d a5a5 9a3d 009c c13d 5e9f 96bd
00000140: 942d 233c c0b4 31be efb8 08be ccd0 933d
00000150: a960 333b 785b e43d 0083 56bd 0ff2 b63d
00000160: 2191 ff3c bd26 063d 3f91 21bd 166c eb3d
00000170: db16 41bd 54a3 febd 0385 57be c6b3 ac3d
00000180: 5ef3 ce3d 91e5 073c eeac 7a3d 7b3f 7a3d
00000190: 890f 9c3d d03b 9cbd 64d3 a33c 300f e4bd
000001a0: a3ff 743d 701b c1bd 6852 b33c 362c 033e
000001b0: 8c69 c7bc 6399 07be 60c2 623c bf4f f23a
000001c0: 9d40 63bd 0841 873d 03b8 7dbd f657 bebd
000001d0: 355b f03c 01d9 75bd bd94 4abb b39b 063e
000001e0: 77b5 993d b6ed 833b 26f0 b2bd 8fcf 223d
000001f0: 629f fcbc 2c8b 5e3d d3ff 34bd 56a5 943c
00000200: b51e f0bd 8009 a13d 87a4 91bc f35f 39be
00000210: 1305 4e3d fe19 923d cab6 df3d e681 3cbd
00000220: 7d5b 30be 7658 88bd 5e0a ef3d c761 46bd
00000230: 0772 5a3d a7cd cf3c faec 48bd 0939 b43d
00000240: 8ca7 f43d 626a f63d 2ed9 aa3d 6143 8d3c
00000250: 3337 32be bc7e fb3d bba1 8abe 10df 13be
00000260: da33 6cbb ae49 d7bc 037a b73c a903 e0bd
00000270: 3d25 893e e655 5d3d c61c dd3c e1b2 3d3d
00000280: a522 953d e1aa c13d 1840 78be 58eb c1bc
00000290: 3355 7dbd 0aba b2bd a159 dfbd 78be e03d
000002a0: 3ea8 393d 98b5 873d 0c11 91bd 6b55 833d
000002b0: eba9 d03a 27a7 0fbe e878 db3d 98cf 0cbe
000002c0: 9798 4e3d af67 243d 423a 22be aac2 8bbd
000002d0: d79f 39bd 5d13 febd b45d b7bd c275 aebd
000002e0: cc2b a5bd fce8 bcbb 8ca2 1f3d 4ea5 8d3d
000002f0: b473 ba3d 7b9a 0cbe 4026 46be 49f3 443e
00000300: e472 0b3e d9e0 fe3b 7a61 c6bd 1bfc 943c
00000310: 9acf f6bd 3421 c5bd 4519 90bd e5b9 663d
00000320: 129d 13be 6773 12be 8a62 18be d1db cb3d
00000330: 0ed9 c03d 3d8c ca3d bf0c 573e baeb e63d
00000340: f0b6 fe3d c88b 09be 3b93 043d 80bd d3bc
00000350: af6e f93c 67d5 bf3d c455 1d3e e8ba 94bd
00000360: 176a 92bd d781 b9bd e66f 833d f15e 243d
00000370: 8083 2cbd a4a6 123e e1b0 a6bd c771 f1bc
00000380: 3988 be3d 6df5 e6bd 6bf6 193d 4afa 8ebd
00000390: d66c 93bd e2d7 903d c259 dfbd e9de 08be
000003a0: 4976 67bd 5c57 323c e209 a0bc bdc1 f93d
000003b0: 0395 99bd 35a9 f23d 20b0 f93d 90b9 13be
000003c0: 6771 553e afee f7bc ea78 c43d a95b 303c
000003d0: 95ee 5e3d 6e06 093d b16c 433d f11b c73e
000003e0: b7df bd3e 974a 83bd efcc 6b3d 7e36 743d
000003f0: 206d 913d 3807 f33d b511 b33d eeda 063e

fc1.bias f4 [200]
-0.12003856 0.08775111 0.07540017 -0.03330319 -0.1475591 -0.007865061 -0.101994835 -0.04077718
-0.08916477 0.086388044 0.11121283 -0.15850465 0.059930883 -0.0656343 -0.058224212 0.04906997
0.05476519 -0.10252137 0.022795282 -0.0072243228 0.159293 0.1070694 0.07835876 -0.13368359
0.028333563 0.11237182 0.109283574 -0.16363476 0.06831791 0.0053311745 0.10176917 0.03695923
-0.06255384 0.031095564 -0.085120246 -0.0111331865 0.0868781 0.10395531 -0.031399976 0.064282514
-0.05518354 -0.02845278 0.027448956 0.15098588 -0.07918274 -0.035767503 -0.11696405 0.09882552
0.090972655 0.06145302 -0.0853899 0.030090429 -0.050767835 0.07121642 -0.034581088 0.0021716603
-0.07243423 -0.007979302 0.06995378 -0.08666719 -0.0044178823 0.08641778 -0.06231709 0.03322522
-0.099478506 0.05225714 0.03576455 0.08158923 -0.06708749 -0.14612548 -0.08227242 0.09139344
0.11880309 -0.13148227 -0.20316799 0.0534556 -0.07970781 -0.0649331 -0.14017154 -0.043646716
0.14466701 -0.10751487 0.08516819 0.026694218 0.12612598 -0.097344354 -0.08274288 0.14524995
-0.113152474 0.08794225 0.106330164 -0.117308736 0.091251425 0.060722407 -0.0014219509 -0.016508741
-0.032265086 -0.022498284 0.11131489 -0.06591612 0.044522636 -0.034808937 0.0057614623 0.010643711
0.10983547 -0.042236116 -0.13534676 0.024008717 -0.038731806 0.073832385 -0.024902785 -0.10864487
-0.09822128 -0.028718507 0.12810707 0.017873304 0.0020157043 -0.0025943934 -0.107899025 -0.013804986
0.0036679646 0.119265884 -0.003310833 -0.023717713 0.106104895 -0.09681227 0.13384405 0.029545968
-0.060798418 0.020660017 -0.007934424 -0.11730211 0.15027903 0.0863394 0.026398188 -0.09199162
0.10140908 0.11372446 -0.1018633 0.07432523 -0.067890644 -0.06849564 -0.050213743 0.099923044
0.13415454 0.11625078 0.08305472 -0.116913415 -0.04671978 -0.046347145 -0.025720965 -0.040809963
-0.12848152 -0.108576186 0.046830036 -0.09060283 -0.02056521 -0.008671661 0.058164667 0.07094847
-0.11806261 0.12760524 -0.024022225 0.050336868 -0.15059105 -0.060246702 0.13416131 0.099886164
-0.09417445 0.01920523 0.12479128 0.08852039 0.053316005 -0.055998456 0.038278755 -0.028652232
-0.13635984 0.015313785 -0.088118404 -0.10334994 -0.028396824 0.08573843 0.03761797 -0.07316206
-0.058254283 -0.15226206 0.07013719 0.033173215 -0.06729942 -0.08078761 -0.112938575 0.078679115
0.1104326 -0.043304533 0.0911815 0.074706316 0.053471383 0.13500425 0.016931513 -0.10616433
00000000: c7d6 f5bd dbb6 b33d 686b 9a3d ed68 08bd
00000010: bc19 17be 75dc 00bc abe2 d0bd f905 27bd
00000020: 059c b6bd 37ec b03d 8dc3 e33d 0b4f 22be
00000030: 167a 753d 476b 86bd 837c 6ebd 98fd 483d
00000040: 7751 603d b9f6 d1bd 2cbd ba3c 03ba ecbb
00000050: b41d 233e 3447 db3d 8f7a a03d 5ae4 08be
00000060: ca1b e83c 3223 e63d 11d0 df3d df8f 27be
00000070: 43ea 8b3d 22b1 ae3b 5b6c d03d 9062 173d
00000080: 3a1c 80bd 20bc fe3c 8653 aebd f867 36bc
00000090: 25ed b13d 86e6 d43d 439d 00bd 8da6 833d
000000a0: 2308 62bd ce15 e9bc a2dc e03c 0b9c 1a3e
000000b0: 8f2a a2bd f280 12bd d98a efbd 0965 ca3d
000000c0: df4f ba3d 29b6 7b3d e6e0 aebd 3480 f63c
000000d0: eff1 4fbd ead9 913d e6a4 0dbd 6a52 0e3b
000000e0: 6658 94bd 9ebb 02bc ed43 8f3d 917e b1bd
000000f0: e2c3 90bb cefb b03d 3440 7fbd 2b17 083d
00000100: 63bb cbbd 950b 563d d97d 123d 4118 a73d
00000110: 2a65 89bd eba1 15be 717e a8bd 7c2c bb3d
00000120: 094f f33d 4aa3 06be 450b 50be 42f4 5a3d
00000130: d93d a3bd a5fb 84bd 2189 0fbe e6c6 32bd
00000140: 9723 143e c230 dcbd a96c ae3d d5ad da3c
00000150: 2b27 013e 7a5c c7bd 1975 a9bd 67bc 143e
00000160: 7cbc e7bd 111b b43d a1c3 d93d 903f f0bd
00000170: 07e2 ba3d 0fb8 783d c160 baba 573d 87bc
00000180: 6528 04bd 524e b8bc 10f9 e33d 08ff 86bd
00000190: 5e5d 363d d193 0ebd a6ca bc3b f662 2e3c
000001a0: 6bf1 e03d c7ff 2cbd 5798 0abe eead c43c
000001b0: 3ea5 1ebd 6f35 973d ed00 ccbc 3481 debd
000001c0: 3d28 c9bd 1343 ebbc 802e 033e 096b 923c
000001d0: e819 043b b306 2abb 2afa dcbd 4f2e 62bc
000001e0: 3c62 703b ac41 f43d 8ffa 58bb a64b c2bc
000001f0: 864d d93d 8345 c6bd 6a0e 093e 630a f23c
00000200: c307 79bd 323f a93c 63ff 01bc 173c f0bd
00000210: bfe2 193e b6d2 b03d 0341 d83c 1a66 bcbd
00000220: 90af cf3d 5fe8 e83d b59d d0bd d437 983d
00000230: 400a 8bbd 7147 8cbd edac 4dbd 74a4 cc3d
00000240: cf5f 093e e414 ee3d 9818 aa3d 4d70 efbd
00000250: 3d5d 3fbd 81d6 3dbd c6b4 d2bc 5928 27bd
00000260: a990 03be 315d debd dad0 3f3d fa8d b9bd
00000270: 5f78 a8bc 9513 0ebc 133e 6e3d 6e4d 913d
00000280: cfca f1bd f3aa 023e 42ca c4bc 082e 4e3d
00000290: 8a34 1abe 3fc5 76bd 9561 093e 1e91 cc3d
000002a0: 89de c0bd 4954 9d3c 9292 ff3d 2e4a b53d
000002b0: e261 5a3d a35e 65bd 2fca 1c3d 16b8 eabc
000002c0: eaa1 0bbe abe6 7a3c 6c77 b4bd 22a9 d3bd
000002d0: 75a0 e8bc a197 af3d 4d15 1a3d fdd5 95bd
000002e0: 0b9c 6ebd 96ea 1bbe 16a4 8f3d a3e0 073d
000002f0: 47d4 89bd f973 a5bd 574c e7bd 8422 a13d
00000300: 7d2a e23d 1860 31bd 5ebd ba3d a0ff 983d
00000310: cf04 5b3d 8e3e 0a3e f5b3 8a3c af6c d9bd

fc3.weight f4 [25, 200]
0.017302057 0.046910964 0.029058479 -0.08145446 0.03139361 0.06815855 0.11402845 -0.20278569
-0.0129050305 0.08266913 0.064128615 0.04058195 0.0056016585 0.0022237431 0.042142507 0.060901266
-0.09801621 0.09329204 0.05373255 -0.07152978 0.07235411 0.056339275 0.06273887 0.07393268
0.04197436 0.008647449 0.08146755 0.07195975 -0.021838648 0.11377555 0.07749808 -0.04453917
0.072046526 -0.0016219764 0.02881664 0.13377908 0.0231109 -0.030158786 -0.097229585 -0.03091703
0.048690047 -0.44383827 -0.018379947 0.01013822 0.26370835 -0.07678118 -0.06812326 0.03412396
0.047082257 0.0042092283 -0.06862709 -0.056615822 -0.017630294 -0.0068720365 -0.030468808 0.048080027
-0.0024211318 -0.06876281 0.071266636 0.18869092 -0.02131158 0.17397405 0.069215134 0.010068676
-0.039460536 0.062072463 -0.113817565 0.17676842 -0.09184043 -0.027335597 0.0030235765 0.048513774
0.005290061 -0.07266166 0.26049608 0.05701975 -0.03415263 0.019633122 -0.09121442 0.13683604
0.052489955 0.015140723 0.011828348 0.014222685 0.020297159 0.12233324 0.081805 0.13475291
-0.053854838 0.007650469 0.00083722477 -0.094958365 -0.029955227 0.00096548843 -0.004248682 -0.077051565
0.06291187 0.05801235 0.07552144 -0.02061898 0.045914218 -0.05055507 0.037947517 -0.06410714
-0.09139811 0.0374307 -0.044973798 0.046203066 0.035621386 0.05072574 0.016095523 0.3043011
-0.13890395 0.0072505805 0.069792576 0.034522846 0.06048883 -0.20322578 0.029992249 -0.08123737
-0.053463463 0.047322977 0.062012415 0.018391958 0.0014827756 -0.015761897 -0.035339575 0.09870348
0.04401748 0.07567715 0.059211314 -0.343524 0.06734613 -0.041827306 0.041644126 -0.09546957
0.037491597 0.05752014 -0.085448496 0.056093007 -0.16246848 0.01601555 -0.044957206 0.0044720597
0.071979485 -0.04077054 0.081623696 -0.0796171 -0.014912132 0.15300661 0.10089684 -0.011499374
-0.40731525 -0.060216535 0.03376495 -0.08057162 -0.26729435 -0.18525352 0.02458934 0.08472629
-0.07519274 -0.016186465 0.09240555 0.042638108 -0.09878568 -0.0035230706 0.022200625 0.08341009
0.07527419 0.049190722 0.08586192 0.025751255 0.0060657873 0.055630468 0.015151372 0.013068343
-0.03748978 0.12817483 -0.10036334 0.02594439 -0.13234769 -0.011177652 0.1124417 0.0045284536
-0.083724074 0.030832062 0.055732977 -0.018608147 -0.09117544 -0.069983594 -0.027292024 0.06280032
-0.017226148 0.032393303 0.061794166 0.05871033 -0.04087185 -0.12052601 -0.03416013 -0.032491945
-0.055874325 0.0126069775 -0.0095938705 0.0015361953 -0.021755967 0.052381143 0.0941787 -0.17929517
0.041225124 0.0136078885 0.06513046 -0.058175758 -0.0036927743 -0.098683685 0.041340325 0.085472904
0.014158954 -0.020774392 0.067154214 0.011842924 0.07592032 -0.026487518 0.0716011 -0.016317869
0.09686622 0.07833689 0.026540149 0.16063271 0.001195681 0.14310043 -0.0069469684 -0.009578339
0.06457483 0.06329596 0.05730809 0.0917431 -0.035084356 -0.011979452 -0.09244492 -0.010559047
0.077458076 -0.54840285 0.09782929 0.04592845 0.17255431 -0.037512023 -0.06589785 -0.016710855
0.122613065 -0.04445575 0.04045677 -0.04450363 -0.0086764395 -0.0016032419 -0.06623519 0.020349946
00000000: 0bbd 8d3c b625 403d 0c0c ee3c 99d1 a6bd
00000010: 9696 003d b696 8b3d bf87 e93d 0da7 4fbe
00000020: 9f6f 53bc 6f4e a93d dd55 833d 4239 263d
00000030: 1e8e b73b 38bc 113b 9f9d 2c3d 9b73 793d
00000040: b9bc c8bd e60f bf3d aa16 5c3d 357e 92bd
00000050: 642e 943d 03c4 663d 3d7d 803d 046a 973d
00000060: 4eed 2b3d 08ae 0d3c 75d8 a63d a25f 933d
00000070: f7e6 b2bc 2803 e93d 50b7 9e3d b46e 36bd
00000080: 218d 933d 7f98 d4ba e010 ec3c 62fd 083e
00000090: 1253 bd3c 8f0f f7bc 4e20 c7bd b645 fdbc
000000a0: 376f 473d c53e e3be 8b91 96bc c71a 263c
000000b0: c804 873e 743f 9dbd 3584 8bbd 91c5 0b3d
000000c0: 53d9 403d 91ed 893b 5c8c 8cbd fee5 67bd
000000d0: 686d 90bc d22e e1bb b999 f9bc 90ef 443d
000000e0: daab 1ebb 84d3 8cbd 3ef4 913d 3138 413e
000000f0: 9f95 aebc 4126 323e aac0 8d3d 17f7 243c
00000100: 5fa1 21bd b23f 7e3d 2f19 e9bd c802 353e
00000110: d616 bcbd e7ee dfbc 3227 463b 61b6 463d
00000120: 3f58 ad3b a3cf 94bd be5f 853e 8b8d 693d
00000130: a1e3 0bbd a4d5 a03c a0ce babd bf1e 0c3e
00000140: b5ff 563d cc10 783c b0cb 413c 4406 693c
00000150: 3a46 a63c da89 fa3d 6189 a73d abfc 093e
00000160: e496 5cbd c9b0 fa3b 3479 5b3a 8879 c2bd
00000170: aa64 f5bc d518 7d3a 8738 8bbb 36cd 9dbd
00000180: f0d7 803d 5c9e 6d3d fcaa 9a3d 23e9 a8bc
00000190: 8c10 3c3d d512 4fbd db6e 1b3d 9b4a 83bd
000001a0: ef2e bbbd ef50 193d 7236 38bd 6d3f 3d3d
000001b0: bbe7 113d cbc5 4f3d c2da 833c 5bcd 9b3e
000001c0: d63c 0ebe 4796 ed3b 69ef 8e3d d467 0d3d
000001d0: 23c3 773d 6b1a 50be 4eb2 f53c c75f a6bd
000001e0: 81fc 5abd bdd5 413d bb00 7e3d bbaa 963c
000001f0: b159 c23a 181f 81bc 3bc0 10bd 0d25 ca3d
00000200: ac4b 343d 9ffc 9a3d 9087 723d 61e2 afbe
00000210: c5ec 893d 1c53 2bbd 0893 2a3d 8d85 c3bd
00000220: ca90 193d 3d9a 6b3d 9fff aebd c8c1 653d
00000230: 235e 26be 0b33 833c 0c25 38bd 5b8a 923b
00000240: fb69 933d 02ff 26bd 532a a73d 4a0e a3bd
00000250: 0452 74bc c4ad 1c3e 01a3 ce3d df67 3cbc
00000260: a08b d0be 9da5 76bd 1e4d 0a3d bc02 a5bd
00000270: ceda 88be 19b3 3dbe 956f c93c fa84 ad3d
00000280: a7fe 99bd 7a99 84bc 1f3f bd3d 4ca5 2e3d
00000290: 2650 cabd 51e3 66bb 16de b53c e9d2 aa3d
000002a0: 5b29 9a3d 367c 493d 60d8 af3d 4cf4 d23c
000002b0: 83c3 c63b c6dc 633d 763d 783c 9a1c 563c
000002c0: e28e 19bd 4340 033e 4b8b cdbd 5489 d43c
000002d0: 2786 07be 7822 37bc d647 e63d 6c63 943b
000002e0: 8777 abbd 8593 fc3c 4348 643d 1d70 98bc
000002f0: 30ba babd 8f53 8fbd 8693 dfbc 749d 803d
00000300: da1d 8dbc d7ae 043d e11b 7d3d 3e7a 703d
00000310: 3e69 27bd 57d6 f6bd 7eeb 0bbd 4616 05bd
00000320: 7adc 64bd 7f8d 4e3c 9c2f 1dbc 295a c93a
00000330: 9239 b2bc 9c8d 563d c3e0 c03d 2799 37be
00000340: addb 283d 9ff3 5e3c 1e63 853d b449 6ebd
00000350: 7902 72bb ac1a cabd 7954 293d 6b0c af3d
00000360: f5fa 673c 0f2f aabc 2688 893d d308 423c
00000370: 1d7c 9b3d 5afc d8bc 99a3 923d 0dad 85bc
00000380: cc61 c63d 176f a03d ba6a d93c e77c 243e
00000390: 66b8 9c3a eb88 123e 65a3 e3bb 77ee 1cbc
000003a0: cf3f 843d 50a1 813d e3bb 6a3d cee3 bb3d
000003b0: 9db4 0fbd 7745 44bc c353 bdbd daff 2cbc
000003c0: 57a2 9e3d 2164 0cbf b95a c83d 781f 3c3d
000003d0: 14b2 303e 35a6 19bd 74f5 86bd 34e5 88bc
000003e0: 8f1c fb3d 3c17 36bd 00b6 253d 7049 36bd
000003f0: a027 0ebc df23 d2ba 51a6 87bd eeb4 a63c

fc3.bias f4 [25]
0.06674328 -0.012494389 0.05748396 -0.04112124 0.019209795 -0.018838378 0.08621062 0.06554275
0.009810802 0.0051774937 0.063590296 0.03944078 -0.07366294 -0.044876184 -0.063859835 -0.047593888
-0.09722344 -0.0053875246 0.023108771 -0.0029771514 -0.09125386 -0.074896336 0.04014909 0.0012508427
-0.058168035
00000000: b3b0 883d 44b5 4cbc 4d74 6b3d bf6e 28bd
00000010: dc5d 9d3c f152 9abc 328f b03d 473b 863d
00000020: 7cbd 203c f7a7 a93b a13b 823d a88c 213d
00000030: 98dc 96bd 17d0 37bd f2c8 82bd cff1 42bd
00000040: 151d c7bd d589 b0bb 9b4e bd3c 501c 43bb
00000050: 4ee3 babd 4063 99bd 5f73 243d 51f3 a33a
00000060: 9b41 6ebd
