training_model/wandb/run-20200619_005640-242r74ue/AE_1.pt (torch_old, 649211 bytes, 20 tensors)

encode_conv1.weight f4 [4, 2, 3]
0.19522314 -0.18222186 -0.27613354 0.18555003 0.12772521 0.29484078 0.18017407 -0.37886012
-0.0557135 0.17354037 0.279139 -0.3893623 0.08891993 -0.13229686 0.34028247 0.15761323
-0.3680912 -0.20269321 -0.030767452 0.002187568 0.25052258 0.13730142 -0.39708233 -0.018043147
00000000: 93e8 473e 5e98 3abe 6061 8dbe d400 3e3e
00000010: 66ca 023e 5ff5 963e 8d7f 383e f4f9 c1be
00000020: d733 64bd 91b4 313e 4feb 8e3e 7f5a c7be
00000030: a71b b63d d478 07be 8139 ae3e 5d65 213e
00000040: 7376 bcbe cf8e 4fbe 060c fcbc 4d5d 0f3b
00000050: 7f44 803e be98 0c3e 604e cbbe 39cf 93bc

encode_conv1.bias f4 [4]
-0.09395941 -0.08051206 -0.18994023 -0.33959183
00000000: cb6d c0bd 82e3 a4bd b17f 42be fbde adbe

encode_conv2.weight f4 [4, 4, 3]
0.21682268 -0.15961064 -0.19076751 0.16513729 -0.2397489 -0.24245806 -0.24456236 0.05279918
0.13672854 0.031652775 0.000856394 -0.28768 -0.0035509947 0.0062700454 0.23841502 -0.19049163
-0.22877571 0.0256176 -0.2338585 -0.0011620749 -0.2820559 -0.016285876 -0.07161626 0.024000803
0.15466923 -0.075458 -0.11205996 -0.07911625 0.21059148 0.17938088 0.21192263 0.15480275
0.12584122 0.025901988 -0.057432994 -0.110477105 0.24050495 0.1930938 -0.2532863 -0.080257535
0.14706527 0.28023705 -0.08979925 0.14551826 -0.14354944 -0.197864 -0.2542073 0.053084765
00000000: c406 5e3e f970 23be 8f58 43be c019 293e
00000010: bc80 75be ed46 78be 8e6e 7abe f443 583d
00000020: 9102 0c3e 57a6 013d a17f 603a cb4a 93be
00000030: ceb7 68bb f474 cd3b 1123 743e 3d10 43be
00000040: 2e44 6abe 00dc d13c 9a78 6fbe c350 98ba
00000050: a269 90be f569 85bc 8cab 92bd 559d c43c
00000060: 9c61 1e3e b989 9abd b17f e5bd b307 a2bd
00000070: 4ba5 573e 9faf 373e 3f02 593e 9d84 1e3e
00000080: 85dc 003e 6830 d43c dc3e 6bbd d241 e2bd
00000090: ee46 763e 62ba 453e beae 81be 105e a4bd
000000a0: 4798 163e 3b7b 8f3e abe8 b7bd bd02 153e
000000b0: a0fe 12be dc9c 4abe 7627 82be 696f 593d

encode_conv2.bias f4 [4]
-0.062260494 -0.11742948 0.15772381 -0.089982696
00000000: dc04 7fbd de7e f0bd 5a82 213e d948 b8bd

encode_conv3.weight f4 [8, 4, 3]
-0.1678748 -0.087367415 0.22232872 -0.24378121 0.25881472 -0.26314765 0.061781496 -0.12085458
-0.1395694 0.013199175 0.21132721 -0.124374114 -0.032368883 -0.07915811 -0.13827834 -0.19814499
-0.09419232 -0.04489733 -0.054915067 0.03819668 0.23614086 0.076683335 0.073938094 0.050066553
1.2611443e-05 -0.056360163 -0.15683101 -0.20654032 0.022666331 0.1104294 -0.06364472 -0.21897209
-0.27310523 -0.26162702 -0.2111589 0.2371173 -0.08010843 0.013526608 -0.1237088 0.26535442
0.06677398 0.021561611 0.08821376 0.0091109695 0.034755357 0.28394336 -0.22973394 0.12739168
0.044205487 -0.035633586 -0.07574145 0.27986577 0.063066736 -0.034235656 0.006168045 0.2034006
0.155288 0.15048139 -0.07034213 0.17880493 -0.034474663 0.0004920951 0.0049290345 0.0050723706
0.26978663 0.26336133 -0.12892407 -0.27392092 0.13670132 0.0018498341 0.12201206 -0.13979362
-0.122344315 0.0070089772 0.062237613 -0.13574572 0.22378086 -0.22064698 -0.10612808 0.24627808
0.10792428 0.13165508 -0.25246075 -0.13392414 0.22436415 0.036033902 -0.068613335 -0.17756566
-0.1544186 -0.044349752 0.06326649 -0.22359042 0.13862918 0.069178954 -0.23532511 -0.10140019
00000000: 5fe7 2bbe b0ed b2bd 24aa 633e c8a1 79be
00000010: 5d83 843e 4abb 86be 980e 7d3d 9b82 f7bd
00000020: 48eb 0ebe 5a41 583c 2966 583e dbb7 febd
00000030: 3c95 04bd a61d a2bd d698 0dbe 85e6 4abe
00000040: e7e7 c0bd 43e6 37bd 9fee 60bd 1f74 1c3d
00000050: e9ce 713e 270c 9d3d db6c 973d 9612 4d3d
00000060: bc95 5337 ead9 66bd 4f98 20be 4e7f 53be
00000070: beae b93c cf28 e23d 2a58 82bd 383a 60be
00000080: 73d4 8bbe faf3 85be 0a3a 58be e1ce 723e
00000090: e30f a4bd b59e 5d3c 0a5b fdbd 89dc 873e
000000a0: ccc0 883d faa1 b03c 6aa9 b43d 2d46 153c
000000b0: a25b 0e3d 0661 913e 603f 6bbe f772 023e
000000c0: d010 353d 86f4 11bd 551e 9bbd 914a 8f3e
000000d0: 2229 813d b03a 0cbd 501d ca3b 3f48 503e
000000e0: d103 1f3e cb17 1a3e 890f 90bd a418 373e
000000f0: 4e35 0dbd f1ff 003a bd83 a13b 2136 a63b
00000100: 7921 8a3e 4cd7 863e ac04 04be 5d3f 8cbe
00000110: 6efb 0b3e 2276 f23a 75e1 f93d 0f26 0fbe
00000120: a88f fabd 90ab e53b deec 7e3d ed00 0bbe
00000130: cf26 653e 48f1 61be ae59 d9bd 5230 7c3e
00000140: 6807 dd3d 97d0 063e 8942 81be 6923 09be
00000150: b7bf 653e 4998 133d 2685 8cbd c6d3 35be
00000160: e91f 1ebe 16a8 35bd dd91 813d e3f4 64be
00000170: cff4 0d3e b2ad 8d3d 11f9 70be e7aa cfbd

encode_conv3.bias f4 [8]
0.09724425 0.26783717 0.09322215 0.17725717 -0.266494 0.11956338 -0.24504927 -0.0792938
00000000: fe27 c73d f421 893e 41eb be3d e782 353e
00000010: e771 88be a5dd f43d 32ee 7abe ca64 a2bd

encode_conv4.weight f4 [8, 8, 3]
0.10143405 0.09598455 0.15662791 0.07621897 -0.06512398 0.16257815 -0.015667392 0.16094796
-0.17009537 -0.021384962 0.02162728 0.015217631 0.036660455 0.1100907 -0.022271367 0.06051651
0.13283679 0.15781622 -0.049555305 -0.12344301 -0.05653389 0.09067066 -0.044386573 -0.19593415
0.023280228 0.12033686 0.02675879 0.010384982 0.0962118 0.008326639 0.09691405 0.06741532
0.0126460735 0.13749924 -0.20079528 -0.10354487 -0.16962838 0.1700494 0.10308478 0.13896878
-0.12435168 -0.020438604 -0.1309486 -0.090339005 -0.08081057 0.079566024 0.13276511 -0.100232005
-0.12729329 0.03468606 0.016594714 -0.13896538 0.046524704 0.17131327 0.19982305 0.19364971
-0.16007766 0.016072232 -0.06781358 -0.050287575 -0.060400788 0.02894065 0.0054302285 -0.12828131
0.1711722 0.17584966 -0.15126191 0.08608528 0.07035009 -0.00848733 -0.1034675 0.1576047
-0.13661088 -0.06396442 0.10713513 0.18341169 0.10969086 -0.1153331 -0.19810037 -0.05726241
-0.16340464 0.13290742 0.121244654 -0.16740742 -0.027121194 -0.036248714 -0.006445583 0.0514661
0.17237605 -0.036683988 0.17544486 -0.07338258 -0.07335913 0.0019959868 0.075027846 0.10170818
0.058699183 0.20138417 -0.0055911997 -0.028086884 -0.17196849 -0.068368725 -0.034565914 0.0664481
0.1705012 0.17331658 0.05115629 0.086701825 -0.06259103 0.051887527 -0.19028719 0.08043748
-0.13544555 0.036163148 -0.16405672 -0.134485 -0.18467517 -0.16820925 -0.11408752 -0.11803246
0.095305756 0.2038729 -0.1521698 0.052994594 -0.09295741 0.1853712 0.09271657 0.19834726
0.0071896035 -0.15320809 0.08351063 -0.19253497 0.007193271 -0.078551896 0.115149036 0.13409778
-0.11170649 -0.16452697 -0.20526259 -0.052293 0.1036537 0.008209334 -0.16640003 -0.028587716
0.023702217 -0.15770604 0.10029823 -0.085177906 -0.08502098 0.19103785 0.047320664 -0.06577744
0.10536598 -0.06718758 0.14675783 -0.019122064 0.04353657 -0.0740563 0.15750194 0.034833804
0.15855676 -0.015677508 -0.009180434 0.05790023 -0.12687975 0.06787431 -0.046415657 0.17647612
-0.06638557 -0.13820224 -0.05241775 -0.14911385 -0.06362286 0.11942712 -0.15132178 0.14687195
0.07502163 -0.013473997 0.07906282 0.14045314 0.19246046 -0.20268281 0.12196829 -0.16312529
-0.08484323 0.15139727 0.043145813 0.15485999 -0.18788905 0.024743726 -0.12957184 -0.059764944
00000000: a8bc cf3d 8c93 c43d 1163 203e b118 9c3d
00000010: b95f 85bd e37a 263e e758 80bc 8bcf 243e
00000020: 7b2d 2ebe 842f afbc b22b b13c 5f53 793c
00000030: 4629 163d 3c77 e13d 7172 b6bc 29e0 773d
00000040: 5e06 083e 939a 213e 81fa 4abd b0cf fcbd
00000050: 1590 67bd 8ab1 b93d b2ce 35bd f6a2 48be
00000060: 2db6 be3c 2c73 f63d 4035 db3c c625 2a3c
00000070: b10a c53d 756c 083c e07a c63d 0b11 8a3d
00000080: 7a31 4f3c 9acc 0c3e 479d 4dbe 550f d4bd
00000090: 10b3 2dbe 6e21 2e3e 1d1e d33d d54d 0e3e
000000a0: 18ac febd dc6e a7bc 6417 06be a803 b9bd
000000b0: 0380 a5bd 83f3 a23d 94f3 073e 7046 cdbd
000000c0: 2c59 02be f812 0e3d a3f1 873c f14c 0ebe
000000d0: b090 3e3d bf6c 2f3e 6a9e 4c3e 1c4c 463e
000000e0: 66eb 23be eaa9 833c d9e1 8abd 58fa 4dbd
000000f0: d166 77bd f114 ed3c 0ff0 b13b 2d5c 03be
00000100: c447 2f3e ef11 343e 67e4 1abe 7b4d b03d
00000110: b513 903d 710e 0bbc c5e6 d3bd 2063 213e
00000120: b9e3 0bbe c7ff 82bd aa69 db3d 46d0 3b3e
00000130: 9aa5 e03d c333 ecbd d3da 4abe fd8b 6abd
00000140: 8c53 27be e218 083e 1e4f f83d da6c 2bbe
00000150: 442d debc 8879 14bd 7835 d3bb 1ece 523d
00000160: 5983 303e f341 16bd d1a7 333e 9b49 96bd
00000170: 503d 96bd 1acf 023b 33a8 993d 614c d03d
00000180: 8e6e 703d a737 4e3e 6236 b7bb 7716 e6bc
00000190: 8218 30be e704 8cbd fd94 0dbd f115 883d
000001a0: de97 2e3e e779 313e 4289 513d ba90 b13d
000001b0: ba2f 80bd 0488 543d a5da 42be 68bc a43d
000001c0: 3db2 0abe cf1f 143d 7cfe 27be 70b6 09be
000001d0: 7d1b 3dbe 0c3f 2cbe b8a6 e9bd 01bb f1bd
000001e0: aa2f c33d 0fc4 503e 66d2 1bbe dc10 593d
000001f0: 7460 bebd f3d1 3d3e 2fe2 bd3d 8b1b 4b3e
00000200: c496 eb3b 95e2 1cbe 9f07 ab3d e327 45be
00000210: 88b5 eb3b d1df a0bd 42d3 eb3d ee50 093e
00000220: 5fc6 e4bd c279 28be 5b30 52be 2f31 56bd
00000230: 6448 d43d 7180 063c c564 2abe c930 eabc
00000240: 272b c23c b17d 21be 2969 cd3d c171 aebd
00000250: 7b1f aebd 6d9f 433e 50d3 413d 53b6 86bd
00000260: 1eca d73d a499 89bd af47 163e e0a5 9cbc
00000270: 6753 323d d4aa 97bd 3048 213e e4ad 0e3d
00000280: b45c 223e 1e6e 80bc 8869 16bc cb28 6d3d
00000290: c4ec 01be b001 8b3d 581e 3ebd 28b6 343e
000002a0: 28f5 87bd e384 0dbe ffb3 56bd 4db1 18be
000002b0: b44c 82bd 3596 f43d 19f4 1abe 9a65 163e
000002c0: f1a4 993d 0ac2 5cbc b0eb a13d f3d2 0f3e
000002d0: 5b14 453e 158c 4fbe 83ca f93d 510a 27be
000002e0: 4ac2 adbd e307 1b3e aab9 303d 9e93 1e3e
000002f0: fd65 40be 5bb3 ca3c 7bae 04be 16cc 74bd

encode_conv4.bias f4 [8]
0.08732704 -0.10559819 -0.06979471 0.0019663237 -0.11123075 -0.13758643 -0.11134525 0.064249374
00000000: 85d8 b23d dd43 d8bd 87f0 8ebd 70dd 003b
00000010: f3cc e3bd 75e3 0cbe fa08 e4bd 2d95 833d

fc1.weight f4 [200, 400]
0.04424197 0.005075041 -0.018934013 0.015074013 -0.036344428 0.022738332 0.026903994 0.029460592
0.022478735 0.020611309 0.04900898 0.038460433 0.037445422 -0.01469348 0.044431653 -0.028873395
-0.025678687 -0.0482356 0.048762884 0.033245977 0.02497962 0.005491593 -0.016444858 -0.049245175
0.027689353 -0.036940414 0.020789567 0.028366476 -0.033900943 -0.041167784 0.019850992 0.03566815
-0.0011111754 0.016430799 -0.021275323 0.016570557 -0.016774042 -0.04785366 -0.00483272 -0.03197489
-0.0012097121 -0.04247574 0.043483913 -0.025617644 0.013216302 -0.0048957537 -0.039477605 0.012165591
-0.040780373 -0.03821952 -0.008016968 0.015086332 -0.01580247 -0.0036626484 -0.031627763 -0.023226054
0.022675034 0.040171534 -0.029566716 0.035599936 -0.04868379 0.022609428 -0.041783202 0.040512662
0.017678944 0.023851184 -0.017932907 0.043466087 0.028677428 0.028906634 0.030792037 -0.031016361
0.0001392966 -0.039448857 -0.03219059 -0.02791234 -0.0065538627 0.030837858 0.04519326 0.035055734
0.017651323 -0.021067806 0.041074358 0.037076026 -0.00074661337 0.029063044 0.028145779 -0.046065316
0.027180258 -0.02098118 0.040406104 0.0069803237 -0.027770592 -0.025078079 0.009962639 0.017134167
-0.025588688 0.041773856 -0.04510109 -0.024547648 0.04178056 -0.0045439047 0.026153032 -0.043578155
0.0036348836 0.00021228258 0.030429406 0.046256896 -0.0042669107 -0.022986006 0.030726844 -0.018833747
0.039758507 -0.00428389 -0.045949437 -0.03354712 -0.017015882 0.029110324 -0.012085223 0.01848874
0.04502823 0.026572378 -0.010621373 -0.03592572 -0.0415493 -0.01252012 0.01118119 -0.014610614
-0.015602069 0.01935437 0.024123881 -0.008837927 0.008936185 -0.04183786 0.048979335 0.04134384
-0.006610062 -0.045686346 0.035602774 -0.046659805 0.0028726885 -0.01445368 0.0005467813 -0.04113515
0.04056326 -0.04852302 -0.003334836 -0.0047155963 -0.025904145 -0.036445085 0.0326899 0.005312841
-0.04835882 0.034640953 0.009714004 0.032520805 0.027073564 0.02640625 -0.025522053 -0.0002768103
0.02246432 -0.05019783 0.042658668 0.03662408 -0.0010242686 -0.036571357 0.04913404 -0.02266332
0.022616314 0.029326335 -0.010493772 -0.043382127 0.023527874 0.033936672 0.03386187 0.038042862
0.023236794 -0.007022042 0.02509894 -0.029066488 -0.03555442 -0.016692298 -0.032581113 -0.03274477
-0.006852521 0.0033338023 0.016238349 -0.022877878 -0.032105204 0.009537264 0.034501936 0.0045330585
-0.0057575875 -0.014583325 0.038515568 -0.007829511 -0.013688893 -0.022281168 0.044432905 -0.03907424
0.009819419 0.01401316 -0.027529044 0.02889721 0.026873214 -0.010311648 0.028358135 0.028857352
-0.022196429 -0.004071612 -0.03553096 -0.005462548 -0.008680887 -0.020497695 0.049378585 -0.03484999
0.034061916 -0.02134967 -0.015155257 0.038632087 0.018462343 0.0005542528 -0.027843019 -0.030250648
0.013649669 -0.043622497 -0.0040176683 -0.040923696 0.025118113 0.019401088 0.0010762863 -0.02905502
-0.014547208 0.020870944 -0.027093967 0.02908931 -0.042107612 0.023174377 0.004494833 -0.025803976
-0.009000377 -0.040201046 0.0060570575 -0.046961714 -0.012017194 -0.023967968 0.022418115 0.00020066494
-0.032677352 0.032397307 -0.021566859 0.012495529 -0.02920075 0.038189445 0.010895721 -0.030388769
00000000: 1137 353d 884c a63b 811b 9bbc fef8 763c
00000010: e5dd 14bd bd45 ba3c c465 dc3c 5757 f13c
00000020: 5325 b83c 0cd9 a83c a4bd 483d b088 1d3d
00000030: 5f60 193d ecbc 70bc f7fd 353d e687 ecbc
00000040: 1c5c d2bc b192 45bd 97bb 473d ef2c 083d
00000050: 0fa2 cc3c d2f2 b33b 5eb7 86bc 4fb5 49bd
00000060: c8d4 e23c d54e 17bd e24e aa3c d060 e83c
00000070: b7db 0abd 8d9f 28bd 8c9e a23c c418 123d
00000080: dca4 91ba e299 863c 9649 aebc fabe 873c
00000090: b769 89bc 3302 44bd cb5b 9ebb 1af8 02bd
000000a0: 348f 9eba 0bfb 2dbd 301c 323d 18dc d1bc
000000b0: 3089 583c 8f6c a0bb 45b3 21bd 3052 473c
000000c0: 5209 27bd 128c 1cbd 9a59 03bc aa2c 773c
000000d0: 2e74 81bc 0b09 70bb 1d8c 01bd 9144 bebc
000000e0: fec0 b93c e88a 243d e635 f2bc 3dd1 113d
000000f0: a768 47bd 6837 b93c dd24 2bbd 9bf0 253d
00000100: 6fd3 903c 8f63 c33c 08e8 92bc 7f09 323d
00000110: edec ea3c 9bcd ec3c 953f fc3c 0616 febc
00000120: 2510 1239 2095 21bd 48da 03bd 6ba8 e4bc
00000130: c9c1 d6bb ad9f fc3c 911c 393d 9a96 0f3d
00000140: 8299 903c 6496 acbc 963d 283d 08dd 173d
00000150: 60b8 43ba 9f15 ee3c fa91 e63c fcae 3cbd
00000160: 22a9 de3c b9e0 abbc df80 253d 33bb e43b
00000170: 277f e3bc 8b70 cdbc 563a 233c f45c 8c3c
00000180: 5e9f d1bc 101b 2b3d ecbb 38bd 2618 c9bc
00000190: 1822 2b3d 09e5 94bb e23e d63c 027f 32bd
000001a0: 3a37 6e3b 2c98 5e39 1747 f93c df77 3d3d
000001b0: 71d1 8bbb 264d bcbc ddb6 fb3c 3b49 9abc
000001c0: d1d9 223d e05f 8cbb 7a35 3cbd b468 09bd
000001d0: e464 8bbc c678 ee3c 1901 46bc b375 973c
000001e0: 856f 383d 51ae d93c 4405 2ebc d926 13bd
000001f0: 992f 2abd 3021 4dbc 4f31 373c 5b61 6fbc
00000200: d29f 7fbc 0e8d 9e3c 729f c53c f4cc 10bc
00000210: 1469 123c 2d5e 2bbd 8e9e 483d 2958 293d
00000220: 3899 d8bb 9b21 3bbd 37d4 113d 5a1e 3fbd
00000230: b743 3c3b 21cf 6cbc df55 0f3a 557d 28bd
00000240: a925 263d 13c0 46bd 448d 5abb 4a85 9abb
00000250: ee34 d4bc 7147 15bd d8e5 053d 5717 ae3b
00000260: e613 46bd ace3 0d3d 7c27 1f3c 8934 053d
00000270: 61c9 dd3c ec51 d83c a013 d1bc d920 91b9
00000280: 1807 b83c 3d9c 4dbd dbba 2e3d 2203 163d
00000290: c040 86ba d9cb 15bd c640 493d 6da8 b9bc
000002a0: d945 b93c c83d f03c 12ee 2bbc 75b1 31bd
000002b0: 87bd c03c 2e01 0b3d bfb2 0a3d d5d2 1b3d
000002c0: 175b be3c 2819 e6bb 4b9c cd3c d81c eebc
000002d0: 83a1 11bd 49be 88bc c673 05bd 611f 06bd
000002e0: 1d8b e0bb ec7b 5a3b 4906 853c 636a bbbc
000002f0: bf80 03bd 2f42 1c3c e751 0d3d 0d8a 943b
00000300: 25aa bcbb e6ee 6ebc 80c2 1d3d 5947 00bc
00000310: 6147 60bc ff86 b6bc 47ff 353d 4f0c 20bd
00000320: a1e1 203c 7497 653c 9784 e1bc d7b9 ec3c
00000330: 3725 dc3c 30f2 28bc 524f e83c 4166 ec3c
00000340: 49d5 b5bc 286b 85bb e988 11bd 2dff b2bb
00000350: 473a 0ebc c8ea a7bc 3341 4a3d ddbe 0ebd
00000360: 8284 0b3d 81e5 aebc c14d 78bc ae3c 1e3d
00000370: 573e 973c 474b 113a 0b17 e4bc 35d0 f7bc
00000380: dca2 5f3c 81ad 32bd a5a6 83bb 9b9f 27bd
00000390: 80c4 cd3c 08ef 9e3c 2d12 8d3a cb04 eebc
000003a0: 6a57 6ebc 8bf9 aa3c 2bf4 ddbc b44c ee3c
000003b0: 0879 2cbd 31d8 bd3c 6449 933b dc62 d3bc
000003c0: 5176 13bc daa9 24bd 487a c63b ed5a 40bd
000003d0: c4e3 44bc 7958 c4bc 32a6 b73c 9669 5239
000003e0: b0d8 05bd 0ab3 043d fbac b0bc 0cba 4c3c
000003f0: 6936 efbc 896c 1c3d f783 323c def1 f8bc

fc1.bias f4 [200]
-0.025969436 -0.0073129917 -0.009674514 0.03854617 -0.022205545 0.01695614 -0.03158297 -0.032880068
-0.018235687 0.04990981 0.035500787 0.037909716 -0.015831497 -0.049750406 0.020679248 0.023190951
-0.030335378 -0.015370946 0.041326474 -0.049988914 -0.012443557 0.037340365 0.025595933 0.0003873587
0.0127840815 0.037953805 -0.00017433483 -0.035875726 -0.021819824 0.04608584 -0.0003753652 -0.024825975
0.0140532395 0.029474491 -0.01998349 -0.046983372 0.005106272 0.0033212337 -0.046833806 0.049765896
-0.018569443 0.0066879885 -0.011953768 0.020350784 -0.021666406 0.030830512 -0.019706296 -0.010407592
0.018620586 0.047224913 -0.008406807 0.0015674871 -0.028288417 -0.041940533 -0.022628583 -0.0434148
-0.015019666 0.013097294 0.048704192 0.010469703 -0.009525744 -0.015144036 0.001718461 0.025361298
0.00030346581 0.007133483 0.01887493 0.036929317 -0.007657529 -0.029047806 -0.020189513 0.037713867
0.047638476 -0.022226809 0.01322565 0.03013253 -0.030341959 0.041673224 -0.046321068 0.014520929
-0.02821721 -0.024816168 -0.005247945 -0.021579888 -0.025555657 -0.013805323 -0.014605441 0.012308238
-0.0063527776 -0.031011606 0.0030220519 -0.048242845 -0.0044496544 -0.025079792 0.036821447 -0.03810251
-0.034894213 0.012522018 0.023942053 -0.03337148 -0.008898903 0.047059633 0.009007348 -0.006492163
0.03714765 -0.036583096 -0.022831958 -0.006102553 0.043256853 0.00027620894 0.00047232446 0.005081045
-0.0044672703 -0.021463836 -0.04918472 -0.041688208 -0.034113307 0.005225792 -0.042259853 -0.020921359
0.047571234 -0.004328521 -0.020107508 -0.017983824 0.043114394 -0.048617754 0.04647481 0.02049125
0.016781867 -0.044096794 0.021805141 -0.041058324 0.039217748 -0.048391443 -0.045035936 -0.012741068
0.042206004 0.024689768 -0.0028962193 -0.029618062 -0.022842309 -0.0457466 -0.038314797 -0.014068728
-0.047179967 0.029013379 0.009598894 0.038048487 -0.042480957 -0.018514384 0.024547998 -0.016544752
0.020199664 -0.04099501 0.022112766 0.017234989 -0.005558093 0.01223699 0.035147637 0.00043882598
-0.03788469 0.035188623 0.028466083 0.01098366 0.030427465 -0.00955575 -0.04948023 0.033058695
0.03795517 0.0119773885 0.032263182 0.006078739 0.015785515 0.009327663 0.044056643 -0.023464352
-0.018860377 -0.028952267 0.04467599 -0.041520584 -0.0031508736 0.04181477 -0.026510458 0.019077247
-0.0066011553 0.040470086 0.007322011 0.022410857 -0.037640583 0.00029576966 -0.02564992 0.01410976
0.025277827 0.029143449 0.018848259 0.033213194 -0.03878616 -0.0010658492 0.009939913 0.019305384
00000000: dbbd d4bc d2a1 efbb da81 1ebc 97e2 1d3d
00000010: 67e8 b5bc 9ae7 8a3c 255d 01bd 40ad 06bd
00000020: 0263 95bc 3b6e 4c3d 4669 113d 3847 1b3d
00000030: 0eb1 81bc 15c7 4bbd 8767 a93c f3fa bd3c
00000040: e681 f8bc 6cd6 7bbc f345 293d 2dc1 4cbd
00000050: 10e0 4bbc 36f2 183d 90ae d13c 6816 cb39
00000060: 5374 513c 7375 1b3d a6cd 36b9 6df2 12bd
00000070: 7dbf b2bc 81c4 3c3d aacc c4b9 d85f cbbc
00000080: 8f3f 663c 7d74 f13c 6bb4 a3bc a371 40bd
00000090: 8452 a73b 0ea9 593b ced4 3fbd 53d7 4b3d
000000a0: f21e 98bc ea26 db3b bdd9 43bc b0b6 a63c
000000b0: bf7d b1bc 4590 fc3c 196f a1bc 9b84 2abc
000000c0: 338a 983c e96e 413d b4bc 09bc 2474 cd3a
000000d0: 1cbd e7bc d6c9 2bbd 945f b9bc b8d3 31bd
000000e0: 0c15 76bc 0896 563c 0c7e 473d 1e89 2b3c
000000f0: de11 1cbc b11e 78bc fc3d e13a 7fc2 cf3c
00000100: 7e1a 9f39 febf e93b 999f 9a3c 3243 173d
00000110: 02ec fabb aaf5 edbc 7a64 a5bc db79 1a3d
00000120: 9020 433d ff14 b6bc 66b0 583c 7fd8 f63c
00000130: b38f f8bc 8bb1 2a3d 29bb 3dbd 31e9 6d3c
00000140: c727 e7bc 474b cbbc f4f6 abbb 4ec8 b0bc
00000150: 195a d1bc b92f 62bc a94b 6fbc 7ea8 493c
00000160: f62a d0bb 0d0c febc 9e0d 463b 4a9a 45bd
00000170: 68ce 91bb 2374 cdbc 16d2 163d 6111 1cbd
00000180: 3ced 0ebd 2629 4d3c 2022 c43c 88b0 08bd
00000190: b4cc 11bc 9ac1 403d 8e93 133c 36bc d4bb
000001a0: 2228 183d 28d8 15bd 160a bbbc edf7 c7bb
000001b0: 192e 313d 23d0 9039 51a2 f739 e57e a63b
000001c0: 2e62 92bb edd4 afbc eb75 49bd 41c1 2abd
000001d0: 65ba 0bbd 1f3d ab3b ab18 2dbd 4563 abbc
000001e0: 0eda 423d 44d6 8dbb 80b8 a4bc d052 93bc
000001f0: b898 303d 6923 47bd 5f5c 3e3d 44dd a73c
00000200: 207a 893c d79e 34bd b2a0 b23c c62c 28bd
00000210: caa2 203d 1b36 46bd 9a77 38bd eabf 50bc
00000220: 34e0 2c3d 3242 ca3c 7fce 3dbb 94a1 f2bc
00000230: cb1f bbbc c960 3bbd faef 1cbd 8680 66bc
00000240: c83f 41bd 77ad ed3c ae44 1d3c bbd8 1b3d
00000250: 8300 2ebd 7aab 97bc e218 c93c dc88 87bc
00000260: c479 a53c 62ea 27bd d525 b53c 6430 8d3c
00000270: aa20 b6bb a87d 483c f8f6 0f3d 3a12 e639
00000280: fa2c 1bbd f221 103d b431 e93c cff4 333c
00000290: 0543 f93c b88f 1cbc c8ab 4abd 8e68 073d
000002a0: e176 1b3d cf3c 443c 6626 043d 2930 c73b
000002b0: a050 813c 0ed3 183c bd74 343d 5038 c0bc
000002c0: 1481 9abc 4e2d edbc 2cfe 363d 7d11 2abd
000002d0: e37e 4ebb f745 2b3d 762c d9bc e347 9c3c
000002e0: 814e d8bb f6c3 253d 7bed ef3b f996 b73c
000002f0: 032d 1abd 8811 9b39 c81f d2bc 9f2c 673c
00000300: 7213 cf3c 3ebe ee3c aa67 9a3c 8f0a 083d
00000310: 3dde 1ebd f7b3 8bba 04db 223c 5326 9e3c

fc2.weight f4 [400, 200]
-0.029182395 -0.050663114 0.010276105 -0.0618805 0.046244573 0.060853727 0.014614735 0.070061974
0.06640186 0.016178511 0.053240992 -0.024019292 0.0154204415 -0.030137666 -0.04715667 -0.055060003
-0.034018975 -0.028525421 0.018627496 0.0087758135 0.031763937 0.048104145 0.016495863 -0.05530273
0.054523885 0.07005178 0.02436895 -0.0522314 -0.06975347 -0.021296885 -0.059810616 0.05334467
-0.05498643 0.051488165 0.027312377 0.02061654 0.0010809352 -0.0081849 0.010488107 0.0034707328
-0.0069558313 -0.021834463 -0.048949234 0.063243866 -0.046676576 0.031806108 0.06576262 0.009647467
-0.07070565 0.05520353 0.017101012 -0.04966202 -0.0063846693 -0.02705419 0.022503536 -0.026889965
-0.023817096 0.0128942765 0.002541785 0.02129078 -0.024907768 0.067230426 -0.050521962 0.006462405
0.028337011 -0.0009345038 -0.037952743 0.011190802 0.028215997 -0.03703493 0.0014552036 0.018666895
0.017782457 0.033631455 -0.045504883 -0.00020798562 0.05107086 -0.028205123 -0.06800534 0.010850244
-0.06595276 -0.053594086 -0.03339711 0.043229736 0.025171394 -0.05578349 0.013659196 0.06207075
0.07047482 -0.047704104 -0.006650074 0.023225557 -0.041159015 0.044931702 -0.043724597 -0.022873338
0.00826735 0.05287554 -0.044514462 -0.018581137 0.002362771 0.06199855 0.0041031376 0.06018583
-0.02280484 -0.022723958 -0.032235894 0.037179776 -0.02493903 0.030875077 0.03968739 -0.036630053
-0.02370422 -0.009627646 -0.06077646 0.019059123 0.032590516 0.06380463 -0.04515074 0.068961486
-0.064610444 0.037106555 -0.05845711 0.057514343 0.030467872 -0.01911673 0.014400872 -0.028155474
0.05755397 -0.044168167 0.055805035 0.029619433 0.0074260924 -0.05560245 -0.05609269 -0.017843788
-0.0418173 0.009818854 -0.033953305 0.008613562 0.0249084 -0.042288795 0.02116042 -0.039010305
-0.049507473 -0.0038209008 0.016957954 0.028459331 -0.06708571 0.030117692 0.028042693 0.05389034
-0.056444123 -0.043416638 0.058532376 -0.024079576 0.064183176 0.047295652 0.057008836 -0.041539192
-0.03155605 0.047241706 -0.029008154 0.050752603 -0.0048184055 -0.017019786 -0.02687328 0.00031611114
-0.058436837 -0.06872686 -0.0058090463 0.066525124 0.053822424 -0.03481976 -0.052568447 0.041982654
0.029904053 0.06897447 0.034971908 0.027246395 -0.0013806032 0.0073738666 0.010750612 0.038804285
-0.05904304 -0.06677308 0.028711181 0.016822165 0.040265903 -0.02598411 0.038779903 -0.044887256
-0.00091474864 -0.060143 0.042423967 -0.046640422 -0.042045407 0.060213745 -0.05038248 0.06702115
-0.044798244 0.0060693645 -0.0020378516 0.052576996 0.044511043 0.045179646 -0.021473039 -0.049493834
-0.028513793 -0.011719806 0.002450298 0.018109886 -0.06564557 0.023039274 -0.012496785 -0.043224927
-0.0263964 -0.06791065 -0.022718485 0.062420327 0.047832 -0.027503703 0.025689175 0.0015107547
-0.017161326 -0.0692946 -0.024104575 0.0696142 0.06281109 0.040508892 0.0075896517 -0.008261748
0.036480732 0.06386198 -0.044703078 -0.023093978 -0.026939254 -0.014018437 -0.016458198 -0.03809929
-0.05525463 0.05619484 0.0054476536 -0.04127549 -0.007078272 -0.0315193 -0.021956047 0.021536581
0.058884695 -0.038995788 -0.015434128 -0.012735978 -0.019716121 0.05547208 -0.015318493 -0.028907795
00000000: eb0f efbc 2084 4fbd 1c5d 283c 6876 7dbd
00000010: f36a 3d3d c241 793d a472 6f3c a77c 8f3d
00000020: b3fd 873d cc88 843c 3a13 5a3d 1bc4 c4bc
00000030: 05a6 7c3c 44e3 f6bc 5a27 41bd 9986 61bd
00000040: 7b57 0bbd 25ae e9bc b198 983c 6ec8 0f3c
00000050: e71a 023d da08 453d 5522 873c 1e85 62bd
00000060: 7054 5f3d 4f77 8f3d 64a1 c73c 98f0 55bd
00000070: e8da 8ebd ce76 aebc fafb 74bd f17f 5a3d
00000080: 7339 61bd 41e5 523d 35be df3c 05e4 a83c
00000090: 2bae 8d3a f519 06bc 4fd6 2b3c 3c75 633b
000000a0: beed e3bb 30de b2bc fe7e 48bd 0086 813d
000000b0: f02f 3fbd 1f47 023d 8dae 863d 6910 1e3c
000000c0: 20ce 90bd 191d 623d 6c17 8c3c 676a 4bbd
000000d0: 7d36 d1bb c0a0 ddbc 5659 b83c 5848 dcbc
000000e0: 121c c3bc 8442 533c 1394 263b 006a ae3c
000000f0: 600b ccbc 1bb0 893d 1ef0 4ebd 95c2 d33b
00000100: 0523 e83c 7df9 74ba 5674 1bbd a059 373c
00000110: 3c25 e73c f0b1 17bd 88bc be3a 51eb 983c
00000120: 84ac 913c 23c1 093d 5463 3abd b716 5ab9
00000130: ae2f 513d 6e0e e7bc 6246 8bbd 39c5 313c
00000140: 3e12 87bd 7985 5bbd 68cb 08bd aa11 313d
00000150: 3d34 ce3c 3b7d 64bd d2ca 5f3c e63d 7e3d
00000160: 1a55 903d 6165 43bd dde8 d9bb 8643 be3c
00000170: 5b96 28bd 4e0a 383d 9018 33bd de60 bbbc
00000180: c773 073c 0694 583d cc54 36bd 7837 98bc
00000190: b8d8 1a3b 31f2 7d3d 9d73 863b 6b85 763d
000001a0: 37d1 babc 9827 babc c909 04bd d249 183d
000001b0: f04c ccbc bbed fc3c 3f8f 223d 6509 16bd
000001c0: 5a2f c2bc 46bd 1dbc bdf0 78bd e121 9c3c
000001d0: a27d 053d 00ac 823d fbef 38bd ae3b 8d3d
000001e0: 7b52 84bd 0bfd 173d b970 6fbd 2994 6b3d
000001f0: c297 f93c b09a 9cbc a3f1 6b3c 4fa6 e6bc
00000200: b6bd 6b3d aee9 34bd d293 643d 74a4 f23c
00000210: 9456 f33b 65bf 63bd 73c1 65bd 232d 92bc
00000220: 9e48 2bbd 42df 203c 9f12 0bbd e61f 0d3c
00000230: b30c cc3c 0437 2dbd 9e58 ad3c 45c9 1fbd
00000240: 59c8 4abd 1468 7abb 68eb 8a3c 8b23 e93c
00000250: 3c64 89bd 61b9 f63c cab9 e53c 1ebc 5c3d
00000260: f431 67bd a5d5 31bd a5bf 6f3d 8842 c5bc
00000270: 7872 833d 16b9 413d 1982 693d 0025 2abd
00000280: eb40 01bd 8580 413d 82a2 edbc f6e1 4f3d
00000290: b7e3 9dbb 146d 8bbc 5a25 dcbc b8bb a539
000002a0: 775b 6fbd abc0 8cbd d059 bebb 533e 883d
000002b0: e774 5c3d 2a9f 0ebd 0352 57bd 01f6 2b3d
000002c0: 58f9 f43c 7d42 8d3d b43e 0f3d d533 df3c
000002d0: 5bf5 b4ba 7aa0 f13b 5623 303c 3ef1 1e3d
000002e0: 1dd7 71bd 53c0 88bd b633 eb3c a3ce 893c
000002f0: dced 243d a1dc d4bc add7 1e3d b3db 37bd
00000300: becb 6fba 8258 76bd c1c4 2d3d 070a 3fbd
00000310: ce37 2cbd b0a2 763d dc5d 4ebd 6242 893d
00000320: 5d7e 37bd 85e1 c63b 7a8d 05bb fa5a 573d
00000330: 3651 363d 4b0e 393d 3ae8 afbc 0cba 4abd
00000340: c295 e9bc 6e04 40bc 2e95 203b 2f5b 943c
00000350: 2f71 86bd dcbc bc3c 51bf 4cbc 9f0c 31bd
00000360: 433d d8bc bd14 8bbd 1e1c babc 75ac 7f3d
00000370: 7deb 433d 724f e1bc 1b72 d23c 8404 c63a
00000380: e995 8cbc 54ea 8dbd f576 c5bc e491 8e3d
00000390: 1aa3 803d a7ec 253d 9db2 f83b 485c 07bc
000003a0: d26c 153d 12ca 823d 931a 37bd 952f bdbc
000003b0: b6af dcbc 96ad 65bc 58d3 86bc 000e 1cbd
000003c0: ae52 62bd 902c 663d 3b82 b23b 7d10 29bd
000003d0: d9f0 e7bb 621a 01bd 2bdd b3bc 7c6d b03c
000003e0: 1431 713d 0cba 1fbd 6ddf 7cbc 90aa 50bc
000003f0: b483 a1bc b136 633d 6bfa 7abc 0ad0 ecbc

fc2.bias f4 [400]
-0.041876156 -0.016114866 0.06416105 0.047190312 -0.042897664 0.032777764 -0.05886091 0.0629546
-0.026036905 0.019107299 0.014945166 -0.011190746 -0.043343272 0.044739332 0.046473693 -0.033138707
-0.010141863 0.016298473 0.05170469 -0.06986713 0.06966193 0.046844628 0.06857152 0.03271956
0.03882764 -0.05882307 -0.045040656 -0.05180128 -0.0026623802 0.002906102 -0.0019327895 -0.04350597
-0.0073193945 0.04014918 0.032859888 0.015790325 0.045768343 0.021008154 -0.022398645 -0.013968975
-0.034820154 0.02740441 -0.020896466 -0.03205099 -0.0051767 -0.02529788 0.046117667 -0.040838256
-0.06849175 0.021953871 0.05096674 -0.021807885 0.06266063 0.01333482 0.018661683 0.010034669
0.036121625 0.03397983 0.03879617 0.0105830645 0.048267193 0.041675616 0.025659755 -0.061591227
-0.057680964 -0.03845799 0.05179116 0.01940091 0.05090366 0.012330313 0.015286216 -0.068938375
-0.05034645 -0.00076289417 0.04693567 0.04775894 -0.04569766 0.03877049 0.06919165 0.043583315
0.06642035 0.018719852 0.023944212 -0.02265057 0.010632944 -0.07064647 0.025053063 -0.018618869
0.031487007 -0.014003632 0.05994757 0.05222759 -0.014704442 -0.04219017 0.06290627 -0.0045674765
-0.024595352 0.04064373 0.02822886 -0.008117784 0.04547823 0.05019087 0.015610081 0.049230043
0.020156147 -0.056089554 -0.006646808 0.050156645 0.066086076 0.06291295 -0.059588578 -0.027181357
0.066306494 -0.0365539 0.06631796 0.02814325 0.013971224 0.02860416 -0.064200394 -0.01804711
-0.06824138 0.061678357 0.067617536 -0.048032686 -0.06138586 -0.031235961 -0.037130423 -0.03703256
-0.03044072 -0.0077199126 -0.024696581 0.004602798 -0.06211374 -0.05603445 -0.05116366 -0.020225357
0.006343596 0.04125088 0.043989245 -0.06723793 0.033754367 -0.028202351 0.009648913 -0.014375698
0.041228406 0.035458386 0.038916703 -0.040935915 -0.026224155 -0.046894774 -0.008763607 -0.018443214
0.025727049 -0.040940084 0.0430365 0.05984563 0.050463922 -0.012511637 0.055462647 -0.052762106
-0.06379002 0.02018299 0.05758911 -0.039985385 0.020955177 0.040875066 0.05924995 -0.025369493
0.068116404 0.0023779667 -0.064925365 0.0423846 0.026624316 0.009245487 -0.0010556491 0.062895834
0.049313866 0.054969255 -0.004163257 -0.0067719137 -0.00057903485 -0.008284427 0.027113583 0.056791093
-0.00033411136 -0.068023786 0.05288449 -0.012353636 0.043711793 0.019765705 -0.038278174 -0.0075522233
0.03361753 0.042173937 0.0011022678 0.037493438 -0.04529706 0.05710826 -0.02500212 0.05345615
-0.04296382 -0.06962472 0.06881336 0.011234496 -0.017189607 0.031228486 -0.009602325 0.048542503
0.011160576 -0.01226752 -0.019632734 0.011207965 -0.028117072 -0.0004820521 -0.041919794 -0.04108278
0.055857413 0.0054419013 0.04443983 -0.017499022 0.016249998 -0.062777594 0.01001486 -0.037402716
0.011664876 0.0031627917 -0.06660547 -0.01802096 -0.036580116 0.018546294 0.006921097 0.020365776
0.013736446 -0.004583209 -0.00045147035 0.024394477 0.06294781 0.008918625 -0.067431614 -0.05252972
0.039335724 0.012008259 0.054096527 0.043033943 0.00036232 -0.030773379 -0.052397843 0.043917883
0.038615964 0.0583867 0.052652095 0.057014655 -0.00102011 -0.018199183 -0.024454042 0.03338014
00000000: 5586 2bbd 5303 84bc de66 833d a14a 413d
00000010: 76b5 2fbd fa41 063d 2318 71bd 57ee 803d
00000020: 594b d5bc e986 9c3c 92dc 743c 6459 37bc
00000030: b788 31bd 9740 373d 335b 3e3d 74bc 07bd
00000040: 0e2a 26bc 6084 853c 4cc8 533d 7f16 8fbd
00000050: eaaa 8e3d 27e0 3f3d 3a6f 8c3d f204 063d
00000060: bb09 1f3d 76f0 70bd 8d7c 38bd 942d 54bd
00000070: 547b 2ebb 4d74 3e3b a755 fdba 5133 32bd
00000080: 88d7 efbb 7773 243d 1798 063d b65a 813c
00000090: 9677 3b3d 4b19 ac3c 5d7d b7bc 21de 64bc
000000a0: 949f 0ebd 377f e03c 112f abbc e647 03bd
000000b0: 4fa1 a9bb 803d cfbc e1e5 3c3d 0446 27bd
000000c0: 6745 8cbd 9bd8 b33c 80c2 503d 73a6 b2bc
000000d0: 3754 803d 4a7a 5a3c 63e0 983c 7468 243c
000000e0: 45f4 133d 6f2e 0b3d bce8 1e3d 9764 2d3c
000000f0: d2b3 453d 0db4 2a3d 6834 d23c 1547 7cbd
00000100: e042 6cbd 2086 1dbd f822 543d a8ee 9e3c
00000110: 5b80 503d 1505 4a3c 0973 7a3c 902f 8dbd
00000120: 1438 4ebd f6fc 47ba 9e3f 403d e19e 433d
00000130: 782d 3bbd cecd 1e3d 5ab4 8d3d 6b84 323d
00000140: 6407 883d 605a 993c a726 c43c b08d b9bc
00000150: cd35 2e3c 19af 90bd 153c cd3c 9986 98bc
00000160: 85f8 003d 7d6f 65bc 958b 753d 99ec 553d
00000170: e6ea 70bc 9acf 2cbd 01d5 803d c5aa 95bb
00000180: 317c c9bc 0a7a 263d 3640 e73c 7400 05bc
00000190: 6147 3a3d f194 4d3d 6dc1 7f3c 71a5 493d
000001a0: 811e a53c 29be 65bd 77cd d9bb 0e71 4d3d
000001b0: 2358 873d 81d8 803d 2713 74bd 70ab debc
000001c0: b3cb 873d 8bb9 15bd b6d1 873d ac8c e63c
000001d0: 90e7 643c 4553 ea3c 7f7b 83bd 88d7 93bc
000001e0: 23c2 8bbd 72a2 7c3d 107b 8a3d ecbd 44bd
000001f0: bd6f 7bbd 8fe2 ffbc 1216 18bd 74af 17bd
00000200: d15e f9bc 52f7 fcbb 7c50 cabc 11d3 963b
00000210: fa6a 7ebd 6184 65bd fc90 51bd a6af a5bc
00000220: f1dd cf3b aff6 283d 112e 343d 0ab4 89bd
00000230: 0542 0a3d 9e08 e7bc 7916 1e3c 0c88 6bbc
00000240: 1edf 283d d03c 113d 1f67 1f3d 6bac 27bd
00000250: 0ad4 d6bc bc14 40bd 3b95 0fbc 3916 97bc
00000260: 88c1 d23c cab0 27bd 0b47 303d b120 753d
00000270: 42b3 4e3d 9cfd 4cbc cd2c 633d 141d 58bd
00000280: 58a4 82bd cc56 a53c 8fe2 6b3d b7c7 23bd
00000290: 31aa ab3c 9d6c 273d 13b0 723d afd3 cfbc
000002a0: 9d80 8b3d a9d7 1b3b 97f7 84bd 799b 2d3d
000002b0: 3d1b da3c 627a 173c b55d 8aba 88cf 803d
000002c0: 56fd 493d 7127 613d ee6b 88bb eee6 ddbb
000002d0: 5fca 17ba 68bb 07bc 4e1d de3c c79d 683d
000002e0: ab2b afb9 0e50 8bbd 689d 583d e866 4abc
000002f0: 230b 333d b0eb a13c 93c9 1cbd a478 f7bb
00000300: 89b2 093d 94be 2c3d f879 903a b892 193d
00000310: 6989 39bd 5aea 693d 3fd1 ccbc d6f4 5a3d
00000320: d5fa 2fbd 6897 8ebd 05ee 8c3d e410 383c
00000330: 38d1 8cbc e2d2 ff3c 1253 1dbc 81d4 463d
00000340: d9da 363c b5fd 48bc d4d4 a0bc 9da1 373c
00000350: c655 e6bc f0bb fcb9 17b4 2bbd 6b46 28bd
00000360: beca 643d fa51 b23b 8a06 363d 1c5a 8fbc
00000370: b71e 853c 8a91 80bd 5e15 243c 9733 19bd
00000380: 091e 3f3c d746 4f3b 7368 88bd b1a0 93bc
00000390: 08d5 15bd 66ee 973c 5fca e23b 21d6 a63c
000003a0: d50e 613c be2e 96bb 53b3 ecb9 edd6 c73c
000003b0: c8ea 803d 6d1f 123c 9619 8abd 6729 57bd
000003c0: 7f1e 213d 4abe 443c 5294 5d3d 5c44 303d
000003d0: c4f5 bd39 7418 fcbc 1f9f 56bd 3de3 333d
000003e0: c62b 1e3d e426 6f3d b9a9 573d 3388 693d
000003f0: 36b5 85ba 7416 95bc d853 c8bc 9db9 083d

decode_conv1.weight f4 [8, 16, 3]
-0.039821945 0.0017757356 -0.044009823 -0.124763906 -0.00046134592 0.12082137 0.14632756 0.1129878
-0.04114478 0.14258316 0.07254903 0.124002166 0.13650472 -0.046314213 -0.119251214 -0.0018953249
0.026111716 0.052275464 0.042761423 -0.13227853 -0.042791627 0.014165458 -0.09523494 -0.13579127
0.014507689 -0.0340671 0.08326287 -0.0647662 -0.07416642 0.007460761 -0.026072074 0.048600677
0.0026366725 -0.11317175 0.0565994 -0.12327758 0.14256413 -0.05526974 0.0016020068 -0.05376541
-0.04237942 -0.12060166 -0.14153048 0.10092643 0.0658491 -0.08571079 0.019804308 -0.08200263
0.06884722 0.07283098 0.0110111665 0.02289684 0.08990597 0.06613162 -0.08942606 0.02833499
0.097865805 -0.012024697 -0.07662652 0.07013806 -0.077116385 -0.015250078 -0.08165239 -0.043448146
0.13265927 -0.056919042 0.05093082 -0.015647968 0.00968155 0.023472974 0.022902869 0.04778523
0.13150431 0.03236792 0.09540109 0.09910038 0.123979695 -0.018070923 0.09112229 0.04131306
0.03986151 0.018433481 0.12814613 -0.052323293 0.0072505097 0.030741094 -0.01289872 0.06593744
0.012952352 0.022621246 0.06684478 -0.09028 0.12981129 -0.06974148 -0.040338513 0.031137116
0.011006859 -0.006569739 0.13973597 -0.028054884 -0.047758214 0.07994155 -0.12533894 -0.11569797
0.13865092 0.11554297 -0.106085345 -0.008576717 0.03991412 -0.09772691 -0.08458579 0.101995595
-0.015928315 0.047726773 0.003846773 0.12745951 0.07596438 0.018855562 -0.08316047 0.018515183
0.021524968 0.06461914 -0.014869077 -0.0071596485 0.042851992 0.10659386 0.10896528 0.081072316
-0.11327125 -0.12489796 0.13202804 0.058524124 -0.01791091 -0.047371097 -0.045602553 -0.090899006
-0.13061431 0.012785857 0.11667889 -0.061343987 0.009592592 -0.11492357 0.08482885 0.03512717
-0.11130286 -0.0749968 0.042500447 0.09586188 -0.09078654 -0.13063967 -0.09419786 -0.04755481
-0.04523741 -0.050199296 0.027574008 -0.0028349124 0.032116245 0.0055890107 -0.128231 -0.060503133
0.07744399 0.0778371 -0.06560536 0.03022577 0.03263951 0.050873753 0.13704215 0.109965496
0.08723861 -0.11125106 0.0175155 -0.09203713 0.065682605 0.073614605 0.0866528 -0.06992736
0.104156174 -0.14201017 -0.13804401 0.026043022 -0.08117894 -0.070840724 0.05550079 0.09486911
0.045038432 0.062175527 0.14004518 -0.016139446 -0.024826221 -0.117889374 -0.08608826 -0.014654122
-0.05512656 -0.09117168 0.016484944 -0.043487683 -0.075514026 -0.006031498 -0.037642434 -0.04265667
-0.028382508 -0.11169179 0.065762185 -0.07203008 0.14899865 0.12511607 0.0382572 -0.0984397
-0.012131264 0.06517124 -0.11325496 0.08415424 0.06461238 -0.00045533723 0.09333588 -0.028295636
0.0020412 -0.08365297 -0.13140075 -0.03511363 0.08868231 -0.09149395 0.09843586 0.10036956
-0.018638702 -0.083522245 -0.062069982 -0.13176522 0.10813447 0.14226414 0.030921446 -0.018033331
-0.10448749 -0.1067321 -0.051197115 0.060659908 0.015391793 -0.0011401279 0.10623461 -0.123608485
-0.07765602 -0.06689389 -0.13733467 -0.12110798 0.09797434 -0.11934145 0.09736016 0.07604741
0.13207479 0.10296591 -0.06345496 0.12848401 -0.007381465 0.074403785 -0.04532266 -0.10952153
00000000: 561c 23bd cdbf e83a a543 34bd 3884 ffbd
00000010: cde0 f1b9 3271 f73d e4d6 153e 2666 e73d
00000020: 6e87 28bd 5201 123e 9694 943d d9f4 fd3d
00000030: e5c7 0b3e f9b3 3dbd fb39 f4bd 8d6c f8ba
00000040: 3de8 d53c cc1e 563d 9a26 2f3d 0674 07be
00000050: 4646 2fbd 3d16 683c 890a c3bd de0c 0bbe
00000060: a8b1 6d3c f289 0bbd b985 aa3d 24a4 84bd
00000070: 90e4 97bd 6679 f43b 1a95 d5bc 8111 473d
00000080: 06cc 2c3b 97c6 e7bd c6d4 673d f578 fcbd
00000090: 55fc 113e 8662 62bd 6efa d13a 1e39 5cbd
000000a0: 0b96 2dbd 01fe f6bd 5eed 10be 84b2 ce3d
000000b0: e5db 863d 2389 afbd a53c a23c fff0 a7bd
000000c0: c5ff 8c3d 6928 953d 2e68 343c 2792 bb3c
000000d0: 9f20 b83d 0470 873d 0325 b7bd c81e e83c
000000e0: de6d c83d 3c03 45bc 5dee 9cbd 8ba4 8f3d
000000f0: 32ef 9dbd 77db 79bc 5e39 a7bd aff6 31bd
00000100: d5d7 073e f123 69bd d69c 503d 2b30 80bc
00000110: 5d9f 1e3c 654a c03c cc9e bb3c 72ba 433d
00000120: 11a9 063e 3994 043d a661 c33d 24f5 ca3d
00000130: 11e9 fd3d 7909 94bc 539e ba3d e237 293d
00000140: d345 233d d001 973c bd38 033e f350 56bd
00000150: af95 ed3b bfd4 fb3c 2755 53bc 350a 873d
00000160: 1a36 543c 3150 b93c ebe5 883d b8e4 b8bd
00000170: 40ed 043e 9fd4 8ebd ff39 25bd 4413 ff3c
00000180: 1d56 343c f746 d7bb f216 0f3e 5bd3 e5bc
00000190: 1e9e 43bd 65b8 a33d da58 00be 0ff3 ecbd
000001a0: 82fa 0d3e cba1 ec3d 4643 d9bd 5c85 0cbc
000001b0: fd7c 233d 0c25 c8bd 513b adbd 11e3 d03d
000001c0: 197c 82bc 267d 433d 241a 7c3b bf84 023e
000001d0: 3693 9b3d fb76 9a3c 0950 aabd 27ad 973c
000001e0: 2155 b03c 0a57 843d 6e9d 73bc 7c9b eabb
000001f0: 9285 2f3d e24d da3d 3029 df3d 3e09 a63d
00000200: c2fa e7bd 80ca ffbd 5c32 073e feb6 6f3d
00000210: e7b9 92bc 3208 42bd bec9 3abd 4229 babd
00000220: c2bf 05be c57b 513c 58f5 ee3d d543 7bbd
00000230: 3f2a 1d3c 0c5d ebbd c0ba ad3d 82e1 0f3d
00000240: c1f2 e3bd ec97 99bd f314 2e3d 3c53 c43d
00000250: 4bee b9bd 68c6 05be cfea c0bd d5c8 42bd
00000260: dd4a 39bd c79d 4dbd e3e2 e13c f0c9 39bb
00000270: 538c 033d 0524 b73b fd4e 03be 22d2 77bd
00000280: f49a 9e3d 0f69 9f3d 1a5c 86bd 099c f73c
00000290: 02b1 053d ff60 503d c754 0c3e 9735 e13d
000002a0: 28aa b23d 99d7 e3bd aa7c 8f3c f67d bcbd
000002b0: 9a84 863d 41c3 963d 0677 b13d 1336 8fbd
000002c0: d54f d53d 1d6b 11be 695b 0dbe 2d58 d53c
000002d0: 2541 a6bd f114 91bd cc54 633d bc4a c23d
000002e0: 387a 383d c4ab 7e3d 0168 0f3e df36 84bc
000002f0: 5c60 cbbc fc6f f1bd 0b4f b0bd d817 70bc
00000300: 63cc 61bd 38b8 babd 6f0b 873c 2420 32bd
00000310: 19a7 9abd dfa3 c5bb f42e 1abd c3b8 2ebd
00000320: 6f82 e8bc aabe e4bd 53ae 863d 8284 93bd
00000330: 1a93 183e 6d1e 003e 95b3 1c3d c19a c9bd
00000340: 36c2 46bc 8078 853d 37f2 e7bd 0f59 ac3d
00000350: 7f53 843d 54ba eeb9 e226 bf3d 40cc e7bc
00000360: a7c5 053b 4052 abbd eb8d 06be 4fd3 0fbd
00000370: 129f b53d 2e61 bbbd bd98 c93d 8e8e cd3d
00000380: 31b0 98bc b60d abbd 183d 7ebd 76ed 06be
00000390: 9b75 dd3d b1ad 113e f94e fd3c a3ba 93bc
000003a0: 8afd d5bd 5c96 dabd 11b4 51bd 8676 783d
000003b0: dc2d 7c3c 5870 95ba 8891 d93d 7226 fdbd
000003c0: 1f0a 9fbd aaff 88bd 76a1 0cbe 7607 f8bd
000003d0: c5a6 c83d 4a69 f4bd c364 c73d bfbe 9b3d
000003e0: 9d3e 073e cbdf d23d adf4 81bd 5091 033e
000003f0: 37e0 f1bb 0361 983d 41a4 39bd d34c e0bd

decode_conv1.bias f4 [8]
0.061894026 -0.11225964 -0.01550637 -0.026087068 -0.02710221 -0.12607235 0.11029252 0.04503975
00000000: 9784 7d3d 62e8 e5bd 6e0e 7ebc 8cb4 d5bc
00000010: 7405 debc 1c19 01be 0be1 e13d 9a7b 383d

decode_conv2.weight f4 [4, 8, 3]
-0.0013772047 -0.015355823 -0.18820421 -0.05042353 -0.031011017 -0.116505735 0.16491646 0.054502826
-0.16094309 0.05028553 0.058978014 0.041576058 0.07933488 -0.12453449 -0.15517046 -0.033852056
0.14585422 -0.14794807 0.09297275 -0.00800358 -0.17463125 -0.14661033 -0.16575545 -0.084198184
-0.047574393 -0.13927522 -0.116413645 -0.019476969 -0.20067145 0.12356904 -0.103607744 0.089171186
-0.17521536 -0.16113396 0.11109179 -0.034277674 -0.028046476 -0.1532687 -0.035442274 -0.20027229
-0.2049317 0.1883209 0.16981517 -0.09976392 -0.05643883 0.08125465 -0.09591076 -0.106402874
-0.05959243 0.0519652 -0.054458775 -0.19004634 0.120132074 -0.06764981 -0.10286697 -0.013604044
-0.15671349 -0.15245566 0.102631375 0.042474505 -0.19146816 -0.091797344 -0.16755655 0.15139191
-0.09259309 -0.18160331 0.16334863 -0.09274495 -0.114235826 0.026906783 -0.162216 0.14521153
-0.14630792 -0.05655723 -0.027993575 -0.13328098 0.07339984 0.1312055 -0.15224996 -0.038855042
0.0049970117 -0.19681588 0.09450969 -0.15445076 0.0099701695 0.042673003 -0.03223724 -0.16243477
0.12358728 0.1590136 0.09082586 -0.13301645 0.037038177 -0.025603358 0.046165705 0.01386945
00000000: 5283 b4ba fd96 7bbc 9bb8 40be e788 4ebd
00000010: d10a febc 8f9a eebd dcdf 283e 5b3e 5f3d
00000020: 44ce 24be 33f8 4d3d ee92 713d a84b 2a3d
00000030: 537a a23d f00b ffbd 01e5 1ebe 74a8 0abd
00000040: cf5a 153e b37f 17be 7f68 be3d 7321 03bc
00000050: 89d2 32be 0521 16be ccbb 29be 1970 acbd
00000060: 5edd 42bd 2a9e 0ebe 476a eebd 2a8e 9fbc
00000070: d17c 4dbe c411 fd3d 4c30 d4bd 629f b63d
00000080: a86b 33be 4d00 25be 1884 e33d bf66 0cbd
00000090: b9c1 e5bc 78f2 1cbe eb2b 11bd 2e14 4dbe
000000a0: 9ed9 51be 32d7 403e 07e4 2d3e 0751 ccbd
000000b0: 672c 67bd d768 a63d dc6c c4bd c0e9 d9bd
000000c0: 3117 74bd 76d9 543d 2a10 5fbd 829b 42be
000000d0: ce07 f63d fc8b 8abd ebab d2bd 7fe3 5ebc
000000e0: 8079 20be 561d 1cbe 6630 d23d bff9 2d3d
000000f0: 3b10 44be 3f00 bcbd f293 2bbe 7b06 1b3e
00000100: 72a1 bdbd 38f6 39be dd44 273e 10f1 bdbd
00000110: 79f4 e9bd 9d6b dc3c f31b 26be 55b2 143e
00000120: bed1 15be 8ea8 67bd c852 e5bc cf7a 08be
00000130: a852 963d bc5a 063e 6ae7 1bbe 7726 1fbd
00000140: f9bd a33b 1a8a 49be 4c8e c13d 5728 1ebe
00000150: ec59 233c e3c9 2e3d 320b 04bd 4d55 26be
00000160: 541b fd3d 76d4 223e e902 ba3d 7735 08be
00000170: 58b5 173d 22be d1bc 4018 3d3d b13c 633c

decode_conv2.bias f4 [4]
0.012392912 0.092991725 0.09721347 -0.09063532
00000000: a40b 4b3c 7272 be3d db17 c73d 039f b9bd

decode_conv3.weight f4 [2, 4, 3]
0.09278287 -0.028305793 -0.15365396 0.18362339 -0.2654122 0.1623152 -0.11919792 -0.0037835804
0.09936903 0.052831504 -0.011476876 -0.2353837 0.1891237 0.114336714 -0.15731229 -0.05721836
0.18038127 0.09952155 -0.16771595 0.11402189 -0.036647994 -0.043144934 -0.18830992 -0.09338653
00000000: f204 be3d 8de1 e7bc 7757 1dbe c507 3c3e
00000010: 1ce4 87be f535 263e 0a1e f4bd f2f5 77bb
00000020: fd81 cb3d d965 583d 8209 3cbc 6d08 71be
00000030: a5a9 413e 5e29 ea3d 7916 21be cd5d 6abd
00000040: deb5 383e f4d1 cb3d bbbd 2bbe 4f84 e93d
00000050: 351c 16bd beb8 30bd 51d4 40be 7041 bfbd

decode_conv3.bias f4 [2]
-0.20027076 -0.04589752
00000000: c713 4dbe 0aff 3bbd

decode_conv4.weight f4 [2, 2, 3]
-0.20690799 0.0026917693 -0.112205364 0.12864333 0.34800157 -0.01419561 0.12237966 -0.331955
-0.040130485 -0.24498022 -0.24416755 -0.3460104
00000000: b0df 53be 6568 303b edcb e5bd 14bb 033e
00000010: 432d b23e b494 68bc 30a2 fa3d 01f6 a9be
00000020: dd5f 24bd 18dc 7abe 0f07 7abe 4628 b1be

decode_conv4.bias f4 [2]
-0.00040068186 -0.0010742819
00000000: 9c12 d2b9 ebce 8cba
