training_model/wandb/run-20200707_200448-2nfh8f7v/aoa_fir_6cov_1.pt (torch_old, 403058 bytes, 16 tensors)

encode_conv1.weight f4 [4, 50, 3, 3]
00000000: 9a3d 59bd e512 23bd fbd2 6f3b f103 f13a
00000010: 6074 c03c afdf 0dbd ebf1 2abd 490a 4abd
00000020: 4884 6a3d 4264 c8bc ec24 e9bb f1d4 9cbc
00000030: b88a 05bd d784 bcbc d347 643a 1651 733c
00000040: 1f3b 06bd 99de b2bb c327 59bc e126 31ba
00000050: 4ac7 c7bd 45e5 ff3c 8975 85bc 9e57 88bb
00000060: f920 673b 369b e33c 9db2 feba d63d 93bc
00000070: 868e 11bd fe25 99bc 86f1 bd3b 4df0 213d
00000080: 89fb 09bc 98c0 b73c c4d8 7e3d 2ec1 a7bd
00000090: d278 04bb d8bf 853d f99a 353d 30cc 8c3c
000000a0: 7946 ef3c 8551 d03d 0d56 2abd 4927 483d
000000b0: e348 f83d d646 30bc dc97 463d 6885 273d
000000c0: d9f7 87bd 4cf6 843c 61c1 b23d e9a8 6d3d
000000d0: 2d63 a03d 0eb2 b03d 71dc 213c 3974 283d
000000e0: 7668 473d 5561 9d39 aafe 05bd e564 bc3d
000000f0: 9749 683b 958d 723d e230 133d a468 84bc
00000100: 878d 8a3d cafc 5a3c 87b3 bb3c d62f 2d3d
00000110: 5f35 ba3d 0b9c 253d 0441 0e3d 7559 d13d
00000120: 56d0 433a 6ab1 a23d c1f4 af3d b5db 553d
00000130: b6e6 093d 729e c83d 9e9f 323d bc25 9abb
00000140: 8f71 983d d9bc 3d3d 19ed 343d 9898 193e
00000150: 7d30 b13d 7d86 633d de95 b43d 8808 9a3c
00000160: 73a5 cd3d 6a4c d83d f00d af3d 37e2 843d
00000170: 0ce6 a03d 3e9b d53d 757c 853d b317 893d
00000180: 2d2e 6a3d fae2 783d 0d03 093e 1674 37bb
00000190: d749 8e3d bd86 3dbd a12c 003d d041 983d
000001a0: e452 a3bc 37bc 843c 5bb9 083e 649e 56bc
000001b0: 8a8a 023c 3d8b 653d 82fa 8e3d f04b 873d
000001c0: 5c6a ef3c 4f98 e73d 4e17 bbbb 8080 973d
000001d0: 83b9 0b3e 54d5 cfbc d4e2 403d f471 8a3e
000001e0: 1b9b 9f3c 0f61 f93b 6620 b43d 53a8 5dbd
000001f0: 50c0 b5bd 8c58 043e f497 ae3d 002f 50bd
00000200: 858b ab3d a856 db3c b1b6 443d b029 833c
00000210: b7ab 9bbd 68cf 0d3d eaec ae3d 1900 1f3d
00000220: 555c 3b3d 6c11 c43c 4737 debd 4f84 e63c
00000230: 9973 8b3d 1bae 7fbd f3ff 0a3c 7b21 063b
00000240: 8e86 82bc e0fd 883d 2767 3fbd 81a9 a3ba
00000250: d1f0 fc3b d7b2 50bc b0bf 2e3d e154 c33d
00000260: 4c2c 80bd 6eba e1bc 124e a03d 724a 3a3c
00000270: 321a 91bd 0f6a 013d ed21 61bc 3bef 923d
00000280: fb14 d33c bde6 66bc b343 c7bb a691 be3d
00000290: ca88 1a3d b0dc 11bd 061b 0e3d e03c 153d
000002a0: e52c b93d b7f7 b13c 1bc1 183d 64d8 713d
000002b0: a779 e4bc a409 ac3d 4670 ddbc 5ab1 c2ba
000002c0: fb94 f93c b2c2 3b3d cc16 c53c f7d2 40bd
000002d0: 65b8 b5bc 23a7 1d3d 2617 7abd 0177 ca3c
000002e0: c1c1 743d f5b2 9bbc e8a5 c3bc 225d 6cbc
000002f0: 170d 16bc 030a 74bd 630f 233d 75f6 1d3d
00000300: 87a9 8cbd 9e40 3c3d e164 54bd 9903 12bc
00000310: 1f39 e1bc 84d5 ae3c c5a3 33bd 8362 363d
00000320: 02d8 87bd 2ad2 d1bb f3b8 4a3c 74c7 91bc
00000330: b680 87bc 98eb 59bd 91f6 b6bd 6cec 1d3c
00000340: ed57 813d 36fd 0b3d 0040 37bc d8c4 283d
00000350: a433 603c 82be b9ba 42e2 58bd 24a3 4cbd
00000360: 5d58 923c 1ea8 7f3c f50b c03c cac2 0abc
00000370: 7f5b 813d 7381 a4bc efc1 edbc 7fc8 87bd
00000380: 13d1 773d ad97 ffbc a976 ec3b 0022 43bd
00000390: 5502 88bc 716a 9f3a 2a22 9ebb dfcb 25bc
000003a0: 5c75 cbbc 3fa5 473c c2fd 073d 12dd 923c
000003b0: c6ea 233d 0931 1cbc 454f 40bb bb7b d6bb
000003c0: 7091 dd3b 9726 66bd adf2 6b3d 4246 b1bb
000003d0: 87df ab3d 220d 423d c206 4cbd 16dd 5e3d
000003e0: e47d 443d 28e2 b53b 8a22 a43d dbcf 65bd
000003f0: 8b36 a4bc df95 25bc 9fb5 f53c 313b 69bd
-0.053037263 -0.03981294 0.003659426 0.0018388015 0.023492992 -0.03463715 -0.041734617 -0.049326215
0.05725506 -0.02446187 -0.007114997 -0.019144507 -0.032602996 -0.023012562 0.00087082124 0.014850875
-0.032771226 -0.0054586646 -0.013254109 -0.00067578076 -0.09754808 0.031237254 -0.016291397 -0.0041608354
0.0035267456 0.027783971 -0.0019431893 -0.017973822 -0.03553631 -0.018694874 0.005796614 0.03953581
-0.008421787 0.022430703 0.062218443 -0.08191143 -0.0020213616 0.06530732 0.044337247 0.017187208
0.029208409 0.101717986 -0.04158597 0.04886559 0.12123277 -0.010759076 0.048484668 0.04089871
-0.0663907 0.016230725 0.0872829 0.058022413 0.07831416 0.08627711 0.0098792175 0.041126464
0.048683606 0.00030017892 -0.03271357 0.091989316 0.0035444254 0.059217054 0.03593529 -0.016163178
0.067652754 0.013365934 0.022912754 0.042281948 0.09092211 0.040432017 0.034729972 0.10222141
0.0007469704 0.07943995 0.08591605 0.052211482 0.03366729 0.09795846 0.043609254 -0.0047042053
0.074435346 0.046322677 0.044171426 0.14999616 0.086518265 0.05554818 0.088176474 0.018802896
0.100413226 0.1056145 0.0854758 0.064884596 0.07856378 0.10430001 0.06517879 0.066939734
0.057172943 0.060763337 0.1338007 -0.0027992777 0.069476776 -0.046271075 0.03129256 0.07434428
-0.019936986 0.01620303 0.13351957 -0.013099287 0.007967601 0.05604099 0.06981374 0.06606281
0.02922552 0.113083474 -0.0057095652 0.07397556 0.13644986 -0.025370277 0.04709132 0.27040064
0.01948314 0.0076104472 0.08795242 -0.054115605 -0.08874571 0.12924403 0.085250765 -0.050826073
0.083762206 0.02677472 0.04802579 0.01601109 -0.076011114 0.034621626 0.085412815 0.038818453
0.04574235 0.023934089 -0.10850387 0.028139262 0.06809158 -0.0624219 0.008483875 0.0020466733
-0.015933301 0.06689048 -0.046729233 -0.0012486429 0.0077191372 -0.012737951 0.042663276 0.09537674
-0.06258449 -0.027554717 0.07827391 0.011370288 -0.070850745 0.031595286 -0.013740999 0.07174536
0.02576684 -0.014093098 -0.0060810684 0.09305124 0.03772811 -0.035610855 0.03469374 0.036435008
0.09041766 0.021724565 0.037293535 0.059044257 -0.02789004 0.08400276 -0.027031075 -0.001485388
0.030466547 0.045839973 0.024058722 -0.04707619 -0.022182653 0.038489472 -0.061057232 0.024714949
0.05975509 -0.019006232 -0.023882821 -0.0144265015 -0.009158394 -0.05957986 0.039809596 0.038565118
-0.06868272 0.04596006 -0.051854018 -0.008911991 -0.027493058 0.021342047 -0.043857355 0.04452754
-0.06632997 -0.0064032273 0.012373197 -0.017795302 -0.016540866 -0.053203195 -0.089337476 0.009638887
0.06315599 0.034177028 -0.011184692 0.04120335 0.013684187 -0.0014171156 -0.05295015 -0.04996027
0.0178644 0.015604047 0.023443202 -0.008469293 0.063162796 -0.020081257 -0.029023139 -0.066300385
0.060502123 -0.031200254 0.007216294 -0.047639847 -0.016602674 0.0012162459 -0.00482585 -0.010119407
-0.024836235 0.012185394 0.033200987 0.01792768 0.04001882 -0.009533175 -0.0029344123 -0.0065455115
0.0067617223 -0.056189146 0.05760448 -0.0054099867 0.08392244 0.047375806 -0.049811132 0.054410063
0.04797162 0.0055506416 0.080144 -0.05610643 -0.02004554 -0.010106533 0.02999383 -0.056941215

encode_conv1.bias f4 [4]
00000000: 90ca 03bc a20c bd3c 696c 973d f28a a63c
-0.0080439 0.023077313 0.073937245 0.020329926

encode_conv2.weight f4 [4, 4, 3, 3]
00000000: d531 edbd d288 363e d689 a93d 08dc 6c3d
00000010: 3509 623e 44a6 423e b2f9 2cbd f501 3b3e
00000020: ff31 d9bd 2a84 5d3e 58b1 cbbc 9e30 66be
00000030: 6b1a 00bd ce6e 2a3d 23cf 1b3e e221 5b3e
00000040: 57b6 cdbc 86d3 933c e110 afbe cbd2 34be
00000050: 1c52 173e 3b47 0abe b8fd eabd a57a 4cbe
00000060: e674 54be c163 bebd f49a 993c 037a 9bbe
00000070: be61 03be 5942 a23c 4334 403e 59ff e43c
00000080: 8591 f7bd 6265 7dbc 7961 bcbe ecf7 6ebe
00000090: 08c9 2d3c 2edf 0cbd ca6e 2b3e 65d2 fdbd
000000a0: fb73 763b 9f50 053e 70e0 553d 1c1a 8a3d
000000b0: 480e 1c3d 54c1 873d 6f50 403e a042 9ebd
000000c0: 22f4 b7bd 14fc c8bd 1ef0 35be 31f9 27be
000000d0: 4f91 263e 71af 673d 634b 103d 072d 41bd
000000e0: 8c84 b33d 6dab bebc 0c00 eebd 60f6 6a3e
000000f0: 00c2 663e 5562 36bd e22e 5e3b 3807 9abe
00000100: 6802 373e 8c81 2c3e 7e3c 81be 7791 95bd
00000110: 52bb 273e 8969 dcbc 23e1 dc3d da60 193e
00000120: 4429 fbbc e22a 323e 4134 663d 768f 523e
00000130: d6a0 713e 5528 403c 7687 423e 97c0 3b3e
00000140: 2c06 84bd b244 1dbe e0b9 e2bd d9c0 5b3d
00000150: 7944 f9bd 6d9d f4bd 9bf9 a43d bcfd ccbd
00000160: cd2a 74be d212 063e 46e3 2dbc 4c3f a0bc
00000170: 93b4 52bd 7f54 02be 45db e53d 9d91 dc3d
00000180: df4d 3c3d 5f19 00be 7a44 aabd 9092 813e
00000190: c740 be3e 4b71 f23d 1775 603e 244d fb3d
000001a0: 8567 58bd d0c2 96bd 815b 813c 9d18 13bd
000001b0: 73c4 823b ee4f aebc 1cad 543e 5a17 6c3d
000001c0: 4298 fd3d a1ce 6d3e 31c2 a13d a321 e63d
000001d0: 3cf5 60bd 66cb c4bc 0604 0dbd 5e1e 353d
000001e0: f174 4e3c bcff 51be 31a9 a4bc d904 4e3e
000001f0: 8131 863c 52ba 8dbe 0f52 2e3d 8af1 a1bd
00000200: b7cc 80bd 0493 ebbd ab84 2cbe 6d9a 50bd
00000210: 2b32 e93d 19c0 8cbc 0b4f 1cbe 2793 9bbe
00000220: d7d3 293e ff1d 0cbe d39d 1dbb d40c 893d
00000230: 7811 2dbe cc69 37bb b18b 02be d91a b6bd
-0.1158177 0.1782563 0.08278243 0.057827026 0.22073825 0.19008738 -0.042230316 0.18262465
-0.10605239 0.21632448 -0.024864838 -0.22479483 -0.031275194 0.041609578 0.15215735 0.21399644
-0.02511136 0.018045198 -0.34192565 -0.17658536 0.14777416 -0.13503735 -0.11474174 -0.1996866
-0.20747718 -0.0929637 0.018750645 -0.30366525 -0.12830254 0.019807028 0.18769936 0.02795379
-0.120883025 -0.015466066 -0.36793116 -0.23336762 0.010607012 -0.03439253 0.16741481 -0.12393645
0.003760575 0.13019036 0.052215993 0.06743261 0.038099557 0.06628671 0.18780683 -0.077275515
-0.089821115 -0.09813705 -0.17767379 -0.16403653 0.16266368 0.0565638 0.035228144 -0.047162082
0.08765516 -0.023275102 -0.11621103 0.22945547 0.22534943 -0.04452737 0.0033902456 -0.30083632
0.17872012 0.16846293 -0.25241464 -0.07303136 0.16380051 -0.026905792 0.10785129 0.14978352
-0.030659325 0.17399171 0.056202177 0.20562539 0.2359651 0.011728366 0.18996987 0.18335186
-0.0644649 -0.15358236 -0.11070609 0.05365071 -0.12171263 -0.11944089 0.08055421 -0.100093335
-0.23844452 0.13093117 -0.010613268 -0.019561432 -0.05144174 -0.12727545 0.11223463 0.10769961
0.0459727 -0.12509678 -0.08313842 0.2530713 0.37158796 0.11838015 0.21919666 0.12270573
-0.0528331 -0.07361376 0.015790703 -0.035912145 0.0039907037 -0.021278348 0.20769161 0.057639457
0.123825565 0.23223354 0.07898367 0.112368844 -0.054921374 -0.02402277 -0.034427665 0.044218414
0.012601123 -0.20507711 -0.020100208 0.20119037 0.016381027 -0.27681214 0.042558726 -0.07907398
-0.06289046 -0.115026504 -0.16847484 -0.050928522 0.11386522 -0.017181443 -0.15264527 -0.30385706
0.16584717 -0.13683318 -0.002405037 0.066919 -0.16901195 -0.0027986644 -0.127486 -0.088918395

encode_conv2.bias f4 [4]
00000000: 3df4 283d 4dcd 2bbd fda0 d8bd 57e3 043e
0.04124855 -0.041943837 -0.10577581 0.12977348

encode_conv3.weight f4 [8, 4, 3, 3]
00000000: fe72 03be 3837 1fbe 862c cf3d 62a0 3ebd
00000010: 8734 b3bb f0d4 e6bd 7670 8d3d 3da0 06be
00000020: 5c33 0fbe fc8c 22bd a9cb 53bd 748d 893d
00000030: a648 d0bc 1e9e de3d 953e 41be bd39 79bd
00000040: 5f3c 13bd 4ba7 0a3e e4e5 1abe 88c7 81bd
00000050: b8a0 7dbd 4cf2 6b3d 3d51 9c3d f59e 90bc
00000060: fd34 fbbd 2533 98bd 177c 7b3e f4b1 94bd
00000070: dbd8 abbd e2f2 0abe 745c acbd 9e32 4fbd
00000080: 91e2 aebd 3579 763d 9adc 2e3e 4341 cc3d
00000090: dfbe 383e 747d 21bd fc60 a23b 3de7 483e
000000a0: d600 eebd 2d5b b7bc 5729 633e 2a63 d43d
000000b0: 8743 efbd 299f edbd 6214 28be 2b1a 4fbe
000000c0: 752b 82bd 75c5 18be 322e 1bbe 37b8 0ebe
000000d0: 3087 b73d 92b2 9dbd 9b22 063e b6f4 61bd
000000e0: 8aad 29bd ac3b 8e3d af4c afbd e82c b4bd
000000f0: cfa2 023e c089 49bd 9bf7 99bd 050d 8dbd
00000100: 4c74 3fbe a7a9 4cbe 607a f73d 5d78 e53d
00000110: 09fd f6bd c48c 573d 14e9 243e ad3b db3d
00000120: d740 173e c2fb 5e3d 7f88 2e3e a92d 01be
00000130: e151 d53d bfb5 4e3e a0cb 023d aa13 d8bd
00000140: 88f1 cc3d abe6 b9bd 1c0b e8bd 85b0 0abe
00000150: 4840 06be a1a5 f0bd 9a30 27be ec09 36be
00000160: 6df3 32be 2e82 ce3d eb77 e23c ce0a adbd
00000170: e13f 14be 20bc 01be 928e 9fbd 19c6 633d
00000180: f4ef 4f3c efe2 5f3d c1f2 69be 6e54 7fbd
00000190: a34b 543e 6726 3e3d d6bc ee3c 497a ef3d
000001a0: 9a08 c3bd 6b0f 0a3e 3d37 723b 436d 07bd
000001b0: 93df a53d 7ab2 71be 1dfe 953d 9227 b1bd
000001c0: b692 ff3c 0b5f 663a 7b8e 2cbd c476 fa3d
000001d0: f081 0c3d 23bd 593c 74b5 2abe a517 09bd
000001e0: 1d36 90bc 5f2e 833d be2d 89be c7be 813d
000001f0: 1661 27be ada9 2bbe def8 143e 2e22 28be
00000200: 3f26 02be 5374 12be 1f45 77bd 5146 6f3c
00000210: 0075 f73c 209d 653d f6c8 bc3d a2a5 063d
00000220: 55a1 f5bd f490 e23c 1590 11be 9f44 683d
00000230: 427c 843d a112 08be 1b2f 083e 4058 a93d
00000240: a9b8 993c 5f75 e73b 8a95 6b3d 8471 d23c
00000250: 6271 013e 9494 91bd 22bd edbd 0973 9d3d
00000260: 1365 8c3d b5d8 083e ca5d 47bb 5200 523e
00000270: d116 ccbc 6546 b23d e6c3 24bd b813 16bd
00000280: 028f 0abd 77f4 f43d 213e 5a3e e1aa 113c
00000290: 1bd0 94bc 91a2 4f3e cd86 22be 3eb7 44bd
000002a0: 2129 bcbd b105 e93d 1a88 cbbd 6745 223c
000002b0: 297b 20be 00cf 9d3c 6918 a83d 83a2 da3c
000002c0: 92d7 4abe d93d debd ae4e 9a3d 1c9b e8bd
000002d0: 4faa b8bd 7993 a53d 2dd8 6d3a 53e2 c0bd
000002e0: 2f30 123e 41e8 1d3e 5e2f b8bd e9ec bb3d
000002f0: 44fe 02bd 1419 033e 105b fd3d 64b1 6cbd
00000300: 411c 053e c4ec f3bd 5111 883d a22c 00bd
00000310: d8de 88be 87d6 c73d 17f4 493d 9630 333e
00000320: b007 3bbe 86ea 353e 9801 b9bd 1bdb 903d
00000330: cf56 e3bd 6619 2bbb aed1 1ebe bf18 913d
00000340: a109 02bd 309f 323e 4a23 03be 51d4 92bc
00000350: 7e94 0d3e 892a 93bc 60e3 02be 59ef 7a3d
00000360: 3062 713d a200 82bd 8d71 04be 8c30 063d
00000370: 1d05 25bd 263c a1bd d08d 6f3d b5d6 073e
00000380: c3fb 01bd 2bb0 b23c 1955 233e 0b91 6c3e
00000390: fe0e 64be 12a9 543e ac88 eb3d 86d1 853c
000003a0: 8a92 043d 2064 b5bd ba02 153e cec6 b93d
000003b0: 1847 5e3d 45ba f83d f34c 98bd ddac 1e3d
000003c0: 8009 41bd 589d 773d 8ed1 b43a e93e f1bd
000003d0: 39ed b43d 7870 e8bc a31a fdbd cc31 423e
000003e0: 2ed4 f83d 2fa0 0e3e c462 183e b872 1ebe
000003f0: fad0 043e b8b7 86bd 2ac1 213e 2e4d dd3c
-0.12836835 -0.15548408 0.10115914 -0.04653967 -0.005468908 -0.11271083 0.06906216 -0.13147064
-0.13984436 -0.039685234 -0.051707897 0.06716433 -0.025425266 0.10870002 -0.1887153 -0.06084608
-0.035946246 0.1354038 -0.15126759 -0.06336886 -0.06192085 0.05760412 0.076326825 -0.017653922
-0.12265966 -0.0743163 0.24559055 -0.07260504 -0.08390971 -0.13569215 -0.084160715 -0.05058538
-0.08539308 0.060174186 0.1707634 0.09973385 0.18041562 -0.039426282 0.004955409 0.1961946
-0.11621253 -0.022382343 0.22183739 0.103704765 -0.11682802 -0.11602623 -0.16414025 -0.20224826
-0.06355945 -0.14919074 -0.15154341 -0.1393746 0.08961332 -0.07700075 0.13099138 -0.055165015
-0.041425265 0.06944975 -0.08559548 -0.08797628 0.12757419 -0.049203634 -0.0751793 -0.06887249
-0.18696707 -0.19986592 0.12083888 0.11204598 -0.120599814 0.05262448 0.16104537 0.107047416
0.14770828 0.054439314 0.17044257 -0.12615074 0.10416008 0.20186518 0.031932473 -0.105506256
0.10007006 -0.090771995 -0.11330244 -0.135439 -0.13110459 -0.11750341 -0.16327134 -0.17777222
-0.17475672 0.100834236 0.027645072 -0.084493265 -0.14477493 -0.1266942 -0.07790865 0.055608843
0.012691487 0.05465978 -0.2284651 -0.062336378 0.20731978 0.046423342 0.029142778 0.11693246
-0.09523125 0.13482444 0.0036959194 -0.033063184 0.08099284 -0.2360324 0.07323859 -0.086501256
0.031197887 0.0008787966 -0.042128067 0.12229684 0.034303606 0.013289723 -0.16670781 -0.033469815
-0.017603928 0.06405329 -0.2679271 0.06335216 -0.16345629 -0.16763945 0.1454806 -0.16419289
-0.12709902 -0.14302187 -0.060368653 0.014604167 0.030207157 0.05605805 0.09218018 0.032872804
-0.11993662 0.02765701 -0.14215119 0.056706067 0.06469013 -0.13288356 0.1329922 0.082687855
0.01876481 0.0070635523 0.05751566 0.025688894 0.12640908 -0.07108417 -0.1160834 0.07687957
0.06855216 0.13363917 -0.0030420893 0.20507935 -0.024913223 0.08704833 -0.040225886 -0.0366399
-0.03382779 0.119606905 0.21312763 0.008890838 -0.018165639 0.20276858 -0.15871735 -0.048026316
-0.09187532 0.11378039 -0.09938069 0.009904242 -0.15671982 0.019263744 0.08207781 0.02668882
-0.19808796 -0.1085164 0.07534538 -0.1135771 -0.09016859 0.08084769 0.0009073045 -0.09418168
0.14276193 0.15420629 -0.089934096 0.091760464 -0.031980768 0.12802535 0.123708844 -0.05778636
0.1299906 -0.11910394 0.06643928 -0.031292565 -0.26732516 0.09757715 0.049305048 0.17499003
-0.18264651 0.17765245 -0.09033507 0.07073041 -0.11100542 -0.0026107668 -0.15509674 0.07084798
-0.031747464 0.17443538 -0.1280643 -0.017923506 0.13826177 -0.017964618 -0.12782049 0.061263416
0.05893153 -0.06347777 -0.12933941 0.03276114 -0.04028808 -0.078728005 0.058484852 0.13265498
-0.03173424 0.021812519 0.15950431 0.23102205 -0.22271344 0.2076762 0.115006775 0.01633526
0.032366313 -0.08856988 0.14551821 0.09071122 0.05426702 0.12144903 -0.07436552 0.038739074
-0.0471282 0.06045279 0.0013795362 -0.11779577 0.08834309 -0.028373942 -0.12358596 0.18964309
0.12149845 0.13928293 0.14881426 -0.15473449 0.12970343 -0.0657801 0.15796342 0.027014341

encode_conv3.bias f4 [8]
00000000: cb24 0d3d 8285 073c 5d84 88bd 9b6e ed3d
00000010: a9af e0ba 2498 97bd 2db4 06bd 238a 12be
0.034458917 0.008271577 -0.06665871 0.11593362 -0.0017142195 -0.074020654 -0.032886673 -0.14310507

encode_conv4.weight f4 [8, 8, 3, 3]
00000000: a43c 253d 1eda 47bd 4857 43bc cc9c 053e
00000010: 60e8 e8bd 0049 43bc 360d 17be 80d4 86bd
00000020: 22e0 74bc 1fd3 93bd 7c16 47bd 7521 b9bc
00000030: 8bf1 3f3c 2986 adbd 81a2 f6bc 8f03 89bd
00000040: 88d1 d3bd eda6 aebd b975 f33d 26e9 17be
00000050: 2b4b 133e c7ae a73c 2c32 fabd 0480 033e
00000060: e900 ad3d c2f2 8f3d 1961 373e b715 a9bd
00000070: 7e08 73bd 28fc 033d e15e 4fbd 641a de3d
00000080: b9ff 573c 1811 bb3d 2aa9 fb3d b2f5 08bd
00000090: 1905 b5bc e8e1 e9bd 5c1d cb3d 8a59 753d
000000a0: 4eb2 89bc 605d f43c fab9 ab3d 7f04 fa3d
000000b0: 0b5e 6dbc aaed 03be bb52 5abc 368e 7c3c
000000c0: f30f 85bd 6cec 00be 1757 f33d fbcc 9e3d
000000d0: 8c65 353d 8fe9 1cbc ffa2 6fbd 1e6f 873d
000000e0: a30c 9a3b dbf2 033d 2e26 793b 9986 023d
000000f0: 915c a33d e14b b1bd 7e0b b1bd e389 37be
00000100: d700 e53d cf44 f43d d084 e2bd 6e60 45bd
00000110: 46ae 5b3d 7b64 ac3d ceef 9b3d 8caf 39be
00000120: 3c6c 063e 8c62 2abe 73f5 0e3c c5da 6ebd
00000130: ce46 01be e48f 3bbd 19bc e1bd a73e e13d
00000140: 8944 283c eb41 023e d3a1 7cbe 57b7 0a3d
00000150: c266 c43d c4c5 50be b7ce 08bd b154 c63d
00000160: ffe0 09be a849 76bd 67d5 8a3c 8402 02bd
00000170: dfc6 75bd 7a35 cabd 3444 7d3d 3ef9 343d
00000180: 8bd9 bebc 921b 20bc 4f69 de3d 7fd5 f13d
00000190: 7f70 3abd 008d e83d cf95 a83d 6f76 debc
000001a0: 2f80 d1bc 475f a4bb d6bb ec3d df39 e3bd
000001b0: 9715 19be 0f38 0ebe 0de7 8bbd 425a 68bd
000001c0: cf59 3dbd 8730 44be d73e 35be db34 24be
000001d0: b2e4 2ebe 7766 74be cf65 973c 3136 04be
000001e0: 1cbe 56bd d6f0 7abd 55a3 113c 6084 d23c
000001f0: a378 97bc b529 5bbd 3246 00bd d3dc 56bd
00000200: 9994 b43d 37cf adbd 347d 12be 3bba a2bc
00000210: c289 7a3d 06c3 e3bd b3da bc3d 2364 8ebd
00000220: b3b8 673e 284f b439 b0b2 763d 8502 9d3b
00000230: 5775 aabd dffc 9a3d 0be3 44bd f922 dbbd
00000240: 2dcd 7f3e 32be 04bc 6b2a 87bc bd0e 183d
00000250: bb0f 14be b519 623d 9d3e 553d 1ace d2bd
00000260: 9f68 2dbb 8d52 fbbd 76e9 2ebc 9ed7 98bc
00000270: fd7c 2abe 224b 703d 5857 9b3d c292 96bd
00000280: 6115 043e b9f3 0d3c 5996 b6bd 76b0 b9bc
00000290: 2b9e 3d3d 8b8f 99bd 2337 853c 0c91 833d
000002a0: 3764 9c3d 01cc 82bd 2503 d53d a262 b53b
000002b0: 751f b33d 254c 3bbd b51c e23d b4ae 1fbe
000002c0: e03d 30be a074 d53c cc5f 52bd 0d05 4abe
000002d0: 8d0a b73d fa6b e1bd 3009 b13d 3807 89bd
000002e0: 12f5 6a3d 3fb9 293e 7c3e 54bc 6f9b f1bc
000002f0: 5a9d 57bc b62c c7bd fd1f 07be ee5f 46bc
00000300: 4738 05be c2c4 403e 7cb6 adbd 4dca 05be
00000310: dfe2 eebc 166c 203d 8c5b 7cbd a86d db3d
00000320: afd4 813d 475c abbd 013f ff3d 559d 573d
00000330: d4a0 64bc 0a3d 833d f110 d0bd c249 393d
00000340: f8b0 163e 2630 d33d 18c0 8fbd 26a8 d03c
00000350: 39f8 ed3b fd0e 453e 165c 7a3d 68e9 9b3d
00000360: e4a3 1c3e f169 eabc 6957 d3bc 80d0 0abe
00000370: 72d6 c2bd fe6e 463d e09a 7bbd 73e6 513d
00000380: e427 bcbd c0e5 4f3c 5c2d 9cbd 8200 b83d
00000390: d1b9 1cbd 5d6a 053e 5b82 6abd 9119 6ebc
000003a0: 985f 323e 3642 25bd aa8f 36bd 697a 12be
000003b0: 9196 b9ba 500d 35bd 7758 773d 401f 5cbd
000003c0: db6b 153e bbe1 7f3c 931d 8b3b 285a 04bd
000003d0: 7ba3 f3bd 9709 8f3c c70b bebd 7800 65bd
000003e0: 2040 da3d e2a6 d1bd 43e1 e53b d7cb c23c
000003f0: bd68 21bd 6912 37bc 1e93 20be 6d1f 8abb
0.040341035 -0.048791997 -0.011922665 0.13048095 -0.11372447 -0.01191926 -0.14751133 -0.065835
-0.014946016 -0.072180025 -0.048605427 -0.022598961 0.011715303 -0.08472855 -0.030106785 -0.06690132
-0.10342699 -0.08527932 0.11887688 -0.14835033 0.14384143 0.020469083 -0.12216601 0.12841803
0.08447439 0.07028724 0.17908134 -0.08256095 -0.05933427 0.032222897 -0.050627593 0.10844877
0.013183528 0.0913412 0.12288125 -0.03343744 -0.022097157 -0.11420041 0.09917709 0.059899844
-0.016808655 0.02982968 0.083850816 0.12207889 -0.014487754 -0.1288363 -0.013325389 0.015414765
-0.06497183 -0.12590188 0.118818454 0.07753941 0.044286296 -0.009577169 -0.058505055 0.06612991
0.0047012134 0.032214027 0.0038017142 0.031866644 0.0797664 -0.08657051 -0.0864477 -0.17923693
0.11181801 0.11927187 -0.11060488 -0.048187666 0.053632997 0.08417603 0.076140985 -0.18133372
0.13127226 -0.16639155 0.008725512 -0.058314104 -0.12624666 -0.04579152 -0.11022205 0.10998278
0.010270246 0.12720458 -0.24671106 0.033866253 0.09589912 -0.20387942 -0.033400264 0.09684122
-0.13464735 -0.060128838 0.016947461 -0.03174068 -0.06000411 -0.09873481 0.06183262 0.04418301
-0.023297092 -0.009772198 0.1085993 0.11808299 -0.04551744 0.113550186 0.08231699 -0.027156083
-0.025573818 -0.0050162408 0.11559264 -0.110950224 -0.14949642 -0.13888572 -0.06831179 -0.0567267
-0.046228226 -0.19159137 -0.17699753 -0.16035788 -0.17079428 -0.23867212 0.018481163 -0.12911297
-0.052427396 -0.061264835 0.008889039 0.025697887 -0.018490141 -0.05350657 -0.031316943 -0.052456688
0.08817405 -0.08486789 -0.14305574 -0.019864192 0.061166532 -0.11121182 0.09221401 -0.06952693
0.22629051 0.0003439125 0.060229003 0.00479156 -0.08323162 0.075677626 -0.048068088 -0.1070003
0.24980612 -0.008101987 -0.016499719 0.03712343 -0.14459126 0.055200297 0.052061666 -0.10293217
-0.0026460064 -0.12271605 -0.010675779 -0.018657502 -0.16649242 0.058665402 0.07585019 -0.073522106
0.1289878 0.008664065 -0.08915395 -0.022667151 0.04629342 -0.07498082 0.016261643 0.0642415
0.07636302 -0.06386567 0.104009904 0.0055354396 0.08746234 -0.045726914 0.11040632 -0.15593988
-0.17211103 0.026056588 -0.05136089 -0.19728489 0.08937559 -0.11006923 0.086443305 -0.0669083
0.057362624 0.16574572 -0.012954351 -0.029493062 -0.013160074 -0.09725325 -0.13195796 -0.012107832
-0.1300975 0.18825057 -0.08482072 -0.13065453 -0.029160915 0.03916558 -0.061610743 0.10714275
0.06339394 -0.0836721 0.12463189 0.052640278 -0.01395436 0.06408127 -0.10159481 0.045236357
0.14715946 0.10311918 -0.07019061 0.025470804 0.0072622565 0.19243999 0.061122976 0.07612878
0.15296894 -0.02861497 -0.025798516 -0.13556099 -0.095135584 0.048445694 -0.061426997 0.051245164
-0.09187296 0.012689054 -0.07625839 0.08984472 -0.038263146 0.13028856 -0.057253223 -0.014532463
0.17419279 -0.040346347 -0.044570602 -0.14304508 -0.0014159252 -0.04420215 0.0603871 -0.05374074
0.14591925 0.015617783 0.004245469 -0.032312542 -0.11896416 0.017460627 -0.0927959 -0.05590865
0.10656762 -0.102369085 0.0070153787 0.023778839 -0.039406527 -0.011173823 -0.15681121 -0.004215172

encode_conv4.bias f4 [8]
00000000: 42eb 2fbc 3215 893d ca7f 3d3d 325f ff3c
00000010: 64b4 303d ced1 b13d ea76 473d f168 96bd
-0.010737242 0.06693496 0.046264447 0.031173322 0.043140784 0.08682595 0.04869739 -0.07344235

fc1_1.weight f4 [200, 192]
00000000: c509 c73c 22b8 783e 0fb5 343d e534 cb3c
00000010: 9124 21bc ee48 383d 9d59 30bd 33f5 743e
00000020: 079c a03c 6f29 56bd 556a 583e 36d3 793d
00000030: 29b8 e23c 3448 0bbe 447f d13d 9255 8dbd
00000040: 8a67 983e ba28 d23d ff3d 843d 25c5 f83d
00000050: 0585 2b3d 3285 59bb 4b04 5d3d eda6 1b3d
00000060: ce25 0f3d 0955 a6bb 6967 2fbc 6900 6abd
00000070: c8a3 f9bc 7f17 a5bd 73f5 423d 579f 433d
00000080: 4624 a7bd a509 1bbd dc9e 143d eac0 aa3a
00000090: 0e18 363d 6ef2 8ebe 31cf 693d 0edf 3f3c
000000a0: 7c79 8bbd 46a1 043e 189f 103c d339 90bd
000000b0: 05d5 71bc 07de 843c 637e bfbc 54c1 be3d
000000c0: 7ceb 9cbc 1d87 6d3d eb7a 63bd bf62 c63c
000000d0: 3989 643d d307 253d 18df c73d 8b5b 1dbd
000000e0: 7731 d3bd 8663 5f3b b7cc 193d 7f33 d33b
000000f0: 3bac b03d 349a 573c 3d9f bbbd 1f45 263d
00000100: 0a92 e63c b48a b6bd c5c0 23bd 59cc adbd
00000110: 1d64 a2bc 2367 b8bc 6793 523c 6878 0dbd
00000120: d163 54bd f8ca 283d 78ef a5bc ffe6 d03c
00000130: 6c56 143d f75d afbc 2528 bebd 4200 903d
00000140: d547 c1bc 9945 093d 6f24 283d 00b7 d13c
00000150: 1fb1 cebd 23ad 8c3b b73c 98bd f0bc 0abe
00000160: 9ffc d13d 1072 583d 2b28 86bd 7451 6fbd
00000170: 2957 a4bd b372 89bd fbff 253c 2f82 a6bd
00000180: c25b 6bbc 3820 2dbd 6cee 363c 9073 19bd
00000190: 94b8 92bd 2db6 213d 7aa5 cbbc a801 863c
000001a0: 366f 62bd cb44 703d 1aba dc3d 0ffc f0bc
000001b0: 8ccf 0f3d 93fd cebd 3732 dc3c c98f c33b
000001c0: d8f4 a43b c8d4 033d e06a cbbc 95a3 32bc
000001d0: 89b9 af3d 0227 2abd 9816 adbd c07f 6f3d
000001e0: afe8 8ebd ebfe 1fbc c157 5b3c 21d5 013c
000001f0: 0a0f 00bd 0069 a4bd 30b7 75bc 8ee4 99bd
00000200: 02b3 ccbc 39c4 6b3c a71a dabb a487 de3c
00000210: 34d8 37bd 5aa1 3f3d 41f0 f9bd a8e7 1bbd
00000220: 0dc5 29be 448b 27bc 0f3d 5dbc 3507 59bd
00000230: df79 cb3c c362 923d 7851 7c3c 0e27 cd3c
00000240: 25ae f33c 4230 90bd 9f34 21bd 19e6 91bd
00000250: 8fdf aabc 2913 48bd 7e58 b13c 8a04 1b3d
00000260: 1967 b0bc cc3a b5bc 65b8 76bc 3788 c43c
00000270: ff36 863d 187f 8fbd b4c4 0c3e 41d4 d8bc
00000280: dd7a 87bd 6d9d bdbd dd51 00bd 098f d8bc
00000290: abc9 2fbd 8512 253c 23ad 173c 26f7 fcbc
000002a0: 0c15 4abc 556e e5bd 4392 003e db25 f5bc
000002b0: 089f 553d a2d2 dabc 0f44 c63d ba4b 5abb
000002c0: ced1 0d3c cf9c a1bd 42ec 753b fb82 6bbd
000002d0: f42a b8bc d069 9cbd b76a 583b 9dd2 abbd
000002e0: bbf5 eabd 265c e43b 321f 56be 764b 38bd
000002f0: 0ae5 943d b770 09bd bafb cb3c c65b 233d
00000300: 3b62 88bd 3845 1f3e 382e 06bc 9b05 93bd
00000310: eed4 8b3d 11ba 2ebd eb6a 92bd 48e2 85bc
00000320: 5748 19bc 4f2b c6bd 778b f8bd 8582 2c3d
00000330: 0e50 e8bd 80cd 0cbd 7a8b 87bd d896 81bc
00000340: 854b 193e 966c 153d 9c17 92bc 7dd2 ceb9
00000350: 99c5 15bc ad6c 813d 9189 883d 363e 233d
00000360: 97a5 893d c250 8e3d 28b7 02b9 d3a0 8d3c
00000370: 1960 323c 7e0c 453c 1ed4 c13d 4a38 563d
00000380: 0b84 6e3d 9d96 583d 73e3 0cbd 53cb ea3c
00000390: 7014 3839 1d5e 2dbe 0a6e aa3d 329e 843d
000003a0: 7acf aebc c5d4 4d3e 2d32 933d 52cc 0abd
000003b0: 3fbc fcbc e626 773d e6f9 ab3d a7ee 3d3c
000003c0: 4477 d4ba ab1d aa3d 5f72 403d 6921 7c3d
000003d0: 1e17 fb3c 2d12 5b3c 4d81 4b3c eaca 783d
000003e0: 6aca 1fbc 1ea1 56bd 9cb1 c13d b3c2 a4bc
000003f0: 46be 8d3d f6aa 4c3c 2482 683d 214f 253d
0.02429665 0.24288991 0.044117983 0.024805496 -0.009835378 0.044991426 -0.043054212 0.23921661
0.01960565 -0.052285608 0.21134312 0.060992442 0.027675705 -0.13601762 0.10229352 -0.06901087
0.29766494 0.10261674 0.06457137 0.12146977 0.041874904 -0.0033190963 0.053959172 0.03800099
0.034948163 -0.005076055 -0.010705807 -0.057129297 -0.030473605 -0.08061122 0.04759736 0.04775938
-0.081612155 -0.037850995 0.036284313 0.0013027464 0.044456534 -0.27919334 0.05708236 0.011710895
-0.06810281 0.12952146 0.008826993 -0.07042279 -0.0147602605 0.016219152 -0.023375696 0.09314218
-0.019155256 0.057990182 -0.055537146 0.024217008 0.05579493 0.040290665 0.09759349 -0.03841738
-0.10312169 0.003408642 0.037548747 0.006445348 0.086266 0.0131593235 -0.09161232 0.040593263
0.028145809 -0.08913174 -0.03997876 -0.08486242 -0.019823128 -0.022510117 0.012852526 -0.034538656
-0.051853005 0.04120919 -0.02025579 0.025500773 0.03621523 -0.02140711 -0.09285001 0.07031299
-0.023593822 0.03351364 0.04105037 0.025599957 -0.10092377 0.0042931004 -0.074334554 -0.13548636
0.10253262 0.052843153 -0.0655063 -0.05842729 -0.08024437 -0.0671133 0.010131831 -0.08130299
-0.0143651385 -0.042267054 0.011165243 -0.037463725 -0.07164112 0.039480377 -0.024859179 0.016358212
-0.05528184 0.058659356 0.107776836 -0.029417066 0.03511004 -0.10106959 0.026879413 0.0059680683
0.0050340705 0.032185346 -0.024831235 -0.010903259 0.0858031 -0.041541107 -0.08451575 0.05847144
-0.069779746 -0.009765367 0.013387621 0.007924349 -0.031264342 -0.0802784 -0.014997289 -0.075142965
-0.024987701 0.014390045 -0.0066560092 0.027164288 -0.04488392 0.046784736 -0.12204028 -0.03806272
-0.16579075 -0.010226075 -0.013503327 -0.05298539 0.024838386 0.071477436 0.015400283 0.025043037
0.029746125 -0.070404544 -0.039356824 -0.07123966 -0.020858554 -0.048846398 0.021648642 0.037846126
-0.021533536 -0.022122763 -0.0150586115 0.023990734 0.065534584 -0.07006663 0.13746911 -0.026468398
-0.06615231 -0.09258542 -0.03132807 -0.026435392 -0.042916935 0.010075216 0.009257588 -0.030879568
-0.0123341195 -0.11202685 0.12555794 -0.029925277 0.052153617 -0.026711766 0.0968095 -0.0033309297
0.008655978 -0.07891237 0.0037524854 -0.05749796 -0.02248142 -0.0763737 0.0033022591 -0.08389781
-0.114726506 0.0069689928 -0.20910338 -0.04499384 0.07270248 -0.03355476 0.024900306 0.039882444
-0.06659361 0.15553749 -0.00818973 -0.071788035 0.068277225 -0.042657916 -0.07149299 -0.01634325
-0.009355626 -0.09676229 -0.12135976 0.04211666 -0.11343394 -0.034375668 -0.066184 -0.015818998
0.14970215 0.03648051 -0.017833523 -0.00039448208 -0.009141349 0.063195564 0.06666864 0.03985425
0.06721037 0.06948997 -0.00012465997 0.017288601 0.010887169 0.012026904 0.09464286 0.052299775
0.058231395 0.05287801 -0.0343966 0.028661406 0.00017555221 -0.16930433 0.083217695 0.06475486
-0.021339167 0.20100696 0.07187305 -0.03388626 -0.030851481 0.06033983 0.08397274 0.011592544
-0.001620986 0.0830644 0.046984073 0.0615553 0.030650672 0.013371033 0.012420964 0.06074039
-0.009752849 -0.052399747 0.094577044 -0.020112371 0.069210574 0.012491932 0.056764737 0.040358666

fc1_1.bias f4 [200]
00000000: 3714 873d 2478 0bbd c9f5 b0bc 66a7 5bbd
00000010: 7de9 c63c 0035 2dbd e8c6 963d 63bd 3d3c
00000020: d35c 4ebd d98a f7bc 352e acbc 2565 fb3b
00000030: a9d3 393d 3a32 5e3b 502f 143d 46a2 f6bc
00000040: b620 423d 218e 25bc 7d6c 4f3d ad3a 8abc
00000050: 7820 bdbc 7c7e 29bd 528d 45bd 9fdd 303d
00000060: 068e 9dbc d9a7 50bd 387c ae3b 552e 39bd
00000070: 337e 653d c3d1 233d 9d0b 21bd 95bb 943d
00000080: 84d8 70bd 21e9 803d c4bd 0db9 47a0 32bd
00000090: 851b 84bc 9978 8f3c 4190 4e3c 9095 9b3d
000000a0: c6f3 7b3d 9874 d13b b5d6 46bc be1d d13c
000000b0: 56fb 31bd 0400 363d 5907 4b3b 39a0 59bc
000000c0: beeb 77bd 838e 27bd de49 e3bc e679 803d
000000d0: 52bd 87bd 0b0b 7a3c 0e8e 9e3c 5645 2cbc
000000e0: 41c0 27bd a019 1cbc 5c74 4bbc 1a8f 6cbc
000000f0: a2e4 2f3d d106 043d 5321 0a3d c418 f53b
00000100: a378 0abd f480 7f3c c043 0ebd 01bc 6e3c
00000110: 476a a2bc 35d1 853d e67b 273d 5626 9e3c
00000120: 2c71 473d 3325 5b3a dc8c b3bc a445 cdbc
00000130: 15ae 933c 3d44 88bd be9d 53bc 9252 91bc
00000140: 51d5 7b3c 7f54 323d 2c21 6ebd 81ee 403d
00000150: 47ae 273c 48fe 1dbd 39e5 8f3d b089 01bc
00000160: 2f45 9d3a de22 32bc 4fea 24bd 9b68 5c39
00000170: e54e 883d 53b6 a93c ac17 183d 33fb 8a3d
00000180: f0ca 40bb 8c8c 5bbd c363 babc 0703 8a3d
00000190: c5c7 48bd a92a 02bc 0912 5dbd 61f8 613d
000001a0: 1032 a2bc cdb6 283d 3d7d 31bd 9cb9 823b
000001b0: 081d 19bd 6f9a a3bc ffb0 2e3d b5c4 843d
000001c0: 5dec 833d 1d8b fdbc 0fc2 1b3d f89b 05bd
000001d0: 740a 73bd bc09 a33c 47de 59bc 62b1 23bd
000001e0: 7eb2 c03c e371 50bd 030b 6a3d 0bbf 5b3c
000001f0: 72fc 1ebd c093 8dbb 46f0 acbd 244b d5bc
00000200: 9dc4 92bd a2a8 80bd d307 453d 51ea 0bbd
00000210: 4d8e 303d c50e 8a3d c12d 873d 91e5 eb3c
00000220: ecae 533d 442a ddbc fd69 b1bc aec9 4ebd
00000230: 469b 3b3c a5db 023d 5a9d 7dbd e9b6 e53a
00000240: 9f23 e73c 0e09 47bd 7fce 52bc e5df 31bc
00000250: bbf6 b7bc 6f57 31bd c56d 013d ab81 803d
00000260: 5ea5 2c3b 7e23 a53c 235c 713d 4317 1f3b
00000270: fca1 83bc 1656 aabc 1497 173d 15cd afba
00000280: 2c7a 873d 1626 023c 2d96 0bbd 43f9 8cbb
00000290: 95ea 56bd 06c5 823d 13ff 053d 242a 77bd
000002a0: 09b9 0abc 4517 633d 264a 7c3d d125 743d
000002b0: 0194 0b3d a7ea 4dbd fc05 a0bd 13ca d2bc
000002c0: 0a01 523c 8423 043d 6920 263d b731 393d
000002d0: d78d 8abd f52b 6f3d 918a 353d 9534 55bd
000002e0: 9ebf e5ba 71a0 323d cbae ab3c f4c8 f0bc
000002f0: 5b35 ebbc 0a4c 3abd f319 323d 7f5b 663c
00000300: d680 55bc 23e1 0ebc 7c93 dfbc d09f 073c
00000310: 99d3 5abd daee 5bbd d191 453d 0609 8d3b
0.065956526 -0.034050122 -0.021601574 -0.05362644 0.024281258 -0.042286873 0.07362157 0.011580798
-0.050381493 -0.030217575 -0.021018127 0.0076719695 0.04536787 0.003390445 0.036177933 -0.030106675
0.047394477 -0.010104687 0.05064057 -0.016873682 -0.023086771 -0.04138039 -0.048230477 0.043180104
-0.019232761 -0.050941322 0.0053248666 -0.0452102 0.056028556 0.039994966 -0.039317716 0.07262341
-0.058800235 0.06294466 -0.00013517501 -0.043609884 -0.016126404 0.01751356 0.012607635 0.07596886
0.061511777 0.006392073 -0.012136151 0.025526877 -0.043452583 0.04443361 0.0030979721 -0.013282829
-0.060527556 -0.040907394 -0.027745184 0.0627325 -0.06627907 0.015261422 0.019354846 -0.010514578
-0.040954832 -0.009527594 -0.012417879 -0.014438415 0.04294265 0.032233063 0.033723187 0.007479759
-0.033806454 0.01559471 -0.03473258 0.014571191 -0.019826068 0.06534044 0.040889643 0.01930539
0.048691913 0.000835973 -0.021917753 -0.025057621 0.018027345 -0.066536404 -0.012916027 -0.017739568
0.015370683 0.043537613 -0.058137104 0.047102455 0.010234422 -0.03857258 0.070261426 -0.007906362
0.0011998768 -0.010872571 -0.040262517 0.00021019804 0.06655673 0.020716822 0.03713195 0.06786194
-0.0029417835 -0.053600833 -0.022752648 0.06738859 -0.04901864 -0.007944741 -0.053972278 0.055168513
-0.019799262 0.041189957 -0.043332327 0.0039894115 -0.037381202 -0.0199711 0.042649265 0.064828314
0.06441567 -0.030950123 0.038026866 -0.032619447 -0.05933614 0.019902103 -0.013297624 -0.039964087
0.023522612 -0.05088986 0.057139408 0.013412247 -0.03881497 -0.0043205917 -0.08444266 -0.026036806
-0.07166407 -0.06282164 0.048103165 -0.03415901 0.04310446 0.06741098 0.06600524 0.02879599
0.05168049 -0.026997693 -0.021656984 -0.050485305 0.011450594 0.03194775 -0.06191764 0.0017525825
0.028215228 -0.04859262 -0.012866615 -0.010856603 -0.022456517 -0.043296274 0.031598825 0.06274732
0.0026343684 0.020158526 0.05892576 0.002427534 -0.016068451 -0.020793002 0.037009314 -0.001341256
0.06615099 0.007943651 -0.034078766 -0.0043021752 -0.05246981 0.063852355 0.03271396 -0.060342923
-0.008466967 0.055442113 0.06159415 0.059606377 0.034076694 -0.05027261 -0.078136414 -0.025731122
0.012817631 0.032260433 0.040558252 0.045213427 -0.06765335 0.05839153 0.0443216 -0.0520521
-0.001752842 0.04361004 0.020957371 -0.029392697 -0.028711965 -0.045482673 0.04348178 0.0140599
-0.013031205 -0.008720669 -0.027292006 0.008277848 -0.05342445 -0.053694583 0.048234764 0.004304054

fc1_2.weight f4 [200, 192]
00000000: 92fa 863d ca1c 603d 9930 433d 440d 46bd
00000010: 07bf 283d e600 d73c 0c8e a53d 9b32 803d
00000020: 1996 f1bc cccb dc3d a58e 85bc 03bc 33bc
00000030: a951 84bd 0e35 ba3d b4b2 983d 1b6c 7abd
00000040: ce14 973c b514 9c3d ba48 b4bb 0d6f a93d
00000050: 9e2b 893d 4f8c 033b cc36 c9bb 8728 f73c
00000060: ba1b 043d 3f5f 84bd 5b59 a33a 2280 af3c
00000070: f06c 1a3d bfaa 1d3c 2931 68bd 248d 823d
00000080: 1142 5f3d dde1 a03c 259e 3f3d 3d84 8a3d
00000090: 09be 5f3b 11c5 73bd 3981 413d e9d1 77bd
000000a0: f95e 1f3d c142 f4ba 01d3 3ebd 97ac 10bd
000000b0: 2afb f9bc c652 433d 06f5 f33c 4787 26bd
000000c0: a8ef 8d3c 90d5 193c 7237 c53b 9d4b 073d
000000d0: 2424 2a3d e563 ed3b cbb0 2cb9 40b3 15bd
000000e0: 902a d0bb c7c8 0dbc aabd 7e3d e814 9b3c
000000f0: 716c 983b 48b4 873c 025f 2e3d 4da1 87bd
00000100: 6129 27bd 77d2 8c3c a3fb 08bd 5096 1ebd
00000110: 150d dd3c fbc3 6a3d 4732 2ebb f685 57bd
00000120: f332 073d fa43 8dbd 0c6d 72bd 5d99 82bd
00000130: 40f0 91b9 5028 313c 2ee2 04bc 94fa 8dbb
00000140: 3276 ecbc 394f 09bd a9b6 b4bb 6fdb 4ebd
00000150: b7f8 ef3c 35f6 4dbd 3c6f e13c 10b2 14bd
00000160: 9713 02bd 1a55 7dbc 6535 a2bb b35b 91bd
00000170: 03b0 023d fd31 49bc 3efa 91bc d9ce 6b3c
00000180: a569 833d b7c0 bc3c 90ce 94bd 9f45 01bd
00000190: 9182 eb3c a165 61bd 672f 0e3d 5065 b63c
000001a0: 9871 34bc a0d2 97bd ee87 593d 9023 933d
000001b0: 3e6d 7b3b be91 febc 2003 65bb 2b76 243d
000001c0: 7c29 ffbc b960 0e3d 9865 403d 60bf f3bb
000001d0: e5a2 913d 18de 573d e06e 163d 65ed 4f3c
000001e0: f83f a0bb 098b 5a3b 69a9 253d df6d 8abc
000001f0: 2b80 89bd f28c 8bbc ea0f 87bd 126d 7dbd
00000200: 14cc a5bc 9f50 633d 4a1c 77bd 047b 4dbd
00000210: 9fcc 2bbd ded7 2fbd cd8f cfbb c85e 6c3d
00000220: b3a6 5c3c b309 f43c 4206 583d a9cf 56bb
00000230: 3dfa 293d 80c5 853c adfb 6b3d 6758 e13c
00000240: 62d7 6dba 88f9 03bb 8bab 253c d775 643c
00000250: 885a 27bc 9ace b0bc f9f9 04bd 5506 583d
00000260: ea6d 2e3d 6213 34bd 0ec2 91bc 0553 5bbd
00000270: d5b8 92bd d295 95bd 5505 2a3c 2297 9e3b
00000280: 30e5 653c 31c0 303c 956d 8abc 31a4 403d
00000290: 1a0e 82bb a272 c13c 6919 30bd 2e91 1dbc
000002a0: e133 43bd b41e 663d bf3f b63c ca86 3e3b
000002b0: 1c5d 443d 0711 f3bc 0173 3f3d 1250 8dbd
000002c0: 139e 243d eeb1 b33d f149 3a3d 0bb8 7bbd
000002d0: a8fe 25bd a28b 4fbd 327c c3bc d2ab 45bb
000002e0: c421 343d d854 9bbd 758b 133c b0cb 48bb
000002f0: 454c 5abd 2aa0 39bd 5c5b d53c c5cc 8abd
00000300: 4e29 4b3b 8da3 913d 8237 6c3d dbc4 6a3d
00000310: 3537 ab3d c974 013d de28 e939 69f9 e5bc
00000320: 6a66 063d 6662 8e3d a9b7 04be e602 8ebc
00000330: 356b 78bd 9f8f 08bd 3107 113d ce23 4fbd
00000340: 2aee 0e3e 1359 8dbd 221d 0ebd f29a 3dbb
00000350: 7471 0dbc 189a ec3c 02db 1b3d f04e d33c
00000360: ff00 563d 27b5 6fbc 5a6b c3bc 37af 54bd
00000370: bd2c 9a3d ba74 ad3c 9f92 d3bc ffe2 57bd
00000380: e39b 093c e7fe 503d 6bcf 6b3b 0a8b 16bd
00000390: 57e7 30bb 5075 b53d bd47 313d c2c0 213d
000003a0: 7d32 bebd b90e 3e3d 2524 a83d 047d 7f3c
000003b0: 281f e73c 2e8f 553d 30b8 31ba ddb5 e4bb
000003c0: f36c 61bd fcb9 06bd e324 07bc 35fd 6ebd
000003d0: ec3b 693c 68fe 59bd e578 cfbb d8c5 5d3d
000003e0: b914 4bbd 0be5 d2bc afc7 81bd 26db 113d
000003f0: dea0 2fbb 1b78 663d 422e 15bd ada4 cf3c
0.06590761 0.054714955 0.04765377 -0.048352495 0.041197803 0.026245546 0.08083734 0.06259652
-0.029490517 0.10781059 -0.01630337 -0.010970118 -0.06460888 0.09092151 0.0745596 -0.061138254
0.018442538 0.07621137 -0.0055018337 0.082731344 0.066977724 0.0020072644 -0.0061405655 0.030170692
0.032253005 -0.06463479 0.0012462543 0.021423403 0.037701547 0.009623229 -0.056687508 0.06374577
0.054506365 0.01963895 0.046781678 0.06763504 0.003414037 -0.05951411 0.047242377 -0.06050292
0.038908932 -0.0018635617 -0.046587948 -0.035320845 -0.030515272 0.04768636 0.029779922 -0.040656354
0.017326191 0.009389296 0.0060185725 0.033031095 0.041538373 0.0072445744 -0.00016469059 -0.0365479
-0.00635273 -0.008653826 0.062192596 0.018930867 0.004651599 0.016565457 0.042571075 -0.066225626
-0.040810946 0.017190201 -0.033443104 -0.038717568 0.026983777 0.057315808 -0.002658026 -0.05261799
0.033007573 -0.06897731 -0.059186026 -0.06376908 -0.00027835555 0.010812834 -0.008110566 -0.0043328498
-0.028864954 -0.03352282 -0.005514939 -0.050502237 0.029293401 -0.05028363 0.027518861 -0.036302626
-0.031756964 -0.015462184 -0.004950213 -0.07097568 0.03190614 -0.012279985 -0.01781952 0.014392578
0.064166345 0.023041112 -0.07265961 -0.031560536 0.028748782 -0.05502856 0.034713175 0.022265106
-0.011013411 -0.074132204 0.05310815 0.071845174 0.0038364674 -0.031075355 -0.003494449 0.040151756
-0.031147711 0.03476021 0.046971887 -0.007438585 0.07111148 0.05270204 0.036726832 0.012690877
-0.004890438 0.0033347032 0.040444765 -0.016898094 -0.06713899 -0.017034981 -0.06594832 -0.061871596
-0.020238914 0.05549681 -0.060329713 -0.050166145 -0.04194319 -0.042930476 -0.006334281 0.057707578
0.013467479 0.029789781 0.052740343 -0.0032777584 0.04149841 0.016329527 0.057613064 0.027507974
-0.0009072927 -0.0020137746 0.0101117 0.013944111 -0.010214455 -0.02158289 -0.032464955 0.052740414
0.04258529 -0.043963797 -0.017792728 -0.05354597 -0.0716416 -0.073039666 0.010377248 0.004839794
0.014031693 0.0107880095 -0.016897956 0.047031585 -0.003968966 0.023614231 -0.042992983 -0.009617133
-0.047656897 0.056181625 0.022247193 0.002907204 0.04794036 -0.029671205 0.046740536 -0.06900038
0.040189814 0.08774172 0.045480672 -0.061454814 -0.040526062 -0.050670274 -0.023862932 -0.0030162227
0.043977514 -0.07584542 0.009005417 -0.0030638985 -0.053295393 -0.04531876 0.02604454 -0.06777338
0.0030999961 0.07111273 0.057670124 0.057316642 0.08360139 0.031605516 0.00044471672 -0.02807303
0.032812513 0.06952362 -0.12960686 -0.017335366 -0.060649116 -0.033340093 0.03540725 -0.050571255
0.1395804 -0.06901755 -0.034695752 -0.0028931466 -0.008633006 0.028882071 0.03805066 0.025794476
0.052247044 -0.014630592 -0.0238549 -0.05192491 0.075280644 0.021173824 -0.02582675 -0.052706715
0.008398983 0.051024344 0.0035981785 -0.03675369 -0.0026993358 0.08860266 0.043281306 0.03949047
-0.092869736 0.04640076 0.08210019 0.015593771 0.028213099 0.0521385 -0.000677946 -0.0069796876
-0.055035543 -0.032892212 -0.008248541 -0.058346946 0.014235478 -0.053221136 -0.0063315504 0.054143757
-0.04958031 -0.025743982 -0.06336915 0.035609387 -0.0026798765 0.056266885 -0.036421068 0.025347078

fc1_2.bias f4 [200]
00000000: 7db1 0fbd f442 4b3c 46d1 84bd 8e5e 6fbb
00000010: 1e2e c1bb ac5f e8bc e038 993d 6bee 413c
00000020: 3e35 5cbd 0464 74bc 2f16 06bd 2e3e 57bd
00000030: 8679 af3c cf47 aebc 52c7 393d 14f3 443c
00000040: f0ea 9bbc 7a73 71bd 9303 2fbd 7621 e33c
00000050: 8c75 6a3d 9be2 2fbd c412 a1bd 0d43 093d
00000060: 2f8e 933d 6551 b4bb 7260 3abc 4da0 bc3c
00000070: 11a4 74bc 85f8 1abd da00 483d 7cdd 1c3d
00000080: f5b1 c83c caac 243d 13a8 433b 0d31 3ebc
00000090: d755 69bc 0973 22bb 4a01 26bb d8ed 8e3d
000000a0: 0d6a 79bc 0238 b4bd 1df5 5f3d 9d27 5039
000000b0: 59b3 98bd edc3 79bd 3f3a 21bd f638 90bc
000000c0: 3918 9ebc 6301 83bd 37ba 17bd a6cd b63c
000000d0: 543b 9fbb c810 96bd a317 b13c bfde 39bd
000000e0: 7d9e 75bd 7eb9 07bd b7cc f23c a4f0 5cbd
000000f0: 55f6 5a3d 1261 5e3d 29e5 353c 54b0 43bc
00000100: eac3 d1bc 82bd 913c 35f4 3ebd 55e5 eabc
00000110: ca72 0d3c 80d6 34bd ec13 873d ebac 403a
00000120: aa48 643d ecb6 023c 92ce 03bd d056 353d
00000130: 3a70 2bbd b839 b03c a9a1 1f3c f83d 503d
00000140: ce7c 643d f56e 64bd 5e65 a23d 14eb d9bb
00000150: 28f4 893d 8391 ae3c 0060 7dbb 93f2 053d
00000160: 21cc b33b 2a18 8cbc b479 043b ad7d 263d
00000170: 9dbd 273d 0615 033d 200f 97bd 67a7 40bd
00000180: b963 6bbd 314e 45bd 1fde 383d 7f1e 87bc
00000190: 83b1 44bd d1e4 55bd 8b70 983c bc94 3c3d
000001a0: 2629 8f3d a39f 80bd 95dc 843d ae1c 77bd
000001b0: 1de4 32bd 72f6 b3ba d38a e43c b4d8 e1bc
000001c0: 375f c3bc 4016 12bd 9263 c13c cfd2 883d
000001d0: 607d 36bd 0386 8e3d b3e6 3bbc 4932 08bd
000001e0: 1c8f 9ebc af34 56bc 9904 b83c 9d23 62bd
000001f0: 6c9f 9c3c 50ea 0f3d df50 bf3c 709a ae3b
00000200: d535 1ebd f216 47bd 324d 2ebd 0580 31bd
00000210: c147 d6bc a41d ca3b 4672 98bd 4663 efbc
00000220: 5087 b13c a956 7dbd 9740 10bd 84a8 6e3c
00000230: b722 3bbd 326c f9bb 3975 023d 0628 e9bc
00000240: f044 71bc 305b cc3b 9207 e2ba dde6 9b3b
00000250: d42e 343d 60ee 5cbd 469a 733d 527d 85bd
00000260: 4be9 383b 8b30 56bd 7788 27ba f3ea e7bc
00000270: 2790 fe39 56ab 08bc e2de 323d 3267 13bd
00000280: f3cd 353d 675f 3b3d 6a54 863c 883e 3ebd
00000290: 13e4 793c 2516 343d 7a11 243d 9c4d 3e3b
000002a0: d7f8 b7bc 14cb 9ebd c0bb a1b9 b507 ffbc
000002b0: d7d7 fabb e582 313d 3424 4c3d 4852 9d3c
000002c0: d1bb 8d3b 9406 73bd eb1f e0bb f261 103d
000002d0: 2f68 4f3c 5a5f 493c 5348 6bbc c093 82bd
000002e0: 0f5e 453c b95d 4bbc eeb8 803c 8e57 963c
000002f0: e210 8fbd 04c5 edbc 0229 21bd 026a 713c
00000300: 5c60 48bd e612 22bd 6848 4c3d d879 2abd
00000310: 047e 71bd d397 b4bc 0683 033d 50d3 a03c
-0.035081375 0.0124061 -0.06485228 -0.0036524865 -0.00589539 -0.028365932 0.07481551 0.011836628
-0.053761713 -0.014916424 -0.032736 -0.052549534 0.021420252 -0.021274475 0.045356102 0.012020845
-0.019032925 -0.058948018 -0.042728018 0.027725916 0.057241008 -0.042940717 -0.078649074 0.03351121
0.07204854 -0.005502867 -0.011375533 0.023025656 -0.014931695 -0.037834663 0.048828937 0.03829716
0.024498919 0.040203847 0.0029854819 -0.011608374 -0.014241657 -0.0024787805 -0.0025330358 0.06978959
-0.015223038 -0.08799745 0.054677118 0.00019851183 -0.07456083 -0.060977865 -0.03936219 -0.017605286
-0.01929866 -0.06396749 -0.037042823 0.022314858 -0.0048593674 -0.073274195 0.021617716 -0.045378443
-0.0599656 -0.033135884 0.029638631 -0.05394043 0.053457577 0.054291792 0.011101999 -0.011943895
-0.025606114 0.01779056 -0.046619613 -0.028673807 0.008633325 -0.044149876 0.06595597 0.00073499855
0.05573336 0.007978182 -0.032179423 0.044272244 -0.041855074 0.021511897 0.009743133 0.050840348
0.055783086 -0.05576988 0.079294905 -0.006650338 0.06736022 0.02130962 -0.0038661957 0.03270204
0.0054869805 -0.017101366 0.0020214142 0.040647198 0.040952314 0.03200247 -0.07375932 -0.047034647
-0.05746815 -0.048170272 0.045133706 -0.016494034 -0.04802085 -0.05222017 0.018608352 0.04604028
0.0699027 -0.06280448 0.06487385 -0.060330085 -0.043674577 -0.0013730063 0.027898228 -0.027569152
-0.023849113 -0.03566575 0.02360705 0.066808335 -0.04455316 0.069591545 -0.011468577 -0.03325108
-0.01935535 -0.013074084 0.02246313 -0.055209745 0.019118987 0.035135567 0.023353992 0.005328469
-0.038625557 -0.048605867 -0.042554088 -0.04333498 -0.026157262 0.006168084 -0.07443671 -0.029222142
0.021670967 -0.061850224 -0.035217848 0.014566544 -0.045687404 -0.007611775 0.031850073 -0.028461467
-0.014725909 0.0062364563 -0.0017244688 0.0047577457 0.04398997 -0.05393827 0.0594733 -0.065180436
0.0028215225 -0.052292388 -0.0006390879 -0.028310275 0.00048554057 -0.008341631 0.04366959 -0.035987087
0.04438586 0.04574528 0.016397674 -0.046446353 0.015252131 0.04396643 0.04005573 0.0029037958
-0.022457523 -0.07753578 -0.00030848198 -0.031131605 -0.0076551246 0.04333772 0.049839213 0.019204274
0.004325368 -0.059332445 -0.0068397424 0.035249658 0.012659117 0.0122908 -0.014360505 -0.06375837
0.012046351 -0.012412482 0.015713181 0.018352296 -0.06985642 -0.029024608 -0.03934575 0.014734747
-0.04892002 -0.039568804 0.04987374 -0.041620106 -0.05895807 -0.022045052 0.032107376 0.019632012
