training_model/wandb/run-20200624_205451-150cbb3u/AE_1.pt (torch_old, 74992 bytes, 16 tensors)

encode_conv1.weight f4 [4, 12, 3]
0.028517898 0.06382385 0.043134537 0.14856204 0.049682014 0.09132596 -0.0070565557 -0.14661902
-0.00895229 -0.06510111 0.14736144 0.07490428 -0.1151068 -0.05042527 0.07653572 0.07319064
0.09989233 0.08868649 0.09128928 0.10458799 0.10574354 0.022596186 -0.12210471 0.106761396
0.017417884 0.036184296 0.087269165 0.015801065 0.03451 0.2013117 0.05571729 0.042702824
-0.040854525 -0.14986402 0.057422627 -0.11537954 -0.06747612 -0.16376264 0.032625426 -0.049851295
-0.18733953 0.13734323 0.11013884 0.03764154 -0.023894306 0.12134143 0.13466582 -0.052762944
0.15615489 -0.11589322 -0.0094238045 -0.023473773 -0.024134943 -0.16476913 -0.07568115 -0.06895424
-0.09072044 0.017229194 -0.1817485 -0.08310106 0.07242864 -0.14366606 0.12991482 -0.09679806
-0.11014136 -0.17614773 -0.07105767 0.031094287 -0.16975665 0.11342134 0.036588002 -0.087076865
-0.064131536 -0.011624654 0.009340649 0.09950874 -0.08847142 0.13942379 0.058228925 0.14903697
-0.06716763 0.08032291 -0.06896806 -0.026366053 0.04623554 0.02191036 0.1428588 0.15413706
-0.17427951 -0.09660596 0.08758753 0.16837263 -0.15884893 0.14142682 0.12919538 -0.007251456
0.13499054 -0.14304414 -0.05031738 0.09544169 0.044338446 -0.06401742 0.12570621 -0.10939261
0.046758298 -0.094315626 -0.1679334 0.03351984 0.16991252 0.1662844 -0.114036664 0.026794642
0.124528535 0.0026803317 0.08455023 0.1274048 0.15649705 0.05461267 -0.06511375 -0.08509395
-0.07439473 -0.06004605 -0.13102943 -0.014764 0.0376096 -0.05400143 -0.0743338 -0.094046116
-0.042153228 0.12443265 0.044800814 0.07448533 -0.026568273 -0.1505998 0.044529397 0.019021856
-0.14207943 0.15282445 0.09385197 -0.10943666 0.15805669 0.15119232 -0.07319924 0.1030954
00000000: 5e9e e93c 14b6 823d d7ad 303d a620 183e
00000010: 5e7f 4b3d 1b09 bb3d ae3a e7bb 4c23 16be
00000020: a0ac 12bc bb53 85bd ebe5 163e 6a67 993d
00000030: 1dbd ebbd ba8a 4ebd c2be 9c3d f9e4 953d
00000040: 5a94 cc3d 43a1 b53d e0f5 ba3d 3a32 d63d
00000050: 1290 d83d a31b b93c 0912 fabd b8a5 da3d
00000060: f3af 8e3c fc35 143d 2dba b23d 3c71 813c
00000070: 5c5a 0d3d a724 4e3e d037 643d 28e9 2e3d
00000080: 1357 27bd f475 19be fd33 6b3d 1c4c ecbd
00000090: ec30 8abd 65b1 27be 3da2 053d df30 4cbd
000000a0: efd5 3fbe b4a3 0c3e 7990 e13d 042e 1a3d
000000b0: febd c3bc db81 f83d d6e5 093e f51d 58bd
000000c0: 11e7 1f3e 6d59 edbd 4d66 1abc 124c c0bc
000000d0: a5b6 c5bc 3db9 28be b8fe 9abd e137 8dbd
000000e0: a3cb b9bd 3d24 8d3c 471c 3abe e330 aabd
000000f0: 7855 943d 321d 13be 6408 053e 103e c6bd
00000100: cb91 e1bd 1260 34be af86 91bd 72b9 fe3c
00000110: b0d4 2dbe 7349 e83d 4ddd 153d 5b55 b2bd
00000120: 6557 83bd 5575 3ebc 8509 193c 3dcb cb3d
00000130: 8130 b5bd 1cc5 0e3e 7481 6e3d 269d 183e
00000140: 2f8f 89bd 5680 a43d 203f 8dbd 9ffd d7bc
00000150: 7a61 3d3d 5b7d b33c 9449 123e 1bd6 1d3e
00000160: 5476 32be 58d9 c5bd 1761 b33d e069 2c3e
00000170: 4ba9 22be 31d2 103e cb4b 043e 9f9d edbb
00000180: f63a 0a3e 2a7a 12be 9919 4ebd ef76 c33d
00000190: 3b9c 353d 911b 83bd 21b9 003e 3c09 e0bd
000001a0: a185 3f3d 8d28 c1bd bcf6 2bbe 1a4c 093d
000001b0: 8cfd 2d3e 7546 2a3e 0e8c e9bd 7080 db3c
000001c0: d108 ff3d 81a8 2f3b ac28 ad3d 6776 023e
000001d0: c340 203e 89b1 5f3d 5c5a 85bd bd45 aebd
000001e0: 445c 98bd d9f2 75bd 942c 06be b4e4 71bc
000001f0: 860c 1a3d 9a30 5dbd 523c 98bd 409b c0bd
00000200: dda8 2cbd 8cd6 fe3d 0f81 373d c48b 983d
00000210: b5a5 d9bc d536 1abe 7564 363d b9d3 9b3c
00000220: 457d 11be 037e 1c3e 7635 c03d 5420 e0bd
00000230: 9dd9 213e 29d2 1a3e 7ce9 95bd ae23 d33d

encode_conv1.bias f4 [4]
0.17228918 0.018503476 -0.15315007 0.093272194
00000000: 936c 303e 9a94 973c 5fd3 1cbe 7e05 bf3d

encode_conv2.weight f4 [4, 4, 3]
-0.09832607 0.10224726 -0.13651085 0.27693456 -0.049958695 0.1266358 0.2499577 -0.08873596
0.103839666 -0.023666762 0.2553984 -0.29884726 0.15554963 -0.13936351 0.07412494 0.14425908
-0.31991136 -0.08975989 -0.11066001 -0.20597115 0.13733509 0.269671 -0.27407518 0.0494392
-0.07123199 0.22498289 0.19834086 0.1995066 0.036556754 -0.26995108 0.08836237 0.028561126
-0.2903241 -0.17115778 -0.119002245 0.2193352 0.059874147 0.13993226 0.042023495 -0.10857833
0.14802481 0.120163076 -0.0035731217 -0.12506728 0.06854819 0.2403405 0.23362076 0.14216016
00000000: 2e5f c9bd 0367 d13d 80c9 0bbe 5eca 8d3e
00000010: 7da1 4cbd d1ac 013e e9f4 7f3e 33bb b5bd
00000020: e4a9 d43d cce0 c1bc 94c3 823e 8202 99be
00000030: 6748 1f3e 4fb5 0ebe d1ce 973d a7b8 133e
00000040: 6ccb a3be 09d4 b7bd b7a1 e2bd 1aea 52be
00000050: 92a1 0c3e 5112 8a3e 9553 8cbe c280 4a3d
00000060: 14e2 91bd ea61 663e de19 4b3e 754b 4c3e
00000070: 89bc 153d 0737 8abe 55f7 b43d 06f9 e93c
00000080: 5ca5 94be fc43 2fbe 73b7 f3bd 6899 603e
00000090: 983e 753d 674a 0f3e d420 2c3d 515e debd
000000a0: d193 173e 0f18 f63d 092b 6abb a311 00be
000000b0: fe62 8c3d d21b 763e 483a 6f3e 6f92 113e

encode_conv2.bias f4 [4]
-0.2305755 -0.16916391 -0.27956742 0.2538618
00000000: fc1b 6cbe 4e39 2dbe 7623 8fbe 2dfa 813e

encode_conv3.weight f4 [8, 4, 3]
-0.024156537 -0.20314218 0.18035282 0.09039325 -0.26112384 0.061174076 0.1482998 0.25814503
-0.2321829 -0.08911539 0.09390717 0.26770204 0.101825014 0.06471241 0.20358066 0.1969258
0.21676919 -0.17005812 0.09463019 -0.05608846 -0.008148015 0.20577328 0.115338616 -0.2250018
-0.14470647 0.23514217 0.057142965 -0.24200085 -0.24364437 -0.22226289 -0.22908077 -0.25275403
-0.17142342 0.24050704 0.0034286818 -0.011120029 -0.022265946 0.23254345 -0.18944702 -0.14003138
0.24771091 0.26545015 -0.24664637 0.13078389 -0.22298636 0.24033526 0.06792664 0.24572629
0.1069988 -0.18733601 0.11549114 -0.053274896 -0.124907054 -0.302711 0.080971286 0.03237943
-0.20650415 -0.22153658 0.124667615 0.07683526 0.027446 -0.08577291 0.14736356 0.13759048
0.3710934 0.3235628 0.28020805 0.044545583 0.009020953 0.11523021 -0.045506977 0.11667041
0.2315596 -0.17088674 -0.1246941 -0.048764814 -0.24824 -0.042585548 0.19922484 0.23272434
-0.13365702 0.13580434 0.22740106 -0.00972639 0.21352981 0.023631062 0.26208085 0.150258
0.21975215 -0.014673431 -0.19754942 0.27178314 -0.16641782 -0.2041218 -0.26009116 -0.055399477
00000000: eee3 c5bc 8104 50be 69ae 383e 1920 b93d
00000010: 06b2 85be ab91 7a3d e7db 173e 962b 843e
00000020: 5bc1 6dbe 2182 b6bd 6752 c03d 3e10 893e
00000030: a289 d03d f187 843d 7377 503e eba6 493e
00000040: bef8 5d3e b723 2ebe 79cd c13d 03bd 65bd
00000050: 407f 05bc 3bb6 523e a736 ec3d df66 66be
00000060: ef2d 14be 1cc9 703e be0e 6a3d 12cf 77be
00000070: e97d 79be e298 63be 2694 6abe fa68 81be
00000080: 9f89 2fbe 7a47 763e bcb3 603b c830 36bc
00000090: 1367 b6bc df1f 6e3e 66fe 41be 6364 0fbe
000000a0: eea7 7d3e 15e9 873e de90 7cbe 36ec 053e
000000b0: 8956 64be 721a 763e 1f1d 8b3d ac9f 7b3e
000000c0: 3022 db3d 03d5 3fbe 9e86 ec3d c736 5abd
000000d0: 45cf ffbd f0fc 9abe 46d4 a53d 4ba0 043d
000000e0: d375 53be 7cda 62be bc51 ff3d ce5b 9d3d
000000f0: 6fd6 e03c b5a9 afbd 79e6 163e 85e4 0c3e
00000100: f4ff bd3e 06aa a53e 6e77 8f3e 6e75 363d
00000110: 9fcc 133c d1fd eb3d 8665 3abd e5f0 ee3d
00000120: f61d 6d3e effc 2ebe 9f5f ffbd 9dbd 47bd
00000130: a032 7ebe 2f6e 2ebd 9901 4c3e 4a4f 6e3e
00000140: 63dd 08be 4b10 0b3e d3db 683e 705b 1fbc
00000150: 8fa7 5a3e ee95 c13c 762f 863e 3cdd 193e
00000160: b506 613e d568 70bc 654a 4abe 2927 8b3e
00000170: 6f69 2abe 4e05 51be ab2a 85be 90ea 62bd

encode_conv3.bias f4 [8]
-0.27070224 -0.17972475 0.30471063 -0.28359404 0.22716719 0.08604827 0.1621184 -0.1270469
00000000: 7c99 8abe c409 38be 0803 9c3e 3d33 91be
00000010: 849e 683e 133a b03d 5e02 263e 9518 02be

encode_conv4.weight f4 [8, 8, 3]
-0.16427763 -0.113605954 0.05382084 0.025831131 0.12813939 -0.16344802 0.007689775 -0.01667225
-0.15299441 -0.0716997 -0.1097374 -0.03786238 -0.12067218 0.053182494 -0.177371 0.1647468
-0.19608226 -0.115420096 -0.15224142 -0.19504465 0.0031582555 0.11770039 -0.115878105 0.2063298
-0.050530225 0.07447531 0.073251836 0.18978992 -0.013735777 0.012983056 0.0805888 -0.026505146
-0.184207 0.12827356 0.11955275 -0.13631153 0.07859259 -0.22676155 0.21120165 -0.037349332
-0.12494317 -0.16228804 0.013518607 -0.08151897 0.03809248 0.025108546 -0.11646727 -0.19638307
0.034918237 -0.17384134 0.0125712585 -0.19925995 -0.10736765 0.11894667 0.05452562 -0.10054571
0.07286294 0.1795073 0.09622055 -0.17153682 0.070562996 0.040770542 0.12218773 -0.04944081
-0.18156558 -0.080718055 0.11951123 -0.06108362 -0.12190468 0.17849152 0.023580847 0.01605858
-0.070837215 -0.1809189 -0.1307922 0.18753491 -0.035892323 0.04459128 0.025320431 0.1196088
-0.22617878 -0.18897945 0.037180047 0.09997657 0.19360742 -0.12256142 -0.07485226 -0.16920598
0.099121675 -0.124897875 0.16429488 0.008963951 -0.0035980071 -0.18548371 -0.014645438 0.13737291
0.037661992 0.19906881 0.011920534 -0.02861256 0.09131815 0.013205952 0.120440364 0.0451449
-0.20436636 -0.01993646 -0.15234789 -0.039399963 -0.048014678 0.0065223146 0.16424875 -0.10924683
-0.052989367 0.05941898 -0.042146273 0.06296507 0.026239313 0.08946104 -0.1529368 -0.11818941
-0.10483521 0.0034529557 0.14177607 -0.11364655 -0.10412726 0.029931825 0.23144683 0.07866498
0.14550297 0.0031063159 0.1157664 0.11316195 0.16181058 -0.15685154 -0.091170534 -0.16159327
-0.00908514 0.16280754 0.057174105 -0.09090866 0.19644752 -0.07106987 -0.1305226 0.14190085
0.1622273 0.07944034 0.13183594 -0.13483395 0.10696171 0.09472372 -0.04767159 0.17796257
0.07757693 0.09876034 0.08012504 0.2101756 -0.19844265 -0.02901392 0.19652885 -0.14936012
-0.07492646 -0.14324366 -0.02426538 -0.16770594 -0.09009921 0.17563203 -0.047383532 0.052937176
0.07716264 0.17879942 -0.20329179 -0.13547449 -0.017993283 0.18333448 0.03926857 -0.012910985
-0.10667532 -0.057777006 0.117010966 0.059660822 0.094632536 0.108057305 -0.051996708 -0.16209638
0.075087555 0.012481224 0.034206625 -0.028096624 -0.13623984 -0.090711586 -0.20879753 0.14466928
00000000: 6538 28be 3daa e8bd 3e73 5c3d cf9b d33c
00000010: f936 033e eb5e 27be 82fa fb3b 3e94 88bc
00000020: 91aa 1cbe 4bd7 92bd 01be e0bd 9515 1bbd
00000030: fa22 f7bd e3d5 593d bea0 35be 63b3 283e
00000040: cac9 48be 5f61 ecbd 2de5 1bbe c9b9 47be
00000050: bcfa 4e3b e70c f13d 8051 edbd 1e48 533e
00000060: c8f8 4ebd 8386 983d 0f05 963d 4a58 423e
00000070: 060c 61bc e2b6 543c be0b a53d 5221 d9bc
00000080: c3a0 3cbe 255a 033e 12d8 f43d 4095 0bbe
00000090: 27f5 a03d 2e34 68be 3f45 583e 9dfb 18bd
000000a0: 34e2 ffbd d62e 26be 267d 5d3c 6bf3 a6bd
000000b0: dc06 1c3d 70b0 cd3c 6486 eebd a518 49be
000000c0: 6d06 0f3d 7703 32be aef7 4d3c cd0a 4cbe
000000d0: 92e3 dbbd 509a f33d 4256 5f3d e9ea cdbd
000000e0: 2a39 953d c3d0 373e 480f c53d 59a7 2fbe
000000f0: 5583 903d 03ff 263d 903d fa3d 7282 4abd
00000100: 54ec 39be 824f a5bd 4ec2 f43d d132 7abd
00000110: 29a9 f9bd 7bc6 363e 9f2c c13c 488d 833c
00000120: 1a13 91bd ce42 39be 64ee 05be 2709 403e
00000130: d403 13bd 59a5 363d cb6c cf3c 75f5 f43d
00000140: 699b 67be d483 41be 1b4a 183d 84c0 cc3d
00000150: 0641 463e 7b01 fbbd 244c 99bd 5544 2dbe
00000160: 4e00 cb3d 75ca ffbd eb3c 283e 89dd 123c
00000170: 8bcc 6bbb 71ef 3dbe 6bf3 6fbc 7cab 0c3e
00000180: 7643 1a3d b2d8 4b3e 584e 433c e364 eabc
00000190: 0305 bb3d c75d 583c 70a9 f63d dce9 383d
000001a0: 6a45 51be c951 a3bc 1601 1cbe db61 21bd
000001b0: 0aab 44bd 24b9 d53b d330 283e cdbc dfbd
000001c0: 610b 59bd 5161 733d 92a1 2cbd d5f3 803d
000001d0: d4f3 d63c 5a37 b73d 779b 1cbe 4a0d f2bd
000001e0: d8b3 d6bd fc4a 623b bf2d 113e 86bf e8bd
000001f0: ac40 d5bd 9633 f53c 6600 6d3e 1b1b a13d
00000200: bbfe 143e 5593 4b3b ef16 ed3d 74c1 e73d
00000210: acb1 253e b19d 20be 9eb7 babd b578 25be
00000220: d7d9 14bc 05b7 263e 652f 6a3d 522e babd
00000230: 8a29 493e 148d 91bd b7a7 05be 754e 113e
00000240: ea1e 263e 9eb1 a23d 0000 073e e911 0abe
00000250: be0e db3d 82fe c13d 4943 43bd d23b 363e
00000260: a7e0 9e3d dc42 ca3d 9918 a43d 4638 573e
00000270: 8d34 4bbe 9aae edbc dc3e 493e dcf1 18be
00000280: 0b73 99bd 77ae 12be 31c8 c6bc 1bbb 2bbe
00000290: ef85 b8bd e2d8 333e 3c15 42bd a7d4 583d
000002a0: 7207 9e3d 3217 373e b92b 50be d3b9 0abe
000002b0: a666 93bc 09bc 3b3e 14d8 203d 9988 53bc
000002c0: 9778 dabd 95a7 6cbd 72a3 ef3d e85e 743d
000002d0: b4ce c13d 264d dd3d 80fa 54bd 98fc 25be
000002e0: 81c7 993d 0c7e 4c3c 3f1c 0c3d e42a e6bc
000002f0: 7582 0bbe ffc6 b9bd 05cf 55be 2f24 143e

encode_conv4.bias f4 [8]
0.08082348 -0.16237152 -0.12678823 -0.03850779 -0.16227418 0.1834478 -0.00366297 -0.19142637
00000000: c886 a53d b844 26be c6d4 01be 58ba 1dbd
00000010: 342b 26be bdd9 3b3e 700e 70bb 4605 44be

encode_conv5.weight f4 [16, 8, 3]
-0.09516404 -0.13547239 -0.012035489 0.0504618 -0.119875096 0.17179036 0.17239168 -0.04740596
-0.0072841346 0.19517714 -0.16993076 -0.09712878 -0.008344054 -0.11668057 0.064139426 0.0032006502
0.110206574 -0.20171633 -0.07668784 -0.0008596033 0.102398336 -0.13669825 -0.08549561 0.19828594
-0.17533475 0.16884974 -0.0066615194 -0.0749608 -0.03874649 0.0911344 -0.10689021 -0.12933078
0.08817646 0.20236498 0.03933619 0.14005813 -0.0053480417 -0.11651902 -0.17610036 -0.146982
0.13047782 0.1037454 0.099897444 -0.07559244 -0.028944671 0.17662323 -0.19324028 -0.052970618
-0.18140915 0.19450957 0.11125964 0.17569566 0.0915862 0.048030138 0.036063477 0.08883107
-0.15283802 0.0092116445 -0.17651737 0.0851554 -0.050266936 0.049316198 -0.059008926 -0.12317019
-0.047481894 0.15085307 -0.04903713 0.06693941 0.15449116 0.051078826 0.12526491 -0.008493334
0.07463771 0.04652512 -0.0021033436 -0.18345243 0.10259551 0.10175243 0.04450874 -0.013189971
-0.08867532 -0.04184434 0.09148756 0.14738426 0.115686744 -0.16965061 -0.10274906 -0.13172418
-0.06392455 -0.100631535 -0.18775226 -0.18160704 -0.051203266 0.072233915 -0.028939217 0.16285548
-0.12691592 -0.011483505 0.12994549 0.18721864 0.04743874 -0.12220247 0.1462977 0.12993938
-0.11165928 -0.13383156 0.1790607 -0.05024685 0.1810683 0.020721674 0.10968429 -0.07611379
0.16834599 0.17403084 -0.115792856 0.09215221 0.107485324 -0.19249396 -0.11210057 -0.04404041
-0.14083809 -0.09943313 0.17560682 -0.17647395 0.022451341 0.1838986 -0.014794916 -0.008211479
-0.18243748 0.1011028 0.08045539 -0.19806555 -0.18086766 -0.059623003 -0.089937575 0.1146709
0.14793992 -0.1368527 0.07787454 -0.01839663 -0.18945386 0.08949554 -0.15859255 -0.1462574
0.054665893 -0.097072855 0.04491788 -0.16058606 -0.13029684 -0.05759363 -0.13853553 0.19653773
-0.15775558 0.16137779 0.13938174 0.09575969 -0.09341546 0.04132706 -0.066639006 0.006824404
-0.095726825 0.06257582 -0.15594631 0.14567524 -0.015009776 -0.20259197 -0.09111108 -0.13920324
0.12221745 0.16545877 0.13101724 -0.0019481629 -0.18003358 -0.13921519 0.10079464 0.020693108
0.13964334 -0.060192034 -0.08315631 -0.1854309 0.059325725 0.08085254 0.035508513 -0.10232575
-0.07238555 0.11312729 -0.031218514 -0.17963044 -0.091607824 -0.11178026 0.115386486 0.18188992
-0.10265535 0.111219645 -0.11972452 0.056202084 0.1973142 0.105060875 -0.04907289 0.14050084
-0.16472058 -0.039308637 0.06348544 0.041496158 -0.17953037 -0.15656239 -0.08997135 0.015675813
-0.12757492 0.07962406 -0.18035264 0.050451636 0.06297776 -0.11512154 0.16232204 -0.17924641
-0.02568683 0.19871473 0.18286842 0.030637577 -0.030382201 0.02584371 -0.09498134 0.1260283
-0.10012165 0.14765501 -0.11687709 0.08368087 0.14007282 0.1665751 -0.09681648 0.18855497
0.08065158 0.060425192 -0.018802911 0.09007478 -0.157096 0.033173487 -0.06413455 0.06635043
-0.077977926 0.108567595 0.16627213 -0.11418135 0.106295556 0.19956475 -0.17220294 -0.1104509
-0.053053096 -0.12388484 0.18343914 -0.17039965 -0.19991794 -0.09021529 -0.005279571 0.1724475
00000000: 5de5 c2bd 46b9 0abe 8030 45bc 08b1 4e3d
00000010: 1381 f5bd d0e9 2f3e 7287 303e c02c 42bd
00000020: c0af eebb 84dc 473e 5402 2ebe 74eb c6bd
00000030: 80b5 08bc 39f6 eebd 885b 833d 00c2 513b
00000040: fcb3 e13d ba8e 4ebe 840e 9dbd 0057 61ba
00000050: 38b6 d13d a0fa 0bbe 5318 afbd 780b 4b3e
00000060: f48a 33be f2e6 2c3e e048 dabb 0c85 99bd
00000070: a4b4 1ebd aca4 ba3d 41e9 dabd 4a6f 04be
00000080: dc95 b43d c438 4f3e fc1e 213d 666b 0f3e
00000090: a03e afbb 86a1 eebd a753 34be 7382 16be
000000a0: fa9b 053e 7878 d43d 0897 cc3d 36d0 9abd
000000b0: 601d edbc b8dc 343e c8e0 45be b8f7 58bd
000000c0: 52c3 39be 842d 473e 18dc e33d 90e9 333e
000000d0: 8c91 bb3d 40bb 443d 4cb7 133d 10ed b53d
000000e0: 9281 1cbe 70ec 163c f8c0 34be f465 ae3d
000000f0: b4e4 4dbd c8ff 493d 58b3 71bd a740 fcbd
00000100: 607c 42bd 3a79 1a3e 28db 48bd 8817 893d
00000110: ee32 1e3e 0838 513d 7245 003e a027 0bbc
00000120: a8db 983d 2091 3e3d 40d8 09bb f4da 3bbe
00000130: 981d d23d 9463 d03d cc4e 363d c01a 58bc
00000140: 689b b5bd f864 2bbd d45d bb3d e6eb 163e
00000150: 2ced ec3d e4b8 2dbe 196e d2bd b4e2 06be
00000160: e0ea 82bd e817 cebd 2142 40be 32f7 39be
00000170: 84ba 51bd 60ef 933d f011 edbc 96c3 263e
00000180: 3ff6 01be 5025 3cbc 6e10 053e 3eb6 3f3e
00000190: 204f 423d 4a45 fabd 10cf 153e d40e 053e
000001a0: 9fad e4bd 240b 09be b05b 373e a4cf 4dbd
000001b0: f869 393e 80c0 a93c 28a2 e03d 8ce1 9bbd
000001c0: e462 2c3e 2435 323e ce24 edbd 4cba bc3d
000001d0: 4421 dc3d 231d 45be fc94 e5bd b863 34bd
000001e0: dc37 10be 99a3 cbbd 46d2 333e 96b5 34be
000001f0: e0eb b73c ea4f 3c3e 6066 72bc 7089 06bc
00000200: e4d0 3abe fc0e cf3d ccc5 a43d b2d1 4abe
00000210: 5f35 39be 4037 74bd 3131 b8bd 94d8 ea3d
00000220: 907d 173e 1d23 0cbe b07c 9f3d 88b4 96bc
00000230: 3100 42be 7049 b73d 1666 22be 80c4 15be
00000240: 58e9 5f3d 22ce c6bd d0fb 373d ac70 24be
00000250: 896c 05be 4ce7 6bbd 42dc 0dbe 3041 493e
00000260: ae8a 21be 3840 253e 16ba 0e3e a81d c43d
00000270: 9b50 bfbd 9046 293d 087a 88bd 409f df3b
00000280: 6d0c c4bd c027 803d 64b0 1fbe e42b 153e
00000290: 90eb 75bc 4574 4fbe 7298 babd 4b8b 0ebe
000002a0: 244d fa3d 066e 293e 6229 063e 8059 ffba
000002b0: b95a 38be 6d8e 0ebe 6c6d ce3d 9884 a93c
000002c0: aafe 0e3e ec8b 76bd db4d aabd 99e1 3dbe
000002d0: 88ff 723d 0496 a53d 6071 113d 2a90 d1bd
000002e0: e03e 94bd 48af e73d f8bd ffbc 0bf1 37be
000002f0: e29c bbbd 0ded e4bd c04f ec3d 5a41 3a3e
00000300: f83c d2bd 20c7 e33d 2132 f5bd 2834 663d
00000310: bc0c 4a3e 282a d73d a800 49bd 74df 0f3e
00000320: 83ac 28be 1802 21bd a804 823d e0f7 293d
00000330: cfd6 37be e451 20be e642 b8bd 906a 803c
00000340: 00a3 02be f011 a33d 5dae 38be 60a6 4e3d
00000350: 7cfa 803d d8c4 ebbd c037 263e 5f8c 37be
00000360: 306d d2bc e07b 4b3e dc41 3b3e a8fb fa3c
00000370: 18e4 f8bc 30b6 d33c 9485 c2bd 900d 013e
00000380: 940c cdbd e032 173e 415d efbd e060 ab3d
00000390: 406f 0f3e aa92 2a3e b847 c6bd 8e14 413e
000003a0: a82c a53d 6880 773d 9008 9abc 2079 b83d
000003b0: c6dd 20be ece0 073d fa58 83bd bce2 873d
000003c0: e4b2 9fbd b058 de3d 3e43 2a3e e9d7 e9bd
000003d0: 7cb1 d93d b45a 4c3e f855 30be 1534 e2bd
000003e0: 344e 59bd 56b7 fdbd 78d7 3b3e 3f7d 2ebe
000003f0: 4ab7 4cbe cbc2 b8bd 4000 adbb 1496 303e

encode_conv5.bias f4 [16]
0.022305816 0.10396868 -0.13663693 0.116832495 0.024115592 -0.06728263 0.15004915 -0.12391487
-0.12421183 -0.09562047 0.15831888 -0.1161371 0.0635328 -0.12717648 0.048438013 0.11281189
00000000: b0ba b63c 88ed d43d 8dea 0bbe e045 ef3d
00000010: 108e c53c 7acb 89bd 7ca6 193e 14c7 fdbd
00000020: c662 febd aad4 c3bd 581e 223e 4ad9 edbd
00000030: 7c1d 823d 8d3a 02be f066 463d ec09 e73d

encode_conv6.weight f4 [16, 16, 3]
-0.04435028 0.12767446 -0.03491678 -0.1247188 -0.092237785 0.006914139 0.08808611 0.05234544
0.055129275 0.0074818283 0.09021014 0.11778206 0.14360702 -0.103404894 -0.050908394 -0.13231367
-0.08047454 0.004375592 0.1387645 0.11072761 -0.016920015 0.0003671199 0.07695244 -0.11645663
-0.09671573 -0.07329023 -0.056065314 -0.103123054 -0.06380108 -0.10019801 0.030983463 0.10069944
-0.08411923 -0.08369388 0.030868039 0.07215913 -0.025912121 -0.13154058 0.042197853 -0.10142186
-0.0025405586 -0.022680417 0.039361984 -0.14332388 -0.052661 0.11738846 -0.08110763 0.1125198
-0.11699491 -0.124305554 -0.0885639 -0.019591562 -0.023807466 -0.13210541 0.061554447 0.08959848
0.002767101 -0.035143286 -0.08846307 -0.07753938 0.036332905 0.08083755 -0.11344241 -0.03188648
0.102239475 0.019497856 0.1261588 -0.12999256 -0.12026689 0.13871723 -0.11221625 -0.13623676
-0.09262866 0.07295668 0.0055271387 -0.079777256 -0.04720711 -0.05769165 0.044895127 0.10031594
-0.05818755 -0.088327736 0.042901978 0.10800344 -0.137603 0.057930678 -0.059130475 0.12070528
0.04586126 -0.13151121 0.1252329 -0.044737667 -0.0030798614 0.07065736 0.01808101 -0.08272283
-0.101299025 0.105955094 0.0017482787 -0.0042535365 0.07490265 0.029210478 0.07195866 0.0027659982
0.005121097 -0.08584386 0.021282896 0.036290422 -0.10888164 0.13239568 -0.04235378 0.10548924
-0.13186887 -0.106719926 -0.06285399 -0.026683204 -0.028072618 -0.090832405 0.056264088 -0.072712675
0.05161281 0.092169195 0.12033883 -0.017360047 0.054736167 0.11344066 0.117667705 0.084631786
0.08454092 -0.110788554 0.09241699 0.064805835 0.13480318 0.056757838 -0.1429982 0.012130171
0.13618019 0.008922949 0.039336696 0.011178806 0.0317007 0.10347149 -0.0887931 0.014305875
0.005295068 -0.11770897 -0.070663705 -0.08402389 -0.07889484 -0.012949124 -0.1391869 0.102938294
0.0087172985 0.09099604 0.08153558 -0.07761641 0.06315084 -0.041644268 0.0008088052 -0.09475486
0.049567178 -0.033481687 -0.08101901 0.024818122 0.14265221 -0.084816456 -0.096963175 0.06649043
-0.07966472 0.011248127 -0.11247555 0.033354133 -0.11274278 0.07851052 0.01788564 0.12132123
0.13395444 0.06858234 0.11148167 0.0654494 0.08559412 0.036027864 -0.1159638 -0.036286652
-0.11402593 0.08584727 -0.010651857 0.0801947 -0.045964725 -0.07962498 -0.0014444292 -0.14398317
0.09420486 0.014194533 -0.11321905 0.13179436 0.06021467 -0.06553645 -0.07246518 -0.07006227
-0.064392306 -0.12579805 -0.029453538 -0.08693346 0.01804553 -0.08697484 0.124738514 -0.0945162
-0.07449527 0.0067270696 0.1117529 -0.057707958 0.10346164 -0.10093704 -0.13709465 0.100800425
0.09132221 -0.034254014 0.041945487 -0.12395384 -0.110151604 -0.1134097 0.10523392 0.12764862
0.0052224696 -0.10301171 -0.09309484 0.07167573 0.060588494 0.0017784536 0.08417001 -0.10555721
0.057509497 -0.1005017 0.042499766 -0.03924054 -0.11694771 0.115045935 -0.110727966 -0.0030255467
0.11481306 0.105315566 0.026830748 0.06614633 -0.031867623 -0.1263972 0.02585657 0.056146026
-0.13208684 -0.13396081 0.040708438 -0.081710026 0.048429444 0.026179925 -0.04744292 0.079180375
00000000: a4a8 35bd 18bd 023e e604 0fbd 926c ffbd
00000010: 2ae7 bcbd 0090 e23b 7e66 b43d 2c68 563d
00000020: 3ccf 613d 202a f53b 18c0 b83d b837 f13d
00000030: b80d 133e f2c5 d3bd 5285 50bd 3c7d 07be
00000040: d6cf a4bd 2061 8f3b 4818 0e3e 28c5 e23d
00000050: d89b 8abc 007a c039 3e99 9d3d d080 eebd
00000060: e612 c6bd 3019 96bd bea4 65bd 2e32 d3bd
00000070: 24aa 82bd 9d34 cdbd 08d1 fd3c 823b ce3d
00000080: b446 acbd b267 abbd f8de fc3c 2ac8 933d
00000090: a845 d4bc 93b2 06be a8d7 2c3d 44b6 cfbd
000000a0: 807f 26bb 48cc b9bc 083a 213d 7fc3 12be
000000b0: 10b3 57bd 5c69 f03d c21b a6bd c870 e63d
000000c0: 079b efbd e993 febd fd60 b5bd 7c7e a0bc
000000d0: e007 c3bc a446 07be 8420 7c3d 687f b73d
000000e0: 4058 353b 68f2 0fbd 202c b5bd f7cc 9ebd
000000f0: d0d1 143d 288e a53d 7f54 e8bd 669b 02bd
00000100: ee62 d13d f8b9 9f3c c62f 013e c51c 05be
00000110: 7d4e f6bd e40b 0e3e a2d1 e5bd a681 0bbe
00000120: 18b4 bdbd 506a 953d 001d b53b 4262 a3bd
00000130: 3e5c 41bd 144e 6cbd f4e3 373d 7272 cd3d
00000140: 1256 6ebd 2ce5 b4bd fcb9 2f3d e830 dd3d
00000150: cde7 0cbe b848 6d3d cc32 72bd 5434 f73d
00000160: 04d9 3b3d e0aa 06be 0e3d 003e d83e 37bd
00000170: 80d7 49bb ceb4 903d a01e 943c 966a a9bd
00000180: dd75 cfbd fcfe d83d 8026 e53a 4061 8bbb
00000190: 9066 993d d04a ef3c 105f 933d c045 353b
000001a0: e0ce a73b e8ce afbd 7859 ae3c 44a5 143d
000001b0: 56fd debd bc92 073e 287b 2dbd be0a d83d
000001c0: a208 07be fa8f dabd 98b9 80bd bc96 dabc
000001d0: 8cf8 e5bc 5706 babd 2c75 663d 62ea 94bd
000001e0: f467 533d 34c3 bc3d 3474 f63d a836 8ebc
000001f0: 0833 603d 9453 e83d c4fb f03d 6e53 ad3d
00000200: ca23 ad3d 1ce5 e2bd 1e45 bd3d ecb8 843d
00000210: d809 0a3e e87a 683d 1f6e 12be a0bd 463c
00000220: d272 0b3e 9031 123c 841f 213d 5027 373c
00000230: 98d8 013d dce8 d33d 28d9 b5bd 3063 6a3c
00000240: 4082 ad3b 6711 f1bd 22b8 90bd b814 acbd
00000250: 9e93 a1bd 9028 54bc 0387 0ebe 50d1 d23d
00000260: 00d3 0e3c 225c ba3d 20fc a63d 5af5 9ebd
00000270: 3a55 813d 2e93 2abd 0006 543a d60e c2bd
00000280: f406 4b3d 1824 09bd 4bed a5bd 604f cb3c
00000290: 6c13 123e 40b4 adbd a194 c6bd 222c 883d
000002a0: 4227 a3bd 104a 383c 9559 e6bd 589e 083d
000002b0: b0e5 e6bd 20ca a03d e884 923c 4477 f83d
000002c0: 5a2b 093e e674 8c3d 8050 e43d 560a 863d
000002d0: f84b af3d f491 133d 6e7e edbd 50a1 14bd
000002e0: 6d86 e9bd b2d0 af3d 2085 2ebc 1e3d a43d
000002f0: 8245 3cbd 6c12 a3bd 0053 bdba 5370 13be
00000300: 7aee c03d 3090 683c 64df e7bd 1af5 063e
00000310: a8a3 763d f937 86bd a068 94bd cf7c 8fbd
00000320: 1de0 83bd 34d1 00be 8c48 f1bc 2b0a b2bd
00000330: 38d4 933c dd1f b2bd e876 ff3d b691 c1bd
00000340: fa90 98bd c06e dc3b b4de e43d 2e5f 6cbd
00000350: b2e3 d33d 14b8 cebd 8a62 0cbe 7470 ce3d
00000360: 2407 bb3d f04d 0cbd 08cf 2b3d 83db fdbd
00000370: 2a97 e1bd 5843 e8bd e284 d73d 52b6 023e
00000380: 4021 ab3b cef7 d2bd 82a8 bebd baca 923d
00000390: a42b 783d 001b e93a 5461 ac3d 612e d8bd
000003a0: 148f 6b3d d6d3 cdbd 3c14 2e3d b0ba 20bd
000003b0: 4882 efbd 349d eb3d 58c5 e2bd 4048 46bb
000003c0: 1c23 eb3d b0af d73d 28cc db3c ba77 873d
000003d0: a087 02bd 456e 01be 28d1 d33c 60f9 653d
000003e0: c641 07be 062d 09be e4bd 263d 9657 a7bd
000003f0: f45d 463d 4877 d63c 8253 42bd 5229 a23d

encode_conv6.bias f4 [16]
-0.05508992 0.033309057 0.046681598 0.12635842 -0.14272289 0.026750535 -0.12430934 -0.12424626
0.0022106469 0.06590581 0.08508621 0.08024393 -0.01742588 0.063127756 0.13666207 0.059826076
00000000: f8a5 61bd 146f 083d 3435 3f3d 1a64 013e
00000010: f325 12be f023 db3c e595 febd d374 febd
00000020: 80e0 103b a0f9 863d ae41 ae3d ee56 a43d
00000030: b8c0 8ebc 2049 813d 24f1 0b3e 300c 753d

fc1.weight f4 [200, 56]
-0.13200635 -0.1015517 0.007971361 0.036821768 -0.12800539 -0.02948912 -0.1417645 -0.054090805
0.017899884 0.08320873 0.1587985 0.112712055 0.026433412 0.23710915 0.1157345 0.021806074
-0.05197089 0.10108536 0.08764685 0.07179605 0.11599662 0.09267583 -0.05695058 -0.064382635
0.024022141 -0.010625221 0.0488615 0.14145872 0.03927492 0.07287018 0.003456807 -0.15718222
0.039706342 -0.09604417 -0.01626269 -0.06796194 0.06894019 -0.19248807 0.0018430677 0.090045795
-0.04795416 -0.114152655 0.10343205 -0.23969544 -0.12673083 0.1358896 -0.06547274 0.13392952
0.15902689 0.013220706 0.14925192 0.09918112 -0.122621626 -0.056135546 0.12934734 -0.015257795
-0.046201453 0.074398495 -0.04491084 0.067283854 -0.033841588 -0.03082433 -0.01529998 0.084875874
-0.10701046 0.021894215 0.032128036 -0.122863434 -0.0074663614 -0.06860339 -0.034534834 0.13017218
0.02901406 -0.008833427 0.08251602 0.091053985 0.10430896 -0.09723924 -0.03518039 0.07187031
0.0644359 0.014373566 -0.03230358 0.035581995 0.031148419 0.019469079 0.028195791 0.12628627
0.057595395 -0.026911806 -0.08816347 0.09930373 0.12443127 -0.041471828 -0.11170148 0.06148607
0.10611778 -0.055856746 -0.06554411 -0.0009986521 0.032385863 -0.12951984 0.002793367 -0.124501556
-0.045360662 -0.09423084 0.10067819 -0.10565442 0.08017187 -0.12496431 0.07141594 -0.07352697
-0.03940775 0.113954425 0.093399964 0.08900515 0.11626304 0.12425316 -0.013375888 -0.09544769
-0.013330182 -0.10914589 0.10411603 -0.023362156 0.08144446 0.09078056 -0.064101696 -0.10217134
0.12500757 0.10483949 0.101720355 0.12547512 -0.01779679 -0.1054284 0.018821513 0.001440012
-0.20908888 0.039429635 -0.10275863 0.08155715 -0.095956735 -0.021431807 0.044060804 -0.04177053
-0.13531734 -0.121862866 0.0043512145 -0.12420727 0.074013025 -0.029866064 -0.036618225 -0.08347139
0.04278864 -0.0936193 0.05541592 -0.06574598 0.11935646 0.062496327 -0.13798662 0.015571561
0.037335075 0.12243558 0.058004443 -0.121166185 -0.0072594853 0.032496203 0.04121509 0.088923685
-0.07123984 0.07985728 -0.043468904 0.032453794 0.06262583 -0.07862397 0.1004122 0.113335356
0.116399035 -0.081392586 -0.079415366 0.011592098 -0.08499252 0.2153813 -0.12108733 -0.13357487
-0.012647228 0.022499103 0.12513572 -0.022897996 0.060447346 0.046638235 -0.087678485 0.019695714
-0.088235855 -0.018636925 -0.09734717 0.052914537 -0.019266833 0.010501883 0.12555107 0.011651252
0.0612784 -0.02623027 -0.061507054 -0.07289439 -0.082806684 0.02540654 0.068164796 -0.07325472
0.1309173 -0.05084177 0.012024568 0.10307129 0.12191768 -0.0041981554 0.010151238 0.050604396
0.0815885 0.045739368 -0.028327018 0.008089862 -0.008739537 -0.15106545 -0.023701955 0.038482595
-0.027659247 0.036744818 0.07617808 0.078093685 -0.03998245 -0.045255445 0.03965568 -0.11553841
0.016215695 0.072954506 -0.04412741 -0.07680455 -0.041572668 -0.1011737 -0.06776518 -0.022001704
0.09346117 0.02541345 -0.05779913 -0.011110014 0.11299884 0.13302422 -0.06254281 -0.030574735
-0.12815745 -0.116083235 -0.083344385 0.08825485 0.07754285 -0.0519279 0.07678115 0.049588915
00000000: ac2c 07be 56fa cfbd 509a 023c 6cd2 163d
00000010: d813 03be 2b93 f1bc b72a 11be 528e 5dbd
00000020: c7a2 923c 5769 aa3d 139c 223e 94d5 e63d
00000030: e28a d83c becc 723e 3606 ed3d a7a2 b23c
00000040: 6edf 54bd d705 cf3d 3180 b33d cf09 933d
00000050: a38f ed3d d3cc bd3d 0345 69bd 0bdb 83bd
00000060: 15ca c43c 6815 2ebc ff22 483d 8eda 103e
00000070: bdde 203d f63c 953d 998b 623b 60f4 20be
00000080: 1ea3 223d ceb2 c4bd 5539 85bc a12f 8bbd
00000090: 8430 8d3d 981b 45be 1793 f13a ee69 b83d
000000a0: 956b 44bd dec8 e9bd 2fd4 d33d b972 75be
000000b0: bac5 01be a526 0b3e 9216 86bd d224 093e
000000c0: f2d7 223e a99b 583c 7fd5 183e 791f cb3d
000000d0: 0c21 fbbd 63ee 65bd a173 043e d5fb 79bc
000000e0: bc3d 3dbd 3d5e 983d 6ef4 37bd 1ecc 893d
000000f0: 7a9d 0abd 4e83 fcbc c4ac 7abc 67d3 ad3d
00000100: 4d28 dbbd 7f5b b33c b098 033d d39f fbbd
00000110: 61a8 f4bb ef7f 8cbd 6674 0dbd db4b 053e
00000120: e5ae ed3c 14ba 10bc 29fe a83d 837a ba3d
00000130: f09f d53d 5e25 c7bd 5019 10bd be30 933d
00000140: f8f6 833d 1b7f 6b3c c250 04bd 6dbe 113d
00000150: f82a ff3c 9e7d 9f3c dcfa e63c 3051 013e
00000160: 26e9 6b3d 2676 dcbc 0d8f b4bd c15f cb3d
00000170: d2d5 fe3d 5dde 29bd bfc3 e4bd d1d8 7b3d
00000180: 4754 d93d 0bca 64bd fe3b 86bd 34e5 82ba
00000190: 0aa7 043d d9a0 04be ec10 373b acfa febd
000001a0: 1acc 39bd 19fc c0bd 5e30 ce3d 5861 d8bd
000001b0: 2631 a43d 4aed ffbd 8542 923d 4f95 96bd
000001c0: 056a 21bd f060 e93d 7b48 bf3d 5548 b63d
000001d0: 511b ee3d 7178 fe3d 8a26 5bbc 147a c3bd
000001e0: d666 5abc e187 dfbd c93a d53d fe61 bfbc
000001f0: 5acc a63d 29eb b93d c047 83bd 353f d1bd
00000200: fc01 003e 16b6 d63d c352 d03d 8d7c 003e
00000210: 93ca 91bc d8ea d7bd 932f 9a3c c9be bc3a
00000220: 651b 56be f880 213d 1e73 d2bd 6f07 a73d
00000230: f784 c4bd c291 afbc 1a79 343d 9317 2bbd
00000240: a190 0abe 3d93 f9bd a294 8e3b 6260 febd
00000250: 2494 973d ada9 f4bc fefc 15bd 0cf3 aabd
00000260: 2443 2f3d 7abb bfbd cefb 623d d4a5 86bd
00000270: 2971 f43d 26fc 7f3d 5d4c 0dbe dc1f 7f3c
00000280: aaec 183d 81bf fa3d 1196 6d3d fa25 f8bd
00000290: fae0 edbb bd1a 053d 27d1 283d 9f1d b63d
000002a0: 31e6 91bd 378c a33d 730c 32bd 45ee 043d
000002b0: f941 803d 9b05 a1bd e9a4 cd3d 5e1c e83d
000002c0: 9e62 ee3d 28b1 a6bd 86a4 a2bd c8ec 3d3c
000002d0: 8f10 aebd ea8c 5c3e a2fc f7bd dac7 08be
000002e0: 5236 4fbc 0a50 b83c 9423 003e 9494 bbbc
000002f0: a397 773d bc07 3f3d c790 b3bd e858 a13c
00000300: 00b5 b4bd 77ac 98bc f45d c7bd eabc 583d
00000310: 7ad5 9dbc 1710 2c3c 7690 003e e5e4 3e3c
00000320: 0fff 7a3d dde0 d6bc d2ee 7bbd a749 95bd
00000330: 8d96 a9bd 6021 d03c fc99 8b3d 9206 96bd
00000340: 2f0f 063e 763f 50bd b202 453c 0a17 d33d
00000350: faaf f93d ae90 89bb 6151 263c 8e46 4f3d
00000360: df17 a73d 3459 3b3d 100e e8bc 578b 043c
00000370: 4630 0fbc e7b0 1abe 9a2a c2bc ed9f 1d3d
00000380: a595 e2bc bc81 163d 4103 9c3d 95ef 9f3d
00000390: a3c4 23bd c65d 39bd ff6d 223d 679f ecbd
000003a0: c7d6 843c 2c69 953d f1be 34bd b44b 9dbd
000003b0: 1a48 2abd 2834 cfbd 78c8 8abd eb3c b4bc
000003c0: 9268 bf3d de2f d03c c8be 6cbd c706 36bc
000003d0: f06b e73d 8037 083e 7216 80bd de77 fabc
000003e0: b53b 03be 0cbd edbd 76b0 aabd f5be b43d
000003f0: c9ce 9e3d 5ab2 54bd 703f 9d3d bf1d 4b3d

fc1.bias f4 [200]
0.13143997 0.09992918 0.10056274 -0.079085805 -0.10612173 -0.08603028 -0.046424728 0.09804458
0.10549206 0.068189204 -0.06479913 0.06998097 0.09158882 0.064531796 -0.044296093 -0.009221426
-0.024976602 0.022386175 0.070685774 0.041808188 -0.013967412 0.049605146 -0.06831053 0.067606054
-0.12887175 -0.038348667 0.046153024 -0.04701281 0.10186538 0.12860848 0.12465416 -0.01702048
-0.09813807 0.10923022 0.0050975783 -0.011304722 0.13463819 0.034181323 -0.11460023 0.100748606
-0.12551413 -0.029542102 -0.0020086933 -0.057335746 0.11876965 0.097034216 0.057355925 0.018264614
0.030083582 0.09457651 -0.06288791 -0.09729161 0.08419072 -0.033907425 -0.07868452 -0.023547376
0.077884346 -0.04122267 -0.12650214 -0.07603828 0.11714046 0.11410072 -0.033004917 -0.0051837554
0.1085917 0.13425615 0.061579574 0.09851844 0.066234455 0.046425913 0.023083398 -0.04847345
0.05294601 0.00029977574 0.06966396 -0.060006794 0.064970545 0.03757584 -0.06483436 -0.0987846
0.0041786223 -0.08413394 -0.034923457 -0.05259282 -0.05495556 0.0941566 0.07676077 -0.09039676
-0.095980175 -0.12004241 -0.05980683 0.07350378 -0.04802085 0.04991355 0.13777469 -0.13016257
-0.10497127 -0.047541488 -0.027403628 0.0023513983 -0.116337486 -0.016384972 -0.039479192 0.029081829
-0.060529366 0.071421385 0.023729993 -0.11743877 0.08357539 0.038052727 -0.076910764 0.06438758
0.1044918 -0.087709814 0.047602057 0.011060159 -0.03836645 -0.09030284 0.064189546 0.122001864
-0.034519605 -0.071481824 0.06274983 -0.060592223 -0.066021375 0.07391743 0.06635729 0.02360235
0.011261068 -0.03562761 0.018936811 0.048674855 0.033426993 0.04781777 -0.011063084 0.10938193
0.049804155 -0.038987532 0.014247403 0.11552523 0.10848543 -0.044502992 0.056050543 0.073653445
0.0026984347 0.122246236 0.016052414 0.029459203 0.06335337 0.13506037 -0.04026754 0.10397277
-0.08622831 0.027401421 -0.07029231 -0.12055548 0.0223158 -0.026691297 0.005872013 -0.08332494
-0.03461932 0.027403487 -0.09549206 -0.0110311005 0.04493813 -0.07358421 0.089454375 -0.05384922
0.031203164 0.12799591 0.019272637 -0.06810785 0.05990966 -0.032882262 -0.13635468 -0.012815773
-0.030144205 0.12091653 0.064205766 -0.041476533 0.117911085 0.051616658 0.12349169 0.11057615
-0.020765882 -0.046897326 0.07276299 0.045771483 -0.022088442 -0.058501307 0.028233515 -0.14435188
0.041994628 0.10220549 0.027140794 -0.091475144 0.11779168 0.008330174 0.05799443 -0.03465153
00000000: 3398 063e aca7 cc3d d6f3 cd3d bdf7 a1bd
00000010: 5956 d9bd a530 b0bd db27 3ebd 99cb c83d
00000020: 390c d83d c8a6 8b3d 68b5 84bd 2f52 8f3d
00000030: eb92 bb3d 3f29 843d d26f 35bd 7715 17bc
00000040: bb9b ccbc 3663 b73c b4c3 903d 103f 2b3d
00000050: 92d7 64bc c42e 4b3d 64e6 8bbd 0b75 8a3d
00000060: f5f6 03be 7e13 1dbd f40a 3d3d 8190 40bd
00000070: cc9e d03d f1b1 033e ae4a ff3d 896e 8bbc
00000080: 9dfc c8bd 18b4 df3d 9609 a73b 7137 39bc
00000090: 98de 093e b701 0c3d 86b3 eabd 4955 ce3d
000000a0: c786 00be 4702 f2bc 48a4 03bb e3d8 6abd
000000b0: 813d f33d e0b9 c63d 0cee 6a3d ac9f 953c
000000c0: d871 f63c 54b1 c13d 60cb 80bd d340 c7bd
000000d0: 2f6c ac3d 83e2 0abd 5a25 a1bd 6de6 c0bc
000000e0: d481 9f3d 1ad9 28bd c789 01be f5b9 9bbd
000000f0: 56e7 ef3d a3ad e93d 2a30 07bd 7edc a9bb
00000100: 5365 de3d 727a 093e dd3a 7c3d 09c4 c93d
00000110: eea5 873d 1929 3e3d 6519 bd3c 198c 46bd
00000120: eadd 583d 382b 9d39 faab 8e3d afc9 75bd
00000130: 470f 853d 20e9 193d e0c7 84bd 954f cabd
00000140: d3ec 883b 6a4e acbd e60b 0fbd 926b 57bd
00000150: 1519 61bd 2dd5 c03d c034 9d3d f021 b9bd
00000160: 4191 c4bd ccd8 f5bd 02f8 74bd 2689 963d
00000170: 83b1 44bd 2772 4c3d cf14 0d3e 5649 05be
00000180: 2dfb d6bd ddba 42bd 937d e0bc eb19 1a3b
00000190: 5942 eebd c739 86bc efb4 21bd 043d ee3c
000001a0: a4ed 77bd 6045 923d 6765 c23c bd83 f0bd
000001b0: 9329 ab3d 2ddd 1b3d 6483 9dbd a3dd 833d
000001c0: ccff d53d 34a1 b3bd 60fa 423d ab35 353c
000001d0: 2426 1dbd b2f0 b8bd cf75 833d 1ddc f93d
000001e0: 6e64 0dbd 1065 92bd fc82 803d 8d2f 78bd
000001f0: 3736 87bd 0662 973d 55e6 873d b759 c13c
00000200: 5880 383c 42ee 11bd 5f21 9b3c 495f 473d
00000210: beea 083d 91dc 433d f041 35bc a203 e03d
00000220: 71ff 4b3d 64b1 1fbd f06d 693c 7e98 ec3d
00000230: 9c2d de3d c548 36bd 4195 653d 9ed7 963d
00000240: 39d8 303b 3c5c fa3d 5a80 833c 6d54 f13c
00000250: 69bf 813d 444d 0a3e 93ef 24bd adef d43d
00000260: 7898 b0bd f278 e03c 6af5 8fbd cbe5 f6bd
00000270: a0cf b63c b5a7 dabc 046a c03b 44a6 aabd
00000280: fdcc 0dbd 477d e03c 5791 c3bd cabb 34bc
00000290: 0b11 383d 51b3 96bd db33 b73d 0091 5cbd
000002a0: c79d ff3c 5c11 033e a6e1 9d3c 217c 8bbd
000002b0: d563 753d 8daf 06bd 90a0 0bbe 3ff9 51bc
000002c0: fbf0 f6bc 16a3 f73d 507e 833d 4ce3 29bd
000002d0: 5e7b f13d fd6b 533d 36e9 fc3d c075 e23d
000002e0: 361d aabc 6917 40bd c304 953d e17a 3b3d
000002f0: d2f2 b4bc 119f 6fbd f949 e73c fbd0 13be
00000300: 8f02 2c3d 1d51 d13d 5f56 de3c 5257 bbbd
00000310: c43c f13d 487b 083c 918b 6d3d c3ee 0dbd

fc3.weight f4 [25, 200]
0.053755067 0.05067334 -0.040190056 -0.06476783 -0.045911197 0.0077940393 0.023255568 0.0386359
-0.03217342 -0.040850826 -0.006142671 -0.04961579 0.0037637942 0.0058266446 0.00032028081 -0.018249167
-0.0037281953 0.05887209 0.041330464 -0.06230162 -0.04026586 -0.0481018 -0.0069959243 0.0681476
0.004590803 0.0464219 0.060462248 -0.050652813 -0.013474049 0.0041622696 -0.01795086 -0.029735189
-0.06308463 -0.04620188 0.057459388 -0.006458153 -0.0040880437 0.06858838 0.017409014 0.011747448
0.006375051 -0.016163439 0.06637329 0.05577084 0.028884837 0.02707103 0.01677665 -0.07165958
0.028624672 -0.050440103 0.023112351 0.023729356 0.011945838 0.029215476 0.01127226 -0.032319557
-0.041197866 0.007595673 0.044559512 0.025926458 0.049453013 -0.013573442 -0.015415462 0.015588088
0.04049406 0.08757571 0.058561593 -0.025286233 -0.020647258 0.03292872 0.0068361536 -0.058521103
0.050213203 -0.031178266 -0.012422236 -0.0006562717 0.031787366 0.014309333 0.010081609 0.042061925
-0.0059354124 -0.07097769 -0.066923566 0.024937797 -0.034984753 0.030826373 0.0070680245 0.05735528
-0.007744082 0.0076689604 0.037683334 -0.039934576 0.0033165459 0.038237248 -0.051488698 -0.048212238
0.05010447 -0.014196248 -0.013885535 -0.011327857 -0.045860395 -0.03316259 0.0002471306 -0.011116289
0.0078074117 0.043769117 -0.060590938 0.06967157 0.03218817 -0.013325876 0.06202345 0.010184772
0.07593133 -0.022445247 -0.05756524 0.06373691 0.03892002 0.014568464 -0.0705942 0.017260691
-0.0021353364 0.07146404 0.0018956503 -0.007833524 0.026923437 -0.037396833 0.07007585 0.06294481
0.041178755 0.0057846853 0.022457194 -0.045660328 -0.03531512 -0.058180314 -0.0008508928 0.029342195
-0.010425069 -0.024464972 0.004959636 -0.044997327 0.0512138 0.0017342769 -0.03318715 -0.032351673
0.036253616 -0.03257789 0.056260586 -0.00960952 -0.05673269 0.049141712 -0.047793467 -0.06125827
-0.028043738 -0.009682579 0.019871954 0.075037055 0.02623611 0.06966448 -0.009060443 0.03638693
0.07497567 0.040039375 0.05882816 -0.028746843 -0.009158825 -0.021332737 -0.00046212116 0.04436467
0.048638824 0.038409226 -0.06207952 0.01008269 0.04356761 0.042287957 0.07440974 -0.057260145
0.058721982 0.0016120002 0.033667497 -0.0055404324 0.0543457 -0.05092342 -0.03739947 0.011543501
0.07135432 0.03879324 0.06654456 -0.011375967 -0.0064553656 0.00061542913 -0.0037816977 0.00744093
-0.04740065 0.017470349 -0.052418757 0.042158224 -0.021462368 0.037929453 0.058127396 0.058376484
-0.1231136 0.023922188 0.049988598 0.060876936 0.009816871 0.060429648 -0.052461218 0.02384351
0.03100255 -0.05405488 0.05128359 -0.021701192 0.0093241315 -0.014088759 -0.024493234 -0.046459477
0.016407987 -0.06147293 0.05413483 -0.045510024 -0.0012558489 0.04259887 -0.034396052 -0.039167825
0.045292858 -0.0056038816 -0.031334832 0.03535789 0.015516653 0.02339308 -0.023552135 -0.016513059
0.10311705 -0.04237328 -0.008209358 -0.042918283 -0.05641706 0.040097028 0.05724616 0.05905498
-0.018808989 0.02777081 0.13936932 0.07507411 -0.013590818 0.014967461 0.049345814 0.017664192
-0.026695462 -0.03888776 -0.051388636 0.020834124 0.061027113 -0.0779 -0.051465567 0.08030487
00000000: 462e 5c3d d98e 4f3d 549e 24bd ffa4 84bd
00000010: 610d 3cbd 2465 ff3b 7682 be3c ad40 1e3d
00000020: 47c8 03bd 3253 27bd 7648 c9bb ed39 4bbd
00000030: fda9 763b 70ed be3b 5deb a739 477f 95bc
00000040: bd54 74bb dc23 713d 224a 293d fc2f 7fbd
00000050: d0ed 24bd 6506 45bd 113e e5bb f890 8b3d
00000060: 726e 963b e424 3e3d 43a7 773d 5379 4fbd
00000070: 42c2 5cbc a663 883b af0d 93bc 3697 f3bc
00000080: 8432 81bd 2f3e 3dbd 895a 6b3d ea9e d3bb
00000090: fff4 85bb 1178 8c3d 599d 8e3c 5e78 403c
000000a0: cee5 d03b 3069 84bc b8ee 873d f76f 643d
000000b0: e59f ec3c 11c4 dd3c 2f6f 893c 42c2 92bd
000000c0: 4a7e ea3c 489a 4ebd 1d56 bd3c 1164 c23c
000000d0: 7ab8 433c 4b55 ef3c 49af 383c 8361 04bd
000000e0: 18bf 28bd 20e5 f83b 0984 363d b963 d43c
000000f0: 3e8f 4a3d 2463 5ebc 2291 7cbc 2e65 7f3c
00000100: 19dd 253d e55a b33d 48de 6f3d 1325 cfbc
00000110: 7024 a9bc 44e0 063d d001 e03b d3b3 6fbd
00000120: 5cac 4d3d 9069 ffbc a286 4bbc a609 2cba
00000130: 7833 023d b171 6a3c 552d 253c 2049 2c3d
00000140: d97d c2bb c05c 91bd 390f 89bd 5a4a cc3c
00000150: 2c4c 0fbd 9787 fc3c e39a e73b 5fed 6a3d
00000160: 11c2 fdbb e74b fb3b d759 1a3d 7092 23bd
00000170: 685a 593b a99e 1c3d d0e5 52bd 327a 45bd
00000180: 583a 4d3d 6197 68bc 2880 63bc 7a98 39bc
00000190: 1cd8 3bbd 7fd5 07bd 4f91 8139 1821 36bc
000001a0: 51d5 ff3b 3f47 333d 342e 78bd f8af 8e3d
000001b0: bed7 033d c654 5abc 4d0c 7e3d 08de 263c
000001c0: e381 9b3d 18df b7bc 87c9 6bbd 7f88 823d
000001d0: 996a 1f3d 91b0 6e3c b193 90bd 4b66 8d3c
000001e0: 00f1 0bbb bd5b 923d 7877 f83a 2e58 00bc
000001f0: 8a8e dc3c 6c2d 19bd ed83 8f3d 35e9 803d
00000200: 0eab 283d 758d bd3b 26f8 b73c 5306 3bbd
00000210: 96a6 10bd 7b4e 6ebd 730e 5fba 0b5f f03c
00000220: e9cd 2abc c46a c8bc 7184 a23b 1e4f 38bd
00000230: 90c5 513d ad50 e33a 40ef 07bd 3083 04bd
00000240: ac7e 143d 6570 05bd 8071 663d 4071 1dbc
00000250: 8a60 68bd d248 493d 15c3 43bd f4e9 7abd
00000260: fbbb e5bc aea3 1ebc 82ca a23c 07ad 993d
00000270: 1ced d63c 40ac 8e3d 4172 14bc 760a 153d
00000280: d88c 993d 5400 243d ccf5 703d 807e ebbc
00000290: e50e 16bc fec1 aebc da48 f2b9 bab7 353d
000002a0: 8139 473d fe52 1d3d 1847 7ebd de31 253c
000002b0: f373 323d 2336 2d3d 2264 983d 9d89 6abd
000002c0: 7686 703d c049 d33a eee6 093d 848c b5bb
000002d0: 9999 5e3d 1395 50bd 3030 19bd f420 3d3c
000002e0: 3722 923d a9e5 1e3d 8448 883d 4462 3abc
000002f0: 8887 d3bb c054 213a 5cd6 77bb 0cd3 f33b
00000300: 2f27 42bd fa1d 8f3c 0db5 56bd 1aae 2c3d
00000310: d9d1 afbc ea5b 1b3d fe16 6e3d 2e1c 6f3d
00000320: fc22 fcbd 77f8 c33c d8c0 4c3d 185a 793d
00000330: f1d6 203c 1485 773d 93e1 56bd 7753 c33c
00000340: 0ff9 fd3c a668 5dbd be0e 523d b3c6 b1bc
00000350: 3ec4 183c 8ad4 66bc 09a6 c8bc 4b4c 3ebd
00000360: 0b6a 863c 0acb 7bbd 7cbc 5d3d b868 3abd
00000370: 4c9b a4ba 277c 2e3d e0e2 0cbd 716e 20bd
00000380: 0185 393d c4a0 b7bb f458 00bd 6fd3 103d
00000390: 8f39 7e3c d8a2 bf3c 68f0 c0bc 6546 87bc
000003a0: 082f d33d 9b8f 2dbd 8b80 06bc 15cb 2fbd
000003b0: 9315 67bd c83c 243d f37a 6a3d a2e3 713d
000003c0: 4f15 9abc 9c7f e33c d5b6 0e3e 74c0 993d
000003d0: 06ac 5ebc 153a 753c d61e 4a3d 7fb4 903c
000003e0: 71b0 dabc c648 1fbd e47c 52bd 53ac aa3c
000003f0: 91f7 793d 098a 9fbd 8fcd 52bd e176 a43d

fc3.bias f4 [25]
0.004597094 -0.0012475338 -0.047938023 -0.05559416 -0.019104414 0.003819894 -0.0007746271 0.044927724
0.012813267 0.008821094 0.087054886 -0.06629066 0.047360536 0.02826352 0.013022263 -0.074651934
0.04397117 0.012062405 0.013661631 0.057866234 0.022895686 -0.011996103 0.042540424 0.029523535
0.035349853
00000000: 38a3 963b 4a84 a3ba a95a 44bd b4b6 63bd
00000010: dc80 9cbc 3057 7a3b 5810 4bba 2206 383d
00000020: bdee 513c 5a86 103c d549 b23d 66c3 87bd
00000030: 1ffd 413d e688 e73c 545b 553c 1de3 98bd
00000040: 1d1b 343d 65a1 453c 09d5 5f3c 2505 6d3d
00000050: bc8f bb3c 4e8b 44bc de3e 2e3d 57db f13c
00000060: 02cb 103d
