training_model/wandb/run-20200707_191841-33fslc9k/aoa_fir_6cov_1.pt (torch_old, 403058 bytes, 16 tensors)

encode_conv1.weight f4 [4, 50, 3, 3]
-0.08683706 -0.0047808904 -0.037880097 0.02365022 -0.043290947 -0.08372311 -0.07526699 -0.05597403
-0.11621254 0.05165781 -0.015404306 0.003958816 0.0117500145 -0.03258152 -0.0028585703 0.012941699
-0.02706255 -0.015060434 -0.0008694439 -0.041707925 -0.035241265 0.043279797 0.020239098 -0.05814734
-0.028963484 0.036359403 -0.104603246 -0.045088805 -0.06354734 -0.05664406 0.040518414 0.06630771
0.012919522 -0.021625753 -0.022624878 -0.026423257 1.9357192e-05 -0.07784255 -0.06550149 -0.037169967
0.028537782 -0.08643464 0.030300688 -0.0044546393 -0.01632029 0.040684786 0.079076186 -0.13211991
-0.04906883 -0.03244222 -0.04500878 -0.1832759 -0.056980025 -0.12608409 0.061760984 0.060971357
0.053603064 0.029522782 0.0018767908 0.030868184 0.038742036 -0.00777319 -0.009770432 -0.013506852
0.0113535635 0.059259444 0.08113721 0.082631 0.026978375 0.009388329 0.048922434 0.021964725
0.0755939 0.011013115 0.053165697 -0.0025181004 0.07492722 -0.021546422 -0.023890324 0.07555267
0.06329242 0.066637464 0.054871097 -0.012818061 0.18781653 0.13122787 0.046069074 0.17825276
0.031090537 0.03533656 0.0497671 0.0620299 0.037474617 0.1502651 0.023283908 0.034666907
0.0026627025 0.0953722 -0.0045281984 0.031374816 0.11079837 -0.009383328 0.07587537 0.048130333
-0.06659031 -0.009761644 0.0810423 -0.019522054 -0.124384046 -0.005425406 -0.07300069 -0.015793204
-0.077447735 -0.06828143 -0.119058765 -0.007581417 -0.054568406 0.11795667 0.026011877 -0.06960765
0.17109293 -0.010484791 -0.021957047 0.11796322 -0.052148823 -0.09543394 0.14734478 0.007087264
-0.0041662534 0.050121076 0.1017357 0.056394123 0.10754547 0.09416922 -0.080370866 0.03018176
0.041877214 0.04265693 0.1664366 0.094987534 0.12785138 0.08194023 0.034642108 0.08166168
-0.041755583 -0.09375936 -0.040082343 0.039430596 0.017363211 -0.033224605 -0.02185535 -0.041700058
-0.07532947 -0.03210092 -0.052306157 -0.07140208 0.053089634 -0.021963587 0.08685274 0.04927829
0.01422551 -0.015334478 0.010566774 -0.009895261 -0.031832058 0.01880384 0.1222285 -0.071277544
-0.071549006 0.038239684 -0.07712548 0.006087554 0.15376826 -0.057420667 -0.019080121 0.055383943
0.095887855 0.04340531 0.052144952 -0.013429086 0.015744437 0.024911186 0.01925352 0.025371578
-0.04006273 0.003657674 -0.011364961 0.08087032 -0.09209606 0.0027671799 0.03705116 -0.06901482
0.11776435 0.026906483 -0.11488292 0.0076853135 -0.028940178 -0.06362159 -0.09942745 0.043251578
-0.032533348 0.08960196 -0.041344926 -0.052680537 -0.047113635 -0.040276907 -0.12631121 0.036817078
0.013779036 0.09010525 0.070453666 0.07413425 -0.088226095 0.021927206 -0.13048118 -0.11950429
0.13068552 -0.09322405 0.029201366 0.024617992 0.0910436 -0.071993314 -0.09406983 0.024566252
0.0016188731 0.07321506 -0.080026515 0.006357966 -0.050059978 0.042928208 0.12815844 0.05365474
0.05658809 -0.1019015 0.0711996 -0.03820957 -0.041472174 -0.02172161 0.03839071 0.035241082
0.033046924 0.041402906 -0.019711481 -0.024117293 -0.0076562106 -0.06550455 0.016019898 0.0013315495
-0.07298344 0.026715918 0.07725234 0.08064504 -0.009789615 0.014287999 0.015834171 0.005695659
00000000: a1d7 b1bd 04a9 9cbb 2928 1bbd 1bbe c13c
00000010: d951 31bd 0677 abbd 9425 9abd 0645 65bd
00000020: d700 eebd 2497 533d 5862 7cbc f5b8 813b
00000030: 2283 403c 3374 05bd da56 3bbb 6b09 543c
00000040: 48b2 ddbc 0ac0 76bc 64eb 63ba eed5 2abd
00000050: 2559 10bd 2846 313d 77cc a53c e82b 6ebd
00000060: d444 edbc 99ed 143d 3a3a d6bd 0aaf 38bd
00000070: 1c25 82bd 9a03 68bd a3f6 253d 56cc 873d
00000080: 67ac 533c 7e28 b1bc cf57 b9bc 9675 d8bc
00000090: 4161 a237 ea6b 9fbd a525 86bd 893f 18bd
000000a0: 11c8 e93c a504 b1bd 2639 f83c 39f8 91bb
000000b0: 21b2 85bc 17a5 263d b2f2 a13d 714a 07be
000000c0: 66fc 48bd 22e2 04bd 205b 38bd adac 3bbe
000000d0: e363 69bd 301c 01be 16f9 7c3d 1abd 793d
000000e0: e38e 5b3d c3d9 f13c a6fe f53a 46df fc3c
000000f0: f8af 1e3d 3eb6 febb 2914 20bc d84b 5dbc
00000100: 4c04 3a3c 08ba 723d 442b a63d 713a a93d
00000110: c101 dd3c 82d1 193c e462 483d 5eef b33c
00000120: fad0 9a3d 5a70 343c 46c4 593d b706 25bb
00000130: 7173 993d 1f82 b0bc a4b5 c3bc 5cbb 9a3d
00000140: 759f 813d 3979 883d 84c0 603d d802 52bc
00000150: fa52 403e 9960 063e edb2 3c3d e487 363e
00000160: 95b1 fe3c 12bd 103d 96d8 4b3d 1013 7e3d
00000170: fc7e 193d 18df 193e e5bd be3c e3fe 0d3d
00000180: bc80 2e3b 8052 c33d 4861 94bb e182 003d
00000190: 41ea e23d 88bc 19bc 8c64 9b3d 5024 453d
000001a0: 8060 88bd 4def 1fbc 81f9 a53d b7ec 9fbc
000001b0: 10bd febd 9bc7 b1bb 6381 95bd c060 81bc
000001c0: eb9c 9ebd 22d7 8bbd 15d5 f3bd 896d f8bb
000001d0: 1f83 5fbd 4493 f13d dc16 d53c 758e 8ebd
000001e0: fc32 2f3e 67c8 2bbc 44df b3bc b396 f13d
000001f0: 019a 55bd df72 c3bd 8de1 163e 483c e83b
00000200: 1185 88bb c24b 4d3d cf5a d03d 86fd 663d
00000210: cd40 dc3d cbdb c03d 7b99 a4bd bd3f f73c
00000220: 7187 2b3d 08b9 2e3d 5b6e 2a3e d388 c23d
00000230: 79eb 023e 48d0 a73d e2e4 0d3d 3d3e a73d
00000240: e707 2bbd e804 c0bd 622d 24bd fa81 213d
00000250: 4b3d 8e3c 8616 08bd fe09 b3bc aecd 2abd
00000260: 5646 9abd 417c 03bd fb3e 56bd 413b 92bd
00000270: 8474 593d fbec b3bc d9df b13d 08d8 493d
00000280: 1d12 693c 763d 7bbc 4320 2d3c bc1f 22bc
00000290: 5562 02bd 830a 9a3c f052 fa3d f6f9 91bd
000002a0: 4988 92bd 37a1 1c3d f7f3 9dbd 1b7a c73b
000002b0: 6d75 1d3e ef31 6bbd ea4d 9cbc 46da 623d
000002c0: da60 c43d c4c9 313d f295 553d ab05 5cbc
000002d0: 7afa 803c 8b12 cc3c 8fb9 9d3c 0ed8 cf3c
000002e0: d118 24bd 96b5 6f3b 1a34 3abc 579f a53d
000002f0: dc9c bcbd 9359 353b f5c2 173d a457 8dbd
00000300: 6f2e f13d fc6a dc3c bd47 ebbd 15d5 fb3b
00000310: f413 edbc 094c 82bd 9ea0 cbbd 9128 313d
00000320: b041 05bd 3b81 b73d 4c59 29bd 8cc7 57bd
00000330: 3afa 40bd 66f9 24bd ba57 01be 81cd 163d
00000340: 77c1 613c 1a89 b83d 034a 903d b3d3 973d
00000350: e2af b4bd afa0 b33c dc9c 05be aabe f4bd
00000360: 6dd2 053e 40ec bebd b437 ef3c acab c93c
00000370: 1175 ba3d 3b71 93bd afa7 c0bd 2a3f c93c
00000380: 5e30 d43a c7f1 953d f1e4 a3bd 7c56 d03b
00000390: b10b 4dbd 7dd5 2f3d f73b 033e 13c5 5b3d
000003a0: eac8 673d bcb1 d0bd 19d1 913d a381 1cbd
000003b0: bade 29bd 85f1 b1bc 943f 1d3d f458 103d
000003c0: 365c 073d 1896 293d f979 a1bc a191 c5bc
000003d0: f3e0 fabb 4027 86bd 293c 833c 6387 ae3a
000003e0: 5778 95bd 57db da3c 7a36 9e3d 3a29 a53d
000003f0: 9f64 20bc 3618 6a3c aab6 813c a7a2 ba3b

encode_conv1.bias f4 [4]
0.02382509 -0.08032247 0.080251314 -0.016644554
00000000: d62c c33c 1b80 a4bd cd5a a43d 295a 88bc

encode_conv2.weight f4 [4, 4, 3, 3]
0.15653881 0.17676242 0.118499294 -0.09145684 0.12600079 -0.004765306 0.2094257 0.0018335484
-0.07376293 -0.026659664 -0.21998401 -0.10279939 0.22401237 -0.080726504 -0.11175821 -0.110637456
-0.01834999 0.14646573 0.000862838 0.4340386 0.05345207 -0.2653238 0.39871073 0.061677836
-0.1721412 0.1836194 0.031447038 0.19260935 0.12249774 -0.001983635 -0.15628178 -0.08881956
-0.17175967 0.2474441 0.10825064 -0.16246593 0.10903375 0.09921028 0.19958732 0.10258367
0.056060527 -0.001168846 0.18477754 0.19652559 -0.018229788 0.24579532 -0.13969532 0.13461977
-0.11995365 0.13585544 0.070525825 0.17610298 -0.11573155 -0.0029751072 -0.12773295 0.116740145
0.0042145215 -0.10541161 0.37920564 0.120339416 -0.155824 -0.01086282 0.22799554 0.1825149
0.0045041796 0.1004222 -0.023717955 0.062444903 0.12481074 0.12318226 0.0509516 0.050535116
0.046286292 0.16732661 0.3702343 0.15346675 -0.1539768 0.27363017 -0.11288272 0.23385207
0.29790023 0.09256909 0.05999608 0.08532117 -0.061636243 0.1851709 0.13063385 0.04481806
0.2994665 0.32740912 -0.14173292 -0.025128877 -0.14836888 -0.3016892 0.036156192 -0.13596734
-0.45011985 -0.15969549 0.17714287 0.17496258 0.18450838 0.015181072 -0.0118268365 0.29937664
-0.09994177 0.29796505 0.2693226 0.16202979 0.18569332 -0.065822944 0.13569507 0.046647724
0.0037131682 0.0959464 0.047983985 0.16590425 0.052414566 0.16932689 -0.24158192 -0.21269077
0.15299019 -0.03311752 -0.11096039 -0.08001467 -0.03978323 -0.02848329 0.3601533 0.054310888
0.029110676 0.018169796 -0.11960052 0.014281985 0.30674186 -0.040974226 -0.0055735805 0.09538618
0.007818662 0.0982019 0.20987426 -0.15885366 -0.03917 0.031243902 -0.026086917 0.15361965
00000000: b64b 203e 3501 353e c2af f23d b94d bbbd
00000010: 5a06 013e 4926 9cbb b173 563e ad53 f03a
00000020: 0511 97bd 5e65 dabc 7d43 61be 7d88 d2bd
00000030: 8063 653e f053 a5bd 7de1 e4bd e495 e2bd
00000040: b852 96bc 1dfb 153e 1430 623a 4f3a de3e
00000050: 8ff0 5a3d 85d8 87be d023 cc3e e6a1 7c3d
00000060: c845 30be b906 3c3e 9cce 003d 633b 453e
00000070: 18e0 fa3d dfff 01bb 5508 20be 08e7 b5bd
00000080: c4e1 2fbe fc61 7d3e 83b2 dd3d 785d 26be
00000090: 164d df3d c22e cb3d 9e60 4c3e 6317 d23d
000000a0: b99f 653d f733 99ba 5336 3d3e 013e 493e
000000b0: a356 95bc c5b1 7b3e 4a0c 0fbe c4d9 093e
000000c0: 42aa f5bd b01d 0b3e d86f 903d 5754 343e
000000d0: aa04 edbd 04fa 42bb 6dcc 02be 7515 ef3d
000000e0: f819 8a3b 0be2 d7bd 3e27 c23e 8374 f63d
000000f0: 5490 1fbe f8f9 31bc aa77 693e 30e5 3a3e
00000100: cc97 933b 28aa cd3d 284c c2bc 3ac6 7f3d
00000110: c69c ff3d fb46 fc3d a0b2 503d e9fd 4e3d
00000120: b296 3d3d ab57 2b3e 5a8f bd3e 6326 1d3e
00000130: 18ac 1dbe 4119 8c3e 0e2f e7bd eb76 6f3e
00000140: 6186 983e dd94 bd3d 73be 753d debc ae3d
00000150: 4976 7cbd 719d 3d3e e1c4 053e 2493 373d
00000160: ac53 993e 2ba2 a73e 6f22 11be 13db cdbc
00000170: 03ee 17be 0277 9abe 8418 143d 063b 0bbe
00000180: 1c76 e6be 3787 23be f164 353e 6429 333e
00000190: c4ef 3c3e 08ba 783c 59c5 41bc e547 993e
000001a0: 45ae ccbd e08e 983e a7e4 893e 23eb 253e
000001b0: 6426 3e3e 2ece 86bd a6f3 0a3e af11 3f3d
000001c0: a058 733b 8c7f c43d db8a 443d cee2 293e
000001d0: a8b0 563d 0764 2d3e 4061 77be 9ccb 59be
000001e0: 76a9 1c3e 3da6 07bd 333f e3bd bbde a3bd
000001f0: bdf3 22bd ca55 e9bc 0366 b83e 1875 5e3d
00000200: 8379 ee3c d3d8 943c 1ef1 f4bd fdfe 693c
00000210: 450d 9d3e 97d4 27bd 95a2 b6bb d459 c33d
00000220: d819 003c 141e c93d 47e9 563e 89aa 22be
00000230: b970 20bd 36f3 ff3c 3bb4 d5bc 784e 1d3e

encode_conv2.bias f4 [4]
0.051606487 -0.11838061 -0.117186286 -0.050893117
00000000: 5361 533d 8971 f2bd 5dff efbd 4d75 50bd

encode_conv3.weight f4 [8, 4, 3, 3]
0.11832302 -0.28517663 0.19571808 -0.18758681 -0.15766837 0.2807584 0.44841254 -0.15455554
-0.053817585 -0.008188473 0.063047715 0.040181797 0.09340714 -0.08871436 -0.11439 -0.07034129
0.058346163 -0.03856638 0.020668903 0.15222757 0.048191067 -0.13907894 0.226574 0.17074265
0.13499513 0.03478163 -0.07169421 0.28300804 -0.010060207 -0.06511004 0.024900828 0.065610126
-0.10175165 -0.026427247 -0.01101827 -0.14762539 0.41379225 -0.14757809 -0.052727174 0.2962579
0.13894519 -0.17984205 0.055890746 0.078668065 -0.23663627 0.06897697 -0.006932089 -0.053236663
0.100013204 0.030060612 0.10212498 0.20969392 0.09731802 -0.16428615 0.101415604 -0.12404419
-0.075281635 0.1776704 -0.052639164 -0.01794998 0.23379079 -0.023554044 -0.17009057 0.084653676
-0.021896163 0.037192103 -0.09751868 0.20881215 0.10928082 -0.18117651 0.32567236 0.14149149
0.09402036 0.28435794 0.113999985 -0.07897612 0.16190748 0.025391081 0.17844346 0.3593872
-0.15165775 0.13147949 0.040892288 0.04602815 0.047979686 0.16804217 -0.060429752 0.23794039
0.055811394 -0.2703883 0.029107878 0.06911156 0.01031499 0.25891185 -0.1595182 -0.18857971
0.24858814 -0.17211516 -0.24881692 -0.1436265 0.19828112 0.0948513 -0.15048008 -0.038303375
-0.12446489 -0.048761304 0.03428933 -0.0010363172 -0.05792373 -0.15496342 0.1756704 0.019505192
-0.27430442 -0.15553126 0.3091401 -0.23638575 -0.14104082 0.110810064 -0.14977781 0.12506585
-0.16267799 -0.0046186345 -0.19801314 -0.012447848 -0.23342794 -0.123233646 0.030401016 0.09679354
0.085657865 -0.19818129 -0.13279904 -0.08375706 0.12686916 -0.0771999 -0.14279532 0.025450608
-0.105893545 0.14037259 0.23130754 -0.22957006 0.14559425 -0.015813898 0.067967966 -0.09857155
0.12972032 0.11017842 0.24782969 0.38556293 -0.08553592 -0.07854629 0.3990238 -0.011728085
-0.2645226 0.024137162 0.08728063 0.15152848 -0.036619924 -0.024813296 0.1379597 0.09853469
-0.025526814 -0.12901297 0.15612984 0.15656887 -0.018874148 0.07092068 -0.087314904 0.030202808
0.090198465 0.15286678 0.036616836 -0.04082043 0.01935296 0.38093054 -0.15018398 0.114825286
0.09796582 0.24961069 -0.019720938 -0.16063838 0.29431614 0.2161007 -0.07551766 -0.16779308
0.17002845 0.14445093 -0.0045596072 -0.11002118 -0.053110972 -0.101187505 0.13058153 -0.036782064
0.057952862 0.09762509 0.053510614 0.04513583 -0.20391044 -0.09652933 -0.072746105 -0.12386071
0.18326879 -0.026554585 0.010310527 0.2024959 0.025260303 0.021621143 0.15106928 0.07789945
0.2050119 0.09733481 -0.02171642 0.2427987 -0.11204918 0.17346077 -0.30357856 -0.20540522
0.14985046 -0.099246174 0.11484151 -0.08571299 0.018612279 0.13211638 0.14119077 -0.1211478
-0.090398826 0.02505871 -0.031221582 0.15136147 0.1677897 0.037308723 0.099956304 0.18329807
-0.06353881 -0.0048494437 -0.069832124 0.12346253 0.05406031 0.057938926 0.09135557 -0.07093567
0.09104659 0.0914981 -0.13800834 -0.2679114 -0.24330682 0.17605779 -0.21065775 0.31713015
-0.100814015 -0.021188019 0.17418544 -0.1724417 -0.004141956 0.14692391 0.22927058 0.092031136
00000000: 5753 f23d ac02 92be 526a 483e c216 40be
00000010: d173 21be 91bf 8f3e 5496 e53e cf43 1ebe
00000020: d46f 5cbd f228 06bc 291f 813d ab95 243d
00000030: 3e4c bf3d e0af b5bd 4e45 eabd 180f 90bd
00000040: 63fc 6e3d c8f7 1dbd d551 a93c 8be1 1b3e
00000050: ff63 453d b66a 0ebe 0403 683e 29d7 2e3e
00000060: 2a3c 0a3e 2f77 0e3d 6ad4 92bd 6ee6 903e
00000070: 91d3 24bc 6a58 85bd d2fc cb3c 9a5e 863d
00000080: 2b63 d0bd f47d d8bc f985 34bc 1c2b 17be
00000090: 94dc d33e b61e 17be 73f8 57bd 1eaf 973e
000000a0: a647 0e3e 8428 38be b2ed 643d b91c a13d
000000b0: c750 72be cc43 8d3d 9426 e3bb b00e 5abd
000000c0: b9d3 cc3d ac41 f63c e726 d13d 01ba 563e
000000d0: ac4e c73d a13a 28be fcb2 cf3d e10a febd
000000e0: 422d 9abd 3bef 353e 2a9c 57bd d60b 93bc
000000f0: da66 6f3e 69f4 c0bc 392c 2ebe e85e ad3d
00000100: 955f b3bc bf56 183d e0b7 c7bd dad2 553e
00000110: 9fce df3d 5686 39be 87be a63e 25e3 103e
00000120: bf8d c03d 5d97 913e d378 e93d 3bbe a1bd
00000130: 13cb 253e f500 d03c e2b9 363e 9901 b83e
00000140: 2b4c 1bbe 8fa2 063e ac7e 273d 0388 3c3d
00000150: 5986 443d 3f13 2c3e 3085 77bd a5a6 733e
00000160: 7d9a 643d 5670 8abe a573 ee3c 5d8a 8d3d
00000170: 3400 293c 1890 843e bd58 23be 0a1b 41be
00000180: e48d 7e3e f53e 30be ddc9 7ebe d312 13be
00000190: 350a 4b3e 6641 c23d 7317 1abe 00e4 1cbd
000001a0: 73e7 febd efb9 47bd f872 0c3d 09d5 87ba
000001b0: 6f41 6dbd bbae 1ebe f1e2 333e 5ac9 9f3c
000001c0: a171 8cbe 9643 1fbe 9c47 9e3e 1b0f 72be
000001d0: 016d 10be 63f0 e23d 5b5f 19be 4311 003e
000001e0: 0f95 26be ea57 97bb f5c3 4abe 0ff2 4bbc
000001f0: bc07 6fbe ec61 fcbd 8d0b f93c b13b c63d
00000200: 646d af3d 09f0 4abe 79fc 07be d288 abbd
00000210: fde9 013e fb1a 9ebd f038 12be cb7d d03c
00000220: b7de d8bd d5bd 0f3e e2db 6c3e 6a14 6bbe
00000230: a916 153e 268c 81bc ca32 8b3d e1df c9bd
00000240: 67d5 043e 39a5 e13d 11c7 7d3e 8168 c53e
00000250: 752d afbd e1dc a0bd d94c cc3e 2727 40bc
00000260: 826f 87be 4cbb c53c 30c0 b23d 482a 1b3e
00000270: c6fe 15bd 4145 cbbc 4f45 0d3e 8ecc c93d
00000280: 9c1d d1bc fa1b 04be 80e0 1f3e 9753 203e
00000290: f59d 9abc dd3e 913d 28d2 b2bd e16b f73c
000002a0: f9b9 b83d 1c89 1c3e 89fb 153d 5333 27bd
000002b0: 198a 9e3c 5409 c33e d4c9 19be 8529 eb3d
000002c0: 4ea2 c83d f299 7f3e ce8d a1bc 637e 24be
000002d0: 9bb0 963e 8049 5d3e 01a9 9abd f3d1 2bbe
000002e0: f01b 2e3e f2ea 133e c268 95bb c952 e1bd
000002f0: e48a 59bd 653b cfbd 2ab7 053e caa8 16bd
00000300: fb5f 6d3d aaef c73d f22d 5b3d 59e0 383d
00000310: e6cd 50be 2bb1 c5bd e9fb 94bd afaa fdbd
00000320: d0aa 3b3e 0089 d9bc 7ced 283c 165b 4f3e
00000330: b2ee ce3c d31e b13c e8b1 1a3e bf89 9f3d
00000340: a4ee 513e 7957 c73d a2e6 b1bc 39a0 783e
00000350: 0a7a e5bd b39f 313e a66e 9bbe bf55 52be
00000360: 6672 193e 9441 cbbd 0732 eb3d 4b8a afbd
00000370: c778 983c 8449 073e 5094 103e 561c f8bd
00000380: 0523 b9bd ec47 cd3c 67c4 ffbc 80fe 1a3e
00000390: 10d1 2b3e 08d1 183d e4b5 cc3d 7db2 3b3e
000003a0: a320 82bd 15e8 9ebb 2504 8fbd ecd9 fc3d
000003b0: 586e 5d3d 5e51 6d3d a118 bb3d b846 91bd
000003c0: a276 ba3d 5b63 bb3d 0f52 0dbe af2b 89be
000003d0: 6c25 79be 7e48 343e aab6 57be e25e a23e
000003e0: 9477 cebd 7f92 adbc ab5d 323e 8f94 30be
000003f0: 3fb9 87bb 3973 163e e8c5 6a3e d27a bc3d

encode_conv3.bias f4 [8]
-0.023660965 -0.10575729 0.116017744 0.08564456 0.009521854 0.1525179 -0.1057927 -0.08348663
00000000: a4d4 c1bc 4797 d8bd b69a ed3d 6a66 af3d
00000010: 8d01 1c3c a72d 1c3e d8a9 d8bd 0afb aabd

encode_conv4.weight f4 [8, 8, 3, 3]
-0.0025822858 -0.054306336 0.0033897785 0.0003855791 -0.19762848 0.0315058 0.036667615 0.05829562
0.054213732 -0.049516942 -0.0056968774 0.13964838 -0.17028996 0.06421228 0.11240255 0.0016744299
-0.038230598 -0.08630989 -0.14756884 0.15542455 0.034203082 0.012158004 0.032273225 -0.002446268
-0.024283051 0.15965119 0.013094124 0.06678215 0.3626887 -0.0024603545 -0.04796871 0.17984337
-0.017945612 -0.17542347 0.28726384 -0.020877726 -0.12457291 -0.076536894 -0.016179763 -0.08628641
0.04693455 0.1860545 -0.04815923 0.013307551 0.015967753 -0.005997931 -0.008968324 -0.06730149
-0.08180899 -0.025089066 -0.01592703 -0.076528676 0.18475911 -0.016161935 0.031877637 -0.05185857
0.10254536 0.04979136 0.08345049 0.16675907 0.061749108 0.1604895 -0.1135767 0.022684302
0.06482002 -0.0039110365 -0.12567198 0.014550323 -0.047600117 0.12117699 0.096477576 -0.04185753
0.11261206 -0.047582112 0.07911979 0.14832011 -0.1966226 -0.0757583 0.04498932 -0.030311389
-0.08814119 -0.19771765 -0.04110116 0.16756716 -0.19405796 -0.059715804 0.1512215 -0.12225994
-0.09636821 -0.05877237 -0.20598628 -0.05544978 0.13034654 -0.10067544 0.0053006215 -0.026563946
0.06289599 -0.05886732 -0.14528492 -0.047437605 0.0991332 0.010993838 -0.0066815806 -0.18467565
-0.08475298 -0.025839234 0.29853004 0.032148212 -0.051479056 -0.083911754 0.025531821 0.1318716
0.11148064 -0.018327467 0.142255 0.20241134 -0.036736514 0.018865336 -0.118260674 0.013371281
0.086838044 -0.034347333 -0.08690877 0.062531345 0.018893847 0.19322954 0.07679987 -0.07704023
0.08396994 -0.034836337 0.022195375 0.1686211 0.030048639 0.14485951 0.08500535 0.08293579
-0.12100863 0.19112058 -0.04457492 -0.029987171 0.11804774 0.09062303 0.052967872 -0.21255629
0.008080224 0.01469452 0.0010398161 0.004243518 0.10417288 0.08492754 -0.13634098 0.0635605
-0.09742958 0.10190467 -0.15809242 -0.046088234 0.15288796 -0.17922987 0.07770539 0.2811974
-0.16326913 -0.123295955 0.0779761 -0.17753352 -0.03872469 0.19426754 -0.15263847 0.13945863
0.30556267 -0.14556102 0.01078158 0.018629126 0.016260536 0.007336355 0.030616347 -0.001847942
-0.08386863 0.10087088 0.065387785 -0.16743489 0.10308496 0.100649014 -0.04161283 0.17681716
0.120377354 0.03331263 0.15406251 -0.04438184 0.046536002 0.02666854 0.09178208 0.1148139
0.13022628 0.04293249 0.013992645 -0.07292118 0.039913725 0.013716255 0.09449922 -0.10217055
-0.061786853 0.16311468 -0.1133017 0.046324093 -0.082954176 -0.08311034 0.026035607 0.16371712
-0.0005597834 -0.10772888 0.0501951 0.085567534 -0.041279443 0.13727258 0.05497076 0.010184474
-0.24365823 -0.02532321 -0.116363965 -0.07556637 -0.115108185 -0.05059333 -0.05915389 0.03347027
0.0405375 0.19853674 -0.05589595 -0.22793663 0.14213587 -0.06482249 -0.13142066 0.11943799
-0.04529204 -0.18804887 0.2186129 -0.085509785 -0.12305517 0.22883871 0.04115118 -0.049001426
0.26886812 -0.0134694185 -0.17433 -0.032513052 0.044569444 -0.012660955 -0.10777631 0.100667216
-0.13060005 0.03936355 0.08254864 0.0868105 -0.06389895 0.007420409 0.01390032 0.05431048
00000000: 913b 29bb 5270 5ebd 0c27 5e3b 8d27 ca39
00000010: 1f5f 4abe 3a0c 013d c830 163d 63c7 6e3d
00000020: 380f 5e3d 47d2 4abd dfac babb fcff 0e3e
00000030: 7e60 2ebe ba81 833d 4f33 e63d 8b78 db3a
00000040: b097 1cbd 3dc3 b0bd 491c 17be 9d27 1f3e
00000050: 8818 0c3d 5d32 473c ee30 043d 9151 20bb
00000060: 40ed c6bc 9a7b 233e bd88 563c 14c5 883d
00000070: 55b2 b93e e63d 21bb d77a 44bd dc28 383e
00000080: ad02 93bc 36a2 33be 3f14 933e c407 abbc
00000090: 1520 ffbd 60bf 9cbd 6c8b 84bc eeb6 b0bd
000000a0: 713e 403d 1285 3e3e 9d42 45bd ea07 5a3c
000000b0: cece 823c 4b8a c4bb e1ef 12bc 5dd5 89bd
000000c0: 798b a7bd 9687 cdbc 6779 82bc 11bb 9cbd
000000d0: 7e31 3d3e 0966 84bc 2092 023d a769 54bd
000000e0: 4d03 d23d 06f2 4b3d 17e8 aa3d e4c2 2a3e
000000f0: a2ec 7c3d 5c57 243e e79a e8bd 6ed4 b93c
00000100: 5cc0 843d 2728 80bb 28b0 00be 7a64 6e3c
00000110: 57f8 42bd a42b f83d 0996 c53d cd72 2bbd
00000120: 27a1 e63d 76e5 42bd 8e09 a23d 3ae1 173e
00000130: 6f57 49be 2b27 9bbd b946 383d 974f f8bc
00000140: 5e83 b4bd 7f76 4abe b159 28bd ba96 2b3e
00000150: 21b7 46be 8f98 74bd cfd9 1a3e 6b63 fabd
00000160: b25c c5bd 4cbb 70bd 11ee 52be 4f1f 63bd
00000170: 9079 053e ed2e cebd d6b0 ad3b a29c d9bc
00000180: 9dcf 803d dc1e 71bd 92c5 14be ef4d 42bd
00000190: 5906 cb3d 801f 343c 29f1 dabb 9d1b 3dbe
000001a0: f892 adbd cdac d3bc eed8 983e d8ad 033d
000001b0: b4db 52bd edd9 abbd 1c28 d13c 5909 073e
000001c0: f64f e43d 7c23 96bc 4bab 113e eb44 4f3e
000001d0: 0779 16bd 7a8b 9a3c a732 f2bd 3813 5b3c
000001e0: 25d8 b13d caaf 0cbd 3afd b1bd 6f10 803d
000001f0: 45c7 9a3c f7dd 453e 4049 9d3d 45c7 9dbd
00000200: 6ff8 ab3d 8cb0 0ebd 13d3 b53c 02ab 2c3e
00000210: 9028 f63c 0d56 143e 4917 ae3d 3dda a93d
00000220: 5fd3 f7bd 1db5 433e 3194 36bd a8a7 f5bc
00000230: 03c3 f13d 9198 b93d d7f4 583d 5ba8 59be
00000240: ea62 043c 49c1 703c 704a 883a 360d 8b3b
00000250: 9758 d53d 7dee ad3d f89c 0bbe 022c 823d
00000260: 2989 c7bd 65b3 d03d fbe2 21be 04c7 3cbd
00000270: a98e 1c3e 0988 37be 0124 9f3d 1bf9 8f3e
00000280: 0630 27be 9782 fcbd efb1 9f3d 59cb 35be
00000290: c89d 1ebd 12ee 463e 424d 1cbe 3ece 0e3e
000002a0: b672 9c3e f30d 15be 39a5 303c 1c9c 983c
000002b0: d134 853c ce65 f03b 22cf fa3c a536 f2ba
000002c0: 51c3 abbd 6495 ce3d 08ea 853d 0d74 2bbe
000002d0: 351e d33d 1221 ce3d 3772 2abd 8f0f 353e
000002e0: 6788 f63d d372 083d 90c2 1d3e bbc9 35bd
000002f0: 899c 3e3d fb77 da3c 3ef8 bb3d 8d23 eb3d
00000300: 0a5a 053e fbd9 2f3d 6841 653c b357 95bd
00000310: 937c 233d 25ba 603c cf88 c13d cb3e d1bd
00000320: 3614 7dbd 8907 273e b90a e8bd 55be 3d3d
00000330: e1e3 a9bd c135 aabd a048 d53c 76a5 273e
00000340: 6ebe 12ba f6a0 dcbd 6199 4d3d 083e af3d
00000350: a214 29bd 2f91 0c3e 0529 613d c8dc 263c
00000360: 8b81 79be 9f72 cfbc 3b50 eebd 8ac2 9abd
00000370: d7bd ebbd f43a 4fbd 594b 72bd 1f18 093d
00000380: a60a 263d 374d 4b3e 27f3 64bd 3868 69be
00000390: 118c 113e a7c1 84bd 2393 06be e89b f43d
000003a0: 2584 39bd e28f 40be 0fdc 5f3e c11f afbd
000003b0: 5904 fcbd b254 6a3e 248e 283d b8b5 48bd
000003c0: 15a9 893e d6ae 5cbc 9083 32be 682c 05bd
000003d0: 738e 363d e56f 4fbc d3b9 dcbd 9d2a ce3d
000003e0: 05bc 05be ac3b 213d 430f a93d b4c9 b13d
000003f0: 74dd 82bd e726 f33b 2bbe 633c aa74 5e3d

encode_conv4.bias f4 [8]
0.052793138 0.0880719 0.094382614 0.13786426 0.04260221 0.0045880927 -0.0789154 0.08762175
00000000: 9e3d 583d 0a5f b43d ac4b c13d 4a2c 0d3e
00000010: a87f 2e3d b657 963b 669e a1bd 0873 b33d

fc1_1.weight f4 [200, 192]
-0.012323587 -0.059278067 -0.054703135 0.0017970192 -0.05562692 -0.067124695 0.00961007 -0.027469905
-0.10199142 0.015283288 0.0055854744 -0.04858441 0.12799127 -0.15375225 0.0003129356 0.08446554
-0.11562135 0.029122785 0.016679661 -0.07357201 0.026137443 0.072878204 0.0006128686 -0.03065899
-0.12602095 -0.028578622 -0.012974235 0.035878226 -0.096261725 -0.05647475 0.03499537 -0.06247513
0.059840333 -0.2354127 0.04855859 -0.1448429 0.25605956 -0.076127805 0.06532729 -0.10792632
-0.08889567 0.071014434 0.01525381 -0.06045141 0.003110328 0.11286383 -0.06531121 -0.006992801
-0.00704504 0.017242923 0.042816028 0.03593959 -0.06205902 0.048848476 -0.0856201 -0.020435628
-0.017803065 0.010226418 0.04737974 -0.19452699 0.035399325 0.027587198 -0.17248543 0.013632352
-0.03663734 -0.04593078 -0.038453043 0.0394935 0.013135445 0.03695064 0.043407653 0.07377354
-0.011120568 -0.00251307 0.011484135 -0.033899996 -0.007999727 -0.05004861 -0.04428819 -0.057347767
-0.037125204 -0.017802777 0.1536432 -0.054718416 -0.08500083 0.078385755 -0.1478193 0.0077334386
0.16143277 -0.05667129 -0.023798449 -0.026971752 0.10381404 0.028683987 0.04924114 -0.04744187
-0.11615514 -0.04891884 -0.050619557 -0.08469101 -0.022088673 0.023655934 -0.004334158 -0.05442396
-0.085201256 -0.14882796 0.030950824 0.008600913 0.3012897 -0.12216899 -0.062690824 -0.008982869
-0.12504353 -0.08973341 -0.09813489 -0.05338331 0.07071918 -0.029474601 0.043410387 -0.036163516
-0.06461174 -0.05073715 0.064956844 -0.06822734 -0.026944233 0.034259982 -0.07011722 -0.01456172
-0.02115024 -0.074749164 0.017374068 -0.0086226985 -0.0022837133 -0.05929491 0.019336289 0.00593803
0.004921668 0.036442082 0.038209796 0.027025606 -0.039726745 -0.0076429415 -0.025401484 0.034237854
-0.06679461 -0.13984445 0.037263617 -0.08571474 -0.0018525681 -0.062381685 0.010013814 -0.07414164
-0.079100944 0.07157822 -0.00014005434 -0.041502964 0.2642353 -0.07260852 -0.10412158 0.07312382
-0.02387789 -0.036680557 0.021160929 -0.06513685 -0.040462133 0.032886725 0.05604646 0.0074184025
-0.057822015 -0.063235015 -0.015835982 -0.006882833 -0.017417498 -0.0046904604 -0.028200472 -0.049705904
-0.050295815 -0.049493726 0.020013362 -0.2582427 -0.000113760565 -0.0012574266 0.06018173 0.018795311
0.10192369 0.013786701 0.09567559 0.015071507 0.049284622 -0.07622052 0.014574352 0.020514159
0.04922565 -0.015308922 0.03905528 -0.02086629 -0.03426219 -0.0291311 0.10829217 0.054980785
-0.037661195 -0.026029738 -0.010961615 -0.02094536 0.12590083 -0.016667712 0.07785331 0.032947477
-0.08989854 0.050373156 0.06115449 0.03324639 0.0007499723 0.07692826 -0.02711862 -0.016100088
0.027087582 0.10650944 -0.03226324 0.029285328 0.09032947 -0.021603541 -0.042131677 0.011380998
0.025909385 -0.19831197 0.047188476 -0.10519902 0.23985656 -0.10693439 0.03429093 -0.03276235
-0.059710924 0.08962102 0.08161391 0.06722638 0.012717432 0.019112296 0.02083649 -0.022110172
0.1162379 -0.0009125797 0.0032645636 0.007170201 0.113928415 0.072295666 0.05440878 0.05266506
0.038675748 0.1080257 0.11320538 -0.09031044 0.08595474 0.07928534 -0.17107828 -0.0022499913
00000000: dfe8 49bc 8fcd 72bd 6510 60bd f589 eb3a
00000010: 0ed9 63bd ac78 89bd 8e73 1d3c 9108 e1bc
00000020: e1e0 d0bd c266 7a3c 5b06 b73b 7200 47bd
00000030: 2510 033e 3b71 1dbe 8111 a439 45fc ac3d
00000040: e3ca ecbd e892 ee3c c9a3 883c ecac 96bd
00000050: 311e d63c 2b41 953d eaa8 203a 9028 fbbc
00000060: a30b 01be b71d eabc e391 54bc 0cf5 123d
00000070: de24 c5bd 1152 67bd 4e57 0f3d ece5 7fbd
00000080: 231b 753d 0710 71be 5fe5 463d b251 14be
00000090: 3d1a 833e e5e8 9bbd 50ca 853d 7908 ddbd
000000a0: ef0e b6bd 0470 913d 1eeb 793c e69b 77bd
000000b0: a5d6 4b3b 2725 e73d e2c1 85bd de23 e5bb
000000c0: 14da e6bb 0841 8d3c dc5f 2f3d 6435 133d
000000d0: 9931 7ebd 5715 483d 9759 afbd 9e68 a7bc
000000e0: bcd7 91bc b58c 273c 4211 423d 1532 47be
000000f0: e2fe 103d 8cfe e13c 05a0 30be 3b5a 5f3c
00000100: 0911 16bd ea21 3cbd f080 1dbd f0c3 213d
00000110: 0d36 573c 8e59 173d 39cc 313d 9516 973d
00000120: 0b33 36bc 51b2 24bb f427 3c3c b9da 0abd
00000130: 4911 03bc c5ff 4cbd 8867 35bd 7ee5 6abd
00000140: 9910 18bd 21d7 91bc a554 1d3e 6b20 60bd
00000150: ea14 aebd b688 a03d f15d 17be c968 fd3b
00000160: a24e 253e 2820 68bd f7f4 c2bc ddf3 dcbc
00000170: 759c d43d aefa ea3c 14b1 493d 6852 42bd
00000180: bfe2 edbd 1f5f 48bd 7456 4fbd 7b72 adbd
00000190: 4ef3 b4bc 17ca c13c 8d05 8ebb a9eb 5ebd
000001a0: ff7d aebd 5b66 18be 958c fd3c d8ea 0c3c
000001b0: a542 9a3e bc33 fabd 0c64 80bd e22c 13bc
000001c0: 690b 00be 26c6 b7bd f2fa c8bd 75a8 5abd
000001d0: 38d5 903d b874 f1bc 17cf 313d 3220 14bd
000001e0: 2953 84bd c2d1 4fbd 1808 853d c7ba 8bbd
000001f0: 27ba dcbc 3254 0c3d 9e99 8fbd 4894 6ebc
00000200: 4543 adbc 1716 99bd 1054 8e3c 3846 0dbc
00000210: 5aaa 15bb 38df 72bd 2367 9e3c ce93 c23b
00000220: f245 a13b 4b44 153d e081 1c3d ce64 dd3c
00000230: 83b8 22bd a471 fabb c616 d0bc fe3c 0c3d
00000240: 9dcb 88bd 6233 0fbe bca1 183d 368b afbd
00000250: dfd1 f2ba f083 7fbd fb10 243c 92d7 97bd
00000260: adff a1bd 9a97 923d 8ddb 12b9 03ff 29bd
00000270: d949 873e c7b3 94bd b23d d5bd f1c1 953d
00000280: 919b c3bc 5a3e 16bd af59 ad3c 7866 85bd
00000290: 9fbb 25bd 3bb4 063d f990 653d 1216 f33b
000002a0: c7d6 6cbd 5c81 81bd 76ba 81bc 6389 e1bb
000002b0: 24af 8ebc 6fb2 99bb ad04 e7bc 6b98 4bbd
000002c0: fc02 4ebd efb9 4abd 10f3 a33c 6338 84be
000002d0: bd92 eeb8 3cd0 a4ba 1e81 763d a0f8 993c
000002e0: 5ebd d03d 9de1 613c 90f1 c33d 7bee 763c
000002f0: acde 493d 8119 9cbd 43c9 6e3c 4f0d a83c
00000300: d6a0 493d 46d2 7abc 6ef8 1f3d c8ef aabc
00000310: 8356 0cbd 58a4 eebc 49c8 dd3d 8833 613d
00000320: a042 1abd 513c d5bc 5898 33bc 9b95 abbc
00000330: 26ec 003e ba8a 88bc 8e71 9f3d eff3 063d
00000340: ba1c b8bd 1554 4e3d 217d 7a3d 5e2d 083d
00000350: ca99 443a 908c 9d3d de27 debc 55e4 83bc
00000360: c7e6 dd3c 9f21 da3d 7626 04bd c9e7 ef3c
00000370: a8fe b83d e9f9 b0bc 4492 2cbd 5e77 3a3c
00000380: eb3f d43c 4b12 4bbe b448 413d 9572 d7bd
00000390: f59c 753e 6b00 dbbd a574 0c3d d031 06bd
000003a0: 7193 74bd 3a8b b73d 3225 a73d fcad 893d
000003b0: c75c 503c 6491 9c3c 49b1 aa3c 6420 b5bc
000003c0: 230e ee3d 303a 6fba 4af2 553b 01f4 ea3b
000003d0: 4d53 e93d c00f 943d bedb 5e3d 51b7 573d
000003e0: 766a 1e3d 943c dd3d 39d8 e73d aef4 b8bd
000003f0: 0a09 b03d 5a60 a23d 252f 2fbe 9774 13bb

fc1_1.bias f4 [200]
-0.046651755 0.06076149 0.05994396 -0.01034008 0.037705645 -0.05126936 0.023043158 0.013886498
0.011641381 -0.041537404 0.042292777 0.05182686 0.06194824 0.056640625 0.06407382 -0.044894807
0.05757434 0.06423085 -0.0008819481 0.020784635 0.021413142 0.03873377 0.045682654 0.043192737
0.008554335 0.043184742 -0.002544024 0.05922504 0.07263466 0.007509684 -0.010742638 -0.03804178
0.020821381 -0.044133253 -0.0017532327 0.02302056 -0.005518069 -0.035142705 -0.0009709791 0.031606395
-0.021116093 0.003371942 -0.029797584 -0.0024024048 0.016488368 -0.067131326 0.0077540507 0.00456677
0.045299575 -0.00456087 0.037643593 0.030993177 0.034379296 0.056082923 0.054357473 0.047448754
-0.038998205 0.055007108 -0.018330881 -0.028282657 -0.035072047 0.021961566 0.017341966 0.036509078
-0.0032239638 -0.037660737 0.054130428 -0.034988172 0.06379898 0.004825414 0.005935508 0.013799553
-0.039202977 0.09506959 0.03688022 0.05191096 0.040689155 -0.0030558056 -0.008164459 0.055111136
-0.040759213 0.03279509 0.019306608 -0.0071389265 -0.017076852 0.041203693 0.049245723 -0.021190591
0.0270085 0.030244958 0.014773229 -0.01282353 0.0063335667 -0.028862774 0.00036595418 -0.04719535
0.030269206 0.037953623 0.047199536 0.053801954 -0.012591036 0.025321078 0.035564784 0.016777555
0.0315901 0.022101352 -0.005100027 -0.055288937 -0.015801156 0.0521724 -0.02402812 -0.03447116
-0.010704653 0.03479426 -0.032497007 -0.020475246 -0.00046057513 0.016288972 0.023032423 -0.041787274
0.047180254 -0.037118305 -0.035581656 0.042894356 0.0399184 0.055218793 0.041605752 0.040950034
-0.0071066925 -0.000415593 0.04308352 -0.006245228 0.06156478 0.0076228715 -0.09655015 0.07026676
-0.0865144 0.09640346 -0.020809386 -0.14900717 -0.011942134 -0.036094993 0.03709533 -0.0021864614
-0.0025198378 0.055716813 0.026763247 -0.014590382 -0.0108529655 0.0040760785 0.009766225 -0.009492159
-0.027229432 -0.032001443 -0.008626825 0.11056386 -0.0017032267 0.028059144 0.006420723 0.011232781
-0.07418971 -0.013408025 0.01762569 0.0068505933 -0.011391319 -0.06105277 0.05810007 0.06046671
-0.017147854 -0.03156397 8.166717e-05 0.02580819 0.095166355 0.04186606 0.0331814 -0.006864068
0.028585063 -0.024342215 -0.039684083 -0.017142493 0.0022040624 0.034834854 -0.03851496 0.00366151
0.060603123 0.023467608 0.02184079 -0.007361521 0.040846277 0.006410763 -0.07291213 0.04542289
0.0006804529 -0.006510628 0.030328896 0.06179105 -0.10632872 -0.01292483 0.034601726 -0.03211781
00000000: e915 3fbd 0ae1 783d cc87 753d 7069 29bc
00000010: 3c71 1a3d d2ff 51bd 01c5 bc3c 3284 633c
00000020: 7ebb 3e3c 2023 2abd 313b 2d3d 6748 543d
00000030: 70bd 7d3d 0000 683d 2339 833d 9ee3 37bd
00000040: 12d3 6b3d 778b 833d 8932 67ba 8a44 aa3c
00000050: 9d6a af3c 4da7 1e3d bc1d 3b3d deea 303d
00000060: 7b27 0c3c 7ce2 303d a4b9 26bb f595 723d
00000070: 7bc1 943d cc13 f63b e401 30bc b3d1 1bbd
00000080: 9a91 aa3c 12c5 34bd bacc e5ba 9d95 bc3c
00000090: ebd0 b4bb ccf1 0fbd 4e89 7eba b575 013d
000000a0: a8fb acbc cdfb 5c3b 101a f4bc aa71 1dbb
000000b0: 9d12 873c 267c 89bd b115 fe3b d8a4 953b
000000c0: 0c8c 393d 5a73 95bb 2b30 1a3d 67e5 fd3c
000000d0: 4ed1 0c3d 35b7 653d f1a5 5e3d a059 423d
000000e0: 95bc 1fbd 224f 613d a52a 96bc 08b1 e7bc
000000f0: b5a7 0fbd bee8 b33c bd10 8e3c 8b8a 153d
00000100: 2349 53bb 2542 1abd deb7 5d3d c24f 0fbd
00000110: 0aa9 823d 821e 9e3b a67e c23b 8517 623c
00000120: 4d93 20bd d8b3 c23d b70f 173d 96a0 543d
00000130: aca9 263d e943 48bb 39c4 05bc 37bc 613d
00000140: 22f3 26bd 2554 063d e428 9e3c a8ed e9bb
00000150: c1e4 8bbc 34c5 283d e2b5 493d e497 adbc
00000160: ee40 dd3c 46c4 f73c 6a0b 723c c819 52bc
00000170: cf89 cf3b a071 ecbc 8add bf39 e94f 41bd
00000180: 20f7 f73c 4275 1b3d 4d54 413d 705f 5c3d
00000190: a24a 4ebc 266e cf3c 61ac 113d 1571 893c
000001a0: 9f64 013d e50d b53c 211e a7bb a776 62bd
000001b0: 6d71 81bc bab2 553d 9fd6 c4bc a231 0dbd
000001c0: 9262 2fbc 6d84 0e3d 951b 05bd b4bb a7bc
000001d0: 5979 f1b9 7370 853c 7eae bc3c 2229 2bbd
000001e0: 1540 413d 5d09 18bd 12be 11bd feb1 2f3d
000001f0: 7a81 233d 1a2d 623d cb6a 2a3d 39bb 273d
00000200: 42df e8bb f3e3 d9b9 5878 303d c5a4 ccbb
00000210: 5a2b 7c3d 48c9 f93b 16bc c5bd 05e8 8f3d
00000220: 762e b1bd 2d6f c53d 7278 aabc 5695 18be
00000230: f1a8 43bc 58d8 13bd 46f1 173d bc4a 0fbb
00000240: dd23 25bb 5037 643d 993e db3c 7f0c 6fbc
00000250: a3d0 31bc a090 853b 8402 203c 0085 1bbc
00000260: 4210 dfbc f213 03bd 8757 0dbc 4e6f e23d
00000270: ce3e dfba 4adc e53c ee64 d23b b309 383c
00000280: c6f0 97bd 55ad 5bbc c063 903c f17a e03b
00000290: a8a2 3abc 7812 7abd 57fa 6d3d f1ab 773d
000002a0: a879 8cbc 3949 01bd ba44 ab38 b36b d33c
000002b0: 94e6 c23d bf7b 2b3d 38e9 073d faeb e0bb
000002c0: 392b ea3c 5369 c7bc c78b 22bd 6a6e 8cbc
000002d0: 0872 103b feae 0e3d ddc1 1dbd f2f5 6f3b
000002e0: fb3a 783d 243f c03c 75eb b23c ea38 f1bb
000002f0: 6d4e 273d 6111 d23b f452 95bd 5a0d 3a3d
00000300: 6c60 323a 1b57 d5bb 4e74 f83c 9d18 7d3d
00000310: dfc2 d9bd abc2 53bc 8aba 0d3d f78d 03bd

fc1_2.weight f4 [200, 192]
-0.010132431 -0.058806654 -0.055372052 -0.023928214 0.058657378 -0.08074438 -0.020009639 0.023507858
-0.011643247 -0.00049381045 0.012300221 -0.048171222 0.021980057 0.0019317233 -0.078934185 0.033833217
0.06989738 0.026240507 -0.0032382589 0.036511026 -0.039665237 0.04613891 -0.049996026 0.024900429
-0.020202586 -0.066699795 -0.0060416446 0.016842173 0.0054487363 0.0730903 -0.05937979 0.06112796
0.0605567 -0.059701443 -0.08459504 0.08707066 -0.061831962 -0.054611 0.07077929 0.04370288
0.04527674 -0.070074596 0.046667427 0.067216665 0.038719747 -0.014305195 0.029688496 0.017587578
0.07348773 0.07477051 -0.020082839 0.060354445 0.062998496 0.04105342 0.06050852 -0.020985017
0.05851261 -0.012395471 -0.023881827 0.0035641443 0.06258255 0.0007484677 -0.05712108 0.028212378
0.00880724 0.050152265 -0.07124699 -0.012409822 0.04855852 0.050250366 -0.06160038 0.024926752
-0.060550526 -0.05025529 -0.019001829 0.022066223 -0.039168548 0.015693586 0.0236212 -0.035616156
-0.030057656 0.010638236 -0.06677097 0.05106643 0.01911904 0.01664836 0.03757512 0.05287416
0.0032850893 -0.024195218 0.034014974 -0.057456013 0.04758825 0.04941195 -0.00206527 -0.04199241
0.050846413 0.07170159 0.06527398 0.007980526 -0.006044728 -0.0496334 -0.07194153 -0.010307946
-0.020117516 -0.081958964 0.016742887 0.020286754 0.021702927 0.06234156 -0.0017154253 0.019284463
-0.0054892837 0.024498219 -0.05149632 0.030137189 0.012739451 -0.030163014 -0.040380027 0.06542768
-0.038897198 -0.011201136 -0.053623624 -0.047402423 -0.026814204 0.06119426 -0.060888696 0.056469522
0.019272227 -0.027370661 0.02918635 -0.019777471 0.04704839 -0.022021731 0.021287763 0.059919477
0.044545066 0.046929445 0.03303713 -0.067405306 -0.07218756 0.04208314 0.014964991 0.012619524
-0.058759227 -0.025349753 -0.025693567 0.017412184 0.030056143 -0.0014073872 0.012157507 0.02199794
-0.03134467 0.037376605 -0.01829323 0.04402252 -0.004789211 -0.012840546 -0.0014026711 -0.042881444
-0.0013028083 0.03766815 -0.07531495 -0.05069337 -0.028700702 -0.016240384 -0.07728117 -0.067279235
0.038197476 0.0027847043 -0.043188836 -0.06530373 -0.04989503 0.019987702 -0.05352287 0.058728646
0.02477954 0.037523396 -0.033352442 -0.028989257 -0.047350485 -0.001786236 -0.017935079 0.034784053
-0.034393262 -0.031568583 0.020771869 -0.0591072 0.011720292 -0.052311696 -0.030127143 0.0010931665
-0.044350192 0.03559227 -0.038560495 0.07621654 -0.0060504302 -0.0035361783 -0.02599412 0.02145067
-0.011661055 0.11335434 -0.09541602 -0.122770086 -0.02728082 0.0006569033 -0.06548963 0.017058562
-0.07736995 0.10448215 0.057201125 -0.057913195 -0.0362078 0.01583546 -0.07365904 -0.016283743
0.02265833 -0.028441988 0.015755257 -0.025756644 -0.023302821 -0.019303693 0.09775258 -0.03991824
0.07452148 -0.11128118 -0.044343747 0.053015877 -0.07816618 -0.031120114 0.007536419 -0.008308971
0.036266156 -0.0871903 0.07923997 0.07341671 -0.09287171 -0.05338441 0.042473614 0.004724396
-0.017671548 -0.034092594 0.040025596 -0.045647662 -0.009947247 -0.02776141 -0.049604263 -0.026008207
0.027098231 0.04995633 -0.032255765 -0.01518784 0.07349933 -0.09209505 0.115029946 -0.0824042
00000000: 7f02 26bc 3fdf 70bd cecd 62bd 1a05 c4bc
00000010: b842 703d 4f5d a5bd 41eb a3bc 8d93 c03c
00000020: 51c3 3ebc 0f73 01ba de86 493c 304f 45bd
00000030: 850f b43c e131 fd3a 3fa8 a1bd b394 0a3d
00000040: 5c26 8f3d 55f6 d63c f838 54bb 968c 153d
00000050: 0478 22bd 27fc 3c3d a2c8 4cbd fcfb cb3c
00000060: e57f a5bc e799 88bd fdf8 c5bb 99f8 893c
00000070: 508b b23b 5eb0 953d 3938 73bd 5061 7a3d
00000080: 4d0a 783d 8089 74bd 2a40 adbd 1a52 b23d
00000090: 8343 7dbd c9af 5fbd bbf4 903d cb01 333d
000000a0: 1a74 393d 4583 8fbd 5826 3f3d e4a8 893d
000000b0: 9998 1e3d 5660 6abc 4a35 f33c d313 903c
000000c0: bc80 963d 4821 993d c484 a4bc 3936 773d
000000d0: 5b05 813d a227 283d c8d7 773d c5e8 abbc
000000e0: ebaa 6f3d 6016 4bbc d2a3 c3bc 6b94 693b
000000f0: 482b 803d d134 443a cbf7 69bd a51d e73c
00000100: 3e4c 103c 766c 4d3d f1e9 91bd 9152 4bbc
00000110: 4ce5 463d 54d3 4d3d ae50 7cbd 3033 cc3c
00000120: d403 78bd 7ed8 4dbd b9a9 9bbc 39c4 b43c
00000130: 336f 20bd d68f 803c 3f81 c13c 3fe2 11bd
00000140: 793b f6bc ff4b 2e3c 38bf 88bd 082b 513d
00000150: 889f 9c3c 2462 883c 5ee8 193d 9392 583d
00000160: a74a 573b 0d35 c6bc 4953 0b3d ff56 6bbd
00000170: e6eb 423d 2f64 4a3d 7b59 07bb 3c00 2cbd
00000180: 5444 503d 49d8 923d 5dae 853d c1c0 023c
00000190: db12 c6bb 644c 4bbd 1556 93bd a9e2 28bc
000001a0: 7dcd a4bc 1ada a7bd 6128 893c 6830 a63c
000001b0: 56ca b13c dd59 7f3d 1fd8 e0ba 73fa 9d3c
000001c0: 73df b3bb 7db0 c83c ceed 52bd 44e2 f63c
000001d0: 21b9 503c 6d18 f7bc 8765 25bd f3fe 853d
000001e0: ab52 1fbd f884 37bc 72a4 5bbd 0b29 42bd
000001f0: 76a9 dbbc d5a6 7a3d 6d66 79bd 964c 673d
00000200: cae0 9d3c 7038 e0bc 3618 ef3c 5d04 a2bc
00000210: d0b5 403d eb66 b4bc ad63 ae3c 206e 753d
00000220: e374 363d 1739 403d f151 073d cb0b 8abd
00000230: 12d7 93bd 5f5f 2c3d b92f 753c 1fc2 4e3c
00000240: 84ad 70bd 49aa cfbc 517b d2bc ffa3 8e3c
00000250: 4d38 f63c 1478 b8ba 4830 473c 0635 b43c
00000260: 4563 00bd 3618 193d afdb 95bc f550 343d
00000270: d0ee 9cbb 2761 52bc d5d9 b7ba 74a4 2fbd
00000280: fec2 aaba eb49 1a3d b93e 9abd daa3 4fbd
00000290: bc1d ebbc 8e0a 85bc 9745 9ebd b2c9 89bd
000002a0: f574 1c3d 967f 363b c7e6 30bd f6bd 85bd
000002b0: bb5e 4cbd 40bd a33c cc3a 5bbd 738d 703d
000002c0: 76fe ca3c 22b2 193d 929c 08bd e17a edbc
000002d0: 95f2 41bd 2220 eaba 96ec 92bc b979 0e3d
000002e0: f3df 0cbd 0f4e 01bd c429 aa3c 641a 72bd
000002f0: 7806 403c ca44 56bd 33cd f6bc 9548 8f3a
00000300: 8ca8 35bd 33c9 113d 9cf1 1dbd 6b17 9c3d
00000310: b042 c6bb 3abf 67bb 9ff1 d4bc 51b9 af3c
00000320: 020e 3fbc 5226 e83d 7969 c3bd e26e fbbd
00000330: 077c dfbc 0934 2c3a 6d1f 86bd 66be 8b3c
00000340: 2374 9ebd bdfa d53d ba4b 6a3d 6336 6dbd
00000350: a14e 14bd 5eb9 813c 8dda 96bd 7c65 85bc
00000360: f69d b93c 2cff e8bc 2b11 813c 99ff d2bc
00000370: 8fe5 bebc c722 9ebc 8132 c83d 4f81 23bd
00000380: b89e 983d 63e7 e3bd caa1 35bd 2d27 593d
00000390: 9715 a0bd 9cef febc 11f4 f63b 5a22 08bc
000003a0: d28b 143d d490 b2bd 9148 a23d 805b 963d
000003b0: 8633 bebd 9ca9 5abd d0f8 2d3d 1bcf 9a3b
000003c0: ecc3 90bc ada4 0bbd e1f1 233d 0bf9 3abd
000003d0: c7f9 22bc e66b e3bc d72d 4bbd 2a0f d5bc
000003e0: 1cfd dd3c 029f 4c3d 9f1e 04bd 6bd6 78bc
000003f0: d186 963d 549c bcbd d294 eb3d 89c3 a8bd

fc1_2.bias f4 [200]
-0.0657901 0.02416191 -0.06405747 -0.057695325 -0.016854104 0.02343201 0.048245564 0.052262925
-0.019092456 0.046950627 0.079459086 0.031200813 0.07183195 -0.07318365 -0.06810671 0.023164889
-0.012852925 0.076642655 -0.04948866 0.007196991 -0.03067311 -0.06324446 -0.05371536 0.03945179
-0.009384873 -0.006686613 0.02441467 0.060128376 0.06534432 -0.008079754 0.06864769 0.06141327
0.027863154 0.032117356 -0.069942854 -0.016709331 0.026965192 0.03884241 -0.023796009 0.0058621485
-0.035083268 0.009290449 0.0053796163 -0.0045196433 0.018649906 -0.09196193 -0.0022045004 0.028851565
0.07382398 -0.047000095 0.056698635 0.055229187 0.017535098 0.06112632 -0.0018902214 -0.01600019
-0.023934364 -0.009550366 0.06593708 -0.032205436 -0.032156464 -0.016226029 0.03869191 -0.023728855
-0.005404088 -0.058479086 -0.06416153 -0.007744357 -0.019026916 -0.011811109 0.008883411 -0.015335
-0.064531155 -0.0014865967 -0.048492823 0.022990216 -0.044400427 -0.026156802 0.05656569 -0.01885761
-0.0013125197 -0.026620232 0.07690538 -0.046165366 0.05075042 -0.06428416 0.06256258 -0.05140708
-0.03405765 -0.013697188 -0.059074517 -0.020076862 0.018719561 -0.0016607144 0.029396765 0.05914783
0.05688422 0.042947624 -0.0749704 -0.051755648 0.022444293 -0.008445749 -0.033878896 -0.057054937
-0.012285318 0.042344265 -0.050845206 0.06065222 0.06431347 -0.02547696 -0.01992496 0.03040271
0.02380855 -0.011574287 -0.039044216 -0.06692004 0.02629372 0.05348499 -0.012354664 -0.031274453
-0.05459912 0.06916089 0.06803872 0.018955776 0.022530513 0.01077493 0.018134788 0.048951976
0.07530479 -0.029824087 -0.032674633 -0.032834847 0.017780872 0.04715826 -0.045370683 -0.041185148
0.022284923 0.026674699 -0.0011506974 -0.008057341 0.05302891 -0.007091032 0.064276315 -0.011219229
-0.03487684 -0.03848677 -0.063463554 0.044199225 0.054867256 -0.080025524 0.014363629 -0.044850115
0.01678523 0.026575837 -0.037009392 0.032046303 0.029164435 -0.0478722 0.030402264 0.002954287
-0.049749248 0.07040954 0.030867664 -0.051464166 0.049065173 -0.055895325 -0.0052396744 0.064256005
0.04923272 0.07279737 0.029728834 0.0024334602 0.033089656 -0.0051031983 -0.07522576 0.039413463
0.0071496456 -0.018273229 -0.019057682 -0.02722185 0.07491958 0.012649168 0.07405616 0.03559028
0.02752308 -0.0019165917 0.014560325 -0.073287375 -0.06360189 0.041247778 0.0397189 0.024110539
0.024183879 -0.04877319 0.06512605 -0.02677076 -0.05309334 -0.066374585 0.005171388 0.05179889
00000000: f6bc 86bd 33ef c53c 9030 83bd ef51 6cbd
00000010: 9e11 8abc 7df4 bf3c 249d 453d a611 563d
00000020: c867 9cbc 4d4f 403d 72bb a23d d998 ff3c
00000030: a11c 933d 4fe1 95bd 887b 8bbd 4bc4 bd3c
00000040: 1395 52bc d3f6 9c3d 9fb4 4abd bcd4 eb3b
00000050: 2d46 fbbc 5086 81bd a304 5cbd 3398 213d
00000060: 03c3 19bc 601b dbbb 4601 c83c 2c49 763d
00000070: 3ed3 853d f260 04bc 2997 8c3d 7b8c 7b3d
00000080: 4541 e43c 7d8d 033d 333e 8fbd 02e2 88bc
00000090: 1be6 dc3c 3819 1f3d d9ef c2bc 4417 c03b
000000a0: 79b3 0fbd f836 183c 7e47 b03b 8419 94bb
000000b0: b0c7 983c 8956 bcbd 6179 10bb 1e5a ec3c
000000c0: 0731 973d 2c83 40bd d43c 683d 0038 623d
000000d0: c4a5 8f3c 985f 7a3d 4ec1 f7ba d512 83bc
000000e0: 0012 c4bc 2379 1cbc 050a 873d d9e9 03bd
000000f0: 7fb6 03bd 73ec 84bc 697b 1e3d 0463 c2bc
00000100: c714 b1bb c487 6fbd 1f67 83bd 60c4 fdbb
00000110: 56de 9bbc 6283 41bc ba8b 113c a73f 7bbc
00000120: e928 84bd e8d9 c2ba 69a0 46bd fa55 bc3c
00000130: 39dd 35bd ca46 d6bc 6db1 673d 467b 9abc
00000140: da08 acba ac12 dabc 9180 9d3d e517 3dbd
00000150: acdf 4f3d 6aa7 83bd cf20 803d 3b90 52bd
00000160: 0980 0bbd 2c6a 60bc 1ff8 71bd 3b78 a4bc
00000170: c459 993c 54ac d9ba 7cd1 f03c ff44 723d
00000180: 6eff 683d d9e9 2f3d 158a 99bd bbfd 53bd
00000190: 18dd b73c 0a60 0abc 99c4 0abd 70b2 69bd
000001a0: 5c48 49bc 2e71 2d3d 1043 50bd 766e 783d
000001b0: c8b6 833d 0fb5 d0bc ab39 a3bc 1b0f f93c
000001c0: 260a c33c 14a2 3dbc d4ec 1fbd 600d 89bd
000001d0: ed65 d73c 1413 5b3d 376b 4abc a419 00bd
000001e0: 54a3 5fbd 3aa4 8d3d e257 8b3d 2549 9b3c
000001f0: e991 b83c 5589 303c 688f 943c de81 483d
00000200: 6639 9a3d a551 f4bc d6d5 05bd d57d 06bd
00000210: 31a9 913c 0529 413d 9cd6 39bd c2b1 28bd
00000220: df8e b63c e684 da3c ffd2 96ba f002 04bc
00000230: d834 593d e35b e8bb 4da3 833d dbd0 37bc
00000240: 04db 0ebd 4ea4 1dbd 2ef9 81bd 3f0a 353d
00000250: 7dbc 603d 6ce4 a3bd 6d55 6b3c c1b4 37bd
00000260: 2e81 893c 92b5 d93c 2997 17bd fc42 033d
00000270: 41ea ee3c a415 44bd 2b0e f93c b69c 413b
00000280: dec5 4bbd e032 903d 2fde fc3c 17cc 52bd
00000290: 90f8 483d 7ff2 64bd 93b1 abbb a798 833d
000002a0: 40a8 493d ca16 953d e289 f33c b07a 1f3b
000002b0: 0589 073d bb38 a7bb f70f 9abd 0370 213d
000002c0: 9347 ea3b bdb1 95bc db1e 9cbc 5b00 dfbc
000002d0: 706f 993d 753e 4f3c c2aa 973d 1dc7 113d
000002e0: 1578 e13c 2536 fbba 6e8e 6e3c b117 96bd
000002f0: b541 82bd 6ef3 283d 49b0 223d 7783 c53c
00000300: 451d c63c 65c6 47bd ce60 853d 5a4e dbbc
00000310: 6778 59bd 66ef 87bd bf74 a93b 132b 543d
