training_model/wandb/run-20200624_212634-2lr137k6/AE_1.pt (torch_old, 74992 bytes, 16 tensors)

encode_conv1.weight f4 [4, 12, 3]
0	0x3d13442a	0.03595368
1	0xbdd44c22	-0.10366084
2	0x3dddcd17	0.108301334
3	0x3d80888f	0.062760465
4	0x3e048405	0.12940986
5	0xbdf0f803	-0.117660545
6	0xbda9cc70	-0.082909465
7	0x3da83459	0.082131095
8	0x3df7dcd2	0.12102665
9	0xbe0f0d40	-0.13969898
10	0xbbd61e3d	-0.0065343664
11	0xbdcae72b	-0.09907373
12	0xbde0ff54	-0.109862
13	0xbd3ab390	-0.0455814
14	0x3dfbea1d	0.12300513
15	0xbd5d3382	-0.0540042
16	0x3e10c7e0	0.14138746
17	0xbdafb756	-0.085798904
18	0x3e2d5c00	0.16929626
19	0xbd53fc85	-0.051754493
20	0x3d800e3c	0.06252715
21	0xbe0a4306	-0.1350213
22	0xbcda2892	-0.026630674
23	0xbd6fed66	-0.05857601
24	0xbe122cde	-0.14274928
25	0xbe0abb8a	-0.13548103
26	0xbe0c3785	-0.13693054
27	0xbcee6531	-0.029100986
28	0x3ccc3a81	0.02493024
29	0x3cc34534	0.02383671
30	0xbdac41c9	-0.08410985
31	0xbda84ee0	-0.08218169
32	0xbd3d18dc	-0.046166286
33	0x3cc81709	0.024425047
34	0xbd14bb01	-0.036311153
35	0xbd345ee9	-0.044035826
36	0xbc4f438d	-0.012650383
37	0xbe069ea2	-0.13146451
38	0xbd385136	-0.044999324
39	0x3dbcbec7	0.092160754
40	0xbddf3950	-0.10899603
41	0x3d2fa1c0	0.042878866
42	0xbd85b09b	-0.065278254
43	0xbca3df00	-0.020003796
44	0xbe1af795	-0.15133508
45	0x3e06e8f9	0.1317481
46	0x3c7a9211	0.015293614
47	0x3d434ab6	0.04767867
48	0xbe075468	-0.13215792
49	0x3dac1f98	0.084044635
50	0xbe22fb3a	-0.15916148
51	0xbdafde47	-0.08587318
52	0xbcee246d	-0.029070104
53	0xbd871ef1	-0.065976985
54	0xbdeb3e7f	-0.114865296
55	0xbe0e38ef	-0.13888906
56	0x3b1d6ac5	0.0024019938
57	0x3d96bbd3	0.073600434
58	0x3d65eff1	0.05613703
59	0xbe08d107	-0.13360988
60	0x3c4694bf	0.012120425
61	0x3d1eab8d	0.038737822
62	0xbe34e551	-0.17665602
63	0xbd581fe7	-0.0527648
64	0xbdf18007	-0.117919974
65	0x3cc6f8b3	0.02428851
66	0x3b38626a	0.0028134831
67	0xbde9d633	-0.114178084
68	0xbbbfe388	-0.0058559813
69	0xbd8781d9	-0.06616563
70	0xbdb05d07	-0.086114936
71	0xbca36e4a	-0.01995005
72	0x3e56b861	0.20968772
73	0x3e6357a1	0.22201397
74	0x3d8212c4	0.063512355
75	0x3e23dadf	0.16001461
76	0xbcf22aed	-0.029561484
77	0xbd25a595	-0.040441114
78	0xbded8ea5	-0.11599473
79	0x3d90c783	0.07069304
80	0x3e37f5b1	0.17964818
81	0xbe0b822f	-0.1362388
82	0x3c7349f8	0.0148491785
83	0xbe46e6d7	-0.19423996
84	0x3c480e41	0.01221043
85	0x3c3ed2a9	0.011646905
86	0xbdecaf15	-0.11556832
87	0xbd42a058	-0.047516197
88	0x3d23112d	0.039811302
89	0xbd862a19	-0.06550998
90	0x3ded82b5	0.11597196
91	0xbd92c44b	-0.07166346
92	0xbd3b9bcf	-0.045802888
93	0x3dd4c07c	0.10388276
94	0xbde7556f	-0.11295592
95	0xbae26846	-0.0017273508
96	0xbcc86b3f	-0.024465201
97	0xbdeee1d2	-0.116641656
98	0x3e5dee9c	0.21673054
99	0xbd26261f	-0.0405637
100	0x3dfb1f94	0.122618824
101	0x3c53cf9c	0.012927916
102	0x3e04f784	0.12985045
103	0x3d3ad241	0.04561067
104	0x3e1bed6f	0.15227292
105	0x3cacff9c	0.021117978
106	0x3e2af6a7	0.16695653
107	0xbcb3a259	-0.021928
108	0xbde6ab67	-0.11263161
109	0x3cd8a896	0.026447576
110	0xbdad473c	-0.084608525
111	0x3e02c52b	0.12770526
112	0xbd857354	-0.06516138
113	0x3e0d1017	0.13775669
114	0xbe19e00c	-0.15026873
115	0x3e03ee09	0.12883772
116	0xbdab763e	-0.08372162
117	0xbcf1e4d3	-0.029528057
118	0x3dfaa78d	0.12238989
119	0x3c818f9d	0.01581555
120	0xbd919811	-0.071090825
121	0x3e143e1d	0.1447682
122	0x3d0ed6a4	0.034872666
123	0xbdf2bf58	-0.11852902
124	0x3e060d91	0.13091113
125	0x3d78c987	0.060739066
126	0x3df88e70	0.12136543
127	0x3cc005d7	0.023440285
128	0x3dd23ef9	0.10265917
129	0x3d897c00	0.06713104
130	0x3d3e55bc	0.04646848
131	0xbd4329d3	-0.04764731
132	0x3e215623	0.15755515
133	0xbcd2e200	-0.02574253
134	0xbdbae312	-0.091253415
135	0x3e1f7274	0.15571004
136	0x3db45227	0.08804732
137	0xbc3b7f0f	-0.011443867
138	0x3c9cf237	0.019158466
139	0x3a9b1e58	0.0011834605
140	0x3dcf2f72	0.10116471
141	0xbde725b2	-0.11286487
142	0xbdfaf8e4	-0.12254503
143	0xbe1de842	-0.1542063

encode_conv1.bias f4 [4]
0	0xbdae0d86	-0.08498673
1	0xbdd2a9fb	-0.102863275
2	0x3def47b9	0.11683602
3	0xbd05a468	-0.032627493

encode_conv2.weight f4 [4, 4, 3]
0	0x3d81c61b	0.06336614
1	0xbd94fdd0	-0.072749734
2	0x3e0f275e	0.13979861
3	0xbe0e27b9	-0.1388234
4	0xbe79066d	-0.24318857
5	0x3e89c10c	0.26905096
6	0xbe3806cd	-0.17971344
7	0xbe8e3861	-0.2777739
8	0xbd60e25f	-0.054903384
9	0xbe88d532	-0.26725155
10	0x3d1d093b	0.03833888
11	0xbdf618a8	-0.120164216
12	0xbda954e7	-0.08268147
13	0xbe3b7d35	-0.18309481
14	0xbdd9b9b4	-0.10631123
15	0xbe1ae421	-0.15126087
16	0xbe7a9b4f	-0.24473308
17	0x3e3d5a9c	0.18491596
18	0x3dbf6b1b	0.093466006
19	0x3eb334e4	0.3500129
20	0x3e996b28	0.29964566
21	0x3e804637	0.2505357
22	0xbe29d884	-0.165865
23	0x3e03d11c	0.12872738
24	0x3cf4f375	0.029901246
25	0x3e62e63e	0.22158143
26	0xbe3002b9	-0.17188539
27	0x3e81f21c	0.25380027
28	0x3dfed40f	0.12442791
29	0xbe847272	-0.25868565
30	0x3e01d0de	0.12677333
31	0x3e4001d9	0.18750705
32	0x3d2e12b4	0.042498305
33	0x3e36eabd	0.17862983
34	0xbc8fb35d	-0.017541582
35	0x3d89926f	0.06717383
36	0xbe3a4c56	-0.18193182
37	0xbe4424c5	-0.19154651
38	0xbe67338e	-0.2257826
39	0x3e2376e3	0.1596332
40	0x3c25d919	0.010122561
41	0xbd9f988c	-0.07792768
42	0x3d47db66	0.04879322
43	0xbe6056c7	-0.21908103
44	0xbe109cc9	-0.14122309
45	0xbd9bb55e	-0.076029524
46	0x3e6c10b1	0.23053242
47	0x3d7d323d	0.06181549

encode_conv2.bias f4 [4]
0	0xbdc34552	-0.09534706
1	0xbe270b29	-0.16312851
2	0x3e850582	0.25980765
3	0xbe0e3bd1	-0.13890006

encode_conv3.weight f4 [8, 4, 3]
0	0x3e87dd50	0.26536036
1	0x3e82a2fd	0.25514975
2	0x3e24f20a	0.16107956
3	0x3e8e9fe8	0.27856374
4	0x3bb604af	0.0055547575
5	0x3dce28eb	0.10066398
6	0x3e7d8b93	0.24760275
7	0x3e172094	0.14758521
8	0x3cd27319	0.025689648
9	0x3ddb53a3	0.10709312
10	0x3ea17ed9	0.3154209
11	0x3dbe0e39	0.092800565
12	0x3e223202	0.15839389
13	0xbdc0d8fa	-0.09416385
14	0xbe708686	-0.23488817
15	0xbe49a495	-0.1969169
16	0x3e8c41aa	0.27393848
17	0x3e86e242	0.26344496
18	0x3e744922	0.23856023
19	0xbe6f9cda	-0.23399678
20	0x3e96a1c4	0.29420292
21	0xbe843c33	-0.25827178
22	0x3e14db1a	0.14536706
23	0x3bbfd037	0.0058536786
24	0x3e0cd7ef	0.13754247
25	0x3e0c57ca	0.13705364
26	0xbe889e90	-0.26683474
27	0x3e2ae84c	0.16690177
28	0x3dd2ea6e	0.1029862
29	0x3d5fa2b0	0.05459851
30	0xbdb173b6	-0.08664648
31	0xbda3dc7c	-0.080010384
32	0x3e806de5	0.25083843
33	0x3de763b9	0.112983175
34	0x3e733ec5	0.23754413
35	0xbe9355ff	-0.28776547
36	0x3d79cd2a	0.060986675
37	0x3e21e625	0.1581045
38	0xbe085b0c	-0.13315982
39	0x3e2f7bfe	0.17137143
40	0x3d9b1b95	0.0757362
41	0x3e68beee	0.22729084
42	0xbdddfe97	-0.10839575
43	0x3d9143ae	0.07092987
44	0x3e6f2118	0.23352468
45	0xbe9ffb12	-0.3124624
46	0x3e124ea3	0.1428781
47	0xbde1b3e4	-0.110206395
48	0xbe116cfe	-0.14201733
49	0xbd6e77a1	-0.058219556
50	0x3e552b48	0.20817292
51	0x3e1a9969	0.15097584
52	0xbdec49a0	-0.1153748
53	0xbe95297f	-0.29133222
54	0x3e70c2be	0.23511788
55	0x3e15db41	0.1463442
56	0xbe385dce	-0.18004534
57	0x3bc59cdb	0.0060306615
58	0x3de337c8	0.11094624
59	0xbe79760d	-0.24361439
60	0x3d43b766	0.047782324
61	0xbe2ebf7c	-0.17065233
62	0x3deb7953	0.1149775
63	0xbd68285c	-0.056679115
64	0xbdbadcbb	-0.09124132
65	0x3e1d89ee	0.15384647
66	0xbe91958f	-0.28434417
67	0x3dac61b9	0.084170766
68	0xbdf355cd	-0.118815996
69	0xbe26cabd	-0.16288276
70	0x3dea5743	0.11442425
71	0x3e86b35f	0.26308724
72	0xbc6ee245	-0.014580314
73	0x3ca846e4	0.020541616
74	0xbe47092f	-0.19437097
75	0xbe1c59b9	-0.15268601
76	0x3e6b8118	0.22998464
77	0x3dafe648	0.085888445
78	0x3e8f572b	0.2799619
79	0x3e4ab1ef	0.19794439
80	0x3e7339ac	0.23752469
81	0x3ec89d2d	0.39182416
82	0xbd7db630	-0.061941326
83	0xbe0223d2	-0.12708977
84	0xbe098088	-0.13427937
85	0x3e2171e3	0.157661
86	0x3da1263a	0.07868619
87	0x3e652013	0.22375517
88	0xbe5afaaa	-0.21384683
89	0x3e79d367	0.2439705
90	0x3cb365bb	0.021899095
91	0xbd96bcfe	-0.07360266
92	0x3e7a9675	0.24471457
93	0x3e819074	0.2530552
94	0x3e8893c8	0.26675248
95	0x3e8075cd	0.25089875

encode_conv3.bias f4 [8]
0	0x3d13b714	0.03606327
1	0x3a1571d4	0.00057008606
2	0x3e3a919d	0.1821961
3	0x3deff332	0.11716308
4	0xbe2b318b	-0.16718118
5	0xbd61669f	-0.055029508
6	0x3c81497f	0.015782116
7	0x3c719641	0.014745296

encode_conv4.weight f4 [8, 8, 3]
0	0xbd00f51d	-0.03148376
1	0xbbf32c89	-0.0074210805
2	0xbd267ce6	-0.040646456
3	0x3e6d2dfd	0.23162074
4	0x3dc7054d	0.09717808
5	0xbe18b13a	-0.14911357
6	0x3caf26c8	0.021380797
7	0xbd85f24d	-0.06540356
8	0x3cba511c	0.022743754
9	0xbd315358	-0.043292373
10	0xbdbd58ff	-0.0924549
11	0x3e239d65	0.1597801
12	0xbc2b8704	-0.010469202
13	0x3d8f4804	0.06996158
14	0xbcd3cb1b	-0.025853684
15	0x3dfd7a25	0.12376813
16	0xbe4b00e2	-0.19824556
17	0xbc29e485	-0.010369425
18	0xbde488f1	-0.11158932
19	0xbdf58590	-0.11988366
20	0x3d23222d	0.039827514
21	0xbe1fabcb	-0.15592878
22	0x3dd23e97	0.10265844
23	0xbdbf9012	-0.09353651
24	0x3e3490bc	0.17633337
25	0xbe35d199	-0.17755736
26	0x3e35674a	0.17715183
27	0x3d43bbdf	0.04778659
28	0x3d1c8731	0.038214866
29	0xbb5edc78	-0.0034005921
30	0xbd87df7d	-0.06634424
31	0xbd177188	-0.036973506
32	0x3dfda7ee	0.12385546
33	0x3dff8181	0.12475873
34	0xbe36bb01	-0.17844774
35	0xbcd3bf95	-0.02584819
36	0x3cd0cfe2	0.025489751
37	0xbc930734	-0.01794777
38	0xbbe58d44	-0.0070053656
39	0xbe082640	-0.13295841
40	0xbdf0672d	-0.11738429
41	0xbdf4bd2a	-0.11950143
42	0xbcaa0980	-0.020756483
43	0x3e432886	0.19058427
44	0xbd8fd3f9	-0.070228525
45	0x3dc0d6f7	0.09416001
46	0xbd6042cb	-0.0547512
47	0x3df3b4dc	0.118997306
48	0xbdec7ef7	-0.11547654
49	0xbcf55a4c	-0.029950283
50	0x3d18b6ac	0.037283584
51	0xbe1a4024	-0.1506353
52	0xbe4073f0	-0.18794227
53	0xbde07fe1	-0.10961891
54	0xbd71ee1f	-0.05906498
55	0xbe29d6a4	-0.16585785
56	0x3daf95d9	0.08573503
57	0x3d3f7a6c	0.04674761
58	0xbe447b9b	-0.19187777
59	0x3e189638	0.14901054
60	0xbe344101	-0.17602922
61	0xbdb64305	-0.08899502
62	0x3c8bb42a	0.017053682
63	0xbdb03023	-0.08602931
64	0xbd6bb5a2	-0.057546265
65	0x3eca41eb	0.39503416
66	0xbdc479bf	-0.09593534
67	0xbd334edf	-0.04377639
68	0xbddeda32	-0.10881461
69	0xbe2c73f3	-0.16841106
70	0xbe068e05	-0.13140114
71	0x3df38639	0.11890835
72	0xbd957607	-0.072979026
73	0xbda5f1d3	-0.08102765
74	0x3d9e3a07	0.077259116
75	0xbe1dcd14	-0.15410262
76	0x3e18754b	0.14888494
77	0xbcfda09b	-0.030960372
78	0xbe0a94ad	-0.13533278
79	0x3dab6e67	0.08370667
80	0xbda84b6d	-0.08217511
81	0x3c2e0342	0.010620894
82	0x3e38cadb	0.18046133
83	0x3d81006a	0.06298907
84	0x3d2f33c6	0.042773984
85	0x3d954742	0.07288982
86	0xbda5f715	-0.08103768
87	0x3d1f3b26	0.038874768
88	0xbe053d30	-0.13011622
89	0x3e97a3bc	0.29617107
90	0x3e4bb61c	0.19893688
91	0xbe0bcc2f	-0.13652109
92	0x3d18dd69	0.03732053
93	0x3e1d420e	0.15357229
94	0x3d65a70e	0.05606752
95	0xbdf704cc	-0.12061462
96	0x3e386784	0.18008238
97	0x3e3f8bad	0.18705626
98	0xbdf22bf7	-0.11824792
99	0xbe1fd258	-0.15607584
100	0xbd53549f	-0.051594373
101	0xbe41a323	-0.18909888
102	0x3e1d04be	0.1533384
103	0xbd8de41a	-0.069282725
104	0x3e1c325e	0.15253589
105	0x3c91e155	0.017807642
106	0xbdc70874	-0.09718409
107	0x3d7ff844	0.062492624
108	0x3e473bb7	0.19456373
109	0x3e10776a	0.14108053
110	0x3d6349c2	0.055490263
111	0x3de797f2	0.11308278
112	0xbe183fa9	-0.14868034
113	0xbec50c51	-0.3848596
114	0xbddc6826	-0.10762052
115	0xbdfeb5d7	-0.12437027
116	0xbe4f4e39	-0.20244683
117	0x3e6c815f	0.23096226
118	0xbe0057c1	-0.12533475
119	0xbd461eb7	-0.048369136
120	0x3e1a02df	0.15040158
121	0x3db4a081	0.08819676
122	0x3e12a554	0.1432088
123	0x3e4dcbce	0.20097277
124	0xbd700b39	-0.058604453
125	0xbcc3b2f0	-0.023889035
126	0x3e35181c	0.17684978
127	0x3bddafb5	0.0067653307
128	0xbdbce7f0	-0.09223926
129	0xbd025e08	-0.031827956
130	0xbe047529	-0.12935318
131	0x3e0c23da	0.13685551
132	0x3dd0952d	0.10184703
133	0xbe183a35	-0.14865954
134	0x3e6fea30	0.23429179
135	0xbe1f1a96	-0.15537485
136	0x3ceaa0ba	0.028641094
137	0xbe86073e	-0.261774
138	0xbe13b2c9	-0.1442367
139	0xbe1957b6	-0.14974865
140	0x3de7deed	0.113218166
141	0x3e17fbc1	0.1484213
142	0xbddba3f6	-0.107246324
143	0x3ca4d17f	0.020119427
144	0xbe11aeaa	-0.14226785
145	0x3e021e5c	0.12706894
146	0xbd5ba40c	-0.053623244
147	0xbe27d47a	-0.16389647
148	0x3e259337	0.1616944
149	0xbe285d8a	-0.16441932
150	0x3d54eaf2	0.051981874
151	0xbdda7e75	-0.10668651
152	0x3dc2d61f	0.095134966
153	0xbddd6feb	-0.10812362
154	0x3da4cfcd	0.08047447
155	0xbe2bb69e	-0.16768882
156	0xbd656ed0	-0.056013882
157	0xbe2ca3fd	-0.16859432
158	0xbd566cf3	-0.052349996
159	0x3d8ecbed	0.069724895
160	0x3debedf2	0.11519994
161	0x3ddc83d4	0.10767332
162	0x3a2b2d9b	0.0006529928
163	0x3bccbc1a	0.0062480094
164	0x3d113944	0.035455003
165	0xbd91acba	-0.07113023
166	0xbce6e1f3	-0.028183913
167	0xbe292524	-0.16518074
168	0xbd7ee7fd	-0.06223296
169	0x3da3bf44	0.079954654
170	0xbc8136d3	-0.015773213
171	0x3e6e092b	0.23245685
172	0xbdff6739	-0.1247086
173	0x3bc74fc7	0.0060825082
174	0x3d9d320b	0.076755606
175	0x3baa565d	0.0051982836
176	0xbda2ec4d	-0.07955227
177	0x3e406048	0.18786728
178	0x3d9ba2f6	0.07599442
179	0x3e79967c	0.24373811
180	0xbd67a69e	-0.056555383
181	0x3e774aed	0.24149676
182	0x3d9ea3be	0.07746075
183	0x3cc28cbe	0.023748752
184	0xbcff8d3a	-0.031195272
185	0xbf3e3ba2	-0.7430974
186	0x3d6d04ec	0.057866022
187	0x3dc0369c	0.09385416
188	0xbe1dae22	-0.15398458
189	0xbdcb8ae8	-0.09938604
190	0xbe1c9b80	-0.15293694
191	0x3bc98830	0.006150268

encode_conv4.bias f4 [8]
0	0xbe4e4e7a	-0.20147124
1	0xbe513f5c	-0.20434326
2	0x3e477ee6	0.19482002
3	0xbde00114	-0.10937706
4	0xbcacbaa0	-0.021085083
5	0xbe2b12ab	-0.1670634
6	0x3e39ee3d	0.18157287
7	0x3e821fd2	0.25414902

encode_conv5.weight f4 [16, 8, 3]
0	0x3e0e6a86	0.13907823
1	0xbd029d30	-0.031888187
2	0xbd38d5cc	-0.045125768
3	0x3e076ba2	0.13224652
4	0x3dbb7b48	0.091543734
5	0x3d533820	0.051567197
6	0x3e03405a	0.12817517
7	0xbe28612e	-0.16443321
8	0x3e1d1fe4	0.15344197
9	0xbd448620	-0.047979474
10	0xbcd8a110	-0.026443988
11	0x3ce93838	0.02846919
12	0xbe4b963e	-0.19881532
13	0xbd546ab8	-0.051859587
14	0xbd45f27c	-0.048326954
15	0x3df78464	0.120857984
16	0x3dc92d90	0.098231435
17	0xbd45e1cc	-0.04831104
18	0xbe2057d4	-0.15658504
19	0xbcd702d8	-0.026246473
20	0xbe0f3bf8	-0.1398772
21	0x3dcf26cc	0.10114822
22	0x3e3ffc9a	0.18748704
23	0x3d3a5510	0.04549128
24	0x3e4c7396	0.19965968
25	0x3d2e6a54	0.04258187
26	0x3d95c36c	0.073126644
27	0xbe34a076	-0.17639336
28	0xbde608bf	-0.11232137
29	0xbdc0df56	-0.09417598
30	0xbe50fb5d	-0.20408387
31	0x3d00718c	0.031358287
32	0x3dc9becc	0.09850845
33	0xbe345fa0	-0.17614603
34	0xbd6b4bdc	-0.057445392
35	0x3e0e1af4	0.1387747
36	0xbe3592a3	-0.17731719
37	0x3e3e28ea	0.18570295
38	0xbdafdc97	-0.08586996
39	0x3dfa803c	0.1223149
40	0x3cce8a30	0.025212377
41	0xbe2ed759	-0.17074336
42	0x3e1e9200	0.15485382
43	0xbc3a5c00	-0.011374474
44	0x3d4944a0	0.04913771
45	0xbd5fe164	-0.05465831
46	0x3dd79978	0.10527319
47	0x3e400f0a	0.18755737
48	0x3d573460	0.052540183
49	0x3e4a62e8	0.19764292
50	0x3d00cd30	0.031445682
51	0x3df5ba5c	0.11998436
52	0x3dcd61b8	0.10028404
53	0x3cb99ea0	0.022658646
54	0x3dffdb88	0.12493044
55	0x3e195412	0.14973477
56	0xbe332742	-0.17495444
57	0x3c83a7a8	0.016071156
58	0x3ccfc4a0	0.025362313
59	0xbe37585c	-0.179048
60	0xbde12301	-0.109930046
61	0x3a9d5800	0.0012004375
62	0xbd1d78d0	-0.038445294
63	0x3e193e9e	0.14965293
64	0x3e4efe7a	0.20214263
65	0x3e0bc1b6	0.13648114
66	0x3db196d4	0.08671346
67	0xbd833590	-0.064067006
68	0xbe29d4f5	-0.16585143
69	0xbe265c8f	-0.16246246
70	0x3dc38a64	0.0954788
71	0x3d7ba1a8	0.061433464
72	0xbd4feedc	-0.050764903
73	0x3db4f820	0.088363886
74	0x3da956f4	0.08268538
75	0xbcfdc280	-0.030976534
76	0xbdf0de66	-0.11761169
77	0x3d77a658	0.060461372
78	0xbccdd978	-0.025128111
79	0x3d8af180	0.06784344
80	0x3e16ea86	0.14737901
81	0xbd5fe248	-0.054659158
82	0x3d03ff8c	0.03222613
83	0xbce094c0	-0.02741468
84	0xbe418000	-0.18896484
85	0xbdd6702b	-0.10470613
86	0x3cf58730	0.029971689
87	0xbd064ab8	-0.0327861
88	0x3dc256b0	0.094891906
89	0x3ddee088	0.1088267
90	0xbd8f6cf6	-0.070032045
91	0xbe028946	-0.12747678
92	0xbe2f6adb	-0.17130606
93	0x3e1374ea	0.14400068
94	0xbce47880	-0.02788949
95	0xbdb0bd96	-0.08629911
96	0x3e1c9d72	0.15294436
97	0xbc27c660	-0.010240167
98	0xbd81e742	-0.06342937
99	0xbe45eab4	-0.19327813
100	0xbdfa6202	-0.12225725
101	0x3e2bf322	0.16791967
102	0xbe42a408	-0.19007885
103	0x3e2fae02	0.17156222
104	0x3da0e65c	0.078564376
105	0xbdfd80b8	-0.12378067
106	0x3e40c8e0	0.18826628
107	0xbe1102a0	-0.14161158
108	0x3da32d50	0.07967627
109	0xbe189e7b	-0.14904206
110	0xbe42f36b	-0.19038169
111	0xbe40bae5	-0.18821295
112	0x3ddc56b8	0.10758728
113	0x3e389a4a	0.18027607
114	0xbdd9c618	-0.106334865
115	0xbe1ab4c1	-0.15108015
116	0xbdfe8f22	-0.12429644
117	0xbd6a8638	-0.057256907
118	0x3e197334	0.14985353
119	0xbdd866f7	-0.10566514
120	0x3de5e79c	0.112258166
121	0x3c541680	0.012944818
122	0xbcb6ca30	-0.022313207
123	0xbe46a48f	-0.19398712
124	0xbcc7fd68	-0.024412826
125	0xbe20a616	-0.15688357
126	0xbe3d8702	-0.18508533
127	0xbdfc87b7	-0.12330573
128	0xbd8a0404	-0.06739047
129	0xbd8a4c98	-0.0675289
130	0xbd8ca5d2	-0.06867565
131	0x3e1bf15e	0.15228793
132	0xbdece624	-0.11567333
133	0x3c9e12f0	0.01929614
134	0xbd884008	-0.06652838
135	0x3dca3d1c	0.09874937
136	0x3e116676	0.14199242
137	0x3dbe3148	0.092867434
138	0xbe0ddff0	-0.13854957
139	0x3e001a8a	0.12510124
140	0x3d2a85c8	0.04163149
141	0x3d133428	0.035938412
142	0x3debcde4	0.1151388
143	0x3de40630	0.11133993
144	0xbdbf5f54	-0.09344354
145	0xbd9cf17a	-0.076632455
146	0x3dfdef5c	0.1239917
147	0xbe3dff09	-0.1855432
148	0xbe323b7f	-0.17405508
149	0x3d558650	0.052130044
150	0xbd0df538	-0.034657687
151	0xbbec4020	-0.0072097927
152	0x3e21a702	0.15786365
153	0xbde380c8	-0.111085474
154	0xbe478bef	-0.19486974
155	0xbd0491fc	-0.032365784
156	0xbde31824	-0.11088589
157	0xbe43f331	-0.19135739
158	0x3d0cb604	0.03435327
159	0xbdd64aac	-0.10463461
160	0x3d6b2ef0	0.05741781
161	0xbdc033f3	-0.093849085
162	0x3c0207c0	0.007936418
163	0x3d17b5c4	0.03703858
164	0xbe393381	-0.18086053
165	0x3e276a3e	0.16349122
166	0xbe417fcf	-0.18896411
167	0x3e31e6f0	0.17373252
168	0xbde0159c	-0.10941622
169	0x3e1d0082	0.15332225
170	0x3e326e86	0.17424974
171	0x3c7e4b60	0.0155209005
172	0x3d4f60e0	0.050629497
173	0x3e26a81e	0.16275069
174	0x3dd49c74	0.103814036
175	0xbdfca229	-0.12335617
176	0x3e09e7ba	0.13467303
177	0x3c9c25f0	0.019061059
178	0x3dc993c8	0.0984264
179	0x3d534e18	0.051588148
180	0x3e2e0ebe	0.16997811
181	0xbd283c98	-0.04107341
182	0xbe1c7736	-0.1527985
183	0x3dd44304	0.10364345
184	0x3e2e6580	0.17030907
185	0xbe25223f	-0.16126345
186	0xbe04dca2	-0.1297479
187	0x3da84ad8	0.082174
188	0xbe378428	-0.17921507
189	0xbc41cbc0	-0.011828363
190	0x3c5a7150	0.01333268
191	0xbe09c9d0	-0.13455892
192	0xbe1dab36	-0.15397343
193	0xbd154f2c	-0.036452457
194	0x3d1a3e70	0.0376572
195	0xbd36733c	-0.04454349
196	0x3d6c7108	0.057724983
197	0x3a109e00	0.0005516708
198	0x3c973328	0.01845701
199	0x3d6ccf88	0.057815105
200	0x3d531bd0	0.051540196
201	0x3da69764	0.08134344
202	0x3e357d4a	0.17723575
203	0x3e2552c8	0.1614486
204	0xbe4487d7	-0.19192444
205	0xbd10f5c4	-0.03539063
206	0xbe36b3fd	-0.17842098
207	0xbdd731f5	-0.105075754
208	0x3e284d30	0.16435695
209	0x3cdc9f40	0.026931405
210	0x3dddff0c	0.10839662
211	0xbe25a6c4	-0.16176897
212	0xbd88f334	-0.06687012
213	0xbe195913	-0.14975385
214	0x3d07f134	0.033189014
215	0xbe1accb5	-0.15117152
216	0xbe1d32fb	-0.15351479
217	0x3d28c49c	0.041203126
218	0xbe0eb726	-0.13937053
219	0xbe31ad18	-0.17351186
220	0x3df926c0	0.12165594
221	0xbdf95c38	-0.121757925
222	0x3d9885fc	0.074474305
223	0xbd73baf8	-0.05950448
224	0x3e08b3e4	0.13349873
225	0xbdaf46a6	-0.08558397
226	0x3dbf4fc0	0.09341383
227	0xbe1aaca9	-0.15104927
228	0xbd8ea980	-0.06965923
229	0x3e4101f2	0.18848398
230	0x3dc93144	0.0982385
231	0x3e33b9a6	0.17551288
232	0xbde868fc	-0.11348149
233	0x3c9b9238	0.018990621
234	0xbe1761be	-0.1478338
235	0xbe39f0d4	-0.18158275
236	0xbdd9d1cf	-0.10635721
237	0x3e0cd6a2	0.13753751
238	0xbd9eddd2	-0.077571526
239	0xbe472de2	-0.19451097
240	0x3e0e5af0	0.13901877
241	0xbde2baf5	-0.110708155
242	0x3d8fb448	0.07016808
243	0xbe048212	-0.12940243
244	0x3de9f74c	0.11424121
245	0x3e40d2f6	0.18830475
246	0x3d1ed0e8	0.038773447
247	0x3d562000	0.05227661
248	0x3d1a5e08	0.03768733
249	0xbe2415f8	-0.16024005
250	0x3debf7cc	0.11521873
251	0xbe3969ff	-0.1810684
252	0x3db023e0	0.086005926
253	0x3e2e8c08	0.17045605
254	0x3e3c8c72	0.1841295
255	0x3e0acd8c	0.13554972

encode_conv5.bias f4 [16]
0	0xbb931c80	-0.0044894814
1	0x3e070da2	0.13188794
2	0x3e45c096	0.19311747
3	0x3e4a4b92	0.1975539
4	0xbce1d608	-0.027567878
5	0xbe383bed	-0.1799161
6	0xbe37f4d2	-0.17964485
7	0xbe01e9de	-0.1268687
8	0x3e052076	0.13000664
9	0x3d32e5fc	0.04367636
10	0x3e145572	0.1448572
11	0x3e4d0a06	0.20023355
12	0x3e3639e0	0.17795515
13	0x3df75e98	0.12078589
14	0xbdd1cf4a	-0.102446154
15	0x3d1cb944	0.03826262

encode_conv6.weight f4 [16, 16, 3]
0	0xbdb9ef58	-0.09078854
1	0x3e0f09dc	0.13968605
2	0xbcddad88	-0.027060285
3	0xbdea2a96	-0.11433904
4	0x3e1367fc	0.14395136
5	0xbdce69d6	-0.1007878
6	0x3d046380	0.032321453
7	0xbc9b01f8	-0.018921837
8	0x3dd49794	0.10380474
9	0x3d1faed0	0.038985074
10	0x3da7a78c	0.08186254
11	0x3dedaef4	0.11605635
12	0xbdb2d370	-0.08731735
13	0xbd5f92d8	-0.0545834
14	0xbb2953c0	-0.0025837272
15	0x3d0eb94c	0.03484468
16	0xbdcb375a	-0.09922667
17	0xbd14300c	-0.036178634
18	0xbd7d25fa	-0.061803795
19	0x3df1a878	0.11799711
20	0x3c0581d0	0.0081486255
21	0xbd77720e	-0.060411505
22	0xbcb8a0b4	-0.022537567
23	0xbdf35136	-0.11880724
24	0xbc4d82b0	-0.012543365
25	0xbdedec47	-0.11617332
26	0x3e0835f0	0.13301826
27	0xbdb0fc60	-0.08641887
28	0xbd9b8cf0	-0.07595241
29	0x3d333374	0.04375024
30	0xbda809bf	-0.08204984
31	0xbd8fda57	-0.07024067
32	0x3d44f4f8	0.048085183
33	0xbe0ee22a	-0.13953462
34	0x3c012310	0.007881895
35	0xbcb36ed0	-0.021903425
36	0xbbb1d3a0	-0.005426839
37	0xbd2fc1ea	-0.04290954
38	0x3d9ec404	0.07752231
39	0x3cce4c00	0.025182724
40	0xbe0cfc66	-0.13768157
41	0x3dda4784	0.10658172
42	0x3dfd64f4	0.12372771
43	0x3ded5908	0.11589247
44	0x3d73beb8	0.059508055
45	0x3e0d0fc6	0.13775548
46	0xbd072e84	-0.033003345
47	0x3db74918	0.089494884
48	0x3d6a4778	0.057197064
49	0xbcdecc54	-0.02719704
50	0xbd7261de	-0.059175365
51	0xbdc0b91e	-0.09410308
52	0xbdc54a08	-0.09633261
53	0xbe0454ba	-0.12922946
54	0x3d805f36	0.0626816
55	0x3c4afa20	0.012388736
56	0x3cf326f0	0.029681653
57	0xbd298000	-0.041381836
58	0x3cd36f28	0.02580984
59	0x3c86b190	0.01644209
60	0xbdf4afdc	-0.11947605
61	0x3e03760c	0.12838
62	0xbdc4fa08	-0.09618002
63	0xbd2f6d80	-0.042829037
64	0x3c29f410	0.01037313
65	0x3e0abc38	0.13548362
66	0xbd738ebe	-0.0594623
67	0xbe0369b5	-0.12833293
68	0x3e13602a	0.14392152
69	0xbd72513c	-0.059159502
70	0x3c0bfab0	0.008543655
71	0xbd15cb0c	-0.036570594
72	0x3d55f968	0.052239805
73	0x3cd2d9c0	0.025738597
74	0x3da56dca	0.08077581
75	0xbdc60ff9	-0.09671015
76	0xbe0415d3	-0.1289895
77	0x3c6600b0	0.01403825
78	0x3dfd3694	0.123639256
79	0xbcf7f7fc	-0.030269615
80	0xbc668fe0	-0.014072388
81	0x3e0b3956	0.1359609
82	0xbe0a5539	-0.13509072
83	0x3d946d12	0.07247366
84	0xbd846ed9	-0.06466455
85	0x3c54d060	0.012989134
86	0xbcf84678	-0.03030704
87	0xbd9ae85e	-0.07563852
88	0xbd00b3e2	-0.03142155
89	0xbcae48b0	-0.021274894
90	0xbe1028cb	-0.14078061
91	0x3d72a7b8	0.05924198
92	0x3c6f9c00	0.014624596
93	0x3de94dc4	0.11391786
94	0x3d7051d8	0.058671802
95	0xbdb13a7c	-0.08653733
96	0x3d12d068	0.035843283
97	0x3db4cf90	0.08828652
98	0x3d2bbed8	0.04193005
99	0xbacf9500	-0.0015837252
100	0x3d218bac	0.039439842
101	0xbd8d2dad	-0.068934776
102	0x3cb95240	0.022622228
103	0x3dfe7c30	0.12426031
104	0xbc8360b8	-0.01603733
105	0x3dc4a28c	0.09601316
106	0x3dd6b802	0.104843155
107	0x3e10a7c2	0.14126495
108	0x3de8d574	0.11368838
109	0xb99a1e00	-0.0002939552
110	0x3debd308	0.115148604
111	0xbe0e200c	-0.13879412
112	0xbd8b6ea5	-0.06808213
113	0x3d54a198	0.05191192
114	0xbde311e4	-0.11087397
115	0x3e0ff6b2	0.1405895
116	0x3b694a80	0.0035597384
117	0x3d9cce30	0.07656515
118	0x3dd87ba4	0.105704576
119	0x3dd35d4e	0.10320531
120	0x3de87f6c	0.11352429
121	0xbdaeea8e	-0.085408315
122	0x3cb11640	0.021617055
123	0x3c9c8428	0.019105986
124	0x3de24f7c	0.11050317
125	0xbd3fcaf8	-0.046824425
126	0xbdb8103a	-0.0898747
127	0x3dca01cc	0.09863624
128	0x3e0e88fc	0.13919443
129	0xbcff3d68	-0.03115721
130	0x3deb8be4	0.115012914
131	0x3dc9f920	0.0986197
132	0xbdcd5766	-0.100264356
133	0x3d5aba74	0.05340047
134	0xbd8bb9f1	-0.06822575
135	0xbd302996	-0.04300841
136	0x3dc4e884	0.09614661
137	0x3dd73b98	0.105094135
138	0x3c9072a0	0.017632782
139	0xbb8e1920	-0.004336491
140	0x3beec520	0.0072866827
141	0xbdd35268	-0.10318452
142	0x3d91419e	0.070925936
143	0xbded2eb3	-0.11581173
144	0x3d4703d8	0.04858765
145	0x3d01bf04	0.031676307
146	0x3d8ef58e	0.069804296
147	0x3e00fdd2	0.12596825
148	0xbc88f570	-0.016718596
149	0xbd9664f2	-0.073434725
150	0xbe091ed9	-0.13390674
151	0x3bc8c260	0.006126687
152	0xbe0cd2d5	-0.13752301
153	0xbc7ea790	-0.01554288
154	0xbdbd6ada	-0.09248896
155	0x3e002c22	0.12516835
156	0xbaf26500	-0.0018493235
157	0xbd46c0a2	-0.048523553
158	0xbdc77ed6	-0.09740989
159	0xbd6b5b84	-0.057460323
160	0x3e09156e	0.13387081
161	0xbc238e70	-0.00998269
162	0x3e0582b0	0.13038135
163	0xbc982510	-0.01857236
164	0x3d5f2084	0.05447437
165	0xbde25fe7	-0.11053448
166	0x3dd31692	0.10307039
167	0x3ce395c0	0.027781367
168	0xbdf97fb1	-0.12182558
169	0x3d4383fc	0.047733292
170	0xbd524610	-0.051336348
171	0xbc80cad8	-0.015721723
172	0x3d92c56a	0.0716656
173	0x3e03fe94	0.12890083
174	0xbd3fcf9a	-0.046828844
175	0xbdb1abda	-0.08675356
176	0x3dfb405c	0.12268135
177	0x3dd0a202	0.101871505
178	0xbde44408	-0.111457884
179	0x3d8b5c0e	0.068046674
180	0x3d0e6474	0.03476377
181	0xbdfa1c81	-0.12212468
182	0xbc0e8b00	-0.008700132
183	0xbd0fa354	-0.03506787
184	0xbd83f238	-0.06442684
185	0xbd4c76f0	-0.049918115
186	0x3dd2d7fa	0.102951005
187	0x3d95c92c	0.07313761
188	0x3dab5e8e	0.08367644
189	0x3db8061a	0.08985539
190	0xbddf7522	-0.10911013
191	0x3d947fa0	0.07250905
192	0xbe0cbf80	-0.13744926
193	0xbd9cd018	-0.07656878
194	0xbc242320	-0.01001814
195	0x3dcf38bc	0.10118243
196	0x3e09c322	0.13453344
197	0x3c341190	0.010990515
198	0x3db70ff6	0.08938591
199	0xbbb22420	-0.0054364353
200	0x3dc15948	0.09440857
201	0xbba14680	-0.0049217343
202	0xbdf5e898	-0.12007254
203	0x3d155384	0.0364566
204	0x3dd88860	0.105728865
205	0x3dedb1e4	0.116061956
206	0xbdecf779	-0.11570639
207	0xbdcee2ee	-0.10101877
208	0xbdd4180c	-0.10356149
209	0xbcf4e354	-0.029893555
210	0x3d950e7a	0.07278152
211	0x3da345f2	0.079723254
212	0x3d7f06c0	0.062262297
213	0x3d0bb6cc	0.034109876
214	0x3d4e8a4c	0.05042486
215	0xbcc326a8	-0.023822144
216	0xbdaf16d7	-0.08549278
217	0x3c1031a0	0.008800894
218	0xbe0f1dec	-0.13976258
219	0xbdcf2ed0	-0.10116351
220	0xbdaaa4cb	-0.08332213
221	0x3e01fbc6	0.126937
222	0xbccaf388	-0.024774328
223	0xbc99e1f8	-0.018784508
224	0xbd0559f6	-0.032556497
225	0xbd983957	-0.07432812
226	0x3e0ed45c	0.13948196
227	0xbcddbe68	-0.027068332
228	0xbd860b3a	-0.0654511
229	0x3dc725e0	0.09724021
230	0xbd87ed1c	-0.06637022
231	0xbd9dd503	-0.077066444
232	0x3e0b9f86	0.13635072
233	0x3e0a7a98	0.13523328
234	0xbd090030	-0.033447444
235	0xbde6d0a4	-0.11270264
236	0x3d46848c	0.04846625
237	0x3d72f3c4	0.059314504
238	0x3d8ae028	0.06781036
239	0xbd9ebaa0	-0.0775044
240	0x3db8e7f4	0.090286165
241	0xbdd93bbb	-0.10607096
242	0x3ddefcec	0.10888085
243	0x3dfc8a50	0.123310685
244	0xbd0873e8	-0.03331366
245	0xbd039a5a	-0.032129623
246	0x3de40650	0.111340165
247	0x3c2136e0	0.009839743
248	0x3dd567e8	0.10420209
249	0xbc031f00	-0.008002996
250	0x3deb633c	0.11493537
251	0x3ba00140	0.0048829615
252	0xbdd9f835	-0.10643045
253	0xbdc45ce8	-0.09588033
254	0x3e0183e0	0.12647963
255	0x3e04d234	0.12970811

encode_conv6.bias f4 [16]
0	0xbe06f2aa	-0.13178506
1	0x3e038734	0.12844545
2	0xbd9f5aa4	-0.0778096
3	0x3cbef8a8	0.023311928
4	0x3ddd59cc	0.10808143
5	0x3d0145d0	0.03156072
6	0x3d8da1fa	0.0691566
7	0x3cc7ae78	0.024375185
8	0xbe0d9670	-0.13826919
9	0x3d9bd4c4	0.07608941
10	0xbd74c520	-0.059758306
11	0xbd81320f	-0.06308376
12	0xbdcb6e84	-0.099331886
13	0xbde4874a	-0.11158617
14	0xbd9b2121	-0.07574678
15	0xbd71b480	-0.05901003

fc1.weight f4 [200, 56]
0	0x3dd19353	0.10233178
1	0xbdce1689	-0.10062892
2	0x3cec6eda	0.028861452
3	0xbd64ed27	-0.05589023
4	0xbdc8f075	-0.098114885
5	0x3dd10ca3	0.102074884
6	0xbd5d75db	-0.054067474
7	0xbd9d9dda	-0.076961234
8	0x3995e1bc	0.0002858768
9	0xbc94d942	-0.018170003
10	0x3db97b0e	0.09056674
11	0xbdff3ef7	-0.124631815
12	0x3d582afe	0.052775376
13	0xbdccbfe2	-0.09997536
14	0x3c77f9b6	0.015135219
15	0x3de602ac	0.11230978
16	0xbd897ae9	-0.067128964
17	0x3d1413a1	0.036151532
18	0x3d9c79aa	0.07640393
19	0xbdcdafce	-0.10043298
20	0xbd831006	-0.063995406
21	0x3d3d8523	0.046269547
22	0x3cf71617	0.0301619
23	0x3dacadd4	0.084315926
24	0x3da0f3b8	0.07858986
25	0x3dd8de11	0.10589231
26	0x3e0bb705	0.13644035
27	0xbd1f1eac	-0.03884761
28	0xbdb68851	-0.08912719
29	0xbcbe2eb0	-0.023215622
30	0xbb46c673	-0.0030330687
31	0xbdd755da	-0.10514422
32	0xbe072724	-0.13198525
33	0x3e33b3c7	0.17549048
34	0x3e004ea5	0.1253
35	0x3e273d80	0.16332054
36	0x3c40c7b8	0.011766367
37	0x3ddaebd8	0.10689515
38	0xbd63776f	-0.055533823
39	0x3c880b47	0.01660694
40	0xbdf9c00b	-0.121948324
41	0xbca0ab56	-0.01961295
42	0xbe0f8332	-0.14014891
43	0x3d55d045	0.052200574
44	0xbd389305	-0.045062084
45	0xbe0b37ac	-0.13595456
46	0xbca6ccee	-0.02036139
47	0xbcceb403	-0.02523232
48	0x3b3f5aa9	0.0029198325
49	0x3b8cbd95	0.004295061
50	0x3df071e4	0.11740473
51	0xbdcd0b9d	-0.10011981
52	0xbd555e60	-0.052091956
53	0xbe2078d4	-0.15671092
54	0x3c1d6023	0.00960544
55	0xbdaa0079	-0.083008714
56	0x3d022ca9	0.031780872
57	0xbdff3dce	-0.1246296
58	0x3d5c04bf	0.053715464
59	0x3dbe8d26	0.09304266
60	0x3da9235f	0.082586996
61	0x3de6db9d	0.11272357
62	0xbd30d531	-0.043172065
63	0x3dcfce21	0.10146738
64	0x3d911f32	0.07086028
65	0x3c2047cd	0.009782744
66	0x3d85eb22	0.06538989
67	0x3c85444d	0.01626792
68	0xbbb637b2	-0.0055608386
69	0xbdb6feaf	-0.08935296
70	0x3dd337fd	0.10313413
71	0x3d188605	0.037237186
72	0x3dee8f36	0.11648409
73	0xbd4da060	-0.050201774
74	0x3dde85e7	0.108653836
75	0x3dc83f10	0.09777653
76	0x3d7f9234	0.06239529
77	0x3d9e692d	0.077349044
78	0xbcb46665	-0.022021482
79	0xbcae4e9e	-0.021277722
80	0xbd97d4f0	-0.074136615
81	0x3dd9363b	0.10606047
82	0xbc9748a3	-0.018467253
83	0x3d8f721d	0.07004187
84	0xbd5e6819	-0.054298494
85	0x3dadfe37	0.08495753
86	0xbccc1489	-0.024912136
87	0xbdc66a1b	-0.09688207
88	0x3c582fe1	0.013195009
89	0x3d18d90a	0.03731636
90	0x3dabd3ae	0.08389984
91	0xbd1e6de9	-0.038679037
92	0xbda6b2d6	-0.08139579
93	0x3d011fbf	0.031524416
94	0x3ce636e4	0.028102346
95	0xbb87dc53	-0.0041461377
96	0x3cec64e5	0.028856704
97	0xbde64900	-0.112443924
98	0xbdd9a2f6	-0.106267855
99	0x3d7a531d	0.06111442
100	0xbc9b6b6a	-0.018972117
101	0x3cc30e11	0.023810418
102	0xbdb34980	-0.087542534
103	0x3d4d98cf	0.050194558
104	0x3dc003c9	0.09375722
105	0x3cd37a87	0.025815262
106	0xbdf9c85c	-0.12196419
107	0xbda44297	-0.080205135
108	0xbdf50014	-0.119629055
109	0xbd97e3b4	-0.07416478
110	0xbd16f445	-0.036854047
111	0xbdf109c6	-0.11769442
112	0xbe09c2f6	-0.13453278
113	0x3d6b5f85	0.05746414
114	0x3be95a24	0.0071213413
115	0xbe2aba7a	-0.16672698
116	0xbdbe8ade	-0.093038306
117	0xbdb523e0	-0.08844733
118	0xbc243a7e	-0.010023711
119	0xbe1f3c08	-0.15550244
120	0xbd13863b	-0.036016684
121	0xbe00bbcd	-0.1257164
122	0x3d08ac52	0.033367462
123	0x3d04ec78	0.032452077
124	0x3daf4b5d	0.08559296
125	0xbdb99e0b	-0.090633474
126	0x3dbdfce7	0.09276753
127	0x3d7e0f81	0.062026504
128	0xbdc8a425	-0.09796933
129	0xbe23a732	-0.15981749
130	0xbe1f5827	-0.15560971
131	0xbc0b0bd9	-0.008486711
132	0x3d3c4b51	0.045970265
133	0x3ddab561	0.106791265
134	0x3dcfaf63	0.10140874
135	0xbba580f0	-0.005050771
136	0x3d4ef477	0.05052611
137	0x3d9c8d14	0.07644096
138	0x3dbe7675	0.09299938
139	0xbdf8d40d	-0.121498205
140	0xbca0fe7d	-0.0196526
141	0x3e3a3a1c	0.1818623
142	0x3dccbf5e	0.09997438
143	0x3d559018	0.05213937
144	0x3dc1953e	0.09452294
145	0x3bcb005c	0.006195111
146	0x3d5d031f	0.053958055
147	0xbe3649b7	-0.17801557
148	0x3de4c58d	0.11170492
149	0xbe011e09	-0.12609114
150	0xbda7bbf8	-0.08190149
151	0xbddeb157	-0.10873669
152	0x3d970154	0.073733
153	0x3d621a2c	0.05520074
154	0xbd86312b	-0.06552347
155	0xbc84787b	-0.01617073
156	0xbdb9a86c	-0.09065327
157	0x3dbc8a63	0.09206083
158	0xbdb244e1	-0.08704544
159	0x3ce75cac	0.028242432
160	0xbb9a1ca4	-0.0047031213
161	0xbbad2aef	-0.005284659
162	0xbd3854ff	-0.045002934
163	0x3df248dc	0.11830303
164	0x3d6da92a	0.058022656
165	0xbe1284f2	-0.14308527
166	0x3e194dd9	0.14971103
167	0xbda9b2f8	-0.08286089
168	0x3cabc0c7	0.020965947
169	0xbb354432	-0.0027659056
170	0xbdee1416	-0.11624925
171	0x3dca9318	0.09891337
172	0xbc71ad48	-0.014750786
173	0xbda2c6f8	-0.079481065
174	0xbd750115	-0.059815485
175	0x3d1e19b7	0.038598742
176	0x3dbb9c4a	0.09160669
177	0x3d13e293	0.03610475
178	0xbe0b8a1d	-0.13626905
179	0x3d327020	0.043563962
180	0x3e08a811	0.13345362
181	0x3c92fc11	0.01794246
182	0x3c61781e	0.013761548
183	0x3bf3e44f	0.007442988
184	0xbdd52df7	-0.10409158
185	0xbde2db4f	-0.11076986
186	0xbda0119f	-0.07815861
187	0x3d71dc93	0.059048247
188	0xbb937bbf	-0.0045008357
189	0xbd13baca	-0.036066808
190	0x3dfb18e1	0.12260605
191	0xbe05a785	-0.13052185
192	0x3d11128a	0.03541807
193	0xbe03d2fe	-0.12873456
194	0xbddd686c	-0.108109325
195	0xbdb394bf	-0.087686054
196	0xbe05ee9d	-0.13079305
197	0xbdb2ad57	-0.08724468
198	0x3ba0951b	0.0049005873
199	0x3dc4ff39	0.09618992
200	0x3db5186c	0.08842549
201	0x3c6115b4	0.013738085
202	0xbdfb8988	-0.122820914
203	0x3d9722fe	0.07379721
204	0x3dd3995b	0.103319846
205	0x3dc355d5	0.095378555
206	0xbd961c5c	-0.07329628
207	0xbd66acb5	-0.05631705
208	0x3c98f936	0.01867352
209	0x3daec464	0.08533552
210	0x3be15061	0.006876037
211	0x3de2d067	0.11074906
212	0xbc8aa65d	-0.016925031
213	0xbdd2808b	-0.10278424
214	0x3dc3ce87	0.09560876
215	0x3dab7716	0.08372323
216	0xbd17c537	-0.037053313
217	0xbdfb9da4	-0.12285927
218	0xbccbdbec	-0.02488514
219	0x3c1e8c56	0.009677013
220	0xbd4e4e86	-0.050367855
221	0x3d401575	0.046895463
222	0x3b898aab	0.0041974387
223	0x3e00a458	0.12562692
224	0xbdde7d38	-0.10863727
225	0xbe19db55	-0.15025075
226	0xbddd2e92	-0.10799898
227	0x3ca10eab	0.019660315
228	0x3db2ca4e	0.08729993
229	0x3da146ea	0.07874854
230	0x3df5ba44	0.11998418
231	0x3e03dbc8	0.12876809
232	0x3e6d90f0	0.2319982
233	0x3cf2b355	0.029626528
234	0x3d04e950	0.032449067
235	0xbcb3e1e3	-0.021958297
236	0xbdf5dade	-0.12004636
237	0x3e1eba10	0.15500665
238	0x3de94d34	0.113916785
239	0xbcb62f91	-0.022239478
240	0xbd980581	-0.07422925
241	0xbdbac0d2	-0.09118809
242	0xbde54383	-0.111945175
243	0x3cbd0646	0.02307428
244	0x3e27b976	0.16379341
245	0xbd03b42a	-0.03215424
246	0xbdae2f13	-0.085050724
247	0x3e3e79a6	0.18601093
248	0xbe53c1d3	-0.20679407
249	0x3e0d7216	0.13813052
250	0xbd85f410	-0.06540692
251	0xbe054082	-0.13012889
252	0xbd983f7e	-0.07433985
253	0x3d9dba68	0.0770157
254	0xbd186332	-0.037203975
255	0x3d2c8298	0.04211673

fc1.bias f4 [200]
0	0x3d80d786	0.06291108
1	0xb9d18c94	-0.00039968325
2	0xbdc6d395	-0.09708325
3	0xbdf5516b	-0.1197842
4	0x3d474814	0.048652723
5	0x3ce584c4	0.02801741
6	0xbdaefdc1	-0.085444935
7	0x3dd60615	0.10450379
8	0x3cebc61c	0.02878099
9	0xbdf1532e	-0.117834434
10	0x3d11e51a	0.03561888
11	0xbd758262	-0.059938796
12	0xbd946964	-0.07246664
13	0xbe0982ec	-0.13428849
14	0x3dad6f5a	0.08468504
15	0xbcde7ce5	-0.027159164
16	0x3cb883e6	0.022523832
17	0xbddce00a	-0.107849196
18	0xbc3a8f40	-0.0113866925
19	0x3d56a2e8	0.052401453
20	0x3d19c3cf	0.037540253
21	0xbbc74ea4	-0.0060823727
22	0xbe0376fb	-0.12838356
23	0xbd3d21fc	-0.04617499
24	0xbd03571d	-0.0320655
25	0xbdda6b0c	-0.10664949
26	0xbd06501a	-0.032791235
27	0xbd2a48c0	-0.041573286
28	0xbd92f78f	-0.07176124
29	0xbdbb59fc	-0.091480225
30	0xbb64aedc	-0.0034894263
31	0x3d8a2b32	0.0674652
32	0x3d3e21e2	0.046419032
33	0xbd704b73	-0.058665704
34	0x3d3cd52c	0.046101734
35	0xbd5a5c43	-0.053310644
36	0xbc6a6e15	-0.014308472
37	0xbe06e81a	-0.13174477
38	0xbdb3237f	-0.08747005
39	0x3d03d1e5	0.032182593
40	0x3de72974	0.112872034
41	0x3de5514b	0.11197146
42	0x3d808255	0.06274859
43	0xbdb6563d	-0.089031674
44	0xbc9225ff	-0.017840384
45	0xbadfdd04	-0.0017079418
46	0xbd8e4b4a	-0.06947954
47	0xbd8212a2	-0.0635121
48	0x3c4a9c20	0.012366325
49	0xb99e20a1	-0.0003016042
50	0x3d3f4c18	0.046703428
51	0x3d839310	0.06424534
52	0xbcdd82ae	-0.027039852
53	0x3b535bf6	0.0032250858
54	0x3df9c283	0.12195303
55	0xbdb812c6	-0.08987956
56	0x3db1953c	0.08671042
57	0x3d17150d	0.03688531
58	0x3d99e4ce	0.07514344
59	0xbc6bbc16	-0.014388105
60	0xbd6b7dfd	-0.0574932
61	0xbe05627a	-0.13025847
62	0x3d9ce4d4	0.07660833
63	0xbd845e7e	-0.064633355
64	0x3dfd6692	0.12373079
65	0x3ce4f067	0.027946664
66	0xbd6771b9	-0.05650494
67	0xbcf1efb5	-0.029533247
68	0x3d278281	0.040895943
69	0xbe0f0a9f	-0.13968895
70	0xbcc0637a	-0.023484934
71	0x3ce2f7cc	0.02770605
72	0x3df17112	0.117891446
73	0xbc93195f	-0.017956434
74	0x3dbafc28	0.09130126
75	0xbd5f42a0	-0.054506898
76	0xbe163f7c	-0.14672655
77	0xbcd3535b	-0.025796583
78	0xbd042058	-0.032257408
79	0xbe06dc63	-0.13170008
80	0x3d941e61	0.07232357
81	0x3bf65069	0.00751691
82	0x3c99dd46	0.01878227
83	0xbcc9e4fc	-0.024645321
84	0xbcea5b93	-0.02860812
85	0xbd77b3a1	-0.06047404
86	0xbddeb66b	-0.10874637
87	0x3dcaeb95	0.09908215
88	0x3a1419a1	0.0005649571
89	0xbde9a4a8	-0.11408359
90	0x3d3abddb	0.045591217
91	0x3d33e2a8	0.043917328
92	0xbd829aaa	-0.06377156
93	0x3dd240bf	0.102662556
94	0x3aad0bb9	0.0013202346
95	0x3b9e7bb3	0.0048365234
96	0x3da00b36	0.07814638
97	0x3e0d314d	0.13788338
98	0x3db900d5	0.09033362
99	0xbdbdaedc	-0.092618674
100	0x3dce9443	0.100868724
101	0x3c0d6079	0.008628958
102	0x3db2dd07	0.08733564
103	0xbda3f13a	-0.08004995
104	0xbde6842a	-0.11255677
105	0x3d307bf4	0.04308696
106	0x3d8b4e8d	0.06802092
107	0xbd887eb3	-0.06664791
108	0xbd80e4e7	-0.0629366
109	0xbdc0b619	-0.09409732
110	0x3db20fe7	0.086944394
111	0xbd269f12	-0.040679045
112	0xbd6ed858	-0.05831179
113	0xbdc801e7	-0.09765988
114	0x3e0cd211	0.13752009
115	0x3c819512	0.015818153
116	0xbbe2ad31	-0.0069176187
117	0x3dba101b	0.09085103
118	0xbde0a89c	-0.1096966
119	0xbcb5a5b2	-0.022173736
120	0xbd667117	-0.056260195
121	0x3d1c8bb4	0.03821917
122	0x3c0ed50b	0.008717786
123	0x3dd145bf	0.10218381
124	0x3d619b20	0.05507958
125	0x3c558cc6	0.013034051
126	0x3ca54da2	0.02017862
127	0x3cbfcac5	0.023412118
128	0x3d663441	0.056202177
129	0x3d3f74c4	0.046742216
130	0x3b78e0c5	0.003797577
131	0x3df3f5ee	0.11912142
132	0xbc608e37	-0.013705782
133	0x3d782f45	0.060591955
134	0xbd1e2495	-0.038609106
135	0x3d87a2f7	0.0662288
136	0xbdc0fb03	-0.09422877
137	0x3e010c5b	0.1260237
138	0x3d9e0553	0.07715859
139	0xbdd2ec55	-0.10298983
140	0xbd356ac5	-0.044291276
141	0xbd11003d	-0.035400618
142	0x3dc82684	0.09772971
143	0xbda490cd	-0.08035431
144	0xbe1140ea	-0.14184919
145	0x3cdbe997	0.026844783
146	0x3df07ad1	0.11742175
147	0xbbf837f2	-0.0075750286
148	0x3c8365b0	0.0160397
149	0x3bd92b5e	0.006627484
150	0xbc748386	-0.014923936
151	0xbdacbbe4	-0.08434275
152	0xbd478352	-0.04870922
153	0xbdbb8403	-0.091560386
154	0xbdb0d861	-0.08635021
155	0x3d4fd84a	0.05074338
156	0x3c723fa6	0.014785683
157	0xbdbd1bd0	-0.092338204
158	0xbd05aa53	-0.032633137
159	0x3d84c253	0.06482377
160	0xbb3e9c25	-0.0029084769
161	0x3dbedd54	0.09319559
162	0xbde16f3d	-0.11007545
163	0x3d7c4882	0.061592586
164	0xbdd8bcd8	-0.10582894
165	0x3da87ded	0.082271434
166	0x3cd0da4c	0.025494717
167	0xbcba9c19	-0.022779511
168	0x3cfdc03d	0.030975455
169	0xbdf13d65	-0.11779288
170	0x3d35a5e0	0.044347644
171	0x3d8830b9	0.06649918
172	0x3c493900	0.012281656
173	0x3d7f529e	0.06233465
174	0x3d5de3bf	0.054172274
175	0x3e00bd6d	0.1257226
176	0x3da61829	0.08110077
177	0xbd967b41	-0.073477276
178	0x3d979972	0.07402314
179	0xbbbe07eb	-0.0057992837
180	0xbcc46c64	-0.023977466
181	0x3d95eece	0.07320939
182	0xbe06f644	-0.1317988
183	0x3d8adfba	0.06780954
184	0x3d02b929	0.031914864
185	0xbd0a732c	-0.033801243
186	0x3db7973c	0.089643925
187	0x3daef051	0.085419305
188	0x3d61f4c7	0.05516508
189	0x3ddbd5f9	0.107341714
190	0xbd95d4f9	-0.07316012
191	0x3dae2c76	0.08504574
192	0xbd8f0d7a	-0.06984992
193	0xbcd70205	-0.02624608
194	0xbdde77a0	-0.108626604
195	0x3b844d42	0.00403753
196	0xbdc36802	-0.09541322
197	0xbcf31175	-0.02967141
198	0x3d55c7dc	0.052192554
199	0xbdc96fa7	-0.09835749

fc3.weight f4 [25, 200]
0	0xbd0a8ea6	-0.033827446
1	0xbcc2c65c	-0.023776226
2	0x3d13ae57	0.036054935
3	0x3d1e7fd8	0.03869614
4	0xbd778dce	-0.06043797
5	0x3c98ab7e	0.018636461
6	0xbd1d4a3d	-0.038400877
7	0x3d7bb45b	0.061451297
8	0x3d2ce8c7	0.04221418
9	0xbc236996	-0.009973904
10	0x3c4d4933	0.012529659
11	0xbc7d83bf	-0.015473305
12	0x3d8d7abb	0.069081746
13	0x3d71b78e	0.059012942
14	0xbd5178fa	-0.051140763
15	0x3cefe6fa	0.029284943
16	0x3d09f74d	0.03368311
17	0xbc1598ca	-0.009130666
18	0x3c8a6455	0.016893545
19	0xbd09757c	-0.033559307
20	0xbd638594	-0.055547312
21	0x3c2453fe	0.010029791
22	0x3ca88cdb	0.020574978
23	0x3d779f0d	0.060454417
24	0xbd0bc1c0	-0.03412032
25	0xbd90f646	-0.07078223
26	0x3ca37cd5	0.019956985
27	0x3d25ec48	0.04050854
28	0xbd2319f0	-0.039819658
29	0xbc830664	-0.015994258
30	0x3d3c7987	0.046014335
31	0x3d829734	0.06376496
32	0xbc3ed258	-0.01164683
33	0x3c2eceff	0.010669469
34	0xbd5f8452	-0.05456955
35	0x3c1eb8cc	0.009687614
36	0x3c33c0ce	0.010971261
37	0xbd19f23b	-0.037584525
38	0xbd02faf6	-0.031977616
39	0x3d4a0bef	0.049327787
40	0x3c353d16	0.011061927
41	0x3d37f960	0.044915557
42	0xbce46570	-0.0278804
43	0xbd64a89e	-0.05582487
44	0x3cd7745a	0.026300598
45	0xbd13f1bf	-0.03611922
46	0xbd80afd2	-0.06283535
47	0xbcb60ba1	-0.022222342
48	0x3cda8c88	0.026678339
49	0x3d866640	0.065624714
50	0x3c3b1af8	0.011420004
51	0x3d150bdd	0.036388267
52	0x3d52aaf4	0.051432565
53	0xbd6fc8ed	-0.058541227
54	0xbc117192	-0.008877175
55	0x3b2ea96b	0.0026651274
56	0x3c704f3d	0.014667329
57	0x3d5d68eb	0.054055136
58	0xbcff2913	-0.031147515
59	0xbd153698	-0.036429018
60	0xbd390331	-0.04516906
61	0xbd17f026	-0.037094258
62	0xbce168b1	-0.027515741
63	0xbd526d12	-0.05137355
64	0xbd3f50b8	-0.04670784
65	0xbd383376	-0.044970952
66	0xbc90a6bc	-0.01765763
67	0x3d53892a	0.05164448
68	0x3d007359	0.031360004
69	0xbca4b38a	-0.020105142
70	0xbc5bae8c	-0.013408314
71	0xbd427d43	-0.04748274
72	0xbd5ec873	-0.054390382
73	0xbceebb9c	-0.029142193
74	0x3d2f1f7a	0.042754628
75	0x3d9d4a46	0.07680182
76	0x3d48b5ae	0.04900139
77	0x3cff95be	0.031199332
78	0xbd78ad53	-0.06071217
79	0xbd8ed7cd	-0.069747545
80	0x3cab3d2f	0.020903198
81	0x3d84c5b6	0.06483023
82	0x3d4f0711	0.05054385
83	0x3a0cd2f0	0.00053720083
84	0x3d9ac854	0.07557741
85	0xbd59e151	-0.053193394
86	0xbd785a78	-0.060633153
87	0x3d97d38b	0.074133955
88	0x3cc92c24	0.02455718
89	0x3d084527	0.033269074
90	0xbd16f111	-0.036850993
91	0x3c85b199	0.016320037
92	0x3bacf7eb	0.0052785776
93	0xbd40eba9	-0.047099743
94	0x3c3f2cfa	0.011668438
95	0xbbbf4d1f	-0.005838051
96	0xbcdc930e	-0.02692559
97	0x3b5171b6	0.0031958646
98	0xbd104062	-0.03521765
99	0xbd91b9d3	-0.07115521
100	0x3d0c21d1	0.034211937
101	0x3d85c809	0.06532294
102	0x3d886257	0.06659382
103	0x3d66cbe1	0.056346778
104	0x3c93c082	0.01803613
105	0xbca5ec84	-0.020254381
106	0x3d8d7028	0.06906158
107	0x3d40f298	0.047106355
108	0xbc6f7f15	-0.014617701
109	0x3c6a6f0e	0.014308704
110	0x3bf67d00	0.0075222254
111	0x3d1a8457	0.037723865
112	0xbc753618	-0.01496651
113	0x3d1f9f5c	0.038970336
114	0x3d204d31	0.039136115
115	0xbc5b7218	-0.013393901
116	0x3d557d9a	0.052121736
117	0xbcbb75e8	-0.02288337
118	0x3b9508b4	0.0045481566
119	0xbc9f6d40	-0.019461274
120	0xbd246fce	-0.040145688
121	0x3d8506c7	0.06495433
122	0x3d0e9f85	0.0348201
123	0xbd6796ea	-0.056540407
124	0xbc4b6ac4	-0.012415592
125	0xbb621612	-0.0034498018
126	0xbce8e47a	-0.028429259
127	0xbc39e671	-0.011346445
128	0x3cde3c26	0.02712829
129	0x3d861701	0.065473564
130	0x3b16cf21	0.0023011642
131	0xbba55096	-0.005045007
132	0xbd43852b	-0.04773442
133	0x3cfd5b81	0.030927422
134	0xbaad92bd	-0.0013242584
135	0x3cdfe8f1	0.027332755
136	0xbd8391d8	-0.06424302
137	0xbd0980aa	-0.03356997
138	0x3ba8254e	0.0051314
139	0x3d49fae0	0.04931152
140	0xbd2bf487	-0.041981246
141	0xbcafa7ab	-0.021442255
142	0xbd5c4971	-0.053780977
143	0x3d1916c5	0.03737523
144	0xbcb6989a	-0.022289563
145	0x3d8e5507	0.069498114
146	0xbd2346a9	-0.03986231
147	0xbd007fab	-0.031371754
148	0x3d36d754	0.044638947
149	0x3c8b2b95	0.016988555
150	0x3bdc5546	0.0067240326
151	0x3d84c02e	0.06481968
152	0x3d6ea612	0.058263846
153	0xbb764378	-0.0037576836
154	0x3c3eb45a	0.011639679
155	0x3d87c270	0.06628883
156	0xbd2360c7	-0.039887216
157	0xbda03690	-0.07822907
158	0xbd59af59	-0.05314574
159	0xbda11d86	-0.07866959
160	0x3d1cf6d6	0.03832134
161	0x3dbf50bc	0.09341571
162	0xbd9a9b7a	-0.07549186
163	0x3cc284e1	0.023745002
164	0x3ca7ffcc	0.020507716
165	0x3d6919d9	0.056909416
166	0xbd87158c	-0.065959066
167	0xbd7a338c	-0.061084315
168	0xbce350d9	-0.027748512
169	0x3d869c3a	0.065727666
170	0x3d82a7d6	0.063796684
171	0xba1d0df2	-0.0005991153
172	0x3d747915	0.059685785
173	0xbbfdad74	-0.0077416245
174	0x3a4a11f6	0.0007708365
175	0xbd6271b9	-0.055284236
176	0xbbccbee5	-0.0062483423
177	0xbd3e51fe	-0.046464913
178	0x3d3a4e03	0.045484554
179	0xbcb6f658	-0.022334263
180	0x3ce5bd76	0.028044444
181	0x3d188796	0.03723868
182	0xbc4daa59	-0.012552821
183	0x3c30493f	0.010759651
184	0xbc908223	-0.017640179
185	0x3d5e6c74	0.054302648
186	0x3d2aa0b3	0.04165716
187	0x3d1e7200	0.038682938
188	0x3d4d9616	0.05019196
189	0x3c5170b8	0.012783222
190	0xbca8b85f	-0.020595727
191	0xbd384c4c	-0.044994637
192	0x3c6cc0ef	0.014450296
193	0xbd348ee4	-0.044081584
194	0xbd371095	-0.04469355
195	0x3db0277c	0.08601281
196	0xbc5d4c07	-0.013506896
197	0xbd59001a	-0.052978612
198	0xbd1b2e8f	-0.0378862
199	0xbc77ff49	-0.015136548
200	0xbcf316aa	-0.029673893
201	0x3bd94927	0.006631035
202	0x3b75f7a9	0.003753165
203	0x3cdec278	0.02719234
204	0x3e6a1e4d	0.22863121
205	0x3d9b4c91	0.07582963
206	0x3d293af3	0.041315984
207	0x3d574e95	0.052565176
208	0xbd3ab18d	-0.045579482
209	0x3be4b266	0.0069792746
210	0xbcc3d1b6	-0.023903709
211	0xbc20e092	-0.009819167
212	0xbbdbb3bc	-0.0067047756
213	0xbd52f3da	-0.051502086
214	0x3c7c02f6	0.015381565
215	0x3c441799	0.011968517
216	0x3d6b8874	0.05750318
217	0x3c0907e7	0.0083637005
218	0xbbb78ec0	-0.005601734
219	0xbc90ee69	-0.017691808
220	0x3c2fc5ce	0.010728313
221	0x3d983afe	0.07433127
222	0x3ce2ce0c	0.027686141
223	0xbd28f925	-0.041253228
224	0x3ce68bcf	0.028142838
225	0xbd8dcf23	-0.06924274
226	0xbc21239a	-0.009835148
227	0xbb47d9e5	-0.0030494865
228	0x3cc7e217	0.0243998
229	0x3c502277	0.01270353
230	0xbd8fca3e	-0.070209965
231	0xbc83d4ea	-0.016092736
232	0x3d8134b4	0.063088804
233	0xbe6bd8da	-0.23031941
234	0xbd8145c0	-0.06312132
235	0x3d5f1d21	0.05447114
236	0x3d9ba46d	0.07599721
237	0xbc557ba1	-0.013029964
238	0xbd2fb6de	-0.042899005
239	0x3d9e828a	0.07739742
240	0x3d77a603	0.060461055
241	0x3d176e4f	0.036970433
242	0xbd13776d	-0.036002565
243	0xbc03560b	-0.00801612
244	0x3d696138	0.05697748
245	0xbbfa3635	-0.0076358565
246	0x3d0fec0f	0.035137232
247	0xbd465bee	-0.048427515
248	0x3d721a83	0.059107315
249	0x3eee81e2	0.46583468
250	0x3c5606e7	0.013063169
251	0x3d3c3a90	0.045954287
252	0x3cdccbd1	0.026952656
253	0xbce4a93a	-0.027912725
254	0x3ca870cf	0.020561604
255	0xbd546385	-0.05185272

fc3.bias f4 [25]
0	0x3d5b9e1e	0.05361759
1	0x3cb4676f	0.022021977
2	0xbd5e6457	-0.05429491
3	0xbd10152b	-0.035176437
4	0x3d6eef5d	0.058333743
5	0xbc6ec765	-0.014573907
6	0xbd2fa4ae	-0.04288166
7	0xbc89c20b	-0.01681616
8	0x3d68f445	0.05687358
9	0x3d17e58e	0.037084155
10	0x3c962c67	0.01833172
11	0x3d81331a	0.06308575
12	0x3d88d88d	0.06681929
13	0x3cc272cc	0.02373638
14	0xbd97099e	-0.07374881
15	0xbd04f24c	-0.032457635
16	0x3c215c0a	0.009848604
17	0xbd82d4a4	-0.06388214
18	0x3cc819f9	0.024426447
19	0xbbf48372	-0.0074619586
20	0xbd4eeb8c	-0.050517604
21	0x3d4d58e8	0.050133616
22	0x3d5d9c2d	0.05410402
23	0x3cfe97eb	0.0310783
24	0x3d1f8d22	0.038952954
