training_model/wandb/run-20200709_190336-3ldmkmnb/fir_6cov_1.pt (torch_old, 252175 bytes, 6 tensors)

fc1.weight f4 [150, 300]
0	0xbd1dd7a6	-0.038535737
1	0x3d560b75	0.05225702
2	0xbc78c2f0	-0.0151831955
3	0x3d2f5cbc	0.042813048
4	0x3d3a03b5	0.04541369
5	0x3ba5e6ec	0.0050629284
6	0xbd40a3e6	-0.047031306
7	0xbd574576	-0.052556477
8	0x3c46d3ee	0.012135489
9	0x3c5eb838	0.013593726
10	0xbd546359	-0.051852558
11	0xbd145b67	-0.03621998
12	0x3d4ef6a3	0.05052818
13	0xbd5b279c	-0.05350457
14	0xbd14c747	-0.03632286
15	0xbd169f17	-0.036772814
16	0x3a8d6066	0.0010786175
17	0xbd392eff	-0.045210835
18	0x3c7dfbcf	0.01550193
19	0x3d81bee1	0.063352354
20	0x3cd55e59	0.026045965
21	0xba1af32c	-0.0005910869
22	0xbd2e7778	-0.042594403
23	0xbce02afb	-0.027364245
24	0x3c9ccd3e	0.019140836
25	0x3b1fd514	0.002438848
26	0x3d372e9a	0.044722177
27	0xbd075d52	-0.03304798
28	0xbcbcabb8	-0.0230311
29	0x3bd4cfd7	0.006494503
30	0xbce1f19e	-0.027581032
31	0xbc0cdae0	-0.008597106
32	0xbb0235f3	-0.0019868582
33	0x3d6b374b	0.05742578
34	0x3d54d200	0.051958084
35	0x3d840ae8	0.06447393
36	0x3d879824	0.066208154
37	0x3d6fe93b	0.058572035
38	0x3d078271	0.033083383
39	0x3d5b118c	0.05348353
40	0x3d00c0c8	0.03143385
41	0x3ce9160d	0.028452897
42	0xbd151d9c	-0.03640519
43	0xbd3b6cc2	-0.045758016
44	0xbca04efd	-0.019568915
45	0x3a36a25b	0.0006966942
46	0x3c7729ee	0.01508568
47	0x3d45cf85	0.04829361
48	0x3d94e2e0	0.072698355
49	0x3d100bef	0.03516763
50	0x3c7204fb	0.014771695
51	0x3d4ae4d9	0.049534652
52	0x3d1ce8e4	0.03830804
53	0x3d1d5cb5	0.03841849
54	0x3d05f0dc	0.032700405
55	0xbc95a14e	-0.018265393
56	0xbb65b264	-0.0035048956
57	0x3d105a2c	0.035242245
58	0xbbb74eb3	-0.0055940985
59	0x3b190e42	0.0023354446
60	0xbd865d43	-0.06560757
61	0x3d219f3c	0.0394585
62	0xbd7edd59	-0.062222812
63	0xbd536780	-0.051612377
64	0x3d2fa114	0.042878225
65	0x3bd5985e	0.0065184077
66	0x3d8f9b84	0.07012084
67	0x3d38edd9	0.045148704
68	0x3c0ad663	0.008473965
69	0x3c8e4290	0.017365724
70	0xbb90221c	-0.0043985974
71	0x3d06ac94	0.032879427
72	0x3d14c3b2	0.036319442
73	0x3d20a3f4	0.039218858
74	0xbc877277	-0.016534073
75	0x3c902f4d	0.01760068
76	0x3d493807	0.049125697
77	0x3cde61b6	0.027146202
78	0xbc5fa569	-0.013650277
79	0xbd3c5292	-0.045977183
80	0xbcea8d88	-0.02863194
81	0x3c3f8aec	0.011690836
82	0x3cfe1b7a	0.031018961
83	0xbc102250	-0.008797243
84	0x3cbf54b7	0.023355825
85	0xb9c4b787	-0.00037520772
86	0xbd16ae9e	-0.03678762
87	0x3d3dd21a	0.046342947
88	0xbd6fa3f0	-0.058505952
89	0xbd5cbfdf	-0.05389392
90	0x3ccec965	0.025242517
91	0x3d223eb7	0.03961059
92	0x3c9d9abc	0.019238822
93	0xbcaf9a95	-0.021436015
94	0x3c057b71	0.0081471065
95	0x3cca33ea	0.024682958
96	0x3cf60ee0	0.03003639
97	0x3d184422	0.03717435
98	0xbc2ae2ac	-0.010430019
99	0xbd1ff4a0	-0.039051652
100	0x3d4aae00	0.049482346
101	0xbcc0867d	-0.023501629
102	0xbb52cb9b	-0.0032164815
103	0x3d8a2cfe	0.06746863
104	0x3b7cc91c	0.003857202
105	0x3befb626	0.007315415
106	0x3c933df6	0.017973881
107	0xbb1cd9e8	-0.0023933593
108	0xbd2d4e50	-0.042311013
109	0xbd10577a	-0.035239674
110	0xbcf015dd	-0.0293073
111	0xbd4972d1	-0.049181763
112	0x3bbe9f4f	0.005817331
113	0x3c8743bb	0.016511789
114	0x3ccd055f	0.025026975
115	0x3d7650a6	0.060135506
116	0x3d248615	0.040166933
117	0xbce5aabf	-0.02803552
118	0x3d514da7	0.051099446
119	0xbcc39e5f	-0.023879228
120	0xbb789b3a	-0.003793432
121	0x3c428ba7	0.011874116
122	0xbcd73e79	-0.026274906
123	0x3cadbb30	0.021207422
124	0x3ca314d7	0.019907398
125	0xbd1e8f1b	-0.038710695
126	0x3c0fa597	0.008767507
127	0xbc19dab1	-0.009390519
128	0xbcdbdd2d	-0.026838863
129	0x3d69c52c	0.057072803
130	0x3cbaad37	0.022787673
131	0x3d60c333	0.054873656
132	0x3c4abd03	0.0123741655
133	0x3ce13dc4	0.027495272
134	0x3d0a379b	0.033744436
135	0x3c44dfb1	0.012016223
136	0x3d27a148	0.040925294
137	0x3b631e6a	0.003465558
138	0xbcef60f2	-0.029221032
139	0x3b3958d5	0.0028281708
140	0x3d591397	0.052997198
141	0xbc853f36	-0.016265493
142	0xbd38d934	-0.045129016
143	0x3d3950dc	0.04524313
144	0x3c7a937c	0.015293952
145	0x3c41552e	0.011800094
146	0x3d290d00	0.041272163
147	0xbd2b3a45	-0.041803617
148	0x3cde4323	0.027131623
149	0x3c53c4e9	0.012925365
150	0x3d66178c	0.0561748
151	0xbd0b7d4f	-0.03405505
152	0x3c56b711	0.01310517
153	0xbd597b7f	-0.05309629
154	0xbc9300dc	-0.017944746
155	0x3d4dabee	0.050212793
156	0xbc9e2989	-0.019306915
157	0x3a2dfb68	0.0006636889
158	0xbd818e95	-0.063260235
159	0xbd3e92e5	-0.04652681
160	0xbceea79c	-0.029132657
161	0x3d52c150	0.05145389
162	0x3d0a3f1b	0.03375159
163	0xbc9ccc0a	-0.019140262
164	0xbd421cdf	-0.047390815
165	0xbd16dddf	-0.036832687
166	0xbd4c0c47	-0.049816396
167	0x3d028f3f	0.03187489
168	0xbc8b8f5a	-0.017036129
169	0x3cb32c6b	0.021871766
170	0xbd12f5d0	-0.035878956
171	0x3cba9bfc	0.022779457
172	0x3d2ba730	0.04190749
173	0xbc4fd3dd	-0.0126847895
174	0x3ca65724	0.020305224
175	0xbc3322fd	-0.010933635
176	0x3ccec66e	0.025241103
177	0x3b7347a3	0.0037121556
178	0x3c190061	0.009338469
179	0x3d4718f2	0.048607774
180	0x3cb29d28	0.021803454
181	0xbd185b8e	-0.03719669
182	0xbd619004	-0.055068985
183	0x3c045216	0.008076211
184	0x3caa7d32	0.02081165
185	0xbc438dfa	-0.011935705
186	0x3d73c83a	0.059517123
187	0xbd634c84	-0.055492893
188	0x3d3691df	0.044572707
189	0xbd4220ce	-0.047394566
190	0xbcc58a3d	-0.024113769
191	0x3d861fcb	0.06549033
192	0x3d7f6af4	0.062357858
193	0x3c06dd36	0.008231452
194	0x3ce52a27	0.027974201
195	0xbc6cecad	-0.014460725
196	0xbd24e77a	-0.040259816
197	0xbc905604	-0.01761914
198	0xbd129b4f	-0.035792645
199	0xbbea780a	-0.007155423
200	0xbcbacde6	-0.022803258
201	0x3c995eef	0.018722026
202	0x3d92ad81	0.071619995
203	0xbc8aaf6e	-0.016929355
204	0x3d310c5a	0.04322467
205	0x3d2a7344	0.041613832
206	0x3d39b32f	0.0453369
207	0xbcc8a390	-0.024492055
208	0xbd997d11	-0.07494558
209	0xbd99aa61	-0.075032
210	0xbb3cf08e	-0.0028829905
211	0xbd073d73	-0.033017587
212	0xbd0a87d4	-0.033820942
213	0xbc236f44	-0.009975258
214	0xbcd912d5	-0.026498238
215	0x3d015a56	0.03158029
216	0xbcf83cf0	-0.030302495
217	0x3bb23356	0.0054382486
218	0x3d47d159	0.048783634
219	0x3c82421a	0.01590066
220	0x3d33c5bb	0.043889742
221	0xbc948a02	-0.018132214
222	0x3bc59343	0.006029518
223	0x3cc37210	0.0238581
224	0x3d672548	0.05643204
225	0x3cf2ae3e	0.0296241
226	0xbd48f7d7	-0.049064483
227	0xbd2ed4eb	-0.042683523
228	0x3c4dd00e	0.012561811
229	0x3d8d5cfa	0.069024995
230	0x3d250e65	0.04029693
231	0x3d7fed1f	0.062481996
232	0xbc968e81	-0.018378498
233	0x3d592759	0.05301604
234	0x3cc4eb7c	0.024038069
235	0x3d2b1d4b	0.041775983
236	0x3d228044	0.039673105
237	0xb91f3a84	-0.0001518522
238	0xbc9f64f8	-0.019457325
239	0x3be3d3f6	0.006952758
240	0x3cb8eb8e	0.022573259
241	0xbc356a4c	-0.011072706
242	0x3cb661fa	0.022263516
243	0x3d0af5a8	0.033925682
244	0xbcf4e391	-0.029893668
245	0x3b80ffb7	0.0039367336
246	0x3d03f0c0	0.03221202
247	0xbd5b0e26	-0.05348029
248	0xbd289ba9	-0.041164074
249	0x3d01cea8	0.031691223
250	0x3c119bad	0.008887214
251	0xbd2359a8	-0.039880425
252	0xbd4da52d	-0.050206352
253	0x3cd30511	0.025759252
254	0xbd360e5c	-0.044447288
255	0x3d220674	0.039556935

fc1.bias f4 [150]
0	0x3b3613db	0.002778283
1	0xbd3cae68	-0.046064764
2	0x3d42344f	0.047413167
3	0x3b4a727c	0.0030890992
4	0xbcc44cbe	-0.023962375
5	0xbc1c0c33	-0.009524393
6	0xbd5c60db	-0.053803306
7	0x3d553b09	0.052058253
8	0x3cc537bb	0.024074426
9	0xbc6ec6cd	-0.014573765
10	0x3d2eb912	0.042656966
11	0x3d64526b	0.055742662
12	0xbd02d03d	-0.031936873
13	0xbcfe6835	-0.03105555
14	0x3c8dcdea	0.017310102
15	0x3c5c3e09	0.013442525
16	0x3d343381	0.04399443
17	0x3d0abe6e	0.033873014
18	0xbd2d3251	-0.042284314
19	0x3c4791a8	0.012180723
20	0x3d08cad8	0.033396572
21	0x3cb19c02	0.021680836
22	0xbd6c24ea	-0.05765239
23	0x3d955711	0.07291997
24	0xbd38608c	-0.04501395
25	0xbcf9a539	-0.030474292
26	0x3d5a01a1	0.05322421
27	0x3d169ed5	0.036772568
28	0x3d040345	0.03222968
29	0xbcb295d5	-0.021799961
30	0x3cc4502d	0.023964012
31	0x3b09096d	0.002091016
32	0x3bf88b04	0.0075849313
33	0x3c2fe4ff	0.010735749
34	0x3cae29ab	0.021260103
35	0x3d232734	0.03983231
36	0x3cc36150	0.023850113
37	0x3d479062	0.04872168
38	0xbb3da985	-0.0028940153
39	0xbd151177	-0.03639361
40	0x3d0bdded	0.03414719
41	0xbcd36a26	-0.025807451
42	0x3d080036	0.033203326
43	0xbd239d7b	-0.039945107
44	0xbd7fc6d0	-0.06244546
45	0xbcc81fef	-0.02442929
46	0xbd2047a4	-0.03913082
47	0x3d049d25	0.032376427
48	0x3cadf2ef	0.021234004
49	0x3d90c9d7	0.07069748
50	0x3d4a2ce0	0.049359202
51	0x3d8d66ce	0.06904374
52	0xbce74699	-0.028231906
53	0xbba16c0b	-0.00492621
54	0xbd22f995	-0.0397888
55	0xbd1200f7	-0.03564545
56	0xbce056d6	-0.027385157
57	0x3c84b29c	0.016198449
58	0xbd8599ae	-0.06523453
59	0x3ba8f4c4	0.0051561315
60	0xbc9f343b	-0.019434085
61	0x3d4755c1	0.048665766
62	0x3d1a3eff	0.037657734
63	0xbcf2ecb0	-0.029653877
64	0x3ce61a8e	0.028088834
65	0xbc2630ec	-0.0101435
66	0x3cdea7a1	0.027179541
67	0xbcb2be95	-0.021819392
68	0xbc2915ff	-0.010320186
69	0x3c83ab5c	0.016072921
70	0xbd55f91f	-0.052239534
71	0x3bc00e1f	0.0058610584
72	0x3d0b5509	0.034016643
73	0xbd69d768	-0.057090193
74	0x3cb38591	0.021914275
75	0x3d1d4293	0.03839357
76	0x3cc3c9b8	0.023899898
77	0xbcb37cd2	-0.021910105
78	0x3cf0df8e	0.029403474
79	0xbb8f749d	-0.004377915
80	0xbd69698a	-0.056985416
81	0xbc0e4f4c	-0.008685898
82	0xbd30620a	-0.043062247
83	0x3c1a3242	0.009411396
84	0x3d131f11	0.0359183
85	0xbd673db8	-0.056455344
86	0x3cf1fd90	0.029539853
87	0xbd382050	-0.04495269
88	0x3d3c08b1	0.045906726
89	0x3d422931	0.047402564
90	0xbd15f53b	-0.036610823
91	0x3cdd9c4b	0.027052065
92	0xbca7443e	-0.020418283
93	0xbba2f672	-0.004973226
94	0x3d2a515e	0.041581504
95	0xbd7e9e5a	-0.062162735
96	0x3ca5042c	0.02014359
97	0xbb545408	-0.003239872
98	0x3d0daec6	0.034590505
99	0xbc9e7e9a	-0.019347478
100	0x3d47b239	0.04875395
101	0x3d7d4f6a	0.061843313
102	0xbac2d545	-0.0014864585
103	0x3d75a3a9	0.05997053
104	0x3c4195d8	0.011815511
105	0xbcee34ba	-0.029077876
106	0xbc28b7c8	-0.010297723
107	0x3d8b6dd1	0.06808055
108	0xbd665ed7	-0.05624279
109	0x3cb10000	0.021606445
110	0x3b8584d0	0.0040746704
111	0x3d11bc7b	0.03558014
112	0x3c1f3748	0.00971777
113	0x3d8d7cb6	0.06908552
114	0xbd71ba86	-0.059015773
115	0x3cd79053	0.026313936
116	0x3d2dafd7	0.042404022
117	0xb9c24fd6	-0.00037062046
118	0x3c6acd89	0.01433123
119	0xbd3b80d4	-0.045777157
120	0x3cbbe27a	0.02293514
121	0xbd3c1fd8	-0.045928806
122	0xbd128dff	-0.03577995
123	0x3c9064c5	0.017626176
124	0xbb749af9	-0.0037323816
125	0x3ce24e45	0.027625212
126	0x3d1b663c	0.037939295
127	0x3d21a949	0.039468084
128	0xbd3f6317	-0.04672536
129	0x3c7cff58	0.015441738
130	0xbba5db8b	-0.005061572
131	0x3cde6acf	0.02715054
132	0xbcc7517a	-0.024330843
133	0xbacd3496	-0.0015655931
134	0xbd06899b	-0.032846075
135	0xbc498780	-0.012300372
136	0xbd4ef82d	-0.050529648
137	0xbd33dd20	-0.043912053
138	0x3c9dde2f	0.019270984
139	0x3cf55c8a	0.029951353
140	0x3d32e8c4	0.043679014
141	0xbca7f846	-0.020504128
142	0x3d1ac605	0.037786502
143	0x3c677e01	0.014129163
144	0x3ce38e4a	0.02777781
145	0x3bd8c9dd	0.006615861
146	0x3d8cd296	0.068761036
147	0x3c9c25ee	0.019061055
148	0x3d4c2a0d	0.04984479
149	0xbc885bf9	-0.016645418

fc2.weight f4 [100, 150]
0	0x3c4f8eef	0.012668355
1	0x3d4640a8	0.048401505
2	0x3a81e04c	0.0009908765
3	0x3d975762	0.07389714
4	0xbda18527	-0.07886725
5	0xbc5da45a	-0.013527954
6	0xbd253ae8	-0.04033938
7	0x3d9816f2	0.074262515
8	0x3cc85531	0.024454685
9	0x3c21a5ab	0.0098661585
10	0x3d81b0c7	0.06332546
11	0x3d1757fd	0.036949147
12	0x3d8639f1	0.0655402
13	0x3d6df450	0.058094323
14	0x3c6a92ef	0.014317258
15	0xbd83bc9e	-0.0643246
16	0x3db5aba3	0.08870628
17	0x3da8d158	0.08243054
18	0xbd31f871	-0.043449823
19	0xbd8f4e32	-0.069973364
20	0xbdb2a46a	-0.08722766
21	0x3cca3da2	0.024687592
22	0x3d97e0e1	0.07415939
23	0xbd810f62	-0.06301762
24	0xbbec5d34	-0.007213259
25	0xbbdee681	-0.0068023806
26	0x3d08588a	0.033287562
27	0xbd18d9ad	-0.037316967
28	0xbc7e6ff6	-0.015529623
29	0x3d11aafc	0.035563454
30	0x3bb90710	0.005646594
31	0x3d161ff2	0.03665156
32	0x3c5d89d7	0.013521633
33	0x3d9fa7c1	0.077956684
34	0xbd10e691	-0.035376135
35	0xbd42da15	-0.04757126
36	0xbd132e60	-0.0359329
37	0x3d895f46	0.06707625
38	0x3c034874	0.00801288
39	0xbd1cb132	-0.038254924
40	0x3da74fb3	0.08169498
41	0xbe09752b	-0.13423602
42	0xba495e5e	-0.00076816033
43	0x3c8bbbe1	0.017057361
44	0x3d4b244d	0.049595166
45	0x3cb92e0a	0.022604961
46	0x3d461ee6	0.04836931
47	0xbd5c7cb1	-0.053829852
48	0x3d4d4ec0	0.05012393
49	0x3d92924b	0.071568094
50	0x3c885b97	0.016645236
51	0x3d549821	0.051902894
52	0xbe4d8501	-0.20070268
53	0x3d8b84b9	0.06812424
54	0xbd034ffb	-0.032058697
55	0xbd096dc3	-0.033551943
56	0xbdb6ed2e	-0.08931957
57	0x3d5e94f2	0.054341264
58	0xbda9271d	-0.082594134
59	0x3b27c0cb	0.0025597091
60	0x3db2536b	0.08707317
61	0x3d58351b	0.05278502
62	0x3d1d3642	0.038381822
63	0xbdb3b2f2	-0.087743655
64	0xbd930c96	-0.07180135
65	0xbd906619	-0.070507236
66	0x3d920efc	0.07131764
67	0xbc39b864	-0.011335466
68	0xbd87d465	-0.06632308
69	0xbd08d87e	-0.033409588
70	0x3d75c325	0.060000557
71	0xbd8ca075	-0.06866542
72	0x3ab13454	0.0013519623
73	0xbd7f9099	-0.06239376
74	0x3de5dad2	0.11223377
75	0x3db79bdb	0.08965274
76	0xbd68569a	-0.056723215
77	0x3d82e755	0.06391779
78	0xbc74280d	-0.014902127
79	0x3d961d40	0.07329798
80	0x3c278034	0.010223437
81	0x3c98728b	0.018609306
82	0x3d94c14a	0.072634295
83	0x3c1da312	0.0096213985
84	0xbcb8829a	-0.022523213
85	0x3c256492	0.010094779
86	0xbb4d9497	-0.0031369084
87	0x3d324928	0.0435268
88	0x3d6e0d9a	0.05811844
89	0xbc9fd24c	-0.019509457
90	0xbce0df6a	-0.027450282
91	0xbd1f0132	-0.0388195
92	0xbd77987d	-0.06044816
93	0x3ce6714f	0.028130202
94	0x3d1a87a0	0.037727
95	0xbd13db76	-0.036097966
96	0xbd26f7eb	-0.040763777
97	0xbd905cd7	-0.07048958
98	0x3d9c47ce	0.07630883
99	0xbd5fea9e	-0.054667108
100	0x3d7eb903	0.06218816
101	0xbc05f922	-0.008177074
102	0x3c2c5fd7	0.010520897
103	0xbd698312	-0.057009764
104	0x3d38c917	0.04511365
105	0xbda1ade1	-0.07894493
106	0x3cf6ce25	0.030127594
107	0x3cba579c	0.022746854
108	0xbd8c42a3	-0.068486474
109	0xbdb0a306	-0.08624844
110	0x3c9d5cc7	0.019209279
111	0x3d7d8225	0.061891694
112	0xbc462f8b	-0.012096296
113	0x3d280600	0.041021347
114	0xbd80969c	-0.062787265
115	0x3db48d39	0.088159986
116	0xbd1a00bd	-0.03759836
117	0xbce2a600	-0.027667046
118	0x3cf2da7f	0.029645203
119	0x3c46c24b	0.012131284
120	0x3c18d8c1	0.009329022
121	0x3d15fd89	0.036618743
122	0xbd583104	-0.05278112
123	0x3d6770bb	0.056503993
124	0x3c8d7371	0.01726696
125	0xbd3bfd63	-0.045895945
126	0x3cf0c781	0.029392006
127	0x3d781daa	0.060575165
128	0x3d5c0f2f	0.053725418
129	0xbd4115cf	-0.04713994
130	0x3c55295a	0.013010347
131	0x3c739768	0.014867641
132	0x3d9f7f2f	0.0778793
133	0xbd86d123	-0.065828584
134	0xbabb33c6	-0.0014282397
135	0xbd8028c3	-0.06257775
136	0x3c76944a	0.015050003
137	0x3c81878f	0.01581171
138	0x3d14982a	0.036277927
139	0x3d4c6358	0.04989943
140	0xbc93dbd1	-0.018049153
141	0xbd8c6691	-0.068555005
142	0xbda36ef7	-0.07980149
143	0x3d841311	0.06448949
144	0xbd316211	-0.043306414
145	0x3d30e2a4	0.04318489
146	0xbd0c3c31	-0.03423709
147	0xbd0e0f23	-0.034682404
148	0xbd82aad3	-0.063802384
149	0xbd33541c	-0.043781385
150	0xbd03357d	-0.032033432
151	0xbcf11bef	-0.029432265
152	0xbb79af82	-0.0038098996
153	0xbdd5c7b2	-0.104384795
154	0x3ccdac89	0.025106685
155	0x3c91d28b	0.01780059
156	0x3d873f8b	0.06603917
157	0xbdb1e5a9	-0.08686382
158	0x3d8d4a32	0.06898917
159	0x3dc895aa	0.09794171
160	0x3cacb81e	0.021083888
161	0x3d72c849	0.059273038
162	0x3d82bc9b	0.0638363
163	0x3d675b19	0.056483362
164	0xbc30dd44	-0.010794941
165	0x3d4a2205	0.04934885
166	0xbd72a563	-0.059239756
167	0x3d5f0c10	0.054454863
168	0x3d4c31b6	0.049852096
169	0xbb7cdabe	-0.003858253
170	0xbc97a9f4	-0.018513657
171	0x3ccc00a6	0.024902653
172	0x3d26c5dd	0.04071604
173	0x3c68d060	0.014209837
174	0xbcb8e5c7	-0.022570504
175	0x3d9e8098	0.07739371
176	0x3cbe2a91	0.023213657
177	0xbd322d20	-0.043500066
178	0x3d0d14c8	0.034443647
179	0xbd17be11	-0.037046496
180	0xba669e3a	-0.00087973813
181	0x3cc6dee6	0.024276208
182	0xbd5728dd	-0.052529205
183	0x3bba81b0	0.0056917295
184	0xbd8ee984	-0.06978133
185	0xbd14f1ae	-0.036363296
186	0x3c28ecdd	0.010310379
187	0x3c97eb28	0.018544748
188	0x3cae6381	0.021287682
189	0x3d8bbf4f	0.068235986
190	0xbda4f858	-0.0805518
191	0x3e53f4d1	0.20698859
192	0xbcaa92ab	-0.02082189
193	0xbd5120a2	-0.05105651
194	0x3d7a8d93	0.061170172
195	0xbd8d91e1	-0.0691259
196	0xbd3ff371	-0.046863023
197	0x3ce43daa	0.027861435
198	0xbd3de3a0	-0.04635966
199	0x3d00b25d	0.0314201
200	0x3c1e2cc5	0.009654229
201	0xbda99774	-0.082808405
202	0x3e51059c	0.20412296
203	0x3ccd6b42	0.025075559
204	0x3cdeaedb	0.027182987
205	0xbcd14f55	-0.025550524
206	0xbc83a8e6	-0.016071748
207	0xbd516b0e	-0.051127486
208	0x3b512c97	0.0031917447
209	0xbb3d9913	-0.002893035
210	0xbc33db3e	-0.010977564
211	0x3b7dd2b7	0.0038730332
212	0x3d128fa9	0.035781536
213	0xbd2f4310	-0.042788565
214	0x3d01e6f1	0.031714384
215	0xbd043ba5	-0.032283444
216	0xbd3d2c48	-0.046184808
217	0x3c88e037	0.016708476
218	0xbc8a6b74	-0.01689694
219	0x3c929f55	0.017898241
220	0xbdd437a3	-0.10362174
221	0x3d0548fe	0.032540314
222	0xbda38a14	-0.07985321
223	0x3d09329a	0.033495523
224	0xbf1734b8	-0.5906482
225	0xbb1b04c5	-0.0023653966
226	0xbc9913ab	-0.018686136
227	0xbd06090e	-0.03272348
228	0x3d82a1ca	0.06378515
229	0x3e0f7959	0.14011134
230	0xbce22abb	-0.027608266
231	0x3d9974e3	0.074929975
232	0xbd882919	-0.06648464
233	0x3d1be20c	0.038057372
234	0xbd813547	-0.0630899
235	0xbda85475	-0.08219234
236	0xbda566d2	-0.08076252
237	0x3d318b6c	0.043345854
238	0xbd646a99	-0.055765722
239	0xbd035052	-0.03205902
240	0x3d946699	0.072461314
241	0xbcf2af13	-0.029624498
242	0x3d067634	0.03282757
243	0x3d579543	0.05263258
244	0xbd97314c	-0.073824495
245	0x3cec7e3a	0.028868783
246	0xbbb03cdb	-0.0053783483
247	0x3d8cf305	0.0688229
248	0xbd1524c1	-0.036412004
249	0xbd06b820	-0.03289044
250	0x3d46daec	0.048548624
251	0x3d687328	0.056750447
252	0xbd3c9963	-0.04604472
253	0x3ce290b8	0.027656898
254	0x3c9705f4	0.018435456
255	0x3caf3a0c	0.021389984

fc2.bias f4 [100]
0	0xbcb0a742	-0.02156413
1	0xbcf280ca	-0.029602427
2	0xbceb705a	-0.028740097
3	0x3d4d0031	0.05004901
4	0xbb8de2c9	-0.0043300134
5	0x3d720301	0.059084896
6	0x3d3e9c20	0.04653561
7	0xbd9bc212	-0.07605375
8	0xbd0f3afc	-0.03496836
9	0xbb8588b0	-0.0040751323
10	0x3d718c91	0.058971945
11	0x3d904d4b	0.070459925
12	0x3c793909	0.015211352
13	0x3d5a314d	0.053269673
14	0xbc6e8547	-0.014558143
15	0x3cb41dc3	0.021986848
16	0xbd8d2aa4	-0.06892899
17	0xbc7f20a7	-0.01557175
18	0x3d6d4272	0.057924695
19	0x3d099645	0.033590574
20	0xbcad2a60	-0.02113837
21	0x3d577cb5	0.052609164
22	0x3d911171	0.07083405
23	0x3d4777e4	0.04869832
24	0xbd7e16d8	-0.062033504
25	0x3d4ad420	0.049518704
26	0x3d100e28	0.03516975
27	0xbd01f339	-0.031726096
28	0xbc2da18e	-0.0105976
29	0xbd8ff4e9	-0.07029135
30	0xbd4dbba2	-0.05022777
31	0xbcb72792	-0.022357736
32	0xbb06b99f	-0.0020557416
33	0xba93f2ee	-0.0011287609
34	0x3bf3a47a	0.0074353786
35	0x3c6226d9	0.013803207
36	0xbd901410	-0.070350766
37	0x3d9ae541	0.07563258
38	0x3c04be1a	0.008101964
39	0xbd8e62a0	-0.06952405
40	0xbbc1aacf	-0.0059102545
41	0xbcb8adc9	-0.022543805
42	0xbc196021	-0.009361298
43	0x3cd7cdbc	0.026343219
44	0xbb4b4cfb	-0.0031021226
45	0xbc29507b	-0.010334129
46	0x3de97348	0.11398941
47	0xbd946457	-0.07245701
48	0x3d4d623d	0.050142515
49	0x3d7fcaf0	0.062449396
50	0xbd0ea263	-0.034822833
51	0xbdb8d255	-0.09024493
52	0x3d67477e	0.056464665
53	0x3b37256f	0.0027945896
54	0x3cf45baa	0.029828865
55	0x3d950fbf	0.07278394
56	0xbd03f2ac	-0.03221385
57	0xbaf906fc	-0.0018999274
58	0x3d05155a	0.032491066
59	0xbdb0d5f7	-0.086345606
60	0x3cc44711	0.023959668
61	0xbd9676de	-0.07346891
62	0xbd719072	-0.058975644
63	0x3d49449f	0.049137708
64	0x3df1d469	0.11808092
65	0x3de212e2	0.11038758
66	0x3d969fb8	0.07354683
67	0x3d1fd38b	0.039020102
68	0x3a12212f	0.0005574403
69	0xbd051956	-0.032494865
70	0xbd04b35d	-0.032397617
71	0xb7b64175	-2.1726572e-05
72	0xbd9b79ac	-0.075915664
73	0xbd75f03a	-0.06004355
74	0xbd89531f	-0.06705307
75	0xbd52f5a6	-0.0515038
76	0xbd49e5cc	-0.049291417
77	0xbc945e99	-0.018111514
78	0xbc5e42dd	-0.013565746
79	0x3c4abce5	0.0123741375
80	0x3d5a7c08	0.05334094
81	0x3c63968a	0.013890872
82	0x3d8841e8	0.066531956
83	0xbb6501b3	-0.003494364
84	0x3da8b974	0.082384974
85	0xbd326d9f	-0.043561574
86	0xbdafee9a	-0.085904315
87	0xbd80e0a5	-0.062928475
88	0xbcac4e55	-0.021033445
89	0xbdb076f4	-0.086164385
90	0xbd264acb	-0.040598672
91	0x3dbcde35	0.0922207
92	0x3d0ea5b6	0.034826003
93	0xbcf99183	-0.030464893
94	0x3dbb4643	0.09144261
95	0x3c733d85	0.01484621
96	0x3d42acc0	0.04752803
97	0xbd1f907e	-0.038956158
98	0x3c48bc51	0.012251929
99	0x3da9cad8	0.082906425

fc3.weight f4 [25, 100]
0	0x3da209ca	0.07912023
1	0xbdc42a55	-0.09578387
2	0x3c4b24fd	0.012398955
3	0x3c02256b	0.007943491
4	0xbd2e89e2	-0.042611964
5	0x3dc3b0ec	0.095552295
6	0x3dad0dd6	0.084499046
7	0x3d61c1fa	0.05511663
8	0xbdb55b07	-0.08855253
9	0x3d93aea5	0.07211045
10	0xbd82e90a	-0.06392105
11	0xbda5945c	-0.08084938
12	0xbd89a2e9	-0.06720526
13	0xbd937b21	-0.07201219
14	0x3dcd525b	0.10025474
15	0x3d234dd2	0.039869137
16	0xbd470a5d	-0.048593868
17	0xbd1d8b62	-0.038463004
18	0x3d60218d	0.054719497
19	0x3d9b22c6	0.07574992
20	0xbd62c35d	-0.055362094
21	0xbdddc670	-0.108288646
22	0x3d9a0de2	0.07522179
23	0x3da8bcda	0.082391456
24	0xbc5a3b75	-0.01331984
25	0xbd8dd44c	-0.06925258
26	0x3d82d0cc	0.06387481
27	0xbbc16a16	-0.005902539
28	0x3d1a1d70	0.03762573
29	0x3d82f0c9	0.063935824
30	0xbdd786b8	-0.105237424
31	0x3dbb71a9	0.09152538
32	0x3cb096a4	0.021556206
33	0xbc56086d	-0.013063532
34	0x3d5a4c21	0.05329526
35	0x3d91fe8a	0.071286276
36	0xbceb02a5	-0.028687784
37	0x3d9278c3	0.0715194
38	0x3d7fa66f	0.062414583
39	0xbc9b9015	-0.018989602
40	0xbd159a8b	-0.036524337
41	0xbc78fe9b	-0.015197421
42	0xbd7805e9	-0.06055251
43	0x3b0e4b15	0.0021712233
44	0x3dd47899	0.10374565
45	0x3b42c632	0.0029720184
46	0x3cb56f8e	0.02214792
47	0xbda5996c	-0.080859035
48	0xbd947445	-0.07248739
49	0x3d76fe45	0.060301084
50	0x3d89569f	0.06705975
51	0x3cf9d2a8	0.030495957
52	0xbccb69b4	-0.024830677
53	0xbd4e3282	-0.050341137
54	0xbd7c2a93	-0.06156404
55	0xbd09879e	-0.0335766
56	0x3dac6ad6	0.08418815
57	0x3d41a3f2	0.04727549
58	0x3da5949e	0.08084987
59	0xbd99724f	-0.07492506
60	0xbd2f504f	-0.042801198
61	0xbc9dd1ad	-0.01926502
62	0xb90743be	-0.00012899839
63	0xbd5d58c6	-0.05403974
64	0xbc3e1492	-0.011601584
65	0x3df0c0d3	0.11755528
66	0x3d9937b5	0.074813284
67	0x3b7aefe7	0.0038289966
68	0xbdb4b6dc	-0.0882394
69	0x3cb3c84f	0.0219461
70	0x3d79c66a	0.060980238
71	0x3b03021c	0.001999027
72	0x3dcf41db	0.10119983
73	0xbdb3a624	-0.08771923
74	0x3d4f425c	0.050600395
75	0xbdcd07a0	-0.1001122
76	0xbce0e9fd	-0.027455324
77	0x3d9f29f9	0.077716775
78	0x3c8c8bd1	0.017156513
79	0xbd4ab253	-0.04948647
80	0x3c64cbfd	0.01396465
81	0x3d66badc	0.056330547
82	0x3cfa8ceb	0.030584773
83	0xbd28c623	-0.041204583
84	0x3d995cbb	0.0748839
85	0x3d07a49b	0.033115964
86	0x3da35edb	0.079770766
87	0xbd0e3349	-0.034716878
88	0x3d6b2325	0.057406563
89	0x3c6ade15	0.014335175
90	0x3d0593d6	0.03261169
91	0x3d45ded5	0.048308212
92	0xbd01dec8	-0.0317066
93	0xbdb89b48	-0.090139925
94	0xba83e5d9	-0.0010063007
95	0x3d88f21b	0.06686803
96	0xbdba188b	-0.090867124
97	0xbd25cd54	-0.04047902
98	0x3d8bb7cc	0.06822166
99	0xbd6dec91	-0.058086935
100	0xbb649565	-0.0034879085
101	0x3d20169d	0.039084066
102	0x3c956ed6	0.018241327
103	0x3d24e074	0.040253118
104	0x3d23f954	0.0400327
105	0xbd34cfeb	-0.0441436
106	0xbd7c7e5a	-0.061643936
107	0x3d758ecb	0.05995063
108	0xbd886ac8	-0.06660992
109	0xbca7dc2a	-0.020490725
110	0xbd373d28	-0.044736058
111	0x3d8d4b5f	0.068991415
112	0xbd867cce	-0.06566773
113	0x3c7288c3	0.014803114
114	0x3daed087	0.08535867
115	0x3da5ab52	0.080893174
116	0x3d563e4e	0.052305512
117	0x3d17f7d3	0.037101578
118	0xbc38dc94	-0.011283059
119	0xbb7182c8	-0.0036851633
120	0x3d58411b	0.052796464
121	0xbdb38785	-0.08766083
122	0x3d8300e0	0.06396651
123	0xbd5739c2	-0.052545317
124	0xbd4207c9	-0.047370706
125	0x3d8f6ae2	0.07002808
126	0x3d266cf9	0.04063127
127	0xbda8c027	-0.08239775
128	0x3d9a9b14	0.0754911
129	0xbd874120	-0.066042185
130	0xbcb03abb	-0.02151238
131	0xbd630ea6	-0.05543389
132	0xbc8ba612	-0.017046962
133	0xbd0e6f5e	-0.034774177
134	0x3d5913bd	0.05299734
135	0x3b8b1a67	0.0042450908
136	0x3d6870eb	0.056748312
137	0xbc912215	-0.017716447
138	0x3be92b56	0.0071157617
139	0xbd6d0ce8	-0.057873636
140	0x3d6ccf3e	0.05781483
141	0x3dba7422	0.09104182
142	0x3cf31038	0.02967082
143	0x3ba61feb	0.005069723
144	0xbd6e30fe	-0.05815219
145	0x3d9b230b	0.07575043
146	0xbda5a7d5	-0.08088652
147	0x3d391bc3	0.04519249
148	0x3dc64078	0.09680265
149	0xbd808de8	-0.062770665
150	0x3d9e45f3	0.077281855
151	0x3ca7fcd5	0.020506302
152	0x3c9b9bd6	0.018995207
153	0xbd2c850c	-0.04211907
154	0xbda8baf8	-0.082387865
155	0xbd73acaf	-0.059490856
156	0xbb82c7a9	-0.0039910865
157	0xbd748bee	-0.05970376
158	0x3b808871	0.003922515
159	0xbd80c47a	-0.06287475
160	0xbd75b6ff	-0.05998897
161	0xbdb2a94e	-0.087236986
162	0x3ce3f01d	0.027824456
163	0xbd843cb4	-0.06456891
164	0xbcba434e	-0.022737172
165	0x3dbd32e9	0.09238226
166	0xbc25f72d	-0.010129732
167	0x3dc3e204	0.095645934
168	0xbd0e0f80	-0.03468275
169	0x3d8a89eb	0.06764587
170	0x3d2f512d	0.042802025
171	0xbd3d72d4	-0.046252087
172	0x3c0aebc9	0.008479067
173	0xbd9679dc	-0.073474616
174	0x3db5ba74	0.08873454
175	0xbd7ce52a	-0.061741985
176	0x3d4c6550	0.049901307
177	0x3da95a57	0.08269184
178	0x3d5359a5	0.051599164
179	0xbd787750	-0.06066066
180	0x3dcfcd95	0.101466335
181	0x3d8e6f4f	0.06954824
182	0x3d793304	0.060839668
183	0x3d79b9e1	0.060968284
184	0x3d8e1967	0.06938439
185	0x3ce7e9fe	0.028309818
186	0xbc9645df	-0.018343864
187	0x3db9c439	0.090706296
188	0xbc2c3ffa	-0.0105133
189	0xbc3b6bcf	-0.011439278
190	0x3d97118d	0.073763944
191	0xbd7a6c43	-0.061138403
192	0xbc64423a	-0.013931805
193	0x3c9a6305	0.018846044
194	0xbb997507	-0.00468314
195	0xbd593f72	-0.05303902
196	0xbcb36e2f	-0.021903126
197	0xbda1e8bc	-0.07905719
198	0x3d932e41	0.071865566
199	0xbd7cc1f3	-0.061708402
200	0x3d22ccc5	0.039746065
201	0x39e35904	0.00043363136
202	0xbb478c27	-0.0030448528
203	0x3c8c4046	0.017120492
204	0x3d3d3cf1	0.046200696
205	0x3d440ef7	0.047865834
206	0x3dbd386a	0.09239276
207	0xbda29f13	-0.07940497
208	0x3d834425	0.06409482
209	0x3df19410	0.11795819
210	0xbd1b4e51	-0.037916485
211	0xbc6e4f61	-0.014545293
212	0x3d2e953c	0.04262279
213	0x3d604659	0.05475459
214	0xbd0e0b46	-0.03467872
215	0xbd613ba1	-0.054988507
216	0xbccc24b9	-0.024919854
217	0xbcce7a51	-0.02520481
218	0x3eea371f	0.4574518
219	0x3db666e9	0.08906347
220	0x3a9c564c	0.0011927574
221	0xbd879fc7	-0.06622272
222	0xbd556ae8	-0.052103907
223	0xbcded5d5	-0.027201572
224	0xbd73f7d4	-0.05956252
225	0x3cff5581	0.031168701
226	0x3d38b0d5	0.045090515
227	0x3db1689a	0.08662529
228	0xbd8d08f2	-0.06886472
229	0xbcf4969c	-0.029856972
230	0xbb9b647b	-0.004742203
231	0xbd81c2ae	-0.0633596
232	0x3d527242	0.051378496
233	0xbc860ed7	-0.016364498
234	0xbda2d063	-0.07949903
235	0x3d9ba3ef	0.07599627
236	0x3d8b485d	0.068009116
237	0x3d62991b	0.055321794
238	0x3e2fad9d	0.17156072
239	0xbca6a40c	-0.020341896
240	0x3cc5bd7b	0.024138203
241	0x3d7fe022	0.06246961
242	0xbc8a1351	-0.016854914
243	0xbd93dfba	-0.07220407
244	0xbd05665d	-0.032568324
245	0x3cbd577e	0.023113009
246	0x3cdd9237	0.02704726
247	0xbcf9de5b	-0.030501535
248	0xbb12f534	-0.0022423984
249	0xbd252093	-0.04031427
250	0xbdac38c9	-0.084092684
251	0xbdaf7e44	-0.08569005
252	0x3dd74639	0.10511441
253	0xbd485660	-0.0489105
254	0xbd642b55	-0.055705387
255	0x3dba456f	0.09095275

fc3.bias f4 [25]
0	0x3d28a15b	0.041169506
1	0xbca5375a	-0.020167995
2	0xbd7b41a2	-0.06134189
3	0xbc80b04d	-0.015709067
4	0xbd5f5a76	-0.05452963
5	0xbd09586e	-0.0335316
6	0x3dc546e8	0.09632665
7	0xbcb0285a	-0.021503616
8	0x3d90db70	0.070731044
9	0x3cd37b76	0.025815707
10	0x3d68bb5e	0.056819312
11	0x3a7538f5	0.00093544956
12	0xbdd46195	-0.10370175
13	0xbc3651ff	-0.011127948
14	0xbb95613b	-0.00455871
15	0xbdd415f5	-0.103557505
16	0xbd612111	-0.054963175
17	0xbdc0114d	-0.093783
18	0xbda0d2a1	-0.07852674
19	0xbdafbafb	-0.085805856
20	0xbcd9e85c	-0.026600055
21	0xbb2a45c7	-0.0025981532
22	0xbda3af00	-0.07992363
23	0x3d50fefd	0.051024426
24	0xbc818981	-0.015812637
