training_model/wandb/run-20200708_193704-3dvcteat/aoa_fir_6cov_1.pt (torch_old, 403058 bytes, 16 tensors)

encode_conv1.weight f4 [4, 50, 3, 3]
000000 f9 45 9c 3d 70 a4 96 bc 23 67 07 bc 9d 86 15 3d
       0.07630534 -0.018388957 -0.008264336 0.03650533
000010 3d fa ea bd 34 e6 20 bd c2 fc 9f bd 3c b7 f0 bd
       -0.114735104 -0.03928204 -0.078118816 -0.11753699
000020 db 02 87 bc 89 43 b4 bd 92 dc 1c bd 2e 9a f4 bc
       -0.016480854 -0.08801944 -0.03829629 -0.029858675
000030 af ff 89 bc 23 f1 18 be e9 64 c6 bc 0b 63 29 be
       -0.016845552 -0.14935736 -0.02421804 -0.16541688
000040 26 18 58 be 98 df d8 bc 3e c2 d1 3d 6d e3 31 3e
       -0.21102962 -0.026473805 0.10242127 0.17371912
000050 6e b4 8b 3d ff da 5b bd ca 71 ac 3d aa 37 7d 3c
       0.068215236 -0.053675648 0.08420141 0.015455166
000060 e0 8a 2b bd c2 77 85 bd 85 01 bb 3c 03 07 7d be
       -0.04188049 -0.065169826 0.022827873 -0.24709706
000070 1a ca 47 3c b8 63 f9 3c 2d 76 9a be fd 81 1b bd
       0.012194181 0.030443057 -0.30168286 -0.037965763
000080 26 57 bd bd 6d bf a4 be a0 93 45 be fe 15 dd bd
       -0.09245138 -0.32177296 -0.19294596 -0.1079521
000090 25 6a 0d be 2a b0 88 be 5f a6 7b 3d a8 df 3a be
       -0.13810022 -0.26696903 0.06143796 -0.1824938
0000a0 88 bf 88 be be b4 a8 3b d1 85 99 be f0 a0 91 be
       -0.26708627 0.0051484993 -0.29984906 -0.28443098
0000b0 ac 3b e6 bd 22 c3 00 3e ad e8 91 3d b5 9b cd bd
       -0.1124185 0.12574437 0.071244575 -0.100394644
0000c0 4f a7 6f bd 76 56 8b 3d c0 97 cc 3c 44 bf e0 bc
       -0.058509167 0.068036005 0.024974704 -0.027434953
0000d0 92 0f 5c 3d 47 21 3a bd c8 8c b7 bd ea 1e bb be
       0.053725787 -0.045441892 -0.08962399 -0.36547023
0000e0 ac dc cc be 7f 0a 61 be 41 9e 90 be 93 2c 2f be
       -0.4001211 -0.2197666 -0.28245738 -0.17106847
0000f0 bb eb 02 be ec 5d c1 be 48 3b 86 be a3 8b 53 3d
       -0.12785237 -0.3776697 -0.26217103 0.05164684
000100 3f b9 c6 bd c1 dc 28 3e ee 65 b7 3c 32 fc 2a bd
       -0.09703302 0.16490461 0.022387471 -0.04174442
000110 9d 32 07 3d 0d 62 13 3d 98 ba d3 bc b9 e4 fb ba
       0.033007253 0.03598218 -0.02584581 -0.0019217945
000120 e6 16 d9 3c c7 bc 3f 3c 24 e7 b0 bb 6c 05 18 3d
       0.026500177 0.011702723 -0.005398648 0.037114546
000130 59 1a a5 bd 74 b0 43 bc b5 f3 95 3d 7e 1f 50 bc
       -0.08061666 -0.011943925 0.07321874 -0.012702821
000140 43 b5 ce bc fa d6 80 3d b5 28 91 bc c8 a7 01 3e
       -0.025232917 0.062910035 -0.017719606 0.1266166
000150 08 c1 e5 3c 5e 84 02 bd 7c df d5 bd 6e ab b9 3d
       0.028046146 -0.031864516 -0.10443017 0.09065901
000160 cf 3d 86 bc 66 a6 79 bd 78 84 7f 3d d3 ab bd bd
       -0.016386895 -0.060949706 0.06238219 -0.092612885
000170 3b 9f 7e be 58 83 2d 3d f5 5c 2c be 06 da c1 be
       -0.24865429 0.042361587 -0.16832335 -0.3786165
000180 32 02 92 3d c3 17 4d be cb 65 a5 be 95 63 a5 bd
       0.07129325 -0.20028596 -0.32304224 -0.080756344
000190 c4 83 13 be cb 2d db bc d4 62 78 bd 10 85 85 bd
       -0.14405733 -0.026755234 -0.060641125 -0.0651952
0001a0 cf 9b 29 be f4 2d 64 bd 32 55 56 be a6 3a 90 bc
       -0.16563343 -0.055707887 -0.20930937 -0.01760609
0001b0 85 13 8d be b9 1e 0b be 16 ae f3 3d 32 0b 5e be
       -0.27553955 -0.13585939 0.11898439 -0.21683958
0001c0 1c d4 59 be 44 24 42 3e 90 ed 76 be 0e b4 c8 bd
       -0.2127232 0.18959147 -0.2411406 -0.09799968
0001d0 8c 29 bb 3d fd b1 1e be c6 11 de bd 79 4c 52 be
       0.09138784 -0.15497585 -0.10843234 -0.20536985
0001e0 c6 48 5d be 6b 54 ff bd d5 05 2b bd f4 2f e7 3c
       -0.21609792 -0.12467273 -0.04175361 0.028221108
0001f0 4f f9 44 be cf 55 e1 bd 15 77 94 bd 6d 07 27 3d
       -0.19235729 -0.11002695 -0.072492756 0.040778566
000200 6e 4d a8 3d 6a 8a 4d be 76 73 9a bd 34 31 36 3e
       0.082178935 -0.20072332 -0.07541554 0.17792207
000210 f3 71 8d bc 0b e6 4a 3d 75 e9 b4 3d 90 f5 1c bd
       -0.01726625 0.049535792 0.08833591 -0.038320124
000220 e3 5f 7b be b4 fd c1 3d 55 6a b1 bd 49 ca 32 bd
       -0.24548297 0.09472218 -0.08662859 -0.043649945
000230 e8 21 82 3e 87 92 f9 bc 46 0b 56 3c da 23 3f 3e
       0.25416493 -0.030465377 0.013064211 0.1866602
000240 9b 06 aa 3d 28 36 9d bd cb bd 9b bb 68 48 fd bd
       0.08302041 -0.07676345 -0.0047528497 -0.12367326
000250 13 97 85 be 63 2d 3e 3e 9c dd e9 3c b9 cd 4a be
       -0.26091823 0.18572001 0.028548054 -0.1980504
000260 83 b6 26 be d7 95 82 bd 3d 49 37 3e 17 3e 6b bd
       -0.1628056 -0.06376236 0.17899032 -0.05743226
000270 17 c1 80 3d 3e 95 ed 3d 46 b4 52 3d 55 b4 c4 bd
       0.06286829 0.11600731 0.051441453 -0.09604708
000280 eb b1 86 3d 9d 1d 8b bd 6d 76 0d 3e 80 27 89 bd
       0.06576904 -0.06792758 0.13814707 -0.06696987
000290 a5 0d 53 bb a5 39 99 bd 6a d0 7d bb ae b3 e0 bd
       -0.0032204178 -0.07481698 -0.003872896 -0.10971771
0002a0 93 ce 4f 3d e3 af bb bd 6f a0 e5 bc f4 00 60 bd
       0.050734114 -0.09164407 -0.028030602 -0.05468841
0002b0 fa 4c b0 bd a6 1f b4 3c 5a 6c 22 3d bb 8b d2 3b
       -0.08608432 0.021987747 0.039654113 0.0064253486
0002c0 53 34 dd bd 7d d7 0e 3e 31 dc 26 3c 36 a2 07 3c
       -0.10800996 0.1394939 0.010184334 0.00827842
0002d0 ce e9 fb 3c ad f1 5c bd ac 4e c7 bd 91 3b 60 3d
       0.030751135 -0.053941417 -0.09731802 0.054744307
0002e0 60 fd 29 be 72 98 ae bd c4 fe 54 be b0 9b 86 bd
       -0.16600561 -0.085251704 -0.2080031 -0.06572664
0002f0 72 23 52 be 63 2e 0b be d2 b3 90 3d cf f3 b2 3d
       -0.20521334 -0.13591914 0.07065548 0.08737909
000300 8f 75 8a 3c a8 e5 45 3a 41 e8 a7 bd 28 9c ee bc
       0.01690176 0.0007549175 -0.08198596 -0.029127195
000310 b3 4b 60 bd 53 92 94 bc 0f 9a ec bc 41 14 db 3d
       -0.054759692 -0.01813618 -0.028882055 0.106972225
000320 d3 91 90 bd 88 bc e4 3d 31 c1 0f bc 73 77 c8 bc
       -0.07059064 0.11168772 -0.008774088 -0.02447102
000330 a3 0f 10 3d 50 c0 88 bc f2 66 ca 3c 43 cb a2 bd
       0.035171162 -0.016693264 0.024707291 -0.07948925
000340 50 a7 3b bd 7a b5 ad 3d da 50 21 bd e6 cd cf bc
       -0.04581386 0.084818795 -0.039383747 -0.025366735
000350 ae 74 5a be 64 0b 54 be 48 ff 5d be 41 0d 7e bb
       -0.21333572 -0.2070747 -0.21679413 -0.0038765224
000360 80 ab 0f 3d 48 cd 26 3e e4 ce 43 be c7 22 c5 bd
       0.035075665 0.16289246 -0.19121891 -0.09625774
000370 0f 92 95 bc 7c ec f8 b9 ed b8 d2 bd 43 1b 07 be
       -0.018258123 -0.0004747844 -0.10289178 -0.13193993
000380 d3 8f ec bb 56 5c 18 3c 96 ca 15 3e 1e 2d 47 3b
       -0.0072192936 0.009299358 0.14628062 0.0030391882
000390 b6 e7 3e 3d 89 12 8e 3d e8 0d ca bd 38 b8 c6 bd
       0.046607696 0.06937129 -0.09865934 -0.09703106
0003a0 69 75 27 bd 81 b1 a6 bd ce 8e 0d bc 19 bb 41 bd
       -0.040883455 -0.08139325 -0.008640004 -0.04729757
0003b0 8d 5a 83 be c1 81 ad bd f1 d8 0f be 39 ca 6d 3d
       -0.25655022 -0.08472014 -0.140476 0.058054183
0003c0 bb 67 77 bd 16 f9 08 be de 1f bf bc fc 0b a3 3c
       -0.06040166 -0.13376269 -0.023330625 0.019903176
0003d0 22 49 a0 bd 3f e8 9d bd cd 6d bf bd 9e 5b 4f bd
       -0.07826449 -0.07710313 -0.09347115 -0.050624482
0003e0 e1 d1 83 3d f4 6b bb bd 68 24 0f be 25 08 10 be
       0.064365156 -0.0915145 -0.13978732 -0.14065607
0003f0 eb 6d a1 bd ee c4 99 3d 23 08 83 3d 4a 5c 75 3d
       -0.07882293 0.075082645 0.06398036 0.059902467

encode_conv1.bias f4 [4]
000000 32 b9 e9 bb 7f 82 1c bd 3a 19 f3 3c f6 9b 13 bc
       -0.0071326727 -0.03821039 0.029675115 -0.009009352

encode_conv2.weight f4 [4, 4, 3, 3]
000000 73 a2 2c be 8e 34 fb b9 58 50 7c 3e c1 e0 bb 3c
       -0.16858844 -0.00047913607 0.24640024 0.02293432
000010 4b 91 3b 3e fa 6c 95 3e bd e3 b3 bd b9 d1 36 3e
       0.18317144 0.29184705 -0.08783672 0.1785344
000020 d8 53 a6 3e 16 8a 25 be 9d 6d 77 3d f4 df a1 3e
       0.32485843 -0.16165957 0.06040727 0.31616175
000030 a5 59 40 bd b0 1c 2c 3e 83 a0 3f 3e ba 9b 99 3d
       -0.04696049 0.16807818 0.18713574 0.075004056
000040 b4 a8 df 3d 3d cd 38 3e b1 60 3a 3d 91 c5 61 3e
       0.109208494 0.18047042 0.04550237 0.22048022
000050 37 ae 62 3e 90 01 29 bc 92 2c 2b bd de ea 2c 3e
       0.2213677 -0.010315314 -0.041790552 0.1688647
000060 e0 ab 16 be 89 51 fc 3b 37 ae 78 3e 9b f5 13 be
       -0.14714003 0.0077001494 0.24285208 -0.1444916
000070 62 56 d5 bd 51 c8 de bd f2 27 38 3e b1 34 30 be
       -0.10416867 -0.10878051 0.17983988 -0.172076
000080 dd 02 6b be 9f df fc 3d a4 bb 32 3a 38 71 8a 3c
       -0.22950311 0.1234734 0.0006818122 0.01689969
000090 96 e7 8c be 3e ac 93 3e 1f c0 1c 3e fd 62 4a 3d
       -0.27520436 0.28842348 0.15307663 0.04941081
0000a0 10 58 06 3e 7e a2 61 3e 30 7c c5 be 71 54 96 3d
       0.1311953 0.22034642 -0.3857131 0.07340325
0000b0 b1 66 84 3e 3d 7e 56 3e 8a a1 25 3e 04 45 a5 3b
       0.25859597 0.20946594 0.16174904 0.0050436277
0000c0 aa 07 ad 3e 22 73 e3 3d 1e ab 80 3d f9 2c f1 3e
       0.3379491 0.11105944 0.06282638 0.47104624
0000d0 aa 53 e1 bd ec 7b 0a 3e a2 65 c9 3d 6a 2d 22 be
       -0.11002286 0.13523835 0.09833838 -0.15837637
0000e0 d7 0d 80 3d 71 8e 1e bd 98 46 1d be 6b b5 78 3e
       0.0625264 -0.03871006 -0.1535896 0.24287955
0000f0 ce 90 0b be fa 7f b0 3c e3 47 b7 3e 15 8f cd 3d
       -0.13629457 0.021545399 0.35797033 0.10037056
000100 6c 7e 19 be 86 f0 2f 3e 9c 68 72 3e b7 23 1f be
       -0.14989632 0.17181596 0.23672718 -0.15540968
000110 22 85 1b 3e d1 42 d1 3d be 25 15 3e 1f 19 f0 bc
       0.15187505 0.10217822 0.14565179 -0.029308854
000120 b9 b9 f3 bc 78 3c 1e 3e f1 94 ee 3c a2 6d 68 3e
       -0.029751645 0.15452754 0.029123755 0.22698072
000130 d5 c7 9a 3d 7a 36 7f bd 4f f9 9c bc 1e 8f 6e 3d
       0.07557646 -0.062307812 -0.019161848 0.058241956
000140 1d 16 11 3d ad 80 c8 3c 38 c8 70 3e b0 b0 07 be
       0.03542148 0.02447542 0.23513877 -0.13250995
000150 23 a6 34 bd bb d8 3e 3e ff fd b0 bd 8e 08 3d 3e
       -0.044103753 0.18637364 -0.08642196 0.18460295
000160 af 09 16 3e 10 a4 36 be aa 6c bb 3d 8f f4 53 be
       0.14652131 -0.17836022 0.091515854 -0.2069876
000170 ce 2a 79 3e 93 43 83 3d f9 64 d6 be db 20 f7 3d
       0.24332735 0.06409373 -0.4187391 0.120668136
000180 b6 c0 c2 be 56 10 07 bd 3c 82 27 3e e9 92 8f bc
       -0.38037652 -0.032974564 0.16358274 -0.017526107
000190 b1 9d 04 be 2c c8 40 3e 6a 4b c3 bc 2d 1c ef 3d
       -0.1295078 0.1882636 -0.023839671 0.11675296
0001a0 dc 58 92 bd 76 d3 8b 3d 0b 07 54 3d 9d f7 51 bd
       -0.07145855 0.06827442 0.05176453 -0.051261533
0001b0 34 6e 35 bc 5c 6f 06 be f3 d2 fb 3d 43 8e 5a bd
       -0.011073638 -0.13128418 0.12296095 -0.053358328
0001c0 0c 26 82 bd d8 47 b8 3d 3a 15 09 be 67 11 9c 3d
       -0.06354913 0.08998078 -0.13387004 0.07620507
0001d0 fa 43 9e bd 0a 9b 40 be a5 ea 1e be 00 7a 1f 3e
       -0.07727809 -0.18809143 -0.15519197 0.15573883
0001e0 23 3b 83 be 5b 7c 61 3d 50 02 13 3e fc 0b 8b be
       -0.25631055 0.055050235 0.14356351 -0.2715758
0001f0 c6 86 5f 3d 87 8e bc bd 02 cc 8a 3d a4 4c 71 3d
       0.05457189 -0.092068724 0.06777193 0.05891098
000200 1b ef 4e bd 5b 8f 5a 3d 04 c6 ad 3d da 60 c9 3e
       -0.050520997 0.05335937 0.08485034 0.39331704
000210 c4 01 74 be 05 6c 24 3e e8 6d 6d 3e 83 30 38 3e
       -0.23828799 0.16056831 0.23186457 0.17987256
000220 e5 a3 dc 3d c7 39 e3 3c eb 9e 87 3e 0c a3 c1 3d
       0.10773448 0.027737511 0.26488432 0.09454927
000230 5b 07 7f bd 8d 19 03 3e 6d ac 5a 3e aa 88 10 bd
       -0.062262874 0.12802716 0.21354838 -0.035286583

encode_conv2.bias f4 [4]
000000 7c b0 ef 3d 40 9e 1d 3d 87 6e 06 be 84 c6 91 bd
       0.117035836 0.038480997 -0.131281 -0.07117942

encode_conv3.weight f4 [8, 4, 3, 3]
000000 04 3d 43 be 27 61 fb bd 5f 68 e8 bd e9 fa 9d ba
       -0.19066244 -0.1227439 -0.11348032 -0.0012052926
000010 66 ba e4 3d 69 cb 46 bd 0b 01 b0 bd 5c cc 30 3d
       0.11168365 -0.04853383 -0.08593949 0.043163642
000020 4c 27 4d 3d 2d 87 0f be 65 50 4f bd b7 29 2c 3e
       0.050086305 -0.14016409 -0.05061378 0.16812788
000030 4a bd d7 bc 3e 09 0e bd c6 5a dd bd 8d 69 82 bc
       -0.026335377 -0.034676783 -0.10808329 -0.015919471
000040 58 b4 9b 3c 67 d5 e5 bd 44 7e a0 3e 62 10 23 be
       0.019006893 -0.11222344 0.31346333 -0.15924218
000050 41 f8 f2 bd 4f 87 f7 bd 72 7d 5a 3e f8 58 a8 be
       -0.11863757 -0.12086355 0.21336916 -0.32880378
000060 d3 89 31 3e b8 24 09 3e 53 1e af 3e f9 29 e5 bd
       0.17337732 0.13392913 0.34202823 -0.11189646
000070 e8 41 56 be 9d 2d 44 bd 4a 42 90 3d 20 50 ab 3b
       -0.20923579 -0.047895063 0.07043894 0.0052280575
000080 80 27 cc bd 7c bb cc 3d 88 53 21 be df 76 fa bd
       -0.099684715 0.09996697 -0.15754521 -0.12229704
000090 f2 6e fa bd 9f 4b 86 bc 86 cb 8d 3d 16 85 9c 3e
       -0.122281924 -0.01639348 0.06923585 0.30570287
0000a0 77 20 bb bd 71 49 fa 3c 40 6a ea bd 3f 72 04 3b
       -0.091370516 0.030552598 -0.11446047 0.0020209698
0000b0 59 98 1f 3e 9f 87 ef bd f8 2d 07 bd 52 fd ea bd
       0.1558546 -0.116957895 -0.033002824 -0.11474098
0000c0 5f 7d 24 3c 66 03 78 bd 9b a7 b3 bd 3f 02 9b bd
       0.010039656 -0.060550116 -0.087722026 -0.07568788
0000d0 79 94 13 3e d5 4b 9f bc ac 7f 68 be 70 5d c1 bd
       0.14412107 -0.01944534 -0.22704953 -0.0944165
0000e0 2f af 13 3e 22 17 9e be bd 9b 5f bd 1d 16 97 3d
       0.14422296 -0.30877024 -0.054591883 0.07377265
0000f0 8d 49 f5 bd dd 3e 9c 3d 0e 48 88 3d dc 70 ca bc
       -0.11976919 0.07629178 0.06654368 -0.024712019
000100 dc 49 31 be 89 76 bf ba 4e 44 35 3e 83 23 f8 bd
       -0.17313331 -0.001460747 0.17701837 -0.12116148
000110 55 c3 9c bd b1 e9 39 3e 20 f5 0e bd 23 9d bd 3b
       -0.07654444 0.18155552 -0.03490174 0.0057865544
000120 28 96 33 be 43 72 11 3c 0b cd 44 3d b6 bd 31 be
       -0.17537749 0.00887734 0.048047107 -0.17357525
000130 4c 40 46 3d 62 52 9f 3d d3 39 be bd 77 5b 32 3c
       0.048401162 0.07779385 -0.09288373 0.010886065
000140 d7 09 b2 3d 6a 42 ce 3d 03 22 8a 3e 69 6d be bd
       0.08693283 0.10071261 0.26979074 -0.09298212
000150 fb b5 55 3d 13 e3 3c 3d bb 90 0d be f6 76 68 3d
       0.052175503 0.046114992 -0.13824742 0.056754075
000160 cf 9f c5 bc 4e 44 64 3d 54 62 15 bd 08 7d 9d 3d
       -0.024124054 0.055729203 -0.036470726 0.076898634
000170 80 fa df bd 70 23 f5 3b 83 8c 0e 3e e8 58 0b be
       -0.10936451 0.007481031 0.13920788 -0.13608134
000180 84 9b 96 3c 97 e1 33 be 16 fa 5d 3e 1e a5 99 bc
       0.018384703 -0.17566524 0.21677431 -0.018755492
000190 b9 29 9c 3d 58 f0 15 3e 0e a0 9c 3b 39 b4 b7 bc
       0.076251455 0.14642465 0.004779822 -0.022424804
0001a0 fb ae 2a 3e 39 ca d4 bd 77 e6 0e 3c d3 a5 97 bc
       0.16668312 -0.103901334 0.008721939 -0.018511688
0001b0 85 fd 06 3e a2 57 33 3d ce 7c 5a be 2d 33 05 3e
       0.13182648 0.043784745 -0.21336672 0.13007803
0001c0 a5 0e fe 3d a6 6d 9e bd 46 b0 35 be b7 14 32 3e
       0.12405137 -0.077357575 -0.17743024 0.17390715
0001d0 56 e3 2a be 70 ae 0d be 40 57 53 3d 84 23 04 bc
       -0.16688284 -0.13836074 0.05159688 -0.008065108
0001e0 ac 6f 04 bd 87 51 01 be 9c 39 1d be 28 91 43 be
       -0.03233306 -0.12628756 -0.15354007 -0.19098341
0001f0 ed 91 05 3d 36 a5 1e be be 9a 02 bf ad 43 95 3d
       0.03260987 -0.1549271 -0.5101737 0.07288299
000200 06 d1 ec bd 93 ee 55 be 62 56 b3 3d 69 a8 46 bd
       -0.115633056 -0.2089179 0.087567106 -0.048500452
000210 ac 5d 5c be 42 55 1a be 35 33 42 3c 53 7d 37 3e
       -0.21520108 -0.15071586 0.011853029 0.17918901
000220 67 b1 59 bd b7 a7 b5 bd 85 c1 34 be 8e 27 12 3d
       -0.0531477 -0.0886988 -0.17651947 0.035682254
000230 02 0f 03 3d 58 0d fe bc 64 15 3e bd 9c 97 cb bd
       0.031996734 -0.031012222 -0.04640712 -0.099410266
000240 bf ba e2 bc 9d 56 98 3d 0f 7a de bd 35 7f 28 be
       -0.027676938 0.07438395 -0.108631246 -0.16454776
000250 7c 89 2f 3d 54 30 bf 3d 7c dd 1e 3e 45 6f 20 bd
       0.042855725 0.0933539 0.15514177 -0.039168615
000260 2b 06 f7 3d 8f 1a 2d 3e 4b fc db 3d c3 60 6c bd
       0.12061723 0.16904663 0.107414804 -0.057709467
000270 3c 89 60 bd 7f 2d 06 be 96 7f fb bc 55 ba 48 3e
       -0.054818377 -0.13103293 -0.030700486 0.1960233
000280 8a 04 99 bd df 80 e7 3d 05 05 93 bd c3 f7 21 3e
       -0.07471569 0.11303877 -0.07178692 0.1581717
000290 38 62 5a 3d 40 ab 47 be 8f 84 b8 3d e3 26 03 be
       0.053316325 -0.1949892 0.090096585 -0.12807803
0002a0 aa 9c 6c be bc 86 86 bd 5f 94 26 be ad 4e a0 3d
       -0.23106638 -0.06568667 -0.16267537 0.07827506
0002b0 06 86 2f 3e db 93 d5 3d 0a 37 27 3e 1a 17 45 3e
       0.1714097 0.10428592 0.1632959 0.19247094
0002c0 73 da 81 bd 2e d3 09 3e 67 36 2a bd ac 4f 20 be
       -0.06340494 0.13459465 -0.04155579 -0.15655392
0002d0 1d af 98 3c 86 c7 1c 3d 66 37 bf bd ec ec 28 3e
       0.018638188 0.038276218 -0.09336738 0.16496629
0002e0 af f3 99 3e c4 23 9a 3d aa db 30 bc 87 67 7e 3e
       0.30068728 0.07526353 -0.0107945595 0.2484418
0002f0 7d e8 c4 bc 36 7c 1b be 3b 5b 1a 3e 4c 02 39 be
       -0.02403664 -0.15184101 0.15073864 -0.18067282
000300 72 50 38 bd 4e ae 71 3e 13 58 22 be 01 dd 01 3e
       -0.044998594 0.23601648 -0.1585391 0.12681963
000310 a3 d9 53 3e c7 19 78 bd 63 74 e3 bc 31 ed 6d 3e
       0.2068849 -0.06057146 -0.027765458 0.23235013
000320 71 0b 60 3e 9a 5a 77 3d fd 8d 53 bd f1 c3 6d be
       0.21879365 0.06038914 -0.051649082 -0.23219277
000330 07 d6 51 bc 3e 81 3f 3e 30 8c 7c 3d 16 b1 82 be
       -0.012807376 0.18701646 0.06165713 -0.2552573
000340 38 10 f4 bc 88 f5 a6 3c 98 f0 fb 3d e8 d9 49 bd
       -0.02979289 0.02038075 0.12301749 -0.049280077
000350 2b 26 26 bd 08 ea 13 3e 75 d5 49 3e 54 78 15 3e
       -0.040563744 0.14444745 0.19710334 0.14596683
000360 00 a7 b3 bd 02 a6 be bd 56 07 0e be c1 92 04 be
       -0.08772087 -0.09309007 -0.13869986 -0.12946607
000370 93 90 e0 bd aa ee 84 3d 1e 77 7d be 1d 7f e3 3c
       -0.10965075 0.06490834 -0.24752471 0.027770573
000380 54 6e 47 bd fa 6d b2 bd 91 93 b1 bd 26 ae 12 bd
       -0.0486892 -0.087123826 -0.08670724 -0.035810612
000390 ad cb 3c bc b5 9d 14 3e 7a fa bf 3d c3 ce 12 3e
       -0.011523169 0.14513285 0.093739465 0.14336686
0003a0 9b e4 21 3e 5e 30 56 be 2f ab 30 3d 1d a8 13 3e
       0.15809862 -0.20916888 0.043132003 0.14419599
0003b0 ed fb f5 bd 5c 30 91 3e 7f 2d 3c 3e 92 80 32 be
       -0.12010942 0.28357208 0.1837673 -0.17431858
0003c0 28 f0 1f bd 10 b9 2d 3e d7 a7 3e be d4 d8 60 3e
       -0.03904739 0.16965127 -0.18618713 0.21957713
0003d0 75 f4 1a 3e 29 36 1d bd d3 db 2f 3e 73 a4 87 3d
       0.15132315 -0.03838173 0.171737 0.06623163
0003e0 a9 82 87 3d 88 14 78 3d ee 4f ef bd fb cb b8 bd
       0.06616718 0.060566455 -0.11685167 -0.09023281
0003f0 5f 71 6e be 24 0c 59 be c9 ce 9f 3d 7e e2 04 bd
       -0.23285435 -0.21196038 0.07803113 -0.032442562

encode_conv3.bias f4 [8]
000000 d2 fb 22 be 26 a3 b2 bc 55 45 81 bd 4d 44 74 bd
       -0.15916374 -0.02180631 -0.06312052 -0.05963545
000010 83 8d 06 be aa 05 4b 3d ae d2 ed 3d f0 09 e1 3d
       -0.1313992 0.04956595 0.116124496 0.109882236

encode_conv4.weight f4 [8, 8, 3, 3]
000000 66 30 b6 3d ac ea da bd 66 cb aa bd fe a3 b6 bd
       0.0889595 -0.10689291 -0.083395764 -0.08917998
000010 1f a3 2b 3d 13 50 96 bd 0b 5b 1b 3d de 9c e8 bd
       0.04190361 -0.07339492 0.037928622 -0.11358045
000020 cc 2e 8f bd 7a 4c fa bd 81 81 65 3d ca ef e2 bc
       -0.06991348 -0.12221618 0.056031708 -0.027702231
000030 48 eb f2 3d be fd ee 3d 8b 50 dc 3d 58 4b 5c be
       0.118612826 0.11669491 0.1075755 -0.21513116
000040 4d 36 04 3d f7 2c 95 3d 1f 5d d1 bd 99 9a be 3d
       0.032278348 0.07283967 -0.102228396 0.09306831
000050 3e bd ba 3c c5 f8 f1 3a a3 13 e0 3d a9 ec 74 3d
       0.022795316 0.001846098 0.109412454 0.05979601
000060 24 fb b5 bd cf 3e b0 3d 3d 3e d1 3d 2d 97 92 bd
       -0.08885792 0.0860573 0.10216949 -0.07157741
000070 7a 42 0e be 1b ce 09 3d 2b 24 85 bd 95 c6 b3 3d
       -0.13892546 0.033643823 -0.06501039 0.08778111
000080 64 10 db bc 38 d9 18 bc 2d ba ad 3c 03 82 39 bd
       -0.026741214 -0.009329133 0.02120694 -0.045290004
000090 fa 80 a2 bd e0 ec 0e bc c3 ad 08 3e d8 bd b2 3d
       -0.079347566 -0.008723468 0.13347535 0.08727616
0000a0 6c 40 12 3d ce 93 5d bc d2 b1 90 bd dc 4f 1a bd
       0.03570597 -0.013524009 -0.070651665 -0.037673816
0000b0 58 da 9a 3a 61 09 04 bd 49 1e cf bb 61 b7 f5 bd
       0.0011814339 -0.032235507 -0.006320749 -0.119978674
0000c0 9a fb 23 bd 5c 73 d8 3d b8 85 09 be a8 91 2f bc
       -0.040034868 0.10568878 -0.13429916 -0.0107158795
0000d0 d0 1c 73 3d da 40 bb 3d 5d 91 c2 3c 7e 02 06 bd
       0.05935365 0.09143229 0.023750955 -0.03271722
0000e0 06 38 cb 3d 13 6e ae 3c 5d 0b 94 bd 5a a6 ae 3d
       0.09922795 0.021292722 -0.0722873 0.08527823
0000f0 cb 2a 15 bd b8 8a 08 3e 29 89 f0 3d 0f b1 40 bd
       -0.036417764 0.13334167 0.11744911 -0.047043856
000100 28 34 f7 3b 86 a7 c0 bd 32 17 e1 3d 76 a6 bf 3d
       0.0075440593 -0.094069526 0.10990752 0.09357922
000110 6b 05 b2 3c 89 97 f0 3d e9 02 9d bd b6 cf c6 bd
       0.0217311 0.11747653 -0.07666571 -0.097075865
000120 fd cc 1d 3e 02 45 2b bd f4 d2 02 3e 59 eb ae 3d
       0.15410228 -0.041813858 0.12775785 0.08540983
000130 20 65 38 bd 39 3f bd bd f7 bd 67 bd 74 f2 a7 bd
       -0.045018315 -0.092405744 -0.05657765 -0.08200541
000140 16 1e 70 3d 88 62 eb 3c 54 d1 df bc 33 91 2c 3e
       0.058622442 0.028733507 -0.027321495 0.16852264
000150 a1 cc 0f 3e 84 28 26 3e 90 9a 0e bd e5 09 5b bc
       0.14042903 0.16226393 -0.03481537 -0.013369058
000160 29 9e 9f bd be cd 25 3e 84 0c 00 3e 3d d5 92 bd
       -0.077938385 0.16191766 0.12504774 -0.07169578
000170 3f 0c 6f 3d c2 6c e9 3d e6 01 93 be fe b1 ee 3d
       0.05836129 0.11397697 -0.28712386 0.11655043
000180 bf 65 22 3e 74 fd a3 be 7b b6 e4 3d 33 20 7c 3d
       0.15859126 -0.32029307 0.11167618 0.061554145
000190 cb 91 16 3d e8 70 fd 3d bb 8a 42 3b b0 65 b1 3c
       0.036760133 0.12375051 0.002968474 0.021654934
0001a0 e9 dc d0 3d 66 6e 64 3d 5a 11 7c 3d 7e 07 a3 bd
       0.10198385 0.055769347 0.061539985 -0.079604134
0001b0 7d dc 10 3d 0e 78 f2 3d ab fd d1 bd ea eb 12 bd
       0.035366524 0.11839305 -0.102534615 -0.035869516
0001c0 fa 30 16 be 44 75 b1 bd 08 a4 a9 bd a3 70 f7 bc
       -0.1466712 -0.08664945 -0.082832396 -0.030205077
0001d0 e4 0e 91 bd b5 87 23 3d 7f 9b 1e be 6c b5 34 3d
       -0.07082918 0.039924342 -0.15489005 0.04411833
0001e0 25 2c 00 3e e2 2c 14 be aa ae 0a 3d 79 44 85 bd
       0.1251684 -0.14470246 0.03385798 -0.06507201
0001f0 c3 ec 84 bd 13 6c 1a 3d 45 6c 95 3d e1 b0 48 bc
       -0.06490471 0.037700724 0.072960414 -0.0122492025
000200 ab 27 c8 3d 45 17 ab bd 42 fc 32 bd c5 00 d8 3c
       0.09773191 -0.08354048 -0.043697603 0.026367554
000210 34 17 73 3c 9b 09 e6 3d b1 e0 3f 3a 6e 39 b7 3d
       0.014837075 0.11232301 0.00073195534 0.08946501
000220 51 b3 2e be 12 b0 b7 bd a9 fe bb 3d e0 6a 26 be
       -0.17060591 -0.089691296 0.09179432 -0.16251707
000230 a5 71 a0 3d 8b 74 a0 bd 21 ef 16 be 3c 81 29 3d
       0.07834176 -0.07834729 -0.14739658 0.041383013
000240 d4 e7 50 bd 5d 28 8d 3d 67 49 4b 3c d4 89 83 3c
       -0.05100234 0.06892464 0.012407637 0.016056933
000250 47 0d 7e 3c 18 79 9c bd 6e 69 d7 bd a5 df 48 3d
       0.015506095 -0.07640284 -0.10518156 0.04904141
000260 09 a4 f1 3d 4f 8b bb bd c1 5b 61 bd ae a9 d5 3d
       0.11798865 -0.091574304 -0.055019144 0.104327545
000270 a8 23 13 be 02 d4 58 be 55 5e 27 bb 38 16 ba bd
       -0.1436907 -0.21174625 -0.0025538404 -0.09086269
000280 b9 6c 94 bd 13 64 76 3e dc 80 1b bd 1d 5b 9b be
       -0.072473 0.24061613 -0.037964687 -0.3034295
000290 0c 28 95 3c a0 c0 a9 3d e3 9b 77 be 6c 94 33 bd
       0.018207572 0.082886934 -0.2418056 -0.043842718
0002a0 66 39 82 bd de fa 65 be 19 a1 4e bd f1 4f de bd
       -0.06358604 -0.2245898 -0.050446603 -0.10855091
0002b0 47 f8 a5 3d e6 5c b6 bd 00 e4 a9 3c b4 18 4c bc
       0.08103996 -0.08904438 0.020738602 -0.012457062
0002c0 3c 51 97 bc de 3c d4 3c 15 d4 70 bc d8 60 8a bd
       -0.018471353 0.02590793 -0.014699002 -0.06756753
0002d0 49 ae b0 3d 61 93 b6 3d 61 36 69 bd 3c 18 21 3d
       0.08626992 0.08914829 -0.056936625 0.039329752
0002e0 11 05 2c 3d 2f b6 80 bd 93 1b e5 bc 21 8e e4 bc
       0.04199702 -0.06284749 -0.02796725 -0.027899804
0002f0 4b 61 1e bd e0 a4 32 bd dd 38 db bc c6 2e 7f 3c
       -0.038667005 -0.04361427 -0.026760513 0.0155751165
000300 bc df d0 3d 9a 30 93 3d bc 6b a4 bd 89 cb df ba
       0.10198924 0.071870044 -0.08028361 -0.0017074208
000310 09 3b c0 bc bb be fb bc 4e 01 cb 3d ef b0 44 3c
       -0.02346565 -0.030730596 0.09912358 0.012005075
000320 07 c2 1a be 3d 5e ba bd e2 bb 8d 3d 9f 8c 6d bd
       -0.15113078 -0.09100006 0.069206014 -0.057995435
000330 6b 44 9a 3c f2 dd 7c bc 39 c1 25 bd 58 24 92 3a
       0.018831452 -0.015433775 -0.040467475 0.0011149747
000340 c7 19 11 bd 16 a6 de bb 49 f1 26 bd ae 99 d3 bd
       -0.035424974 -0.0067947013 -0.04075745 -0.103320464
000350 1c cf fa 3d d4 35 d8 bc 11 19 9f 3d 14 c1 a1 3b
       0.12246534 -0.026392855 0.07768453 0.004936347
000360 6e 51 b6 3d be 60 12 bc 4e c4 f0 bd 4f b4 b7 3d
       0.0890225 -0.008934198 -0.11756192 0.08969938
000370 0f c8 0d 3d c4 03 18 bc df 90 14 3d 07 68 c9 3c
       0.03461462 -0.009278242 0.036270972 0.024585737
000380 80 6c 8b bd 72 db 48 3d 3d 9d 8c be 62 f6 60 be
       -0.06807804 0.049037404 -0.27463713 -0.21968988
000390 0b bc 4e bc 7f cb 82 3d 35 64 81 bd ae 47 05 3d
       -0.012618075 0.0638647 -0.06317941 0.032539062
0003a0 f2 ce 96 3d e1 4c 57 bc fe bc 77 bd 70 9c 36 3d
       0.073636904 -0.013140888 -0.06048297 0.044582784
0003b0 9d 8d 1d 3e 3b 3e ab bd c0 5c 78 be 7d e6 13 3d
       0.15386052 -0.08361479 -0.24254131 0.036108483
0003c0 f5 32 da bd 9f 19 24 be 31 47 22 3d 72 a5 c8 3c
       -0.106542505 -0.16025399 0.039618675 0.024492953
0003d0 0c b8 38 3c b6 38 67 3d 60 92 17 3c f8 17 e0 bd
       0.011274349 0.05645057 0.009251207 -0.10942072
0003e0 ed 1b 59 3d 31 a9 45 3c 44 e2 e5 bd 42 6f 83 bd
       0.053005148 0.012064264 -0.11224797 -0.06417705
0003f0 b0 af d0 3c f4 46 74 3d e4 9f 12 be ec 08 db bc
       0.0254744 0.05963798 -0.14318806 -0.026737653

encode_conv4.bias f4 [8]
000000 36 8c 44 bd e9 5d 2c 3d ed a1 aa 3d e0 26 11 bd
       -0.047985278 0.042081747 0.08331666 -0.035437465
000010 f8 ee cd bc da c4 e0 bc 15 f8 20 bc a8 39 3f 3d
       -0.025138363 -0.027437616 -0.009824772 0.046685845

fc1_1.weight f4 [200, 192]
000000 05 06 f5 3c 88 9f 7a bc 01 63 ab 3b f0 62 46 bc
       0.029910097 -0.015296824 0.005230308 -0.0121085495
000010 61 67 27 3d de 1d 9f bd b1 c7 68 bd 3b e0 10 3d
       0.040870074 -0.077693686 -0.056831066 0.035370093
000020 8f 88 3a bc f3 5a cc b8 1a b9 95 bc 42 e6 8b bd
       -0.011385097 -9.744419e-05 -0.01827674 -0.068310276
000030 a3 80 64 3d ab fc 48 3c 75 58 87 bd 6e 96 15 3d
       0.05578674 0.012267272 -0.06608669 0.036520414
000040 f7 88 8f 3d 8e 72 99 bd c3 8b 1c bb 0b 5d 23 3d
       0.07008546 -0.07492553 -0.0023887015 0.039883655
000050 59 0d 38 3d 5a 47 67 bb 6d 4b bf bc 97 84 40 3d
       0.044934604 -0.0035290332 -0.023351396 0.047001448
000060 06 a7 90 3d 87 4d 47 bd ff 0d 85 bd 88 0a 80 bd
       0.07063107 -0.04865792 -0.0649681 -0.06252009
000070 d9 ee 94 bd 2f 08 9c 3d e5 fd 44 3c 7b de cf bc
       -0.07272119 0.076187484 0.012023424 -0.025374642
000080 46 09 17 bd 5e 0b 9f 3d c8 b3 f8 bc 1c b0 2b bd
       -0.03687408 0.0776584 -0.030359164 -0.041915998
000090 76 6d a7 bc c6 83 c0 3d 71 4c b1 bd 6b f7 04 3d
       -0.020437937 0.09400134 -0.08657158 0.03246252
0000a0 0c 7c 69 3d d1 27 0b 3d 15 ae ed 3c d7 94 5e 3d
       0.057003066 0.03397352 0.029013673 0.054341163
0000b0 54 0f 78 3d ef 84 64 bd 82 2a 15 bd 90 03 4b 3d
       0.060561493 -0.055790838 -0.03641749 0.049563944
0000c0 5f 74 7d 3d 50 9b 0d bd cd b6 74 bd 80 41 16 bd
       0.06187856 -0.034571946 -0.059744645 -0.03668356
0000d0 c4 1c 47 bb ea de 01 3d 1a bc 6b bd 42 6a 81 3c
       -0.0030382136 0.031706728 -0.057552435 0.015797738
0000e0 c4 1b d1 3c 69 4e 7c bd dc 37 b3 bc 28 14 0f 3d
       0.025525935 -0.061598215 -0.021877222 0.034931332
0000f0 b9 56 c3 3b 97 e4 a1 bd d3 ed 86 3d d8 95 bc 3c
       0.005961266 -0.07904928 0.0658833 0.02302067
000100 c7 eb 98 3b 4a 8b 6e bd 21 da fc 3b a8 6c 43 3d
       0.0046667787 -0.058238305 0.0077164327 0.047711045
000110 d2 74 0a bd bf 19 ce bc de 45 41 3c 9e 81 5f bd
       -0.033802815 -0.025158761 0.011796443 -0.054566972
000120 d7 2e 55 3d 56 84 80 3c 85 68 9a 3d 9c da 45 bd
       0.052046623 0.015688103 0.07539467 -0.048304185
000130 f3 f8 20 3c f8 ad d8 bc 80 e6 4b bd 48 09 94 bd
       0.009824979 -0.026450142 -0.04978037 -0.07228333
000140 bb 71 84 3c 42 77 38 bc 0e 79 1c bc 9e fd 8e bd
       0.016167512 -0.011258902 -0.009550346 -0.069819674
000150 6b 38 a3 3c 2f f2 bc bd d8 8a 07 bd 9a 53 b1 bd
       0.019924363 -0.0922588 -0.033091396 -0.08658524
000160 94 c5 68 bd 25 b3 76 3d f6 bd 45 bd 29 95 d5 3b
       -0.05682905 0.06022944 -0.048276864 0.0065180254
000170 51 84 cb bb 8b 43 4a 3d fd 58 11 3d 93 b2 02 bd
       -0.0062108417 0.04938082 0.035485256 -0.031908583
000180 98 35 2a bd e3 7f 18 bd ba 4b 95 3d 46 cc 53 bb
       -0.041555017 -0.037231337 0.07289834 -0.0032317801
000190 42 ac 51 3d 30 fa 36 3c 54 a5 6f 3d 2f 4f 08 bc
       0.05118967 0.011168048 0.05850728 -0.00831966
0001a0 fe c7 1a bd 32 48 a3 3c b3 98 9f bc f3 60 97 bd
       -0.037788384 0.019931886 -0.019481992 -0.073915385
0001b0 79 13 47 bc c4 70 fa 3b 8f 89 1e 3d 48 4c 82 bc
       -0.012150639 0.0076428372 0.038705405 -0.015905514
0001c0 67 db 2a bd f5 2e f9 bc 69 a4 ef bc 83 a9 9f bd
       -0.041713145 -0.030417899 -0.029253202 -0.07796004
0001d0 b3 dd 99 bd b3 fb 20 3c 34 b3 a0 bd 8b 8d 8e bd
       -0.07512989 0.009825635 -0.0784668 -0.06960591
0001e0 31 7b 9a bd ba a9 53 3c aa b2 40 3d e8 a4 20 3d
       -0.07543028 0.012918884 0.047045387 0.039219767
0001f0 0d be 9c bc d8 15 20 3d fc cd 34 bd 60 f7 e5 3c
       -0.019133592 0.03908333 -0.044141755 0.02807206
000200 7e c8 e8 3c d9 e3 9e bd 68 90 69 3d f2 7f ba bc
       0.028415915 -0.07758302 0.057022482 -0.022766087
000210 a8 d4 4f b8 c2 50 9e 3c 9b a7 fb bd 37 e1 2f 3c
       -4.9550697e-05 0.019325618 -0.122878276 0.010734848
000220 0a 52 d5 bc 83 2b 9f bd 17 81 02 3d 5c 40 b0 bc
       -0.026040096 -0.07771971 0.03186139 -0.021515064
000230 b3 78 f6 ba 0b 92 33 3d 34 a4 37 3c ac a7 f1 3c
       -0.0018804282 0.04384045 0.011208583 0.029498897
000240 a5 8f 6b 3d 05 32 3f bc 64 24 63 bd 89 d6 41 bd
       0.057510037 -0.01166964 -0.055454627 -0.047323737
000250 95 31 7c bc f5 ea b1 bc 01 b1 ec 3b 11 9e a3 bd
       -0.015392681 -0.021718482 0.007223249 -0.07989133
000260 a3 df 29 3d 72 07 04 3b c1 13 b5 bd d2 3f 98 bc
       0.041473042 0.002014604 -0.088416584 -0.01858512
000270 f5 61 6f 3d a4 28 97 3d e6 a0 35 bb fc f4 a6 3c
       0.05844303 0.073807985 -0.002771431 0.02038049
000280 14 c3 a3 3c 2e 96 d6 3d 43 f4 86 bd 96 43 96 3d
       0.019990481 0.10477863 -0.06589558 0.0733711
000290 9e ff b0 3d dc 12 8b 3d d4 ff 01 3c 6a 21 07 3d
       0.08642505 0.067907065 0.007934529 0.03299085
0002a0 02 68 cc bc 6d 5e 59 bd 3c 27 4b ba 7a 6d 69 3d
       -0.024951939 -0.053068567 -0.0007749682 0.05698917
0002b0 24 a1 af bc 0e 5f f3 3c bd 89 88 3c cc d4 2a 3d
       -0.021439143 0.029708412 0.016667241 0.041706845
0002c0 18 69 ea bc 1a b2 a5 3c dd 10 ae bb fe b8 5e bc
       -0.028614566 0.020226527 -0.005312069 -0.01359391
0002d0 e6 63 5e bd 6a f5 df bc 50 bc 6b 3c e4 5f 89 bc
       -0.05429449 -0.027338702 0.014388159 -0.016769357
0002e0 54 cd 87 bc e1 75 90 bc 6c 9f 94 3b 2d 7a a5 bc
       -0.0165774 -0.017634334 0.004535606 -0.02019986
0002f0 8e 89 3a bd a2 5a 28 bd 12 36 b3 bc ee 0f b0 bd
       -0.04554134 -0.04110206 -0.021876369 -0.08596788
000300 a5 84 fa 3b 43 22 2f bc 71 6d 35 bd ee de bc 3d
       0.007645207 -0.010689321 -0.044293825 0.09222208
000310 fd 68 ef 3c e3 30 cb bd 96 97 91 3d 95 76 a9 bd
       0.029224867 -0.09921434 0.07108991 -0.08274571
000320 aa 32 8c bd 6c 85 2b 3b 4c 7c 52 3b 09 a5 19 be
       -0.06845601 0.0026172055 0.0032117544 -0.15004362
000330 0f dd c3 3c 2b ba 10 3c f3 92 3f 3c fe d8 04 be
       0.02390912 0.008833448 0.01169275 -0.12973401
000340 9b b8 8c 3d b0 25 2e bd ef 22 cb bd cb f3 ae 3c
       0.06871148 -0.04251641 -0.099187724 0.021356484
000350 22 a9 d2 bd 2b 68 d7 3c 2d e2 1d bd e0 2b 44 3d
       -0.10286166 0.026294788 -0.038545776 0.047893405
000360 e2 09 74 3d 08 e8 7f 3e c3 6c 2a 3e 64 e3 53 bc
       0.059579737 0.24990857 0.16643052 -0.012932632
000370 66 28 9a bd 8c f7 6c 3d 27 eb 76 bd 2f 96 91 3c
       -0.07527237 0.057853267 -0.060282853 0.017771808
000380 f5 0e 8a bd 1f 18 76 bc 00 ea 10 3e a0 6d be 3c
       -0.06741134 -0.015020399 0.14151764 0.023245633
000390 e6 14 09 bd 00 ec 6c be 0c aa 09 3e 1f 3a 3c 3c
       -0.033467196 -0.23136902 0.13443774 0.0114884665
0003a0 d8 36 43 bd be 66 01 3e d9 79 5e bc 08 b8 2f be
       -0.047659725 0.1263685 -0.013578855 -0.17160046
0003b0 29 7d 6f 3e 7d 7b 48 3d 07 48 00 3d 91 d2 0d 3e
       0.23387589 0.048945893 0.03131869 0.13849856
0003c0 c4 0c 62 3c b9 df 3b bc ef a5 cf bc a1 75 8a bd
       0.013796989 -0.011466914 -0.025347678 -0.06760717
0003d0 08 e3 20 3d e2 a7 ad 3d 12 fe e0 bc 69 78 84 bc
       0.039279014 0.08479287 -0.0274649 -0.016170697
0003e0 85 32 ab bb 75 8a e4 bc d4 ce 32 bc 0e 4c 55 bd
       -0.0052245283 -0.027898053 -0.0109135695 -0.052074485
0003f0 e0 ee 05 be 2c 9f a6 bd 29 fc 66 3e 4e f3 c2 bd
       -0.13079405 -0.081358284 0.22557129 -0.09519063

fc1_1.bias f4 [200]
000000 f6 20 9b bd 0e 1b 19 3d 16 7d ad bb 1d 27 0d 3d
       -0.07574646 0.037379317 -0.0052944524 0.03446113
000010 db 52 57 bc 79 ca f6 3c 98 21 30 3d b2 3b 83 3d
       -0.013142313 0.030125843 0.043000787 0.0640787
000020 20 eb fb bc 87 13 17 bd 89 cb d7 bc aa 4a 6e bb
       -0.030751765 -0.036883857 -0.02634217 -0.0036360421
000030 d4 ce 7a bd 62 e3 79 3d 7e 8d a1 bb dd d5 62 3d
       -0.061232403 0.061007865 -0.0049301973 0.055379737
000040 49 de 70 bc 8f 51 dd 3c 16 98 35 bd dd 82 02 bd
       -0.014701434 0.02701643 -0.044334494 -0.031863082
000050 20 b1 7b 3d aa 32 95 3c aa 69 cf 3c c1 32 f1 3a
       0.061448216 0.018212635 0.02531894 0.0018401967
000060 be 8b 0d bd e3 c7 21 3d 4b 72 df 3c d9 9b 68 3d
       -0.034557097 0.039497267 0.027276179 0.056789253
000070 05 99 20 3d f7 6a 9e 3d ee ff f7 bb 85 d4 28 3d
       0.03920843 0.07735246 -0.007568351 0.0412183
000080 30 bb 4b 3d a5 f3 03 3d b7 fd 46 bd b0 e8 9e bd
       0.049739063 0.03221478 -0.048581805 -0.07759225
000090 b2 13 92 bd b5 74 c9 3a b2 d3 58 bb 63 9e 94 3d
       -0.07132663 0.0015369864 -0.0033085165 0.07256772
0000a0 d1 10 c3 bb e3 2e 5d bd e6 50 a1 bc a5 ab 7b bd
       -0.0059529324 -0.053999793 -0.019691896 -0.06144299
0000b0 e8 b1 96 bd e8 fa 22 bd cc f5 a7 bd ae 6a 8d 3d
       -0.07358152 -0.039790064 -0.08201179 0.06905113
0000c0 52 9f 78 bd 3c 7c 2b bd 8a 0a 3f bd 3d 8c 17 3d
       -0.060698815 -0.041866526 -0.04664091 0.036998976
0000d0 30 e1 9c bd 61 21 a6 b8 1c 9f d3 bb f0 7f 7a 3d
       -0.076601386 -7.921714e-05 -0.0064581763 0.061157167
0000e0 d3 9d 18 bd e1 10 bd 3c 69 9b 9b 3b 36 9e 42 3d
       -0.037259888 0.023079338 0.004748751 0.047514163
0000f0 ec af b5 bc 02 a0 07 bd 6f 7b b3 3c e3 46 61 bd
       -0.022178613 -0.03311158 0.021909444 -0.054999243
000100 b7 e0 bf 3c a5 b2 a6 bd ef 4b 96 bd 3b 5a 23 bc
       0.023422582 -0.081395425 -0.07338702 -0.009970243
000110 d1 c2 8e bd 5d 36 3f 3c 05 32 90 3c 5f 5b 1f bd
       -0.06970752 0.011670676 0.017601976 -0.038905498
000120 c3 b2 39 3d 4f 0b 4b bb 33 72 78 3d e0 05 f9 3b
       0.045336496 -0.0030982082 0.060655784 0.0075995773
000130 86 64 a9 3c bf 60 a8 bc aa 92 a4 bc ad 08 b6 3c
       0.020677816 -0.020553945 -0.020089466 0.022220934
000140 fa ad 18 3d 25 a2 90 3c 2f ad 6f 3c f3 5b 27 bd
       0.037275292 0.017655442 0.0146286925 -0.040859174
000150 19 2e 48 bd 39 9a af 3c 3d 7a 12 3a 24 c2 83 3c
       -0.048872087 0.021435844 0.0005587673 0.016083784
000160 d4 a6 33 3d d0 b9 9d 3c 0f e9 1a bd 12 89 dd 3c
       0.04386027 0.019253641 -0.03781992 0.0270429
000170 25 76 64 3d 91 8d d1 bb 1d 0d 86 bd c8 7a 16 3c
       0.055776734 -0.00639505 -0.0654547 0.009184547
000180 65 31 e2 bb 49 f6 1d 3d 2b 51 a9 3c ef df 84 bd
       -0.006902861 0.038564954 0.020668587 -0.064880244
000190 1f e9 e2 3a 9e 66 1f 3d d2 41 21 3d 1f 1b 46 bc
       0.0017311907 0.038916223 0.03936941 -0.012091427
0001a0 fe 4e 58 3d f5 23 aa 3b d3 25 6c 3c 6f 2b 2c 3d
       0.052809708 0.0051922747 0.014413315 0.04203361
0001b0 b2 51 3f 3d a3 78 8c bc 6b a2 7c bd 33 ac 5e bd
       0.04670877 -0.017147368 -0.06167833 -0.05436344
0001c0 65 43 8c 3c c3 c3 92 bd 18 f7 05 3c a0 1b 33 3d
       0.01712198 -0.07166245 0.0081765875 0.043727517
0001d0 2d 25 b7 bc 58 93 44 bb d8 55 1e 3d 2d 58 85 3d
       -0.022356594 -0.002999505 0.038656086 0.06510959
0001e0 75 1b 04 3d 37 62 33 3d 0e 05 3b 3d 80 fa 77 bb
       0.032252748 0.043794837 0.045659117 -0.0037838519
0001f0 31 a8 df bb fc 85 d5 3c 26 ec 2f 3d 50 87 19 3d
       -0.00682547 0.026064865 0.042949818 0.03748256
000200 60 b6 75 3d 98 49 4c bd 4e 3c 42 bd b6 6a 65 bc
       0.05998838 -0.049874872 -0.047420792 -0.014002493
000210 41 f2 81 3d 93 fa 1a ba f2 e4 9f bc 08 d5 99 bc
       0.063450344 -0.0005911972 -0.01951835 -0.018778339
000220 48 9a c8 3c 9d e8 81 bd ce bf 98 3c 49 0f 65 3d
       0.02448763 -0.063431956 0.018646147 0.05592278
000230 57 0b 70 bd 32 30 8b 3d f0 f9 5e 3d 60 e7 c1 3c
       -0.058604565 0.06796302 0.054437578 0.023669899
000240 c3 1a be 3c 9a d8 0a bd e0 7d 9f 3c 7a 45 06 3d
       0.02320612 -0.033897974 0.019469202 0.0327811
000250 a9 c5 4b bd 45 40 e5 3c fe b2 72 bd 76 00 5a 3d
       -0.04974905 0.027984748 -0.05925273 0.053223096
000260 bf 56 69 3d f0 c9 46 bc d4 bf 1b 3d 53 48 7b bb
       0.056967493 -0.012133107 0.03802474 -0.003834267
000270 08 c9 9f 3c 6e 98 4c 3c e6 2b 3e 3d 72 ab c0 3b
       0.019505039 0.012487514 0.046428584 0.005879813
000280 35 ca 8c 3c 00 dc 8e bd 81 67 77 3d 4b aa 34 bd
       0.017186264 -0.069755554 0.060401443 -0.044107717
000290 85 08 70 3d cf d4 cc bc cd 95 71 3d f9 8d 0b bd
       0.058601875 -0.025003819 0.05898075 -0.034070943
0002a0 aa da c1 bd 4a c1 2d 3d c5 d1 6e 3b d9 7a 87 3c
       -0.09465535 0.042420663 0.003644095 0.01653807
0002b0 05 8b fa 3c 31 38 9b 3d 7d 91 72 3d 15 aa 3a bd
       0.030583868 0.07579077 0.05922078 -0.04557236
0002c0 c2 1c 22 3d 65 67 58 bd 46 93 45 3d 8a 3e 78 3d
       0.039578207 -0.05283298 0.048236154 0.060606517
0002d0 ca 1c ca 3b cf f5 bb 3a 16 50 07 3c 90 ca 8c bc
       0.0061679827 0.0014340224 0.00825884 -0.017186433
0002e0 52 64 69 3c 45 a0 07 3b 7b a6 29 bd 87 43 95 3d
       0.01424511 0.0020694893 -0.041418534 0.072882704
0002f0 19 04 12 bd 05 87 39 bd c4 5b 01 3d 9e b4 99 bd
       -0.03564844 -0.04529478 0.031581655 -0.07505153
000300 98 cd e1 3c 24 dc 63 bb f0 b3 85 3d 4d c9 af bc
       0.027563855 -0.0034768665 0.06528461 -0.021458292
000310 9a 07 3f bd 93 05 27 3c 0d 29 80 3d 27 01 48 3d
       -0.04663811 0.0101942 0.0625783 0.048829224

fc1_2.weight f4 [200, 192]
000000 35 db d6 bc bd c8 72 bb 79 16 85 3d 98 77 01 bd
       -0.026227573 -0.003704592 0.06498427 -0.031608194
000010 b8 9b a4 3d 7d 3d 37 bd 1b 82 c3 bd 4c 67 5c 3d
       0.080375135 -0.044736374 -0.095463 0.05380945
000020 a4 5f 1e 3d 1a 54 ff bc 22 eb 0f bd 50 13 a4 3c
       0.03866543 -0.031168032 -0.03513635 0.02002874
000030 7d f5 00 bf cc 9e 34 bd bf 6c dd 3c 75 fa f9 bd
       -0.50374585 -0.044096753 0.027029393 -0.12205974
000040 51 c3 a0 3c 7c 45 7e 3c dd 63 b9 3e aa 95 b8 bc
       0.019624384 0.015519496 0.36209002 -0.022532303
000050 9b ab 02 3d 19 cd 62 bc bf 41 07 3d 9a 63 72 bc
       0.031901937 -0.013842844 0.033021685 -0.014794255
000060 0e a6 b9 bd b5 da dc bd cb 83 a2 be 2f 44 45 3e
       -0.090648755 -0.107839026 -0.31741175 0.19264291
000070 82 44 ab be 5b f7 a9 3c 31 e3 02 3e b1 fd 10 3e
       -0.33450705 0.020747831 0.12781979 0.14159276
000080 ed 42 c5 bc 2b 45 1e 3e 78 ea f4 3b a9 3f c4 bc
       -0.024079764 0.15456073 0.00747424 -0.023956137
000090 5e cd 05 3e 9a 2d 19 3d ed 0c bc bb 92 75 5c 3e
       0.13066623 0.037397005 -0.0057388456 0.21529225
0000a0 72 c0 95 bc 58 18 b1 3d 73 e6 bd 3e 03 93 16 be
       -0.018280242 0.08647221 0.3708988 -0.14704518
0000b0 9a 9a 31 be c8 4e 76 3e bb 2d 05 3d 5a 53 1f 3d
       -0.17344132 0.2405349 0.032514315 0.03889785
0000c0 93 58 55 3d 0b 93 61 bc bb 6b 7d bb d4 24 91 3d
       0.052086424 -0.013767968 -0.0038668949 0.070871025
0000d0 a6 a7 b9 bc a1 7c de be 69 6d db 3d 00 c7 e9 3c
       -0.022662949 -0.4345446 0.10714228 0.028537273
0000e0 0f 9c fa bc 8f 01 e7 3d 48 7b c4 bb 94 ff bd 3d
       -0.030591993 0.11279594 -0.0059961416 0.09277263
0000f0 6a c2 3f bc fe 05 1e bd fb 21 d7 3b ef 30 3f bc
       -0.011704067 -0.038579933 0.00656533 -0.0116693815
000100 e5 5d 95 3b 97 02 7e bd d7 7f bc 3d 33 88 ac bd
       0.0045583122 -0.06201419 0.09204071 -0.084244154
000110 f8 f8 a5 3c 7b 5c c1 3d c1 61 00 be b3 95 ab 3d
       0.02026032 0.094414674 -0.1253729 0.08378162
000120 7e fd e0 3c 22 2e 26 bd 10 87 88 bd 59 a3 c1 bb
       0.027464624 -0.04057134 -0.06666386 -0.005909365
000130 e3 02 65 3d c7 2f 78 be 7f 62 ae bc b3 7c bc bd
       0.055910956 -0.24236976 -0.021287201 -0.09203472
000140 a4 ec ae bd 00 71 0a bc 80 6a d5 bd 9c 62 03 be
       -0.08541229 -0.008449793 -0.10420704 -0.12830585
000150 29 fe 81 bc 72 53 11 3c 94 67 88 be 0d 36 58 bd
       -0.015868263 0.008869993 -0.26641524 -0.05278592
000160 76 ed 24 3e f9 7a 9d bc fd ff 42 bd 93 fc 9f 3d
       0.16106209 -0.019223677 -0.04760741 0.078118466
000170 e8 b5 88 3d 52 60 05 bc ee b9 4d bd f4 8b 4b 3e
       0.06675321 -0.00814064 -0.050226144 0.19877607
000180 57 28 ea 3c 80 4d b5 3c 8e 51 d3 bc 5e 82 10 bd
       0.028583689 0.022131681 -0.025795724 -0.035280578
000190 87 bb 94 3d 31 0e 4d bc 1b e4 88 3d 9f 7a 70 3d
       0.072623305 -0.0125155905 0.06684133 0.05871069
0001a0 0a 2c 07 3e 92 f6 4c bd 99 49 81 bd cd da 9c 3d
       0.13200393 -0.050039835 -0.06312866 0.076589204
0001b0 9b 6a 39 b9 c8 a2 b3 bd c2 31 f9 bd 7e 52 91 3d
       -0.00017682688 -0.087712824 -0.12167694 0.07095812
0001c0 68 32 12 3d 32 d3 e7 bb 66 f2 05 bd b4 8e 80 3c
       0.035692602 -0.007074737 -0.032701872 0.015693046
0001d0 4f af f3 bb a9 ed 06 bd 13 e4 2b 3d 40 ec 37 3b
       -0.00743667 -0.032941494 0.041965555 0.00280644
0001e0 8c a1 30 3d 2f 0d 89 3c e7 17 e0 bc 1b 1b c7 bc
       0.043122813 0.01672992 -0.027355148 -0.024304917
0001f0 27 38 2e 3b fa 45 b5 bc 83 d6 87 3d 13 82 a8 bd
       0.0026583762 -0.022128094 0.06632712 -0.08227935
000200 f2 b6 c3 3b 38 97 21 3e bb e2 6f 3d 59 1b b1 bd
       0.0059727365 0.15780342 0.058565836 -0.08647794
000210 35 5e 2b 3e 74 7a 4e bd f9 b3 7f bc 3d d2 fc 3d
       0.16735156 -0.05040975 -0.015606874 0.12344787
000220 df 47 33 3c f3 17 5f 3c a4 18 f7 3b 0f 43 6a bc
       0.010942428 0.01361655 0.007540779 -0.014298215
000230 cd 57 04 be c0 f6 a6 3d c2 fb 37 bb f8 4d 84 bd
       -0.12924118 0.081525326 -0.0028073643 -0.06460184
000240 48 06 bb 3d 51 5e c3 bb 0a 82 1d be b8 e8 ad 3d
       0.091320574 -0.005962171 -0.15381637 0.08491653
000250 02 e5 08 3d b0 5a ee be 05 12 63 bd e3 44 dd bb
       0.033421524 -0.46553564 -0.055437107 -0.0067525967
000260 fb 82 ce bd c9 69 cd bc 22 f8 98 bc ef 3a 45 be
       -0.10083576 -0.025074856 -0.018673006 -0.19260763
000270 fa f6 85 3e 9f 98 7d bd 48 77 48 3d f9 74 07 3e
       0.2616499 -0.06191313 0.04894188 0.13228215
000280 51 00 1b 3e c5 da dc be 7b 70 41 3d 0a d7 6d 3d
       0.1513684 -0.43135658 0.04722641 0.058066405
000290 52 ec 6a 3e 34 a2 75 3d dc a6 6a 3d 07 59 19 bc
       0.22941712 0.059969142 0.057288036 -0.009359605
0002a0 47 16 66 be 0b 38 77 be f4 7a cb 3d 49 b9 0a 3e
       -0.22469436 -0.24142472 0.09935561 0.13547243
0002b0 00 8f 15 3d 2b 56 ea bb ad 64 e3 bc df da 7d bd
       0.03651333 -0.0071513853 -0.027757967 -0.06197631
0002c0 2a f8 97 bd 7d 80 37 3e 7b 7c b1 3d 4d 09 a9 bc
       -0.074203804 0.17920108 0.08666321 -0.020634318
0002d0 ee 2d 39 bc 9a 19 ee 3b 7d b9 ae 3c 41 53 35 bd
       -0.011302454 0.0072662355 0.021328682 -0.04426885
0002e0 53 c2 80 3e 78 58 05 3c 60 fe 4f be fe 7b ab 3d
       0.25148258 0.008138768 -0.2031188 0.08373259
0002f0 36 ea 9d bd ab 7a 64 3d 26 56 5d 3d 19 39 98 bd
       -0.07710688 0.055781048 0.054037236 -0.074327655
000300 8e da 93 3d a6 15 a3 3b d5 52 ec 3b 44 38 e4 3c
       0.072194204 0.004976946 0.007212023 0.02785886
000310 e0 5d ad bd d2 71 9a 3c 41 31 c8 bb 22 19 85 bd
       -0.08465171 0.018853102 -0.006109387 -0.06498934
000320 85 1a 64 bd 9c 1a ee bc 19 23 f5 bd e3 51 07 be
       -0.055689353 -0.029065423 -0.11969585 -0.13214831
000330 a0 e4 02 be 44 5e 39 bd 26 c4 17 3d dc 54 50 bc
       -0.12782526 -0.045255914 0.037052296 -0.012715545
000340 9a e1 b4 bd c8 fa b6 bd 6b 28 6f 3d 19 4a 34 3d
       -0.088320926 -0.089345515 0.058388155 0.044015978
000350 7a 1b 49 3d ba b6 75 bc 49 4b 50 3d bc 4b 90 bc
       0.04909847 -0.014997179 0.050853048 -0.017614238
000360 ae 80 55 3e f0 0b 60 3e 1e d6 3e be 86 33 8b 3c
       0.20849869 0.21879554 -0.18636367 0.016992342
000370 f5 b3 86 3e 85 e9 ad bc ba 90 cd 3d 0d c6 49 bc
       0.2630917 -0.021229515 0.1003737 -0.012315285
000380 0c 25 fa bc 79 ca 81 bb b3 67 8d 3d 31 65 72 be
       -0.030535243 -0.003960904 0.06904545 -0.23671414
000390 b6 93 19 bd d2 95 91 3d 49 6b 6e bd 25 45 f0 bd
       -0.037494384 0.07108654 -0.058207784 -0.11731938
0003a0 58 b0 cc bd 86 56 8d bd d3 fe f6 3c d0 75 0a 3e
       -0.099945724 -0.06901269 0.030150807 0.13521504
0003b0 56 e1 00 bd 5e c3 84 3d 11 8c 75 3e 21 01 71 3d
       -0.031464897 0.06482576 0.23979212 0.058838967
0003c0 c7 d0 b5 bd fc e6 94 3d 13 ae 12 3d d2 42 65 bb
       -0.08877712 0.07270619 0.03581054 -0.0034982455
0003d0 92 51 08 bd fc 7f fc 3c 9e d9 4c bd 1f a4 97 3d
       -0.033280917 0.030822746 -0.050012223 0.074043505
0003e0 3d 5a 70 3d 44 87 08 3e 0e f2 15 3e f4 7b 11 be
       0.058679808 0.1333285 0.14643118 -0.1420744
0003f0 6c 7f 69 bc e0 30 35 bd 3c 8d 2d 3e b2 d6 5a 3d
       -0.014251571 -0.044236064 0.16948408 0.053427406
