training_model/wandb/run-20200624_224339-2l5etk8o/AE_filter_2.pt (torch_old, 133492 bytes, 16 tensors)

encode_conv1.weight f4 [4, 12, 3]
0	0xbe30041f	-0.17189072
1	0xbe08d8c8	-0.13363945
2	0xbd76665e	-0.06015622
3	0x3ee65c7a	0.4499243
4	0x3ef3c0c6	0.47608012
5	0x3e325cd3	0.17418222
6	0x3ce495b0	0.027903408
7	0xbd63d37e	-0.055621617
8	0xbc3a0edc	-0.011356082
9	0xbcc05242	-0.023476724
10	0x3cb3776b	0.021907529
11	0xbce969ff	-0.028492926
12	0xbe921460	-0.2853117
13	0xbd76606b	-0.060150545
14	0xbe69f4ae	-0.22847244
15	0x3e024aeb	0.12723891
16	0x3e2f6da0	0.17131662
17	0x3d9b25f0	0.075755954
18	0x3c9d80b7	0.019226415
19	0x3ca00c7a	0.0195372
20	0x3d5c2977	0.05375048
21	0x3cc7f1c4	0.024407275
22	0x3d8ced84	0.0688124
23	0x3de6eab2	0.11275233
24	0xbe762b6b	-0.2404
25	0xbe255097	-0.16144024
26	0xbdf6ab17	-0.120443515
27	0x3e430632	0.19045332
28	0x3e5a76f6	0.21334442
29	0x3e943d35	0.28952947
30	0xbc026932	-0.007959651
31	0xbde60859	-0.11232061
32	0x3cfc2be1	0.030782642
33	0xbd1936e9	-0.037405882
34	0xbde63ca8	-0.11242038
35	0x3c50f7fb	0.012754436
36	0xbde8d404	-0.11368564
37	0xbdd47b75	-0.1037511
38	0xbd7cf6f9	-0.06175897
39	0x3d30e090	0.04318291
40	0xbe99dddd	-0.3005208
41	0x3f528623	0.82235926
42	0x3e2ac21e	0.16675612
43	0x3d42462e	0.04743021
44	0x3ee4aace	0.44661564
45	0xbd620ee2	-0.055189975
46	0xbef3da78	-0.47627616
47	0x3ed391f1	0.41322282
48	0xbe547022	-0.207459
49	0xbe5dfbe6	-0.21678123
50	0x3e5b23fb	0.21400444
51	0x3edbe27b	0.42946228
52	0x3de20c9c	0.11037561
53	0x3af0daa6	0.0018375709
54	0x3ba1115d	0.0049154
55	0xbe76ff21	-0.24120761
56	0xbe5abe91	-0.21361758
57	0xbe0ec739	-0.13943185
58	0xbe0e75f3	-0.13912182
59	0xbde2686e	-0.11055075
60	0xbe28ebb3	-0.16496162
61	0x3df80dca	0.12112005
62	0xbf1fb974	-0.62392354
63	0xbd217c53	-0.039425205
64	0xbed0432a	-0.40676242
65	0xbf22e38e	-0.6362847
66	0x3c1a67cb	0.00942416
67	0xbe60691a	-0.21915093
68	0xbda66b43	-0.08125927
69	0xbd87fa4d	-0.06639538
70	0xbf1b97b0	-0.6077833
71	0xbe2ff0cf	-0.17181705
72	0xbe7514db	-0.23933737
73	0xbe3fdafd	-0.18735881
74	0x3e482276	0.19544396
75	0x3e98caf9	0.29842356
76	0x3c17229d	0.009224561
77	0x3bbaeb05	0.005704286
78	0x3c259582	0.010106446
79	0xbda21069	-0.07913286
80	0xbd98e87c	-0.07466218
81	0xbdb0b9a0	-0.08629155
82	0xbbbcf002	-0.005765916
83	0x3bedd1d5	0.00725768
84	0x3db21c40	0.086967945
85	0xbda32440	-0.079658985
86	0xbb874062	-0.004127548
87	0x3e0421cd	0.12903519
88	0x3e16b8e7	0.14718972
89	0xbe48fc5f	-0.19627522
90	0x3d2037c2	0.039115675
91	0xbc894401	-0.01675606
92	0xbe48398d	-0.19553204
93	0x3df0322f	0.11728322
94	0xbd89a27e	-0.06720446
95	0x3e30c774	0.17263585
96	0xbda7076b	-0.08155712
97	0xbcba90d6	-0.022774141
98	0x3e3aeb17	0.18253742
99	0x3e34abca	0.17643657
100	0x3cd91cb6	0.026502948
101	0x3e3adddc	0.18248695
102	0x3df7eee6	0.12106113
103	0xbd42181a	-0.047386266
104	0xbd8f0ccf	-0.06984865
105	0x3dd1f35e	0.10251497
106	0x3cc2d4d5	0.023783127
107	0xbda2e06e	-0.07952963
108	0x3ed8511f	0.4224939
109	0x3cea281b	0.028583577
110	0x3dc140f8	0.0943622
111	0x3e961ed6	0.293204
112	0xbbebc362	-0.0071949223
113	0x3df1b4e0	0.11802077
114	0x3d97055c	0.07374069
115	0x3e3ca4b0	0.18422198
116	0x3cc25340	0.023721337
117	0x3e12d195	0.14337762
118	0x3c9510d6	0.018196505
119	0x3c9e5de6	0.019331884
120	0x3de61d57	0.11236065
121	0x3e101731	0.14071347
122	0x3e2ec197	0.17066036
123	0x3d3ed8d6	0.04659351
124	0x3cd1c48d	0.025606418
125	0x3e17bdfd	0.14818569
126	0xbd85ede2	-0.06539513
127	0x3d73fdc8	0.059568197
128	0x3dd4864a	0.10377176
129	0x3d425092	0.04744012
130	0x3be5cd8f	0.00701303
131	0x3e9cedc1	0.30650142
132	0x3d73d1c1	0.05952621
133	0x3ec6a8e4	0.38800728
134	0x3cf4ebce	0.029897597
135	0x3e9f50e0	0.3111639
136	0x3e46defd	0.19421001
137	0x3d40f449	0.04710797
138	0x3e539baa	0.2066485
139	0x3d390b7f	0.04517698
140	0x3c0328b2	0.008005308
141	0x3e956225	0.2917644
142	0x3d1219db	0.03566919
143	0x3e2bb00f	0.1676638

encode_conv1.bias f4 [4]
0	0xbea0f80a	-0.3143924
1	0x3ed24dad	0.41074887
2	0xbf257295	-0.64627963
3	0xbe69673b	-0.22793286

encode_conv2.weight f4 [4, 4, 3]
0	0xbe9acf8d	-0.30236474
1	0xbf26f77d	-0.6522139
2	0xbd8f9823	-0.0701144
3	0x3f0e760d	0.5564888
4	0xbeea5910	-0.45771074
5	0x3f113755	0.56725055
6	0x3ef7f3da	0.4842823
7	0xbf2431bd	-0.64138395
8	0xbea6efff	-0.32604977
9	0x3d6ac486	0.057316326
10	0xbddfc0c5	-0.1092544
11	0xbea86605	-0.32890335
12	0x3f0196c2	0.50620663
13	0x3ec3be2c	0.38231027
14	0x3db828e7	0.089921765
15	0xbd371aa7	-0.044703152
16	0xbe57d16e	-0.21075985
17	0xbe03b0fa	-0.1286048
18	0x3f076c69	0.52899796
19	0x3e06f34f	0.13178752
20	0x3e34c251	0.17652251
21	0x3aeda347	0.0018130325
22	0x3db64574	0.08899966
23	0xbe84cae4	-0.25936043
24	0x3ebec250	0.37257624
25	0x3f2b5099	0.6691986
26	0x3e20760c	0.15670031
27	0x3f076eb1	0.52903277
28	0x3eb64428	0.35598874
29	0xbee74758	-0.45171618
30	0xbf1e38b9	-0.618053
31	0xbe0a739c	-0.13520664
32	0xbe20c119	-0.15698661
33	0xbdbfcb49	-0.093649454
34	0x3b72a481	0.0037024322
35	0xbeeebdfd	-0.46629325
36	0x3e4c0d9a	0.19927064
37	0xbe03d0d2	-0.12872627
38	0xbd1a5e9d	-0.037687887
39	0xbe744012	-0.23852566
40	0xbfcf1a93	-1.6179985
41	0x3f35c5e9	0.7100511
42	0x3efb26f3	0.49053153
43	0xbd077987	-0.033074882
44	0xbeff3fd5	-0.49853387
45	0x3ec9e83d	0.39434996
46	0x3ea55414	0.3229071
47	0x3ec35cba	0.38156682

encode_conv2.bias f4 [4]
0	0x3d8c8fb0	0.06863344
1	0x3dccc9b2	0.09999408
2	0x3e43c231	0.19117047
3	0x3d7def9b	0.061996084

encode_conv3.weight f4 [8, 4, 3]
0	0xbe1d2602	-0.1534653
1	0xbe36ac73	-0.17839222
2	0xbe2bdf93	-0.16784506
3	0xbdf80388	-0.121100485
4	0x3e73c0b7	0.23803984
5	0xbe262aa3	-0.16227202
6	0x3e57f8a3	0.21090941
7	0xbe110c25	-0.14164789
8	0x3e91f220	0.2850504
9	0xbe1fca41	-0.15604497
10	0xbea09757	-0.31365463
11	0xbea557b0	-0.32293463
12	0xbdc45ed6	-0.09588401
13	0xbe590b64	-0.21195751
14	0xbe028391	-0.12745501
15	0xbf5ac708	-0.8545995
16	0x3d1c070f	0.03809267
17	0xbf509ee8	-0.8149247
18	0xbdaa13cb	-0.083045565
19	0xbecf4d4d	-0.40488663
20	0xbe9ef1cd	-0.31043854
21	0xbe396009	-0.18103041
22	0x3e359b02	0.17734912
23	0x3d4227f2	0.047401376
24	0xbdcf705e	-0.10128854
25	0xbd7e50ff	-0.062088963
26	0x3e7916d2	0.24325112
27	0xbe68dee9	-0.22741283
28	0x3ed70921	0.41999152
29	0x3eae73ee	0.34072822
30	0xbdab748b	-0.08371838
31	0xbe1c74c9	-0.15278925
32	0x3ecbbee4	0.39794075
33	0x3e5934de	0.21211573
34	0x3d6824f3	0.056675863
35	0xbd835033	-0.06411781
36	0xbe5dc999	-0.21658935
37	0xbea597a3	-0.32342252
38	0x3e3907ee	0.18069431
39	0x3dfda704	0.12385371
40	0xbd244141	-0.040101293
41	0x3e5c2660	0.21499014
42	0x3ec2fc20	0.3808298
43	0xbe8b6328	-0.27224088
44	0x3e9a22f5	0.30104795
45	0x3cbc9f2a	0.023025114
46	0x3e61b6c2	0.22042373
47	0x3dbe690d	0.092973806
48	0xbd2a1510	-0.041523993
49	0x3e95373d	0.29143706
50	0x3d9b889e	0.07594417
51	0xbebf2f32	-0.37340695
52	0x3eaad9d4	0.33369315
53	0xbf783183	-0.9695055
54	0xbe89c403	-0.26907358
55	0xbf0757e3	-0.5286848
56	0x3e662efe	0.22478864
57	0xbe795277	-0.24347864
58	0x3f03f2c8	0.5154233
59	0xbe1c76c3	-0.15279679
60	0xbeafeea5	-0.3436176
61	0xbe8f6a89	-0.28010967
62	0xbe809f59	-0.25121573
63	0xbf03ec60	-0.51532555
64	0x3e861fdf	0.2619619
65	0x3e4b8d23	0.19878058
66	0xbe1db4e8	-0.15401042
67	0x3eb6a6f1	0.3567424
68	0xbd672090	-0.05642754
69	0xbe7fcf3c	-0.24981397
70	0xbd73d36b	-0.059527796
71	0xbda0688e	-0.07832442
72	0xbd853a60	-0.06505275
73	0xbd8487c4	-0.06471208
74	0xbd351a59	-0.04421458
75	0x3d78bd69	0.06072751
76	0xbec9151a	-0.39273912
77	0xbe94983b	-0.29022393
78	0x3ea59c2d	0.32345715
79	0x3dad74ae	0.084695205
80	0xbcb0f68a	-0.021601934
81	0x3ba536f5	0.005041952
82	0xbebb45a1	-0.3657656
83	0xbdf6348b	-0.120217405
84	0xbe4597a4	-0.19296128
85	0xbe1c6445	-0.15272625
86	0xbe37eafd	-0.17960735
87	0xbd111061	-0.03541601
88	0x3e786eb9	0.24260987
89	0x3e735bdb	0.23765509
90	0x3e5bd225	0.21466883
91	0xbe6fd3cb	-0.23420636
92	0xbdf0a503	-0.117502235
93	0xbeb18329	-0.3467038
94	0x3d0bb63d	0.034109343
95	0x3e1f4055	0.15551884

encode_conv3.bias f4 [8]
0	0xbdd4d648	-0.103924334
1	0xbea0d8db	-0.31415448
2	0xbe4351ed	-0.19074221
3	0x3e0ee335	0.1395386
4	0xbeec08cf	-0.4610047
5	0xbe4e6641	-0.20156194
6	0xbd8afbfe	-0.06786345
7	0xbe884092	-0.26611763

encode_conv4.weight f4 [8, 8, 3]
0	0xba7c4b3a	-0.0009624247
1	0xbe5ab1c7	-0.21356879
2	0x3c959b9c	0.018262677
3	0xbc122dce	-0.0089220535
4	0x3f0d09df	0.5509319
5	0x3c83db85	0.016095886
6	0x3d4c2689	0.049841437
7	0x3e81d333	0.25356445
8	0x3ead70be	0.33875078
9	0x3e2d272d	0.16909476
10	0xbd212b7c	-0.03934811
11	0x3da275b4	0.07932606
12	0x3c934036	0.017974954
13	0x3e88b38c	0.26699483
14	0x3f23ce1d	0.6398638
15	0xbd0113a3	-0.031512868
16	0xbc700214	-0.014648933
17	0xbccc6868	-0.024952129
18	0x3dc22016	0.09478776
19	0xbe4e468b	-0.20144098
20	0x3cb43427	0.021997524
21	0xbe670779	-0.22561444
22	0x3e25fc06	0.1620942
23	0xbeb492c0	-0.3526821
24	0xbe889514	-0.26676238
25	0xbd3c78d3	-0.046013664
26	0x3dc82f25	0.09774617
27	0xbe00f487	-0.1259328
28	0x3f33baf5	0.7020715
29	0xbd3722d6	-0.044710957
30	0xbdcf9160	-0.1013515
31	0x3e8f4370	0.27981138
32	0x3d5848ab	0.052803677
33	0x3e6cb75a	0.23116818
34	0x3ca741ab	0.020417055
35	0xbd5b5805	-0.05355074
36	0x3eb8930b	0.36049685
37	0x3f29b52f	0.6629209
38	0x3e6da9d0	0.2320931
39	0xbdf35caf	-0.11882912
40	0x3ddff6f6	0.10935776
41	0xbe1bc3a9	-0.15211357
42	0x3d937965	0.072008885
43	0xbe30d8c6	-0.17270193
44	0x3ca23b98	0.019803807
45	0x3b835b46	0.0040086834
46	0xbeb90c79	-0.36142328
47	0xbe4c8c22	-0.19975331
48	0x3e08cf99	0.13360442
49	0xbde7daab	-0.113210045
50	0x3daa144d	0.08304653
51	0x3c793266	0.01520977
52	0x3ef4f910	0.4784627
53	0x3e867a2e	0.2626509
54	0x3e549bb2	0.20762518
55	0xbe2e057c	-0.1699428
56	0xbe10d868	-0.14145052
57	0x3c813c77	0.015775902
58	0x3e2864e3	0.16444735
59	0xbc5aacf8	-0.013346903
60	0x3f05a37f	0.522026
61	0x3f41cf41	0.7570687
62	0x3f0523bd	0.5200766
63	0x3c1274ae	0.008938951
64	0xbdfa09c6	-0.122088954
65	0x3e546e25	0.20745142
66	0x3e25c977	0.16190134
67	0xbe5c627e	-0.21521947
68	0x3dea9e84	0.11456016
69	0xbe6179fd	-0.22019191
70	0xbd8572bf	-0.06516027
71	0x3d7dcfd7	0.06196579
72	0xbdccfbd2	-0.100089684
73	0x3d3b88d9	0.045784805
74	0x3dd64edf	0.10464262
75	0xbbdd63c7	-0.006756279
76	0xbeef8698	-0.46782374
77	0xbf0540df	-0.5205211
78	0x3d8e64b3	0.069528006
79	0x3e4a44fb	0.19752876
80	0xbe2fce27	-0.17168485
81	0xbca0ca13	-0.019627606
82	0xbde49944	-0.111620456
83	0xbe90511c	-0.28186882
84	0xbe47943e	-0.19490144
85	0xbf127c53	-0.57220954
86	0xbf1c156e	-0.609702
87	0xbd8ff21e	-0.07028602
88	0xbe06fc4e	-0.13182184
89	0x3e3561ee	0.17713138
90	0xbd0468ca	-0.032326497
91	0x3dabf774	0.08396807
92	0x3e033cd6	0.12816176
93	0xbe0385fc	-0.1284408
94	0xbda5bcef	-0.08092677
95	0xbd693ee3	-0.05694474
96	0xbdc4640e	-0.095893964
97	0xbdd9f9c2	-0.10643341
98	0xbe71b64a	-0.23604694
99	0x3c71292e	0.014719291
100	0xbdebe4ab	-0.11518224
101	0xbe336300	-0.17518234
102	0xbd08419c	-0.033265695
103	0xbe35af63	-0.17742686
104	0xbde5a2b9	-0.112126775
105	0x3d7196bd	0.058981646
106	0x3db0a6b7	0.08625548
107	0x3dc30cfd	0.09523962
108	0xbeaf15d9	-0.34196356
109	0x3f068e0d	0.525605
110	0x3ec953a1	0.39321616
111	0xbdf272e2	-0.118383184
112	0xbd223d4a	-0.03960923
113	0xbe3fdbe9	-0.18736233
114	0x3ddf63db	0.10907718
115	0xbd092ae7	-0.03348818
116	0xbd162010	-0.03665167
117	0xbd3bb4db	-0.045826774
118	0xbe0be1d1	-0.13660361
119	0xbe90b1b0	-0.28260565
120	0xbe574478	-0.21022213
121	0x3d971137	0.0737633
122	0xbe247aa7	-0.16062413
123	0x3dfe7795	0.12425152
124	0xbec3f488	-0.382725
125	0x3dd1426c	0.10217747
126	0xbc23854d	-0.009980512
127	0xbc46a456	-0.012124142
128	0x3d320a47	0.043466832
129	0xbd05e774	-0.032691434
130	0xbd23d746	-0.040000223
131	0x3d88a077	0.06671231
132	0xbd9568d2	-0.072953835
133	0xbf678e18	-0.9045119
134	0x3f45a02a	0.77197516
135	0xbc48e04e	-0.01226051
136	0xbe80498c	-0.25056112
137	0xbe826d4c	-0.25474012
138	0xbe1c69f7	-0.15274797
139	0xbd4eb0d2	-0.050461598
140	0xbe83f494	-0.25772536
141	0xbe2b809b	-0.16748278
142	0xbe4f466e	-0.2024171
143	0xbd8ba25b	-0.06818076
144	0x3d57a83a	0.052650668
145	0xbd0f3b87	-0.03496888
146	0xbe52b399	-0.20576324
147	0xbe8779b8	-0.26460052
148	0xbe4bdb6e	-0.19907925
149	0x3cb9f19f	0.022698222
150	0x3e278d3f	0.16362475
151	0x3bf13890	0.007361479
152	0xbcbb7b38	-0.022885904
153	0x3dd30b21	0.10304857
154	0xbde9754b	-0.11399325
155	0x3e1fc1f8	0.15601337
156	0x3ebec4d9	0.37259558
157	0x3d23066c	0.039801046
158	0x3dfa160d	0.12211237
159	0x3e30b359	0.17255916
160	0x3d74c3d3	0.059757065
161	0x3e13ea51	0.14444853
162	0xbd6e4fe5	-0.058181662
163	0xbce82559	-0.028338121
164	0x3e332577	0.1749476
165	0xbdc33830	-0.09532201
166	0xbd9949ff	-0.07484817
167	0xbd8da813	-0.06916823
168	0x3df646fc	0.12025258
169	0x3d3755da	0.04475961
170	0xbe3ce451	-0.18446471
171	0xbe83bc1a	-0.25729448
172	0x3eb7790f	0.35834548
173	0x3f08a2d4	0.53373456
174	0x3e235119	0.15948905
175	0x3d4435b5	0.04790278
176	0x3e400b84	0.18754393
177	0xbd73db7e	-0.059535496
178	0x3e573401	0.21015932
179	0x3d80074d	0.062513925
180	0x3e1b5a1f	0.15171097
181	0x3e9ecbbd	0.31014815
182	0x3f4257bf	0.7591514
183	0x3d097fb4	0.033569053
184	0xbe1ae1d8	-0.15125215
185	0xbe19a82d	-0.1500556
186	0xbd10cbb4	-0.035350516
187	0xbcdcc80b	-0.026950857
188	0xbe440b55	-0.19144948
189	0x3d07f944	0.033196703
190	0xbdec59cc	-0.11540565
191	0x3dc718e5	0.09721545

encode_conv4.bias f4 [8]
0	0xbd3d1b31	-0.04616851
1	0xbdcfda7f	-0.10149097
2	0xbe1e606b	-0.15466468
3	0x3e3d5a41	0.1849146
4	0x3de5e47f	0.11225223
5	0x3e3527e6	0.17691001
6	0x3e0003fc	0.1250152
7	0xbe5f1b90	-0.21787858

encode_conv5.weight f4 [16, 8, 3]
0	0x3b3071c0	0.002692327
1	0xbe25d48b	-0.1619436
2	0xbe4caba5	-0.19987352
3	0x3e24c37c	0.16090196
4	0x3bf4d040	0.0074711144
5	0x3d84fb5c	0.064932555
6	0xbe47fc0e	-0.19529745
7	0xbd8be060	-0.068299055
8	0x3e31e6ac	0.1737315
9	0xbe0c5341	-0.13703634
10	0xbe317ef9	-0.17333592
11	0x3e1d462c	0.153588
12	0xbe180d74	-0.14848882
13	0xbc862540	-0.016375184
14	0x3c5dd970	0.013540611
15	0x3db1f720	0.086897135
16	0xbc322ba0	-0.010874659
17	0xbd969a86	-0.07353692
18	0xbe17c25b	-0.14820234
19	0x3d1073e0	0.035266757
20	0xbe0394fa	-0.12849799
21	0x3dcc9f4c	0.09991321
22	0xbe10f32a	-0.1415526
23	0x3e37acde	0.17937037
24	0x38c6a800	9.472668e-05
25	0x3d768380	0.060184002
26	0x3e3e52b4	0.18586236
27	0x3de0ad4c	0.10970554
28	0x3dd35578	0.10319036
29	0xbd1afdac	-0.037839577
30	0x3bf1f540	0.0073839724
31	0x3e39cc34	0.18144304
32	0xbe487319	-0.19575156
33	0xbd1cd308	-0.038287193
34	0x3df9caa8	0.12196857
35	0x3e016fea	0.12640348
36	0xbc7db350	-0.015484646
37	0xbe2ff934	-0.17184907
38	0x3e071162	0.13190225
39	0x3e4cfa82	0.20017436
40	0x3d526c10	0.051372588
41	0xbdb5bd9c	-0.08874056
42	0x3e29391e	0.16525695
43	0xbe1391ce	-0.14411089
44	0x3dc7f2f0	0.097631335
45	0x3e3ee3d6	0.186416
46	0xbe1cc3f6	-0.15309128
47	0xbc836f28	-0.016044214
48	0x3e1a4a46	0.15067396
49	0xbe3acecb	-0.18242948
50	0xbe497e85	-0.1967717
51	0x3defe9bc	0.11714503
52	0x3e0dba54	0.1384061
53	0x3df48470	0.11939323
54	0x3dfb0274	0.12256327
55	0xbdaf990d	-0.08574114
56	0x3e4b32ca	0.19843593
57	0xbe00169e	-0.12508628
58	0xbe05dd90	-0.130728
59	0x3d6ec790	0.058295786
60	0x3c5bedc0	0.013423383
61	0x3ca775f0	0.02044198
62	0xbe39e855	-0.18155034
63	0xbddd001f	-0.10791039
64	0xbdeda0e3	-0.11602952
65	0x3d982184	0.074282676
66	0x3e3185c0	0.17336178
67	0xbd5a1718	-0.05324468
68	0x3db02604	0.08601001
69	0x3dab8f38	0.08376926
70	0x3d91e5e4	0.07123926
71	0xbdc5551b	-0.09635373
72	0x3de9ff68	0.11425668
73	0x3d6a74f0	0.057240427
74	0xbdb34a12	-0.08754362
75	0x3e50f2bc	0.20405096
76	0x3e38fd4e	0.18065378
77	0xbccac368	-0.02475138
78	0x3c054ba0	0.008135706
79	0x3e1428c4	0.14468676
80	0xbe25325a	-0.16132489
81	0xbe3a966c	-0.18221444
82	0xbca5e838	-0.020252332
83	0x3d596260	0.053072333
84	0xbe25f30f	-0.16206001
85	0xbde1aee8	-0.11019689
86	0x3e3f7aae	0.18699142
87	0x3d05084c	0.032478616
88	0xbe3c175f	-0.1836829
89	0xbcf6b928	-0.030117586
90	0xbc0f43a0	-0.00874415
91	0x3d1e9c54	0.038723305
92	0xbe3f35e4	-0.18672901
93	0xbd38c638	-0.04511091
94	0xbe457f21	-0.19286777
95	0xbb2e2880	-0.0026574433
96	0x3dd68704	0.10474971
97	0x3e3094e2	0.17244294
98	0xbd35467c	-0.044256672
99	0xbd6b435c	-0.057437286
100	0xbceeda60	-0.029156864
101	0xbc59ae30	-0.013286158
102	0xbe3d8b9a	-0.18510285
103	0xbe29ad17	-0.16569935
104	0x3e1ed79c	0.15511936
105	0xbe2b0414	-0.16700774
106	0xbdb53d34	-0.08849564
107	0x3e2d0456	0.16896185
108	0xbe04357e	-0.1291103
109	0xbe1ed225	-0.15509851
110	0xbddaf7c9	-0.106917925
111	0x3e236d68	0.15959704
112	0xbd8d1450	-0.0688864
113	0xbba5c220	-0.005058542
114	0xbdaaff09	-0.08349425
115	0x3d3eed68	0.046613127
116	0x3c68c940	0.014208138
117	0xbcb86d50	-0.022513062
118	0xbcc8ce88	-0.024512544
119	0xbe356566	-0.17714462
120	0x3e184c48	0.14872849
121	0xbd88751e	-0.06662963
122	0x3d706f88	0.058700114
123	0xbdaf15fd	-0.08549116
124	0xbda34bbc	-0.079734296
125	0x3dd68b94	0.10475841
126	0xbcc8d740	-0.024516702
127	0xbe23919d	-0.15973516
128	0x3e00c8da	0.12576619
129	0xbe391516	-0.1807445
130	0x3d385614	0.045003965
131	0x3e08044e	0.13282892
132	0xbdb7cc57	-0.089745216
133	0x3e09fb46	0.1347476
134	0xbe1d2888	-0.15347493
135	0xbe1b5900	-0.1517067
136	0x3dbcc958	0.09218091
137	0x3e1d830a	0.15382019
138	0x3dfd95d0	0.1238209
139	0xbe1c78e2	-0.15280488
140	0xbe1318a5	-0.1436487
141	0xbe37ab8f	-0.17936538
142	0x3d3471d0	0.044053853
143	0x3d664468	0.05621758
144	0xbdc09e2b	-0.09405168
145	0x3cc67578	0.024225935
146	0xbd558760	-0.052131057
147	0x3e38ae10	0.1803515
148	0x3df4f9a8	0.11961681
149	0x3dc8e358	0.098089874
150	0x3bb2ece0	0.0054603666
151	0x3dc75580	0.09733105
152	0xbe45c461	-0.19313194
153	0x3d849c28	0.06475097
154	0x3e143c54	0.14476138
155	0xbd8f3366	-0.06992225
156	0x3df5398c	0.11973867
157	0xbe48856c	-0.19582146
158	0xbcd5b0c0	-0.026085258
159	0xbd06bd7c	-0.03289555
160	0x3c59f590	0.013303176
161	0xbe01a258	-0.12659585
162	0xbe1cca82	-0.15311626
163	0x3d02bb60	0.031916976
164	0x3dbbb1fc	0.09164807
165	0xbdb059e5	-0.08610896
166	0x3dda6934	0.10664597
167	0x3d4f4740	0.05060506
168	0x3e0a087a	0.13479796
169	0xbdb474c1	-0.088113315
170	0x3d199fe4	0.037506
171	0xbdbe88ae	-0.09303413
172	0x3dba5264	0.09097746
173	0x3e2abab2	0.16672781
174	0x3d93df5c	0.07220337
175	0x3e44a07a	0.19201842
176	0x3c296490	0.010338917
177	0x3d713430	0.05888766
178	0x3dc81da4	0.097712785
179	0x3e2fc3ca	0.17164531
180	0xbb2fe8c0	-0.002684161
181	0x3d1cab30	0.038249195
182	0x3e23e926	0.16006908
183	0xbe2ee9dc	-0.17081398
184	0x3d334f8c	0.043777034
185	0x3d192308	0.037386924
186	0x3d91a7e0	0.07112098
187	0x3d396544	0.04526259
188	0xbe2a2455	-0.16615422
189	0xbd662fe8	-0.05619803
190	0x3c472160	0.012153953
191	0xbd3e18bc	-0.046410307
192	0xbe488112	-0.19580486
193	0xbe1fe48b	-0.15614526
194	0x3da04a90	0.07826722
195	0x3e102e28	0.14080107
196	0x3dc98b64	0.0984104
197	0xbe35fb71	-0.17771699
198	0xbdf999ea	-0.1218756
199	0xbcdb2428	-0.02675064
200	0xbe2a2ead	-0.16619368
201	0xbd9b5430	-0.07584417
202	0xbe17a4c7	-0.14808951
203	0x3dbf94ac	0.09354529
204	0xbe286be2	-0.16447404
205	0xbe1fe634	-0.1561516
206	0x3e3100b2	0.17285421
207	0x3e3c699a	0.18399659
208	0xbc85efd8	-0.016349718
209	0x3d9f10cc	0.077668756
210	0xbd02c8b4	-0.031929687
211	0xbd3b05c8	-0.04565981
212	0x3d57df08	0.052702934
213	0xbdcf572e	-0.1012405
214	0x3ca89408	0.0205784
215	0xbd81c528	-0.06336433
216	0xbe24a158	-0.16077173
217	0xbe273a48	-0.16330826
218	0x3e216dea	0.15764585
219	0x3d1f2828	0.038856655
220	0x3e2d419c	0.16919559
221	0xbd75ddc4	-0.060025945
222	0x3dcd2578	0.10016912
223	0x3e3ba61a	0.18325081
224	0xbbafada0	-0.005361274
225	0xbe1f63ce	-0.15565416
226	0x3d94bfa4	0.07263115
227	0x3d0790f4	0.033097222
228	0xbdcc85b4	-0.09986439
229	0xbe4aafa8	-0.1979357
230	0xbcd503d0	-0.026002795
231	0x3c4e1ed0	0.012580588
232	0xbe3b3af9	-0.18284215
233	0xbc9c85b0	-0.019106716
234	0xbd1a2b54	-0.037638977
235	0x3e26c000	0.1628418
236	0x3e268200	0.16260529
237	0x3e45611a	0.19275323
238	0x3e214b7c	0.15751451
239	0x3d7965f0	0.06088823
240	0x3c63b770	0.013898715
241	0x3df4d3fc	0.11954495
242	0xbded49ba	-0.11586328
243	0xbd327f5c	-0.04357849
244	0x3da14cf8	0.07876009
245	0xbc8dfec0	-0.017333388
246	0x3e24dbd2	0.1609948
247	0xbc682740	-0.014169514
248	0xbcd45948	-0.025921479
249	0xbdb443c3	-0.08801987
250	0x3d074dc8	0.033033162
251	0x3bac9b20	0.005267516
252	0xbe3fc967	-0.18729173
253	0xbda8bae4	-0.082387716
254	0xbd9cd67e	-0.07658099
255	0x3e0c96ac	0.13729352

encode_conv5.bias f4 [16]
0	0xbe054736	-0.13015446
1	0x3e1a64fc	0.15077585
2	0xbdb12759	-0.08650083
3	0x3d651b60	0.05593431
4	0x3e3e8b2a	0.18607774
5	0x3d9059e4	0.07048395
6	0xbdca048d	-0.09864149
7	0x3e4873fe	0.19575498
8	0x3e1e4264	0.15455014
9	0xbc8bf098	-0.017082497
10	0x3b554e80	0.003254801
11	0x3e3eca6e	0.18631908
12	0x3e2fdcd6	0.17174086
13	0x3c922a80	0.017842531
14	0xbe2c49b3	-0.16824989
15	0xbde7d706	-0.11320309

encode_conv6.weight f4 [16, 16, 3]
0	0x3d8c7f1c	0.06860182
1	0x3c3a7510	0.011380449
2	0x3d9d0854	0.07667604
3	0xbd38d2a6	-0.045122765
4	0xbd2eddd8	-0.042692035
5	0x3dda2dbc	0.106532544
6	0xbe0bd17e	-0.13654134
7	0x3dbbcf50	0.09170401
8	0xbdf4fa8e	-0.11961852
9	0xbd8ecb3f	-0.0697236
10	0xbd664de0	-0.05622661
11	0xbdc6199a	-0.09672852
12	0xbda26e00	-0.07931137
13	0xbe0dfe92	-0.13866642
14	0x3d8ab0b0	0.06771982
15	0xbe05ddba	-0.13072863
16	0xbe08c56d	-0.13356562
17	0x3b323d40	0.0027197152
18	0xbd9b1da8	-0.07574016
19	0xbccc9278	-0.024972185
20	0x3c387060	0.011257261
21	0x3dec610c	0.11541948
22	0xbcc9622c	-0.024582945
23	0x3c558f50	0.013034657
24	0xbe0d2684	-0.13784224
25	0x3e107ba0	0.14109659
26	0x3e0e3e84	0.13891035
27	0xbdff986c	-0.12480244
28	0xbda3808d	-0.079835035
29	0x3dcda7cc	0.1004177
30	0xbd12eec0	-0.03587222
31	0xbd010172	-0.03149552
32	0xbccfeab8	-0.025380477
33	0x3dc73326	0.09726553
34	0xbe04d4b3	-0.12971763
35	0xbd57f4c4	-0.05272366
36	0xbdcfe462	-0.101509824
37	0xbde50906	-0.11183362
38	0x3dcfcb42	0.1014619
39	0xbd0403e2	-0.032230265
40	0xbcf1d0b0	-0.029518455
41	0x3d9955f4	0.074870974
42	0xbd90f3a3	-0.0707772
43	0x3d80ec24	0.0629504
44	0xbc8289c8	-0.01593484
45	0x3cd3b948	0.025845185
46	0xbdd638ba	-0.104600385
47	0xbdf36d79	-0.118861146
48	0x3dc80c0c	0.09767923
49	0x3dcb7ed8	0.09936303
50	0xbcb4ff00	-0.02209425
51	0x3d855874	0.06511012
52	0x3ca64fc0	0.0203017
53	0x3e06dfda	0.1317133
54	0x3dedc728	0.11610252
55	0xbd44ea14	-0.048074797
56	0xbaefea00	-0.001830399
57	0xbd13984a	-0.036033906
58	0xbce1c74c	-0.027560852
59	0xbe07f7b2	-0.13278082
60	0xbdcd52f4	-0.10025588
61	0xbdebde36	-0.11516993
62	0xbde27b2e	-0.11058651
63	0x3ddc3d48	0.10753876
64	0xbd0bc35e	-0.034121864
65	0xbd124eea	-0.03571979
66	0x3d2d5940	0.042321444
67	0x3e0544ae	0.1301448
68	0x3cdafd30	0.026732057
69	0xbd81627a	-0.06317611
70	0x3db07934	0.08616868
71	0xbdb4111b	-0.08792325
72	0x3d1580b8	0.03649971
73	0x3c8555a0	0.01627618
74	0xbdfd2d70	-0.12362182
75	0xbe0f4e2c	-0.13994664
76	0x3cdb2f38	0.026755914
77	0xbce36bf8	-0.027761444
78	0xbd70cfcc	-0.05879192
79	0xbdf7e95a	-0.12105055
80	0x3db92154	0.0903956
81	0xbdd92e51	-0.10604537
82	0x3d1a7ad0	0.03771478
83	0xbdd2147a	-0.10257812
84	0x3da85780	0.08219814
85	0x3bc04700	0.005867839
86	0x3d56d0c0	0.052445173
87	0x3df5e4cc	0.1200653
88	0xbd5105c8	-0.051030904
89	0x3db85c34	0.09001961
90	0xbcde62d8	-0.027146742
91	0x3dea6260	0.11444545
92	0xbc0fe770	-0.008783206
93	0x3e09f032	0.13470533
94	0xbdab8c50	-0.08376372
95	0x3d22eae8	0.039774805
96	0x3dcb16de	0.09916471
97	0x3dd7f130	0.1054405
98	0xbd8db011	-0.069183476
99	0x3d9e81ea	0.07739623
100	0xbca7fed4	-0.020507254
101	0x3e091ad4	0.1338914
102	0x3e0757d4	0.13217098
103	0xbd6e63c4	-0.058200613
104	0x3acfad80	0.0015844554
105	0x3bab3aa0	0.0052254945
106	0x3da5a1b4	0.08087483
107	0x3da6823e	0.081303105
108	0x3d035668	0.032064825
109	0x3ca3e3c8	0.020006076
110	0x3c63ac50	0.013896063
111	0xbd522ac0	-0.0513103
112	0x3d9ff8e4	0.07811144
113	0x3cbac368	0.022798255
114	0x3c3935d0	0.011304334
115	0xbdfc1ff4	-0.12310782
116	0x3da3e8ce	0.08003388
117	0xbbada4a0	-0.005299166
118	0x3d3d5330	0.046221912
119	0xbd8b48c1	-0.06800986
120	0x3d95ce30	0.07314718
121	0x3dd7e488	0.10541636
122	0x3df3a09c	0.11895868
123	0xbe118b0f	-0.14213203
124	0xbd2e02ac	-0.042483017
125	0x3c421f40	0.011848271
126	0x3dd4b214	0.10385528
127	0xbd1fc366	-0.039004706
128	0x3e0a8506	0.13527307
129	0xbe0c9714	-0.13729507
130	0x3e09445c	0.13404983
131	0xbd12fa62	-0.035883315
132	0x3da9cf86	0.08291535
133	0x3df53334	0.11972657
134	0xbd936426	-0.07196836
135	0xbde02650	-0.109448075
136	0x3df7b8cc	0.12095794
137	0xbc248810	-0.010042205
138	0x3c911240	0.017708898
139	0xbc9cd798	-0.019145772
140	0x3df47700	0.1193676
141	0xbde177a8	-0.11009151
142	0xbd96c43a	-0.07361646
143	0x3d342950	0.04398471
144	0xbde3fd80	-0.11132336
145	0x3e036214	0.12830383
146	0x3dbe0738	0.092787206
147	0xbdca4c2f	-0.09877812
148	0xbd068294	-0.032839373
149	0x3d8bf34c	0.068335146
150	0x3d810754	0.06300226
151	0xbd77d7de	-0.0605086
152	0xbe1071b7	-0.14105879
153	0x3d62eaec	0.05539982
154	0xbda75c2c	-0.08171877
155	0xbdcf4c5e	-0.10121988
156	0x3cd1dae8	0.025617078
157	0xbe0e2745	-0.13882168
158	0x3d97ad64	0.074061185
159	0xbdc603e7	-0.09668713
160	0x3cceb840	0.025234342
161	0xbd5d4968	-0.054025084
162	0x3d63125c	0.05543743
163	0x3db301ca	0.087405756
164	0xbd101bd0	-0.035182774
165	0xbd802a8e	-0.06258117
166	0x3d916796	0.070998356
167	0xbc33b470	-0.010968313
168	0xbe053573	-0.1300867
169	0x3e0a8a3e	0.13529298
170	0xbdb75fae	-0.08953796
171	0xbd93fd58	-0.07226056
172	0xbd782eba	-0.060591437
173	0x3d86b846	0.06578116
174	0xbd80c029	-0.06286652
175	0xbd6b8d66	-0.057507895
176	0xbd134568	-0.035954863
177	0x3d5c4824	0.053779736
178	0x3d03d904	0.032189384
179	0x3df03868	0.11729509
180	0x3e0d81c0	0.13819027
181	0x3c0f3df0	0.008742794
182	0xbd44a076	-0.04800459
183	0xbd916dc1	-0.07101012
184	0x3cb7c020	0.02243048
185	0xbdd152bf	-0.10220861
186	0xbdc5c486	-0.096566245
187	0xbda4325b	-0.08017417
188	0x3d273df0	0.040830553
189	0xbdb50094	-0.08838001
190	0xbdf87a98	-0.12132758
191	0xbd7a3d8a	-0.061093844
192	0xbe002c3e	-0.12516877
193	0x3d8be130	0.068300605
194	0x3d995358	0.074866
195	0xbd82a648	-0.06379372
196	0xbdb55dbc	-0.08855769
197	0x3e0f7c8a	0.14012352
198	0xbddb9399	-0.107215114
199	0xbe1112a2	-0.14167264
200	0x3e037a18	0.12839544
201	0xbe0b82a2	-0.13624051
202	0x3d1541cc	0.036439702
203	0xbd67ada8	-0.056562096
204	0xbd06c95c	-0.032906875
205	0x3e054830	0.13015819
206	0x3d06f0b0	0.03294438
207	0x3de445ec	0.11146149
208	0xbd86fffd	-0.06591795
209	0x3b9baaa0	0.0047505647
210	0xbd10a940	-0.03531766
211	0xbcfda970	-0.030964583
212	0x3dd7f448	0.1054464
213	0xbe0fd195	-0.14044793
214	0xbd75b5b8	-0.059987754
215	0x3e0cef30	0.13763118
216	0xbe0d61b3	-0.138068
217	0x3db0e37a	0.08637138
218	0x3e08eea6	0.13372287
219	0x3d8bc812	0.0682527
220	0xbab0e280	-0.0013495237
221	0x3ca99fc0	0.020706058
222	0xbddef29c	-0.10886118
223	0x3da77cbc	0.08178088
224	0xbd5f1e4a	-0.054472245
225	0xbd7cfaa8	-0.061762482
226	0xbdaffab4	-0.0859274
227	0x3d563304	0.052294746
228	0xbdbbd58a	-0.09171589
229	0xbdb78a61	-0.089619406
230	0xbcb82fc4	-0.022483714
231	0x3da038a2	0.07823302
232	0xbd7b2894	-0.061317995
233	0xbdeec62c	-0.11658892
234	0xbde86100	-0.11346626
235	0xbddb0dc5	-0.10695986
236	0x3dcda9f6	0.10042183
237	0x3dd3085e	0.1030433
238	0xbdb500da	-0.08838053
239	0x3c965df0	0.01835534
240	0x3d94fb0c	0.07274446
241	0xbdcd3895	-0.10020558
242	0x3dae020c	0.08496484
243	0xbd7aa0f0	-0.06118864
244	0x3dd3abc2	0.103354946
245	0xbdd5f062	-0.1044624
246	0xbde93dac	-0.11388716
247	0x3de89170	0.11355865
248	0xbd6b65b6	-0.057470046
249	0x3cfa7c18	0.03057675
250	0x3dca582e	0.098801
251	0xbd8b78f2	-0.06810178
252	0x3e00d7d4	0.12582332
253	0xbdb29374	-0.08719531
254	0xbd57fefc	-0.052733406
255	0x3bb92dc0	0.005651206

encode_conv6.bias f4 [16]
0	0xbc2e0cd0	-0.010623172
1	0xbc49bad0	-0.012312606
2	0xbc940d08	-0.01807262
3	0xbdfd9826	-0.12382536
4	0xbd52f7ec	-0.051505968
5	0x3e0e64da	0.1390566
6	0xbc3552b0	-0.0110670775
7	0xbd9b6e57	-0.07589405
8	0x3d47990c	0.04872994
9	0x3d98aa92	0.07454409
10	0x3bdd8040	0.0067596734
11	0x3e04819c	0.12940067
12	0xbc801870	-0.015636653
13	0xbde84083	-0.1134043
14	0xbc6c8560	-0.014436096
15	0x3dd59b2e	0.10429989

fc1.weight f4 [200, 104]
0	0x3c8230aa	0.015892345
1	0xbc2419b9	-0.010015898
2	0xbe24b864	-0.16085964
3	0x3d15e4b9	0.03659508
4	0x3ddda0a5	0.10821656
5	0x3d9b21f5	0.07574836
6	0x3cb07b8f	0.021543292
7	0x3d871e7a	0.0659761
8	0x3c653691	0.01399006
9	0x3d1c0d94	0.038098887
10	0xbc724248	-0.0147863105
11	0xbd1440c1	-0.036194567
12	0xbbd37534	-0.0064531807
13	0xbea67faf	-0.3251929
14	0xbd55c89a	-0.05219326
15	0xbd50b29e	-0.050951593
16	0xbe331e38	-0.17491996
17	0x39fe691e	0.00048524974
18	0xbe289693	-0.1646369
19	0x3d9b33db	0.0757825
20	0x3cc17c90	0.023618966
21	0xbdc23409	-0.09482581
22	0x3d21b993	0.039483618
23	0xbd9b3923	-0.07579257
24	0xbcebeef0	-0.028800458
25	0xbcb8aa12	-0.022542033
26	0x3d18c34a	0.037295617
27	0xbd8267ee	-0.06367479
28	0xbe16ad3e	-0.14714524
29	0xbdda81de	-0.106693015
30	0xbe11384d	-0.14181633
31	0xbe2bb71f	-0.16769074
32	0x3c0e9494	0.008702416
33	0xbc4c10cf	-0.012455179
34	0xbd9d16dc	-0.07670376
35	0x3cc29b15	0.02375559
36	0x3d5d5144	0.05403258
37	0x3d094f50	0.033522904
38	0x3d2a7e68	0.041624457
39	0xbd318260	-0.043337226
40	0x3d8848da	0.0665452
41	0x3c4f22a6	0.012642538
42	0xbc92e0dc	-0.017929487
43	0x3dbbdb30	0.09172666
44	0x3db15d0c	0.086603254
45	0x3d6afcef	0.057370123
46	0x3dd09f59	0.10186643
47	0x3ba4be8d	0.0050275982
48	0xbd7c166a	-0.061544813
49	0xbcba70da	-0.02275889
50	0xbd771e71	-0.060331766
51	0xbc9a010e	-0.018799331
52	0x3c49e9db	0.012323822
53	0xbce5043f	-0.027956126
54	0x3d272772	0.040809102
55	0x3d373a83	0.044733535
56	0xbddb3c84	-0.10704902
57	0x3dbf9676	0.0935487
58	0xbdf1d7fd	-0.118087746
59	0xbd226413	-0.03964622
60	0x3ce49c09	0.027906435
61	0x3d9c662c	0.07636675
62	0xbda96f41	-0.08273173
63	0xbde8405c	-0.113404006
64	0x3da7b2af	0.08188378
65	0x3cf72e0e	0.030173328
66	0xbd42e86c	-0.047584936
67	0xbdc1dfcf	-0.09466516
68	0x3d030848	0.03199032
69	0x3d26c793	0.040717673
70	0x3c8759ba	0.016522277
71	0xbd74dfb1	-0.05978364
72	0xbc68c262	-0.014206501
73	0xbdc63dd8	-0.096797645
74	0xbe1a4f98	-0.15069425
75	0x3d666207	0.05624583
76	0xbd19dfe8	-0.03756705
77	0x3cf50c58	0.029913113
78	0xbd739b20	-0.05947411
79	0x3d9f8afd	0.07790182
80	0x3ca1c2a9	0.019746142
81	0xbdca4889	-0.09877116
82	0x3cd34367	0.025788976
83	0xbd92887b	-0.07154938
84	0xbda78341	-0.081793316
85	0xbdc8e5ff	-0.09809493
86	0x3d883f78	0.06652731
87	0x3d23fe4f	0.04003745
88	0x3a547b51	0.0008105534
89	0x3cd3232f	0.025773613
90	0xbce1d74d	-0.027568484
91	0x3d9e3b61	0.077261694
92	0xbe0e4141	-0.1389208
93	0x3d63b419	0.055591676
94	0xbcfb1666	-0.030650329
95	0xbde7d99a	-0.11320801
96	0x3d87f0fa	0.066377595
97	0x3c85ab59	0.016317056
98	0xbd81ec52	-0.06343903
99	0xbd731b44	-0.059352174
100	0xbd813dbd	-0.06310604
101	0x3d642f82	0.05570937
102	0x3c239df9	0.009986394
103	0x3dafd5c8	0.085856974
104	0x3ca1d5a0	0.019755185
105	0x3d42d5ef	0.047567304
106	0xbde866f4	-0.11347762
107	0xbcb1e3c4	-0.021715052
108	0x3d934d33	0.07192459
109	0xbc392747	-0.011300868
110	0x3d6e8b92	0.058238573
111	0x3cadc032	0.02120981
112	0xbc5d0631	-0.013490246
113	0x3daac917	0.08339136
114	0xbe042825	-0.12905939
115	0xbd548097	-0.051880445
116	0xbd9b479b	-0.07582017
117	0x3b194526	0.0023387163
118	0x3bce1632	0.006289267
119	0xbdab3a14	-0.08360687
120	0x3d33585e	0.043785445
121	0x3d9f4575	0.0777692
122	0xbd3440cd	-0.04400711
123	0xbcc17b75	-0.02361844
124	0x3da8cc01	0.08242036
125	0x3dcc81f6	0.099857256
126	0x3dc07b80	0.09398556
127	0x3d7afffd	0.061279286
128	0xbe0ff555	-0.1405843
129	0xbd85f1f1	-0.06540287
130	0xbe0d4ae8	-0.13798106
131	0xbd4a8aba	-0.049448706
132	0x3de60dfe	0.112331375
133	0x3bb2080a	0.0054330872
134	0x3d4f3d1e	0.050595395
135	0xbd6bea51	-0.05759651
136	0xbdccd2da	-0.10001154
137	0x3de2b95d	0.110705115
138	0x3d8a540b	0.06754311
139	0x3da1ee68	0.079068005
140	0xbdcfe13a	-0.101503804
141	0xbe2838d4	-0.16427928
142	0xbd82cd4f	-0.06386816
143	0x3e01f828	0.1269232
144	0x3de6f39d	0.11276934
145	0xbac72024	-0.0015192074
146	0x3d9d5e90	0.07684052
147	0x3d456199	0.04818878
148	0xbc22face	-0.009947492
149	0x3dd93404	0.10605624
150	0x3dc29b94	0.095023304
151	0x3ccbbcfd	0.02487039
152	0xbd3b9dc4	-0.045804754
153	0xbd56b59a	-0.052419282
154	0x3dec3412	0.11533369
155	0x3c3c0e24	0.011477981
156	0xbdd4fe9a	-0.10400124
157	0xbda48935	-0.08033983
158	0xbdf26ea4	-0.11837509
159	0xbcbb3f74	-0.022857405
160	0xbc44ed35	-0.012019445
161	0xbe07409b	-0.13208239
162	0xbd1151d0	-0.035478413
163	0x3d091fc8	0.033477575
164	0xbd80bf19	-0.06286449
165	0x3d3b6a11	0.04575545
166	0xbdf74b04	-0.12074855
167	0xbdf15911	-0.11784566
168	0xbda38fb8	-0.079863966
169	0xbd8ec0fc	-0.069704026
170	0xbd3bee81	-0.045881752
171	0xbdac0ae9	-0.084005184
172	0xbca2a07e	-0.01985192
173	0xbdfd874f	-0.12379324
174	0x3c69e602	0.01427603
175	0xbe307fe6	-0.1723629
176	0xbdfce8a2	-0.12349059
177	0xbd9561c8	-0.07294041
178	0x3d552cbe	0.052044623
179	0x3d5832a3	0.052782666
180	0xbdd0e565	-0.102000035
181	0x3cba295c	0.0227248
182	0xbd5e1df3	-0.05422778
183	0x3d804428	0.06263
184	0xbd394939	-0.045235846
185	0xbdab0cb3	-0.083520316
186	0xbdcbc9ce	-0.099506006
187	0xbd8ce9a5	-0.06880502
188	0xbde20251	-0.11035598
189	0x3c342a02	0.010996344
190	0x3d3ca057	0.04605135
191	0xbd96bdc2	-0.07360412
192	0x3cfff721	0.03124577
193	0xbda0b7b8	-0.078475416
194	0xbd49b03c	-0.049240336
195	0x3d650449	0.05591229
196	0xbd875eb2	-0.066098586
197	0xbb8ee623	-0.0043609305
198	0xbda154e1	-0.078775175
199	0xbbbda8dc	-0.005787952
200	0xbcff6521	-0.031176152
201	0xbd70f0f3	-0.058823537
202	0x3df52773	0.11970415
203	0xbd9587e4	-0.0730131
204	0x3daa2a92	0.08308901
205	0xbd2f8bfc	-0.04285811
206	0x3d25c78b	0.040473502
207	0xbdc74f84	-0.09731963
208	0x3d136f2f	0.035994705
209	0xbdf20f15	-0.11819283
210	0x3e543ced	0.20726366
211	0x3e18ef22	0.14934972
212	0xbe51b6ab	-0.20479839
213	0x3cea9c46	0.02863897
214	0xbdc43873	-0.09581079
215	0xbd7abee1	-0.061217193
216	0xbd4f6f30	-0.050643146
217	0xbd06749f	-0.032826062
218	0x3cab8292	0.020936284
219	0xbde8b8f1	-0.113634
220	0xbd9acfe7	-0.075591855
221	0x3e2b5f96	0.16735682
222	0x3cac944f	0.021066813
223	0x3d716b9d	0.05894052
224	0x3d9339e4	0.07188776
225	0xbe6f525e	-0.23371264
226	0xbda8c9c7	-0.08241611
227	0xbc020a9d	-0.007937101
228	0xbc9f0f39	-0.019416438
229	0xbc665def	-0.014060481
230	0xbdee3a52	-0.116322175
231	0xbe08642f	-0.13319467
232	0x3cbf6f3c	0.02336847
233	0xbd6ba15a	-0.057526924
234	0x3df8d6d4	0.1215035
235	0x3cec1346	0.028817784
236	0x3e19afba	0.1500844
237	0x3dbf70b8	0.09347671
238	0x3cc04715	0.023471395
239	0xbd9bef50	-0.076140046
240	0xbe0781b8	-0.13233078
241	0xbdab0506	-0.083505675
242	0x3b9ca77d	0.0047807083
243	0xbc88f621	-0.016718926
244	0xbdbe85a4	-0.09302834
245	0xbe010376	-0.12598976
246	0x3d3dccca	0.04633788
247	0xbde747d7	-0.11292999
248	0xbd846de6	-0.06466274
249	0xbb27903b	-0.0025568146
250	0x3d685736	0.056723796
251	0xbb595035	-0.003315938
252	0xbdd05f76	-0.10174458
253	0xbd528ea2	-0.051405556
254	0x3cc39ec5	0.023879418
255	0x3c482f2e	0.01221828

fc1.bias f4 [200]
0	0xbd15ed8e	-0.036603503
1	0x3d88b311	0.06674779
2	0xbc3f55fe	-0.011678217
3	0xbe0b3d5f	-0.1359763
4	0xbd8c01e2	-0.068362966
5	0x3d06aeb4	0.032881454
6	0xbe05cbbe	-0.13066003
7	0x3ccfcd3e	0.025366422
8	0x3e191174	0.14948064
9	0x3df8f227	0.12155562
10	0xbddfcc8b	-0.10927685
11	0x3d89844e	0.06714688
12	0xbd19c81f	-0.037544366
13	0x3d374dd8	0.044751972
14	0x3d76099d	0.06006776
15	0x3cb8cc67	0.022558404
16	0x3d674031	0.056457702
17	0xbd3abddd	-0.045591224
18	0xbe478437	-0.1948403
19	0x3dad58b5	0.08464185
20	0x3d757c03	0.05993272
21	0xbd3c3b87	-0.045955207
22	0x3de57347	0.11203628
23	0x3c8dcd7e	0.0173099
24	0x3dcf70b6	0.1012892
25	0xbd9cc3be	-0.07654522
26	0xbdbf6742	-0.09345867
27	0x3d97b73d	0.07407997
28	0x3cd0a18a	0.025467653
29	0xbd1a7f30	-0.03771895
30	0xbd0cf924	-0.034417287
31	0x3db34f0d	0.08755312
32	0x3de8fc64	0.11376265
33	0xbc0f77b9	-0.008756571
34	0xbd8610a1	-0.065461405
35	0xbe0c510a	-0.13702789
36	0xbde3f62a	-0.111309364
37	0xbc74bb0b	-0.014937173
38	0x3ddb6efe	0.107145295
39	0x3e072c10	0.13200402
40	0x3df574b3	0.11985149
41	0x3de534d2	0.11191715
42	0xbd0ef220	-0.034898877
43	0xbd95765f	-0.07297968
44	0xbdab5645	-0.08366064
45	0xbd850aa0	-0.06496167
46	0x3ca4e713	0.020129716
47	0x3d5a742a	0.05333344
48	0x3d49a076	0.049225293
49	0xbe18ecd1	-0.14934088
50	0x3c386072	0.011253463
51	0x3d5231e6	0.051317118
52	0x3d4296f1	0.04750723
53	0x3b047c07	0.0020215528
54	0xbdcd7616	-0.10032289
55	0x3d0da7b7	0.034583773
56	0x3e15312b	0.14569537
57	0xbd975be6	-0.07390575
58	0x3db53f48	0.088499606
59	0x3dffb126	0.1248496
60	0x3df7cb73	0.12099352
61	0x3d9c8a99	0.07643623
62	0x3dfd91d3	0.123813294
63	0xbd7fa174	-0.062409833
64	0x3cea6131	0.028610798
65	0x3dbbea5e	0.09175561
66	0xbd1e4d1a	-0.03864775
67	0xbcce3862	-0.02517337
68	0xbe0f954d	-0.14021797
69	0x3d50e64e	0.051000886
70	0xbc603c85	-0.013686304
71	0x3dde58a5	0.10856751
72	0x3c84d2f4	0.016213872
73	0xbdf345cb	-0.11878546
74	0xbdf5168c	-0.11967191
75	0xbdb87916	-0.0900747
76	0xbdec00bd	-0.11523578
77	0xbe081cbd	-0.13292213
78	0x3e03b084	0.12860304
79	0x3cccf9b4	0.025021411
80	0x3e1b1bd0	0.15147328
81	0x3d84a1d4	0.06476179
82	0xbdd10399	-0.10205764
83	0x3d2f8f87	0.042861488
84	0x3e016d7c	0.12639421
85	0xbe080aeb	-0.13285415
86	0xbe02145d	-0.1270308
87	0x3e0bb015	0.13641389
88	0x3e065947	0.13119994
89	0x3dd162cc	0.10223922
90	0x3dfb1ff3	0.12261953
91	0x3df4def0	0.119565845
92	0x3de8080a	0.11329658
93	0x3d0acfaf	0.03388947
94	0x3d9e0ec5	0.07717661
95	0xbca2f49d	-0.019892031
96	0xbd5e4ec8	-0.05427435
97	0x3c44518c	0.011982333
98	0xbdfdc048	-0.1239019
99	0x3c0214d1	0.007939533
100	0xbc5b3c7a	-0.013381118
101	0x3e0bad0e	0.13640234
102	0xbe041cc2	-0.12901595
103	0xbde8920a	-0.1135598
104	0xbdf0eb94	-0.11763683
105	0x3d851a71	0.06499184
106	0x3e15a165	0.14612348
107	0xbd02be1e	-0.03191959
108	0x3e17c41c	0.14820904
109	0xbd2207cb	-0.039558213
110	0xbd3593dd	-0.044330467
111	0x3d96ad6f	0.073572986
112	0x3dfb13be	0.12259625
113	0x3dc60c47	0.096703105
114	0x3e01b8ae	0.12668106
115	0x3d01c138	0.03167841
116	0xbe0b79b8	-0.13620651
117	0x3db6572f	0.08903348
118	0xbd9fe3e5	-0.07807139
119	0xbd190e9c	-0.03736745
120	0xbce8bddd	-0.028410846
121	0x3d7c13d3	0.061542343
122	0xbd097c0b	-0.033565562
123	0xbdfd7989	-0.123766966
124	0x3d96fe6f	0.07372748
125	0xbd50cedf	-0.050978538
126	0x3d95f22c	0.07321581
127	0x3d847add	0.06468747
128	0xbd191683	-0.037374984
129	0xbdd9419d	-0.10608218
130	0x3dcf7f9c	0.101317614
131	0x3dd97639	0.10618252
132	0x3ddcfcb0	0.10790384
133	0x3df6fcff	0.12059974
134	0x3d46022b	0.04834191
135	0x3d3035cf	0.043020066
136	0xbd9c9b30	-0.07646787
137	0xbdb231e0	-0.08700919
138	0xba96dd00	-0.0011509955
139	0xbdcdba73	-0.10045328
140	0x3df1a175	0.117983736
141	0x3dd4ea16	0.10396211
142	0x3d1a8d38	0.037732333
143	0x3d2c17eb	0.042014997
144	0x3dcae80d	0.099075414
145	0x3e075f1d	0.13219877
146	0xbde559ba	-0.111987546
147	0xbdc6574c	-0.09684619
148	0x3dc100d8	0.09423989
149	0xbda6ceb2	-0.08144893
150	0x3dc3c599	0.09559173
151	0xbe19a81f	-0.1500554
152	0xbce427df	-0.027851043
153	0xbdd084ae	-0.10181557
154	0xbd7f0328	-0.06225887
155	0x3d8473f2	0.06467427
156	0xbe018cd9	-0.12651385
157	0xbdde4f38	-0.108549535
158	0xbe0db98b	-0.1384031
159	0x3cf1851a	0.029482413
160	0xbcc3f032	-0.023918245
161	0x3dcd24dc	0.10016796
162	0x3d61c03c	0.05511497
163	0xbd95c14e	-0.073122606
164	0x3ce056a4	0.027385063
165	0xbcdc6d41	-0.026907565
166	0x3df21852	0.11821045
167	0xbd1bb98f	-0.03801876
168	0x3d97ae35	0.07406274
169	0x3dd7218b	0.10504445
170	0x3dd8f9c9	0.10594518
171	0xbe10f039	-0.14154138
172	0x3b04d995	0.002027129
173	0x3deb4a40	0.114887714
174	0x3dc971c9	0.09836156
175	0xbe160d28	-0.14653456
176	0x3d2187d7	0.039436188
177	0x3d68aafb	0.056803685
178	0x3e0c7c1c	0.13719219
179	0x3df2ffdd	0.11865208
180	0x3c40b0cf	0.011760904
181	0x3c0cb647	0.00858838
182	0x3c31a47d	0.01084244
183	0xbd81a5eb	-0.063304745
184	0xbc2b8093	-0.010467666
185	0xbd3c3f75	-0.045958955
186	0x3d8f9730	0.070112586
187	0x3d88fa11	0.066883214
188	0x3d9110dd	0.070832945
189	0xbdd0c1a0	-0.10193181
190	0x3d9e1402	0.0771866
191	0x3d75ad46	0.0599797
192	0xbe192174	-0.14954168
193	0xbd5a603c	-0.053314433
194	0x3d68cbd6	0.056835018
195	0xbd3f4dc1	-0.04670501
196	0xbdb6eb0c	-0.089315504
197	0x3df96674	0.121777445
198	0x3dae18dd	0.08500836
199	0xbd85429c	-0.06506845

fc3.weight f4 [50, 200]
0	0xbc53c5bc	-0.0129255615
1	0x3d670166	0.056397818
2	0xbcf13a85	-0.02944685
3	0xbd102462	-0.035190947
4	0xbdc1db36	-0.09465639
5	0x3bfe7e42	0.007766516
6	0x3bdafa72	0.0066826874
7	0xbb8ce61f	-0.0042998935
8	0x3d6a873f	0.057257887
9	0xbc2d730c	-0.010586511
10	0xbd13157a	-0.035909154
11	0xbd12c8c2	-0.03583599
12	0xbc28dddb	-0.010306801
13	0x3df32a41	0.11873294
14	0xbd4bd2d6	-0.049761616
15	0x3db8d2f6	0.090246126
16	0x3d3db4f7	0.04631516
17	0x3e5dc931	0.2165878
18	0xbd189f2c	-0.037261173
19	0xbd567b42	-0.05236364
20	0x3ddc5ffd	0.10760496
21	0xbc784531	-0.015153215
22	0x3dfd73e9	0.12375624
23	0xbe612995	-0.21988519
24	0x3d38e883	0.045143615
25	0x3d44ca22	0.04804433
26	0x3cd3d6b9	0.025859224
27	0x3d3f1cf7	0.046658482
28	0x3a16b101	0.00057484215
29	0xbdc0cb92	-0.09413828
30	0x3daba567	0.08381157
31	0x3df7aa77	0.120930605
32	0x3c9b7d90	0.018980771
33	0x3b2bb13d	0.0026198172
34	0x3d899991	0.067187436
35	0x3c04e1c7	0.00811047
36	0xbdd16407	-0.10224157
37	0x3ddbbcf9	0.10729403
38	0x3adb0fda	0.0016713098
39	0x3b590eec	0.0033120466
40	0x3d911144	0.07083371
41	0x3d98ce25	0.07461194
42	0xbece1f3a	-0.402582
43	0x3e6a3887	0.22873126
44	0xbd5b5839	-0.053550933
45	0x3e59c0b2	0.21264914
46	0xbbc96c38	-0.006146934
47	0x3d918ac2	0.07106544
48	0x3bf2f528	0.007414479
49	0xbd8e02f8	-0.0693416
50	0xbde0a48f	-0.10968887
51	0x3ccfa785	0.025348434
52	0x3d3b4c5a	0.04572711
53	0x3e494cb0	0.1965816
54	0x3db27218	0.08713168
55	0x3bcb2ef8	0.0062006675
56	0x3d7da48c	0.061924502
57	0xbcf1486d	-0.02945348
58	0xbb14d8eb	-0.00227123
59	0x3dc8b0f9	0.0979938
60	0x3d3c898c	0.046029612
61	0xbc947f99	-0.01812725
62	0xbbd22a16	-0.0064137084
63	0x3ee2e40b	0.44314608
64	0x3dcc6c7c	0.09981629
65	0x3cd60431	0.026125045
66	0x3ca2ce96	0.019873898
67	0x3dedaa76	0.116047785
68	0x3c9d93c4	0.0192355
69	0x3cbc8c95	0.023016253
70	0xbda08643	-0.078381084
71	0xbd57a447	-0.0526469
72	0x3dcdb18a	0.100436285
73	0xbbf8e760	-0.0075959414
74	0xbe789275	-0.24274619
75	0xbe72f12d	-0.23724814
76	0xbb416933	-0.0029512167
77	0xbd914c9d	-0.07094691
78	0xbc7b6eef	-0.015346273
79	0x3d3d884f	0.046272572
80	0x3da1323e	0.07870911
81	0x3cce5fc9	0.025192158
82	0xbd5b32ca	-0.053515233
83	0xbd136d79	-0.035993073
84	0xbd1969cd	-0.037454415
85	0xbced7cc0	-0.02899015
86	0xbd232394	-0.03982885
87	0x3c872e2e	0.016501512
88	0x3d248954	0.04017003
89	0xbd0cbd09	-0.034359965
90	0x3d3d907b	0.046280365
91	0x3d8bf839	0.06834454
92	0x3cc2cc2a	0.023778994
93	0x3c04bfc8	0.008102365
94	0x3da4b460	0.08042216
95	0x3d6570ec	0.056015894
96	0x3d8142fd	0.06311605
97	0x3d0b43a8	0.03400007
98	0xbf091ae1	-0.5355664
99	0xbc89d42f	-0.01682481
100	0xbc6b91b8	-0.014378004
101	0x3d33d23a	0.04390166
102	0xbd77d10a	-0.06050209
103	0xbd7d692d	-0.06186788
104	0xbd99634f	-0.07489645
105	0x3e3d5da8	0.18492758
106	0x3c3f5f9c	0.01168051
107	0xbca4a19b	-0.02009659
108	0x3dca72a9	0.09885151
109	0x3d536304	0.0516081
110	0xbdd73e11	-0.10509885
111	0x3acc3c29	0.0015581894
112	0xba6af314	-0.0008962613
113	0x3ca4c266	0.020112228
114	0x3cc5c8ef	0.024143664
115	0x3d9e21ce	0.077212915
116	0x3d2f8e98	0.042860597
117	0x3df22d0e	0.11825
118	0xbd208d74	-0.0391974
119	0xbd69a359	-0.057040546
120	0x3c22c639	0.009934955
121	0x3c93ba25	0.018033097
122	0xbc33b5cd	-0.010968638
123	0xbc39491a	-0.011308933
124	0x3d9903d8	0.07471436
125	0x3d09d511	0.03365046
126	0x3d94ac47	0.07259422
127	0x3e3c7a13	0.18405943
128	0x3e08424e	0.13306543
129	0x3de32c3e	0.11092423
130	0xbd1078ad	-0.035271335
131	0x3e04db09	0.1297418
132	0x3d6fc7c1	0.05854011
133	0x3d4dbcd6	0.050228916
134	0x3db34e31	0.08755148
135	0xbd24e089	-0.040253196
136	0xbd8999eb	-0.06718811
137	0x3e083517	0.13301502
138	0x3d173d85	0.036923904
139	0xbd82d141	-0.06387568
140	0x3cc799d0	0.024365336
141	0xbc708895	-0.014681001
142	0x3d1e15d5	0.03859504
143	0x3d235658	0.039877266
144	0x3daa1b42	0.0830598
145	0xbdb020d4	-0.086000115
146	0xbd05c685	-0.032660026
147	0xbccb9ca4	-0.024854966
148	0xbd714486	-0.05890324
149	0xbe652005	-0.22375496
150	0x3cf63d32	0.030058477
151	0x3d1d0ad0	0.03834039
152	0x3ceed1dd	0.029152805
153	0xbcaad73f	-0.02085459
154	0xbd92560b	-0.07145318
155	0xbdbef081	-0.09323216
156	0x3d997814	0.07493606
157	0xbe95956c	-0.29215562
158	0x3d85c51c	0.06531736
159	0x3e40eaad	0.18839522
160	0x3c2197c7	0.009862847
161	0x3dbceb62	0.09224583
162	0x3d7e0788	0.0620189
163	0xbbd4183a	-0.0064726146
164	0x3e1763c2	0.14784148
165	0x3e2a1990	0.16611314
166	0xbcad5518	-0.02115874
167	0x3ae1ac27	0.0017217443
168	0xb877287f	-5.8927104e-05
169	0x3dab8d73	0.08376589
170	0x3d76bee9	0.06024066
171	0xbdad77f0	-0.08470142
172	0x3dfaa1a6	0.12237863
173	0x3dee1a3d	0.11626098
174	0x3d5996a9	0.053122196
175	0x3bafeeea	0.005369057
176	0x3d8e99b1	0.06962908
177	0x3dc3595c	0.09538528
178	0xbd01ea7c	-0.031717762
179	0xbd03e8b8	-0.03220436
180	0x3c87bea2	0.016570393
181	0xbd72317d	-0.059129227
182	0xbc6f4039	-0.014602714
183	0x3d8645d0	0.065562844
184	0x3d6a3838	0.05718252
185	0x3c8d9e9b	0.017287543
186	0xbd87a5ba	-0.06623407
187	0x3cb69fd7	0.022293014
188	0x3d7b23ee	0.061313562
189	0x3d1ed49c	0.03877698
190	0xbb0ff3c6	-0.0021965369
191	0xbcea27c6	-0.028583419
192	0x3c9ca037	0.019119365
193	0xbd21e4d8	-0.039524883
194	0x3a088809	0.0005208259
195	0xbceffd92	-0.029295716
196	0xbd4f87ad	-0.0506665
197	0x3d75eece	0.060042195
198	0x3d7a1775	0.061057527
199	0x3d57147f	0.05250978
200	0xbc4e0fe3	-0.01257703
201	0x3d7bebb3	0.061504077
202	0x3da8ad26	0.082361504
203	0xbd983b8d	-0.074332334
204	0xbce0c91b	-0.027439645
205	0x3d93f3c6	0.072242305
206	0xbda273bf	-0.07932233
207	0xbd5ab999	-0.053399656
208	0x3d699296	0.05702456
209	0xbc7efb31	-0.015562818
210	0x3cbd2e74	0.02309344
211	0x3a8f6293	0.0010939412
212	0xbd109b0a	-0.035304107
213	0x3dc89573	0.0979413
214	0x3d263a0d	0.040582705
215	0x3de7c62f	0.113170974
216	0x3c8df79d	0.017329985
217	0x3eb8caa5	0.36092106
218	0xbd9b341b	-0.07578298
219	0x3d44837e	0.047976963
220	0x3dc3e1bb	0.09564539
221	0x3b87da55	0.0041459003
222	0x3dbbdc42	0.0917287
223	0xbe96a55f	-0.29423043
224	0x3d569ff1	0.052398626
225	0xbda6508e	-0.08120833
226	0x3d16b59b	0.036794286
227	0x3d84c945	0.064837016
228	0xbb8e5cb6	-0.004344548
229	0xbdb7ea28	-0.08980209
230	0xbc6ba435	-0.014382412
231	0x3dcaca8d	0.09901915
232	0x3cfeeb20	0.031117976
233	0x3d0f624d	0.035005856
234	0x3e194dc0	0.14971066
235	0x3d5933e2	0.053027995
236	0xbdc8da0b	-0.098072134
237	0x3e106923	0.14102606
238	0x3d665296	0.056231104
239	0x3d2a3b4b	0.041560452
240	0xbc531817	-0.012884161
241	0x3dda76be	0.106671795
242	0xbf0742d5	-0.5283635
243	0x3e6ac804	0.22927862
244	0x3da2eb44	0.079550296
245	0x3daebb1a	0.085317805
246	0x3cb56b75	0.022145966
247	0x3de83c6f	0.11339652
248	0x3daca2c7	0.08429485
249	0xbd7a410d	-0.061097194
250	0xbf0d96ee	-0.55308425
251	0x3de264cb	0.11054381
252	0xbd15b11a	-0.03654585
253	0x3e7ed315	0.24885209
254	0x3ddcfc2b	0.10790285
255	0xbd469bd7	-0.048488464

fc3.bias f4 [50]
0	0xbca14822	-0.019687716
1	0xbc85ad64	-0.01631803
2	0xbce8a78f	-0.02840021
3	0x3d6da366	0.058017157
4	0x3daa3af4	0.08312026
5	0x3c957661	0.018244924
6	0x3dae70ca	0.085176066
7	0xbc42c076	-0.011886707
8	0x3d7660a2	0.06015075
9	0xbace94bf	-0.0015760883
10	0x3e0f9bc4	0.14024264
11	0xbbe822c5	-0.007084223
12	0x3d2caa7d	0.042154778
13	0x3dcefcf1	0.101068385
14	0xbc761544	-0.015019719
15	0x3d63597e	0.05550527
16	0x3b4011e3	0.0029307536
17	0x3d993f51	0.0748278
18	0x3db09a38	0.08623165
19	0x3d02f8eb	0.031975668
20	0x3d7eb0f6	0.06218048
21	0x3ba34e9a	0.0049837353
22	0x3d4d0d82	0.05006171
23	0x3ce506e1	0.027957382
24	0xbc05feba	-0.008178407
25	0xbdd155f2	-0.10221471
26	0xbddd27b3	-0.10798588
27	0xbd5a0746	-0.053229593
28	0xbc83639c	-0.016038708
29	0xbd0138b6	-0.031548224
30	0xbd046565	-0.03232326
31	0xbc8b88cd	-0.017033005
32	0xbd0cb640	-0.034353495
33	0xbde1b0bc	-0.110200375
34	0xbcf4cb5d	-0.029882127
35	0xbdef70e9	-0.11691458
36	0xbdd8172e	-0.10551296
37	0x3c7aa013	0.015296954
38	0x3c896a1e	0.016774233
39	0xba75a608	-0.0009370749
40	0xbd43f860	-0.04784429
41	0xbdd4605e	-0.10369943
42	0xbcc4e71f	-0.024035988
43	0xbd3c3df4	-0.04595752
44	0xbd47f5db	-0.04881845
45	0xbd94ceca	-0.072660044
46	0xbd051fe4	-0.032501116
47	0xbdb3526d	-0.08755956
48	0xbd3368b9	-0.043801043
49	0xbd9225ef	-0.071361415
