training_model/wandb/run-20200624_230932-m0gvpjo8/fir_conv6_4.pt (torch_old, 256892 bytes, 16 tensors)

encode_conv1.weight f4 [4, 12, 3]
-0.03976381 -0.21542108 -0.18835323 -0.14222866 0.19868138 0.29345322 -0.22639081 -0.08532498
0.16144004 -0.2280155 -0.19693461 0.06783906 0.0072625247 0.019212402 -0.2745977 -0.27203447
-0.10303524 -0.14440411 -0.06917122 -0.3281522 -0.29900292 -0.29947227 -0.22449724 -0.079626486
-0.13333935 -0.2503216 -0.2526369 -0.18099165 -0.016768986 -0.066665635 -0.10909218 -0.08570361
-0.12641628 -0.29141933 -0.22708093 -0.16785297 0.16045518 0.06352321 0.11584601 -0.44252858
-0.22131622 0.08286319 -0.21710949 0.0017918436 -0.1291204 -0.31198472 0.042329095 -0.060333952
0.28395948 0.06946369 -0.17280602 -0.26349884 -0.20887823 -0.14866939 0.1001478 -0.15395728
-0.26584518 0.053894784 -0.02773956 -0.013495027 0.41588563 -0.038822785 -0.14878403 -0.35631832
-0.33213595 -0.21949409 -0.11393445 -0.19299522 -0.09018839 0.046521842 -0.11907578 -0.024296863
0.1261896 0.036715217 0.09707331 0.29077187 0.10161563 -0.166854 0.035215694 0.19327427
-0.048272714 0.076436795 0.132351 -0.102778405 -0.17056279 0.13575092 0.3130127 -0.004792253
0.1831994 -0.030955961 0.054591767 -0.0094053075 0.10140342 -0.028991407 0.1849598 0.013646274
-0.12517603 0.09555699 0.25016636 0.19485317 0.17205463 0.017011786 0.039762773 0.23392901
-0.017926559 -0.07539872 0.054221813 0.23876885 0.1010097 -0.10019752 -0.22323942 -0.2665019
-0.08422456 0.32496205 -0.30266938 -0.12424105 -0.012338653 -0.26573268 -0.1314827 -0.14206852
0.30685392 0.013586264 0.028952321 -0.23896417 -0.17237876 -0.15569033 -0.23242804 -0.014410282
-0.24620283 -0.27881142 -0.104823664 -0.10280796 0.00033192826 -0.2026186 -0.30010998 -0.27605823
-0.08782213 -0.019872965 -0.28583914 -0.284222 -0.0970084 -0.27473032 -0.02426175 -0.23209192
00000000: 60df 22bd 5897 5cbe abdf 40be 64a4 11be
00000010: 2273 4b3e 803f 963e fed2 67be ddbe aebd
00000020: 8a50 253e e57c 69be 3aa9 49be 35ef 8a3d
00000030: 79fa ed3b 5463 9d3c 1298 8cbe 1a48 8bbe
00000040: 2404 d3bd acde 13be a4a9 8dbd 9103 a8be
00000050: e916 99be 6e54 99be 9be2 65be 3613 a3bd
00000060: 1c8a 08be 272a 80be a059 81be e055 39be
00000070: 1d5f 89bc fe87 88bd b96b dfbd 6085 afbd
00000080: 4573 01be ea34 95be e787 68be a6e1 2bbe
00000090: 5d4e 243e 7518 823d ac40 ed3d 1b93 e2be
000000a0: b8a0 62be 2db4 a93d f351 5ebe 4bdc ea3a
000000b0: 2338 04be 76bc 9fbe 4661 2d3d bc20 77bd
000000c0: 2363 913e fb42 8e3d 10f4 30be 52e9 86be
000000d0: 2de4 55be ca3c 18be 4a1a cd3d faa6 1dbe
000000e0: dc1c 88be c7c0 5c3d 133e e3bc 3f1a 5dbc
000000f0: f6ee d43e a404 1fbd d75a 18be 5b6f b6be
00000100: b90d aabe 0fc3 60be 7756 e9bd 8aa0 45be
00000110: b1b4 b8bd b08d 3e3d 01de f3bd 370a c7bc
00000120: d937 013e b262 163d 5fce c63d 0de0 943e
00000130: db1b d03d c6db 2abe 553e 103d b1e9 453e
00000140: 9cb9 45bd e58a 9c3d 0587 073e 7c7d d2bd
00000150: 03a8 2ebe 4a02 0b3e 3343 a03e 5508 9dbb
00000160: a098 3b3e 5b97 fdbc 9e9b 5f3d b818 1abc
00000170: 99ac cf3d 637f edbc 1a66 3d3e 9f94 5f3c
00000180: 252e 00be 62b3 c33d ce15 803e 9787 473e
00000190: 172f 303e 4d5c 8b3c 4ade 223d 168b 6f3e
000001a0: b8da 92bc a56a 9abd b117 5e3d d27f 743e
000001b0: 2cde ce3d 5b34 cdbd e098 64be f072 88be
000001c0: ed7d acbd 6d61 a63e 7bf7 9abe 1772 febd
000001d0: 1028 4abc 1d0e 88be 67a3 06be 697a 11be
000001e0: f51b 9d3e ec98 5e3c 6b2d ed3c 06b3 74be
000001f0: 0f84 30be 496d 1fbe 9e01 6ebe 1a19 6cbc
00000200: 981c 7cbe 5fc0 8ebe caad d6bd fb8c d2bd
00000210: a806 ae39 407b 4fbe 04a8 99be 8157 8dbe
00000220: 17dc b3bd a1cc a2bc 8259 92be 8c85 91be
00000230: 57ac c6bd 74a9 8cbe 94c0 c6bc 81a9 6dbe

encode_conv1.bias f4 [4]
0.07651804 0.054091003 -0.19379933 0.0028011638
00000000: 7db5 9c3d 878e 5d3d 5573 46be bb93 373b

encode_conv2.weight f4 [4, 4, 3]
0.005587644 -0.50676596 -0.44293538 -0.46334323 -0.37569636 -0.24902967 0.2938821 0.045523964
0.28582025 -0.31570217 -0.38563448 -0.09031001 0.0056236293 -0.00020845608 0.11162245 0.14629537
0.0753193 -0.15431102 -0.15958071 -0.21396004 -0.33278283 0.08064211 -0.23097765 -0.14173889
-0.13219588 0.34713647 0.2470144 0.31173563 -0.15113701 -0.19228609 -0.38732475 -0.38046038
0.14943978 -0.06036233 0.36823666 0.18213883 -0.15293078 -0.0380606 0.23715387 -0.19117197
-0.15765212 -0.20346554 -0.3001725 0.021322897 -0.13373606 -0.13275282 0.17563458 0.10139089
00000000: 8e18 b73b 6abb 01bf 6dc8 e2be 533b edbe
00000010: 465b c0be a201 7fbe b777 963e 5677 3a3d
00000020: 0857 923e b7a3 a1be e271 c5be 74f4 b8bd
00000030: 6c46 b83b 0195 5ab9 509a e43d 74ce 153e
00000040: 0141 9a3d b503 1ebe 2069 23be 5718 5bbe
00000050: 8362 aabe b127 a53d 6885 6cbe 0024 11be
00000060: 5b5e 07be dfbb b13e 58f1 7c3e d09b 9f3e
00000070: a9c3 1abe a5e6 44be 6e4f c6be b4cb c2be
00000080: be06 193e 7e3e 77bd 8489 bc3e 9a82 3a3e
00000090: e399 1cbe 6fe5 1bbd 77d8 723e 96c2 43be
000000a0: 8f6f 21be 4559 50be 36b0 99be 5bad ae3c
000000b0: 1bf2 08be 5bf0 07be 8dd9 333e 07a6 cf3d

encode_conv2.bias f4 [4]
-0.059024926 0.3765555 0.33240923 0.38658455
00000000: 1fc4 71bd e2cb c03e 8b31 aa3e 69ee c53e

encode_conv3.weight f4 [8, 4, 3]
0.046911485 0.1425363 -0.3026312 0.0034421107 -0.24491635 0.102586634 -0.0042721853 0.060487542
0.33334565 0.21697828 0.27992982 -0.0137140695 0.124712296 -0.026092878 0.22310892 -0.15371463
-0.63690674 -0.14859807 0.50758743 -0.20410293 -0.6639242 -0.016265318 -0.40436924 0.1266283
0.42230934 0.1743937 0.28283685 -0.22346506 -0.40543362 0.06111826 0.18582752 -0.46518496
-0.27916807 -0.3063412 -0.28567368 -0.3231602 0.2892195 0.06458335 -0.20973867 -0.6882135
0.18360636 0.4593577 -0.025226813 0.13497715 0.123112015 -0.5804357 -0.4665997 0.30289617
0.27608487 0.51872784 0.06980869 -0.26069814 -0.3713549 0.35784256 -0.25882995 -0.6485732
-0.3544711 -0.22094856 -0.4132888 0.23542458 0.25867844 0.050599705 -0.43408608 -0.47525418
0.30486375 -0.15433572 -0.2084706 -0.448818 0.27259475 -0.30293947 0.28826335 -0.28374204
0.33089632 0.09839041 0.3067296 -0.09139124 -0.15046152 0.1703919 -0.73624533 -0.20536321
-0.30105394 -0.17985824 0.0373597 0.6396207 -0.11131396 -0.11236882 -0.16113733 0.48089245
0.17291886 0.40048954 0.41290045 0.4322346 0.37404746 0.26467466 0.2402162 0.0064215213
00000000: 4226 403d 09f5 113e 7af2 9abe 0995 613b
00000010: 5acb 7abe f118 d23d b0fd 8bbb c9c1 773d
00000020: 48ac aa3e 8e2f 5e3e f652 8f3e fab0 60bc
00000030: 2969 ff3d bbc0 d5bc aa76 643e 5e67 1dbe
00000040: 520c 23bf 182a 18be 40f1 013f 5c00 51be
00000050: f0f6 29bf d83e 85bc 7c09 cfbe d9aa 013e
00000060: ee38 d83e 4394 323e fecf 903e 06d4 64be
00000070: ff94 cfbe 2457 7a3d 9249 3e3e b92c eebe
00000080: 1eef 8ebe c1d8 9cbe d243 92be 4175 a5be
00000090: 9414 943e 4744 843d bcc5 56be c32e 30bf
000000a0: 4e03 3c3e ef30 eb3e 76a8 cebc 7337 0a3e
000000b0: 2722 fc3d 6f97 14bf 28e6 eebe 3515 9b3e
000000c0: ff5a 8d3e 59cb 043f dcf7 8e3d 3a7a 85be
000000d0: 3b22 bebe 2437 b73e 5c85 84be e508 26bf
000000e0: 3c7d b5be 5740 62be 979a d3be 2413 713e
000000f0: 8071 843e a341 4f3d 8840 debe 8454 f3be
00000100: 1a17 9c3e 2f0a 1ebe 5179 55be 79cb e5be
00000110: 8a91 8b3e e21a 9bbe 4197 933e a346 91be
00000120: 3e6b a93e e980 c93d aa0b 9d3e 552b bbbd
00000130: 9612 1abe 377b 2e3e 937a 3cbf bc4a 52be
00000140: be23 9abe c22c 38be 7c06 193d 2fbe 233f
00000150: 93f8 e3bd a021 e6bd 2f01 25be 8937 f63e
00000160: a411 313e f70c cd3e b067 d33e da4d dd3e
00000170: 2683 bf3e 7083 873e 3cfb 753e a06b d23b

encode_conv3.bias f4 [8]
-0.17269054 0.13931471 0.2691903 0.042585425 0.054934625 -0.028672619 -0.5194637 0.1094345
00000000: cad5 30be 84a8 0e3e 50d3 893e 0e6e 2e3d
00000010: 2103 613d d7e2 eabc 93fb 04bf 321f e03d

encode_conv4.weight f4 [8, 8, 3]
-0.32315114 -0.21637416 -0.20112287 0.5214889 0.46689194 0.17263807 0.0913633 0.15575513
0.05419651 0.4634337 0.11786739 0.24653368 -0.068168886 0.19857322 0.07383434 -0.3669461
-0.21485563 -0.18127921 -0.35396224 -0.46553174 -0.4815343 0.0032051818 -0.2918923 -0.46774042
-0.11014661 -0.031698525 0.10935813 -0.2129068 0.05966697 -0.25014976 0.0693103 -0.13129121
-0.11110613 0.23983593 0.35226426 0.32704392 0.33901474 0.2810232 -0.037926592 0.8506467
0.5645286 0.62118363 0.52372015 0.47832617 0.24988174 0.0070348694 0.116160735 0.21278618
-0.08210534 0.21583815 -0.09724798 -0.69086206 -1.0669091 -0.30441412 -0.116215006 -0.47565332
-0.40581077 0.2429357 0.032708496 -0.20301549 -0.116592206 -0.650655 -0.75746053 0.40814057
-0.11767966 0.08204691 0.053715996 0.24461637 0.4386904 -0.24899296 -0.18049511 -0.07238499
-0.23258041 0.2511695 -0.11303596 -0.5087903 -0.5744221 -1.1214195 -0.20699437 -0.39788643
-0.47197732 -0.13969564 0.41343802 -0.11551197 -0.10197031 -0.20995173 -0.33665735 -0.17802422
-0.19124565 -0.08125035 -0.17661166 -0.041517586 0.39086124 0.02514302 0.16571249 0.2675253
-0.15041216 -0.13269076 0.07449056 0.7564842 0.61191523 0.15709382 0.07553609 0.35555992
0.2551635 0.07388711 0.2774645 0.32495227 0.12462401 0.4658461 0.16927558 -0.115847945
-0.085445456 0.3529798 -0.40712556 -0.2797008 -0.27487656 -0.32655138 -0.1890877 -0.11322273
0.094486386 -0.02435818 -0.031496916 -0.6585193 -0.4432776 -0.17717986 -0.30646136 -0.15925613
-0.2555175 0.07567585 -0.3805852 -0.09866373 -0.044117227 -0.46299177 -0.058554184 0.37866297
-0.026965652 -0.1764116 0.45812732 0.18477227 0.3541783 -0.15112118 -0.24385653 -0.19337268
-0.0026316412 0.05884645 0.03827615 0.057177573 -0.11051069 -0.40751898 -0.3371222 -0.20114304
-0.3943387 0.016769614 0.13594946 -0.056960545 -0.11214426 -0.2148298 -0.09609783 0.7400262
0.60318667 0.7705874 0.042927552 0.33305204 0.43699434 -0.6906209 -0.70227027 -0.65949106
-0.2632227 -0.29824004 0.16078062 0.4394923 0.9134244 0.4275116 0.19093415 0.53770834
0.25602984 0.24823341 0.13924758 0.55846673 0.30741784 0.71870077 0.62779266 -0.2931536
0.16770576 0.18306193 -0.20371236 0.24698544 -0.16252556 0.10113964 -0.25801572 -0.095270574
00000000: 1174 a5be 3091 5dbe 27f3 4dbe 4c80 053f
00000010: 760c ef3e 09c8 303e af1c bb3d 467e 1f3e
00000020: 29fd 5d3d 2f47 ed3e 7564 f13d 5373 7c3e
00000030: 219c 8bbd c756 4b3e 7536 973d 5ce0 bbbe
00000040: 1d03 5cbe 42a1 39be 8a3a b5be 2d5a eebe
00000050: aa8b f6be 070e 523b e872 95be ac7b efbe
00000060: 8c94 e1bd 50d6 01bd 28f7 df3d 3d04 5abe
00000070: 5a65 743d a113 80be 8ff2 8d3d 3471 06be
00000080: 9c8b e3bd 8d97 753e fb5b b43e 4d72 a73e
00000090: 5793 ad3e 46e2 8f3e ea58 1bbd fbc3 593f
000000a0: f284 103f e405 1f3f 8612 063f 2be7 f43e
000000b0: 00e1 7f3e c384 e63b aee5 ed3d 9fe4 593e
000000c0: d826 a8bd ad04 5d3e f329 c7bd 56dc 30bf
000000d0: 7a90 88bf 2bdc 9bbe 2202 eebd d588 f3be
000000e0: 6ec6 cfbe 23c4 783e 58f9 053d 4be3 4fbe
000000f0: e5c7 eebd 5391 26bf efe8 41bf cdf7 d03e
00000100: 0902 f1bd 3608 a83d 4e05 5c3d b77c 7a3e
00000110: 079c e03e 03f8 7ebe b6d3 38be 953e 94bd
00000120: 8f29 6ebe 4a99 803e 667f e7bd 1540 02bf
00000130: 540d 13bf ad8a 8fbf 55f6 53be c5b7 cbbe
00000140: 03a7 f1be 600c 0fbe 26ae d33e 8a91 ecbd
00000150: cfd5 d0bd 96fd 56be 5a5e acbe fb4b 36be
00000160: e6d5 43be 9566 a6bd b0d9 34be 580e 2abd
00000170: f71e c83e bcf8 cd3c 89b0 293e 13f9 883e
00000180: a505 1abe 16e0 07be 828e 983d f3a8 413f
00000190: 7aa6 1c3f 34dd 203e aab2 9a3d f30b b63e
000001a0: caa4 823e 2052 973d d40f 8e3e 2560 a63e
000001b0: df3a ff3d 6183 ee3e 9456 2d3e b041 edbd
000001c0: 07fe aebd c5b9 b43e c372 d0be f134 8fbe
000001d0: 9fbc 8cbe be31 a7be 35a0 41be 52e1 e7bd
000001e0: 1482 c13d ce8a c7bc e902 01bd b994 28bf
000001f0: 48f5 e2be a36e 35be 81e8 9cbe 0a14 23be
00000200: 31d3 82be f1fb 9a3d 10dc c2be 3610 cabd
00000210: 44b4 34bd 420d edbe 83d6 6fbd 1de0 c13e
00000220: 12e7 dcbc 3ea5 34be aa8f ea3e f134 3d3e
00000230: dc56 b53e 83bf 1abe 87b5 79be 7d03 46be
00000240: 9d77 2cbb fa08 713d 74c7 1c3d 0833 6a3d
00000250: 6e53 e2bd 54a6 d0be 489b acbe 71f8 4dbe
00000260: c3e6 c9be 6e60 893c 5636 0b3e 764f 69bd
00000270: e4ab e5bd 58fc 5bbe f0ce c4bd 5b72 3d3f
00000280: 716a 1a3f 3745 453f cdd4 2f3d cc85 aa3e
00000290: b9bd df3e 88cc 30bf fcc7 33bf 68d4 28bf
000002a0: 20c5 86be ebb2 98be ada3 243e 2205 e13e
000002b0: 2ed6 693f cde2 da3e 3e84 433e 41a7 093f
000002c0: 5816 833e e630 7e3e eb96 0e3e adf7 0e3f
000002d0: df65 9d3e c6fc 373f 05b7 203f 3b18 96be
000002e0: 0fbb 2b3e 9674 3b3e f999 50be c0e9 7c3e
000002f0: 1a6d 26be 4d22 cf3d a31a 84be 381d c3bd

encode_conv4.bias f4 [8]
0.17457564 -0.14964461 -0.31521916 -0.13594659 0.18817246 -0.42633358 -0.61983097 0.017454153
00000000: f5c3 323e 703c 19be 6864 a1be 9535 0bbe
00000010: 48b0 403e 6548 dabe 3ead 1ebf 03fc 8e3c

encode_conv5.weight f4 [16, 8, 3]
0.16038051 -0.43041664 -0.3542675 -0.6780956 -0.16653834 0.26411438 -0.06905941 -0.20619807
-0.15090524 -0.3847387 0.20527619 -0.113315746 0.044434123 0.21777894 -0.09955289 -0.30900976
-0.121713184 -0.12030565 -0.26909676 -0.32857394 -0.55196756 0.054411463 -0.15343428 -0.08060036
0.040157717 -0.46824917 -0.41283327 0.018830735 -0.22141893 0.11124839 0.15194602 0.16350807
0.16109137 0.25382704 0.17157735 0.016126804 0.054689094 -0.25376725 0.0143863065 0.002554833
0.20465504 -0.02142559 -0.107668355 0.25389084 -0.014494845 0.059752785 -0.0837271 -0.06342966
0.6090056 0.30575132 -0.13016605 -0.010709554 -0.20566083 -0.17386897 -0.1402276 -0.11561339
-0.031601153 -0.31752014 0.331351 0.24160051 0.08132752 -0.07122276 -0.18111904 -0.34456807
-0.02522614 -0.085149586 -0.24383517 -0.06708219 -0.09469582 0.5993971 -0.015608849 -0.10905116
0.26312208 -0.34519142 -0.19688432 -0.19066513 -0.031185258 -0.40868434 -0.12774068 0.17475991
0.047448553 0.021919306 0.47242185 0.21913384 -0.096698396 -0.21074556 -0.08834515 -0.20767213
-0.059604745 -0.021123677 -0.14681342 -0.09830256 -0.16464329 0.10773103 -0.44396582 -0.3146118
0.38434288 0.375638 0.1319439 -0.100149006 -0.3414571 -0.3548499 -0.063123785 -0.10944154
-0.015056439 -0.49970934 0.15647733 0.0068647154 0.23912963 -0.093532495 0.17783533 -0.00908595
-0.15789355 -0.042151466 0.20408279 -0.16513681 0.19895205 0.47828203 -0.03533622 -0.10465637
-0.369425 0.06724799 0.06418809 0.1240079 0.19385846 -0.10060852 -0.0030093528 0.0017150948
-0.040463857 -0.21900089 -0.10422396 0.19148026 -0.28255168 0.017471552 0.088193074 0.3303681
0.121064074 -0.09691572 0.25358468 0.16931808 0.32419243 -0.11492119 0.15001284 -0.19506665
0.14191803 0.30636528 0.4294788 0.058515158 -0.07691392 -0.07597026 0.0134642385 -0.15179141
0.21991234 -0.2568202 -0.070354834 -0.11284869 -0.21090971 0.28253558 0.26209387 -0.09044507
-0.16656315 0.104460634 -0.11857501 0.22510476 0.037991416 0.14004514 0.38320306 0.22452848
0.10186524 0.3202381 0.12472611 0.25073758 0.1666929 -0.4124729 0.10781762 0.09539642
-0.0016281812 -0.49366435 -0.27377152 -0.011451853 0.20171222 0.24165362 -0.018585531 -0.00490582
-0.16331446 0.047799263 0.009170576 0.043846168 0.21273291 0.27951175 0.21942599 -0.07130146
0.45311183 0.33793646 0.40594134 -0.08677422 0.048535615 -0.31385678 0.05515793 -0.019527752
-0.011076668 -0.42247748 -0.35353073 0.028887091 -0.09994783 0.1438615 0.23106392 0.2404479
-0.07037528 -0.06979578 -0.078412205 0.20155138 0.0019025884 -0.01728297 0.018716885 -0.0416689
-2.102342 -0.68440056 -1.3709415 1.3601173 0.7842703 -0.260206 -0.35776907 -0.37710476
-0.17624839 -0.2249133 0.6672485 -0.1393272 -0.44637954 -0.33439416 -0.4468893 -0.3980783
-0.5454089 -0.37252045 -0.5594181 -0.6723039 -0.7141173 -0.6818583 -0.36628452 -0.43024883
0.111543275 0.32482082 0.507848 -0.11216973 0.20665884 0.08707988 0.007738127 0.12726988
-0.071715705 -0.4353943 -0.2656592 -0.3183885 -0.043383285 0.10398921 -0.01778855 0.2538019
00000000: ca3a 243e 925f dcbe 8d62 b5be ac97 2dbf
00000010: 0789 2abe 003a 873e 056f 8dbd 9625 53be
00000020: e786 1abe 79fc c4be ec33 523e 1612 e8bd
00000030: 8e00 363d 7101 5f3e 63e2 cbbd 8736 9ebe
00000040: c344 f9bd cf62 f6bd 0dc7 89be d83a a8be
00000050: bf4d 0dbf 8ede 5e3d e01d 1dbe cd11 a5bd
00000060: 6b7c 243d 5bbe efbe e25e d3be ea42 9a3c
00000070: a5bb 62be 32d6 e33d bd97 1b3e a96e 273e
00000080: 23f5 243e 9ef5 813e f9b1 2f3e 5c1c 843c
00000090: ac01 603d c8ed 81be 8bb4 6b3c fc6e 273b
000000a0: 1791 513e b884 afbc 3a81 dcbd fbfd 813e
000000b0: c97b 6dbc 56bf 743d 1d79 abbd 69e7 81bd
000000c0: cae7 1b3f 708b 9c3e 404a 05be 2077 2fbc
000000d0: c198 52be b50a 32be d397 0fbe b7c6 ecbd
000000e0: 3670 01bd 0092 a2be d7a6 a93e 2066 773e
000000f0: 0b8f a63d 3ddd 91bd 4577 39be 3a6b b0be
00000100: 0da7 cebc e862 aebd edaf 79be 6362 89bd
00000110: e2ef c1bd 1772 193f 42bc 7fbc 3756 dfbd
00000120: f0b7 863e eebc b0be 0b9c 49be b83d 43be
00000130: 3a78 ffbc 133f d1be 74ce 02be 43f4 323e
00000140: 6a59 423d 1e90 b33c 47e1 f13e 9f64 603e
00000150: cf09 c6bd afcd 57be 4dee b4bd 01a8 54be
00000160: 1b24 74bd 900b adbc 4256 16be da52 c9bd
00000170: 4098 28be 16a2 dc3d 7d4f e3be cc14 a1be
00000180: 97c8 c43e a053 c03e 4d1c 073e ec1a cdbd
00000190: 77d3 aebe e3ae b5be 0b47 81bd e322 e0bd
000001a0: 48af 76bc e7d9 ffbe 983b 203e 68f1 e03b
000001b0: 66de 743e f78d bfbd 771a 363e 3ddd 14bc
000001c0: d9ae 21be 04a7 2cbd 14fb 503e a019 29be
000001d0: 16ba 4b3e 62e1 f43e b6bc 10bd 1456 d6bd
000001e0: 4625 bdbe 50b9 893d 0c75 833d dbf7 fd3d
000001f0: d582 463e d70b cebd 9038 45bb 08cd e03a
00000200: 6ebd 25bd c541 60be 5f73 d5bd 6713 443e
00000210: 9daa 90be 8020 8f3c 929e b43d 0226 a93e
00000220: 71f0 f73d c07b c6bd dad5 813e b861 2d3e
00000230: 8dfc a53e cd5b ebbd f79c 193e 8dbf 47be
00000240: f652 113e e9db 9c3e a5e4 db3e 97ad 6f3d
00000250: 0c85 9dbd 4c96 9bbd 1c99 5c3c 356f 1bbe
00000260: b330 613e f07d 83be 3216 90bd 371d e7bd
00000270: b7f8 57be 81a8 903e 2b31 863e 443b b9bd
00000280: 888f 2abe 75ef d53d 74d7 f2bd dd81 663e
00000290: e39c 1b3d fe67 0f3e 3133 c43e cbea 653e
000002a0: b99e d03d 40f6 a33e 6770 ff3d ad60 803e
000002b0: 8bb1 2a3e a62f d3be 7ccf dc3d 335f c33d
000002c0: b268 d5ba 93c1 fcbe c82b 8cbe 8ea0 3bbc
000002d0: a68d 4e3e 0c74 773e af40 98bc 00c1 a0bb
000002e0: e83b 27be 29c9 433d 2f40 163c 0a98 333d
000002f0: a8d6 593e 2a1c 8f3e 35b1 603e 8006 92bd
00000300: 46fe e73e 0206 ad3e 8bd7 cf3e afb6 b1bd
00000310: 48cd 463d d6b1 a0be 48ed 613d aaf8 9fbc
00000320: ea7a 35bc f84e d8be fb01 b5be 9fa4 ec3c
00000330: 73b1 ccbd 6e50 133e 059c 6c3e f937 763e
00000340: ea20 90bd 17f1 8ebd 9496 a0bd 7c63 4e3e
00000350: 4660 f93a 0495 8dbc 2754 993c 02ad 2abd
00000360: c58c 06c0 e034 2fbf 037b afbf 5318 ae3f
00000370: f0c5 483f b939 85be 822d b7be e013 c1be
00000380: 757a 34be ac4f 66be ccd0 2a3f caab 0ebe
00000390: dc8b e4be b635 abbe adce e4be ebd0 cbbe
000003a0: eb9f 0bbf 00bb bebe 0636 0fbf 1c1c 2cbf
000003b0: 64d0 36bf 448e 2ebf a589 bbbe 9349 dcbe
000003c0: cd70 e43d ea4e a63e 5402 023f 3eb9 e5bd
000003d0: 609e 533e f056 b23d 1d90 fd3b 0953 023e
000003e0: afdf 92bd 00ec debe 7c04 88be d103 a3be
000003f0: acb2 31bd 4cf8 d43d 4bb9 91bc 53f2 813e

encode_conv5.bias f4 [16]
0.37388054 -0.18728527 0.24927324 -0.102206886 0.005636906 -0.24298246 0.004267804 0.18665126
0.008633244 0.47869086 0.12446537 -4.6003945e-05 -0.009265724 -0.0018002447 0.0068417485 0.008407986
00000000: 456d bf3e b6c7 3fbe 7c41 7f3e d851 d1bd
00000010: cbb5 b83b 65d0 78be efd8 8b3b 8221 3f3e
00000020: 7372 0d3c f816 f53e b3e7 fe3d 5cf4 40b8
00000030: 43cf 17bc 30f6 ebba bf30 e03b a6c1 093c

encode_conv6.weight f4 [16, 16, 3]
0.018998573 0.04276338 -0.35452503 0.3648882 0.0020968472 0.050269287 0.19518606 0.100974225
-0.4971018 0.02745752 0.06004118 -0.19558182 0.22587503 -0.070902854 -0.2528401 -0.14688145
-0.028523289 -0.1143109 0.009175436 -0.678779 0.21274015 0.20773426 -0.07860437 -0.22593084
-0.011146659 -1.0817581 -0.005382013 -0.74546707 0.6771229 -1.062389 -0.13405775 -0.4163332
0.04056807 -0.19644247 0.03216366 0.008208162 0.6117608 0.31522542 0.68255866 0.1496208
-0.6481642 -0.74415094 -1.2953979 -1.5430093 0.3699985 0.054001182 -0.8338205 0.20083325
-0.03880659 -0.06838672 0.13916999 0.04888207 0.0045689587 -0.12916583 -0.1581365 0.100291364
0.19025771 0.09808341 -0.06748714 0.14434214 -0.15122256 -0.47878465 0.20706858 0.04125188
-0.09783401 -0.07033235 -0.22654897 -0.17304684 -0.5161362 -0.0994024 -0.09308984 0.14395705
-0.17273839 0.0870352 -0.25494283 0.31532708 0.137818 0.21974304 -0.047135092 0.020260522
-0.10598217 0.13888082 0.0059886756 -0.1424021 -0.03134562 -0.18329415 -0.13383733 -0.30323124
-0.1429242 -0.054311037 0.16124426 0.003314945 -1.5060389 -0.1661201 -0.119861566 -0.5769257
0.5621655 0.5539046 0.543508 -0.1908711 -0.22628833 -0.30360502 0.051152475 0.37359655
0.45709527 -0.07990337 -0.21448374 -0.07177253 -0.28808597 -0.642666 -0.5060857 -0.30324462
-0.31489286 -0.40274078 -0.3218034 -0.2778538 -0.32731283 -0.04271046 0.21249355 0.21995063
-0.3493726 -0.22488518 -0.18077637 0.1983706 1.4499637 1.5233686 0.22678216 0.1644054
0.047481123 0.19827232 -0.15828814 0.0169165 0.330231 -0.12858906 0.20466377 -0.7279658
-0.5997412 -0.7751206 -1.0738136 -1.1321279 -0.92736036 -0.8420762 -0.51816463 -0.52357244
0.06900286 0.024963312 -0.036243822 0.12036286 -0.10302814 -0.10567953 -0.090983406 0.059477046
-0.0043493477 -0.04111198 0.05259929 0.11582537 -0.0912604 -0.09888743 -0.15033208 0.1405977
-0.07576244 0.03720594 0.16552767 -0.07078145 0.066585824 0.053922974 0.09449227 0.059742015
0.0011880557 -0.15848637 -0.039953806 -0.2104818 -0.36953798 0.2989371 0.102584995 0.072335966
0.044557963 -0.08405095 -0.029035041 -0.06718567 -0.08150147 0.1692658 0.26357517 -0.13723953
0.078169025 -0.09209732 0.2475598 -0.18122168 0.08085002 0.11652641 0.083652906 -0.11148211
0.11447843 -0.010217068 -0.026282115 -0.029131293 0.03763229 -0.057744928 0.08291363 -0.16168849
0.053564742 -0.0069861133 -0.13116015 -0.033677723 0.09161993 -0.059388645 0.03549111 -0.059822656
-0.046249285 0.042422462 0.06445228 0.17723376 0.16401838 0.13592485 -0.13568173 0.07831185
-0.051742047 -0.06443641 0.18059133 -0.1215246 -0.2760968 0.18930246 0.049623273 0.0020545165
-0.027528886 0.09826991 -0.047019955 0.12369094 0.15349965 -0.33166426 0.20712906 -0.17228554
0.10465851 -0.08892555 0.120391235 0.22779125 -0.16191232 -0.122413866 -0.079595774 0.0007416709
0.053450204 -0.1281669 -0.013387039 -0.026385188 -0.08734376 -0.0981602 -0.15173727 -0.027638221
0.086717844 0.03258767 -0.072557546 0.17644101 0.03731825 -0.057847124 0.29130673 -0.065493576
00000000: e5a2 9b3c a728 2f3d 4e84 b5be a0d2 ba3e
00000010: 426b 093b 2be7 4d3d dbde 473e 93cb ce3d
00000020: 2184 febe 98ee e03c beed 753d 9a46 48be
00000030: c94b 673e 8435 91bd 4274 81be 1768 16be
00000040: aca9 e9bc d51b eabd 9154 163c 76c4 2dbf
00000050: 8ed8 593e 4ab8 543e 54fb a0bd 6a5a 67be
00000060: 7aa0 36bc 0d77 8abf 995b b0bb eed6 3ebf
00000070: ed57 2d3f 5dfc 87bf 6f46 09be a029 d5be
00000080: b42a 263d 3728 49be 0bbe 033d 877b 063c
00000090: 5b9c 1c3f 3a65 a13e 2abc 2e3f 3236 193e
000000a0: 17ee 25bf ad80 3ebf 99cf a5bf 5481 c5bf
000000b0: 7270 bd3e 5830 5d3d 4375 55bf 3ba7 4d3e
000000c0: a9f3 1ebd 560e 8cbd 9482 0e3e 9138 483d
000000d0: 34b7 953b 0c44 04be 89ee 21be 8f65 cd3d
000000e0: ebd2 423e f4df c83d b336 8abd 6dce 133e
000000f0: 16da 1abe 4323 f5be c909 543e bbf7 283d
00000100: 335d c8bd 680a 90bd 74fc 67be 3133 31be
00000110: 8121 04bf 7c93 cbbd e3a5 bebd 7a69 133e
00000120: 55e2 30be 833f b23d de87 82be 8d72 a13e
00000130: 2920 0d3e 5204 613e ba10 41bd 65f9 a53c
00000140: 2e0d d9bd c636 0e3e a73c c43b dbd1 11be
00000150: 4464 00bd 76b1 3bbe a70c 09be 2041 9bbe
00000160: b95a 12be 4075 5ebd 371d 253e 8c3f 593b
00000170: e2c5 c0bf 631b 2abe fb79 f5bd 67b1 13bf
00000180: 14ea 0f3f b1cc 0d3f 5723 0b3f b773 43be
00000190: 21b8 67be 1e72 9bbe 4285 513d 0c48 bf3e
000001a0: 6408 ea3e 61a4 a3bd a0a1 5bbe 7afd 92bd
000001b0: 0180 93be c285 24bf d58e 01bf e142 9bbe
000001c0: a339 a1be 0a34 cebe 6ac3 a4be da42 8ebe
000001d0: 8c95 a7be 2af1 2ebd e997 593e bd3a 613e
000001e0: f7e0 b2be 4d48 66be 711d 39be aa21 4b3e
000001f0: 6998 b93f befd c23f 9539 683e e459 283e
00000200: 917b 423d e607 4b3e 4916 22be 7994 8a3c
00000210: 0a14 a93e daac 03be 6193 513e f75b 3abf
00000220: a488 19bf 4e6e 46bf b972 89bf 91e9 90bf
00000230: 7d67 6dbf 4e92 57bf 70a6 04bf d808 06bf
00000240: 5f51 8d3d dc7f cc3c 6774 14bd ce80 f63d
00000250: 6b00 d3bd 826e d8bd 8255 babd 349e 733d
00000260: f984 8ebb 0965 28bd 5a72 573d da35 ed3d
00000270: bce6 babd 7e85 cabd a7f0 19be d8f8 0f3e
00000280: 5729 9bbd 4165 183d 1680 293e ddf5 90bd
00000290: 265e 883d 56de 5c3d 2a85 c13d 0bb4 743d
000002a0: 89b8 9b3a 404a 22be 9aa6 23bd 8a88 57be
000002b0: 1534 bdbe 490e 993e 1518 d23d e124 943d
000002c0: 6982 363d e822 acbd e5da edbc a498 89bd
000002d0: 3eea a6bd 0454 2d3e 53f3 863e 8588 0cbe
000002e0: 1517 a03d 859d bcbd 5180 7d3e 2d92 39be
000002f0: b294 a53d 66a5 ee3d 3752 ab3d bc50 e4bd
00000300: ab73 ea3d 7d65 27bc 974d d7bc c0a4 eebc
00000310: 5124 1a3d f285 6cbd 9fce a93d ab91 25be
00000320: b466 5b3d c4eb e4bb d94e 06be a7f1 09bd
00000330: 3ba3 bb3d 8241 73bd 205f 113d 9a08 75bd
00000340: e46f 3dbd 2dc3 2d3d 8fff 833d c47c 353e
00000350: 6ff4 273e e22f 0b3e 27f0 0abe f761 a03d
00000360: 78ef 53bd 3df7 83bd efec 383e e4e1 f8bd
00000370: 8f5c 8dbe 81d8 413e c641 4b3d 11a5 063b
00000380: 4284 e1bc bc41 c93d ff97 40bd ad51 fd3d
00000390: 032f 1d3e e6cf a9be a419 543e 9f6b 30be
000003a0: 3357 d63d 991e b6bd ae8f f63d 1c42 693e
000003b0: 58cc 25be 1fb4 fabd 1c03 a3bd b16c 423a
000003c0: 9aee 5a3d 2f3e 03be 5055 5bbc c025 d8bc
000003d0: 49e1 b2bd 3708 c9bd 0461 1bbe 8d69 e2bc
000003e0: 2099 b13d a67a 053d 0d99 94bd f4ac 343e
000003f0: 05db 183d 1bf1 6cbd 2826 953e 7f21 86bd

encode_conv6.bias f4 [16]
1.9229332e-05 0.10198732 0.3173445 0.025784105 0.105744876 0.036610328 -0.1775998 0.14634444
0.114544064 0.14805077 0.120037116 0.09361801 -0.038577046 -0.086027905 0.03267709 0.0046088034
00000000: ad4e a137 bade d03d fa7a a23e 3039 d33c
00000010: c590 d83d b6f4 153d b9dc 35be 51db 153e
00000020: 1496 ea3d 9f9a 173e 05d6 f53d cdba bf3d
00000030: f702 1ebd 662f b0bd 6ad8 053d 7205 973b

fc1.weight f4 [200, 208]
0.039271068 -0.040853456 -0.10613466 0.14551201 0.024748737 0.051813874 0.1572552 -0.03892983
-0.05140558 -0.065642245 -0.17314863 0.2896078 0.017145349 0.0043816096 -0.05451456 -0.057640776
-0.091210075 -0.026519155 -0.13612536 0.054742627 0.24124818 -0.053211536 -0.25006172 0.098225474
0.31977004 0.1939997 0.09938444 -0.04599995 -0.07414606 -0.14376114 0.047501463 0.07675681
0.10956345 -0.054191466 -0.010741909 0.073687635 -0.14246167 -0.2645449 0.24658924 0.018693123
-0.016161606 0.029045083 0.05850391 -0.0024549772 3.4617026e-06 0.007580473 -0.026229536 -0.13282686
0.0942743 0.18700165 -0.16395397 0.022213235 -0.071948014 0.09220162 -0.06815517 0.039419826
0.07585666 -0.086029895 -0.15243495 -0.040471807 0.16922475 0.0033336864 0.032207675 0.081903554
-0.095132105 -0.08039603 0.045071043 0.071467295 0.008978263 0.040085424 -0.04381363 -0.0010126914
-0.10507625 0.021067962 -0.032268044 0.22341794 -0.1759147 -0.14270888 -0.129993 -0.07628628
-0.008207054 0.008086067 -0.08452141 -0.0883285 0.09610298 -0.0024827386 -0.09636894 0.24350938
0.023858286 -0.15148625 0.017304903 0.028281322 0.01983823 0.023387091 0.0047389246 -0.005905141
-0.08314458 0.057694506 0.055625904 -0.14782625 0.076339856 0.21281451 -0.21657073 0.039639924
-0.2884413 -0.089837715 -0.104402214 0.017250784 -0.117179774 -0.009570745 0.048050113 0.053063985
-0.16660124 -0.039743077 -0.03283344 0.35840803 0.30680472 -0.022957494 -0.013259265 0.031946972
0.05249782 -0.058761116 0.024328116 0.042491328 -0.106672116 0.029850187 -0.05183075 0.16477905
-0.07315915 -0.21642527 0.020662116 -0.032020595 -0.008511408 -0.03641374 -0.0651241 -0.022223353
0.08879854 -0.03657123 -0.18545692 -0.11365278 -0.14112778 0.6658259 0.45632452 -0.05089033
0.11177566 0.043839544 0.025765449 -0.07666415 0.01960883 -0.13523066 -0.1144425 0.09874368
-0.037426848 -0.034947716 0.13424543 -0.19967052 -0.022657081 0.006252701 0.008476264 0.0186629
0.006867635 0.024728902 0.014371244 0.2013053 -0.18023913 -0.1809607 -0.025229618 0.4891041
0.01586002 -0.09128188 0.077162184 0.14811036 0.044996016 0.14747049 0.01848315 -0.09920266
-0.119954765 -0.065219566 0.06878169 0.1370277 -0.15102002 -0.15835877 0.11372085 -0.11252476
-0.025291719 -0.0063602477 -0.08389186 -0.013129546 0.10395926 -0.03558777 0.0675733 -0.49452922
0.08874365 -0.18916312 0.14288129 -0.050627 -0.07779444 0.019961061 -0.085455894 0.089026645
-0.06456455 0.15570012 -0.028191982 -0.09633887 0.06629476 0.19625749 -0.13097566 -0.064046204
-0.07674184 0.044255227 -0.056609653 0.15374883 0.007156606 -0.10696072 -0.02310823 -0.040638305
0.041666456 0.043210372 -0.054007657 -0.03219313 -0.20717916 0.039815746 0.045886144 0.08655137
-0.026158007 0.101770036 -0.18300918 -0.027000897 -0.15523499 -0.097795054 0.062306218 -0.51881814
-0.027619224 0.12487047 0.37643582 0.038574953 0.0797406 0.054986827 0.05717716 0.09520621
0.016961368 0.100009896 0.10418918 0.1336477 0.049074102 0.04197456 -0.21648534 -0.14477721
-0.070332825 -0.03576974 -0.009448191 -0.08049437 -0.0039102808 -0.033538833 -0.01930768 0.050125923
00000000: b3da 203d f455 27bd 215d d9bd 1a01 153e
00000010: ddbd ca3c c93a 543d 8207 213e e374 1fbd
00000020: a88e 52bd 716f 86bd e04d 31be 7947 943e
00000030: 6774 8c3c 9b93 8f3b a94a 5fbd bc18 6cbd
00000040: 59cc babd b33e d9bc 7264 0bbe ce39 603d
00000050: c309 773e 57f4 59bd 1708 80be 702a c93d
00000060: e6b8 a33e dba7 463e 128a cb3d 726a 3cbd
00000070: e4d9 97bd 1f36 13be e590 423d ad32 9d3d
00000080: cd62 e03d dff7 5dbd d5fe 2fbc 8be9 963d
00000090: 79e1 11be 6e72 87be e481 7c3e 5222 993c
000000a0: 5865 84bc f4ef ed3c cca1 6f3d afe3 20bb
000000b0: 994f 6836 9e65 f83b 53df d6bc c403 08be
000000c0: e212 c13d 5c7d 3f3e 8de3 27be 88f8 b53c
000000d0: 7b59 93bd 34d4 bc3d f094 8bbd af76 213d
000000e0: bd5a 9b3d 7130 b0bd e817 1cbe c4c5 25bd
000000f0: 4149 2d3e fa79 5a3b 32ec 033d 0dbd a73d
00000100: 9fd4 c2bd aca6 a4bd 6a9c 383d 725d 923d
00000110: 9019 133c 9d30 243d ec75 33bd 49bc 84ba
00000120: 3832 d7bd b896 ac3c 7f2b 04bd acc7 643e
00000130: fc22 34be 4722 12be e31c 05be fb3b 9cbd
00000140: e176 06bc 6c7b 043c 9019 adbd 93e5 b4bd
00000150: a4d1 c43d 71b5 22bb 145d c5bd 865a 793e
00000160: 7472 c33c 361f 1bbe 03c3 8d3c 3bae e73c
00000170: c983 a23c 4996 bf3c fb48 9b3b ea7f c1bb
00000180: b547 aabd 1351 6c3d fdd7 633d c45f 17be
00000190: 1258 9c3d 0cec 593e b8c4 5dbe 795d 223d
000001a0: 94ae 93be d6fc b7bd d4d0 d5bd 8451 8d3c
000001b0: f3fb efbd 9dce 1cbc 32d0 443d 9f59 593d
000001c0: 8499 2abe a3c9 22bd 5b7c 06bd 4281 b73e
000001d0: 8215 9d3e 5b11 bcbc 633d 59bc d4da 023d
000001e0: f407 573d 7faf 70bd c24b c73c 630b 2e3d
000001f0: e976 dabd 6188 f43c 7b4c 54bd d7bb 283e
00000200: 77d4 95bd 969e 5dbe 9943 a93c 0728 03bd
00000210: 6f73 0bbc 9326 15bd c95f 85bd c00d b6bc
00000220: 02dc b53d b7cb 15bd 6be8 3dbe cac2 e8bd
00000230: cd83 10be 9173 2a3f 5ea3 e93e 6172 50bd
00000240: a3ea e43d 1891 333d 1012 d33c 1802 9dbd
00000250: b2a2 a03c e879 0abe d460 eabd 203a ca3d
00000260: e54c 19bd 5625 0fbd a277 093e 6e76 4cbe
00000270: 589b b9bc 75e3 cc3b 07e0 0a3c f0e2 983c
00000280: e609 e13b 4494 ca3c 5e75 6b3c fa22 4e3e
00000290: 9b90 38be c34d 39be 58ae cebc da6b fa3e
000002a0: dfec 813c fff1 babd 3507 9e3d 3eaa 173e
000002b0: be4d 383d 8102 173e fa69 973c c42a cbbd
000002c0: d8aa f5bd d691 85bd 6add 8c3d fd50 0c3e
000002d0: fea4 1abe cd28 22be 7ae6 e83d 6273 e6bd
000002e0: 9430 cfbc a069 d0bb 7fcf abbd 4f1d 57bc
000002f0: 98e8 d43d 7bc4 11bd df63 8a3d ef32 fdbe
00000300: 3bbf b53d fab3 41be 794f 123e 425e 4fbd
00000310: b152 9fbd 6185 a33c 8003 afbd 9a53 b63d
00000320: 6b3a 84bd da6f 1f3e dff2 e6bc 504d c5bd
00000330: 8cc5 873d b9f7 483e 7c1e 06be a82a 83bd
00000340: d32a 9dbd f844 353d 86df 67bd 5570 1d3e
00000350: f681 ea3b 390e dbbd 794d bdbc 5a74 26bd
00000360: 72aa 2a3d 5cfd 303d 2237 5dbd f2dc 03bd
00000370: c626 54be d615 233d 1cf3 3b3d d841 b13d
00000380: 5149 d6bc cf6c d03d c266 3bbe fc30 ddbc
00000390: ecf5 1ebe c648 c8bd ce34 7f3d 44d1 04bf
000003a0: b641 e2bc 17bc ff3d 32bc c03e c500 1e3d
000003b0: 0a4f a33d de39 613d 9932 6a3d 79fb c23d
000003c0: 91f2 8a3c fdd1 cc3d 2361 d53d f1da 083e
000003d0: ed01 493d 84ed 2b3d 55ae 5dbe 7a40 14be
000003e0: a80a 90bd 4a83 12bd 96cc 1abc 3bda a4bd
000003f0: d021 80bb 0460 09bd 242b 9ebc d750 4d3d

fc1.bias f4 [200]
0.079990596 0.042700563 0.07600614 0.033397324 -0.13721618 -0.1139078 0.0483877 -0.0075062257
-0.026917525 -0.043862093 0.054833036 -0.0052159377 -0.051723417 0.07209453 0.06962886 -0.049925465
0.07191445 -0.04850968 -0.012974824 -0.11913552 -0.029220387 0.06507868 -0.04468912 0.029876148
0.06740948 0.022288328 -0.013628072 -0.06124495 -0.0018821219 -0.19557074 -0.008453097 -0.022831064
0.058788355 0.030515444 -0.026951993 -0.006069675 -0.04398269 0.045504402 0.06969842 -0.019718464
-0.053599667 0.0026136506 0.0088792415 0.009515821 -0.027398601 -0.055720642 0.0423287 0.044194773
0.034300778 0.11009546 -0.07552268 0.020001743 -0.022984296 0.043296054 0.08015064 -0.03620936
-0.06825455 0.017279942 0.03516048 -0.11713711 -0.023002692 0.017302072 0.042097386 -0.28134242
0.052445974 0.021954753 -0.002632081 0.013901875 0.03576343 0.023720454 -0.07466573 -0.06958005
0.0111726 0.01999731 -0.021015901 0.04966172 0.017767368 -0.06574373 0.007669361 -0.053227622
0.018992376 0.059435382 -0.041034464 -0.017678121 -0.038535092 0.013831368 -0.008431306 -0.028035065
0.066964574 0.030469911 -0.03323688 -0.046881445 -0.09649857 -0.011010461 -0.013625312 0.09450676
-0.05577147 -0.07662859 -0.01382322 -0.10788084 0.0057810396 -0.041361768 0.072124876 0.05120088
0.03684685 0.06346894 -0.014295496 0.0037019297 0.024892421 -0.007238549 -0.0032376272 -0.16163003
0.005929168 0.013519024 0.014664139 0.032108285 0.023561096 0.012086852 0.0016337874 -0.05808677
-0.07043441 -0.038405742 -0.22393538 0.004765768 0.0531762 0.057582874 -0.030072818 -0.04343729
0.028981825 0.067493506 -0.07891466 -0.028895749 0.0434913 0.03908315 0.041199826 0.037070695
0.003108458 -0.05098309 0.026256174 -0.037850592 -0.12432476 -0.09747506 0.0450837 0.015288261
0.06728574 -0.07586845 -0.017627116 0.01914966 -0.10593579 -0.0065657985 -0.036225643 0.020287996
-0.022142228 0.043935288 -0.095633276 0.008329846 -0.09737293 0.06397139 0.03755711 0.007341011
0.053669363 0.010759344 -0.05072418 0.031856116 0.034843277 0.048719253 0.048668806 -0.0429645
0.01971815 0.03811944 -0.073933005 -0.0013925977 0.060156383 0.020468438 0.050246652 -0.07252237
-0.04572792 0.037821654 -0.06764931 0.046499375 0.051185507 -0.120608605 0.011069873 -0.036980566
-0.0650424 0.0021030486 -0.055493902 -0.045144033 0.054178026 -0.0012331847 0.053668153 0.05203454
-0.024025962 0.042800516 -0.0115769245 0.06413407 -0.053985428 0.033776302 0.015748786 0.02658498
00000000: 1cd2 a33d c9e6 2e3d 1ba9 9b3d a2cb 083d
00000010: 6682 0cbe 7e48 e9bd 2e32 463d c9f6 f5bb
00000020: 2482 dcbc bda8 33bd 9b98 603d 75ea aabb
00000030: efdb 53bd 4ca6 933d 9399 8e3d a57e 4cbd
00000040: e247 933d 16b2 46bd 5b94 54bc 53fd f3bd
00000050: 985f efbc f947 853d f00b 37bd d3be f43c
00000060: fb0d 8a3d 0396 b63c 4748 5fbc fcdb 7abd
00000070: 88b1 f6ba b243 48be dc7e 0abc 3608 bbbc
00000080: 0fcc 703d 86fb f93c 6dca dcbc 20e4 c6bb
00000090: 3127 34bd d362 3a3d 0cbe 8e3d 9e88 a1bc
000000a0: 538b 5bbd c849 2b3b 3d7a 113c 3fe8 1b3c
000000b0: 0873 e0bc 543b 64bd dc60 2d3d 9405 353d
000000c0: f97e 0c3d bb79 e13d a3ab 9abd b2da a33c
000000d0: 9049 bcbc 3457 313d 0526 a43d 4450 14bd
000000e0: 0bc9 8bbd aa8e 8d3c 6f04 103d 95e5 efbd
000000f0: 2470 bcbc 13bd 8d3c 4f6e 2c3d 1d0c 90be
00000100: 97d1 563d 74da b33c fe7e 2cbb b1c4 633c
00000110: ad7c 123d 6651 c23c 59ea 98bd fc7f 8ebd
00000120: 480d 373c 66d1 a33c 8a29 acbc 166a 4b3d
00000130: df8c 913c a6a4 86bd 434f fb3b 3505 5abd
00000140: e695 9b3c 8472 733d c113 28bd b5d1 90bc
00000150: f9d6 1dbd f69c 623c 7623 0abc cba9 e5bc
00000160: b924 893d 099c f93c 6523 08bd c206 40bd
00000170: 0ba1 c5bd 3865 34bc b33c 5fbc c38c c13d
00000180: a070 64bd 73ef 9cbd c97a 62bc a1f0 dcbd
00000190: e06e bd3b f56a 29bd 35b6 933d 04b8 513d
000001a0: b9ec 163d 01fc 813d a837 6abc 139c 723b
000001b0: 31eb cb3c 5a31 edbb 5f2e 54bb 5882 25be
000001c0: 7749 c23b e57e 5d3c db41 703c fa83 033d
000001d0: 3303 c13c ef07 463c cf24 d63a 65ec 6dbd
000001e0: ea3f 90bd 574f 1dbd 514f 65be 292a 9c3b
000001f0: 49cf 593d 05dc 6b3d 455b f6bc 4deb 31bd
00000200: 4b6b ed3c 093a 8a3d 029e a1bd c7b6 ecbc
00000210: ef23 323d a715 203d 26c1 283d 71d7 173d
00000220: 45b7 4b3b a5d3 50bd 3017 d73c 3909 1bbd
00000230: fb9d febd 01a1 c7bd b0a9 383d 9d7b 7a3c
00000240: 1bcd 893d eb60 9bbd be66 90bc bfdf 9c3c
00000250: ddf4 d8bd e925 d7bb 5761 14bd 0333 a63c
00000260: 9e63 b5bc 7df5 333d 61db c3bd e879 083c
00000270: 756b c7bd 6f03 833d 7cd5 193d dd8c f03b
00000280: 68d4 5b3d f647 303c 28c4 4fbd 8f7b 023d
00000290: d3b7 0e3d d78d 473d f158 473d 8bfb 2fbd
000002a0: f587 a13c 2123 1c3d 306a 97bd d387 b6ba
000002b0: 8a66 763d 6dad a73c 6fcf 4d3d 9c86 94bd
000002c0: 334d 3bbd e1ea 1a3d b98b 8abd 2176 3e3d
000002d0: e5a7 513d a501 f7bd 6a5e 353c ef78 17bd
000002e0: f334 85bd 4dd3 093b 934d 63bd f3e8 38bd
000002f0: c7e9 5d3d d0a2 a1ba 23d3 5b3d 2b22 553d
00000300: 18d2 c4bc 984f 2f3d 24ad 3dbc b958 833d
00000310: d31f 5dbd 0559 0a3d 9903 813c bec8 d93c

fc3.weight f4 [100, 200]
0.08308049 -0.061803628 -0.009004859 -0.025004117 0.05807797 -0.0009736153 0.0026472975 -0.04123346
0.046982985 0.07212459 0.06353805 -0.17963852 -0.16520561 -0.013177721 -0.046423227 -0.049059365
0.05028154 -0.0012260663 0.008986498 -0.103879474 0.032118954 0.023274211 0.084251344 0.05454916
0.08707772 -0.017881779 0.0633707 0.018248802 -0.037066773 -0.023129642 -0.06480169 -0.02008907
-0.0337172 0.06252545 -0.04963603 -0.03359328 0.018446608 -0.035959642 -0.0039750976 -0.10524018
-0.07303663 -0.1415784 0.025896775 0.008058934 -0.07019507 -0.18632011 -0.028170828 -0.2966463
-0.25623965 0.044783294 0.01760114 0.14436874 -0.038066834 -0.11854137 0.059576098 0.009061823
0.026525568 -0.036567878 0.02446798 -0.13726228 -0.0007278361 0.07501052 -0.031392507 -0.00994172
0.02826319 -0.089293085 0.028110975 0.031430047 -0.015470014 0.0009485818 0.009793651 -0.06409679
0.046172082 0.043053508 0.06762026 -0.019627865 0.04819672 -0.0073876497 -0.32065338 0.047732394
0.0051991018 0.04502813 -0.12665668 -0.11771812 -0.021136383 -0.03586428 -0.08178185 -0.10389155
-0.058423467 0.14874142 0.02619311 -0.14094456 -0.035933804 -0.10868983 -0.0054664747 -0.09229291
-0.02156236 -0.051801126 0.016740922 -0.038159426 0.053213462 0.045539387 0.006997896 0.017383901
-0.10101913 0.027001753 -0.036735926 -0.07921536 0.028262213 0.0754655 0.07073286 -0.062278673
-0.02607423 -0.039652728 -0.13051228 0.033786826 0.05777385 0.07305373 0.0090046935 -0.09899173
-0.14664643 0.22734967 -0.28959653 0.088265374 -0.06331477 0.066677496 -0.10673828 -0.036847614
-0.18488318 0.06847258 -0.105629474 -0.04649573 0.055843707 0.054157488 0.019255904 0.016446725
0.099301584 0.011822399 -0.050841186 0.035902526 -0.10294712 -0.06410426 0.012872207 -0.041882996
-0.06389676 0.0035210669 -0.058173455 -0.04021838 0.03861736 -0.05404662 0.029449884 -0.05155901
-0.04228665 0.029722651 0.019067654 -0.057717294 0.009328032 -0.030689633 0.060164407 -0.14169905
0.011049217 0.05406268 -0.08415167 -0.16969405 -0.14739966 0.006723959 -0.13149698 0.040276494
0.07639527 0.011973175 -0.026947478 -0.098689295 0.032365605 0.019104913 -0.037958223 -0.022739775
0.019097185 0.08061847 0.13753419 0.042595416 -0.032892786 -0.024402095 0.029428555 0.01978523
0.027797826 -0.047719408 -0.12875518 -0.15354566 0.05977849 0.07409971 0.033937935 0.017874015
-0.0026613732 0.036155343 0.07464378 0.0027314809 -0.0005905145 0.015711112 -0.00903623 0.012506066
0.092347786 0.5501705 0.07492783 -0.12552103 0.046769228 0.08955583 0.088162 0.089658625
0.148211 -0.10201974 0.0008098173 -0.25862175 -0.2946753 -0.014940241 -0.04847028 0.14777544
0.048045907 0.017073851 0.025030507 0.035452984 -0.10118678 0.23247263 0.06375716 0.013477414
0.04739742 0.12967634 -0.067247964 0.20839728 0.06749705 -0.15042898 0.16121486 0.2161644
-0.01966409 -0.01912308 -0.11457755 -0.04069515 0.047793623 0.10019777 0.024549225 -0.24915779
-0.055192962 -0.030800223 0.088664986 0.02462245 -0.2395056 0.06463504 0.10797865 -0.7850338
-0.2517994 0.083316006 0.047043752 0.10835337 0.11267789 0.09175926 0.0133037 0.008422562
00000000: 1b26 aa3d cd25 7dbd 1e89 13bc 6fd5 ccbc
00000010: 2ae3 6d3d 373a 7fba 487e 2d3b 6be4 28bd
00000020: 3b71 403d 0fb6 933d 3d20 823d 29f3 37be
00000030: a92b 29be 5ee7 57bc 4826 3ebd 79f2 48bd
00000040: 04f4 4d3d f5b3 a0ba 1b3c 133c c3be d4bd
00000050: 2a8f 033d 8fa9 be3c f88b ac3d f16e 5f3d
00000060: ce55 b23d cf7c 92bc 7fc8 813d 837e 953c
00000070: 54d3 17bd 607a bdbc c0b6 84bd d591 a4bc
00000080: 0c1b 0abd 580d 803d 264f 4bbd 1b99 09bd
00000090: 571d 973c 6b4a 13bd 8941 82bb 2a88 d7bd
000000a0: 3b94 95bd eef9 10be 7925 d43c 9e09 043c
000000b0: 6fc2 8fbd b3ca 3ebe 82c6 e6bc 06e2 97be
000000c0: d831 83be b06e 373d 4430 903c 66d5 133e
000000d0: f8eb 1bbd d1c5 f2bd 1106 743d 0a78 143c
000000e0: 264c d93c 33c8 15bd 1371 c83c 7c8e 0cbe
000000f0: 41cc 3eba 1e9f 993d 6e95 00bd 99e2 22bc
00000100: 3588 e73c 4bdf b6bd fd48 e63c cbbc 003d
00000110: f175 7dbc 3faa 783a 8d75 203c 2e45 83bd
00000120: f01e 3d3d e058 303d 7e7c 8a3d 9eca a0bc
00000130: ed69 453d 1914 f2bb ae2c a4be 0b83 433d
00000140: 3a5d aa3b 6b6f 383d 4ab2 01be 3316 f1bd
00000150: 3526 adbc 6ce6 12bd 3e7d a7bd 18c5 d4bd
00000160: 724d 6fbd ac4f 183e ef92 d63c c553 10be
00000170: 532f 13bd c698 debd 1d20 b3bb 1104 bdbd
00000180: 8ca3 b0bc 6b2d 54bd 4224 893c 0f4d 1cbd
00000190: 5cf6 593d 8287 3a3d 9b4e e53b af68 8e3c
000001a0: 1ee3 cebd c832 dd3c 6978 16bd aa3b a2bd
000001b0: 2886 e73c a88d 9a3d 64dc 903d ec17 7fbd
000001c0: a099 d5bc e66a 22bd 03a5 05be 0e64 0a3d
000001d0: 46a4 6c3d 329d 953d 6c88 133c 2dbc cabd
000001e0: 7b2a 16be 5ace 683e ff45 94be 7ac4 b43d
000001f0: 2dab 81bd 368e 883d 9999 dabd 86ed 16bd
00000200: 0452 3dbe 5a3b 8c3d 4454 d8bd 4e72 3ebd
00000210: 5fbc 643d 3ed4 5d3d 8fbe 9d3c 48bb 863c
00000220: a15e cb3d bcb2 413c d93e 50bd 870e 133d
00000230: f1d5 d2bd 1849 83bd f3e5 523c 818d 2bbd
00000240: 4edc 82bd b3c1 663b 4a47 6ebd 07bc 24bd
00000250: 3d2d 1e3d fd5f 5dbd e240 f13c 8a2f 53bd
00000260: c434 2dbd eb7c f33c c533 9c3c f868 6cbd
00000270: 9ad4 183c d368 fbbc f46e 763d 8e19 11be
00000280: c607 353c d470 5d3d b657 acbd 47c4 2dbe
00000290: f0ef 16be a854 dc3b 25a7 06be f7f8 243d
000002a0: 2075 9c3d 232b 443c f5c0 dcbc 9d1d cabd
000002b0: cc91 043d e881 9c3c 157a 1bbd c448 babc
000002c0: b371 9c3c 4c1b a53d c3d5 0c3e 8878 2e3d
000002d0: 96ba 06bd e7e6 c7bc 2714 f13c a214 a23c
000002e0: 44b8 e33c 6d75 43bd 66d8 03be 133b 1dbe
000002f0: 4ada 743d 97c1 973d 8102 0b3d 876c 923c
00000300: 6f6a 2ebb a017 143d d7de 983d a502 333b
00000310: c2cc 1aba 97b4 803c b20c 14bc 3ee6 4c3c
00000320: d620 bd3d f9d7 0c3f c373 993d 9688 00be
00000330: 1791 3f3d 0c69 b73d 478e b43d f19e b73d
00000340: a0c4 173e baef d0bd eb49 543a 126a 84be
00000350: aedf 96be eac7 74bc c688 46bd 7252 173e
00000360: c9cb 443d 76de 8b3c c70c cd3c 2637 113d
00000370: 043b cfbd 4e0d 6e3e 1d93 823d 5fd0 5c3c
00000380: cc23 423d e0c9 043e 4db9 89bd 1966 553e
00000390: e53b 8a3d 0e0a 1abe 8215 253e 335a 5d3e
000003a0: 9616 a1bc 01a8 9cbc a2a7 eabd f5af 26bd
000003b0: 3fc3 433d 7d34 cd3d 751b c93c 3823 7fbe
000003c0: 0412 62bd c050 fcbc fd95 b53d 05b5 c93c
000003d0: f540 75be 605f 843d e923 dd3d faf7 48bf
000003e0: daeb 80be 95a1 aa3d f3b0 403d 5fe8 dd3d
000003f0: aac3 e63d 47ec bb3d c3f7 593c c9fe 093c

fc3.bias f4 [100]
-0.054390576 -0.033740368 0.072700754 -0.049078252 -0.009323611 -0.035207283 0.04132414 0.066554554
-0.0009793882 0.08071038 0.058841124 0.07903894 0.07434906 0.046781823 0.08260312 0.04423287
-0.02661983 0.0117865335 0.10941153 0.0818003 0.064344086 0.050309677 0.0015270342 -0.0029104399
0.025123673 0.03066502 0.0019621642 0.08520194 -0.008882234 -0.021717727 -0.009256659 0.09836339
-0.06378348 -0.029892119 0.016392328 0.0036853692 0.07807799 -0.033206668 -0.002472756 -0.014005363
0.0022611949 -0.020444296 0.06401178 0.06902625 0.004810937 0.006736094 0.054723267 0.040300597
0.036593914 0.06973448 -0.05809926 -0.0041656066 -0.069414996 0.01282949 0.026293727 0.04531981
0.005342646 -0.03764266 0.038907684 0.0385062 -0.06703177 -0.07945901 0.013460146 -0.013905419
-0.03948411 -0.0009248756 -0.012845087 0.047048323 0.04528539 0.0003674473 0.026000397 -0.045599774
0.039971832 -0.06458506 -0.044381145 -0.0027460249 -0.034714624 -0.037961125 -0.06365171 -0.018398691
0.031149514 0.00619787 -0.01318979 -0.045073077 -0.07046371 0.04773469 0.0053267065 -0.02263037
-0.085177355 -0.04817641 0.03689472 -0.011583638 -0.049260136 -0.038883068 -0.07198057 -0.07484616
0.051513076 0.04439255 0.043615673 -0.08690827
00000000: a7c8 5ebd 5733 0abd 22e4 943d 4706 49bd
00000010: 0fc2 18bc 8335 10bd 8043 293d c14d 883d
00000020: d15e 80ba 7c4b a53d 6403 713d 2bdf a13d
00000030: 5244 983d 4c9e 3f3d d32b a93d 872d 353d
00000040: d411 dabc 4e1c 413c 2713 e03d ea86 a73d
00000050: d5c6 833d 8511 4e3d c426 c83a 14bd 3ebb
00000060: 29d0 cd3c 3535 fb3c a797 003b 5b7e ae3d
00000070: ca86 11bc 60e9 b1bc 3ea9 17bc bf72 c93d
00000080: eaa0 82bd 51e0 f4bc 3449 863c 3c86 713b
00000090: 5ae7 9f3d b703 08bd f60d 22bb c076 65bc
000000a0: 8e30 143b cc7a a7bc 9c18 833d a25d 8d3d
000000b0: 11a5 9d3b 74ba dc3b 8125 603d 3d12 253d
000000c0: 80e3 153d f3d0 8e3d 7df9 6dbd a47f 88bb
000000d0: 7329 8ebd c832 523c f165 d73c 44a1 393d
000000e0: 5d11 af3b 312f 1abd aa5d 1f3d adb8 1d3d
000000f0: f447 89bd 68bb a2bd f287 5c3c 8ed3 63bc
00000100: 17ba 21bd 5a73 72ba 3374 52bc beb5 403d
00000110: 2c7d 393d f1a5 c039 c9fe d43c d4c6 3abd
00000120: 81b9 233d 2c45 84bd 01c9 35bd a7f6 33bb
00000130: ec30 0ebd 207d 1bbd d45b 82bd dab8 96bc
00000140: 442d ff3c 8017 cb3b fd19 58bc 8c9e 38bd
00000150: 474f 90bd 7385 433d a78b ae3b 5363 b9bc
00000160: 7771 aebd a154 45bd eb1e 173d 4dc9 3dbc
00000170: ffc4 49bd da43 1fbd 8d6a 93bd f248 99bd
00000180: 60ff 523d f6d4 353d 59a6 323d f7fc b1bd
