training_model/wandb/run-20200624_230454-wprihw13/fir_6cov_2.pt (torch_old, 139892 bytes, 16 tensors)

encode_conv1.weight f4 [4, 12, 3]
000000 ea 59 d0 bc 19 19 ff bd 16 2d ec 3d 51 1d 9e 3e
       -0.0254335 -0.12455959 0.11532037 0.30881742
000010 ed 49 5b 3d 61 8c 9c 3d 74 f6 73 bd 4c 78 ac bc
       0.053537298 0.07643963 -0.059561208 -0.021053456
000020 09 02 c6 bd db 02 2c 3d b1 ce dd bd 0e 17 22 3d
       -0.09668357 0.04199491 -0.10830439 0.039572768
000030 4f 4c 5d be f1 5c 8b 3d ee d5 50 be 73 4f 76 3e
       -0.2161114 0.068048365 -0.20394108 0.24053745
000040 02 8c 5c bd bc a4 55 bd 70 aa 28 3d 08 56 f3 3c
       -0.05384446 -0.052159056 0.041178167 0.029704109
000050 12 e1 ba bd ef 00 80 bc b1 c8 6f bd 39 3b de 3d
       -0.0912496 -0.015625445 -0.058541004 0.108511396
000060 ba 20 f5 bd f1 d8 bf bd 0a 7b d7 bd 41 cd c6 3d
       -0.11969133 -0.0936755 -0.10521515 0.09707118
000070 3e de 95 3d 0a dc 91 bd d7 01 87 3c 55 f8 33 3e
       0.0731778 -0.07122047 0.01648037 0.175752
000080 d1 40 26 bd 66 a6 9c bc 6c 42 83 3c ed c1 84 bd
       -0.040589157 -0.019122314 0.016022883 -0.06482301
000090 bc a3 c0 bd 40 1e 43 bd 38 36 82 bd 3c dc ae 3d
       -0.0940623 -0.04763627 -0.06357998 0.085381
0000a0 c4 03 92 3e 59 f3 6f 3e 77 b6 03 be 50 ac 9c 3c
       0.28518498 0.23432674 -0.12862574 0.019125134
0000b0 d5 ae a2 3d 48 cf 05 3a 2a 6b 8b 3c 9f be 0f 3d
       0.07943503 0.00051044347 0.017018873 0.0350939
0000c0 d1 89 16 bd 35 92 42 3d a9 fa 42 bd 60 0b d7 3a
       -0.036752526 0.047502715 -0.04760233 0.0016406588
0000d0 5a e7 b6 3e 0d df 86 3e a9 38 a5 3d 0a 00 ad bc
       0.35723382 0.2634205 0.08067448 -0.021118183
0000e0 14 e7 00 3d 63 4d 43 be a7 91 8a 3e 2a 2c 6b 3e
       0.031470373 -0.1907249 0.2706425 0.22966066
0000f0 c1 81 1f 3e 47 fa 76 3b 4a ff c2 3c c5 0a 7c 3d
       0.15576841 0.0037685798 0.023803372 0.061533708
000100 24 a4 60 3e 1f bb 7b 3e bc dd b6 bc 3e cc 43 bd
       0.21937615 0.245831 -0.022322528 -0.047802202
000110 d3 e5 5e 3e 85 dc 66 bd 9a e3 ad bd ac f8 de 3d
       0.21767358 -0.056362648 -0.08490677 0.10887274
000120 1e a9 cc 3d 4e 2f 85 3e ff 5a 66 3e 9e 70 5c 3e
       0.09993194 0.26012653 0.2249565 0.21527335
000130 be 70 b9 bd 36 87 9d bd 8d 02 b6 3d 88 ad 32 3e
       -0.09054707 -0.07691805 0.08887205 0.1744901
000140 5c 3b 4f 3d 22 4e 69 bd 45 b9 02 3e 0a 5b 79 3d
       0.05059372 -0.05695928 0.12765987 0.060877837
000150 c9 e2 c4 bc f7 6f b8 bd 07 98 88 3e bb e5 1a bc
       -0.02403392 -0.090057306 0.26678488 -0.009454186
000160 d7 74 3e be ea fc 74 bc ea 6d 18 bc ca 2f 55 bd
       -0.18599258 -0.014952878 -0.009303549 -0.05204753
000170 18 08 89 3c f0 66 ba 3d 5d d6 9f bd 71 78 fa bc
       0.016727492 0.09101665 -0.078045584 -0.030575009
000180 46 0e 24 be a0 8c 06 3e b5 78 97 3e 21 d5 cb 3d
       -0.1602107 0.13139582 0.2958428 0.099527605
000190 d9 d0 58 b8 62 f3 d2 3d 0d 5d 5a 3d aa d0 4d bd
       -5.1692918e-05 0.10300328 0.053311396 -0.050247826
0001a0 95 62 3b 3e a0 8c 38 bc 08 da 90 3d 77 63 93 3e
       0.18299325 -0.011263996 0.07072836 0.28786823
0001b0 e5 d4 0d 3d 1b 3c 1e be 2f 5f 46 3e 63 02 5a bd
       0.03462686 -0.15452616 0.19372247 -0.053224932
0001c0 b2 21 b5 be a3 5f 3f be fd 19 89 bd 3e 45 58 bc
       -0.3537727 -0.18688826 -0.0669441 -0.013200102
0001d0 22 7f 26 3d b0 e3 a9 bc 6d 5f cb bd 0f 60 bf bd
       0.040648587 -0.020738453 -0.099303104 -0.093444936
0001e0 51 a3 c3 3d 75 73 85 3e bf b8 7c 3e fa 3f 1e be
       0.095526345 0.2606465 0.2467985 -0.15454093
0001f0 1b 01 7f 3e 43 7b 4a be 21 0b bd 3d 83 a8 bd 3e
       0.24902765 -0.19773583 0.09230638 0.37042627
000200 30 b3 1d 3b 18 0c 32 3d 7b 39 42 3e fd af d6 3d
       0.0024063103 0.043468565 0.1896724 0.10482786
000210 f1 4b ee 3b 7d d7 0f be 1b 6b a0 3e c5 8f 9f bd
       0.0072722365 -0.14047046 0.31331715 -0.07791094
000220 d7 cf 31 bd 74 12 55 be 14 30 f6 bd ae f0 19 be
       -0.043411102 -0.2080782 -0.12020889 -0.15033218
000230 1b 2a d6 3d ea 8c 39 bc 33 06 83 be db a1 80 bd
       0.1045725 -0.0113251 -0.25590667 -0.062808715

encode_conv1.bias f4 [4]
000000 5f 23 d9 bc 5e 43 e6 bd 32 53 f6 bd d9 4a 46 3d
       -0.026506124 -0.11243318 -0.12027587 0.048411224

encode_conv2.weight f4 [4, 4, 3]
000000 4c 6f ce 3e c6 5e cb 3f 27 c7 a5 3d 6b bd 8e 3e
       0.40319288 1.5888298 0.08094626 0.2787889
000010 8b 59 bb 3e 60 db 19 bd 4b d7 bf 3e 1b 75 96 3e
       0.36591753 -0.037562728 0.37468943 0.2938622
000020 bb 3e cb bd 78 c5 ff be 39 e9 ee 3d b0 e8 19 3f
       -0.09924074 -0.49955344 0.116655774 0.6012068
000030 4b 1b 87 3e c3 d6 3f bf 81 c6 31 be 59 a7 01 3e
       0.2638801 -0.74937075 -0.1736088 0.12661494
000040 f4 e9 12 be 99 7f 25 be 22 e4 10 3e 93 68 e0 3e
       -0.14347059 -0.16161956 0.14149526 0.43829784
000050 d7 f8 dd 3e 8d 87 e8 3e 53 e1 19 3f 70 4b d1 3e
       0.43353912 0.45415917 0.6010944 0.40877867
000060 8e dc bf 3d 2e 29 b9 be 8c 73 c3 3e 89 b2 98 3e
       0.09368239 -0.3616423 0.38174093 0.29823712
000070 e4 7b b8 3e 82 2f 86 be ae 5f 97 3e 13 dd 3b be
       0.3603202 -0.2620812 0.29565185 -0.18346052
000080 07 e8 58 bd ca b0 bb 3e 1e 4d 46 be f8 82 8a be
       -0.052955654 0.36658317 -0.19365355 -0.27053046
000090 df da 0e 3d cd a3 43 bd 09 50 9f be 03 91 02 3e
       0.0348767 -0.047763634 -0.3111575 0.1275063
0000a0 82 a9 83 bd d6 56 2d be 23 c7 b0 be 54 1a d5 bd
       -0.064288154 -0.16927657 -0.3452693 -0.10405412
0000b0 b0 39 73 3d 9b d7 09 3e d4 04 5c 3c 01 96 44 3d
       0.059381187 0.13461153 0.0134288855 0.047994617

encode_conv2.bias f4 [4]
000000 06 01 93 be c2 79 db bc d3 58 0a 3e ca fd 59 be
       -0.28711718 -0.026791457 0.13510446 -0.21288219

encode_conv3.weight f4 [8, 4, 3]
000000 3d cf af 3e 27 5c 83 3e 3e ff 50 be b7 b7 b4 3d
       0.34337798 0.25656244 -0.20409867 0.08824103
000010 e3 e1 9f be ca 04 19 bc 29 27 8a 3e 62 d4 cf bb
       -0.31227025 -0.009339521 0.26983002 -0.0063424567
000020 a1 72 c9 bd 82 1c e5 be 57 cf a3 3e 8f db 36 bc
       -0.09836317 -0.44748312 0.31994125 -0.011160745
000030 15 f2 a8 3e 2d cf 1d 3f 93 f5 62 be a0 b2 b9 bd
       0.32997194 0.6164425 -0.22163992 -0.09067273
000040 d9 cb 39 be af 2e ea be d5 a3 32 be be c3 64 3c
       -0.18144168 -0.45738742 -0.1744531 0.013962684
000050 ba b1 a7 be b9 8c ae 3e df 25 6e 3e 0c 8f 04 be
       -0.32752782 0.34091738 0.23256634 -0.12945193
000060 84 de 0d 3f 47 94 7e 3e 90 d6 df bd bd 59 91 be
       0.55417657 0.24861251 -0.109295964 -0.28388777
000070 d8 2c d9 3b 9a 65 89 3e c2 f2 db bd 37 27 12 3e
       0.0066276602 0.26835328 -0.10739662 0.14272772
000080 b5 72 59 3e de 47 80 3d b4 77 dc bd 7c 8c f2 bc
       0.21235164 0.062637076 -0.10765019 -0.029608004
000090 8e 77 d4 3d ee ba 4d 3e 4e 4c 82 3e 28 1b 5f 3e
       0.10374366 0.2009084 0.2544884 0.21787703
0000a0 55 06 3b be 01 9f d5 3e e9 5c 44 3e ec 87 95 3e
       -0.18264134 0.41722873 0.19176067 0.29205263
0000b0 96 4f 9f be b0 23 a2 be a5 d7 ad 3d 8c 48 a4 bd
       -0.31115407 -0.31667852 0.084883966 -0.0802165
0000c0 58 3f 12 3f 55 7d 29 bd e6 0b 0b bf fc a3 d9 3d
       0.57127905 -0.04137929 -0.5431503 0.10626981
0000d0 8e f1 8c be 8f 1e 43 be c4 db dd 3e 24 bd 94 3e
       -0.27528042 -0.19054626 0.4333173 0.29050553
0000e0 09 1a dc bd 1a 47 b4 be 97 66 08 bc 11 20 99 be
       -0.10747153 -0.35210496 -0.008325241 -0.29907277
0000f0 c0 32 84 be b2 2e eb 3d 00 c2 17 be 6d 83 a6 bd
       -0.2581997 0.11483516 -0.14820099 -0.08130536
000100 00 54 cf bd f4 f7 07 be 79 07 76 3e f2 83 5a bd
       -0.101234436 -0.1327818 0.24026288 -0.05334849
000110 83 1f 30 3e 35 59 8b be 3d 4f 71 be c0 8a b5 bc
       0.17199521 -0.27216497 -0.23565383 -0.022160888
000120 12 3e cb 3e 8f ea 09 3e e2 09 e8 3d b5 9c 29 be
       0.39695793 0.13468383 0.1133001 -0.16563685
000130 9a b7 56 3c 6b dc de 3e 48 c5 9f bd a6 54 a5 bd
       0.013105297 0.4352754 -0.078013 -0.08072786
000140 7a 30 df 3d 34 a7 4e bc 1b 23 e0 3e b2 b2 ac 3e
       0.10897918 -0.0126131065 0.43776783 0.33730084
000150 52 c7 98 be 17 90 1a bd a2 cb 22 3e 0f e3 4c be
       -0.2983957 -0.03773507 0.15897992 -0.20008491
000160 b4 e3 b5 3d a6 7d 88 3e 85 34 25 be 7f 97 fa 3d
       0.088813215 0.26658362 -0.16133316 0.12235927
000170 de ab c7 3c fb 4d ce 3c 9b fa 47 3e cc 07 ed bd
       0.024373945 0.025183668 0.19529192 -0.11573753

encode_conv3.bias f4 [8]
000000 95 4f 42 3e 86 46 5d 3e ce b6 39 3d 81 94 87 3e
       0.1897567 0.21608934 0.04534035 0.26480487
000010 47 26 21 3e 56 08 34 3e da b6 71 be a6 25 80 3e
       0.15737258 0.17581305 -0.23604909 0.25028723

encode_conv4.weight f4 [8, 8, 3]
000000 e0 a3 af 3d 76 78 b3 3d aa 8a ac 3c 57 aa 90 bc
       0.085761786 0.087632105 0.021062214 -0.01765935
000010 67 c0 d3 3d 85 33 1a 3e ad 30 8f 3d a4 7f 20 bb
       0.10339432 0.15058716 0.06991706 -0.0024490142
000020 56 72 6c 3e c6 cb 5d 3e 83 80 b6 3d d7 49 8a bd
       0.2309049 0.21659765 0.089112304 -0.06752365
000030 db a5 bd be eb 2d 78 3e 72 25 e4 3d f6 3c 6e 3e
       -0.370406 0.24236266 0.111399546 0.23265442
000040 1e fa 35 3d cc b9 58 3d f1 e4 c9 3d dc 13 0b 3e
       0.044427983 0.052911565 0.0985812 0.13581795
000050 64 41 77 bc b0 e3 e2 3c 85 fd ef bc be 22 98 bd
       -0.015091274 0.02769646 -0.029295692 -0.074285015
000060 a8 f2 57 3d cf 83 27 be 4e 0c c3 bd 2f c1 8c 3d
       0.05272165 -0.16358875 -0.09523831 0.06872784
000070 b7 9f 3d 3e fc 79 5c bd bd cd f0 bd 14 33 a7 3d
       0.18517958 -0.05382727 -0.117579915 0.08164039
000080 8c 57 ac bd 5f 51 14 3e 36 a2 38 be d5 26 4c be
       -0.08415136 0.14484166 -0.18030629 -0.19936688
000090 ff d2 2c be 04 a8 f3 bd 58 a3 88 bc b4 74 5e 3c
       -0.16877364 -0.11897281 -0.01667945 0.013577629
0000a0 0c 4f c8 3d 19 dc a7 bd 36 5e fd bd 70 53 d2 bd
       0.09780702 -0.08196277 -0.12371485 -0.10269821
0000b0 29 fe 06 bd 83 97 34 3e 2f fc df 3d 3c e9 85 bd
       -0.03295723 0.17635922 0.10936772 -0.065386266
0000c0 4b 0f d2 3b be bc 35 3e eb 54 e8 3d 4e cc 87 be
       0.0064105145 0.1774778 0.11344322 -0.2652306
0000d0 36 5c a7 be ba 02 e8 bc 86 a1 f9 bd ce 34 c5 bd
       -0.3268754 -0.028321613 -0.12189011 -0.09629212
0000e0 3f de 90 3e fb 45 36 be e4 c0 42 3d 07 5a 4f 3d
       0.2829456 -0.17800133 0.047547236 0.050622966
0000f0 66 cb 28 bd d2 2e b1 be 54 9c 27 bd 7c ac e9 bc
       -0.0412096 -0.34606034 -0.04092057 -0.02852463
000100 3f b5 1a 3d 18 c6 1b be b7 13 0a be 7c 73 7b bd
       0.037770506 -0.15212286 -0.13484083 -0.06138943
000110 6b 18 64 3e bf 0e 4a bd d2 64 8c 3d 2b ff 76 3e
       0.2227494 -0.04933047 0.068551674 0.24120776
000120 35 82 e6 bd 82 87 9a be 82 e1 06 be ee 49 72 be
       -0.11255304 -0.3018151 -0.13171962 -0.23661014
000130 6c d8 e7 3e 49 fb 09 3e 41 24 0a be 05 7b db 3d
       0.45282304 0.13474764 -0.13490392 0.107168235
000140 44 a8 0d 3d a9 87 4c 3e 92 f4 0a 3e 04 0f 0d be
       0.0345843 0.19973625 0.13569859 -0.1377526
000150 69 c0 2a bf ac 28 cb be ac 8c d3 be 58 25 1e be
       -0.66699845 -0.39679468 -0.41318262 -0.15443933
000160 cf 79 3d bd 4c ba a3 bd f3 fa 28 bc 79 16 51 3e
       -0.046258744 -0.07994518 -0.010313737 0.20418729
000170 e1 62 a0 3e d5 88 01 3e da bb d8 3d 06 1c 65 bc
       0.3132544 0.12649854 0.10582705 -0.013983732
000180 0c 97 27 be 20 5b 3a 3e 87 cc 01 3e 4a d2 07 be
       -0.16366214 0.18198824 0.12675677 -0.13263813
000190 6f ff 80 be e1 71 59 3e 13 39 2c 3c ee 29 85 3e
       -0.2519488 0.21234848 0.010511654 0.26008552
0001a0 98 4b d0 3c 5f 1d 06 3e 3c 84 e6 bd 1c 24 f0 bd
       0.02542667 0.13097142 -0.112556905 -0.11725637
0001b0 17 77 5d 3e c8 15 fd bd ef f9 e2 3d 77 17 3b 3e
       0.2162746 -0.1235767 0.11082827 0.1827067
0001c0 3a a6 30 3e 85 55 08 3e e8 4e f0 3d 06 48 5d 3e
       0.1725091 0.13313873 0.117338 0.21609506
0001d0 5c 56 2c be 67 7a 11 bd 80 ea 93 3d 82 56 32 be
       -0.16829818 -0.035517123 0.07222462 -0.17415813
0001e0 b1 6c 15 bd 0c 97 8c be ed d8 ac be 58 6d f5 3c
       -0.03648061 -0.2745899 -0.3375925 0.029959366
0001f0 ab 02 4a 3e ba 97 a8 be db 37 60 3c 4c aa 72 be
       0.1972758 -0.32928258 0.013685192 -0.23697776
000200 b0 c8 18 3e 07 15 98 3c 5e 17 98 bd 62 ba 11 3e
       0.14920306 0.018564714 -0.07426332 0.14231256
000210 a6 70 df bc 9a 3f 6b 3e 6c c8 81 bd be ab a4 bd
       -0.027275395 0.22973481 -0.063370556 -0.0804057
000220 a3 15 1a 3e 08 fe 1a be ca a5 a1 3e 21 9e 84 3e
       0.15047316 -0.15135968 0.315718 0.25901893
000230 c1 ea 4c 3e 53 a0 5c 3d 5e c9 38 3d db f1 a6 bd
       0.20011427 0.053863835 0.045113914 -0.08151599
000240 ba fc aa 3e 6a aa cc bd e0 07 65 be 50 64 79 3c
       0.3339594 -0.099934414 -0.22366285 0.01522167
000250 e1 f2 20 be 13 c4 d7 3e 2e 1c 58 3e d4 45 10 be
       -0.15717651 0.4214178 0.211045 -0.14089137
000260 c0 1b 49 be ad bc dc 3d a1 5e 20 3e ee 70 0e 3e
       -0.19639492 0.107781745 0.15661098 0.13910267
000270 38 1d df 3e 55 09 22 3d 73 64 1e 3c f5 12 0f bd
       0.4357698 0.03955968 0.009667504 -0.03493019
000280 97 19 02 be 82 4f f6 bd 54 a7 32 bd 17 57 19 3c
       -0.12705074 -0.12026884 -0.043616608 0.009359143
000290 84 75 19 bd fa 92 fe 3d 2f d6 ad 3e 45 b7 34 3e
       -0.037465587 0.12430377 0.33952472 0.17648037
0002a0 d0 90 5e bd 74 fd b8 3c b4 49 1d be b6 48 1f 3e
       -0.054337323 0.022581793 -0.15360147 0.15555081
0002b0 05 93 af 3d 8d 45 0e 3e 19 ec a0 3d 1d a4 65 3e
       0.085729636 0.13893719 0.07857532 0.22425885
0002c0 85 a2 2e bd 33 fd 57 3e fc 5e 71 be 91 96 7d 3e
       -0.04263546 0.21092682 -0.2357139 0.24764468
0002d0 0e e0 7e be 35 26 49 be f1 28 91 be 06 8f 77 bc
       -0.24890158 -0.19643481 -0.28351548 -0.015109783
0002e0 17 a4 67 3e 27 1b 9a 3c 71 be 3d 3c ad 40 38 3e
       0.22621189 0.018811775 0.011581049 0.17993422
0002f0 22 ea 38 3e ae e3 0c 3d b2 38 0a 3e 93 68 b7 bd
       0.18058065 0.03439682 0.1349819 -0.08955493

encode_conv4.bias f4 [8]
000000 27 0e a6 bd be 19 97 3d cf a1 47 3e 98 93 59 3d
       -0.08108168 0.07377957 0.19495319 0.053119272
000010 31 e9 62 3e 86 bf 02 3e 00 3c 74 3d f7 4c f7 3d
       0.22159268 0.12768373 0.059627533 0.12075227

encode_conv5.weight f4 [16, 8, 3]
000000 d8 6a 30 3d 19 4d 9d 3d 95 e2 a2 be ae b6 54 3e
       0.043070644 0.07680721 -0.31813493 0.20772812
000010 a7 5c e9 bd f3 65 45 bd 48 b4 38 be f7 f5 2a 3e
       -0.11394625 -0.04819293 -0.18037522 0.1669539
000020 c3 df 24 3e 26 2b 3e 3e bd 10 0e 3f b6 c9 a6 be
       0.16100983 0.18571147 0.5549429 -0.32575768
000030 aa 6a 1c be ee 20 a8 bc f3 97 90 3d 91 25 dc bd
       -0.15275064 -0.020523515 0.07060232 -0.10749353
000040 72 49 05 be 4d ab 1e be 59 88 c0 3d 44 9c 90 be
       -0.13016298 -0.15495034 0.09401006 -0.2824422
000050 8f 4b 31 be 68 aa 3d 3e 05 16 b1 3d d4 ea 63 bd
       -0.1731398 0.18522036 0.08646778 -0.05564387
000060 86 2a 23 3d 05 ba 95 3e 40 b6 63 3e b2 0c 25 be
       0.039835475 0.29243484 0.22237492 -0.16118124
000070 ba 91 30 3e 4c ea 13 3e e7 9c 44 be 34 99 b0 bd
       0.1724309 0.14444846 -0.19200478 -0.08622971
000080 1a ad 13 3e de 16 c7 bd a8 ac 92 3e d1 44 a6 3d
       0.14421502 -0.097211584 0.2864735 0.081185944
000090 1f f7 01 3e 80 26 8d bd 23 f4 df 3d 9b b0 ec bd
       0.12691925 -0.06892109 0.10935237 -0.11557122
0000a0 2a f8 64 bd 41 9b bc bd af fe 0a be 78 36 9d bd
       -0.05590073 -0.092093 -0.13573717 -0.07676405
0000b0 42 c2 6a 3d d3 c2 60 bc 5e 74 67 3e 5a 2b a4 bd
       0.057314165 -0.013718325 0.22602984 -0.08016081
0000c0 5b c2 bc be 2c a4 ae 3d ad a7 20 3e ff df 1d 3d
       -0.3686703 0.08527407 0.15688963 0.038543697
0000d0 58 d3 cc bd e9 65 8e bd 37 c0 2a 3e be 2b 15 3e
       -0.10001248 -0.069530316 0.16674887 0.14567468
0000e0 d5 fa 29 3d 6a c5 19 bd de c0 ee bd 05 0b fa be
       0.041498978 -0.037541784 -0.1165788 -0.48836532
0000f0 2a 67 6d bd fd da bc 3d 97 b1 84 bc ac cf 96 3d
       -0.057959713 0.09221456 -0.016197963 0.07363829
000100 f1 37 0c 3d 3e 49 73 bd b6 fd 1b 3e 65 07 0b 3e
       0.034233037 -0.05939602 0.15233502 0.1357704
000110 66 b8 51 be bb ed 1e be ba a3 04 be cc c6 bc 3d
       -0.20480499 -0.15520374 -0.12953082 0.09217605
000120 06 88 54 3d 27 75 1e be 23 8d 3a 3e ca a1 b2 bd
       0.051887535 -0.15474378 0.18217902 -0.08722265
000130 d2 8f 0e bd 50 70 b1 3d b8 c0 f3 3b 96 4f 74 3d
       -0.034805126 0.08664 0.0074387453 0.05964621
000140 d5 9e ae bd 6b 84 bc bc 39 09 2a 3e 8f 71 04 be
       -0.085263886 -0.02301236 0.1660508 -0.12933944
000150 6f 8d ac 3d 4e bd 32 3d c8 fe 0f 3e f3 d1 90 3e
       0.08425414 0.043637566 0.14062035 0.2828518
000160 ad 0b 43 3e b4 ec 1c 3e 26 f9 2b be 4d f0 a9 3e
       0.19047423 0.1532467 -0.16794261 0.33191147
000170 f4 0f 63 be 6d 0d 43 bd d5 49 76 3c 23 a3 96 bd
       -0.22174054 -0.047620226 0.015032251 -0.073553346
000180 3d 39 84 3e 23 96 51 3e 30 8d b9 bd 17 67 09 3e
       0.2582492 0.20467429 -0.090601325 0.13418232
000190 2c 98 3c be 7d 10 b2 3d d5 17 2e bd c9 ff d3 3c
       -0.18417424 0.08694551 -0.042503197 0.025878804
0001a0 6a 65 a5 bd 38 01 99 3d 8d 3a 87 3d 5e 9c 81 3c
       -0.08075984 0.074709356 0.066029646 0.015821632
0001b0 33 e9 57 3e 98 75 32 be bc 1a 4c be be 89 54 bd
       0.21085052 -0.17427671 -0.19932073 -0.051889174
0001c0 c7 be 80 3e 50 da a9 3d 99 48 2b 3c 22 f7 1c be
       0.25145552 0.08293593 0.01045432 -0.15328649
0001d0 61 4b 0f bb 2f d3 6b 3e f7 14 de 3c 07 e7 f2 bd
       -0.0021864998 0.23029779 0.027109606 -0.11860471
0001e0 2f 4e b1 3c fb 89 ce bd be e7 a9 bd 86 42 86 3d
       0.021643726 -0.100849114 -0.082961544 0.06555657
0001f0 85 76 99 bd cd e2 6e be 92 bb 88 be e0 82 45 bd
       -0.07493309 -0.23328705 -0.26705605 -0.048220515
000200 ff 93 44 3d a1 a9 52 3d 46 26 2f be d7 92 5e 3d
       0.047992703 0.051431302 -0.17104444 0.054339256
000210 44 40 c0 bc 25 e9 ea 3d e3 d4 f5 3b 7a 07 2b 3d
       -0.023468144 0.1147025 0.0075021847 0.041755177
000220 59 ef 8a be c5 42 fe 3d e2 be 6e be 38 1b b0 be
       -0.27135733 0.12415079 -0.23315004 -0.34395766
000230 99 fd cd 3d 80 11 59 be e4 73 c9 bc 86 33 11 3d
       0.100581355 -0.21198082 -0.024591394 0.035449527
000240 40 8d ed bd 8d a7 2b be 5b f0 02 3b 74 57 59 3d
       -0.11599207 -0.16763134 0.0019979689 0.053061917
000250 22 b1 6b be 81 05 40 bd 65 7d 77 3d 0e 00 47 3d
       -0.2301679 -0.04688025 0.06042232 0.048584037
000260 16 51 00 be ad 72 d0 3d f4 bc 4c be 95 97 e0 bc
       -0.12530932 0.10178123 -0.19993955 -0.02741603
000270 e4 88 ee 3d 10 ff 40 3d bf be 1a be 93 fc 1b 3e
       0.116472036 0.047118247 -0.15111826 0.15233068
000280 e7 ce ff 3d a8 64 7f bd 90 c6 63 3d 11 1a 81 3d
       0.12490635 -0.062351853 0.055609286 0.063038
000290 4a ec f3 bd e3 58 6b be 52 0a 62 be fc 01 87 be
       -0.11910303 -0.22983126 -0.2207425 -0.263687
0002a0 22 89 20 3e 71 0c 12 be 3b 0f 87 3e f3 56 1c 3e
       0.15677312 -0.14262559 0.26378807 0.15267543
0002b0 05 07 7e bd cd 64 81 3d e9 30 10 3e bf c5 33 3d
       -0.062018413 0.06318054 0.14081158 0.043889757
0002c0 5b 45 16 3e 7f 18 58 3e e2 98 87 be b1 c5 6b be
       0.14674895 0.21103095 -0.26483828 -0.23024632
0002d0 fd ec 2d 3d 18 c1 f6 3d 1e b3 05 3e 32 55 3e bd
       0.042462338 0.120485485 0.13056609 -0.046467967
0002e0 e7 03 4b 3e 8c f2 6f be 15 ba bf bc 4e e1 d3 3d
       0.19825707 -0.23432368 -0.02340416 0.10345708
0002f0 0c 3c 73 3e 49 3a 4b 3e 90 8e 36 be f1 e3 1b 3e
       0.23753375 0.19846453 -0.17827821 0.15223671
000300 0c 3d 6f 3e 22 5b ae 3c be 6d 08 3e 02 d1 aa bb
       0.23363131 0.02128369 0.13323113 -0.005212904
000310 b4 e8 db 3d 79 81 93 3d fb 5e 5b bd a8 29 0e bf
       0.10737744 0.07202429 -0.053557377 -0.5553231
000320 76 b7 a4 bd 98 31 26 3e 59 a2 7d be 67 8c 7a 3a
       -0.08042805 0.16229856 -0.24768962 0.0009557665
000330 6d 5d 87 bc c5 c0 43 3e f2 22 31 3e e0 94 9a 3e
       -0.016524041 0.19116504 0.17298487 0.30191708
000340 44 17 d0 bc d3 8a 6f be 5b 0d ec 3c 63 89 0d 3e
       -0.025401719 -0.23392801 0.028814962 0.1382194
000350 b5 e2 65 bd 35 43 93 3e 1c 59 0d be 80 1e df bd
       -0.056124408 0.28762212 -0.13803524 -0.10894489
000360 e9 bc d6 3d 76 9f 24 3e 64 a7 4a bb 87 6c 35 bd
       0.104852505 0.16076455 -0.0030922526 -0.044292953
000370 d3 b2 48 bd 74 04 a9 bd 34 3a aa bd f4 a7 69 bc
       -0.048998665 -0.082528025 -0.083118826 -0.014261235
000380 fd f2 e7 bd 03 33 4a 3e 25 ec 45 3e 06 35 c6 bc
       -0.11325643 0.19746022 0.19328363 -0.024195205
000390 fb 3c 90 3e 1f 06 4f be 8e 56 48 3e bb 7f 3d be
       0.28171524 -0.20217179 0.19564268 -0.18505757
0003a0 97 35 15 3e f6 19 e5 bc f1 f3 f1 bd 14 8e cd 3d
       0.14571224 -0.02796648 -0.11814106 0.10036865
0003b0 a4 da 44 3d 80 d3 44 3e 3e 0d 5e 3e 02 18 43 bd
       0.048060074 0.19221306 0.21684739 -0.047630318
0003c0 17 39 8c bd ad e7 2a 3e 1b 85 15 3e 77 85 96 3d
       -0.068468265 0.1668994 0.14601557 0.07349675
0003d0 39 00 d6 bd 12 66 29 be c7 36 5a 3e b3 e9 16 bd
       -0.10449261 -0.16542843 0.21309958 -0.036843967
0003e0 b8 78 11 3d e2 be 59 be 0b 1b 2d 3d 43 99 0c 3d
       0.035515517 -0.21264222 0.04226212 0.03432585
0003f0 25 82 19 3c 09 e1 6c 3e 9d 5e 31 3e 89 94 4a be
       0.009369408 0.23132719 0.17321248 -0.19783224

encode_conv5.bias f4 [16]
000000 e5 19 ea bd 29 f7 6d bd f8 f4 9d bd 9f 2a 1a bc
       -0.1143072 -0.05809704 -0.0771274 -0.009409576
000010 3b 8a 05 3e 0f 88 f1 be d2 89 ff 3d 45 9c 88 bd
       0.13041012 -0.47174117 0.12477459 -0.06670431
000020 91 3e 4d bd db e0 87 3d 66 6f 45 3e 2f c6 41 be
       -0.050108496 0.06634685 0.19280776 -0.18923257
000030 71 e9 a5 bd cf 32 82 be 10 c9 6e 3d 6c 82 7a be
       -0.08101166 -0.2542939 0.058297217 -0.24463814

encode_conv6.weight f4 [16, 16, 3]
000000 40 86 d3 3d ea 6c 9a 3e 32 b6 3c 3e 7e 4c 99 3e
       0.103283405 0.3016122 0.18428877 0.2994117
000010 37 0d 1f bb e7 13 f1 3d f7 22 75 be 42 10 8c 3c
       -0.0024269351 0.11771374 -0.2393912 0.017097596
000020 cf 68 9b be 00 fc c6 3d c6 30 41 bd 29 7c c7 3d
       -0.303534 0.09716034 -0.047165655 0.097404785
000030 7b d1 09 be 61 8e 01 be d7 4c 25 be a7 b2 ab 3c
       -0.13458817 -0.1265197 -0.16142593 0.020959212
000040 97 1d a5 3e 40 4f 42 bd 39 c1 a1 be af 3d 8e be
       0.32249138 -0.04743886 -0.3159273 -0.27781436
000050 2c 1f c2 bd 9a 6b 49 be a6 27 1d be da 2e 7c bd
       -0.09478602 -0.19669953 -0.15347156 -0.06156812
000060 e7 aa 8c 3d b6 3d 51 be bc 1c 52 3e a2 bc 7f 3c
       0.068685345 -0.20433697 0.20518774 0.015608938
000070 77 0e 98 bd e0 91 b3 bc 27 bc 33 be 3d 5c 1a be
       -0.07424634 -0.021920145 -0.17552243 -0.15074249
000080 fc 5e 5d be f3 f2 fc 3d 1e 4e 26 be cc 68 9d bd
       -0.21618265 0.123510264 -0.16240737 -0.07686004
000090 56 4d 3c bd ad dc 5d bd 67 30 86 3d fc 78 fe bd
       -0.04597219 -0.05416553 0.06552201 -0.1242542
0000a0 b9 cb 80 3d 6f b0 02 3f ed f2 80 bd a1 d1 e0 3e
       0.06288857 0.51050466 -0.062963344 0.43909934
0000b0 f5 20 e8 bd 7b 38 c0 3d d4 db 16 3d 34 81 65 be
       -0.11334411 0.09385773 0.03683074 -0.22412568
0000c0 ca bb de bd d4 1c 5c bd 99 13 da bb ec 8a a3 3d
       -0.10875662 -0.05373843 -0.0066551683 0.079854816
0000d0 6c 36 0c 3d fa 3b 26 3d 7a 61 7c bc 70 e5 ef bd
       0.03423159 0.04058454 -0.0154041 -0.117136836
0000e0 e5 ea 51 be 89 e7 28 3e 74 b2 c3 bd ef ec 7a bd
       -0.20499761 0.16494574 -0.095555216 -0.061261114
0000f0 99 8f 74 bd 93 b0 4c 3d a1 c7 27 be 03 23 ee 3d
       -0.059707258 0.04997308 -0.16384746 0.11627772
000100 66 74 58 3d 45 d5 91 3d ce af 52 3d 4c bc d3 3d
       0.05284538 0.07120756 0.05143719 0.10338649
000110 59 5e 6c bc f9 37 2c bc 52 8a b4 3d e2 4e a6 bb
       -0.014426791 -0.010511392 0.08815445 -0.0050753215
000120 ec 01 15 be 81 9c 8a 3d 79 d3 a9 3d ea ff b3 bd
       -0.14551514 0.06768132 0.08292288 -0.08789046
000130 86 b2 d1 3c 53 62 0d bd db 46 cd 3c 62 17 4e bd
       0.025597822 -0.034517597 0.0250582 -0.05031527
000140 d9 bc 47 3e 34 41 0a 3d ef e2 85 3d 0c 6f 13 bd
       0.19505633 0.03375359 0.06537425 -0.035994574
000150 6f 46 5f 3d 71 37 f4 3d 3a a4 4d 3d 8d 24 91 be
       0.05451053 0.11924637 0.050205447 -0.283482
000160 a9 06 29 bc a0 f1 3c be 27 68 3c 3e 64 4d dd 3d
       -0.010316529 -0.18451548 0.18399106 0.10805777
000170 3e 9c f1 bb 51 47 29 bb 7b 18 2c 3d 81 75 06 3d
       -0.007373362 -0.0025829861 0.042015534 0.032826904
000180 cf 29 14 bf 2d 7c 9b be 9d ae d1 3d 50 52 67 bd
       -0.57876295 -0.30368176 0.10238383 -0.056474984
000190 cc f3 50 bc cf 95 fb bd 74 34 a0 bd de 84 3e 3e
       -0.012753438 -0.12284433 -0.07822505 0.18605372
0001a0 ff 59 82 be d8 b1 e7 3d 52 76 e0 bd e1 09 85 3d
       -0.25459287 0.11313218 -0.10960068 0.06496025
0001b0 c6 71 2f bc 7a 8f 5d 3d 03 38 49 be 5f e9 f3 bd
       -0.010708278 0.054091908 -0.19650273 -0.119097464
0001c0 6a 92 9d 3e a0 a2 f4 bd f4 b3 5a bd 18 1c 12 3e
       0.30775768 -0.11945081 -0.053394273 0.1426853
0001d0 25 bc a1 bd 68 34 c3 3d 78 fe 9e 3d 0a e4 00 3e
       -0.07897214 0.0953148 0.0776338 0.1258699
0001e0 3e 40 c4 bd 73 45 af 3d 0a 6c d8 bd b4 cd 1d 3e
       -0.09582566 0.08558168 -0.10567482 0.15410501
0001f0 7e f6 0f 3d e9 3c 00 be 8d aa 40 bd 64 c1 9a bd
       0.035147183 -0.12523235 -0.04703765 -0.075564176
000200 25 b3 03 3e e8 32 41 3c e7 ec c5 bd 36 0a 84 3d
       0.12861307 0.011791922 -0.09664326 0.0644726
000210 aa 4b c0 3d 12 05 3b 3d d3 46 47 bd 1b 4a c0 bd
       0.09389432 0.045659132 -0.048651528 -0.093891345
000220 9d 7c ff bc b3 94 95 3e d3 40 ed 3c 02 b2 ca 3e
       -0.03118735 0.2921501 0.028961575 0.39588934
000230 08 5c 89 bb 12 91 da 3c 68 91 3d 3c b3 96 8a ba
       -0.004191879 0.026680503 0.011570312 -0.0010573476
000240 b0 c6 86 bc 90 08 0a be 79 cb ba 3e 2d 70 94 bd
       -0.016452163 -0.13479829 0.36483362 -0.07247958
000250 37 9f 73 3e ce 28 be bc 30 37 ac be a6 0c 62 bd
       0.23791204 -0.023212817 -0.33635855 -0.055187844
000260 67 55 b1 be e3 28 38 3c d0 30 f6 bd 5f 9d 9c bd
       -0.3463547 0.011240217 -0.12021029 -0.07647204
000270 4d 8b e3 bd 8d 68 21 bd 54 9d a2 3c 43 98 0e bd
       -0.11110554 -0.039406348 0.01985041 -0.034813177
000280 7a df af 3c bc 58 4b be 32 6f c4 bd 72 dc 48 3b
       0.021468867 -0.19858068 -0.09591521 0.0030648974
000290 bb 44 14 3c 1e 1a 8b 3d f3 a9 2d 3d fc f7 57 3e
       0.00904959 0.06792091 0.042398404 0.21090692
0002a0 e1 75 8f 3d e5 92 71 be 43 b4 57 3e 31 b4 8a bd
       0.070049055 -0.23591192 0.21064858 -0.0677265
0002b0 92 23 07 3e d9 0a 10 3e b6 6b e5 bb e7 3f 7e 3d
       0.13197163 0.14066638 -0.0070013655 0.06207266
0002c0 1d 9d 0a bd 0c f4 f7 3d 46 df 10 be 4e b0 92 bc
       -0.03384124 0.12107095 -0.14147672 -0.017906334
0002d0 ed 4c 87 3d 7f e9 30 be 8e d8 24 3e 0a 4d 2b 3e
       0.06606469 -0.17276572 0.16098234 0.16728607
0002e0 74 ec 9a be 04 df f1 be 59 66 8c be e7 05 87 3e
       -0.30258524 -0.4724046 -0.27421835 0.2637169
0002f0 40 07 3f 3d 1a 6f cc bd 44 59 31 be a5 50 76 3e
       0.046637774 -0.099821284 -0.17319208 0.24054201
000300 1e f4 e2 3d a9 07 32 bd 71 29 2f 3d c0 50 ed 3d
       0.11081718 -0.043464337 0.04276413 0.115876675
000310 84 6d 05 3d 18 89 2d 3e aa e3 bb be 7b ae 2b 3e
       0.032575145 0.16946828 -0.3669713 0.16765778
000320 b5 c9 91 3c e3 55 3c be 40 97 14 be 8e 59 26 be
       0.017796377 -0.18392138 -0.14510822 -0.162451
000330 3a c2 2a 3e 11 ea 60 bf 4e 01 2b 3c 95 36 89 3d
       0.16675654 -0.87857157 0.010437323 0.06699864
000340 7e 21 b6 3e ef 0a 4b 3e 20 15 9f bd eb fb b7 bd
       0.35572428 0.1982839 -0.07767701 -0.089835964
000350 a8 dd 23 bd e2 9a 61 bd 27 c1 4c be 75 df 11 3d
       -0.04000631 -0.05507935 -0.19995557 0.035613496
000360 4f b2 56 3e 77 62 3a 3d b8 04 36 be ba ec 3b 3b
       0.20966457 0.04550406 -0.17775238 0.0028675036
000370 79 b0 47 bd 05 69 df bd 30 41 40 3d 6e 01 ab 3d
       -0.04875228 -0.10908703 0.046937168 0.08349882
000380 b8 f7 2e bb 6f dc 81 bd c9 50 86 3c 3f d8 0c 3e
       -0.0026697945 -0.063408725 0.016395943 0.13754366
000390 fe 8f 65 bc c8 9b 76 3e df 21 ea bd 13 44 87 3d
       -0.014011381 0.24082863 -0.11432242 0.06604781
0003a0 25 25 52 3d 2f 2d e2 3e e1 94 33 be cb 78 69 be
       0.051304955 0.44175097 -0.17537262 -0.22799985
0003b0 24 25 98 be e4 79 d2 bd 48 e4 2c 3e 49 2f 1a 3d
       -0.29715836 -0.10277155 0.16883957 0.03764275
0003c0 41 ba 1d be 2d a3 08 3e e8 87 06 3d 55 80 3b 3e
       -0.15403081 0.13343497 0.032844454 0.18310674
0003d0 61 42 a1 bd 6b d0 e9 3d c6 46 84 be 61 5d 78 bc
       -0.07873989 0.11416706 -0.25835246 -0.015158982
0003e0 8d 5c 03 be 28 31 0a 3e 57 c4 01 be 95 4e 35 3e
       -0.12828274 0.13495314 -0.12672554 0.17705758
0003f0 15 0b 2b 3b 47 7b 2e 3e f3 82 24 3d e6 a1 a2 bd
       0.0026099135 0.17039214 0.040163945 -0.07941036

encode_conv6.bias f4 [16]
000000 9e 55 2c be bc 1f 19 3e 93 ff f6 3d f9 7a 56 3e
       -0.16829535 0.14953512 0.12060466 0.20945348
000010 51 e3 90 be 63 d6 a4 3d 87 da a9 bd 27 e8 19 3e
       -0.2829843 0.080487035 -0.08293634 0.15029965
000020 af bd 84 bd e8 da 06 3e 25 2e 07 bd f9 90 e1 3d
       -0.06481492 0.13169444 -0.03300299 0.110139795
000030 34 20 08 be 42 75 a2 3d 99 b4 37 bd 9c 6f 07 3e
       -0.13293535 0.079325214 -0.044849966 0.1322617

fc1.weight f4 [200, 112]
000000 99 83 3a bd 0f a2 fd bd a8 a9 a4 bb d6 ec aa bc
       -0.045535658 -0.12384426 -0.0050251074 -0.020864885
000010 a5 24 aa bd 7e 95 82 bd 6a 80 ed 3c 22 2d 0b 3d
       -0.08307771 -0.063761696 0.028991897 0.03397859
000020 5d ae ca bc 4d 44 33 3a 1d 0d 9b ba 96 54 7a bc
       -0.024741346 0.0006838486 -0.001182947 -0.015278956
000030 26 f1 54 bd d2 cf 08 bd dc 6b d7 3d c9 8e 15 3e
       -0.05198779 -0.033401318 0.105186194 0.1460525
000040 ff 0c a9 3d 77 51 8b bd 64 a0 e1 3d ae 18 76 bb
       0.08254432 -0.068026476 0.1101692 -0.0037551331
000050 2b f0 b7 3d fa 92 f7 3b 34 d1 ce 3d 29 e8 b9 bd
       0.08981355 0.007555363 0.10098496 -0.09077484
000060 aa 8c d2 3b c7 db ef 3d 09 f3 86 bc 1e 4b 9e 3d
       0.00642546 0.11711841 -0.01647331 0.07729171
000070 34 0c c9 bd 56 ad cd bc b5 ea 80 bc 02 39 86 bd
       -0.09816781 -0.025107067 -0.015736917 -0.06553842
000080 51 3c 1f 3d eb 71 01 3d ea 97 19 3d dd b6 d7 b9
       0.03887588 0.03160278 0.037498392 -0.0004114424
000090 d4 d5 18 bc 61 38 f1 3d 0d c2 31 3d eb 61 84 bd
       -0.009328324 0.117783315 0.043397952 -0.06463989
0000a0 11 56 05 ba cc d4 93 3d 85 20 d6 bd 89 c1 c2 bd
       -0.0005086372 0.07218322 -0.10455421 -0.0950957
0000b0 a7 fa a9 bc 5d 6f 2f bd a3 42 0f bd d2 3c e4 bd
       -0.020749403 -0.042830814 -0.03497566 -0.11144413
0000c0 dc 53 64 bd 79 63 c0 3d a6 80 c1 3d 4c 7e c1 3d
       -0.055744037 0.09393973 0.09448366 0.09447917
0000d0 67 c0 dc 3d 88 d5 c4 3d 35 65 47 bd 34 4e 8d bd
       0.10778885 0.0961104 -0.048680503 -0.06899682
0000e0 9b fd 1f 3d b2 1e 85 3c 71 f6 0a 3d 43 66 37 3d
       0.039060216 0.016249988 0.03392643 0.04477526
0000f0 1e 1b 80 bd 4f 11 99 bd 36 16 5d 3d 05 3c 84 bd
       -0.06255172 -0.074740045 0.05397626 -0.0645676
000100 7c 81 8b bd 48 85 53 bd a3 8e 20 bd 8c b1 e9 3d
       -0.068118066 -0.05164078 -0.03919853 0.114108175
000110 a8 e6 ed bb bc e4 88 bc 91 01 ba bd eb 1a 60 3d
       -0.0072601624 -0.016710632 -0.0908233 0.05471317
000120 e9 ae 2e 3d 77 a7 e9 bc 5d aa d9 3a 6b 1d 87 3c
       0.042647276 -0.028522236 0.0016606558 0.01649352
000130 a1 8d 1b 3d 84 23 5a bd c2 c5 35 3c 1f ef 0c bc
       0.037976865 -0.053256527 0.011094512 -0.008601933
000140 68 f3 19 3d 42 ff 76 3d 82 c3 32 3d 30 c3 e0 3c
       0.037585646 0.060302027 0.043643482 0.027436823
000150 9f 9d 30 3e b5 6b e9 bd ab c2 d2 3c ed 4b ed bd
       0.17247628 -0.113974966 0.02572759 -0.11586747
000160 5d 7d bc bd dc 53 d4 bd 6e f9 8e bc 57 aa 74 3d
       -0.09203599 -0.103675574 -0.017452922 0.05973276
000170 8d 0e 16 be 74 19 c1 bc 82 01 34 3e a7 ea ff 3c
       -0.14653988 -0.023571707 0.175787 0.03123982
000180 3f bc 08 be 40 6e a1 3d eb 30 e2 3c a8 67 c9 3c
       -0.1335306 0.07882357 0.027611217 0.02458556
000190 fb 84 14 bc 80 38 48 bc 1a bf bf bc 88 59 f6 ba
       -0.009064908 -0.012220502 -0.023406554 -0.0018794993
0001a0 22 fb c7 bd 84 a9 25 3c bd 46 a9 bc 67 dd 7e 3d
       -0.09764697 0.010111216 -0.020663613 0.062222864
0001b0 d1 79 fd 3d 7b 69 b0 bc d6 53 b1 3c 6e 3d a6 3d
       0.1237675 -0.021534672 0.021646421 0.081171855
0001c0 42 4d 04 bd 95 e6 c1 bd c2 17 6b bd 33 1e d2 bb
       -0.03230024 -0.09467808 -0.057395704 -0.0064122914
0001d0 0c 13 9a 3b eb a9 83 bd 52 db 44 bd e1 05 bc 3d
       0.0047019776 -0.06428894 -0.048060723 0.09180809
0001e0 35 d9 4c bd 65 f8 0b bd 85 c3 c9 3d 4a 98 d3 bb
       -0.050011832 -0.034172434 0.098517455 -0.0064573633
0001f0 2e 8d 80 bd f5 66 39 3b 71 1b 2f 3e 32 3e 33 bc
       -0.06276928 0.0028290127 0.17100312 -0.0109401215
000200 b1 fb 8b 3d 98 e9 a1 3d cd 2f e0 3d 70 2e d0 3d
       0.06835116 0.079058826 0.10946617 0.10165107
000210 28 0f 16 bd 83 38 ee 3d 2b fc 9d bd f3 b8 3c 3d
       -0.036635548 0.116318725 -0.07714113 0.04607482
000220 96 c6 24 bc 94 fa ec 3c 5f 19 e1 3d 62 0b b1 3c
       -0.010057112 0.028928079 0.10991167 0.021611873
000230 ff 34 02 be 38 0b 85 bd 69 fb 3e bb 8b 7e 9b 3d
       -0.12715529 -0.064962804 -0.0029141551 0.075924955
000240 f2 d1 3e 3d c8 7e 18 bd f3 93 d9 bd 8f e7 03 3c
       0.04658694 -0.037230283 -0.10623922 0.008050813
000250 0c d1 41 bb a1 5e a1 bb 50 a3 03 3e 1b 78 1e 3d
       -0.0029574065 -0.0049246107 0.12855268 0.03868876
000260 3c 1d 70 3d 89 3a 48 3d ae c0 f0 bc 74 39 20 be
       0.05862163 0.04888395 -0.029388752 -0.15646917
000270 bb 78 61 bd 87 e2 9f bd 28 aa 98 bd aa d9 47 bd
       -0.05504678 -0.078068785 -0.0745433 -0.048791565
000280 62 f3 e2 bd 41 a7 ee 3d 97 da 06 3e a4 95 58 3d
       -0.11081578 0.11652995 0.13169323 0.052877083
000290 b7 9b 79 3d be 2c 63 3c 33 b4 4b 3b 6b 78 2c 3d
       0.060939517 0.013865648 0.003108275 0.042107027
0002a0 ff d6 05 3d 4a 87 9e 3b d1 32 7e bd 9b bc 9b bd
       0.03267574 0.004837905 -0.06206018 -0.07604333
0002b0 9d ee 1b bd 41 cc 0d bd 4d dd d2 bd a0 66 a8 3d
       -0.038069356 -0.03461862 -0.10296116 0.08222699
0002c0 5c 4d 96 3c 52 34 09 bc 48 a8 aa 3d 50 45 0c 3d
       0.018347435 -0.008374291 0.08332878 0.03424579
0002d0 b3 71 8e bc ae 3a 08 bd cf 16 57 bd 03 0c 8c 3c
       -0.0173882 -0.033259086 -0.052511986 0.017095571
0002e0 f8 26 ce bd 5f 5c 3f bd 48 96 13 bd 3d 25 e9 bc
       -0.100660264 -0.04671895 -0.03603199 -0.02846014
0002f0 cd 37 65 3d e2 65 d4 3d 07 19 04 3d 2f 8c 87 3d
       0.05596142 0.10370995 0.03225043 0.06618535
000300 e5 4a 4b bd 49 81 60 3d 70 46 aa 3d c6 fe c9 bb
       -0.049631972 0.054810796 0.08314216 -0.0061644046
000310 3d 64 7c 3d 34 79 84 bd 58 dd 92 3c 5b 1c 0f bd
       0.061619032 -0.0646843 0.01792781 -0.03493915
000320 30 84 dc bd 4a 0d 8f 3d c1 40 d2 bc af 9e 80 bd
       -0.107674 0.069849566 -0.025665643 -0.062802665
000330 87 19 e0 bd aa 55 1d bd 9c 22 ae 3d a4 c9 26 3d
       -0.10942369 -0.038411774 0.08502695 0.040719643
000340 2f 31 64 be 50 5f f8 3c 36 13 6f 3d f5 b0 69 3b
       -0.22284387 0.030318886 0.05836793 0.0035658453
000350 d0 5a 98 bd 1b 3f b0 bd 3b a8 ba bd 73 18 48 3d
       -0.07439196 -0.086057864 -0.09114119 0.04885144
000360 a3 64 d5 bd 00 b3 5c bd c2 d3 90 bc d4 91 51 bc
       -0.104195856 -0.053881645 -0.017679099 -0.012791116
000370 58 6d 1d 3e 83 a2 82 bb 63 b5 94 3d 62 1b 2c 3d
       0.15373743 -0.003986658 0.07261159 0.0420183
000380 16 83 ab bd 0b 33 98 bd 47 30 09 be 16 e2 98 3b
       -0.08374612 -0.07431611 -0.13397323 0.0046656234
000390 fe 52 5e bd a2 53 41 bd c9 35 aa bd 28 7e 0b 3d
       -0.054278366 -0.0471989 -0.0831104 0.03405586
0003a0 61 c3 2b bc 3b e4 36 3d 5c 49 ba 3c 3c c1 15 bc
       -0.010483594 0.04465125 0.022740059 -0.009140309
0003b0 80 57 08 3c f8 c5 b0 bd 8c 78 8c 3d 18 61 0f 3e
       0.008321643 -0.086315095 0.0685893 0.14001882
0003c0 ed cb 92 bd e0 f3 43 bd 3b 84 8e 3c 57 74 df 3d
       -0.07167802 -0.04784 0.017397037 0.10910862
0003d0 12 e1 d8 3c fe d5 23 bc 6f ac 01 3e 6c 47 74 bd
       0.02647451 -0.00999975 0.12663434 -0.059638426
0003e0 ef 84 c1 bd f0 ee 0a 3d 54 36 18 3d b4 16 32 3d
       -0.09449183 0.033919275 0.037161186 0.043478683
0003f0 7d 75 35 be 23 73 aa bd bd 5f 2d bd 82 7d 49 3d
       -0.177206 -0.08322742 -0.04232763 0.04919196

fc1.bias f4 [200]
000000 8c cf 3e 3c 97 cc 30 bc dd b9 cd bc 77 8f 29 3d
       0.011646163 -0.0107909655 -0.02511304 0.041396584
000010 22 f4 94 bd d0 55 89 bb b6 b6 e0 3d a4 cf 94 bd
       -0.07273127 -0.004191138 0.10972349 -0.07266167
000020 c6 76 c0 3d c4 b5 fd 3d 7b b1 4a 3d 5f ed 5e 3d
       0.09397654 0.12388185 0.049485665 0.054425593
000030 52 bd 03 bc 97 2c e9 bd dc 20 13 3d 48 86 cf 3d
       -0.008040743 -0.11385458 0.03592001 0.10133034
000040 b3 f9 e5 3d 5b 8e b5 bd 16 e8 b1 bd db 84 43 bd
       0.11229267 -0.08865043 -0.08686845 -0.047734123
000050 ef 12 88 b9 5f 64 a1 3d e9 40 af 3d ee eb 76 3d
       -0.00025954048 0.078804724 0.085573025 0.060283594
000060 c8 e4 9f bd 4b ba fa 3d c6 d0 84 3d 6c 2e 88 bd
       -0.078073084 0.12242564 0.06485133 -0.06649479
000070 d7 33 fd bd 3a 1e d4 bd 1f d6 2d 3d 0f 1d e8 3d
       -0.12363403 -0.10357328 0.04244053 0.113336675
000080 cf 00 0a 3d 4a 6c db 3c 0e 72 dd bd 91 66 5a 3c
       0.033692177 0.026785035 -0.1081277 0.013330118
000090 bf 90 de bd aa 12 a0 3a 23 b6 8c 3d 26 c5 05 be
       -0.10867452 0.0012212594 0.06870677 -0.13063487
0000a0 fe a4 51 bd 0f b4 03 be 69 60 98 3d a3 78 df bd
       -0.05118274 -0.12861656 0.07440264 -0.109116815
0000b0 a3 39 1c 3d 1a b5 47 bd 9e 17 89 3d a6 63 c5 3d
       0.038140904 -0.048756696 0.06693958 0.09638147
0000c0 63 c2 2a 3d 3e de 8d bc 77 9e c7 3d 9e af 55 3d
       0.041689288 -0.017317887 0.09747022 0.052169435
0000d0 ee db fa bd 8c 1d 14 3d c7 bc 63 3d 13 fc 4f bd
       -0.122489795 0.03616099 0.055599954 -0.050777506
0000e0 70 34 ee 3d cd 78 73 bc 9f be 78 bd 38 a6 cd 3d
       0.116310954 -0.014860344 -0.060728665 0.10041469
0000f0 11 ee f6 3b 34 2f bf bb 69 74 c3 bd cd 8e 95 3d
       0.007535704 -0.0058344845 -0.09543688 0.07302628
000100 39 9b e1 bd 8c f9 f5 3d 30 cf 0a bd 80 c3 c2 3c
       -0.110159345 0.12010488 -0.033888996 0.023774862
000110 88 60 9c bd 73 f7 42 bd a9 16 c5 3d b7 35 b7 bc
       -0.076355994 -0.047599267 0.09623463 -0.02236448
000120 8e d7 cc 3d bb 56 fe bc 9d 0e 99 3c c1 95 cc 3c
       0.10002051 -0.031047216 0.018683726 0.024973752
000130 f0 bb a1 3d f1 e6 ad bd a4 a6 d5 bd 25 b7 cc 3d
       0.07897174 -0.08491314 -0.10432175 0.099958695
000140 e9 3b 65 3d 52 c7 99 bc 3b 32 db bc 35 34 2f 3d
       0.055965338 -0.018771801 -0.02675735 0.042774398
000150 45 55 2f bd 25 53 be 3d fa 2d a5 3d 9e 52 bf 3c
       -0.04280593 0.09293202 0.0806541 0.023354825
000160 d3 41 cc bd 19 80 1b bd c0 57 65 3d a3 65 e4 3d
       -0.099734925 -0.03796396 0.055991888 0.11152198
000170 4f 44 06 bb 0f fc c0 bd 85 83 4f bd 29 63 f7 3c
       -0.0020487492 -0.09423076 -0.050662536 0.03019865
000180 02 be 32 bd c8 2c d6 3c f5 30 32 bd 96 04 a6 3d
       -0.043638237 0.0261444 -0.04350372 0.081063434
000190 86 34 28 3d a1 b4 12 3d 08 58 70 bd 3a d6 ab 3d
       0.041065715 0.035816792 -0.058677703 0.0839047
0001a0 ae 3d 72 bd 5f 2f 16 3d 2c 87 27 3d a6 09 b8 bd
       -0.059140854 0.03666627 0.040900394 -0.08986215
0001b0 6e 54 d0 bd ee 95 f4 bd d6 6e 7b 3d c4 6c c2 bd
       -0.10172354 -0.11942659 0.061385 -0.09493402
0001c0 df f4 12 3e 46 9d 66 bd 6f 74 03 3e 04 77 07 3d
       0.14351223 -0.05630233 0.12837385 0.033072487
0001d0 d5 2a 00 be f3 77 95 bd b8 25 c3 3c 06 db 08 bd
       -0.12516339 -0.07298269 0.023821697 -0.033412002
0001e0 fa 5e 8d bd 2b 60 4c 3d d7 36 df 3d 83 3a 80 bd
       -0.06902881 0.0498964 0.10899132 -0.0626116
0001f0 be 6c e4 3d 65 c4 d5 3d 83 23 c2 bb 19 6b 19 3d
       0.111535534 0.1043785 -0.0059246435 0.037455652
000200 9c 15 d3 3d e2 23 e5 3d 53 96 ab bd 5f 2a d6 bc
       0.10306856 0.11188485 -0.083782814 -0.026143251
000210 27 85 dc 3c 60 c4 92 bd a6 02 d4 bd 57 a1 be 3d
       0.02691896 -0.07166362 -0.10352068 0.09308117
000220 e4 98 fd 3d c7 fa d5 3d 78 a0 39 3d a5 2b ef bd
       0.12382677 0.104482226 0.04531905 -0.116782464
000230 ed 34 9c 3d 3b 9f a4 bd 49 c1 82 3d e4 63 3a 3c
       0.07627282 -0.08038183 0.063845225 0.011376355
000240 21 cb eb 3d 41 19 41 bc 25 fa 62 3d 42 7f c5 3d
       0.11513353 -0.011785806 0.055414338 0.09643413
000250 4c 0c 48 3b 63 5c d4 3d d3 8c 81 3d 7a c1 2d 3d
       0.0030524908 0.10369184 0.06325688 0.04242084
000260 b5 23 96 bd 7e b0 a0 3c 01 00 02 3d bf 2a b5 bd
       -0.07331029 0.019615408 0.031738285 -0.08846044
000270 24 16 40 bd 40 c8 1c be 25 d8 e3 bd 69 35 44 bc
       -0.046896115 -0.15310764 -0.11125211 -0.011975625
000280 f8 43 09 bd d0 01 37 3d a6 7f 5b 3d 5c b6 d9 3d
       -0.033512086 0.044679463 0.053588532 0.106304854
000290 da 27 f0 bd b0 88 91 bd b5 61 19 bd ba d3 ce 3b
       -0.11726351 -0.07106149 -0.037446696 0.006311861
0002a0 ae 86 b4 bc 47 cb 02 3e 3d d2 0b 3d e4 7d 3c 3d
       -0.022036877 0.12772857 0.034136046 0.046018496
0002b0 bc 45 d6 bd c1 28 01 bc 5f 23 da 3d a2 93 a4 bd
       -0.104625195 -0.007883252 0.10651278 -0.08035971
0002c0 9c e9 a4 3d 49 e8 f7 3d 8e 65 4e bd 14 fb 6e bd
       0.0805237 0.12104852 -0.05038982 -0.058344916
0002d0 d9 a6 d5 bd f3 fb 06 be d9 9c 99 bd af b1 d1 3c
       -0.10432214 -0.13182048 -0.075006194 0.025597421
0002e0 62 6e 25 bd 1a 21 a1 3b 68 95 8f 3d 0d 2e ab bc
       -0.040388472 0.004917276 0.07010919 -0.020895982
0002f0 95 b5 ca bd f6 30 97 bd 6e 02 36 be a1 e8 d4 bd
       -0.09897915 -0.073823854 -0.17774364 -0.10395933
000300 1e 63 ac bd 43 f2 da 3c ac 32 24 be df f9 d8 bd
       -0.084173426 0.026726848 -0.16034955 -0.10594534
000310 99 ec b5 bd f6 7a 9f 3d 41 9f 50 bd 8a d5 0d bd
       -0.08883018 0.07787125 -0.050933126 -0.034627475

fc3.weight f4 [50, 200]
000000 b5 bf d9 bc df f4 30 bd 7a 0f e4 3d cc a5 df bc
       -0.02658067 -0.043202277 0.111357644 -0.027300738
000010 c4 b8 60 bd 7a a9 06 bd 68 2b 28 bc fb 1d 9f 3c
       -0.054863706 -0.03287647 -0.010264255 0.019423475
000020 17 5e ce bc bb ed 9c 3d 16 28 bf 3d b6 5d bc 3d
       -0.02519135 0.07662531 0.09333818 0.091975614
000030 c6 15 fe 3c c6 3b d2 3c 65 2e a1 3d 95 a7 02 bd
       0.031016242 0.025663268 0.07870177 -0.0318981
000040 a3 86 77 3d 24 9c 7b bd 10 14 9d bb b7 f6 34 3d
       0.060431134 -0.061428204 -0.0047936514 0.044180598
000050 b6 78 44 bd f2 36 59 38 8c 3f f1 3c d6 00 6d bc
       -0.04796668 5.1788003e-05 0.029449247 -0.014465531
000060 0f 98 17 bd 6f fd b1 bc 9e cd 24 3d 4f 00 96 bd
       -0.03701025 -0.021727292 0.040235154 -0.073242776
000070 a4 12 b5 bc 26 ad 5b bd f4 5c 8e 3d 74 7a 7f 3d
       -0.022103615 -0.053631924 0.06951323 0.06237264
000080 1c 8b e1 3c 81 17 c4 bc 41 7b 0a 3d 0f 84 0d bd
       0.027532153 -0.023936989 0.03380895 -0.03454977
000090 25 7f 68 bc 9e cc 79 3c 00 a9 54 bd d9 c6 82 3d
       -0.01419047 0.015246538 -0.051918983 0.063855834
0000a0 69 98 4a bc 5d 36 ce bc c6 37 4d 3d 27 31 98 bd
       -0.012365439 -0.025172407 0.050102018 -0.0743125
0000b0 86 4d 1a 3d 5a d2 aa 3a c3 24 a0 3d 16 4f 12 3d
       0.03767159 0.001303266 0.07819512 0.035719953
0000c0 77 74 31 3d e6 ae 81 bd 5d a9 8b bd 3c 10 1b bd
       0.04332396 -0.06332187 -0.06819413 -0.03785728
0000d0 d4 b0 5a bd 71 71 8c 3d ea 66 e1 bc 23 82 5c bf
       -0.053391293 0.06857575 -0.027514894 -0.8613607
0000e0 36 51 68 3d 48 f1 f3 3c c3 8c 46 3d c0 f1 ff bc
       0.056718074 0.029778138 0.048474085 -0.031243205
0000f0 15 dc 69 3d 5d a1 99 3d 60 83 2f bd d6 d9 92 3d
       0.057094652 0.07501481 -0.0428499 0.07170455
000100 d9 db 33 bc 6a 13 50 bc fb 2b 1d 3d 9c 03 08 be
       -0.010977709 -0.012699941 0.03837202 -0.13282627
000110 2c 44 f4 ba 25 9f d6 bc 92 52 24 3d 59 75 42 bd
       -0.001863604 -0.026198933 0.040117808 -0.047475193
000120 8b a1 37 bd 0a 81 8c 3b af a6 1a bd b2 70 8f 3d
       -0.044831794 0.0042878436 -0.037756618 0.07003917
000130 9f a8 36 bd db d6 c9 be 8c 2f 92 b9 6e b7 6b 3d
       -0.044594403 -0.39421734 -0.00027882715 0.05754798
000140 6d 97 8b 3d a3 22 c2 bd 3a dd e4 be ff ab 04 3c
       0.068159916 -0.09479263 -0.44700032 0.008097648
000150 c0 a2 f4 3c 21 c3 24 3d 3f 71 be 3d 93 d8 86 bd
       0.029862761 0.040225152 0.09298944 -0.06584277
000160 10 12 d2 bc f9 51 43 3e 48 4f fc 3c 09 90 42 3b
       -0.025643378 0.19074239 0.030799523 0.0029687902
000170 d4 b2 04 3d 1a 83 a1 3c a6 9f 28 bb 07 af 47 bd
       0.032397106 0.019715834 -0.0025729924 -0.048750903
000180 e8 d6 e7 bc c2 21 73 3d 69 f8 37 3e ed 2b c6 bc
       -0.028300717 0.059358366 0.17965855 -0.024190867
000190 83 e2 a9 3d 9f df 70 3d 5e 1e 42 bd d4 aa 44 bd
       0.08295157 0.05880701 -0.04739224 -0.048014477
0001a0 6f 16 83 bd e9 32 27 bc d4 5f 34 3d 6d ad 08 bd
       -0.06400763 -0.010205009 0.0440367 -0.033368517
0001b0 5e 25 27 bd e3 a4 af bc e0 f9 88 3d 80 2b a3 bb
       -0.04080712 -0.021440929 0.06688285 -0.004979551
0001c0 7e 2a 32 ba 5e 22 27 bd 18 c7 1f bd 13 6d 0f 3d
       -0.0006796493 -0.04080426 -0.03900823 0.03501613
0001d0 ae 54 80 bd 41 6f d1 bc 27 65 bd 3c d1 8c 66 bd
       -0.06266151 -0.025565745 0.023119522 -0.056286637
0001e0 c5 09 42 bd 21 e9 2e 3d 2c f4 58 3d 64 b9 9d 3c
       -0.0473726 0.042702798 0.052967235 0.01925344
0001f0 ef 7f e8 3c 7c d5 5a 3d 6e 7f 4d bd 4b c7 37 3d
       0.028381316 0.05342625 -0.050170355 0.044867795
000200 31 19 98 3c 24 69 37 3d 89 77 82 be 40 dd 9c 3d
       0.0185667 0.044778004 -0.25481823 0.076593876
000210 a1 04 06 3d 57 11 9c bd 81 46 de bb fd 76 39 3e
       0.03271926 -0.07620495 -0.006783307 0.18111797
000220 2c 17 ba 3b 68 8c 8f bc e3 dc ce 3b 2f be 1b 3d
       0.005679032 -0.017523006 0.006312953 0.03802317
000230 55 57 97 3d b4 ad f0 bb dd 16 4b bd 89 bc 58 3d
       0.07389704 -0.007344926 -0.04958235 0.052914176
000240 de f7 29 3d db 41 01 bd 56 64 7e 3d 10 02 10 bd
       0.04149615 -0.031556945 0.062107407 -0.035158217
000250 dd d1 bd bb 8d 01 5d 3c d8 78 b6 3d f2 f6 5e 3d
       -0.00579284 0.013489139 0.08909768 0.054434724
000260 87 f0 44 3d e5 fc 4f 3d 75 09 1d bd 63 e0 b4 bd
       0.048080947 0.05077829 -0.038339097 -0.08831861
000270 44 dd 8a bd be 83 06 3e b0 cb c6 3c ed 94 7a bd
       -0.06780484 0.13136193 0.024267048 -0.061177183
000280 d2 74 44 3c 4b f1 cc 3c 34 b5 69 bd 66 5b 8a 3d
       0.011990743 0.025017401 -0.057057574 0.06755714
000290 9c e4 02 bd 97 90 00 bd cc 87 34 bd c3 2c a4 3d
       -0.0319563 -0.03138789 -0.04407482 0.0801635
0002a0 5a c5 ba 3c e8 f7 18 39 a0 b3 23 3d c4 f7 a5 bd
       0.022799183 0.00014588202 0.039966226 -0.08103898
0002b0 64 ae 8a bd db bf 96 3d 68 1b 0b bd f5 01 1e 3d
       -0.067715436 0.07360812 -0.033961684 0.038576085
0002c0 a3 0e 8a 3d ff cf 14 bd 5d a5 21 3e ba 36 02 bd
       0.06741073 -0.036331173 0.15785737 -0.031790473
0002d0 bb f5 80 3c 72 4f c3 bd db ad 43 be 12 ff 8c 3d
       0.015742173 -0.09536637 -0.1910929 0.06884588
0002e0 72 65 5a 3d a6 cb 14 be a5 9e 0a 3a a4 24 69 bd
       0.053319402 -0.1453081 0.0005287922 -0.05691971
0002f0 b7 6a 73 bd 1a 2d 26 3b 45 8e 60 be f8 5a 86 bc
       -0.059427943 0.0025356472 -0.21929272 -0.0164008
000300 f9 17 32 bc 35 ec d3 3b f3 fd 11 3d 30 d9 bb 3c
       -0.010869973 0.006467367 0.035642575 0.022930712
000310 a8 4d be 3c f5 13 2a 3d 66 32 bc 3a b4 50 9c 3d
       0.023230389 0.04152294 0.0014358282 0.076325804
000320 d6 d2 fe bc b7 75 17 bd 36 2a 83 3c 6e 2c 79 ba
       -0.031106394 -0.036977496 0.016011339 -0.0009505217
000330 f3 14 68 3c 85 82 6b 3d 7a ad 13 3c 9f bd af bd
       0.014165151 0.05749752 0.009013528 -0.08581089
000340 e5 39 74 bd 41 1b 91 3d 3b 18 c4 bb e0 2b 41 bd
       -0.059625525 0.070852764 -0.005984334 -0.047160983
000350 45 65 17 bc f0 9a ce 3c de a5 f8 3c 26 9c 0a 3c
       -0.009240453 0.025220364 0.03035253 0.00846008
000360 b9 6a 04 3d cb 53 09 bc 58 7c d3 bc 78 7d ed bc
       0.03232834 -0.008381794 -0.025816128 -0.028990492
000370 71 d3 9b bd f6 3d c5 bc 20 93 e4 3d bd 55 9c 3d
       -0.076086886 -0.024077397 0.11160874 0.07633541
000380 ce 18 97 bd 7e b1 cb 39 6c db 34 bd 7c 78 41 3d
       -0.07377778 0.0003885142 -0.04415457 0.047234043
000390 0a 6a 40 3c 4a ee 1d bd aa 58 fa bb 78 e6 be bc
       0.011744032 -0.03855733 -0.007639964 -0.023303255
0003a0 39 b1 81 3d 12 88 46 bd af 3c 05 bd 62 db 13 be
       0.06332631 -0.04846961 -0.032528576 -0.14439157
0003b0 6e 72 30 3d 97 92 26 bb 4d e4 49 3d 2b 4e 49 3d
       0.04307788 -0.0025416964 0.04928999 0.049146812
0003c0 90 1f a8 3b 58 aa c6 3c ab 67 1f 3d 05 0b 99 3c
       0.0051307157 0.024251148 0.038917225 0.018682012
0003d0 b1 42 43 bd ec 69 0e be 62 ea 98 3d 38 69 a0 3d
       -0.047671024 -0.13907593 0.0746658 0.07832569
0003e0 ca 08 19 bb cf 5a 5f bc 41 35 78 3d 43 e8 3f bd
       -0.0023351186 -0.01363249 0.060597662 -0.04685236
0003f0 f0 03 93 bd 41 a5 00 3d 87 ab 16 3d 8c d5 80 bf
       -0.071784854 0.0314076 0.036784675 -1.0065169

fc3.bias f4 [50]
000000 aa 8d bb 3d 36 98 d5 3c 98 15 11 bd 95 3c 5d 3d
       0.0915788 0.026073556 -0.035420984 0.054012854
000010 e7 a3 c1 3c 95 46 6c bb b2 31 a3 3d 02 2d 72 3d
       0.023637725 -0.0036052812 0.07968463 0.059124954
000020 a2 b5 82 3d f0 b1 ee bc a8 96 c0 bc 3a 7c 18 bd
       0.063823 -0.029137582 -0.023509338 -0.037227847
000030 d6 9e 0d bd bd 9e 25 3d a8 ad 17 bd 49 dc c4 3d
       -0.034575306 0.040434588 -0.037030846 0.096123286
000040 e7 fe be 3c f4 69 b9 3b 08 32 af bc 5c 63 32 3d
       0.023314906 0.0056583825 -0.021386161 0.043551788
000050 72 70 b4 bc 38 8c 47 3d df d3 67 bd 0b ea df 3b
       -0.022026274 0.048717707 -0.05659854 0.00683332
000060 ac 89 a9 bd 07 89 2b bd f6 73 e3 3c aa 27 c1 bd
       -0.08278212 -0.041878726 0.027765255 -0.094313934
000070 5f 5e b7 bd 95 70 2e 3c 10 46 1c 3c 61 c8 61 bb
       -0.08953547 0.010646959 0.009538189 -0.003445171
000080 f0 ed a1 bd 9e 37 92 bd 50 d9 76 bd dc f4 46 bd
       -0.07906711 -0.071395144 -0.06026584 -0.04857336
000090 4b 24 b7 bd a6 30 28 bd a8 90 aa bd 2b f3 cf bd
       -0.08942469 -0.04106202 -0.08328372 -0.101538025
0000a0 b2 fe 94 3c 82 02 a3 3b b6 c9 96 3c b9 4a 09 bb
       0.018187854 0.004974664 0.01840673 -0.002094908
0000b0 46 23 cb bd 5e 50 87 bd 42 c6 35 bd 82 92 4a bc
       -0.09918837 -0.06607126 -0.044378527 -0.012364032
0000c0 75 19 2b bd 3c 57 42 bd
       -0.041772325 -0.047446474
