training_model/wandb/run-20200708_220840-2wptd04p/fir_6cov_1.pt (torch_old, 20480 bytes, 12 tensors)

encode_conv1.weight f4 [4, 12, 3]
000000 23 3d b1 be 47 c7 c4 3e de d8 90 3e 5c 55 3f be
       -0.34616956 0.38433287 0.28290457 -0.18684906
000010 d0 0f 0f 3e d4 0f fd 3b 4c f0 ee bd 08 32 a2 3e
       0.13970876 0.007722834 -0.11666927 0.31678796
000020 8e c3 91 3e f4 9c b1 bd 30 42 2e 3e 72 df a8 3e
       0.2846951 -0.086725146 0.17017436 0.32982975
000030 2e 38 80 be 2d ec b3 bc cb 17 ce 3e 93 99 17 3e
       -0.25042862 -0.021963203 0.40252528 0.14804678
000040 e6 f3 00 3e 5f 93 22 bd 73 7b 55 bc d5 a1 2f be
       0.1259304 -0.039691325 -0.013029921 -0.17151578
000050 43 2d be 3d e1 e7 a6 bc 24 33 8a 3e 99 d0 ba 3e
       0.09285977 -0.02037424 0.26992142 0.36487272
000060 3e c7 46 be 1d 7a 42 3e 9d 2b 98 3e bc f5 01 be
       -0.19411942 0.18991895 0.29720774 -0.12691396
000070 89 26 ef 3d 07 fc 0b 3e e8 7a 89 3d 5e 14 b2 3e
       0.11677272 0.1367036 0.06712896 0.34781164
000080 4c e2 24 3e 8f 5f 3c be a6 d7 75 3e b9 05 95 3e
       0.1610195 -0.18395828 0.24008045 0.2910593
000090 a9 91 91 bd f1 02 46 3e c6 4e 93 3d 4f c8 01 3f
       -0.071078606 0.1933706 0.07192759 0.5069627
0000a0 93 84 0a 3e 27 92 e5 be f8 27 49 bd 60 20 c1 bc
       0.13527136 -0.44838068 -0.049110383 -0.023575008
0000b0 16 58 1a be ae 78 e8 3b 15 0d 34 bd 25 fd c1 bd
       -0.15072665 0.0070944643 -0.04395779 -0.094721116
0000c0 71 3b 30 be 53 74 25 3d ae a5 a0 3e bb 75 81 3e
       -0.17210175 0.04039414 0.31376404 0.25285134
0000d0 38 72 67 3d 35 d1 2d 3e bc b7 c9 bd c4 ec 15 3e
       0.056505412 0.16974337 -0.09849498 0.146411
0000e0 36 92 c4 3c db 53 03 be cc 2e 03 be e8 1c 66 3e
       0.0239955 -0.12824957 -0.1281082 0.22471964
0000f0 83 f0 ca bd eb 83 45 3e eb 98 5f 3e df 21 97 3e
       -0.09909155 0.19288604 0.21835677 0.2951803
000100 33 6e 7b 3e e8 49 5b be 18 c3 1a bd ba 79 e5 3c
       0.24553756 -0.21414912 -0.037783712 0.028012145
000110 2f ca fd 3d 34 ce cc 3b a6 be bd 3d 9f 28 5b 3d
       0.12392079 0.0062501673 0.09264879 0.053505536
000120 bd bc b2 be be 90 9c 3d 00 44 8f ba e5 72 b1 3e
       -0.3490962 0.07644795 -0.00109303 0.3465797
000130 48 1a ad 3d d9 24 13 bd 0d 81 e7 3b 59 a5 e7 3d
       0.084522784 -0.035923813 0.0070649446 0.113108344
000140 69 0f 16 bd a7 43 8c 3d 14 79 35 3e 3b be 05 be
       -0.03663579 0.06848841 0.17721969 -0.13060848
000150 d9 78 8b bd ea c6 57 bc 3e 91 fc bc 46 7e bf 3d
       -0.06810159 -0.013169983 -0.030830976 0.093502566
000160 54 9a ff bb 3a b9 c3 bc 94 9e 13 3d bf 5c 00 3e
       -0.00780038 -0.023892034 0.036039904 0.1253538
000170 f5 08 7e bd 32 bc 86 be 64 25 0d 3e ec cf 72 3e
       -0.06202026 -0.26315457 0.13783795 0.23712128
000180 df 79 31 be d9 21 f9 bd fc f0 8f 3d de 27 bf 3e
       -0.17331646 -0.12164659 0.07028386 0.37335104
000190 60 63 84 3e 1e 78 0c bd 71 d0 6c be ce 15 82 3e
       0.25857067 -0.03429424 -0.23126389 0.2540726
0001a0 ee bc 21 be ec 25 b9 3d fb e1 a2 3d 7f 93 27 3d
       -0.15794727 0.09040436 0.079532586 0.040912148
0001b0 60 22 8f bc b1 ee 4c 3e db 0b 9b 3e b0 bb b6 3e
       -0.017472446 0.20012929 0.30282483 0.3569007
0001c0 72 32 e4 3d 81 82 40 be 37 7f f9 bc 03 74 9e 3d
       0.11142434 -0.18799783 -0.030456169 0.07736971
0001d0 6b 7a 65 3e 57 00 31 bd 7e 12 12 be e4 38 08 3e
       0.2240998 -0.043213215 -0.14264867 0.13302952
0001e0 fb 42 02 3e 59 56 c1 3d ec 18 cd 3d f5 94 37 3d
       0.12720864 0.09440298 0.10014519 0.04481979
0001f0 75 f9 f5 3d 03 dc 27 be 86 c3 10 3e 10 a9 03 3d
       0.12010471 -0.16392522 0.14137086 0.032143652
000200 df ab 67 bd 6f 1e eb 3d 1d 8c 88 bc af 69 5e bc
       -0.056560393 0.11480414 -0.016668374 -0.013575002
000210 d9 71 2e be 8b f7 90 3d 22 04 ac 3e a3 6a 32 3e
       -0.17035617 0.07078465 0.33596903 0.17423491
000220 ad 03 ed 3d e9 3a d8 bd d4 e3 8d 3d e9 4b f2 bd
       0.11572967 -0.10558111 0.069282204 -0.11830885
000230 9f e5 51 3d ac 91 e3 3d 60 b7 fd bd 1c d3 26 3e
       0.051244374 0.11111769 -0.12388492 0.1629147

encode_conv1.bias f4 [4]
000000 29 23 86 be 96 f3 59 be 17 c4 f7 3d c8 23 05 3d
       -0.261987 -0.21284327 0.12097948 0.032504827

encode_conv2.weight f4 [4, 4, 3]
000000 79 2c 9e 3e 2d 83 5b 3d cc 79 5f be b4 d4 a7 bd
       0.30893305 0.053591896 -0.21823806 -0.08194867
000010 03 6d f5 3e 2e ac 82 3e 8b 97 8c 3d ee 63 71 3d
       0.47934732 0.25521988 0.06864842 0.05893319
000020 1a 84 f2 3d 52 ad 93 bc 26 86 cd 3d 18 52 b2 3e
       0.118416026 -0.018026982 0.100353524 0.34828258
000030 2c 7f 29 be 6d 23 2e bb f6 57 83 bd 4e be f1 bc
       -0.16552418 -0.0026571408 -0.064132616 -0.02950969
000040 c2 97 22 bd b0 cd b5 3d 7a ee a3 3e 58 a5 56 3e
       -0.03969551 0.088771224 0.3201788 0.20961511
000050 ef e5 4a be 0e 53 9c 3e 8d a5 49 be e0 7a ba bd
       -0.19814275 0.30532116 -0.19692059 -0.09105468
000060 30 51 6c 3e bc c1 bd 3e 03 0e c9 3e f8 b7 cb 3e
       0.23077846 0.3706187 0.39268503 0.39788795
000070 be 09 b2 3d 7f f8 f2 3d eb 0d e6 3e ba 3b c5 bd
       0.086932644 0.11863803 0.44932494 -0.096305326
000080 d3 ec cc 3d 76 f4 45 3e 7f 7b d6 3e 47 83 c2 bd
       0.10006108 0.19331536 0.41891095 -0.094976954
000090 1b fb 33 be 5d 69 ab be fd 46 17 be ab 1a 01 3e
       -0.17576258 -0.33478823 -0.14773174 0.1260783
0000a0 26 5d 1d 3e 38 96 3e bb 39 4b 75 be 5f 5e 42 3e
       0.15367565 -0.0029081237 -0.23954476 0.18981312
0000b0 34 8c 55 3e ef 0d e3 bd 9f f2 7a 3e 19 20 61 be
       0.20854264 -0.11086642 0.24506615 -0.219849

encode_conv2.bias f4 [4]
000000 43 85 2b be 1b 29 47 3e f5 a6 6e bd 7e e3 6e 3d
       -0.16750054 0.19449274 -0.05826469 0.058322422

encode_conv3.weight f4 [8, 4, 3]
000000 08 55 55 be 83 3a 8b 3d 70 56 c0 be c1 31 8f 3e
       -0.20833218 0.067982696 -0.37565947 0.27967647
000010 19 62 c3 3e f9 d5 fe bb 56 7f 41 3d 12 79 b3 3e
       0.3816078 -0.0077769724 0.047240578 0.35053307
000020 61 f9 09 3e 1a 8e 39 3e ab 16 15 bd 68 13 1a be
       0.13474037 0.18120614 -0.03639857 -0.15046465
000030 5a 78 a0 be 69 c3 a5 3e 8d 62 24 3e 27 27 48 3e
       -0.3134182 0.3237565 0.16053219 0.19546185
000040 42 ed ea 3d 50 28 79 bd af 65 ef 3d 64 4c 65 3c
       0.114710346 -0.06082946 0.116893165 0.013995264
000050 cf c5 82 3c a5 d0 de 3e 26 f8 9a bc cc 5d 07 3e
       0.015963463 0.43518558 -0.018917155 0.13219374
000060 34 a0 f0 3e 7d fd 08 3e 9b 43 b3 be e1 1c 7a be
       0.46997225 0.13377948 -0.35012516 -0.24425079
000070 ea fc 4a be a8 23 c2 be ce 6e 05 3e 23 78 6e bd
       -0.19823042 -0.3791783 0.1303055 -0.05822004
000080 b1 79 1e be 7c cb 8c be 6d 4a b4 3d 00 d6 88 be
       -0.15476109 -0.27498996 0.08803258 -0.2672577
000090 78 e6 b6 3e f1 0e 00 be d0 39 42 be 05 b3 e8 3e
       0.3572271 -0.125057 -0.18967366 0.4544908
0000a0 af 34 83 3b e9 8c a3 3d ac 55 83 3e 37 54 9d be
       0.004004083 0.07985861 0.256513 -0.30728313
0000b0 4d 60 02 3c 17 fa 7e be f5 b6 f3 bd b8 39 2a be
       0.00795753 -0.24900089 -0.11900131 -0.1662358
0000c0 2e fc 8d 3e 06 1d b4 bd 9d 5a 49 3e ab a1 f9 3d
       0.2773146 -0.08794598 0.19663472 0.12189039
0000d0 98 cb db bd fd 94 95 bd f6 26 94 be c3 06 8d bd
       -0.10732192 -0.07303808 -0.28935975 -0.06886055
0000e0 3e fb 8d be 89 cc 6a be b8 fb 8c be 07 7d 82 bc
       -0.27730745 -0.22929586 -0.27535796 -0.015928758
0000f0 df 62 49 3e fd 9d 68 be 86 4f 5f 3e 8f 21 8b 3d
       0.19666623 -0.22716518 0.2180768 0.0679351
000100 db b4 d2 bd b9 aa e4 bc 9e 90 d4 bd 23 0c b9 3e
       -0.10288402 -0.027913438 -0.10379146 0.36142072
000110 76 44 8d bd 0b 48 62 be 14 8a 8a be 57 32 88 3c
       -0.068978235 -0.22097795 -0.2705847 0.016625566
000120 fd a4 03 bc 03 5b b2 3e 8d 3d ed bb f6 d6 d8 3d
       -0.008034942 0.3483506 -0.0072400034 0.105878755
000130 9d f8 10 3e d3 93 83 3e bd 75 84 be 8a 63 50 be
       0.14157338 0.25698718 -0.25871077 -0.20350471
000140 15 5c 81 3e 8f 1b fb 3d cb 52 97 bd 7b 92 8b 3e
       0.25265566 0.12261116 -0.073888384 0.27260193
000150 95 77 0c be 78 0f f4 3d 32 f6 9c 3e 33 0c 20 be
       -0.13717492 0.11917013 0.30656582 -0.15629654
000160 24 cf a0 bb de 4a 53 3d c5 19 7d bd 40 0d 91 bb
       -0.0049075056 0.05158507 -0.061792154 -0.0044266284
000170 34 61 0e 3e 19 ab b2 3e fa 31 a1 3e 6f 6f 49 be
       0.13904268 0.34896162 0.31483442 -0.19671415

encode_conv3.bias f4 [8]
000000 f1 de 14 be 9b fe 37 be 69 b4 03 be 9b 44 6c 3e
       -0.1453817 -0.17968218 -0.1286179 0.23073046
000010 01 87 80 3d 63 55 c0 3c 9c c0 90 3e bb 97 65 3e
       0.0627575 0.023478216 0.2827195 0.22421162

encode_conv4.weight f4 [8, 8, 3]
000000 86 86 44 be bb 59 9b 3a ca f4 87 3e 11 bd ac be
       -0.19191942 0.0011852303 0.26553947 -0.33737996
000010 f9 0c 3e 3d b7 38 56 bd 3c 3c aa 3e f5 f7 78 3d
       0.04639909 -0.05230018 0.3324908 0.060783345
000020 c8 91 a9 3d 56 0e 98 3d 61 0e 29 bf 7d af 71 be
       0.08279759 0.07424609 -0.66037565 -0.236021
000030 4e 21 de bd a5 b7 f3 3d 0d 54 a7 3d 90 f4 32 bd
       -0.10846196 0.11900262 0.08170328 -0.043690264
000040 a2 6f 9e 3d 76 59 39 be ad b2 0d bd 4b ea 54 be
       0.07736136 -0.18100533 -0.034594227 -0.207925
000050 9e d3 14 bd af 67 0f bd 75 c4 1c be 4b 50 dd bd
       -0.036334626 -0.03501099 -0.15309317 -0.1080633
000060 ef bf b0 3b 17 39 8d 3e a9 c1 08 3e 07 af 27 3d
       0.005393974 0.2758262 0.13355125 0.040938403
000070 62 0b b0 bd d2 b8 29 be 4c b3 12 3b da d2 59 3e
       -0.08595921 -0.1657441 0.0022384701 0.2127184
000080 14 a7 81 3e a9 a3 d4 3d 4b 2b f9 3c de 56 80 3e
       0.25322783 0.10382778 0.030416152 0.25066274
000090 11 c0 3c 3d 47 a2 d6 3d 43 59 bd 3c 82 0e 86 3e
       0.046081606 0.10480171 0.023113852 0.26182944
0000a0 f3 05 16 be b3 a2 6a 3e 06 26 95 bc 28 d0 84 bd
       -0.14650707 0.22913627 -0.018206608 -0.06485015
0000b0 d7 2d 19 3e 92 39 b9 3d e7 25 cd bd 7e 82 87 bd
       0.14958893 0.09044184 -0.10016995 -0.06616686
0000c0 fd e0 ad bd 09 d0 8c 3e 45 a2 bf bd f0 81 5f 3e
       -0.08490179 0.27502468 -0.09357122 0.21826911
0000d0 64 5e 36 3c 0e db 17 be 9d 70 17 3e fd 76 e7 3e
       0.011130903 -0.14829656 0.14789052 0.45207968
0000e0 60 6e 1e 3f dc 2b 8b 3d 96 e1 d5 3d 64 1b 1e 3e
       0.6188717 0.06795475 0.10443418 0.15440136
0000f0 1a e2 3f 3d 1c 43 75 3d 2b 6d 02 3e 2b d9 26 3e
       0.046846487 0.059878454 0.12736957 0.1629378
000100 95 46 57 3d 79 ca dc 3d 57 6e 61 bc 18 1e 25 3e
       0.052557547 0.10780806 -0.013759217 0.16124761
000110 c4 57 0b be 05 0d 6a bd 02 6b b6 3d a9 08 11 bd
       -0.13607699 -0.057141323 0.08907129 -0.03540865
000120 b9 c9 81 3e 64 60 e0 bd d5 66 06 bd 85 9c 3b 3e
       0.25349215 -0.10955885 -0.032812912 0.18321426
000130 70 e0 73 bd 20 0b 67 3e 89 a5 26 bd fd 71 da 3e
       -0.059540212 0.22562838 -0.04068521 0.4266509
000140 92 67 c7 be 9d 07 b2 be 3f 50 4a 3e 93 8d 81 3d
       -0.38946205 -0.34771433 0.19757174 0.06325831
000150 98 c3 2f 3d 8b c5 9c bc 5e 36 ed 3d fb e6 29 3e
       0.042911142 -0.019137165 0.11582635 0.16592018
000160 d6 3a 82 3e f8 7a 32 3d 7b 03 80 bd b4 8c bc be
       0.25435513 0.043574303 -0.06250664 -0.36826098
000170 80 c4 ae 3d 34 7b 64 3e 0b 58 c8 bd fd 64 64 3e
       0.08533573 0.22312623 -0.09782418 0.22304149
000180 f3 71 21 3e 9e b3 a3 3e bf fd 2d bd ef 46 83 3e
       0.15766124 0.31972975 -0.04247832 0.25640056
000190 d3 b8 6f 3d bb 32 d9 bc 7b 72 3c bc 9d c6 45 3e
       0.05852587 -0.026513448 -0.011501904 0.19314046
0001a0 4a dc 9a 3e c8 f7 1f be 96 54 ab 3e 06 a4 8e 3e
       0.30246192 -0.15621865 0.3346297 0.27859515
0001b0 be 97 4d 3e 23 b3 ab 3d 29 cc 08 3b f1 13 10 3e
       0.20077416 0.08383777 0.0020873642 0.14070107
0001c0 05 a9 ef bd a6 72 3b 3e 47 25 f9 bc 9d b0 b7 3d
       -0.1170216 0.18305454 -0.030413283 0.08969233
0001d0 26 a8 76 3e b6 9f 81 3e d5 dc 51 be 45 4c 16 3e
       0.24087581 0.25317162 -0.20494397 0.14677532
0001e0 a3 6a b2 bd 8a c7 9e bb 26 ec 82 3e cf 1f 9a bb
       -0.087117456 -0.0048455643 0.25570792 -0.004703499
0001f0 f6 d7 5d 3e 86 dd 7c 3d fa 92 15 be 0c d3 c3 3d
       0.21664414 0.0617347 -0.14606848 0.09561738
000200 e3 4c 80 bd f5 25 f2 bd d4 62 77 bd 75 97 52 3e
       -0.06264665 -0.11823646 -0.060396984 0.20565589
000210 a5 69 b8 3c 55 3b e6 bd fa b3 d4 3c 80 b8 f1 3c
       0.022511313 -0.112417854 0.025964726 0.029506922
000220 0e 42 44 3d f4 7d 57 3e 78 1e 4c 3d 56 d4 59 3e
       0.047914557 0.21044141 0.049833745 0.21272406
000230 42 d9 b9 3c ce 54 0d be ee 5f 80 3e 36 12 f3 3d
       0.022686604 -0.13801882 0.2507319 0.11868708
000240 cb 1c cf 3d dd 67 17 bd 03 7a 85 3e 3d c9 3d be
       0.10112914 -0.036964286 0.2606965 -0.18533798
000250 dd 52 43 bd 9c c8 5d 3e b3 29 54 be ae 7d 3b be
       -0.047686446 0.21658558 -0.20719032 -0.18309662
000260 4d 86 99 3c b7 d9 38 3e 57 06 de bc f3 40 88 3e
       0.018740797 0.18051802 -0.027102632 0.26612052
000270 90 e8 a9 3d 82 64 91 3d 92 eb 8b bd 8a ed cc bd
       0.08296311 0.070992485 -0.06832041 -0.100062445
000280 39 f4 56 3e 92 b7 89 bc ff 49 a0 3d ed e6 10 be
       0.20991601 -0.016811166 0.07826614 -0.14150591
000290 c1 77 38 3e c8 26 34 3e 8c 95 09 3d d0 14 29 3d
       0.18014432 0.17592919 0.033589885 0.041279614
0002a0 c4 b8 53 be 8d 11 85 3d f1 a3 b1 3e 2d 6e 6f 3b
       -0.20675951 0.06497488 0.3469539 0.0036534176
0002b0 9d 53 b5 3d 39 23 9e 3d e0 0a 71 3e 43 5d e0 3e
       0.088538386 0.07721562 0.23539305 0.43821153
0002c0 18 90 06 be 05 7c 8a 3e be 6a f0 3e b4 ee bf 3d
       -0.13140905 0.27047744 0.46956438 0.09371701
0002d0 0e 6d 9e 3d 55 41 6a bd 01 51 93 bd 7c 82 bf 3d
       0.07735644 -0.05719121 -0.07193185 0.0935106
0002e0 ad 06 ed 3d 08 48 48 3e 16 8a 4c 3d b7 7c 7b be
       0.11573539 0.19558728 0.049936377 -0.24559294
0002f0 81 63 32 bd 5a 10 54 3d 0a 99 5a be c6 38 f0 bd
       -0.043551926 0.051773407 -0.21347442 -0.11729579

encode_conv4.bias f4 [8]
000000 f8 ba f3 3d 01 6e 02 3e fc e3 86 bc 45 27 07 be
       0.11900896 0.12737276 -0.016466133 -0.13198574
000010 de c2 44 be 8d 0d 26 3e 6f 1b a2 3d 32 e0 26 be
       -0.19214961 0.16216107 0.07915389 -0.16296461

fc1.weight f4 [50, 56]
000000 04 e2 0e 3e a3 cd 4e bc e7 72 2f be 3a 0f 92 be
       0.13953406 -0.01262227 -0.17133676 -0.28527242
000010 59 2f 82 bd c1 70 c5 bd 75 a2 ad 3d e0 95 9b 3b
       -0.06356687 -0.09640647 0.08478252 0.004748091
000020 6e 5a 20 39 5a 73 bc bd 74 58 87 bd b9 d2 4a 3d
       0.00015292477 -0.09201689 -0.06608668 0.049517367
000030 ee 3a 70 3d 18 ec 94 bc c2 ab 17 3e ca 3d 05 3e
       0.05864995 -0.018178985 0.14811614 0.13011852
000040 73 8d df bd 48 4c ac bd cd 8f 18 3e 08 a3 81 3e
       -0.10915651 -0.08412987 0.14898606 0.25319695
000050 de 34 96 3e 56 a2 85 bd d1 d4 89 3e be f4 57 bd
       0.2933721 -0.06525104 0.2692018 -0.05272364
000060 d1 01 8a 3e 6a cf 19 3e cf 91 08 bc 49 5d 29 3d
       0.2695451 0.15020528 -0.008335545 0.04134873
000070 e5 89 7f 3e 42 93 b9 3d 55 b6 a0 3c a3 6f 0b 3e
       0.24954946 0.0906129 0.019618193 0.13616805
000080 08 1c 3d 3e a4 5c af 3d 3f 0f 4a 3e 2f 49 06 be
       0.18467724 0.08562592 0.19732378 -0.13113855
000090 ee 57 d1 3d b2 8b 82 bd bb 08 f0 bd 0b d1 06 3e
       0.102218494 -0.06374301 -0.11720415 0.13165681
0000a0 e6 4d df 3d 64 7a 9a bd 07 da 02 be bb 1a be 3d
       0.1090353 -0.075428754 -0.12778483 0.09282442
0000b0 80 91 c6 3d 60 1a 81 3d 64 99 ed bd f9 bb 57 bd
       0.09695721 0.06303859 -0.116015226 -0.0526695
0000c0 6f 0a ca bd bd 05 04 3e 23 e2 ca 3c 95 1f 8d bc
       -0.09865271 0.12892814 0.024766034 -0.017226974
0000d0 d0 a6 6a 3d 1f 3e 69 3e b4 75 e7 3d ab 00 5f 3e
       0.05728799 0.22777604 0.11301747 0.21777599
0000e0 71 59 ec bd 10 51 ea 3d 8c 3d c0 bc f5 16 36 be
       -0.11540497 0.11441243 -0.023466848 -0.17782195
0000f0 6d 3c 3a 3e 2b 37 0d bd ea c8 23 3e af 66 fd bd
       0.18187113 -0.03447644 0.15994611 -0.12373101
000100 28 8b 42 be 58 07 c8 bb b3 0c 91 bc c7 9c cd bc
       -0.18998396 -0.006104391 -0.01770625 -0.025099171
000110 73 4b b1 bc 93 85 43 be 24 9e 2f be f9 90 a6 bd
       -0.021642422 -0.19093923 -0.1715017 -0.0813312
000120 ea e8 ec 3c eb d9 d9 bd c2 20 93 3c 4a f3 de 3c
       0.028919656 -0.10637268 0.017959956 0.027215619
000130 03 4a 96 bb 28 e9 27 3e 6b 39 f8 bd 47 07 ae bd
       -0.0045864596 0.16397536 -0.121203266 -0.08497482
000140 8e 26 9c bc c9 bd e1 3d df 22 8b bc ff f6 28 3e
       -0.019061353 0.11022527 -0.016984401 0.16500472
000150 95 e2 99 bd ca 2c af 3d 45 e4 39 3d 6f 1d a4 3d
       -0.0751392 0.08553465 0.04538371 0.080134265
000160 08 4e b3 3c 36 0d 9c bd b0 fa d3 3d 9d 1f fa bd
       0.021887794 -0.07619707 0.10350549 -0.12213061
000170 bd 7f 20 be 3d d8 a9 bd e9 52 a1 bc f3 96 00 bc
       -0.15673728 -0.08293197 -0.019692855 -0.007848489
000180 f0 46 5d 3c 85 f5 a0 3c 99 ff 14 be 85 e2 83 3b
       0.013505682 0.019648323 -0.14550628 0.004024806
000190 d1 54 8a be 00 c4 6d be 20 fe 04 be c2 b8 f6 bd
       -0.27017835 -0.232193 -0.12987566 -0.120469585
0001a0 e6 49 26 3d 4c 4c 57 3e 47 35 31 be 5e 0e cb bd
       0.04059782 0.21025199 -0.1730548 -0.0991485
0001b0 91 eb 59 3e 8f 89 00 be 25 e7 14 bd 06 32 7f 3d
       0.21281268 -0.12552474 -0.03635325 0.062303565
0001c0 75 47 61 3e 0d c4 be bd 0a e7 80 bd 4a e3 7d be
       0.21999915 -0.093147375 -0.06294067 -0.24793735
0001d0 3b 6a 0c bd ff 79 6f 3d e1 8d 07 3d c6 0e 12 be
       -0.034280997 0.058465954 0.03309429 -0.14263448
0001e0 b8 83 fd 3d 40 68 18 3d f2 af b1 3d e5 13 d9 3d
       0.12378639 0.037208796 0.08676137 0.10599498
0001f0 48 4f a4 bc d6 88 40 3d 89 50 99 b8 b0 04 5e 3e
       -0.020057335 0.047005497 -7.310609e-05 0.21681476
000200 3a e4 74 3d fc c1 ce bd 12 b0 c0 3d d0 34 fb 3c
       0.059787966 -0.10095593 0.09408583 0.030664831
000210 2e a3 91 3c 48 27 10 3e 58 0b 1e 3e 69 46 9a bd
       0.017778005 0.14077485 0.15434015 -0.07532961
000220 46 52 25 be 9b e5 b6 bd e9 9a 91 bd b8 24 97 bd
       -0.16144666 -0.089305125 -0.07109625 -0.073800504
000230 c1 49 95 3c 33 f2 a0 bc 70 f7 2f 3e 28 d4 e8 3d
       0.018223645 -0.01964674 0.17184234 0.113685906
000240 a2 08 8b 3d fd 57 07 be d7 46 d0 bd 05 93 12 3d
       0.06788756 -0.13217159 -0.10169762 0.03578474
000250 3e a7 37 3d 52 71 cd 3d 28 80 ae bd e5 01 1b 3e
       0.04483723 0.1003138 -0.085205376 0.15137441
000260 f6 42 b5 3d 5d 4b 19 bc 3e 5d 3f bd b7 20 00 3e
       0.088506624 -0.009356347 -0.046719782 0.1251248
000270 20 13 24 bd 1a bc 0e bd 0f 77 ae 3b 7a 58 13 bd
       -0.0400573 -0.034847356 0.0053242515 -0.03597305
000280 26 f7 e8 3d a0 e0 66 be 8a f9 19 3e c2 1b 7d 3e
       0.11375265 -0.22546625 0.15036598 0.2471762
000290 f9 c0 42 be fc ef 7f 3d 8e fb 92 bd 19 6d 26 bd
       -0.19018926 0.062484726 -0.071768865 -0.040631387
0002a0 9a ce 0f 3f 9e b7 a0 bd a6 36 1c bc a2 8c 6f bd
       0.56174624 -0.07847522 -0.009534514 -0.058483727
0002b0 38 c9 90 bd 46 c2 80 bd 71 00 da 3a 21 54 e8 3d
       -0.070696294 -0.06287055 0.0016632212 0.11344171
0002c0 f7 16 1d be e7 80 b2 3e 21 3c 3f 3e ca e9 f3 bd
       -0.15340792 0.3486397 0.18675281 -0.11909826
0002d0 c1 c8 35 3d 72 bf 48 be 1c 96 99 bd b9 f2 56 be
       0.044380907 -0.1960428 -0.07499334 -0.20991029
0002e0 6f 74 92 3e 71 4d ad 3e 2c 67 4a bd f4 f7 69 bd
       0.28604457 0.33848146 -0.0494148 -0.057121232
0002f0 65 8b a5 bd 38 7a 40 3a 4e 43 a2 3e 72 70 10 3e
       -0.08083228 0.0007342431 0.31691974 0.14105394
000300 cd 2c 32 be e8 0e b7 bd 34 80 d3 b9 d5 01 8a bc
       -0.17399903 -0.0893839 -0.00040340575 -0.016846577
000310 3e 19 d3 bc 56 ff 39 bd 6e 41 99 3e 58 f3 ab bc
       -0.025768872 -0.045409523 0.2993273 -0.020990059
000320 9c fc b6 bc 0f 6d 55 3d c4 bb 06 be 2a 11 86 bd
       -0.02233725 0.05210596 -0.13157564 -0.065462425
000330 c0 fe e5 3b 7e 49 61 3e 47 5e 2d be d0 3f 04 be
       0.007018894 0.22000691 -0.16930495 -0.12914968
000340 51 90 0a be 0b 2a b6 bb 96 53 23 bd 9d 8e 5a 3d
       -0.13531615 -0.005559211 -0.039874636 0.053358663
000350 3d f4 62 bd 0f da 4b be 41 b5 fc bd e4 78 aa bd
       -0.055408705 -0.19907402 -0.12339259 -0.08323839
000360 e7 5c f1 bd 25 83 3d bd ea 8d 40 be d2 0d 91 3d
       -0.11785298 -0.046267647 -0.18804136 0.07082714
000370 a8 8e 9e 3e 8c 8f 05 be 29 76 bf bd d1 83 f5 bb
       0.30968213 -0.1304304 -0.09348709 -0.0074925204
000380 8f 18 3a 3e 32 a3 f8 bc cd 27 3f bd c3 3a 87 be
       0.18173431 -0.030351255 -0.046668816 -0.2641202
000390 a2 fa 8f 3d b9 59 15 bd d3 0c dc 3c 75 ef a2 3d
       0.07030226 -0.03646252 0.026861584 0.07955829
0003a0 2e 8f 25 3e 83 30 4b 3d 92 98 91 bc 81 de 32 3e
       0.161679 0.04960681 -0.017772947 0.17467691
0003b0 7a 7a 0b 3e e8 8d 71 bd c5 a1 d6 bc ba 72 c2 3d
       0.1362094 -0.058973223 -0.026200185 0.094945386
0003c0 24 ff 05 bd f6 22 f1 bc 0a f6 02 3c 49 4e c2 bc
       -0.032714024 -0.029435616 0.007993231 -0.02371897
0003d0 92 43 4f 3d 1a 4d 8b bd 6e 23 6e 3d ba 24 8e 3e
       0.05060155 -0.06801815 0.058139257 0.27762395
0003e0 eb 52 1d be 60 f0 81 be af ad 01 bd e0 02 03 be
       -0.15363662 -0.25378704 -0.03165978 -0.12794065
0003f0 35 03 05 be 5c 36 a4 bd 67 39 8c 3d 04 f5 a9 bc
       -0.12989505 -0.08018181 0.06846886 -0.020746715

fc1.bias f4 [50]
000000 cb f8 ea 3b f1 01 de bd d5 76 b2 3d fc b6 b2 3c
       0.0071707717 -0.10840214 0.08714072 0.02181577
000010 f7 68 95 3d 43 f4 11 3e 4f 9b da bd 9a 3d 0d 3e
       0.07295411 0.14253335 -0.10674154 0.1379303
000020 9b 43 0c 3e 7f 70 82 3d e9 45 f9 3c f4 d5 2a 3e
       0.13697664 0.06369113 0.030428844 0.16683179
000030 2b d1 f9 3d 0a 96 2a 3e 00 02 d5 3d e6 a0 8f 3d
       0.12198099 0.16658798 0.10400772 0.07013111
000040 42 db 2e 3a de f3 26 3e 80 0f f5 3d 08 cc f4 3c
       0.0006670245 0.16303965 0.11965847 0.029882446
000050 56 e7 75 bd ac da c0 3c b8 bc d5 3d d7 d7 29 3e
       -0.060035072 0.02354177 0.10436386 0.16586243
000060 a8 5b b5 3d 0f 98 3a 3e b8 43 1d be 53 bc 1a be
       0.08855373 0.18222068 -0.15357864 -0.15110902
000070 3a 5a 00 be 62 71 36 bd 87 df 3b 3d 99 eb 65 bd
       -0.12534419 -0.044541724 0.04586747 -0.056132887
000080 2d 23 16 bd db c8 25 3e b4 78 e3 bd db a4 93 3d
       -0.03665464 0.16189902 -0.11107007 0.07209178
000090 de 1b f1 3c 58 8f 9e 3d 84 ee b3 bd b4 82 c5 3d
       0.029432233 0.077421844 -0.087857276 0.0964407
0000a0 c1 d1 19 be c1 30 cc bd ef 05 cc 3d 3e b8 bf 3c
       -0.15021421 -0.099702366 0.09962069 0.023403283
0000b0 cf 1d d0 bd b7 50 50 bd c8 86 c7 bd 48 df eb bd
       -0.101619355 -0.050858226 -0.09742504 -0.11517197
0000c0 65 72 de bd 65 04 dd bd
       -0.10861663 -0.10791854

fc3.weight f4 [25, 50]
000000 06 46 85 3d ab ce f8 3c 65 5a 2f 3e a1 c6 70 bf
       0.065074965 0.030371984 0.17124327 -0.94053084
000010 1a 8b 57 3e 89 30 20 3e f8 2d f9 bc 44 a0 05 3d
       0.21049157 0.15643515 -0.030417427 0.032623544
000020 3e 0f 11 3e 7b 26 e4 3b 17 3f 22 3e ef f9 a3 bd
       0.1416597 0.006962595 0.1584438 -0.080066554
000030 d4 2b df 3c 05 47 fa 3c da 29 82 bd f7 9a 96 3d
       0.027242579 0.030551443 -0.06355639 0.07353776
000040 b7 b8 af 3c 8a 00 f3 3d 23 43 7d 3e ec 22 4b bf
       0.021450384 0.11865337 0.24732642 -0.7935016
000050 33 0c 2e 3c be 71 56 3e 83 db 88 bd 5e 8c 0e 3e
       0.010623026 0.20941827 -0.066824935 0.13920733
000060 71 a7 b8 bd 83 a6 47 be cd bc 88 3d 5f d0 0a be
       -0.09016312 -0.19497113 0.06676636 -0.1355605
000070 6f f1 f8 bd 3d 6f 2b be 03 78 b3 3d 6b 20 eb bd
       -0.12155425 -0.16741653 0.08763125 -0.114807926
000080 08 d9 28 3e 6b b9 a3 bc 32 6b 2d bf e7 17 7e 3e
       0.16489041 -0.019985875 -0.6774169 0.24813806
000090 3b 10 fc 3d 6d 21 60 bb 8f 25 14 3e b9 c7 b8 bd
       0.12307783 -0.003419961 0.14467452 -0.09022469
0000a0 7f b2 ca bd 80 77 4d bd 06 bf 4a 3e 18 3b c1 bc
       -0.09897327 -0.050162792 0.19799432 -0.023587748
0000b0 2a 4e 6e bc 87 5e 02 bf 7c 3e 38 be f5 60 8f bd
       -0.014545003 -0.5092549 -0.17992586 -0.07000915
0000c0 47 84 90 bd 30 2d 88 3d ad 98 28 be 9c 51 d6 3d
       -0.0705648 0.06649244 -0.16464491 0.104647845
0000d0 a5 79 81 3b f7 ba 24 be 4a 10 a3 3d 2c fd a5 bc
       0.0039512687 -0.16086946 0.07962091 -0.020262323
0000e0 bc 6b eb bd 20 26 b7 3d f4 a2 14 3e 70 83 3c 3d
       -0.11495158 0.08942819 0.14515287 0.046023786
0000f0 2b ac c5 3c d1 1b d1 bc 51 bc 7a bb e6 0d c0 bb
       0.024129948 -0.02552596 -0.0038259218 -0.005861032
000100 9f 3b 21 3d e0 88 b8 3d f9 52 b6 bd ce d6 cf bc
       0.0393635 0.09010482 -0.089025445 -0.025370982
000110 98 20 1f bd 3c 6e 3a be bf 51 0c be b7 f8 a8 bc
       -0.038849443 -0.18206114 -0.13703059 -0.020626409
000120 9b e4 9c 3d 38 a3 ef 3d 36 1d 9f bd 1c 48 9d bd
       0.076607905 0.117010534 -0.077692434 -0.076797694
000130 ef 79 9f 3d d7 59 56 3d 8c be 1e be f3 22 8c bd
       0.07786929 0.05233177 -0.15502375 -0.068426035
000140 7e f5 3d bd 6a 3d 01 3e 9b af 37 3c a8 18 c4 bd
       -0.046376698 0.12621084 0.011211301 -0.09575015
000150 64 dd d8 be 8b 37 85 3c a5 32 ee bd 9d 46 94 bd
       -0.42356408 0.016261837 -0.116307534 -0.07240031
000160 23 78 ed 3b c4 a1 7b 3d e8 07 82 bc 01 8c e8 bc
       0.0072469874 0.06143357 -0.01587291 -0.028387072
000170 35 17 ba 3d 53 7e f4 3b 42 2c 2a ba 0c 95 75 bd
       0.09086458 0.007461348 -0.000649158 -0.059956595
000180 31 6d 87 bd ea 65 a5 3d 11 09 98 bd 3a b5 09 3e
       -0.066126235 0.08076079 -0.07423604 0.13448039
000190 b9 94 00 be 72 1a 06 be 33 61 91 3d e4 f1 b1 be
       -0.12556733 -0.13096026 0.070986174 -0.3475486
0001a0 79 34 86 3d 63 20 2b 3e f1 c3 22 be bb 58 0c 3e
       0.06552977 0.16711573 -0.15895058 0.13705723
0001b0 05 a9 8c bc 4d 07 06 bd 55 eb bf 3d cf e7 33 bd
       -0.017170439 -0.032721806 0.09371058 -0.04392224
0001c0 78 4b 77 3c e2 90 0b 38 83 f6 27 3e d3 20 ab 3d
       0.015093677 3.3275115e-05 0.1640263 0.0835587
0001d0 d0 02 8a 3d 3e 81 ae bc d2 4b 5f 3d 14 ac 96 be
       0.06738818 -0.021301862 0.054515667 -0.2942816
0001e0 6e 6d ec bd f0 02 fe 3d 22 5b 76 bb ad 7f eb 3d
       -0.115443096 0.12402904 -0.003759094 0.114989616
0001f0 b1 7a a5 3d 5e 50 8c bd 88 23 03 be 4e 72 be 3d
       0.08080042 -0.06851266 -0.12806523 0.09299146
000200 88 09 2f be 04 bf 15 be 98 a5 5f bc 7a 51 27 3e
       -0.1709348 -0.14623648 -0.0136503205 0.16339675
000210 4b 30 b7 bd bd 15 25 3e 0c 44 90 be 0b ba 43 3d
       -0.08944758 0.16121574 -0.28176916 0.047784846
000220 14 5d ef bd 1c 2e 75 bd 54 6a 63 bd e5 98 f5 3d
       -0.11687675 -0.059858426 -0.055521324 0.11992053
000230 89 0b 2c be 24 fe 1b be 29 8a 87 bc ef 33 96 bd
       -0.16801275 -0.15233666 -0.016545372 -0.07334124
000240 33 2c 05 bd 7d 02 e6 bd 54 41 a3 bd a1 e9 b4 3c
       -0.032512855 -0.11230943 -0.07971445 0.02208406
000250 2a ed 2c 3d 01 38 f2 3d 07 5e 43 bd 3a 4b d9 3d
       0.042218365 0.11827088 -0.047697093 0.106100515
000260 27 45 14 3d c5 ac 8a bc ce 84 a4 3c 44 0c 54 3e
       0.03619876 -0.016928086 0.020082857 0.20707804
000270 22 79 aa 3d 71 b4 36 3d bf 7a c8 3d b3 eb 2c 3e
       0.083238855 0.044605676 0.09789037 0.16886787
000280 16 6d 97 3e 59 86 09 3e 42 08 2a be d3 d7 91 3d
       0.29575413 0.13430156 -0.16604713 0.07121243
000290 e0 c5 1f be 9c 04 14 3e 4c 32 5c 3e fc 1c 09 3e
       -0.15602827 0.14454883 0.21503562 0.13389963
0002a0 46 d9 a3 bc b2 25 8a bd 05 4c 18 3e 7f 1b 6d bb
       -0.020001065 -0.06745471 0.14872749 -0.003617972
0002b0 59 e7 51 3d 34 4c 3d 3e a5 29 f4 bd 34 9f 17 3d
       0.05124602 0.184861 -0.119220056 0.037017062
0002c0 44 f8 91 bd 13 a0 30 3d 7d 5c 1c be 7a 55 a8 3d
       -0.07127431 0.04312141 -0.15269656 0.08219428
0002d0 9f 8b 91 3d 39 eb d1 bd 41 44 c1 3d ed 6b b9 3d
       0.07106709 -0.10249943 0.094368465 0.09053788
0002e0 54 b0 2b bf bd 3c 76 3e ea 75 8a 3d ca 08 39 bd
       -0.6706593 0.24046607 0.067607716 -0.045174398
0002f0 e3 1f f1 bc 3a 5b 7f 3d 6e 02 f7 bd e5 d8 3b 3d
       -0.02943415 0.06234286 -0.1206101 0.045861144
000300 bf 2a 88 be 0e 5d d5 bd 02 da 4b 3e 6d 5e 8d be
       -0.26595113 -0.104181394 0.19907382 -0.27611104
000310 06 99 eb bd 9b dc a6 bd 59 82 ff bc 59 de 9b be
       -0.11503796 -0.08147546 -0.031190084 -0.30443075
000320 f5 fb 1e 3c 31 70 9e bd 86 59 83 3d 1a bb 8c 3d
       0.009703626 -0.077362426 0.064135596 0.06871624
000330 03 a4 30 3e f6 de 04 3e 2e 01 1c be b2 a7 b1 3d
       0.17250066 0.12975678 -0.15234825 0.086745635
000340 3a 92 a3 bd 41 12 12 3e 8f 3c 9d bd 2b 06 0e 3e
       -0.07986875 0.14264776 -0.07677566 0.1386954
000350 8e 31 ca 3d 01 cc 43 3e db 7d a7 bd 0b a8 09 3e
       0.09872733 0.1912079 -0.08178302 0.1344301
000360 d4 cb 30 3e ba 7c 04 3e 9f d4 98 3d 3f 62 00 3e
       0.17265254 0.12938204 0.07462429 0.12537478
000370 e8 f7 24 3e 37 8f f4 bc 24 27 32 3e fa bd 20 3e
       0.16110194 -0.029853446 0.17397743 0.1569747
000380 18 0f c7 3d 36 4b fd 3d 7d 4e c4 bd 81 8e c7 bd
       0.09719676 0.12367861 -0.09585283 -0.09743977
000390 93 63 ba bd 45 c9 d9 3c 8f ca a4 3d c4 16 a0 bd
       -0.091010235 0.02658523 0.080464475 -0.07816842
0003a0 6a a6 23 3e 66 65 87 3c 72 b4 a3 be 80 fa 56 3d
       0.1598145 0.016527843 -0.31973606 0.05248499
0003b0 34 27 3c bd 8b ee e9 3d b8 ff 47 bd 38 1d c4 3d
       -0.045935825 0.114224516 -0.048827857 0.095758855
0003c0 fa 25 c9 bd 97 6a 0c be a9 ca 0b 3d e2 6f ce 3c
       -0.098216966 -0.13712536 0.03412882 0.025199834
0003d0 c7 07 4f 3d 03 2e be 3d 9d 14 10 bd 2e ab fd b9
       0.050544526 0.0928612 -0.03517591 -0.0004838346
0003e0 5c a5 8a bd f5 da 11 be 2c 38 13 be 53 7c 0d bd
       -0.06769821 -0.14243682 -0.14376897 -0.034542393
0003f0 4b af cf bd 6d 0c 9a 3e f9 66 ef 3d cb ab ef 3d
       -0.10140856 0.30087605 0.11689562 0.11702689

fc3.bias f4 [25]
000000 f2 2d 8b 3c 5a 37 00 3e d5 61 f7 3d 2a 4c 3f 3d
       0.016989682 0.12521115 0.12079207 0.046703495
000010 16 2c e2 3d d2 e6 85 3d 09 59 6c bd 88 9b b5 bc
       0.11043565 0.06538166 -0.057702098 -0.02216889
000020 4c 4b 22 bc c4 78 54 bd 39 48 b7 bd e8 8b 4f 3d
       -0.0099056475 -0.051872984 -0.08949322 0.050670534
000030 8a 08 14 be 88 cb 5d bd 36 b9 97 bd e5 c9 5d 3d
       -0.14456382 -0.05414918 -0.07408373 0.05414762
000040 b9 ed 04 be 69 b1 0f be 08 f4 fe bd ea 6e d2 bd
       -0.12981309 -0.1403252 -0.12448889 -0.102750614
000050 bc 47 d0 bd 3d 9f 85 3d 92 c9 8e 3c 8f 13 c1 bd
       -0.10169932 0.06524513 0.0174301 -0.09427559
000060 bc fd 0f 3d
       0.03515409
