training_model/wandb/run-20200624_225727-2ip5xkuj/AE_filter_3.pt (torch_old, 250492 bytes, 16 tensors)

encode_conv1.weight f4 [4, 12, 3]
0.12399523 0.30891627 0.32631806 0.11650935 0.035275623 0.10383189 0.22979817 -0.03710469
0.081882164 -0.1717514 -0.13266805 -0.080897965 -0.11677613 0.057165865 -0.09118676 0.15667674
-0.09024697 0.13129854 -0.076812565 0.14534736 0.00033671912 -0.31934553 -0.21389559 -0.09226715
-0.23285212 -0.4009668 -0.31171498 0.03667443 0.0009574057 0.27267495 0.046515275 0.023581548
0.008446267 -0.27016398 -0.34459084 -0.34432986 -0.08035203 0.18521735 0.28707612 -0.22255674
-0.119583204 -0.45629805 -0.08335526 0.2695906 0.031938225 0.005427822 0.04460979 0.012215593
0.04185648 0.13067134 0.14748885 0.055998538 -0.16522738 -0.103179276 -0.019224461 -0.063052975
0.100927114 0.026608154 -0.039084427 0.023782395 -0.15742938 0.19154783 0.2599806 0.10642772
-0.05712916 -0.30394998 0.051115 -0.013444629 0.04287055 -0.04726221 -0.07617112 0.1227656
0.3000185 0.29371879 -0.11904373 0.3981615 0.16206114 0.10363278 0.049852982 0.18640918
-0.055686567 0.0884639 0.08467791 -0.07595498 0.25897127 0.020098876 0.13875142 -0.035553247
0.24947444 0.115387134 0.04210733 0.1817659 0.04288188 0.018491667 -0.035498463 0.30216405
0.23375069 0.23138116 -0.053477183 0.2927608 0.18842193 0.20616457 0.23458481 0.19637223
-0.006906874 0.23964085 0.14729877 0.02839104 0.072740525 -0.058986243 -0.09642089 -0.1709003
-0.24305038 -0.106705636 0.22082585 0.14338161 0.031375974 0.078632176 0.124347195 -0.08583231
0.10371017 -0.041285113 0.17176622 -0.051144365 0.03871174 -0.06267896 -0.0058363643 0.03590699
0.065398 -0.27119982 -0.16132826 -0.19768082 0.17974655 0.07691402 -0.13332398 -0.22575916
-0.082703866 0.026021866 0.19861445 -0.09665519 -0.018062245 -0.056642424 0.24606292 -0.09976744
00000000: 36f1 fd3d 462a 9e3e 2913 a73e 749c ee3d
00000010: 2c7d 103d d0a5 d43d 3650 6b3e 16fb 17bd
00000020: d6b1 a73d 99df 2fbe 22da 07be d5ad a5bd
00000030: 5328 efbd c126 6a3d 20c0 babd de6f 203e
00000040: 67d3 b8bd 2073 063e e84f 9dbd f0d5 143e
00000050: ad89 b039 4281 a3be 7207 5bbe 8ff6 bcbd
00000060: c970 6ebe 854b cdbe 1b99 9fbe ed37 163d
00000070: 69fa 7a3a 0d9c 8b3e cd86 3e3d 172e c13c
00000080: 3662 0a3c ef52 8abe 366e b0be 014c b0be
00000090: 9b8f a4bd 9ea9 3d3e a4fb 923e eae5 63be
000000a0: 0ae8 f4bd e69f e9be 2ab6 aabd c707 8a3e
000000b0: a8d1 023d dfdb b13b c1b8 363d e923 483c
000000c0: b371 2b3d b5ce 053e 5107 173e b95e 653d
000000d0: 5e31 29be a84f d3bd 9e7c 9dbc eb21 81bd
000000e0: e0b2 ce3d 58f9 d93c fe16 20bd 4cd3 c23c
000000f0: 2b35 21be 1d25 443e 2d1c 853e c7f6 d93d
00000100: 4400 6abd 559f 9bbe f65d 513d dc46 5cbc
00000110: 0899 2f3d 0596 41bd 9bff 9bbd 886c fb3d
00000120: 069c 993e 4f62 963e 33cd f3bd d3db cb3e
00000130: 5bf3 253e 6c3d d43d a432 4c3d 0ce2 3e3e
00000140: 9917 64bd 902c b53d 9d6b ad3d 498e 9bbd
00000150: e297 843e 66a6 a43c da14 0e3e 48a0 11bd
00000160: 3a76 7f3e 1750 ec3d bc78 2c3d d720 3a3e
00000170: e9a4 2f3d d67b 973c d666 11bd 3fb5 9a3e
00000180: 575c 6f3e 2fef 6c3e e40a 5bbd bee4 953e
00000190: aef1 403e ce1c 533e 0037 703e cd15 493e
000001a0: 0f53 e2bb 6964 753e 7dd5 163e 5494 e83c
000001b0: fcf8 943d 8f9b 71bd 5178 c5bd 7d00 2fbe
000001c0: 33e2 78be 7c88 dabd 2c20 623e a1d2 123e
000001d0: 1884 003d e809 a13d bea9 fe3d dac8 afbd
000001e0: ff65 d43d 941a 29bd 7ce3 2f3e c17c 51bd
000001f0: 3490 1e3d d45d 80bd f93e bfbb 3513 133d
00000200: 63ef 853d b4da 8abe 3c33 25be d76c 4abe
00000210: 7b0f 383e 1985 9d3d 1586 08be 692d 67be
00000220: a560 a9bd cf2b d53c 9661 4b3e 28f3 c5bd
00000230: 46f7 93bc e301 68bd ebf7 7b3e df52 ccbd

encode_conv1.bias f4 [4]
-0.05771966 -0.053919673 -0.17576964 -0.0027230147
00000000: 736b 6cbd e0da 5cbd f5fc 33be 9b74 32bb

encode_conv2.weight f4 [4, 4, 3]
0.009631818 -0.22472692 0.221813 0.084127 -0.7374221 -0.5829388 -0.29217497 0.09223719
0.001514601 0.24226247 0.06372332 0.13524725 0.20787874 0.2606042 0.42889658 -0.44121855
-0.73374945 -0.12445832 0.3032065 -0.14461468 -0.27107546 0.20496489 0.07858471 -0.14931074
-0.08853589 0.19163142 -0.43109366 0.15336901 0.53519994 1.3446083 0.38624087 0.009385828
-0.24956802 -0.080805995 0.13147008 -0.18484452 -0.09211047 0.10402008 0.5275762 0.14319251
0.43269622 0.2751261 -0.093109176 -0.1676811 -0.030244142 -0.19402319 0.04979057 0.9417827
00000000: c6ce 1d3c d01e 66be f222 633e c74a ac3d
00000010: b2c7 3cbf 7a3b 15bf f597 95be dae6 bc3d
00000020: 9485 c63a a713 783e 5f81 823d 417e 0a3e
00000030: 2ade 543e ea6d 853e 5598 db3e 66e7 e1be
00000040: 01d7 3bbf 01e4 febd e23d 9b3e df15 14be
00000050: 67ca 8abe 51e2 513e 05f1 a03d eae4 18be
00000060: 4e52 b5bd 073b 443e 4fb8 dcbe c40c 1d3e
00000070: dd02 093f 201c ac3f 5dc1 c53e 04c7 193c
00000080: c28e 7fbe 9d7d a5bd 18a0 063e e247 3dbe
00000090: 6aa4 bcbd 7b08 d53d 3c0f 073f 0fa1 123e
000000a0: 5c8a dd3e 54dd 8c3e 06b0 bebd 98b4 2bbe
000000b0: 90c2 f7bc 04ae 46be 32f1 4b3d ac18 713f

encode_conv2.bias f4 [4]
-0.18300584 0.018721 -0.0014400713 0.58587784
00000000: e265 3bbe c85c 993c c6c0 bcba 17fc 153f

encode_conv3.weight f4 [8, 4, 3]
-0.22622746 0.017562967 -0.018259818 -0.13216768 -0.17207588 0.027696863 0.1611172 0.13186598
-0.37732962 0.06853445 0.19701055 -0.29288712 0.020357287 -0.09804819 0.089125246 0.34697044
-0.45842248 -0.2343403 -0.050328597 -0.43038163 -0.15382405 -0.005494056 -0.10555051 -0.28063786
-0.14590605 0.23925546 -0.10005177 -0.09393353 -0.06908811 0.2434497 -0.35021633 -0.15677956
0.07109804 0.22477582 0.029172638 0.3179774 -0.26787797 -0.13194753 0.021853015 -0.07409241
0.10740775 -0.10980927 0.5016735 -0.56452215 0.27051285 0.44870275 0.27403998 0.13413781
-0.3618013 -0.18298662 -0.23305477 -0.23580433 -0.0639393 -0.36940476 0.49049327 0.27184078
0.005066569 -0.38132426 -0.6052305 -0.46554655 -0.07670274 -0.27172112 0.061811402 0.16380017
-0.044270426 0.074855216 -0.10628234 -0.4349728 -1.035903 0.11812374 0.2538541 -0.11597791
-0.069781244 -0.20434396 -0.42116657 0.16908166 -0.28488663 0.49326962 0.14582442 -0.032903228
0.3054653 -0.38435888 -0.48002365 -0.4473668 0.09255792 -0.28991497 -0.12421876 -0.32862186
-0.16234463 0.08721134 -0.020018913 0.04077789 -0.13949013 0.09519163 -0.100219935 0.05128099
00000000: 2ca8 67be 36e0 8f3c 9d95 95bc f756 07be
00000010: a934 30be 88e4 e23c e8fb 243e e007 073e
00000020: 5931 c1be ca5b 8c3d 22bd 493e 4df5 95be
00000030: 53c4 a63c 7dcd c8bd 4c87 b63d 1ca6 b13e
00000040: 5ab6 eabe e7f6 6fbe 5c25 4ebd fb5a dcbe
00000050: 0d84 1dbe 7b07 b4bb de2a d8bd c4af 8fbe
00000060: 6568 15be 62ff 743e f1e7 ccbd 3960 c0bd
00000070: 117e 8dbd e14a 793e 8e4f b3be d28a 20be
00000080: d99b 913d a22b 663e 75fb ee3c efcd a23e
00000090: 4d27 89be 411d 07be 1805 b33c c3bd 97bd
000000a0: 98f8 db3d afe3 e0bd ad6d 003f 8684 10bf
000000b0: a980 8a3e 5ebc e53e f84e 8c3e 6c5b 093e
000000c0: 053e b9be d860 3bbe e9a5 6ebe b176 71be
000000d0: 9cf2 82bd 9f22 bdbe ef21 fb3e b72e 8b3e
000000e0: 7605 a63b ef3c c3be 63f0 1abf 1e5c eebe
000000f0: 5316 9dbd 081f 8bbe f42d 7d3d 3bbb 273e
00000100: e854 35bd b14d 993d 8eaa d9bd c1b4 debe
00000110: 7898 84bf dcea f13d 2af9 813e d485 edbd
00000120: 78e9 8ebd 8b3f 51be 25a3 d7be be23 2d3e
00000130: a9dc 91be d68d fc3e ff52 153e 89c5 06bd
00000140: f365 9c3e b0ca c4be a9c5 f5be 430d e5be
00000150: 028f bd3d bc6f 94be 6866 febd 2041 a8be
00000160: ac3d 26be dc9b b23d b4fe a3bc b706 273d
00000170: 80d6 0ebe d4f3 c23d 1c40 cdbd 040c 523d

encode_conv3.bias f4 [8]
0.2061627 0.21893214 0.27481577 -0.04693031 0.082699016 0.19306482 0.26602092 0.30295607
00000000: 511c 533e bf2f 603e a7b4 8c3e ff39 40bd
00000010: 1a5e a93d c9b2 453e e533 883e 0f1d 9b3e

encode_conv4.weight f4 [8, 8, 3]
-0.054807387 -0.4964885 0.22589193 -0.008032876 -0.5732627 -0.6669009 0.35149598 0.29703984
0.1726842 0.63687867 0.12148186 -0.6672766 -0.2635675 -1.0622892 -0.15814798 -0.3483903
0.00066827657 -0.16217826 -0.11367062 0.16009718 -0.14867924 -0.15738346 -0.11242612 0.05101967
0.061879646 0.05707474 -0.07781012 -0.6140114 -1.356493 -0.33460394 -0.34677356 -0.31094977
0.1523423 -0.4529628 -0.43650556 -0.293567 0.65247697 0.5207938 -0.034729496 1.1152751
0.509108 -0.42068496 0.35013098 0.062953055 -0.07639163 -0.07287966 0.13943815 0.029127918
0.110916615 -0.12529363 0.07177503 0.053589687 -0.0936051 -0.17920232 0.0787458 0.012554588
0.13003276 0.3460084 0.35596558 -0.28339487 -0.010508092 -0.39921206 -0.02618548 0.1226109
-0.2263253 -0.123793475 0.13008563 0.041895688 -0.19679555 0.21883163 0.13396695 0.15883048
-0.17577693 -0.3990733 0.018227104 0.17288175 0.31087378 0.07329656 -0.003939708 -0.09417528
-0.21120073 0.3475754 0.59071696 -0.333263 0.12731631 0.048271146 -0.43350437 -0.13730784
0.035771493 -0.18170843 0.107161105 0.2008945 -0.10274219 -0.18895026 -0.46369866 -0.4669649
0.17096578 0.017986841 -0.09413657 0.40977588 -0.12813711 0.11664078 -0.0042855586 0.19178322
0.16977626 -0.01367991 -0.3748433 -0.01188231 0.15823953 -0.08751245 0.15810071 0.106839925
-0.2104868 -0.106649816 -0.21510413 0.06960227 0.2151523 -0.11195053 -0.09684869 0.18587689
0.18782277 0.14655048 0.035193127 -0.20401444 0.13370791 -0.05859893 0.14585844 -0.012358207
0.18790269 0.18352884 0.117578425 0.50448424 -0.656182 -0.62205964 -0.66745573 0.13786829
0.16036397 -0.19873086 -0.2112749 -0.102476 -0.07818715 0.17101918 -0.005878742 0.16182633
-0.062134735 0.10956242 0.27494 -0.06519651 -0.13244037 0.0825709 -0.016057584 -0.2451073
-0.22131072 0.3338867 -0.1315624 -0.12905146 -0.10976654 0.29715133 0.29283115 0.14653571
0.20883016 0.24388205 0.07851395 -0.017972307 0.2091256 -0.1169101 0.14231507 0.21899724
-0.039733216 0.1527097 0.30769154 -0.36571148 -0.8056623 -0.00024309919 0.1475138 0.26564693
0.023338106 0.7058842 -0.54930866 0.78826374 -0.28112477 -1.0165074 -0.35006446 -0.19156623
0.31138456 -0.24347857 0.2561768 -0.30915746 -0.14561065 0.021086175 -0.004083525 0.072637536
00000000: b67d 60bd be33 febe 3750 673e 539c 03bc
00000010: 58c1 12bf 04ba 2abf 48f7 b33e 9b15 983e
00000020: 20d4 303e 7b0a 233f 7bcb f83d a4d2 2abf
00000030: 52f2 86be 18f9 87bf 8bf1 21be 3760 b2be
00000040: 482f 2f3a 0f12 26be 24cc e8bd 84f0 233e
00000050: 5f3f 18be 2129 21be aa3f e6bd 00fa 503d
00000060: 8375 7d3d 34c7 693d ea5a 9fbd da2f 1dbf
00000070: 90a1 adbf 3551 abbe 4e8c b1be cf34 9fbe
00000080: 9fff 1b3e bdea e7be a87d dfbe 6a4e 96be
00000090: bb08 273f be52 053f 8440 0ebd 56c1 8e3f
000000a0: e754 023f 0564 d7be 5e44 b33e 88ed 803d
000000b0: 3773 9cbd ee41 95bd e0c8 0e3e ac9d ee3c
000000c0: 4028 e33d f94c 00be c9fe 923d dc80 5b3d
000000d0: 08b4 bfbd d080 37be 7a45 a13d c2b1 4d3c
000000e0: 4f27 053e 0328 b13e 1f41 b63e 2219 91be
000000f0: 222a 2cbc 8665 ccbe ef82 d6bc 6c1b fb3d
00000100: d2c1 67be 6f87 fdbd 2b35 053e d09a 2b3d
00000110: c684 49be 6615 603e a22e 093e 75a4 223e
00000120: defe 33be 5653 ccbe 0251 953c ea07 313e
00000130: d92a 9f3e 821c 963d ab18 81bb f8de c0bd
00000140: 0145 58be 67f5 b13e 3a39 173f 73a1 aabe
00000150: 355f 023e f7b7 453d 49f4 ddbe 6d9a 0cbe
00000160: 2185 123d c611 3abe 4877 db3d 4ab7 4d3e
00000170: 7f6a d2bd 2d7c 41be e969 edbe 0616 efbe
00000180: a711 2f3e 2459 933c adca c0bd 25ce d13e
00000190: 6036 03be 5ce1 ee3d df6d 8cbb d262 443e
000001a0: d4d9 2d3e b421 60bc 76eb bfbe 05ae 42bc
000001b0: 8b09 223e ba39 b3bd 27e5 213e e4ce da3d
000001c0: da89 57be 386b dabd 4244 5cbe a38b 8e3d
000001d0: e250 5c3e 5246 e5bd 9b58 c6bd 8356 3e3e
000001e0: 9d54 403e 5411 163e ab26 103d 29e9 50be
000001f0: baea 083e 6e05 70bd ea5b 153e 147a 4abc
00000200: 9069 403e fcee 3b3e f5cc f03d e125 013f
00000210: 8bfb 27bf 4d3f 1fbf 61de 2abf 582d 0d3e
00000220: 7436 243e 1a80 4bbe 7358 58be f0de d1bd
00000230: 9620 a0bd a71f 2f3e 76a2 c0bb cdb5 253e
00000240: fe80 7ebd 4362 e03d f0c4 8c3e bf85 85bd
00000250: 739e 07be ef1a a93d 328b 83bc 68fd 7abe
00000260: 479f 62be 33f3 aa3e 4bb8 06be 1126 04be
00000270: 48cd e0bd 3824 983e f7ed 953e 750d 163e
00000280: 93d7 553e 37bc 793e eccb a03d a93a 93bc
00000290: 0525 563e 906e efbd 0bbb 113e d040 603e
000002a0: 4cbf 22bd ee5f 1c3e bf89 9d3e 893e bbbe
000002b0: e23f 4ebf 71e8 7eb9 dc0d 173e e002 883e
000002c0: 8e2f bf3c d4b4 343f 7e9f 0cbf a7cb 493f
000002d0: 96ef 8fbe ea1c 82bf a63b b3be f029 44be
000002e0: cc6d 9f3e 7252 79be 9b29 833e e349 9ebe
000002f0: f51a 15be eabc ac3c 17cf 85bb fdc2 943d

encode_conv4.bias f4 [8]
-0.043969437 0.12408929 0.14216456 -0.33431625 0.11297154 0.12662874 0.006311436 -0.11436184
00000000: 4c19 34bd 8722 fe3d 9693 113e 802b abbe
00000010: 9f5d e73d f7aa 013e 2ad0 ce3b 8a36 eabd

encode_conv5.weight f4 [16, 8, 3]
0.1178537 -0.07801652 0.12108612 0.07601485 0.022769779 -0.08663123 0.06723103 0.04145123
-0.1512866 -0.13271576 0.1462835 -0.012339413 0.0685696 0.0075847507 -0.07025412 0.17708364
0.07015616 0.09622988 -0.16532764 0.10075027 0.15571207 0.19233957 0.076122254 0.06795108
-0.16742638 -0.06143567 -0.10950365 -0.046576574 -0.120322734 0.16306221 -0.086373396 -0.05938509
-0.076157585 0.12439963 0.17687804 -0.13694206 -0.017446652 0.100470394 0.16536584 0.13314095
0.15000656 0.023144558 -0.044184983 0.19026673 0.001263395 0.00071525574 0.012841731 0.00279741
-0.020842612 0.19284931 0.1163272 -0.016150415 -0.14011504 0.080311686 0.14949757 -0.007923037
-0.16088548 0.0104492605 0.042444304 -0.0660447 -0.013332903 -0.14636458 0.044418246 -0.1664612
-0.16130584 -0.037619486 0.06931785 -0.17206225 -0.09949095 0.075870514 -0.0065926462 0.14506397
0.1704905 -0.12284079 -0.08920881 -0.054604948 0.10770336 0.16368541 0.007098198 -0.03253308
-0.13986856 0.010562271 0.14944485 0.19099203 0.022802413 -0.13327885 -0.003963366 -0.12155853
0.13413998 0.14965639 0.025979385 0.17482445 -0.020532265 -0.058556974 -0.08866858 0.18903896
0.18391532 -0.12541282 -0.19464879 -0.10291431 -0.08846831 -0.08441745 -0.060088992 0.1350747
0.030388013 0.10639611 -0.020666882 0.17265648 -0.055413008 -0.067555726 -0.06891394 0.036157742
-0.1849477 0.096259624 -0.14790156 0.029658198 -0.024425179 0.12849501 0.13550857 -0.02532056
0.05577752 -0.17271897 -0.1904949 0.1305339 -0.08017631 0.018849358 0.008040786 -0.13697353
0.0431778 -0.14007872 0.1497435 -0.04734169 -0.12442826 -0.10799677 -0.14872569 0.1965326
-0.09308927 -0.104474016 -0.16331686 -0.10654691 0.05777371 -0.16431643 -0.03084889 0.08378899
0.04669854 -0.10201097 -0.19905993 0.14872444 0.067279965 0.023814455 -0.18035011 6.183982e-06
-0.16431215 0.1310769 -0.18471736 -0.022408843 0.051998645 -0.16706426 0.10870594 -0.19654137
-0.0027831495 0.056959152 -0.09720937 0.055813253 0.035786763 -0.06059301 -0.20242943 0.047077596
0.010308638 0.20061219 -0.09800176 -0.07726391 0.19713897 -0.18665332 0.13699573 -0.117975086
-0.17639 -0.049468756 -0.09039329 0.07799968 0.12520257 0.2028172 -0.025946394 -0.04695499
-0.13847113 0.055652022 -0.18945721 0.13480446 0.05774474 0.13934359 0.09731847 -0.17212874
0.009820685 0.20357803 -0.10300349 -0.08947645 0.0088080615 -0.096176 -0.062009916 -0.15246044
0.11225557 0.044961214 -0.18072316 0.040973052 0.081728846 -0.06338841 -0.12643394 -0.15483549
-0.03105402 -0.10529945 -0.07943453 -0.10883672 0.19267678 0.19698197 0.18620253 0.18929723
0.17855188 0.027848497 -0.01228486 0.14264482 0.16064909 -0.19052859 -0.14684439 0.15216586
-0.094206005 0.0077665 0.19050947 0.08614594 -0.07615578 -0.11466223 0.11734688 0.19386524
0.012635976 -0.057751343 -0.051565304 -0.11068076 0.12884039 -0.17491773 -0.10849953 0.020925105
0.11071384 0.18980432 0.20356464 0.07802752 0.18337893 -0.14605278 0.12526116 -0.17815612
-0.10013319 0.12572771 0.06427443 -0.070240095 -0.0873754 -0.08071034 -0.13156039 0.13707724
00000000: 485d f13d 20c7 9fbd 00fc f73d acad 9b3d
00000010: b087 ba3c b76b b1bd 6cb0 893d c4c8 293d
00000020: e0ea 1abe a4e6 07be 58cb 153e 402b 4abc
00000030: 386e 8c3d 8089 f83b 64e1 8fbd 6a55 353e
00000040: 08ae 8f3d 2c14 c53d a64b 29be 2856 ce3d
00000050: fc72 1f3e aaf4 443e fce5 9b3d f029 8b3d
00000060: d271 2bbe f8a3 7bbd 7343 e0bd 14c7 3ebd
00000070: c46b f6bd c8f9 263e 89e4 b0bd c83d 73bd
00000080: 82f8 9bbd 3cc5 fe3d 841f 353e 8a3a 0cbe
00000090: 48ec 8ebc 6cc3 cd3d aa55 293e 1a56 083e
000000a0: 529b 193e a899 bd3c 50fb 34bd 48d5 423e
000000b0: 8098 a53a 0080 3b3a 2066 523c c054 373b
000000c0: 20be aabc 4a7a 453e f43c ee3d e04d 84bc
000000d0: 517a 0fbe 747a a43d e415 193e a0cf 01bc
000000e0: 2abf 24be 6033 2b3c 14da 2d3d 7242 87bd
000000f0: 4072 5abc 99e0 15be e8ef 353d ce74 2abe
00000100: 5c2d 25be e416 1abd 84f6 8d3d 1631 30be
00000110: e9c1 cbbd 0062 9b3d 2007 d8bb a68b 143e
00000120: 1095 2e3e f493 fbbd 1cb3 b6bd 70a9 5fbd
00000130: 9493 dc3d 269d 273e 0098 e83b 6841 05bd
00000140: b439 0fbe 600d 2d3c 1208 193e 6a93 433e
00000150: 20cc ba3c 407a 08be 20df 81bb aef3 f8bd
00000160: fe5b 093e 863f 193e b8d2 d43c 2e05 333e
00000170: 4833 a8bc 70d9 6fbd df97 b5bd 6e93 413e
00000180: 4c54 3c3e 386c 00be 0352 47be bdc4 d2bd
00000190: e02e b5bd 0ee3 acbd e01f 76bd 0651 0a3e
000001a0: 48f0 f83c 34e6 d93d 984d a9bc dccc 303e
000001b0: c0f8 62bd a85a 8abd c022 8dbd 241a 143d
000001c0: ee62 3dbe c423 c53d 8273 17be c0f5 f23c
000001d0: 5017 c8bc 3294 033e c2c2 0a3e 106d cfbc
000001e0: f876 643d 3edd 30be 1811 43be aeaa 053e
000001f0: 7a33 a4bd f869 9a3c 80bd 033c ca42 0cbe
00000200: 34db 303d cc70 0fbe 5c56 193e 5ce9 41bd
00000210: 3ed4 febd 692d ddbd 8c4b 18be d83f 493e
00000220: 96a5 bebd 79f6 d5bd 893c 27be 4435 dabd
00000230: 20a4 6c3d 9142 28be d0b6 fcbc 9099 ab3d
00000240: f846 3f3d 21eb d0bd 5ed6 4bbe 384b 183e
00000250: 14ca 893d 8816 c33c b3ad 38be 0080 cf36
00000260: 7241 28be 0639 063e 8c26 3dbe c092 b7bc
00000270: 88fc 543d e512 2bbe 38a1 de3d 2442 49be
00000280: 8065 36bb 004e 693d b515 c7bd 709c 643d
00000290: 2495 123d 6030 78bd a949 4fbe 70d4 403d
000002a0: 90e5 283c 486d 4d3e 26b5 c8bd 8a3c 9ebd
000002b0: ccde 493e 0c22 3fbe 9c48 0c3e ec9c f1bd
000002c0: 959f 34be c09f 4abd 1e20 b9bd 4cbe 9f3d
000002d0: 1a35 003e 50af 4f3e 888d d4bc e053 40bd
000002e0: 60cb 0dbe 60f3 633d 1201 42be 2e0a 0a3e
000002f0: c085 6c3d 16b0 0e3e e84e c73d 8442 30be
00000300: f0e6 203c c276 503e 7ef3 d2bd 6e3f b7bd
00000310: b04f 103c ecf7 c4bd 1cfe 7dbd 971e 1cbe
00000320: 40e6 e53d 4029 383d 7e0f 39be 5cd3 273d
00000330: 7461 a73d c8d1 81bd e677 01be 328d 1ebe
00000340: 0065 febc 3da7 d7bd 92ae a2bd c9e5 debd
00000350: 104d 453e a4b5 493e e0ab 3e3e 22d7 413e
00000360: 4ed6 363e 8822 e43c 7046 49bc 7c11 123e
00000370: 3281 243e ed19 43be 605e 16be 5ed1 1b3e
00000380: 14ef c0bd 207e fe3b ea14 433e 486d b03d
00000390: 90f7 9bbd 08d4 eabd 9053 f03d 9c84 463e
000003a0: 2007 4f3c ac8c 6cbd 2436 53bd 98ac e2bd
000003b0: bcee 033e a21d 33be 0035 debd 206b ab3c
000003c0: f0bd e23d 105c 423e 4073 503e e4cc 9f3d
000003d0: b0c7 3b3e dc8e 15be 7644 003e 8f6e 36be
000003e0: a112 cdbd c4be 003e 50a2 833d 0ada 8fbd
000003f0: e0f1 b2bd 764b a5bd c4b7 06be fa5d 0c3e

encode_conv5.bias f4 [16]
0.1232796 0.030948803 -0.07897821 0.094001025 -0.13389596 0.16096455 -0.038649723 0.14606676
-0.08533302 -0.14179337 -0.17810763 -0.13101092 -0.074280724 -0.13638493 0.14432484 -0.20241982
00000000: 047a fc3d 5888 fd3c 54bf a1bd 9c83 c03d
00000010: 061c 09be e4d3 243e 2c4f 1ebd 8692 153e
00000020: 14c3 aebd 4832 11be d961 36be ba27 06be
00000030: 7e20 98bd 7ea8 0bbe e4c9 133e 2447 4fbe

encode_conv6.weight f4 [16, 16, 3]
0.057825357 -0.13035765 -0.0018859506 -0.007324353 0.07121962 -0.14400296 -0.02879563 -0.057049744
-0.03217768 0.12268859 -0.020436443 0.1425812 -0.04438065 0.13729677 0.0462026 0.0041104704
-0.07309748 0.051660985 -0.013032645 -0.10489743 0.087155 0.118536115 0.048234463 -0.016537428
0.1339764 -0.11945585 -0.0035167634 0.12866193 0.015208229 -0.119847775 -0.08206708 -0.067671604
-0.10353045 -0.08116897 -0.048326455 -0.036707208 0.014266238 0.03466603 0.054709643 0.07137589
-0.12713352 0.07266976 -0.14020064 -5.1394105e-05 0.02022785 -0.03668441 0.078923866 -0.090751916
0.08325969 -0.14021593 -0.1312895 -0.07512945 -0.07777235 -0.08125328 -0.031225875 0.042934075
-0.014749914 -0.052640297 0.029463112 -0.14047454 0.08991861 -0.056642868 0.06345855 0.046115294
0.06404245 -0.03039027 0.0215732 -0.10526028 0.07707843 -0.10095345 -0.118553035 -0.11604737
-0.05360566 -0.13821188 0.038483053 0.07494125 0.035519615 -0.09003611 -0.0903233 -0.04383593
0.12608168 -0.028179348 -0.015984938 0.04590887 0.11886239 0.13374078 -0.07906895 0.10230538
0.009740666 -0.09594232 -0.055329762 -0.13750683 0.0046150535 0.053633496 -0.11220634 -0.03558188
-0.107708916 0.01607427 -0.1354368 0.007947758 0.025174841 0.055995554 0.072512984 0.07087101
-0.10543838 -0.033136576 -0.09656027 0.106818676 -0.0421111 -0.057002634 0.019424424 0.026704311
-0.06615508 0.035481974 -0.023251824 0.115829736 -0.027653337 0.08297087 0.13078982 0.08696376
0.048210382 -0.11642524 -0.04260189 0.051522166 0.13338149 -0.08142232 0.100270554 -0.08817002
0.12484479 0.10722387 0.12203875 -0.1302412 0.13429293 0.0627556 0.101643994 0.090296015
0.09191188 -0.059935853 -0.06784697 -0.027598292 0.037911206 -0.0096413195 -0.03572225 -0.012635261
0.12541926 0.113913864 0.08329582 -0.13709842 -0.1153817 -0.02684699 0.03443837 0.06317127
0.1120975 -0.07607342 0.11422616 -0.13941476 -0.030000545 0.075488836 0.090406746 -0.00250265
0.054033697 -0.07543641 -0.07014185 0.0045121163 -0.13709708 -0.046489723 0.13399968 -0.009412214
-0.06890449 -0.083423376 -0.069359586 -0.031571604 -0.022027053 0.032307282 0.10043071 -0.03985723
0.1321759 -0.07388022 0.034330934 -0.12420788 -0.0947431 -0.0533289 -0.037298717 -0.12969838
0.07517609 0.08078243 0.10109714 0.084803596 -0.061012164 -0.14339624 -0.034761585 0.009245679
-0.124156 0.07138114 0.059868813 0.13740334 -0.04393071 -0.01233694 0.13753116 -0.13832094
-0.015151694 0.03145796 0.02917315 -0.016828075 -0.08470045 -0.09087874 0.011821121 -0.07705742
0.07553582 -0.024283513 -0.13870525 0.0042125285 -0.008585781 0.061579064 -0.13487518 -0.0059027225
0.06368467 0.023573041 0.10208653 -0.037809327 -0.0884679 -0.07885502 0.050394863 -0.116545476
-0.109274425 0.10831675 -0.08155791 0.1170921 -0.04711636 -0.024837561 -0.043260604 0.024627611
-0.06425789 -0.10011815 -0.076963186 -0.093779474 0.022585839 0.11560762 0.12223762 -0.07675048
-0.13188483 0.07112047 0.11637664 -0.035285622 -0.11392966 -0.11030255 0.012493566 0.06217268
-0.009276941 0.104264945 0.008866087 0.00069077313 0.049970105 0.03194076 0.057562515 0.007228613
00000000: 48da 6c3d 7a7c 05be 0032 f7ba 2001 f0bb
00000010: 98db 913d 8375 13be d0e4 ebbc feac 69bd
00000020: becc 03bd 2844 fb3d 546a a7bc ce00 123e
00000030: 7cc8 35bd 8697 0c3e f03e 3d3d 20b1 863b
00000040: 22b4 95bd 789a 533d e086 55bc 77d4 d6bd
00000050: 527e b23d 10c3 f23d 8091 453d 8079 87bc
00000060: 1c31 093e 45a5 f4bd 8079 66bb f4bf 033e
00000070: f02b 793c c072 f5bd c912 a8bd 6997 8abd
00000080: c607 d4bd eb3b a6bd f6f1 45bd 4c5a 16bd
00000090: f0bc 693c f8fd 0d3d 3817 603d 862d 923d
000000a0: 4a2f 02be e2d3 943d c290 0fbe 0090 57b8
000000b0: e0b4 a53c 6442 16bd d6a2 a13d 24dc b9bd
000000c0: 0e84 aa3d c494 0fbe c170 06be 78dd 99bd
000000d0: 1c47 9fbd 1f68 a6bd 68cd ffbc a4db 2f3d
000000e0: a0a9 71bc 5a9d 57bd a05c f13c 8fd8 0fbe
000000f0: 4027 b83d 5a02 68bd 8ef6 813d 64e3 3c3d
00000100: b028 833d 04f5 f8bc 48ba b03c b492 d7bd
00000110: 4cdb 9d3d afc0 cebd efcb f2bd 3eaa edbd
00000120: 9c91 5bbd 6a87 0dbe 68a0 1d3d cc7a 993d
00000130: 047d 113d da64 b8bd 6cfb b8bd 4e8d 33bd
00000140: 8e1b 013e 60d8 e6bc d8f2 82bc f00a 3c3d
00000150: 206e f33d 58f3 083e e7ee a1bd 7c85 d13d
00000160: 5097 1f3c 687d c4bd 76a1 62bd 97ce 0cbe
00000170: e039 973b ccae 5b3d 70cc e5bd 4ebe 11bd
00000180: 7e96 dcbd 30ae 833c f2af 0abe 5037 023c
00000190: 783b ce3c 985b 653d b081 943d d224 913d
000001a0: 14f0 d7bd 38ba 07bd 64c1 c5bd c0c3 da3d
000001b0: b07c 2cbd 987b 69bd f81f 9f3c 00c3 da3c
000001c0: 517c 87bd 8c55 113d 9c7a bebc 2438 ed3d
000001d0: 4089 e2bc a2ec a93d c4ed 053e 0e1a b23d
000001e0: 4078 453d 5b70 eebd 527f 2ebd e808 533d
000001f0: 2895 083e bfc0 a6bd a65a cd3d 7c92 b4bd
00000200: a0ae ff3d 3098 db3d 74ef f93d f35d 05be
00000210: 1684 093e 0286 803d ba2a d03d 1eed b83d
00000220: 4c3c bc3d 4c7f 75bd 5af3 8abd d015 e2bc
00000230: c848 1b3d a0f6 1dbc 7e51 12bd 2004 4fbc
00000240: e86d 003e ac4b e93d 0097 aa3d 8763 0cbe
00000250: 3e4d ecbd 38ee dbbc 400f 0d3d f05f 813d
00000260: 6093 e53d 62cc 9bbd 68ef e93d bec2 0ebe
00000270: b4c3 f5bc e499 9a3d 2c27 b93d 8003 24bb
00000280: 7052 5d3d 687e 9abd 88a6 8fbd 60da 933b
00000290: 2d63 0cbe 026c 3ebd 3637 093e b035 1abc
000002a0: cc1d 8dbd e0d9 aabd 660c 8ebd 3a51 01bd
000002b0: 1472 b4bc a454 043d 9eae cd3d 5641 23bd
000002c0: 1e59 073e 834e 97bd 989e 0c3d b360 febd
000002d0: ac08 c2bd 686f 5abd 8ac6 18bd a7cf 04be
000002e0: ecf5 993d 4271 a53d 040c cf3d 82ad ad3d
000002f0: e4e7 79bd 77d6 12be 2a62 0ebd 307b 173c
00000300: 8045 febd 4630 923d 0039 753d 76b3 0c3e
00000310: b0f0 33bd e020 4abc f8d4 0c3e 01a4 0dbe
00000320: d03e 78bc 10da 003d 88fc ee3c 08db 89bc
00000330: 6e77 adbd a21e babd 60ad 413c 48d0 9dbd
00000340: 86b2 9a3d 38ee c6bc c008 0ebe 4009 8a3b
00000350: 60ab 0cbc 543a 7c3d b81c 0abe a06b c1bb
00000360: 1c6d 823d 401c c13c be12 d13d f4dd 1abd
00000370: a92e b5bd be7e a1bd d86a 4e3d 65af eebd
00000380: 45cb dfbd 2cd5 dd3d d507 a7bd fccd ef3d
00000390: 16fd 40bd 2478 cbbc 0832 31bd d8bf c93c
000003a0: a499 83bd bf0a cdbd e09e 9dbd 740f c0bd
000003b0: f005 b93c b0c3 ec3d b857 fa3d 5b2f 9dbd
000003c0: d10c 07be 9ca7 913d e056 ee3d a887 10bd
000003d0: f453 e9bd 4ee6 e1bd d0b1 4c3c c8a8 7e3d
000003e0: 50fe 17bc dc88 d53d 1043 113c 0015 353a
000003f0: 74ad 4c3d 50d4 023d acc6 6b3d 00de ec3b

encode_conv6.bias f4 [16]
0.13226268 -0.017991051 0.11514214 -0.020898968 0.112519026 0.13105935 0.055639833 0.13144362
0.023037449 0.109974444 0.01963222 0.11365506 0.019695655 0.09167524 -0.03668735 -0.11988224
00000000: de6f 073e f861 93bc a4cf eb3d 5034 abbc
00000010: 6070 e63d 6c34 063e 98e6 633d 2899 063e
00000020: 08b9 bc3c 483a e13d c0d3 a03c fcc3 e83d
00000030: c858 a13c 3ac0 bb3d 7a45 16bd d284 f5bd

fc1.weight f4 [200, 200]
-0.028177705 0.017838622 0.0279788 -0.086482294 -0.00015601286 -0.017381024 -0.01969734 -0.05820281
-0.104500495 0.015310042 -0.13479841 -0.09645874 0.06149339 -0.0008511086 0.040494733 0.10301015
-0.08443688 -0.030684413 -0.097478464 -0.098996185 -0.0737608 -0.0048690094 -0.051241834 -0.116521105
-0.10982657 -0.10152874 0.027224917 0.012302397 0.07096564 0.1638493 -0.089123406 -0.013286769
0.0021569796 -0.08127406 -0.080929875 -0.022852985 -0.12915717 0.004718624 -0.2674865 -0.03304485
-0.046543866 -0.16720895 -0.01473552 0.07648268 -0.002113358 0.08440527 0.03744981 0.04355006
0.052538756 -0.03310259 0.09092452 0.042123776 0.12563579 0.07996029 0.11148517 -0.012307462
0.10647904 0.09136173 0.045500875 0.058740642 -0.015075919 0.04985834 0.035802707 0.053185254
0.1041755 -0.025097264 0.051928278 0.07824509 0.044317745 -0.020495435 0.04129183 -0.0119013935
0.073098816 0.076120675 -0.025819238 -0.017151404 -0.1146285 -0.0306643 -0.087377235 -0.04283065
-0.09027535 -0.11298407 -0.38066253 0.16724487 0.080463246 -0.06975548 -0.10997287 0.05155283
-0.011337406 -0.07515666 -0.09819415 -0.00027077633 -0.053033702 -0.115512416 -0.05892837 0.0059940647
0.019162068 -0.04724169 -0.086719416 -0.08371035 0.08920843 0.010782353 0.1114846 -0.012787493
-0.011995617 -0.028270714 0.17355737 0.020302422 -0.01086474 0.032859277 0.08128303 -0.04149338
0.027204469 -0.027765265 0.030617163 -0.024676498 0.026665349 0.03467278 0.07084576 -0.02951271
0.1180887 0.056253497 -0.0069356533 0.0018593188 -0.012680571 0.06073206 0.009858036 0.044864573
0.08613973 -0.02376336 -0.037179902 0.04382674 -0.04961798 -0.05046664 0.019383287 -0.037302956
-0.014994574 -0.008698873 0.022078611 -0.008487078 -0.0070936275 0.00038433523 0.09244893 0.021717355
-0.041781303 -0.006131454 -0.018306958 0.07845037 -0.002417475 -0.00064689026 0.13968818 0.06769389
0.012980252 0.0483153 0.07889921 -0.09668248 -0.06762745 -0.0043673282 0.08558938 0.15381598
0.06721677 0.09997333 0.012379631 0.028855823 0.06023334 0.14041862 0.06814102 0.056133352
0.047941204 0.043330252 0.1579652 0.047239356 0.0097028 0.14136334 0.06641548 -0.13149723
-0.06972849 -0.05233069 -0.0038740325 0.011114429 0.032375373 -0.033848405 0.04294722 0.04241717
-0.16180916 -0.027886968 -0.21855713 -0.042506438 0.05848819 -0.099169776 -0.019630414 -0.09065933
-0.02065822 -0.07518771 -0.07927285 -0.049617093 -0.13588399 -0.08522242 0.030912908 0.013782538
0.07705455 -0.0660295 0.04967405 0.032075364 0.10825188 -0.17716496 0.057774734 -0.010729375
0.07662379 0.08012993 0.33509615 0.19876084 0.1832362 0.072952494 0.18277855 0.11956504
0.024726655 0.12573873 0.07727326 0.18460801 0.13074961 0.07358751 0.15080293 0.015484252
0.13254257 0.081337534 0.9663739 -0.1715265 -0.15521972 0.32803044 0.061852716 -0.24571116
0.13685843 -0.08031926 0.0025952423 -0.6438797 -0.06375936 0.046763 -0.19134629 -0.20668581
0.4491639 0.36535028 0.033186425 0.71651137 -0.076442644 -0.13930379 0.15564956 0.37594384
0.29271826 -0.39936987 -0.19032149 -0.40801322 -0.45592073 -0.04668805 0.002919759 0.035925623
00000000: eed4 e6bc 4d22 923c cc33 e53c a11d b1bd
00000010: 6297 23b9 a662 8ebc 515c a1bc 1266 6ebd
00000020: 5b04 d6bd f8d6 7a3c 9808 0abe 298c c5bd
00000030: 7ee0 7b3d ee1c 5fba cedd 253d fcf6 d23d
00000040: 3eed acbd e15d fbbc caa2 c7bd 83be cabd
00000050: e70f 97bd 368c 9fbb f5e2 51bd 9ea2 eebd
00000060: c1ec e0bd 4dee cfbd ca06 df3c fe8f 493c
00000070: 6f56 913d 1cc8 273e 5586 b6bd c0b0 59bc
00000080: 1d5c 0d3b 0473 a6bd 90be a5bd 2f36 bbbc
00000090: c741 04be b09e 9a3b fef3 88be 095a 07bd
000000a0: c8a4 3ebd d338 2bbe 406d 71bc f4a2 9c3d
000000b0: 4380 0abb acdc ac3d f964 193d 8c61 323d
000000c0: e132 573d 9596 07bd a236 ba3d fb89 2c3d
000000d0: aba6 003e 38c2 a33d 5652 e43d 3da5 49bc
000000e0: af11 da3d dc1b bb3d 205f 3a3d 079a 703d
000000f0: fd00 77bc 4238 4c3d dca5 123d c8d8 593d
00000100: f759 d53d c798 cdbc bfb2 543d f63e a03d
00000110: 8686 353d 0be6 a7bc 9f21 293d 10fe 42bc
00000120: d5b4 953d 28e5 9b3d de82 d3bc 1a81 8cbc
00000130: 59c2 eabd b333 fbbc d6f2 b2bd 316f 2fbd
00000140: 48e2 b8bd 3164 e7bd 33e6 c2be 3d42 2b3e
00000150: eac9 a43d f6db 8ebd 7539 e1bd 0f29 533d
00000160: 87c0 39bc bceb 99bd 041a c9bd fcf6 8db9
00000170: de39 59bd c691 ecbd e05e 71bd dc69 c43b
00000180: c5f9 9c3c 8180 41bd f399 b1bd 5570 abbd
00000190: e9b2 b63d 77a8 303c 0a52 e43d a282 51bc
000001a0: 4489 44bc fc97 e7bc 06b9 313e 4451 a63c
000001b0: 0602 32bc 7397 063d b877 a63d f6f4 29bd
000001c0: e8db de3c fb73 e3bc d8d0 fa3c 5e26 cabc
000001d0: 4a71 da3c 0c05 0e3d 9517 913d a4c4 f1bc
000001e0: 7dd8 f13d 116a 663d 7a44 e3bb 63b4 f33a
000001f0: 2bc2 4fbc 2ec2 783d 9a83 213c eac3 373d
00000200: 076a b03d 61ab c2bc f449 18bd ab83 333d
00000210: 393c 4bbd 1cb6 4ebd b3c9 9e3c fcca 18bd
00000220: cdab 75bc b885 0ebc 34de b43c 630d 0bbc
00000230: a971 e8bb 9a80 c939 dd55 bd3d 98e8 b13c
00000240: df22 2bbd 5dea c8bb 79f8 95bc 96aa a03d
00000250: 806e 1ebb 1294 29ba 6b0a 0f3e 18a3 8a3d
00000260: 1fab 543c 44e6 453d e995 a13d 7701 c6bd
00000270: 4380 8abd ce1b 8fbb 7c49 af3d f081 1d3e
00000280: f2a8 893d d1be cc3d f0d3 4a3c 0c63 ec3c
00000290: 3cb7 763d e6c9 0f3e 858d 8b3d 16ec 653d
000002a0: ff5d 443d 107b 313d a1c1 213e 0e7e 413d
000002b0: 7ef8 1e3c 8dc1 103e d704 883d 36a7 06be
000002c0: d0cd 8ebd b558 56bd 7be3 7dbb 4b19 363c
000002d0: 0a9c 043d a0a4 0abd 6de9 2f3d a0bd 2d3d
000002e0: 4db1 25be 3673 e4bc 71cd 5fbe 3b1b 2ebd
000002f0: 5091 6f3d 8619 cbbd f6cf a0bc 99ab b9bd
00000300: 6d3b a9bc 04fc 99bd ce59 a2bd 4b3b 4bbd
00000310: 2c25 0bbe 1889 aebd 113d fd3c 27d0 613c
00000320: c7ce 9d3d 793a 87bd 0477 4b3d 7561 033d
00000330: 29b3 dd3d bb6a 35be 33a5 6c3d 43ca 2fbc
00000340: efec 9c3d 291b a43d b991 ab3e f687 4b3e
00000350: 45a2 3b3e 1e68 953d 4d2a 3b3e 84de f43d
00000360: 8e8f ca3c a7c1 003e 7141 9e3d e209 3d3e
00000370: 3ae3 053e 0cb5 963d 156c 1a3e a9b1 7d3c
00000380: 3db9 073e 4b94 a63d 4864 773f a5a4 2fbe
00000390: ebf1 1ebe 9bf3 a73e 4659 7d3d b59b 7bbe
000003a0: 9e24 0c3e 6d7e a4bd f114 2a3b 4dd5 24bf
000003b0: 4494 82bd 8f8a 3f3d 48f0 43be 72a5 53be
000003c0: d0f8 e53e 310f bb3e 7dee 073d 4a6d 373f
000003d0: f68d 9cbd a7a5 0ebe 9962 1f3e b67b c03e
000003e0: 2bdf 953e 357a ccbe a3e3 42be 1ce7 d0be
000003f0: 716e e9be f83b 3fbd 6d59 3f3b bf26 133d

fc1.bias f4 [200]
0.006167303 -0.1317592 0.117690586 -0.034421213 -0.07471776 0.08776862 -0.09078944 -0.0004998767
-0.012258243 -0.079596795 -0.09468646 0.046951685 0.038703263 0.07196536 0.07646334 -0.020603724
0.09934402 -0.04743711 0.0092658 0.004517357 -0.05335939 0.0735497 -0.017950816 -0.065523826
0.082852714 -0.10967964 0.013299168 0.05547171 -0.09437632 0.07293724 -0.038461052 0.04963261
-0.048575904 0.10813254 0.06457107 -0.017889699 -0.010317892 -0.060226154 -0.00360905 0.07649644
-0.0307806 -0.0109352805 -0.047619823 -0.020605799 0.09762649 -0.06333327 -0.045618046 0.023851667
0.068936266 0.04111381 -0.026704047 -0.007489186 -0.109927505 0.080132715 -0.15892845 0.06407793
0.060302638 0.079168715 0.07520391 -0.07550382 0.020998206 -0.030743191 -0.03938533 -0.099617206
-0.0036117912 -0.05304016 -0.03708934 0.020464538 0.08109036 0.04533545 0.050837826 0.086059056
-0.080973536 0.010575779 0.00016306578 0.040780615 0.0074193734 -0.009707924 -0.0076768957 0.026120443
0.0073461826 0.05759533 0.048056137 -0.05179778 0.102887586 0.07843004 -0.030885343 0.014304102
-0.08652048 -0.058224626 0.0040989136 0.015939478 -0.08886356 0.057528503 0.10035481 -0.013499807
0.09391005 0.02837454 0.018150393 -0.08739517 -0.0020126936 0.04871827 -0.036129028 -0.048141994
-0.053891554 -0.0902719 -0.022918299 -0.005146337 0.0029543927 0.04334325 0.04580234 -0.023597643
-0.09186813 -0.032873675 0.055646613 0.054273855 -0.018228661 -0.08629529 0.042808235 -0.085033074
0.017655972 0.060908556 0.04427095 -0.014092051 0.055354834 0.005402947 -0.016194485 0.033916406
0.09881691 0.10000284 0.016621685 0.06360194 0.037152875 -0.1128459 0.07696487 -0.016811587
-0.031738363 -0.043254636 0.060780402 -0.023674767 -0.10183231 -0.0012018912 0.01888974 -0.0063524763
-0.014170665 0.054344505 0.016159013 0.09355376 0.10564762 0.0028596178 -0.029286955 0.02920938
0.06086093 0.07713654 -0.02093889 0.10047009 -0.014884842 0.055517245 -0.097028166 0.09545835
-0.07043911 0.047010086 0.0059603457 -0.023864115 -0.04809161 0.018009396 0.06232181 -0.016147794
0.05720993 0.059755314 0.04626437 -0.07449474 0.06056535 0.025855994 0.096751414 0.028239494
-0.15582718 -0.059745993 0.103996456 -0.014704392 0.08475566 0.081653334 0.07404748 -0.06785594
-0.1160631 -0.08129378 0.04833983 0.029443806 0.041631542 0.07217103 -0.082004316 -0.08318788
0.023365024 0.08493615 0.054260407 -0.09845229 0.052525822 0.07620774 0.00038359445 0.040294062
00000000: 1617 ca3b e2eb 06be c307 f13d 42fd 0cbd
00000010: a005 99bd 09c0 b33d d0ef b9bd 280a 03ba
00000020: ccd6 48bc a503 a3bd faea c1bd 6950 403d
00000030: 5087 1e3d 9362 933d d098 9c3d 24c9 a8bc
00000040: e174 cb3d 6a4d 42bd 95cf 173c 5606 943b
00000050: 608f 5abd 3aa1 963d 970d 93bc 5b31 86bd
00000060: afae a93d b89f e0bd c1e4 593c 4e36 633d
00000070: 5f48 c1bd 1f60 953d 5689 1dbd 904b 4b3d
00000080: 87f7 46bd 9874 dd3d d63d 843d 6b8d 92bc
00000090: 600c 29bc b3af 76bd d085 6cbb 2aaa 9c3d
000000a0: 9927 fcbc e429 33bc 010d 43bd 7ecd a8bc
000000b0: 66f0 c73d e0b4 81bd fdd9 3abd 9264 c33c
000000c0: 752e 8d3d f466 283d 72c2 dabc d867 f5bb
000000d0: ac21 e1bd 9f1c a43d 24be 22be 4a3b 833d
000000e0: e6ff 763d 3523 a23d 8204 9a3d bfa1 9abd
000000f0: 6e04 ac3c 25d9 fbbc 8352 21bd 1b04 ccbd
00000100: cdb3 6cbb a440 59bd feea 17bd 3fa5 a73c
00000110: b412 a63d aab1 393d 533b 503d bb3f b03d
00000120: 74d5 a5bd 0846 2d3c a3fc 2a39 9309 273d
00000130: 371e f33b fc0d 1fbc 788e fbbb 8afa d53c
00000140: 3fb8 f03b 15e9 6b3d 83d6 443d e929 54bd
00000150: bab6 d23d ee9f a03d 4203 fdbc c15b 6a3c
00000160: a631 b1bd f27c 6ebd 2e50 863b 8293 823c
00000170: 19fe b5bd 02a3 6b3d d386 cd3d 4b2e 5dbc
00000180: ea53 c03d b971 e83c 22b0 943c 3dfc b2bd
00000190: 65e7 03bb cf8c 473d 08fc 13bd 8a30 45bd
000001a0: 64bd 5cbd 79e0 b8bd 28bf bbbc 9ba2 a8bb
000001b0: 7c9e 413b b188 313d 3c9b 3b3d d84f c1bc
000001c0: 5c25 bcbd 8ca6 06bd b4ed 633d 434e 5e3d
000001d0: 4654 95bc 96bb b0bd b057 2f3d d225 aebd
000001e0: 42a3 903c 407b 793d 7555 353d 59e2 66bc
000001f0: c0bb 623d 340b b13b 4caa 84bc eeeb 0a3d
00000200: 8560 ca3d 4ace cc3d 332a 883c bc41 823d
00000210: 9d2d 183d c01b e7bd c29f 9d3d 74b8 89bc
00000220: 1600 02bd c62b 31bd dff4 783d 96f1 c1bc
00000230: 758d d0bd c788 9dba a8be 9a3c 6f28 d0bb
00000240: 142c 68bc 5898 5e3d e85f 843c 1d99 bf3d
00000250: c85d d83d 6d68 3b3b 32eb efbc 8248 ef3c
00000260: 4f49 793d c3f9 9d3d 0988 abbc 43c3 cd3d
00000270: 8ddf 73bc 0d66 633d b4b6 c6bd ab7f c33d
00000280: 6142 90bd a68d 403d 014f c33b ad7e c3bc
00000290: b5fb 44bd 7188 933c 2745 7f3d 6148 84bc
000002a0: f654 6a3d fdc1 743d b57f 3d3d b390 98bd
000002b0: 5f13 783d f3cf d33c 9b25 c63d 8356 e73c
000002c0: 2991 1fbe 37b8 74bd 18fc d43d b1ea 70bc
000002d0: 6094 ad3d dd39 a73d 35a6 973d 0ef8 8abd
000002e0: 7eb2 edbd 5a7d a6bd fcff 453d 2334 f13c
000002f0: d685 2a3d 68ce 933d e1f1 a7bd 685e aabd
00000300: 0268 bf3c 01f3 ad3d 2940 5e3d 5ba1 c9bd
00000310: 5125 573d ce12 9c3d 2d1d c939 630b 253d

fc3.weight f4 [100, 200]
0.039160542 -0.050873864 0.009785438 -0.027457295 0.03253148 -0.004494989 -0.006580248 0.08462774
-0.05538068 -0.4614886 -0.25574437 -0.02239433 0.012581342 0.090647385 0.07314696 0.16444112
0.00831958 -0.46726784 -0.3733488 0.17813861 -0.078030676 -0.01252835 0.07281322 -0.099255964
0.0287848 -0.04163041 0.035420302 -0.034354553 0.27938324 0.08914319 0.027722342 -0.029569348
-0.072905384 0.022486003 0.0048133833 -0.06130876 0.012802873 0.43624866 0.31076732 0.0006501096
-0.034854725 0.1207813 0.015981155 -0.00930088 -0.013318719 0.00430343 -0.06370913 0.23578477
-0.030377878 0.44573915 -0.12814699 0.07360106 0.090192586 0.009692158 -0.07782596 -0.008470379
-0.034688182 -0.044474598 0.006920496 0.19836213 0.45684037 0.07200279 -1.0957348 0.3945658
0.08244859 0.21476437 -0.19949473 -0.31388587 -0.024025878 0.014838299 -0.0411254 0.06168438
-0.098841354 -0.22350717 0.08992101 -0.043136507 -0.35263246 0.07894129 -0.03443235 0.034528855
-0.16307694 0.012102532 -0.06580331 0.29610637 0.0024933896 0.017857986 -0.24124616 0.08586052
-0.12192668 0.113257855 0.06777685 0.05189447 -0.0778851 0.31640714 -0.00050959946 -0.022016566
0.09120293 -0.014093781 0.054600157 -0.12943381 0.0015005578 0.043414 0.12599526 -0.20712972
-0.08644183 0.0040307026 0.063215725 0.0002036692 -0.053346038 -0.03823777 -0.09161514 0.099193454
-0.09110205 0.033277452 -0.030491741 -0.012963294 0.026415344 -0.058922626 0.074395016 -0.03450177
0.020650072 0.026146429 -0.033419434 0.052902687 0.07916622 0.07668099 -0.06967181 0.04395724
0.08975166 0.046316512 -0.012993928 0.08514397 0.029188508 0.03942449 0.03491737 -0.15183868
0.30961514 -0.46640527 -0.021921404 0.040156253 -0.07013234 0.3825662 -0.008033579 -0.08247291
-0.043279447 0.105331816 -0.025584279 0.031884093 0.09051372 0.04035032 0.004737399 0.082992114
-0.08673599 0.027222836 -0.0010641178 0.036656722 0.032450832 -0.02497687 0.009804072 -0.19770876
-0.061883684 0.1598154 0.066599764 0.044693407 -0.060468826 0.022347916 0.015543095 0.046660766
-0.028208744 0.016730646 -0.07833959 -0.007019582 -0.023365261 0.046650365 0.04455208 -0.04666838
-0.020920668 -0.26339862 0.011456678 0.03479093 -0.03410101 0.032159887 -0.038955297 0.025858013
-0.03582886 -0.036534265 0.044311754 0.086535275 0.06418374 0.05274018 0.024505507 0.0150584495
0.032556612 0.046511687 0.020679936 -0.093379326 -0.032944728 -0.014606536 -0.019534357 0.07015763
0.03975327 -0.09440147 -0.054711364 0.017464785 -0.06923085 0.03977972 -0.1171471 0.029240945
-0.009444414 -0.41498318 -0.26364785 -0.03987672 0.021053815 0.02409837 0.043789737 0.2216058
0.07248561 -0.6787526 -0.40324068 0.18175139 0.028036665 0.07903492 0.07613843 -0.08478585
-0.03488065 -0.005637762 -0.06854092 -0.021369869 0.42120498 0.073697135 -0.03783954 0.00897992
0.0025108794 0.018787473 -0.000748935 -0.029142182 0.036494285 0.3640199 0.33143723 0.0021504904
-0.041890837 0.19395235 0.0328907 0.010629622 0.061875604 -0.058122996 0.04459508 0.40657395
-0.026757592 0.5394752 -0.057662632 0.08572119 0.2066519 0.0819271 0.051162627 0.047689978
00000000: ce66 203d 1d61 50bd 1a53 203c 1fee e0bc
00000010: bb3f 053d b34a 93bb 1f9f d7bb 4f51 ad3d
00000020: dad6 62bd 3c48 ecbe edf0 82be 5074 b7bc
00000030: f921 4e3c 56a5 b93d 13ce 953d 4163 283e
00000040: d94e 083c bb3d efbe 9327 bfbe f869 363e
00000050: 8cce 9fbd b543 4dbc 191f 953d b646 cbbd
00000060: 1ace eb3c a684 2abd e114 113d 5cb7 0cbd
00000070: 520b 8f3e b490 b63d f719 e33c 6b3b f2bc
00000080: 6b4f 95bd 9134 b83c 96b9 9d3b e51e 7bbd
00000090: 24c3 513c fc5b df3e e51c 9f3e 1e6c 2a3a
000000a0: d4c3 0ebd 305c f73d e9ea 823c b862 18bc
000000b0: c236 5abc ca03 8d3b ef79 82bd 9071 713e
000000c0: 07db f8bc ec37 e43e f738 03be 27bc 963d
000000d0: e4b6 b83d dbcb 1e3c 3863 9fbd 58c7 0abc
000000e0: 3215 0ebd ff2a 36bd 54c5 e23b 711f 4b3e
000000f0: fbe6 e93e 3376 933d 0a41 8cbf 8704 ca3e
00000100: ceda a83d 31eb 5b3e 5948 4cbe a6b5 a0be
00000110: ebd1 c4bc 561c 733c 1c73 28bd c3a8 7c3d
00000120: 566d cabd 10df 64be 8228 b83d e8af 30bd
00000130: 3e8c b4be f9ab a13d f008 0dbd 216e 0d3d
00000140: a4fd 26be b349 463c e3c3 86bd 419b 973e
00000150: 2368 233b e94a 923c 3c09 77be a4d7 af3d
00000160: b2b4 f9bd bcf3 e73d 97ce 8a3d 4c8f 543d
00000170: 3982 9fbd 1e00 a23e a496 05ba 165c b4bc
00000180: 9ac8 ba3d 9ae9 66bc 6aa4 5f3d 4c8a 04be
00000190: 5dae c43a e1d2 313d e704 013e d019 54be
000001a0: 6a08 b1bd fc13 843b 3f77 813d 0990 5539
000001b0: 6081 5abd 359f 1cbd b8a0 bbbd f025 cb3d
000001c0: b693 babd f04d 083d d1c9 f9bc ff63 54bc
000001d0: fe64 d83c da58 71bd 6a5c 983d ba51 0dbd
000001e0: 572a a93c 0931 d63c d1e2 08bd 7db0 583d
000001f0: e621 a23d ec0a 9d3d 18b0 8ebd 820c 343d
00000200: b8cf b73d 62b6 3d3d 7ce4 54bc f65f ae3d
00000210: bd1c ef3c 937b 213d 8405 0f3d 997b 1bbe
00000220: e085 9e3e accc eebe 8494 b3bc e27a 243d
00000230: 8ba1 8fbd b8df c33e 469f 03bc 8fe7 a8bd
00000240: ca45 31bd 35b8 d73d 1f96 d1bc e598 023d
00000250: 425f b93d 6146 253d 2f3c 9b3b c5f7 a93d
00000260: a4a2 b1bd 6d02 df3c de79 8bba 5c25 163d
00000270: 2aeb 043d 4b9c ccbc 42a1 203c 2a74 4abe
00000280: bf79 7dbd a6a6 233e 7565 883d 6f10 373d
00000290: 29ae 77bd fa12 b73c 77a8 7e3c 5c1f 3f3d
000002a0: 0616 e7bc b50e 893c 8270 a0bd 8604 e6bb
000002b0: 8168 bfbc 7414 3f3d 3e7c 363d 5827 3fbd
000002c0: d261 abbc 2fdc 86be cab4 3b3c ef80 0e3d
000002d0: 80ad 0bbd 16ba 033d 978f 1fbd 2fd4 d33c
000002e0: 48c1 12bd f4a4 15bd 3e80 353d 6839 b13d
000002f0: c472 833d 1606 583d c6bf c83c b7b7 763c
00000300: 155a 053d 0a83 3e3d f868 a93c a93d bfbd
00000310: 0df1 06bd 4150 6fbc 8406 a0bc ceae 8f3d
00000320: 53d4 223d 8f55 c1bd 0619 60bd 4f12 8f3c
00000330: e7c8 8dbd 0ff0 223d d2ea efbd b58a ef3c
00000340: bebc 1abc ad78 d4be dafc 86be c655 23bd
00000350: 0d79 ac3c f269 c53c de5c 333d a1ec 623e
00000360: 5673 943d bbc2 2dbf 9075 cebe 091d 3a3e
00000370: 26ad e53c 0fdd a13d 77ee 9b3d 34a4 adbd
00000380: 03df 0ebd fabc b8bb 2f5f 8cbd dd0f afbc
00000390: 2ea8 d73e 86ee 963d a2fd 1abd 8420 133c
000003a0: 918d 243b 30e8 993c 2d54 44ba 96bb eebc
000003b0: 087b 153d d160 ba3e 24b2 a93e 3eef 0c3b
000003c0: ba95 2bbd 729b 463e 66b8 063d de27 2e3c
000003d0: 4671 7d3d 6112 6ebd 55a9 363d 762a d03e
000003e0: bd32 dbbc 0c1b 0a3f a72f 6cbd 978e af3d
000003f0: 8e9c 533e 65c9 a73d e78f 513d 9156 433d

fc3.bias f4 [100]
0.03526801 -0.013188458 0.04104321 -0.03191713 0.0035307994 -0.022563186 -0.010183038 -0.033619802
-0.041262526 0.07456639 0.008471021 -0.04014594 0.07806865 0.0019358301 0.029761909 -0.026614211
-0.025005294 0.033532277 0.013624183 0.10216814 0.09612987 0.04546546 0.054343443 0.003929616
-0.030813003 0.040243264 0.033565845 0.035879 0.01774499 0.03172143 -0.013871752 -0.0111570945
0.025702585 0.01427699 -0.038743157 -0.03916893 -0.021321306 0.02929923 0.07786868 0.048903808
0.030950459 -0.012762588 -0.04325183 -0.060413737 -0.043650206 -0.082035884 0.05034627 -0.07679577
-0.025488468 -0.06949875 -1.9143847e-05 -0.013302655 -0.03645061 -0.02383042 -0.09971679 -0.013111085
-0.09721359 -0.031600576 -0.024561195 0.01894288 -0.09189976 -0.051273663 -0.046959054 -0.09805578
-0.10015151 0.019916216 -0.029328171 0.0016001686 -0.020429257 -0.06953687 0.024928305 -0.019413609
-0.04245124 -0.036059596 -0.08519549 -0.09764438 -0.033654533 -0.020563822 -0.073829696 -0.026981486
-0.082675956 -0.036068197 -0.052001644 -0.06931301 -0.018968245 -0.021265203 -0.038965125 -0.08676199
-0.010518358 -0.07783065 -0.08898767 -0.005090161 -0.008949268 -0.0015979718 -0.038463682 -0.02450944
-0.052382767 -0.022299906 0.028688228 0.026184266
00000000: 3075 103d 6714 58bc ed1c 283d 89bb 02bd
00000010: fc64 673b 6ed6 b8bc c2d6 26bc ebb4 09bd
00000020: e502 29bd 43b6 983d 0aca 0a3c 1270 24bd
00000030: 75e2 9f3d aebb fd3a 3fcf f33c 0c06 dabc
00000040: e7d7 ccbc 2459 093d f737 5f3c 883d d13d
00000050: bddf c43d fd39 3a3d 3b97 5e3d 02c4 803b
00000060: 8d6b fcbc 1fd6 243d 577c 093d dcf5 123d
00000070: f15d 913c 55ee 013d 5846 63bc 3fcc 36bc
00000080: 3a8e d23c 09ea 693c 25b1 1ebd 9a6f 20bd
00000090: 05aa aebc f004 f03c 9d79 9f3d 5c4f 483d
000000a0: d18b fd3c 2d1a 51bc d528 31bd 6574 77bd
000000b0: 8fca 32bd 6e02 a8bd e437 4e3d 1a47 9dbd
000000c0: 31cd d0bc 5c55 8ebd 1997 a0b7 61f3 59bc
000000d0: 3c4d 15bd 0338 c3bc 5138 ccbd e0cf 56bc
000000e0: eb17 c7bd 9b6f 01bd 8f34 c9bc 192e 9b3c
000000f0: f135 bcbd 5504 52bd 2358 40bd 78d1 c8bd
00000100: 3c1c cdbd 5527 a33c a241 f0bc c0bc d13a
00000110: 425b a7bc 5969 8ebd 7236 cc3c 4a09 9fbc
00000120: 5ae1 2dbd 3ab3 13bd f97a aebd c7f9 c7bd
00000130: 56d9 09bd 7675 a8bc 0634 97bd 4708 ddbc
00000140: 0352 a9bd 3fbc 13bd adff 54bd fbf3 8dbd
00000150: 4b63 9bbc 5d34 aebc e599 1fbd 45b0 b1bd
00000160: 3155 2cbc ad65 9fbd 2b3f b6bd 5ecb a6bb
00000170: f39f 12bc 0973 d1ba 188c 1dbd 05c8 c8bc
00000180: 508f 56bd 4bae b6bc 9303 eb3c 6380 d63c
