training_model/wandb/run-20200708_223928-3flulily/fir_6cov_1.pt (torch_old, 36880 bytes, 12 tensors)

encode_conv1.weight f4 [4, 12, 3]
-0.09676947 0.028286004 0.06689784 0.07364054 0.17047626 -0.23614754 0.12325798 0.032302722
-0.19229496 -0.32182738 -0.062108267 -0.21751069 -0.3732244 0.16359892 0.00668813 -0.22142422
0.0071493946 0.04803198 -0.23006983 -0.10568247 0.042085662 0.048468854 0.07481332 0.1365891
0.0325307 -0.056779392 0.06490921 -0.020187855 0.08307912 -0.1476935 0.100950226 -0.23848587
0.047472544 -0.18989332 -0.011722739 -0.11725753 0.19967836 0.13106245 0.2722705 0.011276108
0.24606854 0.035802603 0.17363437 0.19467695 0.0040600584 0.05656881 0.19501156 0.12750953
-0.03909109 0.0647366 0.2594799 -0.027747838 0.23179618 0.06883526 -0.11388345 0.2073196
0.16069362 0.009461559 0.3805443 0.12484034 0.21558915 0.14667416 0.100121826 -0.07815253
0.2507153 0.01752034 0.32546228 0.28928396 0.10112336 -0.08843068 0.19155158 0.18996555
-0.123413585 0.16603087 0.15555298 0.16434234 0.09315683 0.08447564 -0.16142662 -0.057951514
0.17776681 -0.15096813 0.08261831 0.008566046 -0.050224744 0.11851756 0.32681155 0.0861526
-0.06851664 0.18295722 0.00082868873 0.003545179 0.14610171 -0.00950754 0.10892521 0.20623672
-0.03514463 0.028674753 0.25853297 0.05650502 0.1698245 0.0410042 -0.13997877 -0.06954963
0.18203476 0.04659576 0.04636032 0.23848316 -0.43924573 0.122259736 0.12005043 0.5221683
0.20408207 0.01301644 0.008549298 0.12816863 0.02438692 0.07076048 0.048361477 -0.07204683
-0.21053697 -0.15593453 -0.12745856 0.026066817 0.19790025 0.07812729 0.096157 0.025503742
-0.080767155 0.03608225 -0.08049865 -0.2336118 -0.25630933 -0.13547897 0.1466968 0.18739851
0.37826043 0.1493279 -0.075419135 -0.006484347 0.06691476 -0.010151856 0.04336664 -0.065066114
00000000: 122f c6bd 0db8 e73c bc01 893d dad0 963d
00000010: 5491 2e3e a9d0 71be ae6e fc3d dc4f 043d
00000020: f8e8 44be 8fc6 a4be 3d65 7ebd 1fbb 5ebe
00000030: 4517 bfbe 7a86 273e 1a28 db3b 08bd 62be
00000040: 7845 ea3b 2ebd 443d 6d97 6bbe 0d70 d8bd
00000050: 0462 2c3d 4787 463d ba37 993d 03de 0b3e
00000060: e93e 053d 8291 68bd 1fef 843d 0061 a5bc
00000070: 6325 aa3d f73c 17be febe ce3d a435 74be
00000080: 9272 423d 6573 42be bb10 40bc b724 f0bd
00000090: 7c78 4c3e 3c35 063e 0a67 8b3e 6dbf 383c
000000a0: 64f9 7b3e c0a5 123d 35cd 313e 6559 473e
000000b0: 3d0a 853b b2b4 673d 1cb1 473e dc91 023e
000000c0: fb1d 20bd 9f94 843d 8dda 843e 6f4f e3bc
000000d0: fa5b 6d3e 80f9 8c3d ba3b e9bd 974b 543e
000000e0: de8c 243e a804 1b3c b4d6 c23e 4bac ff3d
000000f0: 67c3 5c3e c031 163e ac0c cd3d 6f0e a0bd
00000100: c15d 803e d186 8f3c fea2 a63e 071d 943e
00000110: c419 cf3d 251b b5bd 1926 443e 5486 423e
00000120: 43c0 fcbd ff03 2a3e 4849 1f3e 5c49 283e
00000130: 02c9 be3d 9001 ad3d 054d 25be 915e 6dbd
00000140: 8108 363e 6497 1abe ca33 a93d 9a58 0c3c
00000150: 76b8 4dbd 56b9 f23d d853 a73e c670 b03d
00000160: 7452 8cbd 2359 3b3e 5c3c 593a 3c56 683b
00000170: b09b 153e 83c5 1bbc 2e14 df3d b82f 533e
00000180: d1f3 0fbd 51e7 ea3c 6f5e 843e cf71 673d
00000190: 79e6 2d3e 05f4 273d 9856 0fbe 0970 8ebd
000001a0: 5267 3a3e 32db 3e3d 52e4 3d3d ee34 743e
000001b0: d1e4 e0be 5063 fa3d 00dd f53d d2ac 053f
000001c0: e4fa 503e e842 553c 5b12 0c3c a33e 033e
000001d0: 14c7 c73c dfea 903d af16 463d 4a8d 93bd
000001e0: 0197 57be 4dad 1fbe 7f84 02be 148a d53c
000001f0: 5da6 4a3e 3301 a03d f6ed c43d 39ed d03c
00000200: 4069 a5bd fbca 133d 7adc a4bd ef37 6fbe
00000210: fa3a 83be 00bb 0abe b037 163e 65e5 3f3e
00000220: 5aab c13e 6ae9 183e 5975 9abd a57a d4bb
00000230: 9b0a 893d f853 26bc 38a1 313d 6241 85bd

encode_conv1.bias f4 [4]
-0.16719249 -0.043576118 -0.071493044 0.05455745
00000000: 8234 2bbe df7c 32bd f26a 92bd a277 5f3d

encode_conv2.weight f4 [4, 4, 3]
-0.3410588 0.46779543 0.007148232 0.03172981 0.16461793 -0.34175402 0.07188964 0.5045488
0.20148489 0.5858331 0.35867864 0.14268108 -0.116644 -0.049268246 -0.21716793 -0.297227
0.124569215 0.2770404 0.12710841 -0.066213846 0.31951848 -0.19267328 0.1878615 -0.18356173
0.32314408 0.3187533 -0.14027314 -0.22635564 -0.29211712 0.051719308 -0.18654612 -0.22172199
-0.10249309 0.28373855 0.121869996 0.020754002 -0.2837224 -0.31145898 0.09359575 0.046099946
0.096467815 -0.25445893 -0.16887663 -0.22399867 -0.30301616 -0.5850687 0.051278304 0.502547
00000000: 429f aebe e282 ef3e b73b ea3b 1ef7 013d
00000010: 9a91 283e 62fa aebe e03a 933d 1c2a 013f
00000020: 0e52 4e3e 28f9 153f baa4 b73e fd1a 123e
00000030: 0de3 eebd 80cd 49bd 4561 5ebe 232e 98be
00000040: 251e ff3d 3dd8 8d3e b528 023e 209b 87bd
00000050: ed97 a33e 254c 45be c45e 403e 9bf7 3bbe
00000060: 2473 a53e a233 a33e c3a3 0fbe c6c9 67be
00000070: 6090 95be a0d7 533d f205 3fbe 170b 63be
00000080: e6e7 d1bd 2e46 913e fa96 f93d 4c04 aa3c
00000090: 1044 91be 8d77 9fbe 21af bf3d 4cd3 3c3d
000000a0: eb90 c53d 7148 82be ffed 2cbe e85f 65be
000000b0: ef24 9bbe 10c7 15bf 3309 523d eca6 003f

encode_conv2.bias f4 [4]
-0.121805094 -0.09623524 0.20920537 -0.04231059
00000000: f374 f9bd fb16 c5bd ef39 563e df4d 2dbd

encode_conv3.weight f4 [8, 4, 3]
0.19010893 0.123451725 0.20385993 0.27721855 -0.072989576 0.32030502 0.012324274 0.15483177
0.3392009 0.15540357 0.26143909 -0.22037828 0.5321781 -0.19360973 -0.03827005 -0.17042364
-0.36497915 0.03107646 0.122290954 0.15367529 -0.0005779621 -0.345029 -0.29724568 -0.12261345
0.29614803 -0.08499205 -0.089694306 0.20178919 -0.155654 -0.2317794 -0.070461385 -0.027396683
-0.062006593 -0.23613673 0.01733971 0.31843373 0.098149784 -0.3567522 -0.23450801 -0.20487766
0.097967595 -0.0526523 0.24936101 0.06664085 0.2759573 -0.053704917 0.124240376 -0.1607347
-0.047121365 -0.24217182 -0.2882564 -0.18162501 -0.15591325 -0.060539674 -0.22203936 0.06858671
0.26670936 0.023548707 -0.15075679 0.15624514 -0.046389714 0.39896223 -0.20819074 0.42382988
-0.22218962 -0.36941668 -0.12186797 -0.33367798 -0.09862891 -0.10955521 -0.21956612 0.29199985
-0.15025009 -0.2010067 0.2519481 0.23004045 -0.009982124 0.2052888 -0.13693015 -0.2184349
-0.14558366 -0.246559 -0.1350967 0.24415596 -0.082817264 -0.28828302 -0.293864 0.003255443
-0.17224275 0.032547954 -0.34485707 0.20498972 -0.05619203 0.10134223 0.2816511 -0.06058357
00000000: eaab 423e 42d4 fc3d a8c0 503e 97ef 8d3e
00000010: 8f7b 95bd 05ff a33e c0eb 493c 388c 1e3e
00000020: beab ad3e 1d22 1f3e 58db 853e d8aa 61be
00000030: d33c 083f a141 46be 0ec1 1cbd 8983 2ebe
00000040: 8cde babe 0f94 fe3c ae73 fa3d 0e5d 1d3e
00000050: 6182 17ba a4a7 b0be 9630 98be c31c fbbd
00000060: b7a0 973e 5010 aebd a6b1 b7bd d3a1 4e3e
00000070: c363 1fbe 9457 6dbe 0f4e 90bd 026f e0bc
00000080: a0fa 7dbd d4cd 71be 020c 8e3c bf09 a33e
00000090: c102 c93d 39a8 b6be de22 70be 73cb 51be
000000a0: 3ca3 c83d f0a9 57bd 7e58 7f3e ff7a 883d
000000b0: 464a 8d3e b0f9 5bbd bd71 fe3d a397 24be
000000c0: 5502 41bd e4fb 77be 5896 93be e8fb 39be
000000d0: b9a7 1fbe 73f8 77bd 495e 63be 3077 8c3d
000000e0: 218e 883e 38e9 c03c fd5f 1abe bafe 1f3e
000000f0: 2403 3ebd c744 cc3e f42f 55be 3b00 d93e
00000100: ad85 63be 2f24 bdbe ea95 f9bd d7d7 aabe
00000110: f4fd c9bd 7b5e e0bd f1d5 60be 0181 953e
00000120: 29db 19be b3d4 4dbe 57ff 803e b98f 6b3e
00000130: 108c 23bc 3a37 523e 6b37 0cbe 66ad 5fbe
00000140: e213 15be f679 7cbe ca56 0abe 0504 7a3e
00000150: 199c a9bd d599 93be 5875 96be 4559 553b
00000160: 6760 30be 0151 053d 1b91 b0be d3e8 513e
00000170: 9d29 66bd 848c cf3d 9334 903e 7a26 78bd

encode_conv3.bias f4 [8]
-0.005331222 -0.08048584 -0.036418196 0.09109352 -0.16746621 -0.06751468 0.13977128 -0.10353523
00000000: 88b1 aebb c3d5 a4bd 3f2b 15bd 3d8f ba3d
00000010: 437c 2bbe 2345 8abd 3420 0f3e 470a d4bd

encode_conv4.weight f4 [8, 8, 3]
-0.08915082 0.09062459 -0.14302576 -0.4797013 0.43919975 -0.25163084 -0.026110154 0.41332856
-0.14927614 -0.0069048125 -0.12228296 -0.13329068 0.07911553 -0.08373913 -0.109205976 0.39831495
0.101313464 0.25319988 0.20172742 0.27792472 0.20591927 -0.074874245 -0.04992257 0.09143999
0.2107871 0.16004029 -0.029339526 0.34195748 -0.07579045 0.30002314 0.030897427 -0.21299034
0.0842718 0.045201257 0.19659641 -0.12805676 0.12984179 0.01318373 -0.14761114 0.038577672
-0.35172835 0.31481194 0.17302783 -0.17644379 0.12850414 -0.16988832 -0.20391162 -0.14375025
0.04533814 -0.19324252 0.14150621 0.40039796 0.05503986 -0.5855472 0.12728594 0.33012405
0.10058248 0.062602706 -0.12511648 0.23864566 -0.20578836 -0.21545358 -0.019298078 0.30360168
0.36174932 -0.16483434 -0.010175777 -0.19928226 -0.08129071 -0.11636078 -0.0041646645 0.16677783
-0.054337896 -0.18567325 -0.15560348 -0.022916192 0.058618866 -0.8334043 0.07367263 -0.22580968
0.05762904 0.1378172 -0.460089 -0.21172665 -0.094473355 -0.03443231 -0.038567215 0.13160315
-0.105776496 -0.27505428 -0.02210559 0.10724977 0.25351897 -0.019918798 0.28119057 -0.123151526
0.0071359403 -0.1085294 0.0782042 -0.23820369 -0.2845249 -0.46886396 0.10743622 0.14092164
-0.42829472 -0.032279037 -0.08744574 -0.004000678 0.08630759 -0.29955542 -0.040243402 0.21976736
0.51022243 -0.849062 0.02124105 0.2535462 -0.18604715 -0.24426417 -0.28069568 0.08649927
-0.12571391 0.28329623 -0.07214376 0.16594519 -0.21660179 -0.35129905 -0.3552249 0.33067006
-0.07193816 -0.065226115 0.1813796 0.094592676 -0.1871953 0.03832489 -0.17928067 -0.07290836
0.6408329 -0.07175387 -0.00866554 -0.06670755 0.028437655 -0.2777604 -0.034573466 0.07360612
0.17569587 0.049420714 0.25621602 -0.1130666 -0.11698655 0.30548555 -0.57012665 -0.5711227
0.07307496 -0.11308051 -0.0032328991 0.08556692 -0.23066358 -0.25387704 -0.16467626 -0.42670274
-0.44503954 0.041771278 -0.05525337 0.15005329 0.22112103 -0.11997914 0.085605755 0.04769732
-0.072958186 0.0029528704 0.06811943 -0.23869626 -0.4189031 -0.20992477 0.153922 -0.03592271
0.14126003 -0.07381044 0.19320434 0.16649863 -0.06729368 0.080341816 -0.08840827 0.34001207
-0.44817322 -0.1790857 0.05805236 0.13596407 0.15574276 0.15401566 0.13551807 -0.032100074
00000000: b594 b6bd 6399 b93d 5875 12be 699b f5be
00000010: cade e03e c2d5 80be f6e4 d5bc cd9f d33e
00000020: d8db 18be c441 e2bb 7d6f fabd 5a7d 08be
00000030: 5307 a23d 6c7f abbd 62a7 dfbd f0ef cb3e
00000040: 6f7d cf3d 6aa3 813e a291 4e3e 264c 8e3e
00000050: 80dc 523e ab57 99bd 9c7b 4cbd e444 bb3d
00000060: 93d8 573e 9ae1 233e 7259 f0bc 0d15 af3e
00000070: 0638 9bbd a29c 993e 9a1c fd3c 241a 5abe
00000080: b296 ac3d f424 393d 9250 493e 5021 03be
00000090: 3ff5 043e 9200 583c 6027 17be 9f03 1e3d
000000a0: bd15 b4be 082f a13e 352e 313e aead 34be
000000b0: 9796 033e 34f7 2dbe 35ce 50be 4433 13be
000000c0: 7cb4 393d 5ee1 45be 01e7 103e f600 cd3e
000000d0: 7a71 613d 6ce6 15bf 3f57 023e 0506 a93e
000000e0: 30fe cd3d d935 803d 891e 00be 875f 743e
000000f0: 2fba 52be dd9f 5cbe 0117 9ebc ae71 9b3e
00000100: 3537 b93e 55ca 28be 4db8 26bc a610 4cbe
00000110: be7b a6bd 904e eebd bd77 88bb cfc7 2a3e
00000120: 6a91 5ebd 2121 3ebe 8556 1fbe bdba bbbc
00000130: 561a 703d fc59 55bf ade1 963d a73a 67be
00000140: 6e0c 6c3d f41f 0d3e c990 ebbe dfce 58be
00000150: 3f7b c1bd e508 0dbd a8f8 1dbd fac2 063e
00000160: 59a1 d8bd ead3 8cbe c816 b5bc c4a5 db3d
00000170: 3dcd 813e bf2c a3bc 36f8 8f3e de36 fcbd
00000180: 9bd4 e93b a944 debd 8629 a03d abeb 73be
00000190: 3fad 91be f00e f0be 8507 dc3d c34d 103e
000001a0: 7249 dbbe 0637 04bd c116 b3bd 1f18 83bb
000001b0: 09c2 b03d 545f 99be 44d6 24bd b20a 613e
000001c0: f09d 023f 215c 59bf b601 ae3c cfd0 813e
000001d0: 2583 3ebe 6320 7abe 58b7 8fbe 8726 b13d
000001e0: 26bb 00be 340c 913e 1cc0 93bd 89ed 293e
000001f0: dccc 5dbe 78dd b3be 0ae0 b5be 964d a93e
00000200: 5054 93bd 4595 85bd 93bb 393e ceb9 c13d
00000210: 20b0 3fbe 8ffa 1c3d 5a95 37be fa50 95bd
00000220: a00d 243f b1f3 92bd e9f9 0dbc f89d 88bd
00000230: 16f6 e83c 9c36 8ebe e89c 0dbd cebe 963d
00000240: 9ee9 333e 606d 4a3d bf2e 833e 768f e7bd
00000250: a596 efbd 9a68 9c3e d2f3 11bf 1935 12bf
00000260: 53a8 953d c196 e7bd 0cdf 53bb b63d af3d
00000270: 1333 6cbe 2cfc 81be e5a0 28be c878 dabe
00000280: 39dc e3be 5c18 2b3d 5c51 62bd 92a7 193e
00000290: 8d6d 623e a0b7 f5bd 1252 af3d 445e 433d
000002a0: 1a6b 95bd f284 413b 3382 8b3d cb6c 74be
000002b0: 787a d6be 85f6 56be bb9d 1d3e b123 13bd
000002c0: 78a6 103e ee29 97bd 5cd7 453e 9e7e 2a3e
000002d0: 45d1 89bd 408a a43d 650f b5bd 1016 ae3e
000002e0: f676 e5be 3e62 37be 50c8 6d3d 2a3a 0b3e
000002f0: 087b 1f3e 48b6 1d3e 40c5 0a3e 5e7b 03bd

encode_conv4.bias f4 [8]
-0.059623603 0.21022251 0.23894031 -0.097001076 0.10293947 0.08245985 -0.10277714 0.12789589
00000000: e137 74bd 9244 573e c5ac 743e 80a8 c6bd
00000010: eed1 d23d b6e0 a83d d27c d2bd 24f7 023e

fc1.weight f4 [100, 56]
-0.030366767 -0.07051134 0.036684316 0.15264823 -0.17902154 -0.00820655 -0.02911758 -0.13523506
-0.044218756 -0.14432263 -0.14771236 -0.16950782 -0.06223787 0.05747991 -0.19427371 -0.013443781
-0.03145905 0.079715975 -0.07038566 0.03914034 -0.06265173 0.1074657 0.12306516 0.06486928
-0.11871074 0.023011917 0.12692675 0.06408722 0.13302581 0.06901816 -0.078701444 -0.19723861
0.03994829 -0.1099944 0.08837627 -0.1835188 0.14223899 -0.14930433 0.13188367 -0.11090914
-0.12724921 0.03735438 -0.08001219 -0.0415483 0.17946483 -0.11025214 -0.03308824 0.17388326
0.14171648 -0.12571757 -0.1789642 0.028877014 -0.19219527 0.0066570533 -0.018879533 -0.005345779
0.002101917 0.030900067 0.0947892 0.0023986567 0.005645359 0.11902763 -0.06279004 0.11675364
0.12810244 0.028399404 0.13599837 0.16174282 0.108206846 -0.024921885 0.13664472 0.13999316
0.14162812 -0.0540914 -0.010924713 0.06632017 0.13640182 -0.07503836 0.00015934583 -0.008225458
-0.090849884 -0.14900228 -0.0781865 0.063593104 0.01222451 0.11570927 -0.057952993 -0.0086606685
-0.10207094 0.057859205 -0.0017754459 0.03671105 -0.026275765 0.109620035 0.032431755 0.06988202
0.16509275 -0.023138372 0.13255782 0.0831071 -0.25169832 0.13975218 -0.12842765 -0.005121776
0.005695394 0.13179183 0.11076152 -0.009965531 0.022521786 -0.0755995 -0.09165522 0.1581729
0.021313028 0.09215626 0.12369357 0.08989741 -0.19877069 0.027301857 -0.05624035 0.048734263
0.0016317216 0.025929244 -0.092807986 0.019437736 -0.015546208 -0.06787851 0.115796655 -0.009493922
0.16947089 -0.107435375 -0.0056702406 0.16398484 0.14237337 0.047038473 -0.022425383 0.17091717
0.0508508 -0.05105083 0.049540877 -0.012588584 0.12543106 -0.027572623 0.087883845 0.2286067
-0.08215153 0.059305575 0.101827376 0.13059217 -0.054548435 0.11822506 0.021096813 -0.12284525
-0.15863122 0.018573036 0.0230787 0.111762516 -0.26104853 0.030606693 0.019115996 -0.0073397933
0.039611477 0.04463578 0.12987167 0.05390552 0.06215994 0.05789054 -0.0942926 0.0943827
-0.09229366 0.17903852 0.008561958 -0.005400437 0.036009856 0.029129714 -0.0015606004 0.1284749
0.003560047 0.10568569 0.117313154 0.041889872 -0.085613966 0.13393688 0.16942827 0.11421596
-0.009377637 0.019788066 0.025752854 0.046902694 -0.013028815 0.0342168 0.107691854 -0.044257395
0.040370896 -0.067265265 -0.060260408 0.0010208961 -0.10047975 0.06162291 0.17215344 0.09178259
0.03725007 0.028699765 -0.025094548 0.06246045 0.05180544 0.04557255 0.08484221 -0.0070021474
0.004517966 -0.042489514 0.16520903 0.0036241256 -0.068653524 -0.057016607 -0.004043179 0.08587488
-0.00827454 0.0027745534 0.117947824 -0.0257503 0.1151275 -0.053657446 0.07766078 0.09891974
-0.057516944 -0.01858882 -0.012244911 0.073553406 0.017291285 -0.1598645 -0.10268724 -0.067454346
-0.025682999 -0.0018884772 0.009247517 0.06680916 -0.01949741 -0.038591363 -0.049464673 0.0079089245
-0.21451773 -0.1078212 0.075673975 -0.0733823 -0.02165753 0.027015356 -0.053502202 0.07168549
-0.10930656 0.13213898 -0.123039745 -0.007952532 -0.3982852 -0.0010499014 0.16503464 -0.04809055
00000000: bac3 f8bc 4068 90bd 4b42 163d d14f 1c3e
00000010: 6c51 37be c474 06bc fe87 eebc 0f7b 0abe
00000020: ba1e 35bd 50c9 13be e941 17be 7593 2dbe
00000030: 23ed 7ebd 0e70 6b3d b0ef 46be 4e43 5cbc
00000040: 34db 00bd 2142 a33d 5b26 90bd 9f51 203d
00000050: 8d4f 80bd fa16 dc3d 9609 fc3d 2fda 843d
00000060: 9e1e f3bd 7d83 bc3c 16f9 013e 2940 833d
00000070: eb37 083e 6559 8d3d 392e a1bd ebf8 49be
00000080: d1a0 233d be44 e1bd 9efe b43d 5aec 3bbe
00000090: 19a7 113e 3ce3 18be 830c 073e 5524 e3bd
000000a0: 9e4d 02be e800 193d 6edd a3bd 8d2e 2abd
000000b0: a1c5 373e e0cb e1bd 8987 07bd 740e 323e
000000c0: 201e 113e 1bbc 00be 6442 37be 7d8f ec3c
000000d0: d6ce 44be 6923 da3b 40a9 9abc a52b afbb
000000e0: 51c0 093b 2322 fd3c d720 c23d c832 1d3b
000000f0: b4fc b83b c2c4 f33d 1198 80bd 881c ef3d
00000100: 492d 033e dea5 e83c 2843 0b3e e99f 253e
00000110: 8d9b dd3d fb28 ccbc 98ec 0b3e 5e5a 0f3e
00000120: f606 113e f28e 5dbd 91fd 32bc dfd2 873d
00000130: ebac 0b3e b6ad 99bd 1216 2739 12c4 06bc
00000140: 810f babd 0e94 18be 3e20 a0bd 1a3d 823d
00000150: 5049 483c fbf8 ec3d 1e60 6dbd 7ae5 0dbc
00000160: 920a d1bd c6fd 6c3d 14b6 e8ba 535e 163d
00000170: 4640 d7bc 7880 e03d 29d7 043d 4e1e 8f3d
00000180: 130e 293e af8c bdbc 3dbd 073e 0e34 aa3d
00000190: 9ade 80be 321b 0f3e 8a82 03be 92d4 a7bb
000001a0: 6da0 ba3b 70f4 063e f0d6 e23d 7746 23bc
000001b0: 9c7f b83c e9d3 9abd bbb5 bbbd 14f8 213e
000001c0: a998 ae3c 6cbc bc3d 0e53 fd3d 221c b83d
000001d0: 8b8a 4bbe 25a8 df3c 485c 66bd 949d 473d
000001e0: 7edf d53a 9169 d43c 1d12 bebd e33b 9f3c
000001f0: 86b5 7ebc e303 8bbd cc26 ed3d 658c 1bbc
00000200: c789 2d3e 1407 dcbd 6dcd b9bb a4eb 273e
00000210: 53ca 113e 6aab 403d 70b5 b7bc e904 2f3e
00000220: ee48 503d ad1a 51bd 60eb 4a3d 5940 4ebc
00000230: 0071 003e fbdf e1bc 72fc b33d e017 6a3e
00000240: 103f a8bd 67ea 723d df8a d03d f4b9 053e
00000250: 2e6e 5fbd fb1f f23d 39d3 ac3c 4a96 fbbd
00000260: 3970 22be 7b26 983c 8b0f bd3c bfe3 e43d
00000270: 27a8 85be e3ba fa3c 2699 9c3c a682 f0bb
00000280: a53f 223d 02d4 363d 14fd 043e 09cc 5c3d
00000290: 6c9b 7e3d a21e 6d3d 7b1c c1bd b84b c13d
000002a0: 7504 bdbd e055 373e 7447 0c3c 26f6 b0bb
000002b0: 127f 133d 70a1 ee3c 0f8d ccba ed8e 033e
000002c0: ad4f 693b bd71 d83d e141 f03d b794 2b3d
000002d0: 6056 afbd c026 093e 9b7e 2d3e 0fea e93d
000002e0: a9a4 19bc 951a a23c a6f7 d23c 0a1d 403d
000002f0: d076 55bc ea26 0c3d 8c8d dc3d 3e47 35bd
00000300: f45b 253d 5fc2 89bd 9ed3 76bd 97cf 853a
00000310: 54c8 cdbd 4e68 7c3d fe48 303e 83f8 bb3d
00000320: 8893 183d c51b eb3c 1593 cdbc 87d6 7f3d
00000330: f131 543d 48aa 3a3d c1c1 ad3d 4572 e5bb
00000340: 720b 943b 7c09 2ebd 8e2c 293e bd82 6d3b
00000350: 389a 8cbd 3f8a 69bd a57c 84bb 2bdf af3d
00000360: f091 07bc 48d5 353b a18e f13d 4bf2 d2bc
00000370: f7c7 eb3d e9c7 5bbd 9d0c 9f3d 6f96 ca3d
00000380: e396 6bbd 9547 98bc e19e 48bc 2ba3 963d
00000390: 74a6 8d3c 85b3 23be b04d d2bd 8125 8abd
000003a0: 2765 d2bc c886 f7ba e682 173c 3ed3 883d
000003b0: 08b9 9fbc fa11 1ebd 789b 4abd 6f94 013c
000003c0: 89aa 5bbe 5cd1 dcbd f5fa 9a3d 7649 96bd
000003d0: 226b b1bc 4f4f dd3c 2025 5bbd d8cf 923d
000003e0: 1edc dfbd 714f 073e 43fc fbbd 564b 02bc
000003f0: 0aec cbbe d89c 89ba d7fe 283e 99fa 44bd

fc1.bias f4 [100]
0.03960183 0.06978879 0.1355931 0.09931855 -0.035393532 0.117466785 0.08145935 0.046086285
-0.01541154 0.08723693 -0.03030221 -0.046414655 0.017651027 -0.09204694 -0.09470863 0.13690388
0.059536174 0.10431445 0.0049165916 -0.11058504 -0.03332947 -0.12625436 -0.0045246277 0.075877525
0.012881098 0.1143088 0.027654758 -0.1629622 -0.008138317 0.17900507 0.12427927 0.05992799
-0.03554923 -0.13667184 -0.0062309 0.1082728 0.07258651 -0.00040730945 -0.13589025 -0.02134932
-0.14861837 0.10476063 0.16311288 -0.003728681 -0.08581189 0.048010383 -0.14397421 -0.06200352
-0.15236512 0.05423085 0.027388737 -0.119526416 0.16105321 -0.10504644 0.12809287 -0.03158908
-0.0451305 0.17231128 0.04402101 -0.14369324 0.047533356 -0.20006798 -0.00275565 0.13030908
-0.089116685 0.08589064 0.07163591 -0.055288486 0.13525845 -0.04425012 0.13220173 0.042022515
0.06291204 0.14455265 0.01715277 0.06115434 0.09265047 0.13536939 0.11118915 0.16667919
0.06516684 0.021325411 -0.05652805 -0.03688384 0.014333427 -0.017403401 0.10651616 -0.1523295
0.17727481 -0.046144836 -0.10997977 -0.07416668 -0.10392275 0.16017175 0.121098496 0.032524597
-0.08700746 0.09868188 -0.15362173 -0.029740129
00000000: 8735 223d 6ded 8e3d ebd8 0a3e 8667 cb3d
00000010: cff8 10bd 6d92 f03d 29d4 a63d f9c4 3c3d
00000020: af80 7cbc 47a9 b23d 573c f8bc 4b1d 3ebd
00000030: e398 903c 1b83 bcbd 99f6 c1bd 8830 0c3e
00000040: 34dc 733d d0a2 d53d 5c1b a13b 697a e2bd
00000050: 7b84 08bd d348 01be 5443 94bb ad65 9b3d
00000060: 3e0b 533c bb1a ea3d 3b8c e23c 90df 26be
00000070: 9356 05bc 1b4d 373e 2186 fe3d 0d77 753d
00000080: 129c 11bd b4f3 0bbe 942c ccbb 21be dd3d
00000090: 3ca8 943d 268c d5b9 d026 0bbe c5e4 aebc
000000a0: 6a2f 18be be8c d63d 1007 273e e35c 74bb
000000b0: 25be afbd 89a6 443d fa6d 13be 67f7 7dbd
000000c0: 9a05 1cbe 2b21 5e3d 585e e03c 44ca f4bd
000000d0: 22eb 243e 9722 d7bd c72a 033e 8d63 01bd
000000e0: c2da 38bd 5e72 303e 604f 343d 5224 13be
000000f0: 56b2 423d 9fde 4cbe 2398 34bb be6f 053e
00000100: cf82 b6bd 6fe7 af3d d9b5 923d 2e76 62bd
00000110: 3181 0a3e 9d3f 35bd e45f 073e cd1f 2c3d
00000120: 07d8 803d 9c05 143e f783 8c3c f97c 7a3d
00000130: 88bf bd3d 469e 0a3e 23b7 e33d f3ad 2a3e
00000140: 3176 853d a1b2 ae3c f589 67bd 8213 17bd
00000150: c0d6 6a3c 9491 8ebc 2525 da3d 44fc 1bbe
00000160: 8787 353e 5e02 3dbd 133d e1bd b3e4 97bd
00000170: 73d5 d4bd 1004 243e 7d02 f83d 8338 053d
00000180: f830 b2bd ba19 ca3d 044f 1dbe 92a1 f3bc

fc3.weight f4 [25, 100]
0.031768177 0.05969013 0.0139740165 -0.040193055 -0.15189362 0.0667767 0.021146154 0.09524409
-0.020666812 -0.07000434 0.17795952 -0.09893304 -0.017963901 -0.06732231 -0.117063224 0.045646027
0.11111558 0.057102956 -0.07459277 -0.019295543 -0.094261825 -0.10989182 0.060706556 0.16747147
0.1858348 0.1336477 0.038521234 -0.14614807 -0.007414931 -0.008185283 0.06174513 0.045161154
-0.08037595 -0.070720375 0.1093529 -0.06260676 0.16356377 -0.050917227 -0.068035364 -0.11626305
0.0085285315 0.06488122 0.1421265 -0.58260775 -0.08032523 0.08928511 -0.45150283 0.13576522
0.0027941172 0.05862162 0.06327724 0.024122018 -0.023548704 -0.09664746 0.15268168 0.099661455
0.208123 0.09367643 0.03640706 -0.020191295 -0.0008525129 -0.63191754 -0.016546309 0.11693951
-0.3237915 0.050396625 0.0752828 0.17295772 0.14595503 0.17290513 0.08857307 0.085047945
0.14610483 0.092987485 0.1428414 0.09537432 0.13096875 0.05976202 0.11642799 0.110294975
-0.2136275 0.07791278 0.008275701 0.12087505 0.046909455 0.09854946 0.050913066 -0.09830486
0.083218664 -0.2342974 -0.09329385 -0.1327259 -0.07308095 -0.01618159 0.1409456 0.14282104
0.022605384 -0.022251545 0.07458553 0.06676728 -0.016614608 0.09644456 0.11161868 0.0075537227
0.037740614 0.055294774 0.13608794 0.107663654 0.074697 -0.038303595 -0.1210349 -0.104163185
-0.013013813 0.07032643 -0.06859575 0.11667999 0.013304067 0.025492076 0.05687685 -0.017864933
0.06984827 -0.13126507 0.0046225186 0.038595606 0.027891066 0.08889111 0.033025373 -0.005737148
0.033672687 -0.069983125 0.03951988 0.08804296 -0.058691148 0.027281927 0.11747895 0.08905504
0.05274284 -0.062916756 0.00257921 -0.10304075 0.02206378 0.110813625 0.10419464 -0.30050573
0.030730003 0.14000991 -0.60084313 -0.04440569 -0.04404271 0.09847794 -0.028173981 0.06201729
0.10460795 0.01960459 0.1051701 0.23221219 0.05487862 0.11943489 -0.058806967 -0.117350884
0.014493224 -0.30275044 -0.005945803 0.076678604 -0.20095444 -0.06334011 -0.020039907 0.12372031
0.10500336 0.28241342 -0.02281273 -0.046839487 0.25292915 0.06872192 0.12253587 -0.021766352
0.038990133 -0.047098316 -0.02202209 0.033014398 0.015529228 0.12278933 -0.06198617 -0.04907466
0.11438539 0.023563072 -0.07053763 0.00888178 0.11661242 -0.16638327 -0.09437345 -0.17964289
-0.037216723 0.09070164 -0.003941195 0.09199179 0.057804555 0.115097225 -0.083244294 0.06851443
-0.12403184 0.027954258 -0.021327166 0.07719928 -0.012252057 0.10274087 0.03226772 0.103550576
0.057741936 0.12844498 0.05401892 -0.123749964 0.08592017 0.04316454 0.025182893 0.04154362
-0.033223487 0.026433302 -0.12124271 -0.010488147 0.115215905 0.002579642 0.12985933 0.12070999
0.060628533 -0.039115082 0.08227851 -0.011577743 0.11476921 0.11916597 0.13153327 0.11723027
-0.053433176 -0.0044394457 0.12822275 -0.04470883 0.022095216 0.10657129 -0.024623267 0.038806476
-0.07871829 0.096549846 -0.026594141 -0.37764424 -0.02712656 -0.025124248 0.13049233 0.53194886
0.03686902 -0.045400508 -0.010630029 0.004958724 0.028189844 -0.09797973 -0.09752116 0.3713863
00000000: 591f 023d a37d 743d 46f3 643c 79a1 24bd
00000010: 008a 1bbe 39c2 883d b33a ad3c 550f c33d
00000020: 724d a9bc 6f5e 8fbd 053b 363e 689d cabd
00000030: 0829 93bc 47e0 89bd d8be efbd 54f7 3a3d
00000040: 9190 e33d cae4 693d 18c4 98bd b011 9ebc
00000050: 580c c1bd f60e e1bd 70a7 783d a47d 2b3e
00000060: 7a4b 3e3e f1da 083e 71c8 1d3d d7a7 15be
00000070: f3f8 f2bb 911b 06bc 76e8 7c3d e7fa 383d
00000080: 259c a4bd d8d5 90bd 6af4 df3d f937 80bd
00000090: 437d 273e 958e 50bd 2056 8bbd 521b eebd
000000a0: 41bb 0b3c 72e0 843d 9c89 113e c825 15bf
000000b0: 8e81 a4bd 1ddb b63d 612b e7be 0a06 0b3e
000000c0: 821d 373b 391d 703d 7f97 813d 8a9b c53c
000000d0: 36e9 c0bc 1aef c5bd 9658 1c3e 4e1b cc3d
000000e0: 321e 553e 6ed9 bf3d 921f 153d 3768 a5bc
000000f0: 2c7b 5fba 59c5 21bf 208c 87bc fb7d ef3d
00000100: 00c8 a5be b16c 4e3d de2d 9a3d d41b 313e
00000110: 3c75 153e 0b0e 313e cc65 b53d 9e2d ae3d
00000120: 819c 153e 3970 be3d 0445 123e 9d53 c33d
00000130: ac1c 063e 05c9 743d cc71 ee3d 55e2 e13d
00000140: 2bc1 5abe bc90 9f3d ce96 073c 578d f73d
00000150: 2124 403d 4dd4 c93d 388a 503d 0f54 c9bd
00000160: 8c6e aa3d a8eb 6fbe d910 bfbd 4ce9 07be
00000170: 77ab 95bd 418f 84bc 0b54 103e ae3f 123e
00000180: ed2e b93c df48 b6bc 4cc0 983d 49bd 883d
00000190: 5c1b 88bc ba84 c53d 5698 e43d 3885 f73b
000001a0: e795 1a3d c67c 623d a35a 0b3e c37e dc3d
000001b0: befa 983d 3be4 1cbd 25e1 f7bd 8253 d5bd
000001c0: e337 55bc 4e07 903d ee7b 8cbd ebf5 ee3d
000001d0: 4df9 593c c2d4 d03c b3f7 683d 7b59 92bc
000001e0: 9c0c 8f3d 5a6a 06be 7f78 973b 6d16 1e3d
000001f0: ce7b e43c 8b0c b63d 9d45 073d b0fe bbbb
00000200: 5fec 093d 5053 8fbd 99df 213d de4f b43d
00000210: 2166 70bd 597e df3c ce98 f03d 7d62 b63d
00000220: e008 583d 80da 80bd f707 293b 0707 d3bd
00000230: 1abf b43c 41f2 e23d 0064 d53d e3db 99be
00000240: 7dbd fb3c c25e 0f3e dbd0 19bf bee2 35bd
00000250: 2166 34bd cdae c93d 1fcd e6bc d805 7e3d
00000260: b13c d63d ce99 a03c 6c63 d73d 08c9 6d3e
00000270: 67c8 603d 489a f43d 93df 70bd a955 f0bd
00000280: fd74 6d3c 1b02 9bbe 03d5 c2bb ac09 9d3d
00000290: 00c7 4dbe 76b8 81bd bb2a a4bc 1361 fd3d
000002a0: 000c d73d 7e98 903e c3e1 babc c3da 3fbd
000002b0: ee7f 813e 14be 8c3d 16f4 fa3d 594f b2bc
000002c0: 1eb4 1f3d 2aea 40bd ac67 b4bc 1b3a 073d
000002d0: 4e6e 7e3c f978 fb3d 36e5 7dbd 8302 49bd
000002e0: e342 ea3d 5807 c13c 0876 90bd e384 113c
000002f0: 7ed2 ee3d 6060 2abe de46 c1bd 4ef4 37be
00000300: 9070 18bd c8c1 b93d 2425 81bb 3166 bc3d
00000310: 78c4 6c3d 18b8 eb3d fc7b aabd 4b51 8c3d
00000320: 6804 febd 5400 e53c 4fb6 aebc a81a 9e3d
00000330: dabc 48bc ce69 d23d 282b 043d 5312 d43d
00000340: cf82 6c3d 1587 033e f142 5d3d 9f70 fdbd
00000350: eaf6 af3d 4dcd 303d 5b4c ce3c a529 2a3d
00000360: 5a15 08bd a78a d83c 194e f8bd 7ad6 2bbc
00000370: 51f6 eb3d 360f 293b d8f9 043e cd36 f73d
00000380: a055 783d 2337 20bd a381 a83d 93b0 3dbc
00000390: 1f0c eb3d 4a0d f43d a8b0 063e 6c16 f03d
000003a0: bfdc 5abd c578 91bb d34c 033e 9b20 37bd
000003b0: 0701 b53c 0c42 da3d bcb6 c9bc 8af3 1e3d
000003c0: 0e37 a1bd edbb c53d f5db d9bc 965a c1be
000003d0: 8538 debc 5ed1 cdbc c89f 053e cd2d 083f
000003e0: f803 173d e2f5 39bd 9329 2ebc cb7c a23b
000003f0: 63ee e63c 99a9 c8bd 2db9 c7bd 5826 be3e

fc3.bias f4 [25]
-0.024051176 0.10778195 -0.036982145 0.0007237453 -0.048015557 -0.0044189454 0.06366057 0.060119525
0.00857215 0.0067552924 -0.008284167 -0.073307686 -0.043037865 -0.06467546 -0.06196501 -0.01827175
0.043905485 -0.14039204 0.042021744 0.023265451 -0.039057277 -0.12141912 -0.022359291 -0.10005829
-0.114936166
00000000: f906 c5bc c8bc dc3d 977a 17bd bab9 3d3a
00000010: f6ab 44bd cdcc 90bb 7960 823d e43f 763d
00000020: 3472 0c3c 805b dd3b 51ba 07bc 5722 96bd
00000030: 7948 30bd 9174 84bd 06cf 7dbd a3ae 95bc
00000040: 3dd6 333d eec2 0fbe fe1e 2c3d 3097 be3c
00000050: 86fa 1fbd 96aa f8bd d52a b7bc 5ceb ccbd
00000060: a763 ebbd
