training_model/wandb/run-20200707_190358-fnz9fz3l/aoa_fir_6cov_1.pt (torch_old, 403058 bytes, 16 tensors)

encode_conv1.weight f4 [4, 50, 3, 3]
000000 6c fa d6 3d b2 87 72 bd 80 e1 c8 bb 17 c0 bb 3d
       0.10496983 -0.05921144 -0.0061303973 0.091674976
000010 5d 57 45 3c 50 80 b1 3d b2 85 2c 3d 72 8b 4e bd
       0.012044755 0.08667052 0.04211969 -0.050425954
000020 51 fe a4 3d d3 2e 98 3c dd 03 b5 3c 3d 09 d6 3c
       0.080563195 0.018577015 0.022096569 0.026127452
000030 b5 e5 58 3c fa 97 3e 3d 2e 89 89 3c 56 1e 6c bc
       0.01323836 0.046531655 0.016789045 -0.0144115295
000040 30 27 e3 3c 41 06 ae 3b 4b a2 29 3d 52 e4 62 3d
       0.027728647 0.005310804 0.04141454 0.055393524
000050 09 e2 82 3d 9f ac 8b 3d 05 60 85 3d d5 83 3d 3d
       0.06390769 0.06820034 0.06512455 0.046268303
000060 20 9b 29 bc dd d0 ae bc 84 5a b7 3d fb 29 e5 3d
       -0.010351926 -0.021339828 0.08952811 0.11189648
000070 0b 41 9f bd ec 1c 24 3d 91 4e 1f be 3d 9e 9c bd
       -0.07776078 0.040066645 -0.15557314 -0.07647369
000080 12 c7 9c 3d 5d 65 d8 bc fd 14 20 3c ad 3a b6 3d
       0.07655157 -0.026415521 0.009770629 0.0889791
000090 4c 9b 54 bb ff e6 f7 bc 98 40 5e 3b ed 5a c8 bd
       -0.0032441197 -0.030261515 0.0033913013 -0.09782968
0000a0 bd 3a 8b bd 1e b6 9a 3c 75 89 a7 bd b8 9f 91 bd
       -0.06798313 0.018885668 -0.08180515 -0.07110542
0000b0 2b 7f 24 3d f1 b7 34 be 00 79 06 bb 55 0f 76 bc
       0.04016034 -0.17648293 -0.00205189 -0.015018304
0000c0 2f 12 64 be cc 04 03 bd 69 c7 4c 3d be 6e 79 be
       -0.22272561 -0.031986997 0.04999486 -0.24358651
0000d0 47 b4 08 be 58 31 2b bc 51 2d be 3c af 87 f2 bd
       -0.1335002 -0.010448776 0.023214968 -0.11842286
0000e0 34 d0 0c 3d 3d 4c 17 bd ce ff 1b be 94 fe e2 3b
       0.034378245 -0.03693794 -0.152343 0.0069273207
0000f0 70 69 e8 bc a6 ae 2b be 4f 08 08 3b 8c 58 3d 3a
       -0.028370589 -0.16765842 0.0020756905 0.00072229723
000100 91 a3 19 3a 23 03 fc 3c fe 5b bd 3c ec 13 ce 3c
       0.000586086 0.030763214 0.023115154 0.025155984
000110 ba 0a a6 3d d4 a3 4b 3a 40 26 04 bd 41 6d 9c 3d
       0.08107515 0.0007768248 -0.03226304 0.07638026
000120 4c e0 69 3d 62 36 bc bb ac f8 c4 bd 65 8c 14 bd
       0.05709867 -0.0057437876 -0.09617743 -0.036266703
000130 09 39 90 3c e5 fe 17 3c 5d 0e 1b 3d 1d 8d 96 3c
       0.017605321 0.00927708 0.037855495 0.018377835
000140 d0 d7 34 bd c6 09 bb bc d8 4f e1 bd 08 a1 7e bb
       -0.044151127 -0.022831809 -0.11001557 -0.0038853306
000150 f6 d6 9b bd 0a c1 05 be 28 31 3f bd cd 6a 01 bd
       -0.0760936 -0.1306192 -0.04667774 -0.031595994
000160 8d 2c 12 bd 35 f7 97 bb 2c 9b 18 3d 2f 4f 40 bd
       -0.03568702 -0.0046376237 0.03725736 -0.046950515
000170 41 c8 54 3d ed 39 d5 bc 7f ba f9 bd d8 2c fa 3b
       0.05194879 -0.026028598 -0.121937744 0.0076347403
000180 ca 2e fe 3b 4f 84 04 be b9 a4 5a 3d a4 b8 b0 bb
       0.0077570425 -0.12941097 0.053379748 -0.0053931046
000190 5b b7 6a 3d e9 ef 65 3c 80 18 e7 3d 72 b3 38 bd
       0.057303768 0.01403425 0.1128397 -0.045093007
0001a0 62 74 ca 3c 27 eb 27 3d e6 a3 54 bc 64 37 17 bd
       0.024713699 0.040995743 -0.01297853 -0.03691806
0001b0 2b ac 0b be 64 40 fd bc 75 6c b0 3d cc cb 1b be
       -0.13639896 -0.030914493 0.086144365 -0.15214461
0001c0 00 3d ca bd 5b 45 d3 bc d4 a6 60 be c7 47 f9 bc
       -0.09874916 -0.025789907 -0.2193864 -0.030429734
0001d0 9c b2 32 3d fb aa b5 3d b0 63 aa bd 1e 04 81 3d
       0.043627366 0.088705026 -0.08319795 0.062996134
0001e0 7e e8 b3 bd 6f 85 bd bb 45 bb 11 bd 07 0a ae bc
       -0.08784579 -0.005783729 -0.035578985 -0.021245016
0001f0 f2 f9 d5 bb 11 43 cf bb b1 9d b4 3d 8a 09 6e 3d
       -0.00653004 -0.0063251336 0.0881914 0.058114566
000200 16 f1 96 bc 32 4b e3 3d e6 b1 d3 3c d1 81 f5 3c
       -0.018425506 0.11098327 0.025841665 0.029969128
000210 e3 11 e8 3d bb 7c ac bb 4e 02 a8 bc c5 d1 ef 3c
       0.113315366 -0.0052638925 -0.020508911 0.02927483
000220 a9 11 b9 bc cb 83 98 bc 21 8e 63 3c b1 60 44 bd
       -0.022591429 -0.018617531 0.013888867 -0.047943775
000230 63 5b 54 3c ef c9 58 bd 9b 28 a5 bc 24 6a 98 ba
       0.012961241 -0.052926954 -0.020160964 -0.0011628312
000240 66 c3 09 3e 8d 71 65 3c ed ad e8 bc 92 98 b4 bd
       0.13453445 0.014004123 -0.028403247 -0.08818163
000250 1e 0c 5b bb da 4e 18 3c 6f 7f d5 3c a9 48 6a bd
       -0.003342397 0.009296143 0.026061742 -0.0571982
000260 f3 17 28 bd 66 b7 14 3e 6b 2e c6 3d 66 ce 58 3d
       -0.041038465 0.14523086 0.09676822 0.052931212
000270 67 8c bb 3d 02 1e be 3d 94 b4 e9 3b fd 02 42 3d
       0.09157639 0.09283067 0.0071321223 0.04736613
000280 53 b1 cf 3b b8 c5 98 3d 31 c7 8b bc d8 71 59 3d
       0.0063382774 0.07459587 -0.017062755 0.053087085
000290 4d 75 22 bc 17 f0 8a bd 86 89 b9 bd c8 2a 29 3b
       -0.009915662 -0.06784075 -0.09059434 0.0025812853
0002a0 74 1d 00 be c8 0c e6 bd f2 4b 78 bb ab 9a a7 bd
       -0.12511235 -0.112329066 -0.0037887064 -0.081837974
0002b0 e6 17 79 3d fb e8 49 3d 3b a6 12 bd d8 de 36 3c
       0.060813807 0.049294453 -0.03580306 0.0111615285
0002c0 32 ae bd 3b c1 a4 89 3c cf bd 0f 3d 94 74 1e 3d
       0.005788588 0.016802194 0.035093125 0.038685396
0002d0 41 a4 5f bd 32 0d e9 3c 38 a2 2e 3d 56 fc a5 3d
       -0.054600004 0.028448675 0.042635173 0.0810477
0002e0 a7 ce 07 bc 84 ae 23 3d 38 b1 95 bd 91 e7 b4 bd
       -0.008289016 0.039961353 -0.073091924 -0.0883323
0002f0 80 4c 92 3d 36 59 f2 3d 2f fc 9c bd e9 57 22 3d
       0.071434975 0.11833422 -0.07665288 0.03963462
000300 03 47 ff bd 8f d3 03 3d cd 17 41 bc d9 f6 34 3d
       -0.12464716 0.03218418 -0.01178546 0.044180725
000310 b3 bb 68 bd bc a0 b6 3c 90 d6 89 bc d4 68 2a 3d
       -0.05681963 0.022293441 -0.016825944 0.04160388
000320 b6 2b 00 3d e7 1e de 3d 90 1d 8d bd d5 0f a7 bc
       0.031291686 0.10845738 -0.06890404 -0.020393291
000330 9c fa fe bc 9a 96 8b 3b ce ef ae bc 5d ec 0e b9
       -0.03112536 0.0042598965 -0.021354582 -0.00013630227
000340 aa c1 e4 bc a1 7e ce 3d de 0c 0f 3e 93 f7 48 bc
       -0.027924377 0.10082746 0.13969752 -0.012266058
000350 cd da 29 bb 1b 5f c5 bd 78 cb 94 bd 91 28 17 3e
       -0.002591777 -0.096372806 -0.07265371 0.14761569
000360 0b 98 e1 3d 01 7a 0b 3e d5 af 98 3b 16 dc 34 3c
       0.11015328 0.1362076 0.0046596327 0.011038801
000370 cc 88 59 bd 77 a9 a7 3d 1b b3 01 3e 9a b2 a4 bc
       -0.053108975 0.0818662 0.1266598 -0.020104695
000380 96 5c 48 bd 1f 1f eb 3d 29 2d 73 bd 18 18 78 3d
       -0.04891642 0.11480545 -0.05936924 0.060569853
000390 8d 4b a5 bd 72 4c 16 3c 2a 60 49 3d ec fe 03 bd
       -0.08071051 0.009173499 0.049163975 -0.032225534
0003a0 33 d4 8b bd cf f2 23 3d 75 23 55 bd 1c a8 0a 3d
       -0.06827583 0.040026482 -0.052035768 0.033851728
0003b0 29 b9 71 3d 0c d8 1b 3c 60 d9 67 3d e0 f1 90 3a
       0.059014473 0.009511959 0.05660379 0.0011058412
0003c0 0f 39 1f 3d c9 e4 d6 3c 56 e8 14 bd 75 41 f7 3d
       0.038872775 0.02623214 -0.036354385 0.12073032
0003d0 f3 30 c4 3c c1 32 b8 3d c3 a1 0c bd 44 68 dd 3d
       0.023949122 0.089940555 -0.034333955 0.10810903
0003e0 91 bc e4 bc 48 6d 1d 3d 7c 23 00 be 31 b0 60 3c
       -0.027921947 0.038434297 -0.12513536 0.013713882
0003f0 2c 7f d9 3d c4 84 41 bd e8 bd 4c 3a d6 74 b8 3d
       0.10619959 -0.047245756 0.00078102807 0.0900666

encode_conv1.bias f4 [4]
000000 26 f8 76 3d 55 b1 52 3d 40 a0 1e 3c 3b 83 de 3c
       0.060295247 0.05143865 0.009681761 0.027162185

encode_conv2.weight f4 [4, 4, 3, 3]
000000 0b 07 3f 3e c6 25 f7 3c c8 bc e2 3d 9e cd f2 bd
       0.1865503 0.030169379 0.110711634 -0.118556246
000010 9a a1 70 3e 78 4f e4 bd f2 59 0c 3e 01 2c 81 3d
       0.23499146 -0.1114797 0.13706186 0.06307221
000020 ea 2f 45 bd f2 63 86 3d 22 59 38 be cd 16 0b 3d
       -0.048141398 0.06562032 -0.18002751 0.03395729
000030 1a 17 9f 3d 5d 50 18 3a c0 3e 2a bd 01 38 4e 3e
       0.07768078 0.0005810315 -0.04156375 0.20138551
000040 9d 44 03 be 65 fa 7a be e7 61 05 3d 9b f7 dc bc
       -0.12819143 -0.2450958 0.03256407 -0.026973536
000050 3d 34 aa bd f3 22 3b 3e 99 8a b6 3c 18 3b cc bd
       -0.08310745 0.18275051 0.022282885 -0.09972209
000060 d3 6f 18 3e 93 ce 2f bd 22 d6 02 be b5 07 09 be
       0.14886408 -0.042921614 -0.12776998 -0.13381846
000070 dd 3b cd 3d ac 5f 93 3e ce 87 0e bd fc 4a d0 bd
       0.10021184 0.2878393 -0.034797482 -0.10170552
000080 db 35 e8 3e 56 f1 38 be 5b 51 b0 be 17 c9 2f 3e
       0.45353588 -0.18060812 -0.3443707 0.17166553
000090 ee 91 f0 bd 8f a9 3f 3e 17 b0 4c be 8d 1c 01 3e
       -0.11746584 0.18717025 -0.19989048 0.12608548
0000a0 c0 0d af bd 42 80 a0 bd 3a 12 c7 3c bf 34 ea bd
       -0.085475445 -0.07836963 0.024300683 -0.11435842
0000b0 99 5e 4d be 99 9e 28 3c 26 c6 c1 3d 0c 0b 20 3e
       -0.20055617 0.010291719 0.09461622 0.15629214
0000c0 00 47 71 3e 57 c0 59 3e 85 f6 c2 bd 39 be e9 3d
       0.2356224 0.21264778 -0.09519676 0.11413235
0000d0 d5 9e 53 3d 2f f6 de bd 96 eb 23 3d 2a f2 12 bd
       0.051665146 -0.108867995 0.040019594 -0.035875477
0000e0 45 1e 9f 3d 3a df 4a 3e 77 ba ad bd 38 7e 09 3e
       0.07769445 0.19811717 -0.08482831 0.13427055
0000f0 7e 68 4e bc ed 41 99 3d 5f ee d0 3d c9 40 ba bd
       -0.012598155 0.074832775 0.10201716 -0.09094388
000100 40 14 81 3e 36 bc 30 3e a1 e9 6b 3e d5 7f a0 3e
       0.25210762 0.17259297 0.23038341 0.31347528
000110 5b 74 26 be d8 c7 5c be 0a 9b 51 3e 92 37 b2 3e
       -0.16255324 -0.2156061 0.20469299 0.34808022
000120 cc 0a 29 be 8e 60 6b bc 46 6f 0f 3e 9f 1d b4 bd
       -0.16508025 -0.014366282 0.14007291 -0.08794712
000130 53 c0 82 be 1c 92 8a 3e 32 b7 e2 bd 1a 13 e8 bd
       -0.25537357 0.27064598 -0.11070098 -0.11331768
000140 f2 a2 7c 3e 7b c5 90 bd cf 05 be 3e b2 ea 35 3e
       0.24671534 -0.070689164 0.37113807 0.1776531
000150 13 83 40 be 5f 2d 6c bd 20 aa 94 3d 99 2f 6b be
       -0.18800001 -0.057660457 0.07259011 -0.22967376
000160 ff b4 91 3e 76 7f 25 3e 74 f9 9d 3d 4c a8 76 3e
       0.28458402 0.16161904 0.07713595 0.24087638
000170 dc 09 09 be 92 5e 6c 3e ee 7e a8 3c d4 20 c3 bd
       -0.13382667 0.2308295 0.020568337 -0.09527746
000180 06 13 ad 3d d0 b1 72 3e 7d d6 1b be 5b 15 34 3e
       0.08450894 0.23700643 -0.1521854 0.17586271
000190 a1 67 c4 3c 62 c3 84 3d b6 9b ed 3c 31 09 b3 3d
       0.023975195 0.06482579 0.029004913 0.087419875
0001a0 50 23 e4 be 8a 86 58 3e 10 3c a1 3e e4 ff d9 3d
       -0.4455819 0.21145073 0.31491137 0.106445104
0001b0 94 9a bb bd 45 ea f2 3d 1e b2 4f be 62 36 b3 bb
       -0.09160343 0.118610896 -0.2028279 -0.0054691294
0001c0 f5 f3 b7 bd 06 03 84 b9 7f 0a 08 3e c4 87 18 be
       -0.08982078 -0.00025179255 0.13285254 -0.1489554
0001d0 e2 2c 4b be 96 94 23 3e 4b 87 ff bc 1f e0 17 be
       -0.1984134 0.1597465 -0.031192442 -0.14831589
0001e0 c1 99 e3 3d a3 0e 01 3e 5d 91 bf 3c 5c 2c 97 bd
       0.111133106 0.1260324 0.023384744 -0.07381508
0001f0 9f a9 b6 bd 84 89 37 3d e1 22 8f bd e8 04 6d 3e
       -0.089190714 0.04480888 -0.069890745 0.23146403
000200 c1 ed 7e 3e a8 78 7e bd 33 de 0f 3e 59 72 c0 bd
       0.24895383 -0.062126786 0.14049606 -0.0939681
000210 c1 3d 08 3e 2b 34 ac bd 97 c1 79 3e 9a 4c 51 bd
       0.13304807 -0.08408388 0.24390255 -0.051098444
000220 5e a3 7b 3e cb 79 6f 3e e0 92 03 bd 67 0c 91 3d
       0.24574038 0.23386304 -0.032122493 0.07082444
000230 44 8b 15 3e 37 4d 17 be 0a a0 05 3c 01 19 7e 3e
       0.14603907 -0.14775549 0.008155832 0.24814226

encode_conv2.bias f4 [4]
000000 37 cc e7 bc 6f 01 f5 bd ac c8 6c bd e6 a2 90 3c
       -0.02829562 -0.11963164 -0.057808563 0.017655801

encode_conv3.weight f4 [8, 4, 3, 3]
000000 ed 97 dd bd 4a 2b 7c be 21 3e 73 3e a9 2a 1d be
       -0.10819993 -0.24625888 0.23754169 -0.15348305
000010 ea 0b 87 be 49 37 e5 3d db 6e 26 be 90 08 23 3e
       -0.26376277 0.111921854 -0.16253226 0.15921235
000020 6e a1 90 3e 2b 4b dc bd e0 c9 e1 3c 0b 73 6d bd
       0.2824816 -0.10756525 0.027562082 -0.05797104
000030 5f 76 7f be f4 a2 79 bd 59 47 26 3e ee 2e 2b be
       -0.24947499 -0.06094642 0.16238154 -0.16717121
000040 40 15 01 3d 85 0d e1 3d 8a fb 1d 3c 4b 37 bc 3d
       0.031514406 0.10988907 0.009642491 0.09190234
000050 50 61 03 3d a9 9b 17 be 49 49 55 be b4 a4 c0 3d
       0.032075226 -0.14805473 -0.20828737 0.09406415
000060 e1 7f a6 bc 40 97 8f bc 98 2b 12 bd 5c 99 6d bd
       -0.02032465 -0.017528176 -0.035686105 -0.058007583
000070 c9 dd e7 bc 22 50 a8 3d ef d5 68 be 87 80 37 bd
       -0.028303998 0.08218409 -0.22737859 -0.044800308
000080 60 84 cf 3d ab 05 bc 3c 00 fa 27 3e f2 35 b2 bc
       0.101326704 0.022951921 0.16403961 -0.021754239
000090 f6 12 9e 3d f1 22 79 3e 3f a7 b1 bc 48 7d 60 be
       0.0771846 0.24329735 -0.021686194 -0.21922791
0000a0 a2 92 42 3d 3a 0b e3 3c 18 28 96 be cd 77 0f 3e
       0.04750312 0.027715314 -0.29327464 0.14010544
0000b0 0b 21 3a 3d 34 d7 56 3e c0 3d 6e 3e fd 72 27 3e
       0.04544167 0.20980531 0.23265743 0.16352458
0000c0 28 e0 82 3e d8 c4 e4 3d a8 ac 39 3e 69 eb 7b bd
       0.25561643 0.111703575 0.1813227 -0.0615038
0000d0 5c ce 60 3e 9b fd d2 3b 15 2c 92 bd 4f bd 7a bc
       0.2195372 0.0064389235 -0.07137314 -0.015303924
0000e0 af b1 3d 3d a4 58 fb 3d c1 4b 0b 3e f0 5a 79 bc
       0.04631203 0.12272766 0.13603117 -0.015219435
0000f0 34 1d 20 3e 61 98 ca 3d 45 1a 18 3e 80 fb 1e 3e
       0.1563614 0.09892345 0.14853771 0.15525627
000100 4f ae 95 bd 28 34 34 be 9f dc f4 3d b4 d1 d3 bd
       -0.07308637 -0.17598021 0.11956143 -0.10342732
000110 eb 36 60 bd 7e 36 f3 3d 5f 9d da 3c 26 02 82 3d
       -0.054739874 0.11875628 0.026686369 0.06348066
000120 54 94 10 be 32 2a 54 bc 4e 3c 90 3d 16 ae 39 be
       -0.14119083 -0.012949513 0.07042752 -0.18132815
000130 ad e4 fa bd 5e ad 42 3d 31 81 ea 3d 48 2e 59 be
       -0.12250648 0.047528617 0.114504226 -0.21209061
000140 51 9c 90 3e 2a 5e 89 3e 8e 4c 00 bd db 27 ad bd
       0.2824426 0.26829654 -0.03132301 -0.084548675
000150 21 85 d5 3e 76 5f f1 bd 36 29 1b 3e c9 2a ae 3e
       0.41703132 -0.11785786 0.1515244 0.34017017
000160 36 62 bf bd 97 75 42 3e da 54 65 3e ea 30 7c bd
       -0.09344904 0.1899017 0.2239565 -0.061570086
000170 16 9b 01 be 98 2d a1 3c d6 43 f4 3d 7d 87 64 be
       -0.12656817 0.019675061 0.11927001 -0.2231731
000180 28 cf e0 bd cb 97 27 3d d6 9b 58 be 70 69 6a bc
       -0.10977012 0.040916245 -0.21153197 -0.014307365
000190 0e ad 33 3e 32 39 33 3e 60 2b a6 3e ef 17 b0 bd
       0.17546484 0.17502287 0.32454967 -0.08598315
0001a0 6c 02 b7 3d 5c 6e b4 3e d4 0c b1 3d 6e 33 6a 3e
       0.08936009 0.35240448 0.08645025 0.22871181
0001b0 2d 9f 87 be 51 17 ce 3e 5b 2a f5 3d 5d f1 46 be
       -0.2648863 0.40252164 0.11970969 -0.1942801
0001c0 a6 4a b6 3e 03 e1 b9 bc 9d 31 56 be aa e8 88 3e
       0.35603827 -0.022690302 -0.20917363 0.2674001
0001d0 e5 54 92 3e 37 ae a1 3e fc a8 b3 3d ad d9 81 3d
       0.28580394 0.31578228 0.087724656 0.063403465
0001e0 a7 d0 5a 3e 0d c8 59 3d a1 37 3b bd 7e 9d 89 3d
       0.21368657 0.0531693 -0.04570735 0.067194924
0001f0 62 ab d8 3d 30 e5 26 3d d3 f5 31 3e cb f4 e4 3d
       0.10579564 0.040745914 0.17378931 0.11179503
000200 10 f2 b3 bc e7 f4 71 3e c4 65 2c be 7f f5 05 be
       -0.02196601 0.23628579 -0.16835696 -0.1308193
000210 7d a1 6d 3e e3 fa 07 be bc b0 29 3e c5 ed 09 be
       0.23206134 -0.132793 0.16571325 -0.13469608
000220 a8 c2 a7 bd 4d 39 94 bc 18 15 95 3d 4e 45 7c 3d
       -0.081914246 -0.01809373 0.07279414 0.06158953
000230 3b 91 dd bd 23 64 06 3e 8f 74 58 3d 29 6c 0a 3d
       -0.10818716 0.13124137 0.052845534 0.033794556
000240 6f d1 c3 bb 2b 6d 5a be e4 53 55 3e d3 85 72 3e
       -0.005975894 -0.21330707 0.20832783 0.23683862
000250 db 1a 43 be 5c 08 b2 3e 98 36 8f 3d 75 a6 d1 bd
       -0.19053213 0.34772003 0.06992835 -0.10236827
000260 18 cf 8e 3e 98 ca e9 bb e2 c9 09 be 41 ca f9 3d
       0.27892375 -0.0071347468 -0.13455918 0.1219678
000270 cf 54 0f 3e 35 c7 99 3c d1 6b b8 3c 49 c2 3d 3e
       0.13997196 0.018771747 0.022512348 0.18531145
000280 23 7b 12 3e 75 7b 24 3e 00 c2 2e be 32 e0 27 3e
       0.14304785 0.1606272 -0.17066193 0.16394117
000290 36 8c 98 bd f8 46 04 be ba f7 80 3e 26 ff 02 3e
       -0.07448618 -0.12917697 0.25189 0.12792644
0002a0 48 3c 80 3d 28 1f 87 3d d4 28 32 3d 3b 37 9d bd
       0.06261498 0.065977395 0.043495968 -0.0767655
0002b0 1a 58 7a bc f1 cc 47 3e 55 13 af 3d b5 03 08 3e
       -0.015279794 0.19511773 0.08548609 0.13282664
0002c0 6a 83 aa 3d 1e 6b ca bd e9 de 81 bd ab 7f 4f 3c
       0.083258465 -0.09883712 -0.06341345 0.012664716
0002d0 89 a9 ad 3c 7b 50 8b bc a2 5d 34 be b6 e0 00 3b
       0.021199005 -0.01700615 -0.17613843 0.0019665188
0002e0 65 82 10 be 46 e5 03 be 96 4b 15 be a9 80 ee 3d
       -0.14112242 -0.1288043 -0.14579615 0.11645634
0002f0 33 65 7b ba e7 06 0a be 06 9b 1b 3e 51 17 87 3e
       -0.000958997 -0.13479196 0.15195855 0.26384977
000300 c8 43 93 bd f1 5a c3 3d c6 bf 66 3e ec 97 d5 bd
       -0.071906626 0.0953883 0.22534093 -0.104293674
000310 03 a8 bd bd 8a e1 58 3d 89 18 4f 3e 80 ea 70 bd
       -0.09260561 0.052949466 0.20224203 -0.058817387
000320 dc a9 bf 3e 7f dd ba 3d e8 e4 8f 3d 1a 78 73 3d
       0.3743428 0.09124278 0.07026082 0.05944071
000330 ff 00 8e 3d d3 4e 4f 3e 74 79 16 3e de 4c 94 bd
       0.06933784 0.20244913 0.14694768 -0.07241224
000340 af a5 65 3e cb c7 2b 3e 63 86 42 be 24 7a 4a 3e
       0.22426485 0.16775434 -0.18996577 0.19773155
000350 09 fb 9c bd 0a 94 12 3e 40 03 3c 3e 8e ab 10 be
       -0.07665069 0.14314285 0.18360615 -0.14127943
000360 8a c9 80 bc be 34 15 3e 1c fa 99 bd 2b d4 0b bd
       -0.015721101 0.14570901 -0.07518408 -0.034137886
000370 c6 ec a2 3e 52 51 4f 3e 14 34 8e be 65 4b 29 bc
       0.3182127 0.20245865 -0.27774107 -0.010332917
000380 16 e9 92 3e 85 e1 42 3e 47 cc c2 bd cc f0 a9 3d
       0.28693455 0.19031341 -0.09511619 0.082978815
000390 30 59 14 bc 30 3b a9 3d 81 b4 41 bc 2c a6 32 3c
       -0.009054467 0.08263242 -0.011822821 0.010903876
0003a0 40 3c aa 3c 59 16 90 bb 34 90 c7 bd 9c b8 79 3d
       0.020780683 -0.0043971953 -0.097443014 0.060967073
0003b0 f8 51 48 3d 85 6c b5 3d dd 1b e0 3d 9a 8f 14 3e
       0.048906296 0.08858589 0.109428145 0.14507905
0003c0 81 49 97 3e 84 0f 37 bd 21 5c b7 bd dd ae 33 3c
       0.29548267 -0.04469253 -0.08953119 0.010966984
0003d0 36 a5 59 3d 8a a8 c0 3d 30 76 79 3d 67 60 23 3e
       0.053136073 0.09407146 0.060903728 0.15954743
0003e0 7d 60 2b 3e ca 9d bd 3d 90 3d 83 3d a5 d2 d3 bb
       0.16736026 0.092586115 0.064082265 -0.00646432
0003f0 13 a6 ed 3d 0e c1 f1 bb e0 26 81 3b 1f 87 8e 3e
       0.11603942 -0.0073777502 0.003941402 0.27837464

encode_conv3.bias f4 [8]
000000 82 66 19 be d9 cc 16 3d 00 e9 15 bc a1 f7 66 3d
       -0.1498051 0.03681645 -0.00914979 0.0563885
000010 3b 79 c3 bd 41 c9 91 3d 3e 71 66 bd 7d 36 18 3e
       -0.09544607 0.07118464 -0.05626034 0.14864536

encode_conv4.weight f4 [8, 8, 3, 3]
000000 a2 09 b3 3d f9 cb 39 3e de ac 82 3e 29 ee 30 3e
       0.08742072 0.18144216 0.25522512 0.17278351
000010 dc 6b b4 3e f7 d8 11 3e 45 66 8d 3d 7c db ae 3e
       0.3523854 0.14242922 0.06904272 0.34151828
000020 d8 f5 30 3e 6d 70 b4 bd 65 83 89 3d 64 92 b5 3d
       0.17281282 -0.08810506 0.06714515 0.088658124
000030 b7 17 fd 3d 15 f6 c3 bc a5 a6 b0 3b 37 a3 1e 3d
       0.12358039 -0.023921052 0.0053909593 0.038729873
000040 67 a6 6e 3d f5 f6 c9 bd d6 0c a1 3c f3 0b 1d be
       0.058264162 -0.098615564 0.019659441 -0.1533659
000050 ec 4c 51 3e 14 bc 28 3e 80 e6 3c be 6e 63 d2 3d
       0.204395 0.16477996 -0.18447304 0.10272871
000060 86 8b d2 3d 66 c3 0f 3c f6 f1 75 39 ed a5 75 bd
       0.10280518 0.008774614 0.00023455158 -0.059972692
000070 8d bf 43 bd 9d 9a 5d 3d 00 b2 bc 3d 2c 4f 77 bc
       -0.0477901 0.05410253 0.09213638 -0.01509456
000080 37 90 eb 39 f1 57 1a 3d 2f 1c a9 bc ad cc b0 bc
       0.0004493014 0.037681524 -0.020643322 -0.021581972
000090 9d 41 2c 3b e7 37 39 3b 82 85 e2 bc 60 2c 39 3c
       0.0026284226 0.002826208 -0.027651552 0.011302084
0000a0 a6 a1 87 bd ec a7 15 3e 7b a4 76 3d 6d 99 f6 bc
       -0.06622629 0.14614838 0.060215455 -0.030102456
0000b0 8a 2a 99 ba d7 a6 e1 3d 81 35 a8 bd 9f 8b cc 3d
       -0.0011685651 0.1101815 -0.0821333 0.09987568
0000c0 c1 46 9d 3c 52 71 56 bd 79 db 62 3d 95 ed 84 bd
       0.019198777 -0.052354164 0.055385087 -0.06490628
0000d0 26 0e fd 3d ab 60 9e bd 28 af 46 3d ca 2c bd bb
       0.12356214 -0.07733282 0.048506886 -0.0057731615
0000e0 dc ba 1f 3d ca 67 fe 3d d8 46 bb bc 7c e3 99 bd
       0.038996562 0.1242214 -0.02286093 -0.07514092
0000f0 70 d9 2c 3e 62 51 c6 3d 5c 3b be 3d 3a 9d e2 3d
       0.16879821 0.09683491 0.09288666 0.11065145
000100 aa 2c 08 bd e4 a5 d0 3d f7 d1 02 3e 0c 7f c2 3a
       -0.03324572 0.10187891 0.12775408 0.0014838888
000110 5c 5a 5d 3d 60 88 e7 3d cc 38 0c be f9 a7 47 3e
       0.05404125 0.11305308 -0.13693541 0.1949767
000120 cc 80 47 3d c3 74 4f be 28 28 0f bc 5d b5 9b bd
       0.048706815 -0.20259385 -0.008737601 -0.07602952
000130 6b 73 aa bd 93 ce d3 3d 63 78 03 3d 58 86 10 3c
       -0.083227955 0.10342135 0.03209723 0.008821093
000140 94 92 c6 3c 6f e9 b5 3d b8 03 db bc 4b 90 22 3e
       0.024239816 0.088824145 -0.026735172 0.15875356
000150 9b 5e 8e 3d 6a ea 80 3d 8f 78 e2 3d 2f 3a 61 bd
       0.06951638 0.06294711 0.11058151 -0.05498713
000160 08 4e 76 bb e0 06 9c 3d cb 09 0b be 3c 98 09 3e
       -0.0037583131 0.07618499 -0.13577954 0.13436979
000170 81 2d 13 3e 11 cf 90 bd 27 a3 1c 3e 04 ba bf 3d
       0.14372827 -0.07070745 0.15296613 0.093616515
000180 68 4d 20 be c7 ee cc 3c 03 1e e8 3d e4 1f 6c bd
       -0.15654528 0.025016202 0.11333849 -0.0576476
000190 32 e4 e6 bd 50 a3 bb 3d aa c6 cd bd 82 aa d6 3b
       -0.112739936 0.09162009 -0.10047658 0.006551088
0001a0 aa ad ca 3c d2 3a 79 bd c6 6b d1 bd 62 77 4c 3c
       0.024741013 -0.06084711 -0.10225634 0.012479635
0001b0 5a 39 c2 bd d9 2d 12 3e 8e 67 0c 3d dc 94 9b 3d
       -0.09483595 0.14275302 0.034278445 0.07596752
0001c0 3f 31 9b 3d 52 e5 62 bc 56 ff 37 3d 44 a8 e3 3c
       0.07577752 -0.01384862 0.04492124 0.027790196
0001d0 74 53 2e 3c 25 af 92 3d a9 3f 55 3c 30 87 f7 bb
       0.010640014 0.071623124 0.013015666 -0.0075539574
0001e0 47 e1 99 3d 75 d7 5b bd fc f4 18 bd cb 91 94 3b
       0.07513671 -0.053672273 -0.03734301 0.0045339814
0001f0 b2 4e a7 3d 36 ef 07 3e e3 57 f6 3c b0 3e 08 bd
       0.08169307 0.13274845 0.030071205 -0.03326291
000200 5c 25 2c 3e c5 a8 37 3d 43 f1 7c 3c a9 06 44 3e
       0.16811126 0.044838686 0.015438381 0.19143166
000210 6f 08 69 bc 37 52 18 3e aa 2b 5f 3e 13 56 36 bc
       -0.014223202 0.14875112 0.21794 -0.01112892
000220 a1 81 cb bd 4e 9b 65 bd 6f 4b 36 bd 10 d8 6f 3d
       -0.09936834 -0.056056313 -0.044505533 0.058555663
000230 59 c1 c5 3d 23 d2 69 be 7a 5e b6 bb dd df 8a bd
       0.09656019 -0.22834067 -0.0055654617 -0.0678098
000240 17 d0 5b 3d 96 60 f3 be 45 84 0a 3d cf 4b e3 3d
       0.053665247 -0.47534627 0.03381755 0.11098444
000250 30 f6 1f be 2d 47 6d be 37 5d 71 3d 1c 85 aa be
       -0.15621257 -0.23171683 0.058926787 -0.3330468
000260 69 fc fd bd fb cc b6 3d 0e e5 d0 bd bd a8 b1 3d
       -0.12401659 0.08925816 -0.10199939 0.086747624
000270 6b b8 f0 bc ca f5 4b 3d bc 53 18 3d 6d 94 f4 3d
       -0.029384812 0.04979495 0.03718923 0.119423725
000280 d5 23 1b 3d 19 64 d7 3d 96 81 b5 bb c8 81 8b 3d
       0.03787597 0.10517139 -0.0055391295 0.06811863
000290 51 bc d1 bd d2 b1 99 bd 7a 76 ee 3d 77 34 bb bd
       -0.10240997 -0.0750462 0.11643691 -0.09140866
0002a0 42 b9 45 be 83 ec c3 3d da c7 8c bd 26 f3 26 3d
       -0.19308951 0.095665954 -0.06874056 0.04075923
0002b0 e3 5b e3 3b e9 7d 03 3e a0 12 fb bc c9 4d 8d bd
       0.006938444 0.12841 -0.03064853 -0.06899602
0002c0 42 41 09 3d 4b 47 31 3d 8b 92 13 bd d0 80 18 3e
       0.0335095 0.04328088 -0.036028426 0.14892888
0002d0 71 fa 01 be 00 82 0d 3e cc 44 77 3d 0f c4 88 3d
       -0.12693192 0.13819122 0.060368344 0.0667802
0002e0 b3 1a b2 bc 12 ec 5b bd 1d 76 97 3d 95 11 dc 3d
       -0.021741247 -0.05369193 0.07395575 0.10745541
0002f0 84 45 46 3b 4b a4 41 bb d2 22 ce 3d 10 a7 2c 3d
       0.0030253837 -0.002954739 0.10065235 0.04215151
000300 de d5 1c bd 38 e9 9f bd 2e 7e b2 3c 25 f1 b5 bd
       -0.038289897 -0.07808155 0.021788683 -0.08883885
000310 ba 36 31 bd 1d c5 f3 3c 5e d9 90 bd 46 8f 9f 3c
       -0.043265082 0.029757077 -0.070727095 0.019477498
000320 38 36 19 bd cb 6f 84 3c df 74 4d 3d 62 39 7b 3c
       -0.037405223 0.016166588 0.050160285 0.015333505
000330 ff 9e f5 bb 19 d6 1c bd 08 52 30 3e e0 f4 16 3e
       -0.0074957605 -0.038290117 0.17218792 0.1474185
000340 b2 78 3d 3e 0c 43 23 be 0b d0 41 bd d3 92 29 3e
       0.18503073 -0.15943545 -0.047317546 0.16559915
000350 a1 fa 16 be a4 11 ba bd 23 ae ac 3c 92 6f c7 bd
       -0.14744045 -0.09085396 0.021079129 -0.09738077
000360 ee f3 cc 3c 65 c3 ab 3e 56 ad a3 3d ee 0f 10 3e
       0.025018658 0.33547512 0.079920456 0.14068577
000370 85 df 33 3e b4 6a 7f 3d df 66 04 bb 5c a8 5b 3e
       0.17565735 0.06235762 -0.0020202918 0.21450943
000380 4a 1e 0e 3e f1 8e c7 bd 43 17 f8 bc b6 30 0d bd
       0.13878742 -0.09744061 -0.03028453 -0.034470282
000390 47 12 ec 3d e8 c3 4d 3d 72 dc b3 3d af d1 0e 3d
       0.115269236 0.05023566 0.08782281 0.03486794
0003a0 b5 5e 83 3d 3a 5e 8b bc 0a 1a 69 3c 9f 35 5a 3d
       0.06414548 -0.017012704 0.0142274 0.053273793
0003b0 ea 7f 55 3e 53 76 9e 3d c1 cc 05 3c 71 9e 12 3d
       0.20849577 0.07737412 0.008166493 0.035795633
0003c0 7c 8f 21 3e 36 ed f1 3c ed c6 2b 3e 20 06 85 3d
       0.15777391 0.029532056 0.16775103 0.06495309
0003d0 a1 39 06 3e 60 ef da 3d 15 cd c0 bd f7 ae c4 3d
       0.13107921 0.106901884 -0.09414116 0.096036844
0003e0 5c 2f fb bd d7 e5 01 bd 62 3c ec 3d 2e a2 cf bd
       -0.122648925 -0.031713333 0.115349546 -0.10138355
0003f0 0a 42 29 3e 1c 0f d5 3d 86 41 68 3c 6f d1 10 3e
       0.16529098 0.104032725 0.014175778 0.14142393

encode_conv4.bias f4 [8]
000000 32 78 f2 3c 59 65 f1 bd 9e 51 38 bb 72 8f d6 3d
       0.02959833 -0.11786909 -0.002812482 0.10476579
000010 5c 3b 1f be 89 44 63 3d 72 dd ce 3d d9 b0 36 3e
       -0.15549988 0.055485282 0.10100831 0.178409

fc1_1.weight f4 [200, 192]
000000 49 d5 64 3d 83 06 48 bc d3 ed d1 3d e0 45 23 3d
       0.055867467 -0.012208584 0.102504395 0.03986156
000010 33 59 d7 3d 23 ae 00 3e b6 a8 42 3d dd 84 c0 3a
       0.1051506 0.12566428 0.047524177 0.0014688034
000020 9c 1a 88 3d 36 78 0a 3e a4 3c fa 3c 3c a8 79 bd
       0.066457 0.1352242 0.030546494 -0.060951456
000030 c5 2a c5 3d 86 7e 8e bd ad c9 bd bd e8 1a e4 3b
       0.09627298 -0.06957726 -0.09266982 0.0069612153
000040 6c d4 b2 bc 9e 78 03 3d 31 93 73 3c ec d1 d0 3d
       -0.021829806 0.03209745 0.014866636 0.101962894
000050 d9 4f 0b bc 66 aa 97 3c 90 5c 3e 3d 50 3d de 3c
       -0.008502924 0.01851387 0.046474993 0.027128845
000060 29 f7 16 be ce 3f 19 be 8b ac 1c be cb b3 c0 39
       -0.14742722 -0.14965746 -0.15300195 0.0003675505
000070 9e 79 6a 3c 10 8f d1 bc 95 5e 2a bc c8 2d e8 3c
       0.014311222 -0.025580913 -0.010398527 0.028342143
000080 e3 48 07 3d a5 6e 41 3d e3 86 0d bd 1e bc 23 bd
       0.033028495 0.04722466 -0.034552466 -0.039974324
000090 22 21 a9 bd 83 ce e8 3c ee 33 0d 3d 06 12 a0 bc
       -0.08258273 0.028418785 0.034473352 -0.019539844
0000a0 49 f0 6c 3d eb 1e b2 3d ae cc 00 3d 0f dd 42 bd
       0.05784634 0.086973034 0.031445198 -0.0475741
0000b0 92 e2 47 bd 41 0a c3 3d ea 49 95 bc 82 d6 68 3d
       -0.04880006 0.0952344 -0.018223722 0.056845196
0000c0 ea 5f 32 bc 4b a5 23 3d 28 59 c8 3c 7f 3e 63 3d
       -0.0108871255 0.039952558 0.024456576 0.055479523
0000d0 6d 60 8b bd c0 7d b6 3d 52 23 56 bc 46 7a 54 3d
       -0.06805501 0.08910704 -0.013069944 0.05187442
0000e0 a3 e8 b2 3d 1a 07 45 bd e8 30 d9 bc 0d 02 4e 3d
       0.08735778 -0.048102476 -0.026512578 0.050294925
0000f0 8f bd c6 bd 7b 50 06 3e 2c aa 9b bc 8f 27 80 bd
       -0.09704124 0.13116638 -0.019002043 -0.06257545
000100 b5 73 c0 3d f3 dc 87 3d 96 a8 73 3d 13 da 3e 3d
       0.09397069 0.066339396 0.059486948 0.04659469
000110 a7 25 b8 3d a3 47 5a 3e ee b3 91 3d b3 b8 c8 3d
       0.089915566 0.2131639 0.07114397 0.098008536
000120 83 12 99 3b 13 19 e6 3d 8c d3 80 3c d4 3d ab bc
       0.004671396 0.11235251 0.015725873 -0.020903505
000130 7b 29 fc 3d de 9f 66 bc 26 f5 e2 bc 9b ac 97 ba
       0.12312599 -0.014076201 -0.027704787 -0.0011571826
000140 c7 86 8a 3c a5 bb f8 3d c3 5f 3e 3c 48 1d 9f bd
       0.01690997 0.12145165 0.011619511 -0.07769257
000150 fb c9 15 3e 49 24 bc bd 43 1d 3b bd ac 3d 48 3e
       0.1462783 -0.09186608 -0.045682203 0.19554776
000160 5f 22 0c 3d 04 13 95 3d 20 10 0d 3d 46 87 c7 3d
       0.034212466 0.072790176 0.034439206 0.09742598
000170 27 76 f6 bc 7a 9b a1 bd 9a dd 91 3d a9 b4 19 3b
       -0.030085636 -0.07890983 0.07122345 0.002345363
000180 97 fb 8a be 8d 94 52 3d 10 74 0e 3d 9c de f6 3b
       -0.27145073 0.0514112 0.034778655 0.0075338613
000190 ee a4 28 3d ed b7 4f bd e7 a9 66 3d ab 2e 02 bd
       0.041172914 -0.050712515 0.056314375 -0.031782787
0001a0 bf 3e b3 3d 0f bf 50 bd 7b fd da 3c 83 73 86 bc
       0.08752202 -0.050963458 0.026732197 -0.016412502
0001b0 8f e6 96 3d f8 46 66 bd ba 08 14 3d 67 02 00 3b
       0.07368194 -0.056220025 0.036141135 0.0019532682
0001c0 62 66 4f bd 82 1b a1 3d fb f0 b0 3d 8d 24 96 3d
       -0.05063475 0.07866575 0.086397134 0.0733119
0001d0 76 dc a1 3d c6 b6 e2 3d 0b 76 7f bb 37 68 2e bd
       0.07903378 0.110700175 -0.0038980271 -0.042579856
0001e0 1d b1 23 3d f6 8c 8a 3d ae 15 39 3c ac 65 c9 3d
       0.03996383 0.067651674 0.011296673 0.098338455
0001f0 59 64 a5 3d e2 c4 3d 3d ba 27 63 3d ec b0 25 3d
       0.080757804 0.04633034 0.055457808 0.04045193
000200 83 f6 2f 3d 2f 11 54 3d fd 9f 53 bd 1b 56 43 3d
       0.0429597 0.0517742 -0.05166625 0.04768954
000210 bb 3e 76 3d d5 03 a6 bb 96 7f a3 3d 06 11 c8 3d
       0.06011842 -0.005066375 0.079833195 0.09768872
000220 68 8b 3f bc ae 1e 50 3d 59 50 e5 3c be b5 a7 3d
       -0.011690952 0.05081051 0.027992414 0.081889614
000230 b9 5d 79 bc b8 cb d5 3d 7c 22 cf bc 68 17 eb 3c
       -0.015220099 0.10439247 -0.025284998 0.028697684
000240 55 d2 12 3d 3c 52 eb bc 58 b4 1a 3d ce 6f f0 3b
       0.03584512 -0.028725736 0.037769645 0.007337547
000250 5c f0 f2 3d d6 db eb 3c ef f2 a3 3d ca a0 fd bb
       0.11862251 0.02879135 0.0800532 -0.007740115
000260 99 88 77 bd 47 34 21 3d 85 72 a7 bc f7 49 85 bb
       -0.060433004 0.039356496 -0.02044035 -0.004067655
000270 4b 70 35 3d f9 20 47 bd a8 99 4a bd 32 f3 ff bc
       0.044296544 -0.04861543 -0.049462944 -0.031243894
000280 58 ad 1e 3d 2e 3f 81 3d 7d c7 88 3c 42 33 87 3d
       0.038739532 0.06310879 0.016696686 0.066015735
000290 eb 42 a4 bc c1 9f 3f 3b 1d cd bc bc cc 68 84 3d
       -0.02005144 0.0029239508 -0.023047024 0.06465301
0002a0 93 52 b5 bc 72 7d 99 3d 46 f9 09 3d 97 c8 94 3c
       -0.022134101 0.0749463 0.03368499 0.018162055
0002b0 76 f9 5b 3d 70 b1 e5 3d 89 5e fd 3c c0 f6 80 bc
       0.0537047 0.11215484 0.030928867 -0.01574266
0002c0 1b 0d 63 3d 0c 58 83 3d b8 3a 72 3d af ff 89 3d
       0.05543242 0.06413278 0.05913803 0.06738221
0002d0 24 e3 01 be d6 65 b8 3d bd f3 89 be 69 04 bc 3c
       -0.12684304 0.09003799 -0.2694377 0.022951322
0002e0 d0 88 2c 3e b6 1f e3 3c 61 25 44 3c 11 d0 dc bc
       0.16849065 0.027725082 0.011971802 -0.026954683
0002f0 04 01 a6 3d 7c 3b 3c 3d 90 a9 16 bc 09 cd f3 3c
       0.081056625 0.045955166 -0.0091957 0.029760854
000300 64 00 b4 3d 7f 90 67 3d b1 68 12 3e e8 1a 9f 3e
       0.08789137 0.056534287 0.14297749 0.31075215
000310 62 f9 9d 3d 53 9b 0b bd e7 14 39 3e 90 ee 68 3d
       0.077135816 -0.034083676 0.1807438 0.056868136
000320 c9 01 01 bd d7 2b c2 3a 2d 01 3d bd 90 3b 7a bd
       -0.031495843 0.0014814091 -0.0461437 -0.06109196
000330 75 82 27 bd 12 7e d8 bd a9 80 b5 3e f1 28 fa 3c
       -0.040895898 -0.10570921 0.35449722 0.0305371
000340 da 7c 0b bd 6f 2b 1e 3e fe 35 7f bd a8 34 91 3d
       -0.034054615 0.15446256 -0.06230735 0.070901215
000350 22 29 63 3e 8c 79 33 3e f4 f2 23 3e 96 cb 80 3e
       0.2218366 0.17526835 0.16010648 0.25155324
000360 2e e0 58 be 48 39 f2 bd 73 67 06 bf db 7c e3 3d
       -0.21179268 -0.11827332 -0.525016 0.11107799
000370 42 d6 f2 3d 44 db ee 3b d6 a5 25 bd c0 62 38 3d
       0.11857273 0.007289322 -0.040441357 0.04501605
000380 a0 74 92 bd d9 a7 17 be 05 57 20 be 69 99 24 be
       -0.07151151 -0.14810123 -0.15658195 -0.16074146
000390 0f 3b 4b bd 48 41 49 be 4e 7a 97 be b0 bb 4e be
       -0.04961687 -0.19653809 -0.295855 -0.20188785
0003a0 0a ad 47 be 1f 58 82 3d 41 a9 32 3c 64 8b a7 bd
       -0.19499603 0.06364464 0.010904611 -0.081808835
0003b0 25 f2 2b be b4 0e 06 be 1d 53 96 3d 5e 09 23 be
       -0.1679159 -0.13091546 0.07340071 -0.15921542
0003c0 1d 2e 2e 3e 88 d9 55 3e 65 96 92 3d 6f d9 95 bc
       0.17009778 0.20883763 0.07157592 -0.018292157
0003d0 e9 c6 e7 3d 2c 7b ad 3d 89 76 f6 bc d6 c2 42 3e
       0.11317236 0.08470759 -0.030085819 0.19019637
0003e0 a5 e2 02 3e 08 7f b6 bd 45 a5 34 3e e7 0f a3 bd
       0.1278177 -0.08910948 0.1764117 -0.079620175
0003f0 b3 af 79 bc 47 36 05 bd f2 16 65 be 7a 2e 38 3d
       -0.015239644 -0.032522466 -0.22372034 0.0449662

fc1_1.bias f4 [200]
000000 3d 6d 9c 3c 88 7c d8 3d 97 fa 5b 3d ea fd 6a bd
       0.019095058 0.105706275 0.053705778 -0.057371058
000010 00 36 b4 bb 86 fc af 3b a2 d5 5a 3d 9c 0e 14 bd
       -0.0054996014 0.0053706793 0.053426392 -0.036146745
000020 1b 3e f6 3c 55 54 f5 bb d4 14 62 3d cd 71 bf 3b
       0.030058911 -0.00748686 0.055195644 0.0058424235
000030 2b 8e cb 3c 56 05 aa 3d ad ca 59 bc 09 18 70 3d
       0.024848064 0.08301799 -0.013292951 0.05861667
000040 ee 10 e8 3a b0 55 3e 3d b4 57 f4 bc 81 63 d2 3c
       0.0017705241 0.046468437 -0.029826976 0.025682213
000050 60 fb 07 3e 81 38 7d 3c 72 88 74 3d 93 88 fb bc
       0.13279486 0.015455366 0.059700437 -0.030704772
000060 d3 db 17 bd b7 45 a5 3c 04 86 b5 3b 43 ac a5 3d
       -0.037074875 0.020174844 0.0055396575 0.08089497
000070 89 52 11 bd 94 61 05 bc 34 00 91 3d c9 21 84 bc
       -0.035479102 -0.00814094 0.07080117 -0.016129391
000080 52 c4 0e 3a ad b5 a4 3d 45 31 a7 3c 27 00 aa bb
       0.0005446124 0.080424644 0.020409236 -0.0051880064
000090 8b 1d c8 bc 0c 83 49 bd 1b 8d 6c 3c 11 d6 9b 3b
       -0.02442815 -0.04919724 0.014437939 0.0047557433
0000a0 d1 4b 56 3d 85 92 ca 3c fa 58 fd 3c 60 e7 30 3d
       0.052318398 0.02472807 0.030926216 0.043189406
0000b0 0b f8 ac bc 3a c2 2f bc 54 b9 a5 3d 0e d5 e5 ba
       -0.02111437 -0.01072746 0.08091989 -0.0017534809
0000c0 60 da ab bd 23 26 67 bc c5 e3 42 3c be 91 66 bd
       -0.08391261 -0.014108214 0.011895125 -0.056291334
0000d0 c5 35 19 bd 92 c5 8f 3d 63 2e 0c 3d 12 9d 3d bc
       -0.037404794 0.070201054 0.034223925 -0.011573093
0000e0 3b 56 a0 3c 0e 0c 6e 3d 9d 54 3b 3d 36 20 11 3d
       0.019572368 0.058116965 0.04573499 0.03543111
0000f0 20 cd b5 3d 46 68 33 bd d2 f9 3b bd cf c7 27 bd
       0.08877015 -0.043800615 -0.045892544 -0.040962037
000100 63 1c 31 bd 95 2e 67 bc 0e 86 07 bc 62 11 4b bd
       -0.043239962 -0.014110227 -0.008271707 -0.049577124
000110 8b a7 0c 3d a3 71 a3 bc 2b 7b 92 bd 34 6c e0 bc
       0.03433947 -0.019951647 -0.07152399 -0.027395345
000120 2e 62 ac 3d 5a e5 6d 3d 1a 27 06 bd 44 89 89 3d
       0.08417164 0.058080055 -0.032752134 0.067156345
000130 9e 05 f3 bc 7e f8 7b bd ca 89 6c bd 97 9e d5 bc
       -0.029665764 -0.061516277 -0.057748593 -0.026076598
000140 68 eb 81 3d e1 4b 42 bd 4f 8f 93 bc 94 63 08 3d
       0.06343728 -0.047435645 -0.01801267 0.03329809
000150 ef 00 b9 bc 46 7c 05 bc 31 fb 3a 3d f0 c9 1e bd
       -0.022583453 -0.008147305 0.04564971 -0.0387668
000160 22 32 8f bd 0f bf 54 3d 26 70 02 3d 4b 18 52 3d
       -0.06991984 0.05194002 0.031845234 0.0512927
000170 59 f4 59 3d ba d9 3d bb 0a e6 92 3d 64 89 db 3d
       0.053211544 -0.0028968886 0.07172783 0.107195646
000180 9f 32 91 3c 59 bd e7 bc c8 3a 29 3d 8d b2 09 3d
       0.017724333 -0.02828853 0.041315824 0.033617545
000190 6b 0c 58 bc 64 24 1a 3d d2 92 51 bd 58 d3 57 bd
       -0.013186554 0.03763236 -0.05116541 -0.052691787
0001a0 81 7b a5 3d d6 24 04 bd 86 69 38 bd e9 f2 5d bc
       0.08080197 -0.032261692 -0.04502251 -0.013546684
0001b0 35 9d a8 3c e0 86 66 bc 2b 88 8f 3c c6 78 8f 3d
       0.020582775 -0.014070243 0.017520985 0.070054576
0001c0 06 53 1b 3d 3e 89 54 bc 92 bd 24 3e e8 7f 7a 3d
       0.037920974 -0.012972174 0.1608794 0.061157137
0001d0 d8 34 92 bd 55 b4 44 3d 5d 9b 59 3c dd 52 0a bd
       -0.071389854 0.04802354 0.01328167 -0.03377043
0001e0 b8 47 bc 3c b5 ad 7f 3d cc fa a8 3d bf 85 66 3d
       0.022983417 0.06242152 0.08250961 0.056279894
0001f0 84 3e 97 bb 65 f1 67 3d 2d 10 50 3d 53 8c ad bd
       -0.0046156067 0.056626696 0.050796676 -0.0847403
000200 dc c8 43 bd 7e 47 b1 3a 00 7d 9d bb 29 4a 12 bd
       -0.047798976 0.0013525335 -0.004806161 -0.035715256
000210 b4 69 d6 3d 38 10 bc b9 66 99 69 3d f5 41 25 bd
       0.1046938 -0.00035870238 0.057031058 -0.040346105
000220 2e 9b 70 bd 6c ad 5c 3b be 67 92 bd 89 3a b2 ba
       -0.05874174 0.0033672703 -0.071486935 -0.0013597767
000230 4f 9e 74 bd 79 e8 8f 3d 95 95 97 bc 55 dd 08 bd
       -0.059721287 0.070267625 -0.018503943 -0.033414204
000240 7b cb 68 3d ba 41 31 bd fe b8 7d bd e3 e7 12 3c
       0.05683468 -0.043275572 -0.061944 0.008966419
000250 18 37 c0 3c 92 2a 9e bc 6b 3f 9b 3c c6 6b 37 bd
       0.02346377 -0.019307408 0.018951138 -0.044780515
000260 33 e9 a7 3d 6e ff 64 bd 10 77 5f bc c1 76 60 bc
       0.08198776 -0.05590766 -0.013639227 -0.013700188
000270 d6 1f 71 3d b6 c4 93 3d 37 09 1e bd c4 e7 06 bc
       0.05886825 0.07215254 -0.038583007 -0.008233968
000280 fc 32 81 3d 4f 77 ef 3c a7 2e a2 bd d9 28 6c bd
       0.063085526 0.029231695 -0.079190545 -0.057656143
000290 95 5b e7 bb 97 ce 6e bd 53 73 8c bc 1a bc 81 3c
       -0.007060478 -0.05830249 -0.017144835 0.015836764
0002a0 55 de 77 3d ff ed 10 bc 44 e1 da 3d 85 bf 3f bb
       0.060514767 -0.008845805 0.10687497 -0.0029258442
0002b0 89 fc e9 bc 33 e4 4a 3c c7 d1 c6 3c 4e 51 ef bb
       -0.028562801 0.0123835085 0.024269952 -0.0073033934
0002c0 d9 d8 5f 3c 22 de 00 3d d3 bf 7e 3d e2 31 1e 3d
       0.01366254 0.031461842 0.062194657 0.03862179
0002d0 c0 4c 29 3d 8d 7d 2e 3d 30 5f 6e 3d 52 fe 1c bc
       0.04133296 0.042600203 0.058196247 -0.009582119
0002e0 c1 d4 29 3d bc 38 c6 bc 66 b6 3a bd 3f 7f 3c bc
       0.041462664 -0.024196975 -0.045584105 -0.011504947
0002f0 f8 8a d3 3d 33 73 1e bd 24 87 07 bd c1 b3 6d bd
       0.103292406 -0.03868408 -0.033087865 -0.058032755
000300 c3 66 2d 3d e4 f5 99 bd da 21 12 3d 9b d2 55 bd
       0.04233433 -0.07517603 0.035676815 -0.052202802
000310 69 ec 6f 3c 8a 5f 3d bd f7 63 85 3d 48 a6 36 3d
       0.014643767 -0.04623369 0.065132074 0.044592172

fc1_2.weight f4 [200, 192]
000000 74 35 2e bd 25 fa 6a bd 74 09 13 bc c2 75 1c bc
       -0.042531446 -0.057367463 -0.008974422 -0.00954956
000010 78 81 11 bc 34 65 51 3c e1 b7 ac bc 5f 65 ca bc
       -0.008880965 0.012780476 -0.021083774 -0.02470654
000020 47 6b 12 3d f5 d7 84 3d 9e 58 53 bd 7c e7 e3 bc
       0.03574684 0.06486503 -0.051598184 -0.027820341
000030 8a fa 8c 3d b3 d7 1e 3d 07 83 f9 ba b9 15 43 3d
       0.06883724 0.038779926 -0.0019036242 0.04762814
000040 e4 42 27 3d 87 9c 96 bd 41 53 25 bd 7e 5d f0 3c
       0.040835276 -0.07354074 -0.0403626 0.029341456
000050 f1 48 65 bc 58 3a c7 3b 3d e9 4d bc 85 ed e0 3c
       -0.013994441 0.006079953 -0.012567815 0.027457008
000060 ac c6 80 3c ea 7d 53 bc 71 a0 82 bd 63 b8 03 3d
       0.015719734 -0.012908438 -0.06378258 0.032158267
000070 30 3e 32 3c d4 3e 19 bd 57 e7 04 bc aa 03 3e 3d
       0.0108790845 -0.037413433 -0.008111796 0.046390213
000080 da 2d f8 3c fd f6 5d 3d 19 97 b5 bd 1b 68 9a bd
       0.030295301 0.054190625 -0.0886671 -0.07539388
000090 5b 37 7c bc 1c 5f 07 bd ee ce 35 3d f8 db 6a 3c
       -0.015394057 -0.033049688 0.044386797 0.014334671
0000a0 e9 79 d5 3c fe 36 84 bd bd bc e7 bc b0 2e c0 bc
       0.026059108 -0.064558014 -0.02828824 -0.023459762
0000b0 0d 45 b1 bd c3 7d f1 bc 2f 4b a6 3c 5c 44 85 3c
       -0.086557485 -0.029478913 0.020299522 0.016267948
0000c0 3f 05 7a bc 25 8b d3 bc 80 61 66 3d f0 5c 8e bd
       -0.01526004 -0.025823185 0.056245327 -0.0695132
0000d0 52 8b ae 3c 2d 6b 07 3d 67 6d df 3c d4 31 a5 3c
       0.021306667 0.033061195 0.027273847 0.020165361
0000e0 7c 8e e2 bc 0b 43 10 bc 40 89 8d bd d5 a5 06 bd
       -0.027655832 -0.008805047 -0.06910944 -0.032872993
0000f0 f9 28 1b 3c a3 55 9d 3c 8a 63 2e 3d 9f 91 28 bc
       0.009470218 0.019205874 0.042575397 -0.010288625
000100 86 ac 19 3d 52 0a 90 bb e3 af 8e bd 18 9b 6d bd
       0.037518047 -0.0043957615 -0.069671415 -0.058009237
000110 a5 43 fa 3c 4d a9 77 bd ff e1 fe 3c 57 70 87 bd
       0.030549834 -0.060464192 0.031113623 -0.06613224
000120 79 ee 94 3d 24 db 11 bd 36 9c 0f 3c ee 66 64 3d
       0.072720475 -0.03560938 0.008765271 0.055762224
000130 fd 2c 3b bd c6 46 46 3d a2 e2 3a bc f8 83 a7 3c
       -0.0456972 0.04840734 -0.011406573 0.02044867
000140 6a 15 7c bd 75 52 c8 3c a5 30 49 3d e2 e0 71 3d
       -0.06154386 0.024453381 0.049118657 0.059052356
000150 f9 b7 00 bc 5d f3 bf 3d eb 9e 00 bd 51 91 3e bd
       -0.0078563625 0.0937259 -0.031401556 -0.046525303
000160 55 08 40 3d 37 33 ab bc 5c e3 b5 bc 88 35 89 bd
       0.046882946 -0.020898445 -0.02220314 -0.066996634
000170 a9 95 89 3d bb 77 1c 3c 57 ca 4d 3d 61 02 55 bd
       0.067179985 0.00955003 0.050241794 -0.05200422
000180 88 c8 90 bd 82 a5 c5 bc 26 d8 3d bd 87 8f 10 bc
       -0.07069498 -0.024126772 -0.046348713 -0.008823282
000190 8f 66 b3 bd 9b 8b 71 3c b1 7c 82 3d ec 43 bb 3c
       -0.08759796 0.014742757 0.06371439 0.022859536
0001a0 6d 60 aa bc 35 77 d0 3d 0a f3 6e 3c 8e 0e 62 3d
       -0.020797933 0.10178987 0.014584312 0.05518966
0001b0 a7 45 e2 3c 42 04 59 3c 50 ae b9 3c ca 9e 4e bd
       0.027621103 0.013245644 0.022666126 -0.0504444
0001c0 39 a8 8b 3d 96 3d e8 3c cf f9 a1 bd 06 1d 5c bd
       0.06819195 0.028349679 -0.07908975 -0.053738616
0001d0 0f fc 27 bd 38 eb 0a 3c a5 0b 88 3b 16 74 66 3c
       -0.041011866 0.008478932 0.0041517788 0.014065763
0001e0 32 c4 63 3d b7 1d 85 3b 8b 0e 2b bd 9d 2f 92 bd
       0.05560703 0.00406238 -0.041761916 -0.07137988
0001f0 03 e5 8d 3d 56 51 1e bd 4f 95 92 bd d4 4e ab b9
       0.06928446 -0.038651787 -0.071573846 -0.00032674393
000200 93 73 9e 3c 01 ef 39 3d eb 44 93 3d ad 96 28 bd
       0.01934222 0.045393948 0.071908794 -0.04115932
000210 17 93 bb 3d 27 a4 3b 3d 54 19 e0 bc d1 c5 1e 3d
       0.091589145 0.045810845 -0.027355827 0.03876287
000220 9f fa 9e 3c 1d da 84 3c d1 e8 d1 bc 21 7f 9e bb
       0.019406615 0.016217286 -0.02562371 -0.0048369323
000230 3b 62 4d 3c 1f a1 1b 3b 35 42 9a 3c 16 30 a4 3d
       0.012535627 0.0023747159 0.018830398 0.08016984
000240 d1 5a 05 bd cc 60 86 bc 8e 23 63 3d 21 20 25 bc
       -0.032557312 -0.016403578 0.05545383 -0.010078461
000250 29 31 7f bd c3 1c 47 bd 8b 86 7b 3d 19 59 8b 3d
       -0.062302742 -0.048611414 0.061407607 0.068041034
000260 25 e6 f9 39 e6 e1 44 3d 3b 81 2e bd d8 9f 97 3c
       0.00047664452 0.048066996 -0.042603713 0.018508837
000270 47 c2 55 3d 93 b6 a1 3d 26 dd 97 3d e2 68 2c bd
       0.05218723 0.078961514 0.074152276 -0.04209221
000280 2e c8 6c bd 4e 17 bc bc 98 55 8a 3b 7b f6 20 3d
       -0.057808094 -0.022960331 0.0042216294 0.039297562
000290 c6 bd a0 3d 5c 09 2e bd a0 23 3c bd 7f f1 11 bd
       0.078486964 -0.042489395 -0.045932412 -0.0356307
0002a0 35 21 48 3d e3 4a 45 3d ce 8e 8c bc 04 a4 42 3c
       0.048859794 0.04816712 -0.017157938 0.011879925
0002b0 20 ad 27 3c 1f d6 a5 bc 64 aa 39 bd e8 9e 48 bd
       0.010234147 -0.020243702 -0.045328513 -0.04897967
0002c0 92 f7 20 3a 01 13 1f 3c 88 e9 3a bd 3d 8c 7e bd
       0.00061404065 0.009709121 -0.04563287 -0.06214546
0002d0 4a f4 dd 3a c9 7d 2f bd 53 43 76 bd 0b 6a 8a 3c
       0.0016933766 -0.042844567 -0.0601228 0.016896268
0002e0 5d b8 74 3d 91 ad 7c 3d 99 b6 82 bd 54 bd 9b 3d
       0.059746135 0.061688963 -0.06382484 0.07604471
0002f0 82 eb d4 3c 14 ee 5f 3d 60 65 01 3b 0e 9c 9f bc
       0.025991205 0.05467041 0.0019744262 -0.019483592
000300 e5 b9 79 3c 18 e1 88 bc b1 50 7d bd 34 bc ca 3c
       0.015242075 -0.016708896 -0.06184453 0.024747945
000310 cd 81 83 3c 01 e7 8c bd 91 65 54 bd 48 fe ab 3b
       0.016053105 -0.06879998 -0.051854674 0.0052488185
000320 2b 65 22 3d 03 1f 0e 3d e9 2c b2 bd 13 80 07 bd
       0.039647263 0.034697544 -0.08699972 -0.033081125
000330 01 90 07 be a1 ca fe bc 83 ee 59 bb 31 e5 8a bd
       -0.13238527 -0.03110248 -0.0033253736 -0.06781996
000340 fd fe 63 3b d4 93 c9 3c 22 e8 3a 3d 2b 21 ac bd
       0.0034789436 0.024606623 0.045631535 -0.08404764
000350 4c e5 6d bd 2a 91 17 bd 2b a3 b3 bd 80 5a 15 3d
       -0.058080003 -0.037003674 -0.08771356 0.03646326
000360 a9 9f 28 be 36 19 ba 3d 5d 37 79 bb 6b 07 be bb
       -0.16467156 0.0908684 -0.0038027384 -0.005799224
000370 57 07 e6 bc 81 51 6e bd a5 74 0d 3d a5 b9 56 bd
       -0.028079672 -0.058183197 0.03453507 -0.05242314
000380 32 85 c6 3d e2 18 ed 3c 10 5d db bb 0c 16 c4 bc
       0.09693374 0.02894253 -0.0066944435 -0.023936294
000390 fb 15 8f bd 1a 7f 00 bd 63 e6 39 bd b5 1a b5 ba
       -0.06986614 -0.031371213 -0.04538573 -0.0013817163
0003a0 92 d6 52 3d 74 17 6a 3d 5c 68 68 bd 9d d2 99 bd
       0.05147416 0.057151273 -0.05674015 -0.075108744
0003b0 e3 ac 17 3d 64 7a 80 bd c4 df cd 3c d9 0f ad 3d
       0.037030112 -0.06273344 0.025131114 0.08450288
0003c0 4f 5a 26 bd 87 47 81 3d ab 1b 0a 3d 3b 9c 85 bc
       -0.04061347 0.06312471 0.033717792 -0.016309848
0003d0 36 2b 4d bc 83 4a 99 3c 6c a2 35 3d ac ee 01 bc
       -0.012522509 0.018712288 0.04434435 -0.007930439
0003e0 ca 57 1c bd 3b 04 9d 3d e1 c7 02 bd 3c 32 42 3d
       -0.03816966 0.076668225 -0.0319289 0.04741119
0003f0 84 6e d4 3d 56 b2 8c 3d 23 f8 5d 3d 8c 59 b5 3b
       0.10372642 0.068699524 0.05419172 0.0055343565
