training_model/wandb/run-20200708_161717-11hehyl2/fir_6cov_1.pt (torch_old, 69680 bytes, 12 tensors)

encode_conv1.weight f4 [4, 12, 3]
00000000: 98ab cf3c 8154 913e 882a b93e 03b5 d5bd
00000010: 0b2f 75bd e278 9fbd f6d2 a83d ba32 14bd
00000020: b3c1 e83d d0f1 693d 1515 56bd 4fb4 09bc
00000030: 7a0c 28bd d151 433e 475f f83e a414 563d
00000040: 9cc3 c4bd f6e8 cfbd dc5f 193e 7b57 533b
00000050: 506e 723d d0db a3b9 a699 7dbc 4595 083e
00000060: f65e 55bd a6c0 863d 69f7 993e fb18 bd3d
00000070: 4d81 24b9 9f6b 9abb 40b2 e93b 7642 b33d
00000080: 352e dbbb 023f 9bbd 6ed6 c3bd 630c 4a3e
00000090: 21d9 6ebd 6b26 4d3e 628a 4abd 987c 8f3e
000000a0: 6887 6c3e 0c84 283e f58d 403e 4b01 08bd
000000b0: d67e 1a3e 9804 25bd e7bf 513e 4b7b 043e
000000c0: eb5a 6abe b40f 913d a3ba 0c3e 1399 fa3c
000000d0: 7369 4c3e 0c9b 273e 2b37 21bd 5fb7 14bc
000000e0: 6c31 073d ce31 003c 2630 e1bc 51a8 55bd
000000f0: 3c96 3cbd 68bc 9d3d daef 56bd 1fcb 403e
00000100: cc69 493d c4fc 4b3d 31fc d2bd 4e20 b63d
00000110: 7ce9 3f3c e0a5 c4bc fa1a 623d 801a d33d
00000120: e5a2 97bd 0332 28be ad78 4fbb 8097 1dbe
00000130: 66a9 843d 4d17 213d 4f14 34be db73 aebd
00000140: ab2c 18be 8120 9f3d ce2b e5bd 1165 02be
00000150: 5421 9bbd 1713 f63d a59b 88bd f6c3 f13a
00000160: 5120 b5bd 5a5d 913b 4e16 1cbd a911 8abd
00000170: c007 cbbd 54c9 dd3d feeb 56bb b269 77bd
00000180: dc0f 1dbe 6335 c83d 135a 0e3e 40d0 0bbd
00000190: e725 303e 5a4c 59bd 8f0e 70be 4d29 b83d
000001a0: 6fbf 6d3d fa0d 88bd 495a 513d 931c 903c
000001b0: a1eb c13c 9493 d9bb 233e 8b3d 32dd 5c3e
000001c0: 13c3 993d 5563 7a3d f8be 65bd dca5 063e
000001d0: 9453 3d3c af25 943b c117 86bd 1fee cc3d
000001e0: 8d08 e73d 340e 833d f987 9fbd dcf7 c43d
000001f0: 8d6a 433d 1204 b13d 0464 08bd 170a b43d
00000200: a565 fc3c a3aa a0bd 3835 083e dba4 3a3e
00000210: 8422 0dbd 89b9 153e 6213 2d3e 82c8 553e
00000220: 50a7 7a3e 6536 193e 347a 083e 81b9 fd3b
00000230: e50c 153e 423a b43d 9e00 cc3d d696 d93d
0.025350377 0.28384784 0.3616526 -0.10434916 -0.059859317 -0.077867284 0.082433626 -0.03618119
0.1136507 0.057115376 -0.0522662 -0.008404805 -0.041027524 0.19074179 0.4851019 0.05226578
-0.09607622 -0.10151856 0.14977974 0.0032248187 0.059187233 -0.00031253556 -0.015478527 0.13338192
-0.052092515 0.065797135 0.3007157 0.0923328 -0.00015688427 -0.0047125365 0.0071318448 0.08752911
-0.006688858 -0.07580377 -0.095623836 0.19731288 -0.05831254 0.20034187 -0.04944838 0.28024745
0.23098528 0.16456622 0.18804152 -0.033204358 0.15087447 -0.040287584 0.20483361 0.12937658
-0.22886245 0.07083073 0.13743071 0.03059057 0.199621 0.1636774 -0.039359253 -0.009076922
0.033006117 0.007824374 -0.02748878 -0.052162472 -0.046041712 0.07701951 -0.052474834 0.18827485
0.04917316 0.049801603 -0.10302008 0.088928804 0.011713382 -0.024004877 0.055201508 0.10307789
-0.074041165 -0.16425328 -0.0031657622 -0.15389824 0.06477623 0.039328862 -0.17585872 -0.085181914
-0.1486079 0.077698715 -0.11189996 -0.12733866 -0.07574716 0.1201536 -0.06670312 0.0018445242
-0.088440545 0.004436177 -0.03810721 -0.0674165 -0.099135876 0.10829416 -0.003279447 -0.060403533
-0.15338081 0.09775808 0.13901548 -0.03413415 0.17201959 -0.05305133 -0.23443054 0.089922525
0.058043893 -0.06643291 0.051111493 0.01759175 0.023671927 -0.006639907 0.06798961 0.21568754
0.075079106 0.061129887 -0.056090325 0.13149208 0.011555571 0.004521094 -0.065474994 0.100063555
0.11280928 0.063991934 -0.077896066 0.09617588 0.047709037 0.086433545 -0.033298507 0.08790987
0.030810187 -0.07845046 0.13301551 0.1822695 -0.034456745 0.14621557 0.16901925 0.20877269
0.24477887 0.14962156 0.13327867 0.007743061 0.145557 0.08800174 0.09961055 0.10624473

encode_conv1.bias f4 [4]
00000000: 1283 b4bd 73b4 153e 7837 1d3e b870 8b3d
-0.08814062 0.14619617 0.15353191 0.06808609

encode_conv2.weight f4 [4, 4, 3]
00000000: 1894 20be 498f 42be d04b 86be 8ad1 c5bd
00000010: 684c 21be 65aa 67be fcb0 06bd bc4d e33d
00000020: 1f7a f8bd 88a4 f33d 4bcc afbe 140b 31bd
00000030: 4f7f 283d 489f 71be 1c9f 8b3e 8c7b 75be
00000040: 74c2 bd3e cc30 a83e c6f7 0c3e 24cb a73d
00000050: 46d3 d3bd 69e8 6abe acc6 493e 3696 a83e
00000060: 471d 533d edeb d9bd 924e 64be 746f e1be
00000070: a549 e83c c55c 4b3e faf7 dcbd 2a24 7ebd
00000080: 7c31 56bd 3537 ecbe 68bc 1f3e 8a11 71be
00000090: acaa c53e c2f5 973e 5573 66bc ba4f 64bc
000000a0: b759 75bd 838f 803d 3a30 2dbf 982d 57be
000000b0: e773 84be 8086 a53e ae43 16be 1cbd dc3d
-0.15681493 -0.18999971 -0.26229715 -0.09659107 -0.15751803 -0.22623594 -0.03288363 0.11098811
-0.12132668 0.11896616 -0.3433555 -0.043223456 0.041137036 -0.23595917 0.27269828 -0.2397291
0.37062418 0.3284973 0.13766393 0.08193043 -0.103430316 -0.2294022 0.19704694 0.32927102
0.051541593 -0.106407024 -0.22295597 -0.44030344 0.028355429 0.19859608 -0.10789485 -0.062046207
-0.052293286 -0.4613587 0.15599215 -0.23541847 0.38606775 0.29679686 -0.014065583 -0.013935024
-0.059900012 0.06277373 -0.6765171 -0.21013486 -0.25869676 0.32329178 -0.14674255 0.10778257

encode_conv2.bias f4 [4]
00000000: 592e f13a 5114 063e 1c9a 2c3e 452b 6cbe
0.0018400653 0.13093688 0.16855663 -0.23063381

encode_conv3.weight f4 [8, 4, 3]
00000000: 2995 863e 95d6 663d 38a5 2a3e 28da 583e
00000010: 65b2 963e 7d5b 133e 82c7 063e bc81 0c3e
00000020: 34b7 7cbd f46d 82bd 7d89 44be 5f04 823e
00000030: 3791 dcbd ff90 2ebe 0037 6dbe 3a3d 873e
00000040: 0d96 82be e4d7 b9bd d46b 8d3e 75f8 8fbe
00000050: 7979 1a3e 57a6 c43d 8aba 2d3e df1f 25be
00000060: 1d14 603e d873 1a3e 9b6d 9d3d de02 66be
00000070: fa03 8b3e 10c0 853e 9e12 85be 9390 9b3e
00000080: 6b4b 40be 00f5 94be 3250 803c ceb0 0abe
00000090: 3faf b9b9 07c7 54be 42a0 923e e6fc 4d3e
000000a0: 8bd8 353e f477 bfbd c5fb 723d 8cae e0bc
000000b0: df17 9d3e e576 b7be dd5e 793e 4280 42be
000000c0: 6304 eb3d 420d 5dbd dee5 c83d 3b39 663d
000000d0: 47cc d23d dc35 823e 97a2 8c3e 20ea 283e
000000e0: 12f0 84be 5095 4bbd ba00 9b3e abed 99be
000000f0: f3a0 63be 1080 623e 9165 17bd 9867 123d
00000100: 4441 20be bd0d a43e 98f1 c23d 7555 66bd
00000110: 0ea1 8ebe 8b0e 993d a8a5 96be d1d4 cc3d
00000120: 8044 c1bd 4291 3d3e d77a 793e 3ca3 33be
00000130: 6846 09bd bdb8 15bd d78c 8cbe e2ca 853e
00000140: be27 93be 757b 703d 18ec 4dbe 4020 96be
00000150: e65b 38be c3af 083d aeaa 94bc ce4e 003e
00000160: 5fc6 89be 4645 f43d 9451 993d 3f37 a73d
00000170: 0308 2d3e 759e 8f3d 05d3 acbd d5a5 e23e
0.26285675 0.056356985 0.16664588 0.2117697 0.2943298 0.14390369 0.13162044 0.13721365
-0.061698154 -0.06368628 -0.19193073 0.2539396 -0.10769885 -0.17047499 -0.23165512 0.264139
-0.25505105 -0.09074381 0.2762133 -0.28119245 0.150854 0.09602039 0.1696569 -0.16125439
0.21882673 0.15083253 0.07686921 -0.22462031 0.2715147 0.26123095 -0.25990766 0.3038374
-0.1877877 -0.2909317 0.01566324 -0.13544008 -0.00035416518 -0.20779048 0.28637892 0.20116004
0.17758386 -0.09349051 0.059322137 -0.02742698 0.30682275 -0.35832897 0.24352594 -0.18994239
0.11475446 -0.05396772 0.09809469 0.056206923 0.10292869 0.25431716 0.27467796 0.16495562
-0.2596441 -0.049702942 0.30273992 -0.3006414 -0.22229366 0.22119164 -0.036962096 0.035743326
-0.15649897 0.3204173 0.095187366 -0.056233842 -0.2785725 0.07473477 -0.2942326 0.10001529
-0.094368935 0.18512443 0.24363266 -0.17542738 -0.03351441 -0.036553133 -0.27451202 0.2613135
-0.28741258 0.058711488 -0.20109594 -0.2932148 -0.18003806 0.033370744 -0.018147793 0.12530062
-0.26909158 0.11927275 0.07486263 0.08164834 0.16897587 0.07012645 -0.08438686 0.44267145

encode_conv3.bias f4 [8]
00000000: 27cb 04be 170c 92ba 2c4e 603e fb2d b1bb
00000010: 727f 1dbd 4903 0ebe de1b 483d 83fd cf3d
-0.12968121 -0.0011142519 0.2190482 -0.0054070926 -0.03845162 -0.1386844 0.0488547 0.101557754

encode_conv4.weight f4 [8, 8, 3]
00000000: e3a8 8d3d 6f8c 1e3e 75a3 2fbe 5d6c 96bd
00000010: 50c3 cf3d d9a8 803e 2b60 0abd d099 413d
00000020: 2a38 a4bd f71e 80bc 226a 7e3d ca26 cebd
00000030: a6ae 223e a018 2f3d 3607 acbd 6451 86bd
00000040: a689 7ebb c2f7 c23c 3254 ddbc 53f2 263d
00000050: 5cdf 40be 1e4d 67bc 7df2 24bc 7dc1 743e
00000060: 5eb3 50bd 0cf5 44bc 7e08 383e e46c febd
00000070: 998e f23d 7c84 733e 6646 7fbd 3373 503d
00000080: 0256 e03b aa3b 603e f727 3bbe 0eeb f03d
00000090: 307c 7b3e c38e b53d b809 93be fd6f a9bb
000000a0: 60f5 6d3e 1013 11bd 4351 c93c 51b8 143e
000000b0: 6c49 0ebe 728a a23d e7d6 4abe a948 6f3e
000000c0: 0ae8 843d 6ea3 29be a3ec 4b3e 5ce3 8d3d
000000d0: 99d6 4bbe 6750 cd3d 7663 c8bd 0d16 8f3d
000000e0: 7ab4 f73c c4a0 32bc 4907 4a3e 8d33 143e
000000f0: 4eee 22be d745 d33d 5700 673e 86db 0e3e
00000100: 2cf1 bb3c 1dbd fc3d 2884 40be dd31 383e
00000110: 5eab d03c 1159 2d3e 0f69 013e 4461 e03d
00000120: d84f f4bc 9e91 783d dcb8 843e ec75 22be
00000130: 1d6e 6f3e bea1 5bbe 4d33 2f3d eadc 8f3d
00000140: 4c1e 913e 8bdf 02bd 7f74 2bbe 7357 2b3e
00000150: cd61 1ebe 08c0 133e 4189 343e 8510 82bd
00000160: dacb b13e 38d1 99bd d5aa 47be c420 61bd
00000170: e88e 0dbe 5aa9 cb3c 7adc 13be b6dc 213e
00000180: 4f33 533e a94e 17be 9605 40be e7dd 983e
00000190: 69b9 6e3e df84 ba3d 1b54 73be bb3a 57bf
000001a0: fc2c 2b3e 5d23 f13e f20d e0bd 9d99 0bbf
000001b0: 7333 2a3e 917c 733e a11e a6bd 76f3 95be
000001c0: 9481 a93e 53e2 67bd fad1 a7bc 84e9 07be
000001d0: bd5a 4a3e caa4 073e 4b42 6e3e 5955 7bbd
000001e0: d3a2 503e abc4 6a3d 5d75 173e b856 dbbc
000001f0: 1d91 5ebd 0800 e93c 8c91 66bd b846 e13d
00000200: 23dc bbbc 45ad acbd ad6b 35be d1b2 f3bc
00000210: b08b 7cbd 7ee5 bdbd 2e59 0f3e 8d39 623e
00000220: ae7d 783d 2ec3 1abd 2c40 1abc 2b58 92bc
00000230: 1fa1 14bd bcbc 6b3e 268d b6bd f054 09be
00000240: 798e ab3b 5924 be3b 85dd 553e a7ff 81be
00000250: ced7 2cbc a384 08be 0cc3 bdbd 7c03 993e
00000260: bacd a23e 5eba 6cbc 2af0 4c3d c392 3d3e
00000270: 1907 3a3e e7b1 463d 5633 4bbd 4a6e d5bb
00000280: 4c0d c03e f14a 85bd 31ab 0a3e 635c a1bd
00000290: b520 fc3d 9c36 e13d 4738 3fbe 609f fc3c
000002a0: d9f6 833d 30b6 f9bd 59eb 723e 0476 523e
000002b0: 9038 71bd 1646 22be 08d6 d73d 40fd 203e
000002c0: 2898 19bd 3bdd 953c de3d adbd 4e97 20be
000002d0: cfc4 ab3c ee7f 773e 745b 39bd e594 aabd
000002e0: 83a8 753d f55f 30be 9092 c53b 3d64 f53c
000002f0: 8f14 cdbd 5dbc 83bd ad95 f0bd 1226 d03d
0.06916978 0.15483259 -0.17152198 -0.073448874 0.10144675 0.2512882 -0.03378312 0.047265828
-0.08018525 -0.015639765 0.062112935 -0.10065992 0.15886936 0.042748094 -0.08399813 -0.06558493
-0.003883937 0.02379978 -0.027017687 0.040758442 -0.18835205 -0.014117507 -0.010067579 0.23901935
-0.050952308 -0.012021314 0.1797199 -0.12423113 0.118436046 0.23781008 -0.062322997 0.050891113
0.0068461904 0.2189776 -0.18276964 0.11763583 0.24559093 0.0886512 -0.28718352 -0.0051708207
0.23238134 -0.03541857 0.024574881 0.14523436 -0.13895196 0.079365626 -0.19808541 0.23367561
0.064895704 -0.1656625 0.19914488 0.06928131 -0.19906081 0.10025101 -0.09784596 0.06986628
0.030237425 -0.010902587 0.19729342 0.1447279 -0.15911219 0.10316055 0.22558723 0.13950929
0.022942148 0.12340758 -0.18800414 0.17987771 0.02547234 0.16928507 0.12637733 0.10956052
-0.029823229 0.060685746 0.25922287 -0.15865296 0.23381849 -0.21448418 0.042773534 0.07024558
0.28343427 -0.03195147 -0.16743658 0.16732578 -0.15466996 0.14428723 0.17630483 -0.06350807
0.3472584 -0.075106084 -0.19498761 -0.05496289 -0.13824046 0.024861027 -0.14439574 0.15806851
0.20625041 -0.147761 -0.18752131 0.29856798 0.23312916 0.091073744 -0.23762552 -0.8407399
0.16716379 0.47097293 -0.1094016 -0.5453127 0.16621189 0.23777987 -0.08111311 -0.29287308
0.33106673 -0.056612324 -0.020485867 -0.13272673 0.19761176 0.13246456 0.23267476 -0.06136069
0.20374613 0.057316463 0.14790864 -0.02677475 -0.05433761 0.028442398 -0.056291148 0.10999817
-0.022932118 -0.08431486 -0.17716856 -0.029748352 -0.061656654 -0.09272288 0.13998863 0.22092266
0.060666732 -0.037783794 -0.009414714 -0.017864307 -0.03628647 0.23021215 -0.08913641 -0.13411307
0.00523549 0.005802673 0.20885284 -0.2539036 -0.010549499 -0.13331847 -0.09265718 0.2988547
0.31797582 -0.01444873 0.050033726 0.18513016 0.1816677 0.048509505 -0.049609505 -0.0065133916
0.37510145 -0.065084346 0.13541867 -0.078789495 0.12310926 0.10996744 -0.18673812 0.030837715
0.06443567 -0.12192953 0.2372259 0.20552832 -0.058891833 -0.15847048 0.1053887 0.15721607
-0.037498623 0.018293967 -0.08459066 -0.15682718 0.02096787 0.24169895 -0.045253232 -0.08329181
0.05997516 -0.17224105 0.0060294345 0.029955024 -0.10013687 -0.06432412 -0.117472984 0.10163511

encode_conv4.bias f4 [8]
00000000: 041d 143e 1b91 2ebe 2b12 e1bd e293 02be
00000010: 12a4 4abe e345 b73d 942c b4bd 211d 423e
0.14464194 -0.17047541 -0.109897934 -0.12751725 -0.1978915 0.08948877 -0.08797565 0.18956424

fc1.weight f4 [200, 56]
00000000: bdab b03d 9fae aabd 0bf5 9fbd 33de 263e
00000010: 1cbf a3bd 0c64 453d 5cbe b1bc 8354 b43d
00000020: 7a53 d1bd dc4b 403c e42a 3abe ba37 15bd
00000030: 1918 033b c53c bfbc 6a2e 80bd eef8 02bd
00000040: 0587 f1bc 8fcf 56bd f387 83bc 4fcc e83c
00000050: b452 153b a7c1 9fbc 27e1 a1be f1dd 5ebd
00000060: 478d f43c 6e22 eabc ed71 3fbb d04e 8c3d
00000070: 43ae 553c 2ef5 5ebe 622f 893e 7f36 babe
00000080: 6f21 08be be0e 443e 742b af3d c6a7 db3c
00000090: 7063 443e 0b12 53bd c07d e2bd 18f5 b6bb
000000a0: f7b2 2b3e 65b9 25bd 8add 043e 145e 953c
000000b0: f162 873d d50a 0cbd 2508 db3d eae2 1dbd
000000c0: 5424 673d d502 633d 4c24 2bbc 8058 063e
000000d0: abbe e33d ccde 43bd df35 a1bd e4d6 013e
000000e0: adc5 743d 1e50 293e 1238 d6bd c6e9 993d
000000f0: 61fe c23b a0b1 4cbd 4e24 213e ee43 88bd
00000100: 6356 ec3d 286f a2bd e840 21be 5770 ce3d
00000110: 9215 5cbc 9c7a cd3b 3708 793d 4607 493d
00000120: 1b34 da3c 2283 4e3d 657e 0a3e e83d fabc
00000130: 4175 0a3c 348f 313e 9378 8ebe 8b9d 8d3b
00000140: db1a 5e3d 14bd e3bd baaa 39bd e85c 11be
00000150: 5f63 31be 5466 abbe dceb 123e 7b2a cfbe
00000160: d448 23be bb26 e9bd e6e9 34be 66bc a1bc
00000170: 97e8 293e a30c 3bbd 6939 6ebd 91c6 913d
00000180: ef84 6a3d 4c0e 013d 2e4b e73d fd7b 04be
00000190: 94b8 7dbd 42dd cebd 1e45 8c3d c014 f6bd
000001a0: 2fa1 63bc 9871 06ba 5f85 8cbc 8f47 353c
000001b0: 9c65 32bd aa07 77bc 02f1 203e 1da8 8f3d
000001c0: 82d5 e43d 365f 81bd 6af7 bd3d 0822 e23d
000001d0: f951 573c 01ba 153e 19af 613d c0d2 1c3d
000001e0: 9b16 b8bd 8dff ac3d 1d56 4f3d 38d4 ebbd
000001f0: b36d 13be 7021 19bd 7c61 163e 5187 563d
00000200: 8c5f 93bd f011 0d3e 199e 303c 45af ee3d
00000210: 96df ee3c 81c1 773c 9513 dd3d c470 e2bc
00000220: b952 05be f52e 23be 3004 89bd 9621 eabd
00000230: 8384 fcbd 760b 29bd e3d8 663e c990 fc3d
00000240: 7523 46bd 8eb8 d33b bab1 e4bd 3c79 9e3d
00000250: c155 bc3d 38d1 eebd 7623 acbc 9c06 253d
00000260: e9ab 3d3c 3472 633d 4733 fb3d 5110 333e
00000270: 38c4 9cbd 0444 20be 7bee dc3c 5fe9 0bbe
00000280: 6a22 333d e4db c3bc cf46 983d 5789 4dbd
00000290: 75ab 223e 7a8b 5f3c 1e35 c53d d7ea ba3d
000002a0: 60fd 3a3e 590f e1bd ce47 1cbd e43c f43d
000002b0: 1719 e9bd dbb3 fe3d 946b 1b3e cb32 c53d
000002c0: 67dc a73d 0956 e4bd b21d a7bd d82b 02be
000002d0: 1bc7 15be bd34 46bd a920 85bd 4d96 cc3d
000002e0: 7f2b 9f3b 9d0a cfba f8a0 25bd be8f b13b
000002f0: 93b2 2f3d 25e6 b0ba 1151 3e3e 7218 72be
00000300: fc71 3dbe 5bc7 26bc 2ed4 553d f3c6 9fbd
00000310: 46cd 85bd 4766 03be 644e 593e 8fa3 55bd
00000320: a470 603d bdb8 1c3e fb80 40be b038 99bd
00000330: 7afa 2a3e 9242 dfbc b441 97bb e0eb 93bd
00000340: 7e7b 0d3e 1819 083e bd12 fb3d ff8b e03d
00000350: dab0 e1be eb37 13bc e159 5d3c 0f3e 1c3d
00000360: c680 b83d 10b6 993d 670f c33c ee9f f6bc
00000370: bf48 843d 03c1 333d 419a ec3c 4580 3fbc
00000380: 99a0 27bd 5fba 05be 4693 093c 8331 0c3c
00000390: 952d 0e3d f746 b1bd 2089 95bd 5b2e 77bd
000003a0: 6e30 1ebd d312 a4bd 12c4 8cbd e883 f13b
000003b0: bbf9 c93d 87ca 5dbd a945 7bbd fa83 cb3d
000003c0: cb39 aa3c 6d1b 033e 3e96 39bd bdff babd
000003d0: 11ca d1bd 2d27 02be 5ec4 02bc 6a2b 28bd
000003e0: ae68 c23d 827b 163e a535 bf3d 568b 09bd
000003f0: 5f28 e43d d7ce 9ebd bb9a 54bd 8fae 0ebe
0.086265065 -0.083340876 -0.0781041 0.162957 -0.079954356 0.048191115 -0.021697216 0.08805182
-0.10221 0.011736836 -0.18180424 -0.036430098 0.0020003377 -0.023344407 -0.06258853 -0.03197568
-0.029483328 -0.052444037 -0.016056037 0.028417734 0.002278489 -0.01950152 -0.3161709 -0.05441088
0.029852523 -0.02858087 -0.0029212192 0.0685097 0.0130420355 -0.21773216 0.26793963 -0.36369702
-0.13294004 0.19146249 0.0855321 0.026813399 0.19178557 -0.05153088 -0.11059141 -0.0055834167
0.16767488 -0.04046001 0.12975135 0.018233337 0.066106685 -0.034190018 0.10694913 -0.03854648
0.05643113 0.055422623 -0.010445666 0.13119698 0.111203514 -0.047819898 -0.07871603 0.1267963
0.05975883 0.16534469 -0.10459913 0.07515292 0.0059507345 -0.049974084 0.15736505 -0.066535816
0.115399145 -0.079313576 -0.15747416 0.10080021 -0.013432877 0.0062707197 0.06079885 0.049079202
0.026636174 0.050418027 0.13524778 -0.030547097 0.008450807 0.17339784 -0.27826366 0.004321759
0.05422483 -0.11120048 -0.045328833 -0.14195597 -0.17323063 -0.33476508 0.14347786 -0.40462098
-0.1594575 -0.113843404 -0.1766735 -0.019743156 0.16592632 -0.04566635 -0.05816022 0.07117952
0.05725568 0.031507775 0.11293636 -0.12937923 -0.061943606 -0.10100795 0.068491206 -0.120156765
-0.01389341 -0.0005128621 -0.01715344 0.011064424 -0.043553934 -0.015077511 0.15716937 0.07014487
0.11173536 -0.06316988 0.09275706 0.11041647 0.013142102 0.14621736 0.055098627 0.038286924
-0.08988687 0.0844718 0.050619233 -0.11515087 -0.14397316 -0.037385404 0.14685625 0.05237514
-0.071959585 0.13776374 0.010779881 0.11654524 0.029159348 0.0151218185 0.107947506 -0.027641661
-0.13019837 -0.15935881 -0.06690252 -0.11432187 -0.12329962 -0.041270696 0.22543673 0.12332303
-0.04837366 0.0064612096 -0.11166711 0.07737967 0.09196044 -0.11660999 -0.021013003 0.040289506
0.011576631 0.055528834 0.1226564 0.17486693 -0.07654613 -0.15650946 0.026969185 -0.13663243
0.04373399 -0.023908563 0.07435381 -0.050179806 0.15885718 0.013644094 0.09629272 0.091268234
0.18260717 -0.109892555 -0.038154416 0.119256765 -0.11381739 0.124366485 0.15177757 0.096288286
0.08196335 -0.111492224 -0.08159961 -0.12712038 -0.14626734 -0.04839014 -0.0650037 0.09989605
0.00485748 -0.001579601 -0.040436715 0.0054187467 0.04289491 -0.0013496323 0.18585612 -0.23642138
-0.18500513 -0.010179366 0.052204303 -0.078016184 -0.065332934 -0.12831984 0.2122131 -0.052157935
0.054794922 0.15304847 -0.18799202 -0.074815154 0.16697112 -0.027253423 -0.0046159867 -0.07222724
0.1381664 0.13290823 0.122594334 0.10964202 -0.4408024 -0.0089855 0.013510198 0.03814512
0.090089366 0.07505429 0.023811055 -0.030105557 0.06459188 0.043885242 0.028882148 -0.011688297
-0.040924642 -0.13059376 0.008396929 0.008556726 0.03471144 -0.086561136 -0.07301545 -0.060346942
-0.038620405 -0.08011403 -0.06873335 0.007370461 0.098620854 -0.054148223 -0.06134573 0.09937282
0.020779511 0.12803431 -0.045309298 -0.091308095 -0.10243619 -0.12710257 -0.007981388 -0.041057028
0.09492622 0.14695552 0.09336404 -0.033580147 0.11140513 -0.07754295 -0.051905375 -0.13933776

fc1.bias f4 [200]
00000000: 0769 883d 5db3 763d 6509 0c3d a48e 183e
00000010: 4a96 e03d 03d2 2d3d 87f4 df3d 937e 013e
00000020: f84e c4bd 4e59 f2bd d6c1 26bc e353 7e3d
00000030: 13f9 c2bd 2790 92bd 7928 8cbd 7931 3b3d
00000040: 3225 273d f2c6 023c f846 b9bd a882 d73d
00000050: 8645 fc3d 610b 0dbe 6675 683c fd65 83bd
00000060: 5211 953d 5232 d73d a402 d93d 5f56 e1bd
00000070: d827 623d 27e8 7c3d d128 173e 7ebd a9bd
00000080: 7c71 243e cac8 193e 1f81 283c 7dc8 e43c
00000090: 7c4c eb3d fa9a a43a 2e58 e8bd 984f b2bc
000000a0: 37ef dabd 7397 14bd 34e3 253d a0c1 3cbd
000000b0: d74d d8bd c25a d0bd 530c 64bd e564 df3d
000000c0: cf81 0e3e 06b0 4d3d f7f6 77bc d4cd 873d
000000d0: 6b6a 55bd ab66 d03d ccb4 8bbb 81bd d33d
000000e0: 491c 36bd 78ca e0bb 0fe9 023e 5d66 253e
000000f0: 8858 e4bd 1062 993c 2026 34be 40e8 e93d
00000100: 4f1b ddbd 2302 ebbd a871 aa3d 8e07 053e
00000110: 4aac aebd e391 d13d d288 363d 0f8b 0b3e
00000120: bf40 fc3d d71b 0dbe 01fd b23d e409 8dbc
00000130: 82f3 3a3d 451f e43d c952 283d ad1f b5bd
00000140: 02fd ab3d 41e6 f1bd 35e5 dc3d f1fe 2c3c
00000150: 1a63 283e e04b 0d3e 8230 a73d 6226 12bd
00000160: a0c1 1f3e a05c 9e3d 5466 433d 96e6 8bbd
00000170: 3b6f 2bbe 8e96 00be 16be e03d 96f0 b1bd
00000180: 5fb8 ee3d 593e ad3d 6630 d1bb a24d d83b
00000190: 7c56 bfbd 8cea 9b3c cc35 e93d 2aa9 fe3d
000001a0: a301 c23d 167b 943d 4c88 b23c 7b95 2a3d
000001b0: 37f4 103d 8bde 74ba a16b 1bbe 9b2d 123e
000001c0: edbc a1bd 9b3b 06be b56a c3ba de80 3c3d
000001d0: e292 623d 579e 843c 87c4 a33d f606 dabd
000001e0: 551b 813c a259 1bbd e975 cf3d c506 e9bc
000001f0: 9607 3ebe 0bec f43c faec 5d3d 9106 5abd
00000200: e595 dbbb d104 2dbd 6a66 c4bc 793c 1e3e
00000210: e7dd 6b3d 3e9a a93d ade2 bebb ddf7 a23d
00000220: 883c 01be ebd3 053e bceb e33d 07d1 153d
00000230: c887 f9bd f1c3 fabd 9100 9abd 0376 ad3d
00000240: 6c91 0f3e 6da8 e83d b351 993d 7bad f43c
00000250: bc48 c53c 622c a43d 8e31 4dbd f08e 4f3d
00000260: 4294 19be 1be2 2abe ad74 eabd b6ff 1e3e
00000270: 2bb5 a2bc 008f 293d 1bf8 24be 3110 fb3d
00000280: a716 21bc f5b1 e5bc 9d90 183d 0ad8 01be
00000290: 57fe d03d 0b1a b93d 0633 c9bd 423c 073d
000002a0: 4790 ee3d 3ddf 5cbd 100d e3bd e01f a6bd
000002b0: 35f8 f83d 61ff 03bc 0861 20bd 2167 1f3e
000002c0: c453 983c cbdc 25be 24e3 113e 72b6 b53d
000002d0: dce7 4a39 7c4d 223e e659 e53d b815 c1bd
000002e0: 8a79 e23d dccd 143d cc51 27bd b695 eabd
000002f0: a168 4a3d 2f19 d63d b428 80bd 4b89 17be
00000300: a25d 22bc 36ac c73d 7038 5c3d dacf 223d
00000310: 3795 8c3d f65a 403d 3b89 09be dfef 5a3c
0.066606574 0.060229648 0.034188647 0.14898163 0.10966165 0.04243661 0.10935312 0.1264594
-0.095853746 -0.1183344 -0.01017805 0.06209172 -0.095201634 -0.07156401 -0.06843657 0.045701478
0.040806957 0.007982003 -0.09046739 0.105229676 0.12317948 -0.13773872 0.014188146 -0.06415937
0.07278694 0.10507645 0.10596207 -0.11002802 0.05521378 0.061744835 0.14761664 -0.08288096
0.16058916 0.15018001 0.010284691 0.027927632 0.114891976 0.0012558394 -0.11344944 -0.021766469
-0.10690158 -0.036277246 0.04049988 -0.046083093 -0.10561722 -0.10173561 -0.055675816 0.10907916
0.13916706 0.050216697 -0.015134565 0.066310555 -0.05210344 0.10175832 -0.004263496 0.103388794
-0.04446057 -0.0068600737 0.12784217 0.1615233 -0.111496985 0.018723518 -0.17592669 0.11421251
-0.10796224 -0.11475017 0.083224595 0.12991163 -0.08528955 0.10232904 0.044564076 0.13627265
0.12317037 -0.13780151 0.08739663 -0.01721663 0.045642383 0.11138777 0.041094575 -0.08843932
0.08397867 -0.118114956 0.10785905 0.01055883 0.16444054 0.13798475 0.08163549 -0.035681136
0.15601206 0.077325106 0.04770501 -0.0683109 -0.1674165 -0.12557432 0.10973756 -0.08688466
0.1165626 0.084591575 -0.0063839434 0.0066010514 -0.093426675 0.01903274 0.11387214 0.12434609
0.094729684 0.07250039 0.021793507 0.041646462 0.03538915 -0.0009341023 -0.15177776 0.1427521
-0.07897363 -0.13108675 -0.001490912 0.046021335 0.05531586 0.016188784 0.07996469 -0.10645859
0.015760103 -0.037927277 0.101299115 -0.02844561 -0.18557581 0.02989771 0.054181077 -0.05322892
-0.0067012184 -0.04224092 -0.023974616 0.15452756 0.05758467 0.082813725 -0.0058253617 0.079574324
-0.12620747 0.13069122 0.11128947 0.036576297 -0.12184101 -0.12244404 -0.07519639 0.084697746
0.14020318 0.1136025 0.07486286 0.029867878 0.024082534 0.08016278 -0.050096087 0.050673425
-0.14997962 -0.16687815 -0.114480354 0.15527233 -0.019861778 0.04139614 -0.1611027 0.12258948
-0.009832061 -0.028038958 0.03724729 -0.12680069 0.102047615 0.090381704 -0.09824185 0.03301645
0.116486125 -0.053923834 -0.11086476 -0.081115484 0.12156717 -0.008056493 -0.039155036 0.15566684
0.01859463 -0.16197507 0.14246804 0.08872689 0.00019350596 0.1584987 0.111987874 -0.09427971
0.11058338 0.036329135 -0.040849492 -0.11454336 0.04941619 0.10454022 -0.062577635 -0.14798467
-0.009910019 0.097496435 0.05376476 0.039749004 0.06864398 0.046961747 -0.13431256 0.013362854

fc3.weight f4 [25, 200]
00000000: ce8e 5a3e 586c 093e cdc7 233d c1c2 3b3d
00000010: bbbb a53d 12a4 a73d d693 913d 565f e73c
00000020: af61 49bd 7d00 83bd 1356 673d 0099 dabc
00000030: b364 cc3c 646b 0fbd c80c 06bd d293 043c
00000040: e58d b63d cd94 cc3a 96d7 09bf 7a7c 80bd
00000050: 2ce8 bb3d 2444 2bbd 85d4 8fbb f997 4bbd
00000060: 383c 7b3d 8b7d e93d 393a 61bd 3b05 93bc
00000070: c303 933d 91d0 293d 4303 07bd ae45 823d
00000080: 0c3c 7b3d 0348 9c3c a7fb be3c f9d8 683e
00000090: 339d 943d 1855 083d 2916 18bf a69f 6b3d
000000a0: 20d1 25bc dca6 c138 ce0d f4bb 431a bebd
000000b0: 8d85 8f3b 0e9f 823c c548 4a3c 2663 e43d
000000c0: 2cbf 693c 6ee2 8c3d baee 053d e9fb 143d
000000d0: 64ac 6e3d 7b39 0c3e 9b0c 3a3c 04e1 833c
000000e0: d9aa a83d e3c1 153d aa43 b53d 3013 16bd
000000f0: 999c 4bbd 8d4b 0b3d 67cd e8bc cd00 583d
00000100: c0e4 a8bd 5adc 463d cf86 c93d 01a4 83bc
00000110: 6c89 633d e4bb 9dbc efac 9a3b ab91 0bbd
00000120: 39e6 fabc 829c d33c 4e41 c93d e54d 7fbd
00000130: 3120 62bd 95fd 84bc 6c33 f1bc 5acb 0a3d
00000140: dc90 1cbd fbba 96bd 8b61 2cbd 967c 11bc
00000150: 92bc 843d 2c18 683c f8ba 6c3d 4379 b63c
00000160: e042 493d 572b 2d3e 5be2 3c3d 9dbb 9dbc
00000170: 913d 16be 0a9c 68bc 26ca b2b9 0674 403d
00000180: 5c12 e53d a231 183e 0426 5bbd 7b22 e13c
00000190: 2d05 7cbd 1b2c f43d 27ea 1b3e 9c3d ba3b
000001a0: 7c04 ac3c 247d 2cbd 8a3d 943e c2e9 233d
000001b0: 04d4 b73d 2012 19bd 8957 b4bd 027f d53d
000001c0: d1cb 383d f203 b6bd 3360 3d3d 47f2 613c
000001d0: 80c5 05bc 7907 83bd d7e4 e3bc 2278 e23d
000001e0: 96bb 5e3d e774 743c f57a 90bc a5a5 013d
000001f0: 9a45 0dbf 8187 d63d 3b24 6a3d d0bd 803d
00000200: 1ac3 ccbc ad97 933d 6419 4a3e 3205 903b
00000210: 445b a4bd 8e06 b53c cb4b ba3c 2e92 883c
00000220: b46f b6bd a524 7d3c 3a8b 9c3d cbe9 7f3d
00000230: 05c5 86bd 3fc6 02bd 3a09 eebd 4fb8 f63d
00000240: 0956 ef3c 722d 543d 9a2c 153d d3fc 353e
00000250: 73bc 013d 43ea 483d 4c26 e3bc 867d ecbd
00000260: 7ba4 183d 6f17 303c feeb 67bd bbf7 1b3c
00000270: 93f7 213b 4ffb c03c fd1f f03c 54d4 123d
00000280: e859 423d e2c9 833d f2ee aa3d d4ff a3bd
00000290: cb61 f33d 2bff 12bd 04b5 11bd 95d6 80bc
000002a0: 6420 27bd f151 d6bc b676 eb3c fc6c 663c
000002b0: daf0 fdbc 5da7 a43d 417e 6dbe d9e0 7d3d
000002c0: 45ab b03d 398a 60bd dc45 b43d d22a bf3d
000002d0: 84f9 963d 3435 ee3c f518 12bd c84d b4bd
000002e0: 6cf2 a13d 0062 95bc 2551 e3bc b9d8 e73b
000002f0: ceb8 8abc d0af 393c 4dd4 b23c a1dc babd
00000300: 5ac4 b33c c3ea 863d 1369 9c3d 5a63 4f3b
00000310: 0223 6e3c 3471 5f3d 3335 84bf e3d8 963d
00000320: f69b 033e 8284 eb3d 4257 f2bc 49f0 ba3c
00000330: b645 853d 196c 3b3d b82a c53c d088 5a3d
00000340: 77e8 d1bb 1444 65bd cd72 93bc abbc f4bc
00000350: ff06 a2bc d7c0 783b ca9e a93a 6878 a63d
00000360: 2867 a23d e1bd 9fbc 3055 0fbf 76d3 dfbc
00000370: 05a7 5d3d 7cff 4f3c ff1a 993d cbc4 1bbd
00000380: ec88 843d 1764 9d3d de74 253d 8d9b ebbc
00000390: d14b d23c 866f 8dbc 6a5d 863d 4d38 0b3d
000003a0: 2aa6 8d3d a2c7 be3d 6f8b d63d b063 023e
000003b0: 3f66 e2bc 82f6 a53d b830 20bf 6d93 973c
000003c0: 99b6 cd3c 0570 f1bc 7632 a43c c0e2 d9bb
000003d0: 4bc2 2dbd 9318 a8bd f111 d93c f149 e73d
000003e0: 34ed 373d 5db4 473c 3f44 093d e46e bbbc
000003f0: 65ab f43d df89 c13d 2ad9 3d3b bc8e d9bc
0.21343538 0.13420236 0.039985467 0.04584003 0.08092447 0.08185591 0.071082756 0.028243702
-0.049165424 -0.063965775 0.05647857 -0.026684284 0.02495036 -0.035014525 -0.032727033 0.008091884
0.08913783 0.0015608311 -0.53844583 -0.06273742 0.09175143 -0.04181303 -0.004389348 -0.04970548
0.061336726 0.114008985 -0.054987166 -0.01794683 0.07178452 0.04145867 -0.032962095 0.063609466
0.061336562 0.019077307 0.023313357 0.22739018 0.07256546 0.033284277 -0.59408814 0.0575253
-0.01012066 9.234037e-05 -0.0074479347 -0.09282353 0.004379934 0.015944984 0.012346451 0.111517236
0.01426677 0.068791255 0.03269837 0.036373053 0.058269873 0.13693802 0.011355544 0.016098507
0.082357116 0.036561858 0.088507965 -0.036639392 -0.04970989 0.034007598 -0.028418256 0.05273514
-0.082467556 0.048549987 0.09840166 -0.016069414 0.055550978 -0.019254632 0.0047203223 -0.034074467
-0.030627357 0.025831465 0.09826909 -0.062330145 -0.05520648 -0.016234199 -0.029443465 0.033885337
-0.038224086 -0.073598824 -0.04208521 -0.008879801 0.064812794 0.014165919 0.057795495 0.022274619
0.049136043 0.16911064 0.046114307 -0.0192545 -0.14671923 -0.014197359 -0.00034101418 0.04698565
0.111851424 0.14862683 -0.05350305 0.027482262 -0.061528374 0.11922475 0.15226041 0.005683614
0.020998232 -0.04211153 0.289532 0.04001785 0.08975986 -0.0373708 -0.088057585 0.104246154
0.04511625 -0.08887471 0.04623432 0.013790674 -0.008164763 -0.0639791 -0.02781908 0.1105807
0.054378115 0.01492045 -0.017636755 0.03165211 -0.5518433 0.10475064 0.05716346 0.06286204
-0.024995375 0.07206664 0.19736248 0.0043951506 -0.0802522 0.022097852 0.022741219 0.016671266
-0.089080244 0.015450631 0.07643743 0.06247882 -0.06580547 -0.031927343 -0.116228536 0.12046873
0.02921583 0.051801153 0.03641949 0.17772226 0.03167386 0.049051534 -0.027728222 -0.11547379
0.037266236 0.0107477745 -0.056621544 0.009519513 0.0024714216 0.023557333 0.029312128 0.035847023
0.047449023 0.064349905 0.083463565 -0.0800778 0.11883887 -0.03588788 -0.03557302 -0.01572732
-0.040802374 -0.02616212 0.02874313 0.01406407 -0.030998636 0.080397345 -0.23192693 0.06198201
0.08626417 -0.05481932 0.08802387 0.09334339 0.0737181 0.029078104 -0.035668332 -0.08803898
0.079075664 -0.018235207 -0.027748654 0.007075396 -0.016933825 0.011333421 0.021829749 -0.09124113
0.021944214 0.06587746 0.07637229 0.0031644912 0.014534714 0.05455132 -1.0328735 0.073655866
0.12852463 0.11499883 -0.029582623 0.022819655 0.06507437 0.045757387 0.024068221 0.05335313
-0.006405886 -0.055973127 -0.017999077 -0.02987512 -0.019778727 0.0037956738 0.0012941 0.081284344
0.07929832 -0.019499721 -0.5598936 -0.027322512 0.05411436 0.01269519 0.07475852 -0.038029473
0.06471428 0.07685106 0.040394656 -0.028760696 0.025670918 -0.017265093 0.06560786 0.03398924
0.06916459 0.09315421 0.104758136 0.1273334 -0.027636645 0.08103658 -0.6257434 0.018502915
0.025111483 -0.02947236 0.020043593 -0.006649345 -0.04242162 -0.08207812 0.026497813 0.112934
0.04490395 0.012188998 0.03351235 -0.022880025 0.119467534 0.09450125 0.0028968551 -0.026557319

fc3.bias f4 [25]
00000000: 9eae 833d 51a7 623c 9d28 a63d 723c 5c3d
00000010: 738b 523d 5bf1 ae3d 99d7 29bd 8c74 793d
00000020: 6c20 aa3d a4ed c7bc cee4 ffbc b1b5 003c
00000030: c9f7 d8bc c37a a5bd a504 153c 49ff 42bd
00000040: 6b23 a6bc 8c24 aebd 922b 97bd 91d3 0fbd
00000050: a697 49bd 9878 94bd 9cda 1eba 0994 8839
00000060: 94c5 c63b
0.0642979 0.013833837 0.08113215 0.053768583 0.05140252 0.08542129 -0.041465376 0.060902163
0.08306965 -0.024405308 -0.031237032 0.007855819 -0.02648534 -0.080800556 0.009095346 -0.04760674
-0.02028056 -0.085030645 -0.07381357 -0.035113875 -0.04921689 -0.07249564 -0.0006059797 0.00026050236
0.0060660336
