training_model/wandb/run-20200624_224426-mipa3ze5/AE_filter_4.pt (torch_old, 250492 bytes, 16 tensors)

encode_conv1.weight f4 [4, 12, 3]
00000000: 3091 ce3e f577 7f3e a01e 973e e101 e43b
00000010: 5ab9 10be 6f17 51bd ace0 c03d 6f52 cc3d
00000020: efc3 073e cf30 2fbc 53d5 193e d90b 3cbd
00000030: 0853 673c a411 b13e e6fa d33e 9243 29be
00000040: 2466 12bd f7ba 403d 5967 033e 4954 f43d
00000050: f4e1 943d 106f 3a3e 927b 2c3e 0de1 673e
00000060: 9594 663e 75e6 bb3e a3f5 af3e 49d2 183e
00000070: 5089 bdbd 4ec6 26be 057d 483e e164 473d
00000080: aded 4b3e 5879 af3d 9aea 0d3e 7582 103e
00000090: ee00 acbd 02d5 6bbd ecf2 4ebd 71ea 203d
000000a0: 8ff9 4e3e c684 193e ed5a 62be 8f17 85bd
000000b0: 3480 ad3d 0db0 d1bd c82c b63c e1bd 303d
000000c0: 3f52 3dbe 1518 06be 3c5b a2bd fb7e 0c3e
000000d0: 9cce 60bd c785 8c3c 9ffe 8ebd 4875 133d
000000e0: cfd6 09bd 5e6e 083e f303 48bd 7b82 3abe
000000f0: 0300 5cbe bd3d 90ba b569 e23d cd00 433e
00000100: 245f 363a 80b4 973d 4aab d2bd a390 cabd
00000110: 6b3e 773d 8f38 04be 5461 b1bd 2e92 18bd
00000120: dc9d 943d 5bdb 723e 369a 8e3e 9742 913e
00000130: 4149 2a3d d211 3fbe 7e6f c43c 7ce6 6bbc
00000140: 348f c33b 6a7c 333e 5591 063e c76e fa3c
00000150: 0fe2 ce3d d181 023e d996 a43e 4d64 d4bd
00000160: f5a4 85bd 45f8 2a3e 75b2 80bd 59cc baba
00000170: 0fed 9a3d c84f 3dbd 44c7 43bc a76a 5c3c
00000180: 3ef6 623e cc89 ce3c 81ee 443e 432a 883e
00000190: 32c0 583e b85f ce3d 9887 3c3e b78b 7f3d
000001a0: 3256 af3d b8fc 383e 991a 2f3c d930 7e3e
000001b0: 4b7c d8bd 38bc e83d 7f76 51bd 06f4 123f
000001c0: 9b12 1f3e fa49 403e 79cb e73d e911 6b3e
000001d0: 57a8 4bbd 70de dcbb 4202 7b3d d9be 95bd
000001e0: e41d 37bd 5603 16bd 19d9 cebd abe6 693e
000001f0: 7748 6b3e fd35 533e 3f0c c83d e507 6cbb
00000200: 6f24 abbd 6094 223d 8349 433e f84b 50bd
00000210: a357 54be 85ff 5bba 4c8f 7d3d 20d8 4c3e
00000220: 36bd 703e cf7a 9b3e e4a4 9a3d 39de dd3d
00000230: 0f60 81bb 1081 da3d 59c1 b23d 4cfe cf3c
0.40345144 0.24948104 0.29515553 0.006958232 -0.14133206 -0.05104774 0.09417853 0.099766605
0.13258336 -0.010692789 0.15022783 -0.045909736 0.014118917 0.3458377 0.41402358 -0.16529682
-0.03574194 0.047053304 0.12832393 0.119301386 0.0726966 0.1820643 0.16844013 0.22644444
0.22517617 0.36699262 0.34367093 0.14923967 -0.09254706 -0.16286585 0.19578941 0.04868019
0.19914885 0.08568066 0.13859025 0.14112265 -0.08398615 -0.057576187 -0.050524637 0.03928608
0.20212387 0.14992055 -0.22104998 -0.06498634 0.084717184 -0.10238657 0.02223815 0.043149833
-0.18488406 -0.13095124 -0.07927558 0.13720314 -0.054884538 0.017153634 -0.06982159 0.03600052
-0.033652123 0.13323352 -0.04883189 -0.18213837 -0.2148438 -0.0011004728 0.11055318 0.19043274
0.0006956926 0.074074745 -0.10286577 -0.098908685 0.06036226 -0.129122 -0.08661142 -0.037248783
0.07256672 0.2371649 0.2785203 0.28371117 0.041573767 -0.18659142 0.023978945 -0.0143982135
0.005967999 0.17527929 0.13141377 0.0305704 0.10101711 0.12744834 0.32146338 -0.10370693
-0.06525604 0.1669627 -0.06284038 -0.0014251574 0.075647466 -0.046218663 -0.011949364 0.013453162
0.22164246 0.025212191 0.19231607 0.26594743 0.21167067 0.10076851 0.184111 0.0623891
0.08561362 0.18065155 0.010687494 0.24823321 -0.10570582 0.11364025 -0.051138397 0.574036
0.15534441 0.1877822 0.11318106 0.22956051 -0.04972109 -0.006740384 0.06128145 -0.07311792
-0.04470624 -0.036624275 -0.10100002 0.22841899 0.22976862 0.20626064 0.09767961 -0.0036015448
-0.083565585 0.039692283 0.19071011 -0.0508537 -0.20736556 -0.00083922624 0.061904237 0.2000432
0.23509678 0.30367133 0.07550982 0.10833401 -0.0039482187 0.10669148 0.087282844 0.025389813

encode_conv1.bias f4 [4]
00000000: 180b a3be 0d0f 84bd 361d 91be c170 7ebe
-0.318444 -0.06448183 -0.283426 -0.248477

encode_conv2.weight f4 [4, 4, 3]
00000000: 7693 89be 3c93 23be 738c 163e c1f7 1cbe
00000010: e528 7b3d f3eb 893e 36cb 8bbe 36ca d5bd
00000020: 42f6 ae3d 5f27 4ebd 2bb3 f33b 22dd be3d
00000030: 7236 c83e 37bb 0b3d 626b f93d a84b 54bf
00000040: 5f12 0cbf 5de0 b2bd 6970 703e 4223 53be
00000050: e093 1f3e 5918 a6be 634c 46be 6377 543e
00000060: 281e b7be e6c5 a6be aed5 78be bc14 39be
00000070: bedc 0a3e a0b8 803e 18d5 86be c26c 22bd
00000080: 5e39 0dbe 1c23 47be d194 d8be 6d25 ef3d
00000090: c3a9 8d3e 3d74 153e bc1c 983e 4708 5e3e
000000a0: 2f10 74be c23c 01be 471e b43e 56dc 573e
000000b0: a862 ea3e 7101 c83e 79d5 7c3e 5612 be3e
-0.26870316 -0.15974134 0.14702015 -0.15328886 0.061318297 0.26937827 -0.27303475 -0.10438959
0.08543064 -0.050330516 0.00743713 0.093195215 0.39104038 0.03411409 0.12178685 -0.8292794
-0.5471553 -0.087342 0.23480381 -0.20618919 0.15583754 -0.3244045 -0.19365077 0.20748667
-0.35765195 -0.3257286 -0.24300262 -0.18074316 0.13560769 0.25140858 -0.26334453 -0.0396545
-0.13791415 -0.19446987 -0.42301038 0.1167706 0.2766858 0.14595123 0.29709423 0.21682845
-0.23834299 -0.12620834 0.3517935 0.21080145 0.45778394 0.390636 0.24690808 0.37123364

encode_conv2.bias f4 [4]
00000000: 8e4f b43d fd71 d7be 9895 92bd 1ce4 93be
0.08804236 -0.42079154 -0.07157439 -0.2888497

encode_conv3.weight f4 [8, 4, 3]
00000000: bd80 a13d dda0 e93d 246c 693e f37d 54bf
00000010: a2bb babe 54f6 a5bd 0203 62be 3b55 43be
00000020: 69ae e23c ffec c7bc 2c3e 4abe 1ea3 8f3e
00000030: be4c b4be 2980 d2bd a66b 92be 0982 a1bf
00000040: b371 30bf aba6 b3be 41e8 37be 861c dbbe
00000050: a1df 49bd 6381 113e bb04 c03e a36c 5e3d
00000060: a4cb 00be c52b 023e 7de2 d03c 9384 93be
00000070: 5f0f 3f3e cf6b b5be 9f03 d9be 2c9a 28be
00000080: 7f7a 043e be6d fc3e 1124 a13e e3c0 e13a
00000090: bce2 47be b7ce 84be be8b 9a3d e156 d8be
000000a0: 07af d2be 9b76 d8be c108 e9bc b86b 8cbe
000000b0: 39f2 84bd 449b 94be 399b 433d 2f91 dbbc
000000c0: 28cf 633e 5c42 7cbe ea7c 1ebe c3b0 49bf
000000d0: 0510 c1be ba0a 0cbe 94c3 76be 662e e1be
000000e0: 8537 f2bd ad76 c43e fdf1 633e 87c8 8a3e
000000f0: 4fd4 e8bc 5c7a e33d 50bb 80be 70e4 33be
00000100: b171 9dbe 9227 9ebc 93a4 fa3d 72b4 9cbc
00000110: 6e97 99be 18d9 803e 6471 35bd 50c5 8dbc
00000120: 8fb1 67be 67b0 7d3d 8183 553e 7237 8abd
00000130: fdf9 243d 9453 26bf 3685 84be b23e 9ebe
00000140: 499c 9a3e b8d7 c33d dcde 613e c08d 89bd
00000150: 7e00 c13c 3fea 45be e600 51bd cede b63e
00000160: 2935 2a3f 3101 943e d5e1 acbe f18a 273e
00000170: 1447 83be 0e94 843d 675c 253d fbca 13be
0.07885883 0.11407635 0.22795159 -0.83004683 -0.36471277 -0.08103624 -0.2207146 -0.19075482
0.027671056 -0.024405 -0.19750279 0.28054136 -0.352148 -0.10278351 -0.28597754 -1.2617809
-0.6892349 -0.35088095 -0.17959692 -0.427952 -0.049285535 0.14209513 0.3750361 0.054302823
-0.12577683 0.12712009 0.025498623 -0.28812084 0.18658207 -0.35433814 -0.42385575 -0.16465062
0.12937354 0.49302477 0.3147283 0.0017223622 -0.19520086 -0.2593896 0.07546185 -0.42253783
-0.4114916 -0.4227799 -0.028446557 -0.27425933 -0.06491513 -0.29024708 0.047755454 -0.026802627
0.22246993 -0.24634689 -0.15477338 -0.7878534 -0.37707534 -0.13675967 -0.24098045 -0.43980712
-0.11826996 0.38371792 0.2226028 0.27106115 -0.02842155 0.111073226 -0.25142908 -0.1756761
-0.30750802 -0.019305978 0.12238421 -0.019129012 -0.29998344 0.2516563 -0.04429759 -0.017306
-0.22626327 0.06193581 0.20850946 -0.067488566 0.04027747 -0.6497128 -0.25882882 -0.30907208
0.3019736 0.095626295 0.2205767 -0.0671649 0.023559805 -0.19327639 -0.051026247 0.3571686
0.66487366 0.2890716 -0.33766046 0.16361596 -0.25640166 0.06473552 0.040371325 -0.144329

encode_conv3.bias f4 [8]
00000000: f3f7 813d 7a3e 1abe e48e 143d 6287 45be
00000010: 5eb1 0ebe a723 773e d4a1 cabe 5a49 ae3d
0.06346121 -0.15062895 0.036269084 -0.19289926 -0.13934848 0.24134694 -0.3957659 0.085100845

encode_conv4.weight f4 [8, 8, 3]
00000000: 4d0f 7dbe cebd 01be 2cf8 3fbc d4e3 bd3e
00000010: 575c 923e 5a27 1e3e 1a05 473e c8d2 483d
00000020: 9b58 eabb 3331 d93d da9b 66be 6fbe 77be
00000030: f8f2 a53e d8a4 5a3e 4c29 123e f842 4e3d
00000040: 4b88 033e 3153 80bd 807c 053e bda9 823d
00000050: 84f9 17be ddcc 60be 6204 7abe 54bb 2ebd
00000060: f02d 97bd 6db9 183d 92ec e0bd 1057 9abc
00000070: e143 993d f813 2c3e 68a9 87bd 7413 0f3e
00000080: ff3d 3d3e 2800 2bbd 4e01 e73d 3bbc d2bd
00000090: 489a 803e 81a0 933e ea88 f03c e107 9e3d
000000a0: 5355 bc3d 0f4e 193d 2744 7fbe be03 afbd
000000b0: cd1a 8b3c b082 f23e 66dc f33e 5565 f93e
000000c0: ea75 383e 099f 583e 0104 59bd 4301 79be
000000d0: 5ef8 c8be f623 76be 89fa 19be 720c 6ebe
000000e0: cd56 02bd ae8e 55be 8086 743d 176b c8bd
000000f0: 5888 82be bc53 93be 6374 4abd 999a f03d
00000100: 5f32 db3c a876 d9bd 710d 753d 6755 c4bd
00000110: 88f0 f13d d0df 783e 4f11 b2bd 6963 8eb9
00000120: 9107 c13e 3c95 883e c9a7 e4bd b536 883c
00000130: 3306 d9bd d60e cc3e dae9 5abe fe2f fdbd
00000140: f56f 463e a5c8 99bd a323 e5bd d20e 263e
00000150: b65f 45be 60db 0abd a6bb 903e 71aa 61bc
00000160: f816 40be 0108 143e af83 1a3f d098 fc3e
00000170: 3556 3b3f 8abf 85be 9f94 10be 9b0d 80be
00000180: 5aa4 4fbd 2cb3 f9bd b385 cd3d d33a 99be
00000190: 7401 b7be cac6 d8be e882 ac3d b8a3 3abe
000001a0: 18c5 6dbe ef6a b13d d6ff eb3d a8de 903b
000001b0: e46f 21bd 6f1a 9bbe 7d02 f33d 7807 2d3d
000001c0: 16fb 7cbd ae83 03bd 95ff 143e 5273 83be
000001d0: a5da 813d ae05 b23e 213f 75bd 87e6 0c3e
000001e0: bcfc 06be ce59 553e d74a 29be 8a5a 8e3e
000001f0: 86af b13e bd68 093d 31fc 40bd 2f1d f0bd
00000200: f9db 1c3e 9f23 6e3e 070b 1a3d c640 f5b9
00000210: 6d3f 353e c4ec 1c3e 6840 9f3b a2ea 323e
00000220: 2959 c83d b452 9d3d a824 8dbd 6b30 923e
00000230: 5e76 0bbe 79e7 bebe 0654 80be ef50 bebd
00000240: 2dd1 263e 4a3f 673c 576c 5b3d 688f f2bd
00000250: f872 f93d 00c9 b53d 3de6 2dbc e96c aebd
00000260: a2e3 693e 0f0c cf3c c8eb 583d 1ca9 0c3e
00000270: 354b cdbb fe41 0ebe 82de 893d cc6d 063d
00000280: 6d73 bfbd abf9 abbd ac9c e4be d2ae 2a3b
00000290: c576 123f b33c ddbd 5d61 ea3d d365 d03d
000002a0: 5c1b 35bd 2b60 95bd 1112 1c3e df57 c03e
000002b0: d7f8 983e c297 203e 986b 3fbe 98f5 a0bd
000002c0: 6d00 1e3e c10b 253e f91e 273e 39ca 0d3e
000002d0: c4f7 d3bd 9537 203e 44ee 5a3e 0c1f d63c
000002e0: 237c 423e 2546 4d3d 1a30 3f3e 55aa 043e
000002f0: dac0 9e3e 5996 47be 9108 79be a6cb aebe
-0.24712868 -0.12670061 -0.011716884 0.37087882 0.28586075 0.15444699 0.1943554 0.04902914
-0.007151676 0.10605087 -0.2252039 -0.24193738 0.32411933 0.21351945 0.14273566 0.050356835
0.1284496 -0.062658675 0.13035774 0.06380031 -0.14841276 -0.21953149 -0.24415734 -0.04265912
-0.07381809 0.03728621 -0.10982622 -0.018840343 0.0748365 0.16804492 -0.066241086 0.13972265
0.18480681 -0.041748196 0.11279546 -0.10289808 0.25117707 0.28833392 0.02936216 0.077163465
0.09195962 0.037427958 -0.24928342 -0.08545636 0.016980553 0.47365332 0.47629088 0.48710123
0.1801373 0.21154417 -0.052982334 -0.24316888 -0.3925199 -0.24037156 -0.15036978 -0.23246935
-0.03182106 -0.20855209 0.05969858 -0.09786051 -0.25494647 -0.28774822 -0.0494274 0.11748237
0.026757417 -0.10618335 0.05982727 -0.09586602 0.11813456 0.24304128 -0.086947076 -0.00027158417
0.37701085 0.26676357 -0.11164815 0.016627649 -0.105968855 0.3985507 -0.2137827 -0.123626694
0.19378646 -0.07508973 -0.11188438 0.16216591 -0.19274792 -0.03390062 0.28268164 -0.013773547
-0.18758762 0.14456178 0.60357183 0.49335337 0.73178416 -0.26122695 -0.14119194 -0.2501038
-0.050693847 -0.121923774 0.10035267 -0.29927692 -0.35743296 -0.42339164 0.08423406 -0.18226516
-0.23219717 0.08662974 0.11523406 0.004421074 -0.039413348 -0.30293605 0.11865709 0.04224345
-0.06176289 -0.032108 0.14550622 -0.2567392 0.06340531 0.34769958 -0.059874658 0.13759814
-0.13182348 0.20835039 -0.16532455 0.2780345 0.34704226 0.03354715 -0.04711551 -0.11724316
0.15318288 0.23255776 0.037608173 -0.00046778301 0.17699976 0.15324694 0.0048599727 0.17472318
0.09782631 0.0768179 -0.06891757 0.28552565 -0.13619372 -0.37285975 -0.25064105 -0.092927806
0.16290732 0.01411421 0.053570118 -0.11843759 0.12180132 0.08876228 -0.010613975 -0.08516867
0.22840741 0.025274305 0.052959234 0.13736385 -0.006265069 -0.13892362 0.06731893 0.032819554
-0.093481876 -0.0839723 -0.4465078 0.0026044142 0.5721248 -0.10802593 0.11444352 0.101756714
-0.044215545 -0.07293733 0.15241267 0.3756704 0.2987735 0.15682891 -0.18693388 -0.07859343
0.1542985 0.16117765 0.16320409 0.13846673 -0.10349992 0.15646203 0.21379954 0.026137851
0.18992667 0.050115723 0.18670693 0.12955602 0.3100651 -0.19490947 -0.24319674 -0.34139746

encode_conv4.bias f4 [8]
00000000: d1c7 c5bd 6fa1 fe3d 2159 37bd b3e3 293e
00000010: 6175 96bd e2f8 143d 47ec 3b3e 917a df3d
-0.096572526 0.12433135 -0.044762734 0.16590767 -0.07346607 0.036370166 0.18351851 0.109120496

encode_conv5.weight f4 [16, 8, 3]
00000000: 7e6e c9bd a76f 15be e04b 753d e618 10be
00000010: 506f 06bd 3c08 5ebd 0483 30be b0dc b53d
00000020: a828 a83c 3893 ea3c 54b1 fdbd d8a8 b23d
00000030: b427 f6bd f8e8 bf3c b062 663d 2839 a3bd
00000040: bc31 0dbe 64f1 02be dc48 a63d 6d11 e5bd
00000050: 52dd fcbd c82b 093e 4044 8abc 241a 0bbd
00000060: 0636 153e 7013 f13d 235b fcbd 3894 a33d
00000070: 04f9 8b3d 924b 1b3e 4e80 fbbd c092 073d
00000080: dc67 02be 8289 35be 64a8 1fbd 4887 8c3d
00000090: f09d ccbc 8063 71bc 885f e9bc 08f4 8dbd
000000a0: a855 96bc 182a d33d 60ce d23b 7cc1 2fbe
000000b0: f025 3c3d 6427 a6bd 702e eb3d 43a2 4abe
000000c0: 9a3c 88bd 3d99 39be 9c6f 08bd 0d62 ebbd
000000d0: a8bc d73d 546f 503e 9800 4a3e 2422 9a3d
000000e0: 3c9b 00bd eee7 0a3e 04b5 06bd eae5 4dbe
000000f0: f43d 09bd bc62 17bd 60fc cf3d 701e 153e
00000100: fa14 88bd 15b2 0abe e84b cb3d e27a 213e
00000110: e0d2 f43b a468 2e3e 38d0 1cbe 98d1 11be
00000120: 889c 0fbe c042 44bb 40fc ecbd 5520 3abe
00000130: f42e 983d 2b8e 1abe 5268 edbd 2077 a8bb
00000140: 0468 4dbd 209a fd3b 68fc 893d 6c38 a53d
00000150: 9c2d 78bd d81f c83c 0460 05be be01 393e
00000160: 423f 44be 1049 7abd 5cdd 473e 50b5 153e
00000170: 087c a73d 2016 0f3e c47c 94bd 3957 25be
00000180: d8d7 05bd d018 2ebe 9c90 66bd 7a3e 143e
00000190: 6d3e febd 1a35 333e 1666 113e f857 b73d
000001a0: 01b9 b5bd 77f7 18be 8555 c7bd f099 24be
000001b0: 6dc5 10be 1066 42be 02c6 8abd a030 d03b
000001c0: 1ef3 a2bd de91 2d3e 6243 023e 3fd7 01be
000001d0: 9efa 243e 549b e53d b403 f03d eace 09be
000001e0: 6818 ba3d a08b 323e e088 a73b 9744 d0bd
000001f0: 3890 d83d 863c adbd 2c86 d63d 5045 14bc
00000200: 20ef 71bc 852e 40be c841 ca3d b0f3 4b3e
00000210: 700a 053c 03d6 d2bd cc94 123e 19e0 04be
00000220: c820 18be 2081 10be 8877 2abe 967c 333e
00000230: e0a8 f6bd a83a 953d 9436 23bd c075 d73d
00000240: 1473 ae3d dc0a 1dbe 460b 433e b08e 9e3d
00000250: 697e cbbd 92c9 27be 00b7 573b 80fe 32bc
00000260: 9495 9e3d 803a 7e3d 0491 a5bd d05f dfbc
00000270: ecdd 303d 9c24 863d 2c3c 1dbe a45f 973d
00000280: 326f 083e a0f2 2c3c f549 16be be55 263e
00000290: b2ff b9bd ce66 063e 5a0f 42be 66b9 2d3e
000002a0: 9096 203e 78c5 703d 5409 dabd f01e 2b3e
000002b0: c0c1 593d 66c0 a4bd 1cc4 af3d 7ea0 1e3e
000002c0: ef72 c9bd ee5a 35be 3466 8e3d 8816 443d
000002d0: 56eb c7bd cacf 1f3e ca09 383e cc98 3e3e
000002e0: 6034 39be db50 01be 6000 40be 9c09 983d
000002f0: e26a 3b3e 4438 f43d c638 393e bcc4 15be
00000300: 2806 11be b002 68bd 82ef 353e 684b bd3d
00000310: 8c32 41be 4b4b c1bd 7871 023e 8048 07bd
00000320: b897 e43d 8859 d6bc 96cd 90bd 7c98 75bd
00000330: a8f6 2dbd 0060 4ebe 1e8b 2a3e d474 13be
00000340: 65e1 3abe 8c5e d33d 2d84 b4bd e419 ccbd
00000350: b756 3bbe 483f a73c 5673 9ebd 94b3 a03d
00000360: 9206 3d3e 70ba a1bd 90e5 c83d a8da 023d
00000370: a4fb 083e fc62 13be 7e7a 1f3e 70b7 023e
00000380: 18c9 0bbe 0071 4abc 3c46 993d ac12 1a3e
00000390: 500b 2a3e 0136 48be 2465 c53d 0038 ec38
000003a0: 1cec 933d 5f49 22be f0e7 b23c c606 14be
000003b0: 78ee 813d c039 8abc 0075 7dba 88c9 3ebd
000003c0: 8f3e d8bd 232d 36be 9113 33be 4d42 32be
000003d0: 2c04 b63d 088e 30bd 5a33 353e c49e e33d
000003e0: d966 4abe 3c91 423e 88fa 2f3d f4cf f1bd
000003f0: 5824 9c3c 6079 f0bb f408 76bd fa68 07be
-0.09835528 -0.14593373 0.059886813 -0.14071998 -0.032821 -0.05420707 -0.17237478 0.088799834
0.020527199 0.028634652 -0.12387338 0.08723611 -0.120192915 0.023426518 0.05624646 -0.07969886
-0.13788503 -0.12787396 0.081193656 -0.11184964 -0.12346901 0.13395607 -0.016878247 -0.033960477
0.1457139 0.117712855 -0.123220704 0.07987255 0.06834605 0.15165547 -0.122803316 0.033098936
-0.12734932 -0.17728236 -0.03897895 0.0686174 -0.024977654 -0.014733195 -0.028487936 -0.06931311
-0.018351391 0.10310763 0.006433293 -0.17163652 0.045934618 -0.08112982 0.114834666 -0.1978846
-0.06652184 -0.18124862 -0.033309564 -0.11493311 0.1053403 0.20354968 0.19726789 0.07526043
-0.031398043 0.13565037 -0.032887474 -0.20107237 -0.03350635 -0.036959395 0.101555586 0.14562392
-0.06644626 -0.13544495 0.09926587 0.15769532 0.0074714273 0.17032105 -0.15313804 -0.1424011
-0.14024556 -0.0029947013 -0.1157155 -0.18176396 0.074308306 -0.15093295 -0.11592163 -0.005141154
-0.050148025 0.0077393204 0.06737596 0.08067402 -0.06059037 0.024429247 -0.13024908 0.18067071
-0.19164756 -0.061104834 0.19518036 0.14619946 0.08177954 0.13973284 -0.0725036 -0.16146554
-0.032676548 -0.17001653 -0.056290254 0.14476958 -0.124142505 0.17500725 0.14199099 0.089523256
-0.08873177 -0.1493815 -0.097331084 -0.16074347 -0.14137812 -0.18984246 -0.06776048 0.006353453
-0.07956527 0.16950175 0.12721017 -0.12679766 0.16111228 0.11211267 0.11719456 -0.13457838
0.090866864 0.17436075 0.0051127523 -0.101693325 0.105743825 -0.084588096 0.1047481 -0.0090497285
-0.0147664845 -0.18767746 0.09875828 0.19917178 0.008120164 -0.10294726 0.14314574 -0.12976111
-0.14856255 -0.14111757 -0.1664716 0.17527995 -0.12043929 0.072865784 -0.03984697 0.10520506
0.08518043 -0.15336174 0.19047269 0.07742059 -0.0993622 -0.16385487 0.0032915473 -0.010924935
0.077433735 0.06206751 -0.080843 -0.027267367 0.04318039 0.065499514 -0.15354985 0.07391289
0.13323668 0.010555893 -0.1467665 0.16243646 -0.09081973 0.13125154 -0.18951169 0.16965255
0.15682435 0.05878207 -0.106463104 0.1671102 0.05316329 -0.080445096 0.08582327 0.1549091
-0.09836375 -0.17710468 0.069530874 0.04787305 -0.09761684 0.15606609 0.17972484 0.18612975
-0.18086386 -0.126285 -0.18750143 0.07423708 0.18302491 0.11924794 0.18088064 -0.1462583
-0.14162505 -0.056643188 0.17767146 0.09242898 -0.18866938 -0.09438189 0.12738597 -0.033028126
0.111617506 -0.026165739 -0.070704624 -0.059959874 -0.042471558 -0.20153809 0.16654631 -0.14400035
-0.18250044 0.10320768 -0.08814273 -0.09965876 -0.18294798 0.020415917 -0.07736842 0.07846752
0.18459538 -0.07896888 0.098094106 0.031946808 0.13377243 -0.14393228 0.15574071 0.12765288
-0.1365093 -0.012356043 0.07484099 0.15046185 0.16605878 -0.19551851 0.09638432 0.00011263788
0.07222769 -0.15848301 0.021839112 -0.14455709 0.063443124 -0.01687324 -0.00096686184 -0.046578914
-0.10558807 -0.17790656 -0.17487933 -0.17408104 0.088875145 -0.0431042 0.1769537 0.111142665
-0.19765796 0.19000715 0.042963535 -0.11807242 0.019060299 -0.007338688 -0.060067132 -0.13223639

encode_conv5.bias f4 [16]
00000000: 3889 693d aabf 263e 6a35 16be 00cc 603c
00000010: 3386 b7bd b82f f5bc 0b56 1cbe a045 023c
00000020: 9e42 18be 62bb 0cbe d01f 4c3d 7add 053e
00000030: 5077 9f3c b064 693c 8272 14be b2e5 debd
0.057015628 0.16284052 -0.14668813 0.013720512 -0.08961143 -0.02992998 -0.15267198 0.00795117
-0.14869162 -0.13743356 0.049835026 0.13072768 0.019466072 0.014245197 -0.14496806 -0.10883655

encode_conv6.weight f4 [16, 16, 3]
00000000: 4062 353d 1875 64bd 065a 8c3d d004 fc3d
00000010: a017 e13b 2e06 a43d 2c63 c1bd fe30 6bbd
00000020: a8be ae3c fc53 bc3d e080 cfbb 39bd b8bd
00000030: 808b 39bb 9038 df3c 7032 903d a89d 883d
00000040: 4844 12be 2078 b7bc 704d 083d bcfc 35bd
00000050: f2e9 08bd 802b 74bc 982a d73d 3c32 1cbd
00000060: de05 31bd 9076 1f3c 584e 303d 7022 4a3d
00000070: 1ef5 c33d 0233 b63d f4d0 d4bd fea0 0bbe
00000080: c899 063e d47c b33d 2663 b53d 50e5 c03c
00000090: 9ed6 11be e8db 0c3e 521f a4bd a09e ad3d
000000a0: 60e0 14bc 02c5 b9bd fc0f 8d3d e222 ca3d
000000b0: fc2f e3bd fcaf 763d 40a0 3ebb 20bc a2bd
000000c0: fee8 053e b405 bd3d 1ccc 0f3d c44f 093e
000000d0: 3433 db3d 8eae 5cbd b876 e6bd 58fa b03c
000000e0: b883 de3d a65a a0bd 594a f8bd a032 8abb
000000f0: 0f5d 0cbe fc90 193d d320 0dbe 7047 09be
00000100: 00c0 9d3c e413 d9bd 846b f43d 70a8 5cbc
00000110: c2bf 023e 2455 10be 0007 a8bd 1227 bebd
00000120: 6c94 c5bd 4c76 dcbd bc2f 0a3e 2016 87bd
00000130: ba08 0bbd 825e 843d 2c5e 4d3d 7458 313d
00000140: 10ca 1cbc 1111 0ebe 10f6 fa3d d87f 963d
00000150: 54e2 553d 8e05 cb3d dc95 4c3d 5b7e 95bd
00000160: d8d5 023e 00bd 143d b0dc f2bc 35db 02be
00000170: fa4d d1bd cc74 b03d 24cf 103e 9226 0a3e
00000180: 5c20 493d 1442 fb3d 384b f4bd ac00 5f3d
00000190: 3cb7 323d 20bc d33b 0022 9139 3cff 71bd
000001a0: b1cd 0cbe 4f73 e5bd 20ce 0a3e 3ee7 ce3d
000001b0: 49a3 dcbd 944d f43d 4cf1 f03d 88b4 8fbd
000001c0: ee43 8a3d c2a5 67bd 807a 20bb c40b e1bc
000001d0: 8913 b8bd 4025 8b3c 201d 6abd d6dc 32bd
000001e0: d097 b5bc 5cbe 46bd 0050 873c 3f18 89bd
000001f0: 9c29 723d b3b8 0ebe d641 c8bd 6407 debd
00000200: 4440 ddbc 0268 70bd be01 8cbd a0b5 e23d
00000210: 62f5 0bbe dc4e 313d 2418 8dbd 1867 fe3c
00000220: 00a8 e43b 7671 bc3d 2c4d a9bd 2c61 863d
00000230: f10d 9bbd 4d30 06be bc11 663d 28fe e03c
00000240: 00e0 fdbb 6bf3 0cbe c25c 49bd a0cb 013e
00000250: 3654 a2bd b331 01be c004 413c d2e2 9b3d
00000260: fa0a 50bd b4a3 093e 7ae6 b5bd 10f2 bd3c
00000270: 3dca 84bd 04cf 013e 100c 673c 4831 e73c
00000280: 70f8 113e 810c 08be e29d e6bd 2e7e 063e
00000290: 781b e83d 10b3 903d 3990 c2bd 2270 1ebd
000002a0: ee2b d6bd 5cd2 e33d c0f8 90bd b8cd 813c
000002b0: 6af1 01be 90e1 0c3c 1009 21bd 42a2 0e3e
000002c0: 02e1 04be 024c 9dbd 5cf5 543d 02a5 07be
000002d0: 74d8 313d 50bf 0dbe 40c8 4cbc 36de 21bd
000002e0: 6402 c1bc 0caf 0b3e d023 e0bc 44f6 7d3d
000002f0: 22f4 d0bd 040d ffbc 88ea 98bd 6845 a63c
00000300: 74dd 3c3d 98cf e1bd 4046 3e3b 6a1d 0abe
00000310: f1b2 01be e09f ad3b c629 d1bd 915f 05be
00000320: 4024 22bb e0fd 003e 8afc 34bd 1c97 263d
00000330: 8422 0cbe 706e 82bd 9ee0 f4bd 28a8 fd3c
00000340: db49 cbbd ba8e 073e 9ee5 0c3e 588c 5a3d
00000350: a027 25bc c406 dc3d 34ff efbc 8c15 50bd
00000360: b438 0b3e c4e7 b4bd 1139 87bd 0857 123d
00000370: bce7 1abd dcc2 b53d 23ab 95bd c483 393d
00000380: 1011 adbc 2c00 083d 28a4 f3bc 961f 3fbd
00000390: 407b d6bb 5475 093d 3e6f a9bd 8c71 053e
000003a0: d6d9 c03d 0017 feba 306d 3bbc 0eda cd3d
000003b0: 548a 433d d42a 78bd 1196 0cbe b74e debd
000003c0: fa74 58bd 0082 c13a 3959 debd 8d0f 01be
000003d0: de48 b53d 1848 e33d 38a7 e5bd e1db a4bd
000003e0: 385b 793d 64c3 b23d 90b8 f83c 3041 9b3c
000003f0: 51f8 8cbd 6460 26bd 808d 7dbc 9c6f ad3d
0.04428315 -0.05577573 0.06853108 0.123056054 0.0068692714 0.08008991 -0.09442744 -0.05741977
0.021331146 0.09195706 -0.006332502 -0.09020466 -0.0028311908 0.02724865 0.0704087 0.066706955
-0.1428386 -0.022396147 0.033276975 -0.04443048 -0.033426233 -0.014902949 0.10506171 -0.038133845
-0.043218486 0.009732857 0.043043464 0.04934925 0.09568237 0.08896448 -0.10391417 -0.13635632
0.131446 0.087640435 0.08856802 0.023546845 -0.14242026 0.13755763 -0.080137864 0.08477521
-0.009086698 -0.090707794 0.068878144 0.098699346 -0.11093137 0.060226426 -0.0029087216 -0.07946038
0.1307716 0.092296034 0.035106763 0.13409334 0.107031256 -0.053877406 -0.112531126 0.021603748
0.10864967 -0.0782979 -0.12123556 -0.0042174608 -0.13707374 0.037491783 -0.13782053 -0.13406157
0.019256592 -0.10599497 0.119345695 -0.013467893 0.12768462 -0.14094979 -0.0820446 -0.09284796
-0.0964745 -0.10764751 0.13494772 -0.06596017 -0.03394387 0.064633384 0.050138637 0.043297246
-0.00956966 -0.13873698 0.12253964 0.07348603 0.052217796 0.09913169 0.049947605 -0.07299491
0.12776887 0.036313057 -0.029646248 -0.12778933 -0.10219951 0.08616027 0.14141518 0.13491276
0.049103126 0.12268463 -0.11928409 0.054444 0.043631777 0.006461635 0.00027681887 -0.0590813
-0.1375034 -0.11203634 0.13555193 0.101027 -0.10773332 0.11928859 0.11764774 -0.070168555
0.06751238 -0.056554563 -0.0024487078 -0.02747143 -0.08988101 0.016985536 -0.057156682 -0.043667637
-0.022167116 -0.048521385 0.01651764 -0.06694078 0.059121713 -0.13937645 -0.09778182 -0.108412534
-0.027008183 -0.05869294 -0.0683627 0.110697985 -0.13667825 0.043288097 -0.0688937 0.031055018
0.006978035 0.092013285 -0.082666725 0.06561503 -0.075710185 -0.13104363 0.056169257 0.027464941
-0.00774765 -0.13764732 -0.049160726 0.12675333 -0.07926218 -0.12616615 0.011780918 0.07611622
-0.050791718 0.13441354 -0.088818505 0.023186713 -0.064838864 0.12676626 0.014101997 0.028221741
0.14254928 -0.1328602 -0.112605825 0.13134071 0.11333364 0.070654035 -0.095001645 -0.038681157
-0.10457598 0.11124107 -0.07078695 0.015845165 -0.12689748 0.0085987 -0.039315283 0.13929084
-0.12976459 -0.07680513 0.051991805 -0.13246539 0.043419316 -0.13842511 -0.012498915 -0.039518557
-0.02356071 0.13640994 -0.027360827 0.062002435 -0.10202815 -0.031134136 -0.07466608 0.020296767
0.04610963 -0.110259235 0.0029033571 -0.13487783 -0.12665917 0.0052985996 -0.10213046 -0.13024737
-0.0024740845 0.12596846 -0.044186153 0.040671453 -0.13685042 -0.063687205 -0.11956905 0.030963972
-0.09926196 0.1323804 0.13759467 0.0533565 -0.010080248 0.10743478 -0.029296495 -0.0508018
0.1359585 -0.08833268 -0.066026814 0.03572753 -0.037818655 0.08875057 -0.07308032 0.045291677
-0.0211263 0.03320329 -0.029741362 -0.046660982 -0.0065454543 0.03355916 -0.08273171 0.13031596
0.09416549 -0.0019385517 -0.011439607 0.10051356 0.04773934 -0.06058772 -0.13729121 -0.108548574
-0.052845933 0.0014763474 -0.108568616 -0.12603588 0.08851789 0.11097735 -0.11213535 -0.08049751
0.06087801 0.08728674 0.030361444 0.018951982 -0.068833 -0.04061927 -0.015475631 0.084685534

encode_conv6.bias f4 [16]
00000000: 0e6a 8e3d e4db aa3d 44f5 6d3d c207 b53d
00000010: 62f4 4bbd 2046 e53d a6c2 cbbd 1eb0 6cbd
00000020: 59eb d3bd 045c db3d 16f0 853d 7540 b3bd
00000030: 7848 91bd 942e f63d 2768 06be 4010 a3bb
0.06953822 0.08342722 0.05809523 0.0883937 -0.04979361 0.11195016 -0.099492356 -0.057785146
-0.103476234 0.1071091 0.065399334 -0.087525286 -0.070939004 0.12020603 -0.13125668 -0.0049763024

fc1.weight f4 [200, 200]
00000000: b43d 6abd 66de 983d f574 093d c063 053d
00000010: fdba 8c3d e07a 50bd fed4 003c 20c0 443d
00000020: 2bf2 fcba f024 a73a 5d6d 9a3d a2ab 033e
00000030: 7cf5 acbc 75cd 01be c4c0 53be f8a1 55be
00000040: b4ce 5cbe b6b9 29bd e68d 813d 3d2e 373e
00000050: 7c55 4b3e 523b 423d a5c8 7fbe 313e 84be
00000060: 808d a4bc f6c4 b53c c674 883b 4fbf 22bc
00000070: 7f17 1a3d 0fd2 20bd be4a 583d e87a 2f3d
00000080: b5d6 edbc a00b a53c 00c5 973b bbf9 e53d
00000090: ef42 0a3d 3b97 72bd 659a 803b b14a a2bd
000000a0: 976d 86bd 2ac6 cfbc 6701 15bd cb87 f63b
000000b0: a458 f43d e0a1 023e 3bd4 debb 934e acbd
000000c0: 6439 2c3c 1ddc f93c fb31 953c 1d87 86bc
000000d0: 6c7b afbd 0b92 a8bd 5df0 94bd 9e76 40bd
000000e0: 77b7 dabc e930 073d bb59 1d3d b33e c6bd
000000f0: 5e0b 8ebd 9e47 d2bd 8ade 75bd 1167 ef3c
00000100: 3ebb a03c eac0 8dbc 719a ce3d be10 6fbd
00000110: 884b e0bd 6f71 1abe 1c93 10be cee9 bb3c
00000120: 32e2 123e 933b 043d a4cc 733d 6f57 cb3d
00000130: c8ff ad3d 8bb1 273d a40d 113d c0ee 773c
00000140: 6b9a 5fbd 56b3 8e3d 491f 05be 5796 8abd
00000150: 8698 b93d 7b4f 323d ed7e 0dbe a0c0 ecbc
00000160: 0f5c 08bd 6ab4 123d c793 9fbd 705b 4dbc
00000170: d64b 82bd 35b0 3c3e a315 d8bd 114c fcbd
00000180: 32dc a9bd 1481 f13b 0cc9 693d abf3 45bc
00000190: c28d 34bd b8b4 01bd c254 55bd 89c3 203c
000001a0: ef48 8d3c c7de 29bc db58 b1bd 839e 923d
000001b0: e363 65bd e171 02bc 492f e3bc 824b b23a
000001c0: 205a b63d 6b17 1f3d ffed 1e3d 49e3 9e3d
000001d0: 6547 cd3d f5aa 93bd 8bca e2bd 431e 46be
000001e0: bac0 b0bb 5b69 813d 373a be3d 2102 9b3d
000001f0: 793f 1dbd 3fd1 9c3d 3338 dc3c 1f30 7e3d
00000200: ca16 0fbd 9cd3 ba3a 0fb0 1dbd 76dc 4cbc
00000210: 14ee 03bd 89ed 53bc 347f 04bd d997 29bd
00000220: ae11 af3c 63ab e43c 8bdc 4aba caa1 40bb
00000230: 2eef e3bc 9725 f13c bd3c 64bd f60b 09bd
00000240: c6b6 003e ca75 ce3d faa2 abbd 395e 71bd
00000250: abd9 7ebd 2817 653d 01e2 3d3c 46e1 80bc
00000260: aebf bf3d ac48 37bd 2d27 b13d fd9d f6bc
00000270: 2aad 943d 1aed 7fbd f66e 413d fcef c8bc
00000280: 45d6 9f3d 95ed 6cbd 267e 03be 23c3 e43d
00000290: f4ed 6b3d 13c6 05ba 3a0a 363d b99d 323d
000002a0: 344f d63d 1258 d6bc e725 d33c 08f5 19bc
000002b0: ef60 6fbd 2eb5 893d 4f8e e6bc 44f9 313c
000002c0: 6560 c43d ce66 3f3d 2d6c 423b 8c9b 8abd
000002d0: dbb1 8b3d 8b7c ed3c 2503 113d c19d 04bd
000002e0: 8b40 b3bd 283f 12ba ad89 653d 578b a83c
000002f0: 5db5 b3bd 13b3 463c 35c8 eb3b 18eb a6bc
00000300: 3269 483c 2ae8 39bc 897f 1e3e e5e4 23bd
00000310: 6ae8 11bd f7f5 cabd 671f f23c a96f 613b
00000320: 0300 fabc 1b1a acbd d5a2 75bd 23c3 91bc
00000330: 698c 223d 6d53 c23c 5e36 a03c a805 7cbc
00000340: a0c4 0d3d 982a 9bbd 4919 ccbc dcbd 983d
00000350: 10e9 39bd e9f0 34bd ad94 883d 5fb3 3ebc
00000360: 8b2a d5bc 7876 86bd 96b6 8fbd 6b67 0dbd
00000370: 4ae3 f5bd da70 babc 12b0 6a3d 039f 93bd
00000380: f600 763c 32e4 39bd 7b50 18bd 2650 1d3c
00000390: 3b9d 9cbc fbe3 173d 3be2 19bd 8694 51bd
000003a0: bfed b5bd c5fb 50bd 4960 0bbd 0aa4 bebc
000003b0: a40b 0bbb c5bd 3c3d c896 50bd f826 33bd
000003c0: c2e1 513d a3e8 173d 0628 9fbd acca 613d
000003d0: e961 7b3c 8457 a93c eaea d03c 0a71 4bbd
000003e0: e944 27bd 369b fc3b d35a 313d 6127 44bd
000003f0: 281c 413b 019a 1abc 803c 8fbd 0314 7cbd
-0.05718775 0.07464294 0.033558805 0.032565832 0.06871603 -0.050898433 0.007863281 0.048034787
-0.0019298246 0.0012752097 0.07540391 0.12858441 -0.02111315 -0.12676032 -0.20679003 -0.20862567
-0.21563226 -0.041436873 0.06325893 0.17888732 0.19856828 0.047419854 -0.24978884 -0.25828698
-0.020087004 0.022188645 0.004164311 -0.009933307 0.037620064 -0.039262827 0.052805655 0.042841822
-0.029033044 0.020147145 0.0046316385 0.11229273 0.03375524 -0.059226256 0.0039246553 -0.079244025
-0.06563871 -0.025363047 -0.03637829 0.007523512 0.11930969 0.12757063 -0.006800202 -0.08413424
0.01051173 0.030500466 0.01821231 -0.016421849 -0.08568463 -0.082309805 -0.07272408 -0.046988122
-0.026698811 0.03300563 0.03841565 -0.09679928 -0.06935762 -0.10267566 -0.060026683 0.02922395
0.019620534 -0.017303903 0.10088051 -0.058365576 -0.109519064 -0.15082334 -0.14118618 0.022938635
0.14344099 0.032283377 0.059521332 0.09928786 0.08496052 0.040940803 0.0354134 0.015132606
-0.054590624 0.06967799 -0.13000216 -0.06766956 0.09062295 0.04353283 -0.1381795 -0.028900445
-0.03329092 0.035816588 -0.07791858 -0.012534007 -0.06362121 0.18426593 -0.10551002 -0.12319196
-0.08293952 0.0073701236 0.0570765 -0.012082021 -0.044080503 -0.031666487 -0.052082784 0.009812244
0.017246692 -0.010368056 -0.08659526 0.0715914 -0.056003463 -0.007961721 -0.027732508 0.0013602825
0.08903909 0.038840692 0.03880119 0.07758195 0.10023383 -0.07210342 -0.11073788 -0.19347481
-0.0053940685 0.06318923 0.09288447 0.075687654 -0.03839061 0.07657098 0.026882267 0.06205761
-0.034933843 0.0014253738 -0.03849798 -0.012503734 -0.03220947 -0.012935051 -0.032347873 -0.04140458
0.021370735 0.027913755 -0.0007738552 -0.0029393309 -0.02782401 0.02943687 -0.055721987 -0.033458672
0.12569723 0.1008106 -0.08380695 -0.05892775 -0.062219303 0.055930287 0.011589528 -0.015732419
0.09362732 -0.04474704 0.0865005 -0.030104632 0.07259591 -0.062481977 0.04722496 -0.024528496
0.078045405 -0.057843763 -0.1284109 0.11170032 0.057599977 -0.0005103063 0.044443347 0.043607447
0.104643255 -0.026165042 0.02577491 -0.009396799 -0.058442052 0.067240104 -0.02814403 0.010862652
0.09588698 0.0467289 0.0029666529 -0.067679495 0.068210326 0.02899005 0.03540339 -0.03237701
-0.08752545 -0.0005578869 0.0560395 0.020574255 -0.08774827 0.012127656 0.0071954974 -0.020375773
0.012232112 -0.011346856 0.15478338 -0.040013213 -0.035622038 -0.09910195 0.02955599 0.003439883
-0.030517584 -0.08403417 -0.05996974 -0.017793244 0.039684687 0.023721421 0.019557174 -0.015382208
0.034611344 -0.075764835 -0.0249144 0.07458088 -0.04538828 -0.044175062 0.06668983 -0.011639445
-0.026021263 -0.06565565 -0.070172474 -0.034522455 -0.120062426 -0.02275889 0.05729682 -0.072080635
0.015014878 -0.04538364 -0.037186127 0.009601628 -0.019117942 0.037082653 -0.037569266 -0.051167034
-0.08883237 -0.051021356 -0.03402737 -0.02327158 -0.0021216655 0.046079416 -0.050925046 -0.043738335
0.05124069 0.037087094 -0.07771306 0.055124924 0.015343168 0.020671614 0.02550264 -0.04966835
-0.040837202 0.0077089323 0.043299507 -0.047889117 0.0029466245 -0.009436131 -0.06993961 -0.061542522

fc1.bias f4 [200]
00000000: af55 d0bc 9609 deba 96e6 72bd b96e 443b
00000010: c040 d0ba a915 203c eac3 96bc 4142 8e3b
00000020: 486b 193c d1e3 0c3d be18 8abd bfe8 a53c
00000030: da22 763d 031d 1c3c e8c3 913d 0ebc 5b3d
00000040: 9247 febc ea80 143d 266b 9bbd 0291 c73c
00000050: affb 77bd 9166 87bd 6729 9c3c 4a03 563d
00000060: 7f4e 2b3d 3c54 fdbc d0e1 b7bc 2492 2cbd
00000070: 1953 8e3c f966 64bd 3cfe 2bbb 3a62 da3c
00000080: 53f2 6fbd 1a3c 93bd fe9d c2bc 7cc1 8abd
00000090: 323e 533b 1ba8 d8bb 7182 dd3a 5287 f33b
000000a0: d9a0 853d bc9b 2cbd f16f fc3c 3700 003d
000000b0: f21f 2ebb e777 063a 132f d6bc 92a6 813c
000000c0: 5bb7 22bd 8bcf df3c 4c27 46bc 675b 3e3c
000000d0: 0c2d 063d 8377 843d 49e2 813d 14c4 21bd
000000e0: d07f 24bd 8677 533d a193 31bc 0e7a d8bc
000000f0: cfc8 063d da41 073d f129 0ebd d467 d63d
00000100: 0533 54bd 0bea 4ebd 1eb6 c9bc a665 873d
00000110: da8d 81bc de3b a0bc 4eda a0bd cae7 8e3d
00000120: 8af0 90bc 747f 363d 3991 993a 1717 063d
00000130: a755 b63c 424b 9ebd 9c86 973d 0879 2fbd
00000140: 2ddb 483c addd b83c 9f53 4cbd 7d82 773d
00000150: 6b1c 633c 0466 17bd b973 50bd ad65 743d
00000160: 7bb1 85bd 4e21 3bbd 7dca e63c 6fcc 9ebd
00000170: 48bc 7d3b 380a f83c e9b5 ae3c 4778 87bd
00000180: 8208 95bd cf08 323e dfc2 f7bc 581f 9d3d
00000190: 5e66 873d 368e 84bc 6d82 c93d b3bf 2ebc
000001a0: fbcd 4b3d 90b7 99bd e893 62bd 47b4 cd3c
000001b0: 4f05 c1bd ba17 6c3c e7cc 4f3d 02f3 41bd
000001c0: c17d 86bd 7807 1bbd 6f39 07bc c055 8dbd
000001d0: bc0c 2abd 0144 0a3d f6de b23c 75c9 25bd
000001e0: 2c83 19bc 6bf8 16bd 2fde 0dbd 2c52 fabb
000001f0: fe24 0f3d bf77 73bd 454e d3bb a6e9 93bc
00000200: 2654 f6bc 22af db3c 30d2 1a3c 136b 0ebc
00000210: 048a e0bc be8b 8c3d 793e 25bd d752 efbb
00000220: f937 38bd 8d29 873d 3abe dcbc 4ef5 dfbc
00000230: 3b7f b8bc 8a2b 063d 8a27 973b 3479 53bd
00000240: e640 1abd 5fad fbbb 80d7 8b3d 42b9 ab3c
00000250: db64 e5bc 4a44 4f3d a5dc a1bd c1f5 9e3d
00000260: ad10 233c c732 17bd f49e 10bd 7abc 813d
00000270: ec85 8bbd e63d a8b9 b453 0b3d b20a b83c
00000280: 62ea 753d fdbc b43b 009b 7e3b 5967 3a3d
00000290: e40e d1bc f41d 703d 7576 86bc afb7 7abd
000002a0: e464 8cbd 16a6 85bb 73af 3abc f167 933d
000002b0: 7452 f9bc 7df0 b6bc 5154 f53b 12b5 843d
000002c0: 5283 f23c e3e2 993c 0530 a0bc b960 07bd
000002d0: 27b9 1b3d eda1 913d 2eb1 aa3d adec 30bc
000002e0: 76fa 66bd 9010 9b3c 9b80 7dbd 6674 d5bc
000002f0: 81f5 843c cfd8 a13b 759f 6b3d f1b5 6bbd
00000300: a79f 20bd 2e4b 58bd 9e88 2cbd 8959 5cbc
00000310: b67e 593d 1562 79bd c4c2 bf3c aaf5 843d
-0.025431482 -0.0016940113 -0.059301935 0.0029973222 -0.0015888438 0.009770789 -0.018403966 0.004341394
0.009363957 0.03439695 -0.067430004 0.020252584 0.06009183 0.009528401 0.07117444 0.05364614
-0.031039987 0.036255755 -0.07588796 0.024361137 -0.06054276 -0.0661136 0.01906271 0.05224923
0.041822907 -0.030923955 -0.022446543 -0.042131558 0.017373608 -0.055762265 -0.0026244065 0.026658166
-0.058580708 -0.07189198 -0.023756977 -0.067751855 0.0032233116 -0.0066118366 0.0016899836 0.007431903
0.0652482 -0.042140707 0.030815097 0.031250205 -0.0026569334 0.0005129561 -0.026145494 0.015826497
-0.039725643 0.027320644 -0.01209433 0.011618472 0.032757804 0.064681076 0.063419886 -0.039493635
-0.040160954 0.05162766 -0.01083842 -0.026425388 0.03290635 0.033021785 -0.034707967 0.104690224
-0.05180647 -0.05051617 -0.024622973 0.06611185 -0.01581471 -0.019559797 -0.07854138 0.06977804
-0.017692823 0.044555143 0.0011716253 0.032736864 0.02225764 -0.07729198 0.073987216 -0.042840034
0.012259287 0.02256664 -0.049884435 0.060427178 0.013861756 -0.036962524 -0.05089161 0.059667278
-0.06527992 -0.04568606 0.028172726 -0.07753836 0.003871696 0.03027831 0.021326976 -0.06614738
-0.07277013 0.17386173 -0.030244289 0.07671994 0.06611322 -0.016181093 0.0983933 -0.010665822
0.049756985 -0.07505715 -0.055316836 0.025110377 -0.09424841 0.014409954 0.05073252 -0.04735089
-0.065669544 -0.03784892 -0.008253439 -0.06901121 -0.04151605 0.03375626 0.021834832 -0.040475328
-0.009369653 -0.036858004 -0.03463572 -0.00763919 0.034947388 -0.05944037 -0.0064485394 -0.018055748
-0.030069422 0.026816908 0.009449527 -0.008692521 -0.027409561 0.06862591 -0.04034278 -0.0073035765
-0.044975255 0.06599722 -0.026946176 -0.02733865 -0.022521606 0.032756366 0.0046128677 -0.05162926
-0.03765955 -0.0076805796 0.06828213 0.020962361 -0.028002193 0.050602235 -0.07903413 0.077617176
0.009952706 -0.03691366 -0.03530784 0.06334777 -0.06812653 -0.00032089575 0.034015372 0.022466037
0.060037978 0.005515693 0.0038849711 0.045508716 -0.025519796 0.058622316 -0.016413907 -0.06121033
-0.06855181 -0.004078637 -0.011394369 0.071975596 -0.030434825 -0.02233147 0.007486858 0.06479849
0.029603634 0.018784946 -0.019554147 -0.033051226 0.038018372 0.07110963 0.083345756 -0.010798615
-0.056391202 0.018928796 -0.061890226 -0.02605648 0.016230347 0.0049391757 0.057525117 -0.05754656
-0.039214756 -0.052806072 -0.042122476 -0.013449081 0.053099357 -0.060884554 0.023408301 0.06492169

fc3.weight f4 [100, 200]
00000000: 7c4d 19bd a0c3 2ebd e3d8 40bc ea08 b63c
00000010: 6ef0 8bbc 360f 02bd 0da7 73bd 6fba 763d
00000020: 2000 943d 373f 76bc b628 873c 31b5 a43b
00000030: 38b5 d13c c4a8 733c 2b18 a7bc ba0a 413d
00000040: f927 183d e46d 423d ffe5 c9bb b989 dcbc
00000050: 12b2 fc3b 6b9b 233d c569 13bd 719f 053d
00000060: 5e39 bd3c 4eda 66bd f26f e8bc d62e c13c
00000070: 1c5f 4ebd 9dec 25bd 2456 733d 5a97 853d
00000080: 288f 2abd ffda 39bc a57c 913d 448c ca3c
00000090: b7ef 67bd d6ff 7ebd 3ec8 2abd 321d c23c
000000a0: 56bc 6bbb cbe0 41bd a59d 983b 0aa3 debc
000000b0: 7927 633c 560c 913d 9f72 c5bb ede1 153e
000000c0: a6a2 a1bd 4bc2 c43b 38fc 933c 83c1 603d
000000d0: a1ad 4b3d 9c2e 033d 7f2d 523c e0ae 893b
000000e0: 98bb d73c eb9b 7e3d b3c8 8d3d 2802 523d
000000f0: b464 9b3d b999 3f3d aa0d 6ebc 33ec 7c3c
00000100: 2181 17bd d471 c5bc 5012 bfbc 38ef 8e3c
00000110: deee 8f3d 3372 87bd f925 0e3d 79bf 993d
00000120: 3c03 7fbb 30f2 103d 16d8 993d 5452 623d
00000130: ff5f cebc 2696 87bd 7fff efbc 60f1 60bc
00000140: 94c8 b23e fcf4 e5bc 78e9 593d 0692 1a3d
00000150: 82c6 cbbc 0f6e 2b3d c59c 933c a2ff bf3c
00000160: 101f 8b3c f096 823c 3bca 393d 2ff3 f5bc
00000170: 0168 8d3d 5442 01bd 6a9f 593d 041b 963d
00000180: 2356 71bc 5874 983c 3b8e c43b ba39 bbbc
00000190: 1703 4d3a 2315 603d d209 043d d83a 633d
000001a0: ce52 903d 0496 293d 886e 09bc 4ec7 7dbd
000001b0: 9539 0f3d 6f66 0b3c f8b8 683c ee68 6b3d
000001c0: 01f4 c13c e064 15bd 43d6 50bd 7806 05ba
000001d0: 3cd1 8b3d 85d0 b9bc 4ce8 513c c01a 6abc
000001e0: 367a 983d 8cf5 1fbd e425 19bd d514 803d
000001f0: 8cfa 2dbd a84d 193d c545 7abd e5e7 0a3c
00000200: b099 cf3d e63c 6d3d cfca 333d a4eb 71bd
00000210: 143f 6a3d 4505 213d 27be 913d 449b 0ebc
00000220: f872 bf3c cc98 be3d 8609 9b3d 0738 75bc
00000230: 0992 51bd c84c a6bc edd5 573d 7e82 dcbc
00000240: e080 b73c e5cc 6f3d 601f 283d 422a 3d3d
00000250: 5662 0cbc 9629 22bd 67ee 01bd 9a72 71bd
00000260: c899 8fbd f59c 843d 829c 1bbd ed8f 4b3d
00000270: 7118 48bc d8bc 0abd 163e eabc 1efa b93c
00000280: 630c 8a3d 6dbe 55bd 0c6c 10be 51cd 603c
00000290: 944f 0d3d c194 32bd 0a1c 033d 6ce8 34bd
000002a0: e258 af3d 2661 0e3d c6c1 a0bc 97f8 52bc
000002b0: d84e 0cbd 58f8 3d3d 1813 443d 6841 8d3d
000002c0: c1ca ac3b 39cd 443d 6ee3 e9bc be36 a43c
000002d0: 2e83 3b3e 9cf8 12bc a136 253d 1933 693d
000002e0: 2c7c d0bd 9666 0dbd 41f8 00bd e2f8 86bd
000002f0: a2e8 113b 0f06 73bd 5324 0dbc 8133 46bd
00000300: 5f34 c0bc 08ea 9c3b 60a5 38bd db3e 9d3c
00000310: 5ecd 443c a4a5 443d 7217 e23d c54b 373d
00000320: 55b8 d7bd 9933 4bbc 205a 393c 663a febc
00000330: 5cdd e03b eeb7 b53c 700f 1cbd a100 6abc
00000340: ae53 223c 05b3 803d 5e25 67bd a32c ea3c
00000350: b537 83bd 1013 b03d f7ad 683d a7cc 873d
00000360: abc6 313d 1049 183a 7609 fb3c 9aae 5a3c
00000370: d688 8c3d d24e 143d b9fd 6e3d d505 53bd
00000380: 5bb6 d23c e215 30bd 227c 48bd 8601 9d3d
00000390: d772 e63c 9ea1 32bc b5c6 35bd 417b 32bc
000003a0: 4d41 8ebd 32da 153c 94d4 12bd ea41 14bd
000003b0: adc8 613d 7363 16be 663e 02bb e4f5 11bc
000003c0: 00ec 88bd 0eb6 96be 7451 253d 5aa3 13bd
000003d0: 53a4 62bc b991 3ebd dace 91bd 5df4 ff3d
000003e0: cc1a a8bd c558 1a3d 8003 3abc 011e 043d
000003f0: 8192 e63d 354b 003d c794 78bd 13d7 a0bc
-0.03742741 -0.04266703 -0.01177046 0.022221047 -0.01708242 -0.031752788 -0.059485484 0.06023639
0.07226586 -0.01502972 0.016498905 0.0050264825 0.025599107 0.01487178 -0.020397266 0.04712937
0.037147496 0.04746808 -0.006161451 -0.02692114 0.0077116573 0.03994314 -0.03598954 0.03262276
0.023098644 -0.056360535 -0.028373692 0.023581903 -0.050383672 -0.040508855 0.059408322 0.06523009
-0.04164043 -0.011343717 0.07103852 0.024725087 -0.056625094 -0.062255703 -0.041694872 0.023695562
-0.0035970411 -0.04733352 0.0046574646 -0.027177352 0.0138643915 0.07082431 -0.006025627 0.14636965
-0.07892351 0.006004607 0.018064603 0.054872047 0.049726132 0.032026872 0.01282823 0.004201755
0.026334569 0.062160414 0.06923046 0.051271588 0.07587567 0.04677746 -0.014529625 0.015437174
-0.03698838 -0.024102129 -0.023324162 0.017448053 0.07027982 -0.06613579 0.034704182 0.07507224
-0.003891184 0.035387218 0.07511918 0.055254295 -0.025192259 -0.066204354 -0.029296635 -0.013729423
0.34918654 -0.02807092 0.05320117 0.037736915 -0.02487493 0.041853007 0.01801909 0.023437325
0.016982585 0.015941113 0.045358878 -0.030023186 0.06904603 -0.031557396 0.053130545 0.073293716
-0.014730009 0.018610165 0.0059984005 -0.022854675 0.000782059 0.054707658 0.032235928 0.05547604
0.07047044 0.04140283 -0.008388169 -0.06195765 0.034967024 0.008508309 0.014204256 0.057473116
0.02367592 -0.036473155 -0.050985586 -0.0005074511 0.06827018 -0.022682438 0.012811732 -0.014288604
0.07445185 -0.03905253 -0.03738965 0.062539734 -0.04247527 0.037427574 -0.061101694 0.0084781395
0.101367354 0.057919405 0.043894585 -0.059062615 0.057189062 0.039311666 0.07116347 -0.00870401
0.023370251 0.093064874 0.07570176 -0.014966971 -0.05116466 -0.020300284 0.05269425 -0.026917692
0.02240032 0.058545012 0.041045547 0.04618288 -0.008568367 -0.03959044 -0.0317215 -0.058947183
-0.07011753 0.0647525 -0.037991054 0.049697805 -0.012212859 -0.0338715 -0.028594058 0.022702273
0.06740644 -0.052183557 -0.14103717 0.013720826 0.03449972 -0.043598894 0.032009162 -0.044166967
0.08561875 0.034760617 -0.019623648 -0.012876651 -0.03425488 0.046379417 0.04786977 0.06897241
0.0052731936 0.048047278 -0.02855083 0.020045634 0.1831176 -0.008970406 0.0403353 0.056933496
-0.10179934 -0.03452166 -0.031486753 -0.065904394 0.0022263904 -0.05933195 -0.008614617 -0.04838896
-0.023462472 0.004788641 -0.04507959 0.01919501 0.012011854 0.04800953 0.11039628 0.044749994
-0.105332054 -0.012402439 0.011312991 -0.031033706 0.0068623256 0.022182431 -0.03810066 -0.0142823765
0.009907646 0.06284145 -0.05643212 0.028585738 -0.0640711 0.08597386 0.05680653 0.06630831
0.043402355 0.0005809227 0.03064416 0.013347292 0.06862037 0.03620798 0.058347438 -0.051519234
0.02572172 -0.04298962 -0.048946507 0.07666306 0.028130932 -0.01090279 -0.044378955 -0.010893644
-0.06946049 0.00914626 -0.03584726 -0.036195673 0.05512302 -0.14686374 -0.0019873618 -0.008908723
-0.066856384 -0.29435772 0.040360883 -0.036044456 -0.013833123 -0.04652569 -0.07119532 0.124977805
-0.08208236 0.037682313 -0.0113533735 0.032255176 0.11258412 0.031321723 -0.06068876 -0.019633805

fc3.bias f4 [100]
00000000: 6a2c 33bd c974 9c3c 8e0a 2e3d 5487 57bc
00000010: 62b0 2cbd d9d2 82bc b57f 783d 8958 263c
00000020: 2807 11bd 2bd7 d3bc 4be9 8c3d ed13 d8bc
00000030: 5d56 903d cbe7 5fbd 1703 49bd 2d5f 7a3c
00000040: 8a7c 3d3d 2693 04bd ec26 f6bc 54db 5ebd
00000050: 8136 6f3d c240 b83a 0693 113c 3001 6abd
00000060: 40ed 50bb 9a9b d03c 2fc9 213c b84f 203d
00000070: 2986 eebb da7f c83b 212e fc3b deda dfbb
00000080: 2647 313d 5af3 5bbc f654 9fbc 2472 18bd
00000090: f5b3 613d fc38 febc 4835 ffbc 7f77 95bd
000000a0: 2784 df3a c7b8 ae3c aca8 80bc 4287 9b3b
000000b0: c6a1 423d 5203 d33d c761 71bd f3e7 ed3b
000000c0: 3b49 dc3d aae1 4abd 0b15 7cbc e9ba b73b
000000d0: daad dabc 5c8a 4dbd 77bd eb3a a838 5ebd
000000e0: fe53 dcbc c103 acbc 8327 80bd 92a5 56bd
000000f0: b0b9 89bd a37d b23c ffb5 473d 3f63 9dbd
00000100: 0aa2 a73b 5b83 cd3c 1e1f 0a3d 9386 58bd
00000110: 2a2b 473d f29e 88bd a1aa 053d 95ac 91bb
00000120: 66c6 5bbd 3593 5b3d d84a 223c 319d a5bd
00000130: 62ba 0c3d 38e3 0bbd f9d0 05bd 0cc9 213a
00000140: 015c 33bd 5265 efbc 0bef 983c 0536 c9bc
00000150: 4c59 a3bd 61b8 95bd 865b f33c 2aa5 863c
00000160: cab1 9d3c d403 c8bc 6f92 abbd dfd9 80bc
00000170: 087c 103d 8572 5abd ca87 03bd 0b25 80bd
00000180: aaae 2fbd d45d 84bd 41b6 ec3c 0164 9bbd
-0.04374353 0.019098656 0.042490534 -0.013154823 -0.0421604 -0.01596968 0.060668666 0.010152944
-0.035407215 -0.025859436 0.068804346 -0.026376689 0.070477225 -0.054664414 -0.049075212 0.015281481
0.046261348 -0.032366894 -0.030047856 -0.054408386 0.05840159 0.0014057385 0.008885151 -0.05713004
-0.0031879693 0.025464822 0.009874626 0.039138526 -0.0072791767 0.0061187567 0.0076959287 -0.006831511
0.043280743 -0.013424719 -0.019449692 -0.037218228 0.05510326 -0.031033032 -0.031153336 -0.07298183
0.0017052934 0.021328343 -0.015705429 0.0047463486 0.04751756 0.10303368 -0.05893114 0.0072603165
0.10756155 -0.049531616 -0.015385876 0.005606998 -0.026694227 -0.050180778 0.0017985542 -0.05425325
-0.02689552 -0.020997884 -0.06257536 -0.052403994 -0.0672487 0.021788424 0.04875755 -0.07684945
0.005115752 0.02508705 0.033721082 -0.052862715 0.04862515 -0.066709414 0.032633428 -0.004445622
-0.053656004 0.053607184 0.009905539 -0.080866225 0.034357436 -0.03415224 -0.032669995 0.0006171621
-0.043788914 -0.029223118 0.018668672 -0.024561891 -0.079760164 -0.07310558 0.029706728 0.016436178
0.019249815 -0.024415888 -0.08377539 -0.015728889 0.035274535 -0.05333187 -0.03211192 -0.062570654
-0.042891182 -0.06463209 0.0288955 -0.075874336
