training_model/wandb/run-20200624_224355-kgqmxqp1/AE_filter_3.pt (torch_old, 250492 bytes, 16 tensors)

encode_conv1.weight f4 [4, 12, 3]
00000000: 572c b33b 7ad7 d13d 8a9f 6f3e 203a bc3e
00000010: 5e85 083e 5d97 6e3d 2983 0f3e 5d85 cd3d
00000020: 3c56 b3bd 3bb1 b93d 7a39 1b3d bdc8 49bd
00000030: 5622 17bd f7bd 8dbd b4fb 613e 3a06 60bc
00000040: aba3 153e 2f1e 06bc cbe9 903d 90e4 ec3d
00000050: 14fb 79bc 62c4 f0bc 93eb 093e 83f2 2d3e
00000060: a641 b03d 4d43 433e 6d60 3c3e 3aad 843e
00000070: 06d7 d83d 72ac ac3d 6bc4 393b cab7 12bd
00000080: 8e2f 173e d8d0 dabc 5331 bf3d af69 313e
00000090: 0423 dc3d f7fd 753c 919e 793e 96e8 e1bb
000000a0: aced 843d c10c 48be 6d33 0fbd 1520 17bc
000000b0: 703e 573d b7ad 973d 8bdc a3bd 5a56 d23b
000000c0: d768 743e bb68 573d 594f a73d 0d8a af3d
000000d0: 3be9 73bd 997b 873d d963 50bd c1ae 03bc
000000e0: 0412 a1bb 0b87 943c ba26 09bd 64b6 033d
000000f0: 31da 973e b20c a43e 2156 de3c 726d d0bd
00000100: 4ab0 b73d 7a28 acbb 298f 663e 3a6d 0c3e
00000110: b757 c0bd 12b9 623e 19fc 403e f4d7 b9bd
00000120: 5a50 193e bacd 783d 3191 083d 29e2 89bd
00000130: 114c 253e c527 12be 2af4 7eb9 519f 3b3e
00000140: 1e6d a63d d1f1 f9bd b9f1 babd 2858 d63d
00000150: bfb8 0a3e aff4 853d 21ad a93c 0da6 133e
00000160: 5a51 623d 4514 4ebc e4f1 c3bd 1393 323e
00000170: 16fd c63d c6be 3a3e c9de dabd 0514 8fbc
00000180: 4baf a6bd 6d66 4e3e ae76 b23c f183 673e
00000190: 2f40 cb3d 1224 fc3d 3f4a ef3d 9700 97bc
000001a0: 7b2e 993d 061c be3d 0fd4 3b3d fced efbd
000001b0: c24b 903d 924b 583e 193d b2bc 2837 513d
000001c0: 991d 1b3e 7f90 4f3b a652 053c 45c2 b13c
000001d0: 9539 833d 552d 2dbc db39 033e 0db8 2b3e
000001e0: aed8 fb3d b7af fe3d f6e8 17bd b603 2b3e
000001f0: 5fec 82bd be51 9b3d 718c 9b3d ab88 15be
00000200: 4d01 9a3d 5326 163e 2263 b9bc 689b f73c
00000210: 8d9c c6bd b3ba ec3d 3a0e fe3b c4ea 67bd
00000220: f160 c23d 7cdb 46bd 43cb 313e 9483 ec3d
00000230: e602 c8bd c5f7 4bbd 68a1 533d ae7b 233e
0.005467932 0.10246177 0.23400703 0.36763096 0.13332126 0.05824982 0.14014877 0.10035203
-0.08756682 0.09067007 0.03789661 -0.049263705 -0.03689798 -0.069209985 0.22068673 -0.0136733595
0.14613216 -0.008185907 0.070758425 0.11567032 -0.015257616 -0.029390518 0.1346877 0.16987042
0.086062714 0.19068642 0.18396159 0.2591341 0.105878875 0.08431329 0.0028345834 -0.035819806
0.14764234 -0.026710913 0.0933558 0.17325471 0.10748866 0.015014163 0.24376895 -0.0068941815
0.06490645 -0.19536115 -0.034961153 -0.009223958 0.05254978 0.0740618 -0.080010496 0.0064189853
0.23868118 0.052590113 0.08169431 0.08571253 -0.059548598 0.06615371 -0.050876472 -0.00803727
-0.0049154777 0.0181308 -0.0334842 0.032156363 0.29658654 0.32040936 0.027140679 -0.10177125
0.08969171 -0.0052538486 0.22515549 0.13713542 -0.0939173 0.22140911 0.18846168 -0.09074393
0.14972058 0.06074307 0.03334159 -0.0673259 0.16142298 -0.14272983 -0.00024314286 0.18322493
0.08126281 -0.12204326 -0.09128136 0.10466033 0.13547038 0.0654081 0.020712437 0.14418812
0.055253364 -0.012578075 -0.09567621 0.17438917 0.09716241 0.18236837 -0.10687024 -0.0174656
-0.08138903 0.2015626 0.021785107 0.22608925 0.099243514 0.12311567 0.11684083 -0.018432898
0.074795686 0.09282689 0.04585653 -0.11715314 0.070457 0.21122578 -0.02175765 0.05107799
0.1514801 0.003167182 0.008137381 0.02169908 0.06407467 -0.01056989 0.12815039 0.16769429
0.12297188 0.12435859 -0.037087403 0.16700634 -0.063927405 0.075839505 0.075951464 -0.14602916
0.07519779 0.14663057 -0.022630278 0.03022547 -0.096978284 0.115590475 0.007753161 -0.056620374
0.09491146 -0.04854916 0.17362694 0.11548534 -0.09766178 -0.04979684 0.0516676 0.15965149

encode_conv1.bias f4 [4]
00000000: b6e4 4ebe 0732 92bc b38a ccbd 6d13 813d
-0.20204434 -0.01784612 -0.09987392 0.06302533

encode_conv2.weight f4 [4, 4, 3]
00000000: 888b cebd b2ea 523e 6b16 d53c 9f49 86be
00000010: 1b98 9dba 03ad a93e 384e 53bd f934 dfbc
00000020: 95c3 cf3d cdcd 8d3e ba17 0abe a25e 743e
00000030: 7be6 193e 2862 293e 980c eebb 460d f8bd
00000040: 5140 a73e 7dd5 d33d 54a9 9d3d b628 b03e
00000050: b953 4e3e 2ced 893e 3e2c 57bd 104e 673e
00000060: b3de 2d3d 671e 0c3e 1df2 b83e 5c65 45be
00000070: ebad 0d3d c742 28bd 4944 023c 2d18 763d
00000080: 3b9c 0ebb 2fc1 623e b49f 053e 4a5d 35be
00000090: ddff 14be b261 183e e832 7f3d 0358 73be
000000a0: 50c8 403d db75 983e a93a bb3d d450 713e
000000b0: 00b1 88bd be24 573d 703b 863e 75fa 9b3e
-0.10085207 0.20597342 0.026011666 -0.26228043 -0.001202348 0.3313981 -0.051588267 -0.027246939
0.10144726 0.27696076 -0.13485613 0.23864225 0.15029328 0.1654135 -0.007264685 -0.12111907
0.32666257 0.10343454 0.076983124 0.3440606 0.20149125 0.2693876 -0.052532427 0.22588372
0.04244871 0.13683473 0.36122218 -0.19276947 0.03458969 -0.04107931 0.007950851 0.06008165
-0.00217606 0.22144006 0.13049203 -0.17711368 -0.14550729 0.14881018 0.062304407 -0.23764043
0.047066033 0.29777417 0.09142048 0.2356599 -0.06674385 0.052525274 0.26217222 0.3046452

encode_conv2.bias f4 [4]
00000000: 1859 06be 9f83 393e 1d17 cfbe 6088 9b3e
-0.13119924 0.18116616 -0.40447322 0.30377483

encode_conv3.weight f4 [8, 4, 3]
00000000: 69f9 8d3d 7fad e7bd 7641 81be 4c6e 60be
00000010: 72fd 8abe 12f8 9cbe bd19 84bd 6f8a e0be
00000020: 13e9 18be 8a67 0cbd 5da2 bcbd 9317 c3bd
00000030: d2aa 4dbe 875d 543e 9226 643e 0ef9 c5bd
00000040: 4576 82be 2c3a 023e 9a35 393e 2b2c ba3d
00000050: b812 e1bc f60e ebbd 84ef 8dbe 8e43 40be
00000060: 0050 a13d a24a 283e 0f35 51be 0dfe 74be
00000070: 93bc 62be 964d 063e 6373 1abe 86ac 4b3e
00000080: 1dfd 7bbe 3003 503d ab64 e93c b1da 58bd
00000090: 7c35 ba3d d34f c53d 6ec0 37be d757 88be
000000a0: d1cf 983d b40e 3ebe 71f8 13be a07d 95be
000000b0: 7642 7cbe 3148 38be b07e 7c3d b081 cf3d
000000c0: 20d3 58be c70c d23d 077f 51be 3262 0c3e
000000d0: 037b c43d cc0d 38be 1f8b 50be 77b2 9fbe
000000e0: 02d7 52bd 5a40 1fbe 9de4 f33d 7a4f 773e
000000f0: c63d 65be 4441 90be fa09 d5bd 1ed3 30be
00000100: de2a 20be 7112 a4bd b0cc 143e f18a 843e
00000110: f754 65be 6a6e 963d ec74 ff3d 6ae7 aebd
00000120: 3f90 7bbd fcdf ab3b c97c 3c3e f44f 693e
00000130: 5f6a 81bd 4530 ac3e b7b0 ef3e 13ba ba3e
00000140: d08b bd3d 33a4 e53d 49a3 f3bc 72a4 d0bd
00000150: 225a 5f3e cc7b 4c3e c8c0 683e 8dbe 223d
00000160: fffe 7f3d 2e0a 8c3e 39d3 473e 9ba4 523e
00000170: 8f2d 853e 4a98 3a3d 36dc 9f3e 6dfc 6b3e
0.06932337 -0.11312389 -0.25245255 -0.21917075 -0.27146488 -0.30658013 -0.06450222 -0.43855616
-0.14932661 -0.03427843 -0.09210656 -0.09525981 -0.20084694 0.20738803 0.22280338 -0.09666644
-0.25480857 0.12717503 0.18086854 0.090904556 -0.027474746 -0.11477463 -0.27721798 -0.1877577
0.07876587 0.1643472 -0.20430396 -0.23925038 -0.22142248 0.13115534 -0.15083079 0.19890031
-0.24608274 0.05078429 0.028490385 -0.052942935 0.090922326 0.09634366 -0.179445 -0.26629516
0.07461513 -0.18560296 -0.14450242 -0.29197407 -0.24634728 -0.17996289 0.061644256 0.10132158
-0.21174288 0.10256343 -0.20458613 0.13709334 0.09593775 -0.17974013 -0.2036557 -0.31190845
-0.05147458 -0.15551892 0.11908839 0.24151412 -0.22386846 -0.28174794 -0.104022935 -0.17268035
-0.15641353 -0.0801133 0.14531207 0.25887254 -0.22395693 0.073452786 0.12473473 -0.085402325
-0.06141686 0.005245207 0.18406977 0.22784406 -0.06319117 0.33630577 0.4681451 0.36470088
0.09255183 0.11212959 -0.029740946 -0.101876155 0.21811727 0.199691 0.2272979 0.039732505
0.062499043 0.27351516 0.19514169 0.20570605 0.2601132 0.04555539 0.31222695 0.23045512

encode_conv3.bias f4 [8]
00000000: b644 a63d c50a 75be 7cab 6cbe a684 77be
00000010: 73c6 9e3d 2393 b7bd afd9 4bbe bd1a 603e
0.08118574 -0.2392989 -0.23112291 -0.24171695 0.07752695 -0.08963611 -0.19907258 0.218852

encode_conv4.weight f4 [8, 8, 3]
00000000: fa36 10be 8a22 87bd 555c 39bb fa8d 2ebe
00000010: fbc9 a0bc dec5 34be 5dd8 17be be24 1eba
00000020: cc83 b7bb 5786 22be 7214 253e 33bb 5abe
00000030: 00d8 fe3d 00d9 21be 8c8a 463d 6155 123e
00000040: 421a b03d 33a1 2d3e 14cc 523e 85fc 3c3e
00000050: 34d8 8c3e 5299 523e 08ee 383e ac65 19bc
00000060: 5613 10be e175 da3d bebc 233e 30a4 25bc
00000070: 863c a63d 61ac b53d b92c ebbd 2d12 15be
00000080: da69 0c3e d17e 5f3d 785e 81bc 801b c73d
00000090: 8d74 f33d f824 4e3e 06e2 f6bd 59f2 453d
000000a0: 7f94 a93d 38ff 32be 931f 413e 8807 30be
000000b0: 1454 8abd bef3 d8bd 4c5d 9f3d 0f4c c4bd
000000c0: ea02 d9bd c314 1abd d175 42bd 2f34 193e
000000d0: d546 063d da6a f4bd 5b52 253d 11f3 cc3c
000000e0: 6c29 3c3e e9e0 503e e3e6 e33c e36a 413e
000000f0: ea5c a63d 5b77 36be a313 5fbd c968 d03d
00000100: 3d44 d8bd 6312 1bbd fbf3 57bd d3f1 053e
00000110: 94cf b7bc 1280 18be 1000 28bd 11e5 60be
00000120: 772a 62bd f612 a6be fccf 2b3d 4613 8bbe
00000130: 670a 38be bdfa cfbd 575c 91be 015b 1cbb
00000140: 7d28 9cbe b5b3 9dbe 912a 9ebe 6d6c b4bc
00000150: 00d8 30be 42ac b1be 01a0 91bd 9995 58be
00000160: f181 8abe aa57 ebbd 05f9 5b3e a6a2 323e
00000170: eb81 ee3d 0524 6d3e 90fa 183e 9c1b 8ebd
00000180: c51e 01be 7185 aebc 9fef 19bd ba23 82bd
00000190: 256b 063e 6205 67bd c5d1 373e 4003 e33d
000001a0: 58a4 dc3d 6906 adbd 12b2 c73d 4a2f 9ebb
000001b0: 745f 363d 14c4 d5bd c41b 0dbe 6705 dbbd
000001c0: a76c fb3d 7111 c73d 780d 02be d1f1 393e
000001d0: bfd6 1a3e 923f 38bd b8a4 553e 3f5b 4abd
000001e0: 4e33 383e 30c2 4f3e cbd6 b5bd 9c2e bd3d
000001f0: b44b 8abd 8ba2 373e e70c 1a3e c8de 27be
00000200: 4d05 203e c38c 89bd 254f 18be 8f16 893d
00000210: 038b 2d3d c0b3 c4bc d620 8d3c 5b16 13be
00000220: dd90 393e f545 8f3d ca30 46be 271a 58bd
00000230: 22b1 4e3d 7dbb 04be aed7 eabd 2bbf 5abe
00000240: 6d93 163e d2ec 953d 5fd4 60be b99a 2b3e
00000250: d65a 2bbe 600c 2cbe 24dc 99bd 9d46 013e
00000260: 0272 ae3d 58fd a33d ce0a 3dbe 9d5c b3bd
00000270: 1883 8fbd 3acb edbd bd8f a43d 7cc5 d0bd
00000280: 0d55 03be bbd5 c63d 1a85 7e3e 24c3 373e
00000290: 0c07 983e e8c7 653e 4347 1d3e 7b88 ad3d
000002a0: 4340 a0bd 9911 643d d3c6 34be 129f f7bd
000002b0: 907f 3abe 2bfb ab3d 2569 07be 2f81 9f3d
000002c0: 4b5f 573e c4ae 593e 5702 b13d ccab 9abd
000002d0: 19fc cb3d 9bcc 50be 5896 dfbc ddae 403e
000002e0: bbc9 7fbb 0e6d 3cbe 40c9 3dbe 18c9 f0bd
000002f0: a7d0 043e 08d6 b4bd 95d6 cbbd 4d78 6cbd
-0.14083472 -0.06598385 -0.0028283794 -0.17046347 -0.019627562 -0.17653605 -0.1482863 -0.00060326967
-0.005600428 -0.15871559 0.1612108 -0.21360473 0.124435425 -0.15805435 0.048471972 0.14290382
0.08598758 0.16956024 0.20585662 0.18455704 0.275087 0.205663 0.18059552 -0.009362619
-0.14069876 0.10667015 0.15989968 -0.010109946 0.08117013 0.08870769 -0.114831395 -0.14557715
0.13712254 0.0545643 -0.015792117 0.09722042 0.11887465 0.2013129 -0.12054829 0.048326824
0.082802765 -0.1748017 0.18859701 -0.17190373 -0.06754318 -0.10593365 0.07781467 -0.095848195
-0.10596259 -0.037617456 -0.04747564 0.14961313 0.032782394 -0.11934443 0.040361743 0.025018247
0.18375176 0.20398296 0.027820056 0.1888843 0.08123191 -0.17818968 -0.054462086 0.10176236
-0.105598904 -0.03785933 -0.052722912 0.1308053 -0.022437848 -0.14892605 -0.041015685 -0.21962382
-0.05521628 -0.3243634 0.041946396 -0.27163142 -0.17972718 -0.101552464 -0.28390762 -0.0023857953
-0.3049964 -0.30801168 -0.3089185 -0.022024358 -0.17269897 -0.34701735 -0.071105964 -0.21150817
-0.27052262 -0.1149133 0.21481712 0.17444858 0.11645874 0.23158272 0.14939332 -0.0693886
-0.12609394 -0.021303864 -0.037582036 -0.063544706 0.1312681 -0.056401618 0.17951114 0.11084604
0.107735336 -0.08448488 0.09750761 -0.0048274146 0.044524625 -0.104377896 -0.13780123 -0.1069439
0.12276583 0.097201236 -0.1270045 0.18158652 0.15120982 -0.0449825 0.20863616 -0.049403425
0.17988321 0.2028892 -0.08878859 0.09237406 -0.067527205 0.17933099 0.15043984 -0.16393578
0.15627022 -0.06716301 -0.14873941 0.06693756 0.0423689 -0.024011493 0.017227571 -0.14363997
0.18121667 0.06995765 -0.19354549 -0.052759316 0.050461896 -0.12962146 -0.11466919 -0.21361987
0.14704676 0.073205605 -0.21956013 0.16758241 -0.1673387 -0.16801596 -0.075126916 0.12624593
0.08517839 0.08007306 -0.18461153 -0.08757899 -0.07007426 -0.11611028 0.080352284 -0.10193917
-0.12825413 0.097087346 0.24855462 0.17945534 0.29692876 0.2243954 0.15359215 0.08473297
-0.07824757 0.055680845 -0.1765397 -0.12090887 -0.18212724 0.08397516 -0.13223703 0.07788312
0.21032445 0.21258074 0.086430244 -0.07552299 0.09960193 -0.20390551 -0.02729337 0.18816705
-0.0039030153 -0.18400976 -0.18533802 -0.117571056 0.1297022 -0.08829886 -0.09953038 -0.057731915

encode_conv4.bias f4 [8]
00000000: 133f a13d c204 fd3d 80f0 64be b440 e23d
00000010: b5d2 203e de00 25be bfc2 50bd 0255 333c
0.078733586 0.12354423 -0.22357368 0.110474974 0.15705378 -0.16113612 -0.050966974 0.01094556

encode_conv5.weight f4 [16, 8, 3]
00000000: 6ab5 a4bd ac02 6dbd 6049 923c 8d38 23be
00000010: 5956 f0bd e6e6 a1bd e093 92bc 1a5a 033e
00000020: 18ef 70bd be54 0f3e 9490 d23d c067 363b
00000030: dc11 89bd 38ac 8f3c 3bd2 4fbe a880 a13d
00000040: 8cce 7fbd 6cd6 2cbe 0017 c63d 402d 473e
00000050: c8c9 e5bc 7c7c 243d 8040 4ebe 7071 473e
00000060: 4c8f bbbd 9c94 52bd db36 b8bd 404a 003b
00000070: c987 febd e05a ce3c 5889 7d3d 88a0 643d
00000080: b88a 19be a4a7 343e 5b20 b1bd fc45 123e
00000090: 805e 7f3b a994 29be 10a7 f23d 205e fcbd
000000a0: 28cf aabd 4854 183e 9082 0dbe c094 21bc
000000b0: 867b 95bd 348e 77bd 0c0c d33d 209f 483d
000000c0: d37d eabd c392 21be 505c 19bc 5ac3 c2bd
000000d0: e8ac bc3d 6cf1 2ebd b246 0b3e 3caf 8c3d
000000e0: d872 8abd 5c3b 10be 64f5 75bd ded1 293e
000000f0: 321d 24be 5eee 11be cacd 32be 6cb7 17bd
00000100: f8fc 8abc 585f 3ebe ffbf cbbd 05a1 41be
00000110: 110b 22be 12a4 483e 1a7a 393e f44b 0c3d
00000120: 5c81 0ebe 6c99 c53d 1887 7a3d f0fd 083c
00000130: 087a 7abd 68ba 6fbd d069 063c 00e8 363a
00000140: 10d1 3b3c 5ac1 133e f4df 343e 78c2 fc3d
00000150: 9044 273e 80b4 e4ba 407f 093d c031 363c
00000160: 18c6 483d 3e25 80bd 32ca 243e 404a 12be
00000170: aec8 473e f8d5 b23d 5c43 93bd 1e98 4a3e
00000180: 78f7 cc3d 4a3d 003e bc91 80bd a771 a2bd
00000190: fa1b cdbd a8c8 b5bd 58d4 953d cc8a ea3d
000001a0: 5612 23be c405 243e 638f 41be fbcc adbd
000001b0: f8a0 f63c 2cde 1dbe 10b4 843c 0473 21be
000001c0: ca51 213e 688b 133e 84ad 9e3d 7424 3b3e
000001d0: a0ed 39bd c077 1e3b b4e9 af3d 9c19 88bd
000001e0: 1c0c 36be 1f9b 3dbe 007b 28bd dadf 0d3e
000001f0: 44aa 133e 2c03 58bd b00d 50be 0ba9 3fbe
00000200: f43e 033e 241e ab3d a851 0a3e eb25 11be
00000210: ac3e 183e 285e e83d c09a bebc e6ea 063e
00000220: 3877 f3bc 9e36 80bd 47b4 b7bd 3833 173d
00000230: dc35 963d 555e a4bd 807b 7abb d521 fcbd
00000240: 2212 38be 2bf0 a3bd b0df 033d 3462 353e
00000250: a816 76bd b88f adbc e02b b6bd 14b8 22bd
00000260: 080b af3d 0cd7 adbd 10ae 52bc d8d1 2b3e
00000270: 9c92 1a3d caff 503e 6dca aabd 000a cabb
00000280: 30be 6fbd 50ce 34be 99e1 4cbe 6bdc 08be
00000290: f7df dabd 50c4 de3d 68f6 e43d 0093 4dbb
000002a0: 34d5 b63d 71f8 b3bd 9a26 9dbd 1c6d 253d
000002b0: 98c9 12be ce9e 2cbe d06c 143d cc89 7bbd
000002c0: 8cf0 18bd a020 d5bd 80e9 823d 6c8b 8a3d
000002d0: 300d 33be b086 443e a063 cb3c 5013 6d3c
000002e0: 602e 7f3d 991f 3fbe deb5 133e 88ac 013e
000002f0: 6e14 2ebe a6f4 c6bd bbb0 13be 20fb 613d
00000300: c060 c13d d85b 003e 7ef4 0b3e 3cb7 383e
00000310: 50ab 68bc a48a 3b3e 4ea5 403e 08b3 9ebc
00000320: 95bb 29be e71b ffbd ac72 923d eed5 2d3e
00000330: de1a 35be 1c8f 0b3e b424 133e 6026 14bd
00000340: 004a c139 c237 06be a0e1 c2bc 90f1 5abd
00000350: 8c0a b8bd 51ec 49be 4c0c a83d 645f 0c3d
00000360: 1cb1 d4bd fc5e f73d b48f 393d be3d 9cbd
00000370: fc7d edbd 041c c33d 5cb1 263d 0a01 14be
00000380: a49f 0dbd 141a 143e e3c7 32be a36c dabd
00000390: a297 233e 7881 fc3d c80a 3e3e f846 223e
000003a0: 04bf 20bd 4669 3cbe 1c01 d03d e35d 0abe
000003b0: 4257 1a3e bac0 34be 8017 473e 5e84 0f3e
000003c0: b867 d93d f00b f83d 90e6 24bd 0cdd 50be
000003d0: 6a83 93bd 3f4e b1bd 4209 94bd 80c1 afbc
000003e0: b2c7 2b3e a205 433e fc3e a63d 80cc 24bc
000003f0: 669b 31be 6dc0 48be 4ef5 8ebd cc0d 253d
-0.080424145 -0.057863876 0.017857254 -0.15939541 -0.117352195 -0.079053685 -0.017892778 0.1282734
-0.058821768 0.1399717 0.10281482 0.0027832836 -0.066928595 0.017538175 -0.2029504 0.07885867
-0.062452838 -0.1687867 0.09672356 0.19450855 -0.028050318 0.04015778 -0.20141792 0.19476867
-0.09158191 -0.051411256 -0.08994838 0.0019575506 -0.12428243 0.025189817 0.06189856 0.055817157
-0.14994323 0.17642075 -0.086487494 0.1428451 0.0038966238 -0.16560616 0.11848271 -0.123226404
-0.08340293 0.14875901 -0.13819337 -0.009862125 -0.07298951 -0.06043835 0.10305032 0.04897988
-0.1144978 -0.15778641 -0.009360388 -0.095099166 0.09212667 -0.042710707 0.13601187 0.06869361
-0.06760186 -0.14085144 -0.060048476 0.16583964 -0.16026762 -0.14251086 -0.17461315 -0.03704016
-0.016966328 -0.18591058 -0.0994873 -0.1890908 -0.15824534 0.19593838 0.18112984 0.034252122
-0.13916534 0.096484035 0.06116399 0.008361325 -0.061151534 -0.05852738 0.008203939 0.000697732
0.011463419 0.14429227 0.17663556 0.123417795 0.16334748 -0.0017448813 0.03356862 0.01112026
0.049017042 -0.062571034 0.16092756 -0.14286137 0.19510147 0.087322176 -0.07190582 0.1978459
0.100081384 0.1252338 -0.062777966 -0.07931834 -0.10015102 -0.08876163 0.07315892 0.11452255
-0.15924963 0.16017824 -0.18902354 -0.084863625 0.030106053 -0.15416783 0.016199142 -0.15766531
0.15753856 0.14408648 0.07747939 0.18275625 -0.045392632 0.0024180263 0.08589497 -0.066455096
-0.17778057 -0.18516205 -0.041132927 0.13854924 0.1442042 -0.0527374 -0.20317721 -0.18716829
0.12816983 0.08355358 0.13507712 -0.14174621 0.14867657 0.11346084 -0.02326715 0.13175544
-0.029719934 -0.062604174 -0.08969932 0.03691408 0.073344916 -0.08025805 -0.0038220584 -0.123111404
-0.17975667 -0.08004793 0.032195747 0.17713243 -0.0600802 -0.021186695 -0.08895087 -0.03972633
0.08547026 -0.084882826 -0.012858883 0.16779268 0.037737474 0.20410076 -0.08339391 -0.006165743
-0.058530986 -0.17656827 -0.20007934 -0.13365333 -0.10687249 0.108772874 0.11179811 -0.0031368136
0.08927384 -0.08787621 -0.07673378 0.040387258 -0.14334714 -0.16857454 0.036236584 -0.06141071
-0.03733878 -0.10406613 0.06392193 0.06764874 -0.174855 0.19192004 0.024827778 0.0144699365
0.062300086 -0.18664397 0.14424846 0.12663472 -0.16999981 -0.09714632 -0.14422886 0.055171132
0.09442282 0.12535036 0.13667485 0.18038648 -0.014201 0.18314606 0.18813059 -0.019372478
-0.16575463 -0.12456494 0.07150778 0.16976139 -0.1768603 0.1362881 0.1436947 -0.03616941
0.00036866963 -0.13107207 -0.023789227 -0.05345303 -0.08986387 -0.19719054 0.082054704 0.03427066
-0.103853434 0.12078664 0.04530306 -0.07628964 -0.11596295 0.09526828 0.040696487 -0.14453521
-0.034576073 0.14463073 -0.17459063 -0.10665252 0.15975812 0.12329382 0.185588 0.15847385
-0.039244667 -0.18399534 0.101564616 -0.13512377 0.15072349 -0.17651644 0.19442558 0.14015338
0.10615486 0.12111652 -0.040258944 -0.20396823 -0.072027996 -0.086575024 -0.07228328 -0.021454573
0.16775396 0.19045117 0.08117482 -0.010058522 -0.17344436 -0.19604655 -0.06980382 0.04029636

encode_conv5.bias f4 [16]
00000000: 3e7f 033e d8cd 18be d887 00be 2ef3 88bd
00000010: 18af 253e 322e 0fbe 5c7b 13be 48c5 b83c
00000020: 2c64 3f3e 9289 29be c8df 103d 4882 033e
00000030: 2203 1d3e 3a54 4a3e 106d afbc 945f df3d
0.12841508 -0.14922273 -0.1255182 -0.06687008 0.16180074 -0.13982466 -0.14402527 0.022555009
0.18690556 -0.16556385 0.035369664 0.12842667 0.15333226 0.19758692 -0.02141431 0.10906902

encode_conv6.weight f4 [16, 16, 3]
00000000: f0e3 87bc 0097 89bc 40e2 3cbc 780e 4c3d
00000010: 2f5e 8fbd 6041 8fbb f83d d93d 720d 22bd
00000020: 47e1 a7bd 602d 52bc cc07 d7bd 2b0d 88bd
00000030: a899 093d 9ab0 0f3e 48e7 62bd 002e 07ba
00000040: f448 3abd 8a30 953d 70d3 3abc 66e3 953d
00000050: 80d9 173b cf59 f7bd 69ab 05be 1cab f33d
00000060: a45e 1a3d c0ef c4bd 4828 aebc 843f b73d
00000070: 7dba 06be 4cc4 a5bc b405 fcbc d0e3 61bc
00000080: 0061 b43a 9cae f33d a88d 003e fdf4 a9bd
00000090: 1897 24bd 78ca 133d 52f4 f3bd 402b e6bd
000000a0: 409d e43c 303c a33c 4436 ccbc ec83 e83d
000000b0: 1bbd 85bd 9c0e a9bc be0b c43d e493 863d
000000c0: c62a 023e 0bac e6bd 90ee 02be 5ef1 0b3e
000000d0: 6cc8 c8bd 1aec 7ebd 78e0 b7bd c4b0 dc3d
000000e0: cad5 e0bd ce2a ffbd 08c2 f7bd d846 893c
000000f0: 382c f7bc 48e1 55bd 00d9 13bc 70f9 023e
00000100: c87a bb3d 70f2 86bd 00a7 ee3c 8c2a aabd
00000110: c855 e7bc c03b 103e 5623 2abd a8f8 993d
00000120: b046 043e c7d9 bdbd 12ed 893d 202c 903d
00000130: 2f3f 09be 208d b1bc 244e a1bc 0437 d93d
00000140: a83e fc3c cccd 1e3d ba4f 10be 887b f63d
00000150: f4d7 863d 7095 bdbc 5ceb 633d 1c81 ea3d
00000160: 3c97 fe3d 5a34 0ebe 0011 2f3d 2023 a43b
00000170: c837 083e 20b4 e03c 4bab 80bd bedd ca3d
00000180: 90ad 153d a092 ecbb 520c 973d fc9d b23d
00000190: 68b2 d4bd 6e3d a9bd 18c8 e53c 8adb e7bd
000001a0: 89ef 01be ce23 c63d 8641 d33d a871 343d
000001b0: c267 b7bd 58bc ffbc 2959 93bd e663 47bd
000001c0: fec7 913d 607a bd3b 0e0a fbbd 286d ae3c
000001d0: 4011 38bc 103e 13be c8b1 de3d 80f2 243d
000001e0: dc07 733d 00ef 763a 8cd0 f3bc b68a 13be
000001f0: 58cc bf3c 300f ee3d 083a e13c 88db d1bc
00000200: 50be 543c 1251 843d 20f7 de3c 78f0 513d
00000210: 38e6 fcbd de5c 7ebd c804 0f3e 7848 f53d
00000220: c070 403d a85d d9bd 1092 44bc 4a47 ecbd
00000230: da5d 5abd 15f4 d5bd d8fd ff3d f998 ffbd
00000240: 5057 623d 1e1c 88bd 88bd 113d 705e 1f3d
00000250: 1096 e03c 2855 963d cc7e 75bd 8498 303d
00000260: a0f2 e5bc 4868 2cbd 9c58 023e 0c72 1a3d
00000270: 2c16 df3d e2e9 ca3d 6c6f f33d 6cf3 7bbd
00000280: c008 6f3b 2806 06be e6d3 83bd 0663 fbbd
00000290: dc62 683d c04e 4b3b 3e7d b6bd 6e77 e2bd
000002a0: 000d e03d df4f 10be ccbd 043e 5f56 92bd
000002b0: 1020 5e3c 0c2b ec3d 0ce5 eb3d b878 d43c
000002c0: 8076 a0bc e001 af3d 4077 c83d 6ceb bfbd
000002d0: 764b 0ebd c842 98bc 206d e53d 761d 46bd
000002e0: 0fe2 bbbd 603b b83c 0098 b43a 0a19 963d
000002f0: f885 9fbc 143e 223d 2d28 05be dec8 913d
00000300: 6047 083c 5ee3 af3d 9c95 a7bd 92ba 893d
00000310: a48d 7b3d 6a6b 993d fcd4 c2bd 88a9 f73d
00000320: 0ebe 4bbd b803 0abe e762 13be 281f b6bd
00000330: d05c 00bd aa13 c8bd 88d5 fd3d e460 093e
00000340: 52cf 12be 0482 643d 15c4 95bd 4677 0a3e
00000350: 30dc 883c 6806 93bc 5c81 acbd 8c87 ea3d
00000360: ddba 99bd d41f 353d 4855 083e 1a99 9c3d
00000370: da9a 0cbe bc01 e5bd 4845 d43c c83d c53c
00000380: 58f5 cf3c f891 933c 44b9 73bd 8012 733c
00000390: 9854 3a3d 2498 0c3e 38f7 debd 3c84 83bd
000003a0: 1852 ca3d ce38 59bd 786f c43c 902f 723c
000003b0: 0833 073d 729d e1bd 326c b13d 26ef c0bd
000003c0: b0eb 893c 9c64 7b3d 5e19 d53d a8f6 a93d
000003d0: 4c89 033e 346e 08be a8a7 8e3c 7e45 9abd
000003e0: 44cf 9ebd b8f0 a2bd 0e35 55bd deec 873d
000003f0: c4af a03d c688 b63d f281 dbbd 2c2d c2bc
-0.016588181 -0.016795635 -0.011528552 0.049818486 -0.07000386 -0.004371807 0.10607523 -0.039563604
-0.08197265 -0.012828201 -0.10499534 -0.066431366 0.033593804 0.14032212 -0.05539635 -0.0005156696
-0.04547973 0.07284649 -0.01140295 0.073187634 0.0023170412 -0.120776765 -0.13053669 0.11897871
0.037687913 -0.09616041 -0.021259442 0.089476615 -0.13157077 -0.020235203 -0.030764438 -0.013787225
0.0013761818 0.118985385 0.12554038 -0.08298681 -0.040183157 0.03608176 -0.11911835 -0.11238718
0.027907014 0.01992616 -0.02492822 0.11353287 -0.0653021 -0.02063685 0.09572552 0.06571177
0.1271163 -0.11263283 -0.12786317 0.13666293 -0.098038524 -0.062236883 -0.08978361 0.10775903
-0.10978277 -0.12459336 -0.120975554 0.016757414 -0.030172452 -0.052216798 -0.009023905 0.12790465
0.09154278 -0.0658921 0.029132366 -0.083088964 -0.028239146 0.14085293 -0.041537605 0.075181305
0.1291759 -0.09270053 0.06734671 0.07039666 -0.13403009 -0.021673739 -0.01969058 0.106061965
0.030791596 0.038770482 -0.14092913 0.120352805 0.065841585 -0.023142546 0.055644378 0.11450407
0.124311894 -0.13887158 0.04274082 0.00500907 0.13302529 0.02742964 -0.062826715 0.09905575
0.036542475 -0.0072196275 0.07375397 0.087215394 -0.10385591 -0.0826367 0.028049514 -0.11321171
-0.12689032 0.09674798 0.10315232 0.044053704 -0.08955337 -0.031217739 -0.0719474 -0.048679255
0.071182236 0.0057824105 -0.12257777 0.021292284 -0.0112345815 -0.14379144 0.10873753 0.04027033
0.059333667 0.0009419769 -0.029762529 -0.14408383 0.023412868 0.116239905 0.027493492 -0.025617376
0.012984827 0.064607754 0.027217448 0.05125472 -0.12348598 -0.062100284 0.13966668 0.11976713
0.046982527 -0.10613567 -0.011997715 -0.11537035 -0.05331216 -0.104469456 0.12499589 -0.12480349
0.05525905 -0.06645988 0.03558114 0.038908422 0.027415305 0.07340461 -0.059935376 0.0431142
-0.028069794 -0.042091638 0.12729114 0.03770642 0.10892901 0.09907891 0.118864864 -0.061511442
0.0036473721 -0.13088286 -0.06436901 -0.122747466 0.056734905 0.003102228 -0.08910607 -0.11057936
0.109399796 -0.14092968 0.12963027 -0.0714538 0.013557449 0.11531648 0.115182966 0.02593647
-0.019587755 0.085452795 0.0978837 -0.09371075 -0.034739934 -0.018586531 0.112024546 -0.04836794
-0.09173977 0.02248925 0.001377821 0.073289946 -0.019473061 0.039609984 -0.13003607 0.071183905
0.008317798 0.08588289 -0.081828326 0.067250386 0.061414376 0.07491191 -0.0951328 0.120928824
-0.049741797 -0.13477981 -0.14393197 -0.08892661 -0.031338513 -0.097693756 0.123942435 0.13415867
-0.14336899 0.055788055 -0.0731279 0.13522062 0.016706556 -0.01794739 -0.08423111 0.11451635
-0.075063445 0.044219807 0.13313782 0.07646389 -0.13730946 -0.111819714 0.025911942 0.024077311
0.025385544 0.01801394 -0.059502855 0.014835954 0.04549083 0.13729912 -0.10886997 -0.06421706
0.098789394 -0.05303269 0.023978934 0.014781848 0.03300765 -0.110163584 0.08663215 -0.09420614
0.016836017 0.061375245 0.10405229 0.08298999 0.12845343 -0.13323289 0.01741393 -0.07532786
-0.077543765 -0.0795607 -0.05205255 0.06636976 0.07846025 0.08912806 -0.107181445 -0.02370318

encode_conv6.bias f4 [16]
00000000: fce1 573d 5c06 a83d 2851 a03c 8649 0b3e
00000010: 5264 a93d 4631 8ebd 0cff 80bd 0029 48ba
00000020: f449 4d3d a68d 0ebe 7b20 84bd bc75 023e
00000030: 0d8a 8bbd 72cf b8bd 086e dbbd de32 bf3d
0.05270575 0.08204338 0.019569948 0.13602266 0.08271088 -0.06942992 -0.06298646 -0.0007635504
0.050119355 -0.13921222 -0.06451508 0.12740225 -0.068134405 -0.09023942 -0.10714346 0.09335874

fc1.weight f4 [200, 200]
00000000: 9bb4 16bd 5cce 263d 8f3e 8dbc 8da7 1cbd
00000010: 9088 193d ea74 cf3c 7a27 2a3d 6599 613c
00000020: 98c8 a2bb c84a 283c 8f8e 5e3d c62f 28bc
00000030: 0ffc 0dbd 4c41 473d 9c72 893d e0f3 ecbc
00000040: 7988 26ba 614b 903d 939b 3e3d a674 d9bc
00000050: d779 bf3d 6cc7 15bd f27c 993d c5d6 443d
00000060: ba86 003d be60 983d 4abb 1cbd 5708 4ebd
00000070: 9260 9a3d a338 f43c 7ea2 ddbb 6da3 843d
00000080: c60e 1ebd aa65 413d ef0b 703d a086 8d3d
00000090: ce9d 16bd 96c3 28bd f7d9 423d 6090 b83c
000000a0: f7b2 523d 2e7c 063d f933 98bc cbd8 b33d
000000b0: 5846 463d 5ba1 98bb 3c57 863d 6680 643d
000000c0: 4bfe a73c c179 2f3d 4e1d 5cbd 637c 323d
000000d0: 6cfc 0d3d e3a9 13bd 7bbe 5cbd 92c0 7bbd
000000e0: f574 3abd 174a bcbc ad64 023d cc0d e1bc
000000f0: 4363 06bd 14d3 b3bd 55f1 5dbd 4be7 253d
00000100: e3f0 433c ebdb e7bc 6219 a3ba 284d eabc
00000110: bb7e 7b3c 355c 26bd 5aca 473b e8cb d8bc
00000120: 0d89 4dbd eee7 89bd 75c7 6fbd 9ce6 113d
00000130: 3061 fdbc 69f5 9bbd 76b4 3bbd cbe0 c0bc
00000140: 43ff 1e3e 6bee 043d a646 8d3d 32ae 15bd
00000150: 7ffa 27be e2e4 90bd 1f85 babc 9245 083d
00000160: 7232 ebbc 6775 f8bd fdfb 85bd 50b1 f0bd
00000170: 4c11 51bd 0d8a 94bd df09 403b 1efa a4bd
00000180: 67b8 5ebd c1bc 58ba 2525 83bb 2b13 b4bc
00000190: 6de0 04bc 7c10 993d cee0 963d 36c9 eebc
000001a0: 5e8f a33d dd7c 803d 1aaa 15bd 2faa 2fbc
000001b0: 393d 023d b602 a83d 8aed f4bb 12ff 00bd
000001c0: cad7 423d f492 34bd 30b7 da3d ac00 49bd
000001d0: 330d 7c3d 1484 24bd e157 cdbc 7663 333d
000001e0: ee80 97bc 2a2b d5bc 1ba0 b8bc 8224 c13c
000001f0: 9b51 3d3d 5bff 2d3d 6b84 eeba 5dd6 a2bd
00000200: 5a1d 3d3d 4326 1b3d 3904 33bd f004 d9bc
00000210: eccf c2bd 1d46 aebc c50c 33bd 8a83 fc3c
00000220: e4d5 d2bb 1476 2abd 974f e33b 1113 9cbd
00000230: 3767 aebd 947d 0fbd 6111 89bd 9b66 8cbd
00000240: dc84 9fbd 5b84 a0bc bec5 053c 79ce 82bc
00000250: d646 d13c 2ea7 1dbd 7b1c 11bc 6b88 3b3d
00000260: c8d0 ad3d 3746 963d 618b 883c 4546 7e3d
00000270: 5934 d9bc 4446 a33d e32b 5fbc 6487 7c3d
00000280: 7d57 793d a9f9 903d 5acc ad3d 1e41 88bc
00000290: 6a68 053d 8227 103d bc93 bf3c b238 923d
000002a0: 5d85 ca3d 4c9b ba3d 2c0f a73d 9b46 29bd
000002b0: f60b 9cbb 699d d7bc c7bc 2e3d ffd1 acbd
000002c0: b9cc b5bd 1de9 b43c 3639 87bd 57ba 15bc
000002d0: bfda 2e3d 7dbc 50bd 4270 89bd 56be acbd
000002e0: 6f8e 4dbc ee09 193d 8fee 053c 5618 b9bc
000002f0: c175 0cbd c9e3 9dbd dd4a 053d e266 adbd
00000300: 0bf2 133c 7366 a83c 8b8b 37bd 0704 adbd
00000310: cdb9 153c 83fc f6bc a824 56bd 027e 93bb
00000320: 8650 273d 57b7 593d 3dc1 08bc 99ef 06bd
00000330: f89c fdbc 49ed d13d a736 033c 95ab 4f3d
00000340: 7686 02bc 39a8 bc3d 448a 393c 18e2 493c
00000350: 7166 0fbd 3c04 b23d 27f8 bb3c 80a8 e23c
00000360: ae2c c43d 2899 c43c 35c6 533d fd33 123d
00000370: 88b4 c73d b5f5 413d 353a 5d3d 91d6 683c
00000380: 4f22 153d fc06 d53c d13d febc fda2 a53d
00000390: aeca 93ba 8c7f 3f3d 5a73 123c b05b 053c
000003a0: b0ab 3bbc 9bca c2ba 8560 5f3d fa44 42bc
000003b0: 3c1d 19bd def7 c83d 32bb 7a3d 8b0b bd3d
000003c0: d571 803d 8716 2e3d 04ab a83d 7851 a9bc
000003d0: 51ed 133d eebd 9f3d 0fb8 7abc b00d 0fbd
000003e0: 0b00 8b3c d67d 35bc 7ec7 99bb 8af8 e43c
000003f0: 8275 edbb 3056 ff3c fa3d e7bc 4730 0fbd
-0.036793333 0.040724143 -0.017241744 -0.038245726 0.03748375 0.025324304 0.041541554 0.013769482
-0.0049677603 0.0102717355 0.054335173 -0.010265296 -0.03466421 0.048646256 0.06711313 -0.028924882
-0.00063527335 0.070456274 0.046535086 -0.02654488 0.09349411 -0.036567137 0.074945346 0.048056383
0.031378485 0.07440327 -0.03826455 -0.050300922 0.075379506 0.029812163 -0.0067637553 0.064764835
-0.038588308 0.047216095 0.05860513 0.06910443 -0.036771588 -0.04120215 0.04757115 0.02252978
0.051440205 0.03283327 -0.01857947 0.08781584 0.04840693 -0.004657907 0.065596074 0.055786513
0.020506999 0.042840723 -0.053738885 0.043575656 0.034664556 -0.03605069 -0.053892594 -0.061462946
-0.045521695 -0.022984548 0.031834293 -0.0274724 -0.032809507 -0.08780494 -0.05418523 0.04050378
0.011959287 -0.028303107 -0.0012443478 -0.028601244 0.015350039 -0.04061528 0.0030485601 -0.026464418
-0.05017953 -0.0673369 -0.058539826 0.035620317 -0.030930132 -0.07615168 -0.045826398 -0.02354469
0.15527062 0.032453936 0.06898241 -0.03654308 -0.1640415 -0.07074906 -0.022768555 0.033269472
-0.028710578 -0.12131768 -0.065422036 -0.1175257 -0.051041886 -0.072528936 0.0029302759 -0.080555186
-0.05437508 -0.00082678726 -0.0040022307 -0.021981796 -0.008110148 0.07473847 0.07367097 -0.02914868
0.079863295 0.06273816 -0.036539175 -0.010721727 0.031796668 0.08203642 -0.007474606 -0.031493254
0.047569074 -0.044085458 0.106794715 -0.049072906 0.061536025 -0.040165022 -0.025066318 0.043796025
-0.018494096 -0.026021559 -0.022537282 0.023576979 0.046220403 0.042479854 -0.0018197423 -0.07951043
0.04617057 0.037878286 -0.0437052 -0.026491612 -0.09512314 -0.021273667 -0.04371335 0.030824441
-0.006434189 -0.041616514 0.006936978 -0.07620824 -0.085157804 -0.03503187 -0.06692768 -0.06855508
-0.07789013 -0.019594362 0.008164821 -0.015967594 0.025546473 -0.038489513 -0.008856888 0.045784395
0.084870875 0.07337611 0.016668024 0.062078733 -0.02651422 0.079723865 -0.013621303 0.061652556
0.06087445 0.07078869 0.084862426 -0.016632613 0.03257028 0.035193928 0.023385875 0.0713972
0.09888718 0.09111652 0.08157191 -0.0413271 -0.004762168 -0.026320176 0.0426605 -0.08438491
-0.088769384 0.022083813 -0.06602709 -0.009138665 0.04268908 -0.050961006 -0.067108646 -0.08434741
-0.012546166 0.037362985 0.008174553 -0.022594612 -0.034291986 -0.07709462 0.0325421 -0.08466889
0.0090298755 0.020556664 -0.044810813 -0.08448034 0.009138537 -0.030149704 -0.052281052 -0.0045011053
0.040848278 0.053153362 -0.008346853 -0.032943342 -0.030958638 0.10250337 0.008008636 0.050700743
-0.007966628 0.092117734 0.011324469 0.012321971 -0.035009805 0.08692214 0.022945477 0.027668238
0.095788345 0.023998812 0.051702697 0.03569411 0.097512305 0.047353465 0.05401059 0.014211313
0.036409672 0.026004307 -0.031035336 0.08087728 -0.0011275613 0.046752498 0.008938635 0.008139536
-0.011454508 -0.0014861407 0.054535408 -0.011857266 -0.037381396 0.09812902 0.06121368 0.09230717
0.06271712 0.042501952 0.08235744 -0.02066873 0.036114994 0.07799898 -0.015302672 -0.034925163
0.016967794 -0.011077365 -0.004692971 0.027950544 -0.007246674 0.031169027 -0.028227795 -0.03495815

fc1.bias f4 [200]
00000000: d6c7 edbb 1249 bd3d 8c2a 35bd 2ffc 4e3d
00000010: 66cc 54bd ef45 c1bc 69a2 283d 06a8 993c
00000020: 6627 c73c 90e2 b1bd eb84 5c3d ffb8 a03d
00000030: a7ac 0e3d 378c 873d 0b3a 14bd e444 46bd
00000040: ea65 6f3d 0fdb 8ebc ffaf 3f3c 0cea 3ebc
00000050: 4a26 90bd f07d b33c ae02 8dbd b7f2 dc3c
00000060: 4355 81bd e92c 7dbd 9450 0fbd c351 21bd
00000070: 6464 bc3d 8819 61ba 8de0 563c fa42 90bc
00000080: 8d68 903d ec6b edbb 0fe2 9e3c 453f 7b3d
00000090: 19f2 363d fbea a23d d7e2 7fbb 8f18 4f3d
000000a0: 1e83 fdbc fdc5 1dbd 5743 2e3c 38fa 573d
000000b0: 7bbd a7bd 0f27 703d f0c3 85bd 7bb2 ef3b
000000c0: f21e 353c 3eb2 2e3c c6ab 643c 630b 683d
000000d0: c48e 84bc a17a 413d fa7d 0f3d 8af9 8fbc
000000e0: 4ddd 073d d707 45bd 6854 95bd 4591 703d
000000f0: 2d7f 6fbd 2161 2d3d cb67 38bc 181c 66bc
00000100: 339c b8bd 33a1 2f3c aa5f 533d 64d9 af3c
00000110: bd69 1a3d 8014 933b 2945 453d d8a2 d93c
00000120: 0d37 3cbd 315a 8a3d af15 493b 329f c4bd
00000130: 0151 e4ba deaf 4f3d 1dd2 473d 47b4 85bd
00000140: 0279 b53d 85bf 86bc 518d 98bd 30cd 953c
00000150: a5ad 8ebd 0f71 503c 4f49 943b 4488 3cbd
00000160: 46e6 bc3d 4a3e 88bc f54b a43d 01d1 063d
00000170: 1a67 563c c03c ad3d 408a 9e3c 1f4f b6bc
00000180: d3a8 253d 5fa5 cbbb 3d2d 2c3d c2df a23d
00000190: a5a6 a23d a4f8 8b3d 87bc be3d 1ec8 743d
000001a0: 23b6 c63b 1bb3 fbbc dea5 b43d cf0d 3c3d
000001b0: bfc5 9dbc eb18 e43c 4266 18bd 302a 9cbd
000001c0: 7df3 89bd b618 973d b295 983d fa7e 8cbc
000001d0: bc6a a73d b084 923d da62 e73c 0b16 2d3d
000001e0: b9cc 97bb 5e2c 613d 809a b63d c8b8 0c3d
000001f0: 1a53 1b3b d669 db3c de88 34bd 5915 77bd
00000200: 16d9 b9bc 6346 a0bc d7e8 a2bd 5630 c83c
00000210: 17ba 18bd a2c6 863a 80a7 f3bb 54c9 883c
00000220: 56ea 0b3d 4979 b4bd 2bb6 82bd 1520 993d
00000230: bf45 71bc f2ce 0cbd 8bdd ae3d 24cd b53c
00000240: 1cd0 443d 1aee 813d 6197 ac3c 2d19 26bd
00000250: eda9 0dbd acfa 3a3d e960 333d d1f4 b13d
00000260: 7d5b 733b 3299 32bd 2e52 72bd 5625 46bd
00000270: 187f ea3b 5a45 74b9 78ec 22bd c9a9 90bd
00000280: d07d 453b f399 b4bd 280d e9bc 2cee ce3c
00000290: 8e63 643d d4e2 623d 7151 783c 17ca c33c
000002a0: dd6c b33c 02f9 873d 808a d2bd 7dc8 f23c
000002b0: 996e a4bd 7b11 0e3d dd6e 863d 89b6 10bd
000002c0: 41fb 1e3c 52b6 9f3c 7f3f bd3c 29fd a13d
000002d0: 0c21 cf3b 8f46 bf3d f57f 6ebc e591 283d
000002e0: 1142 f0bb 182a 9c3d 8597 483d 3da4 3b3d
000002f0: c605 aa3c 4d5f a73d 0a63 ab3d 30dc 943d
00000300: d72b 5e3b 1953 a93d 4d18 c23d 6de8 033d
00000310: 1910 af3d 16aa 85bd d830 ca3b dd51 c6bc
-0.0072564883 0.09242453 -0.04423003 0.05053347 -0.051952742 -0.023592917 0.04117051 0.018756878
0.024310779 -0.086857915 0.053837698 0.07847785 0.034832623 0.06618541 -0.036188167 -0.048405543
0.058446802 -0.01743844 0.011699676 -0.011652481 -0.07038553 0.021910638 -0.06885277 0.026971204
-0.063150905 -0.061810408 -0.034988955 -0.039384615 0.091988355 -0.00085868733 0.0131150605 -0.017610062
0.070511915 -0.0072455313 0.019394903 0.061339635 0.044664476 0.07954975 -0.003904512 0.05056053
-0.03094631 -0.038518894 0.010636172 0.05272886 -0.081904374 0.058631 -0.06531513 0.0073149777
0.011054741 0.010662613 0.01395697 0.056651484 -0.016181357 0.04723609 0.03503225 -0.017575044
0.033170033 -0.04810318 -0.0729149 0.05873229 -0.058470894 0.042328957 -0.011255215 -0.014044784
-0.09014168 0.010719585 0.051604904 0.021465965 0.037698496 0.004488528 0.04816166 0.026566908
-0.045950938 0.06755484 0.003068309 -0.096006766 -0.001741916 0.05070483 0.048784364 -0.06528526
0.08860971 -0.016448746 -0.07448829 0.018286318 -0.06966714 0.012722268 0.0045253406 -0.04602839
0.09223609 -0.016631264 0.080223 0.032914165 0.013086105 0.08458853 0.019353032 -0.022254525
0.040444206 -0.006214782 0.04203533 0.07952835 0.07941941 0.06834534 0.093133025 0.05976116
0.006064193 -0.030725053 0.08820699 0.045911606 -0.019259332 0.027843913 -0.037206896 -0.07625234
-0.06735895 0.0737776 0.07450427 -0.01715039 0.08174655 0.071542144 0.028245378 0.04225735
-0.004632559 0.054973952 0.08916187 0.03435591 0.0023700655 0.026783865 -0.04407584 -0.060323093
-0.022686522 -0.019564813 -0.07954567 0.02443711 -0.037286844 0.0010282586 -0.007435739 0.016697563
0.034159027 -0.08812196 -0.06382402 0.07476822 -0.014726101 -0.034377046 0.0853835 0.022192545
0.04805003 0.063442424 0.021068277 -0.040551353 -0.034585882 0.045649216 0.043793593 0.08689273
0.0037133389 -0.04360313 -0.059160404 -0.04837545 0.007156264 -0.00023295489 -0.039776295 -0.07063634
0.0030134805 -0.08818426 -0.028448656 0.025260054 0.055759005 0.0553921 0.015156136 0.023900075
0.021902496 0.06639291 -0.10280323 0.029636616 -0.08028907 0.03468464 0.06564114 -0.03533033
0.009703458 0.019496117 0.023101566 0.079096146 0.006321078 0.0933963 -0.0145568745 0.04115476
-0.0073320945 0.07625216 0.048972625 0.045810927 0.020754706 0.08172474 0.083684996 0.0726856
0.0033900642 0.08267803 0.09477291 0.03220408 0.08547992 -0.06526582 0.0061703734 -0.024208957

fc3.weight f4 [100, 200]
00000000: f0af 22bd 55fd ee3c ff01 413c 03a5 9a3b
00000010: b4e6 a93c cf8e 333d 1aac 883d d0f5 9bbc
00000020: 29fe 323d 6ac1 03bd 40ef 9d3d 50ac 153d
00000030: b8d9 39bd 4a41 9d3d 35c0 a23d c0a4 68bd
00000040: 1042 e4bc e617 83bd 47e9 6abc c6ba ed3c
00000050: 255e 52bb 526e 813d 1386 053d ab8d 003c
00000060: 3266 a83c 9cdc 703c 2fa4 4c3c d926 e83c
00000070: f27c b23d 9caa 17bc b2b3 84bc 6b52 893d
00000080: fefc 6c3c 602d 68bb 3e48 71bd d467 d73c
00000090: 9e48 7d3d 9df8 ac3d f0fd 22bc d36a 653c
000000a0: 3475 79bc da34 753d 3c1c b7ba df77 2b3d
000000b0: 4b2b 923c 54e8 163d 73bd 4fbd f0ae 15bd
000000c0: 75dd 783c d0a8 03bd e89d b03d b61b ba3b
000000d0: 0c63 833c 4900 5c3b 0adf 51bd 4a2f b83c
000000e0: 040f 59bc a3b5 a33c 94fd dfbb 666f ad3b
000000f0: 45a1 cb3c 5a3b 05bd 4bb5 d0bc b70a cebc
00000100: 8898 44bd a708 3d3d baa0 c93c 2ba2 ac3c
00000110: c488 343c f59b 2abc 84f2 e2bc aa9d 5f3c
00000120: 56be 0dbd 954a d8bc 6386 cfbc 3f3e c33c
00000130: 0f80 1dbd c6b9 423d 1a47 db3c 2d4f 3ebd
00000140: 8fe8 f13c 98dc ea3c 79f6 29bb c73d 0b3d
00000150: 9f3b 97bd 8872 a0bd 3e36 21ba cb1c 55bd
00000160: d83e 983d f49f a9bc 2340 f83b 5e79 083d
00000170: 1ab9 353d 5487 933d 8328 8438 38ef 3ebd
00000180: 6a42 acbc 2e6d 9dbd 45e5 ad3c ad1b 223d
00000190: fc37 febc 80fa 0a3d 1b63 7a3d 3d45 ca3c
000001a0: 600b 48bd 0faa 0bbd ab59 b73d 142f 1fbd
000001b0: 902f 2d3d 4ac9 f8bc f5cb 763d 0b1a 69bd
000001c0: c28b e4bc 04ec 1ebc ae07 c93c 9a29 86bd
000001d0: 3756 873d 650b e1bc bec6 a0bb 4263 d7bc
000001e0: e158 003d ac2e d9bb 0322 9f3d 8ffd 18bd
000001f0: 80a4 17bc 9bcb 19bd 11e2 45bc d1b9 dc3a
00000200: 9206 a1bd 74d5 5abd f45b e63c 24c1 073d
00000210: c6d3 edbc f068 833d 8467 b23d aa20 113d
00000220: 6151 a23c afaa 13bd 3b46 55bc 1743 903c
00000230: db08 3a3c 6c1e 09bd a877 c73a 01a5 92bc
00000240: debf c5bc 8add b9bc 3f26 a13d b94d 17bd
00000250: fdc7 633d 741b 0a3d 60ac cabc b467 d93b
00000260: 0bc9 95bc 1db1 173c 9bcd 8fbd 6118 71be
00000270: 206d 9ebc 81f1 0abd 066c 4c3d 06bd 6abd
00000280: 083e 813c bbb7 6abd 6f55 cbbc 9c35 aa3d
00000290: 51eb 963d 4bcf 2cbd 0d8a 433d f10d 92bc
000002a0: 1e4d 9cbd c208 833d dda1 26bd c177 a53a
000002b0: 6d6e 303c bc3f 5b3c 3e06 92bd 0741 35bc
000002c0: 4091 103d cf22 7e3d 7ee7 b83d d819 c0ba
000002d0: 75c4 73be afda a73d cd6f d23d 3688 a93b
000002e0: cfed 133d 010f 1dbd b45a e0bc 6729 85bc
000002f0: 9706 dcbc ff7a 183d 8ac6 b43d 2789 893c
00000300: b062 a0bd 52ad 123d bce8 9cbd 58ec 00bd
00000310: 776a 3fbd efd4 ad3b 6762 f6bb 77e2 473d
00000320: f456 053d d99c 813d c3a6 acbc e88b dabd
00000330: a34a 2abd b71b 6fbb f241 ebbb f171 b33d
00000340: 3e0f a43c 0e2a e93c 4da3 943b 2a49 6a3d
00000350: 7348 dc3c cbc7 0e3d 654c 3ebd b0ec 02bd
00000360: 356d 20bc e3fb ac3c e53b 1cbd 251e 3b3d
00000370: 3915 2b3d 26e5 a43d b09b aebd 482f 87bb
00000380: efdb 2ebd 9b97 373c 2a22 40bc 3735 133d
00000390: c4ca bd3d fc80 9ebd 5e1f 8e3d 9f93 813d
000003a0: 9dab 9c3d 22e3 a63d f4be 66bc eed8 b33d
000003b0: 2b15 013d 43cb 863d 7068 31bd 3adc 153d
000003c0: afaa f63b bda3 b6bc 9127 7abb d9c3 45bc
000003d0: 453a 12bd 179c cabc 753b 903c 82e6 763d
000003e0: 9472 fabc 4a4d 13bd 4562 033d 1b94 e63c
000003f0: 75a3 c13d 95ac 00bc c249 363a 5062 aa3d
-0.03971857 0.029173533 0.011780261 0.004719378 0.02073989 0.043837365 0.06673451 -0.019038111
0.043699417 -0.032166876 0.07711649 0.036541283 -0.04537365 0.076784685 0.07946817 -0.056797743
-0.027863532 -0.06401043 -0.014337844 0.029019725 -0.0032099572 0.0631987 0.032598566 0.007846276
0.020556543 0.014701035 0.012490316 0.028338837 0.08715238 -0.009256985 -0.016198967 0.06705173
0.014464615 -0.0035427436 -0.058906786 0.026294626 0.06183683 0.08445857 -0.009948239 0.01400252
-0.015225697 0.059864856 -0.0013970206 0.041862365 0.01784291 0.03684266 -0.050717782 -0.036543787
0.015189518 -0.032143414 0.08623868 0.005679573 0.01603844 0.0033569506 -0.051238097 0.022483487
-0.013248209 0.019984072 -0.006835649 0.0052928207 0.024857173 -0.032527305 -0.025477072 -0.025151594
-0.047997028 0.04615083 0.024612773 0.021073421 0.011018936 -0.01041316 -0.027703531 0.01364843
-0.034605347 -0.026402751 -0.025332635 0.023833392 -0.038452204 0.04754045 0.026767302 -0.046462227
0.029529838 0.02866964 -0.0025934263 0.033994462 -0.07384419 -0.07834345 -0.00061497453 -0.052029412
0.074338615 -0.020706154 0.007576005 0.03331887 0.04436598 0.07203546 6.3017964e-05 -0.046614856
-0.021027762 -0.0768684 0.021227488 0.039577175 -0.031032555 0.0339303 0.06112967 0.024691219
-0.048838973 -0.034097727 0.0895265 -0.038863257 0.042281687 -0.03036942 0.060253102 -0.056909602
-0.027898673 -0.009699825 0.024539795 -0.065509036 0.06608241 -0.027471254 -0.0049065044 -0.026292447
0.03133476 -0.006627878 0.07770159 -0.037351187 -0.009255528 -0.03754769 -0.012077824 0.0016840046
-0.07862581 -0.05342622 0.028120019 0.033143178 -0.029031646 0.064164996 0.0871115 0.03543154
0.019814195 -0.03605145 -0.0130172325 0.017610116 0.01135465 -0.03347628 0.0015218155 -0.017900946
-0.024139341 -0.022688646 0.07868623 -0.036939356 0.055610646 0.033717588 -0.024740398 0.006634677
-0.018284341 0.009258536 -0.07021638 -0.23544456 -0.019339144 -0.033921722 0.049907707 -0.057309173
0.01577665 -0.057304125 -0.024821011 0.083110064 0.07369102 -0.042189877 0.047739077 -0.017828913
-0.076318964 0.06398155 -0.04068171 0.001262419 0.010768515 0.013381895 -0.07130097 -0.011062867
0.03529477 0.062044915 0.09028529 -0.001465614 -0.23805411 0.081960075 0.102752306 0.0051737083
0.036115464 -0.038344387 -0.027387 -0.016255094 -0.026858611 0.037226673 0.08826931 0.016789032
-0.07831323 0.035809822 -0.07661578 -0.031475395 -0.046732392 0.0053049247 -0.0075190547 0.048799958
0.032553628 0.063287444 -0.021075612 -0.10671216 -0.041575085 -0.0036485025 -0.007179492 0.08761967
0.0200268 0.028462436 0.0045360685 0.05719868 0.026890015 0.034858506 -0.046459574 -0.031964004
-0.009791662 0.021116203 -0.038143057 0.045683045 0.041768286 0.08051519 -0.08525789 -0.0041255094
-0.042690214 0.011205579 -0.011726895 0.03593942 0.0926719 -0.077394456 0.069395766 0.063269846
0.0764992 0.08148791 -0.014083613 0.087816104 0.031514328 0.06581738 -0.04331249 0.036586978
0.0075276713 -0.022294873 -0.0038170556 -0.0120706195 -0.0357001 -0.024732633 0.017606476 0.060278423
-0.030572213 -0.03596238 0.03207614 0.028146794 0.09455005 -0.007853647 0.000695374 0.08319533

fc3.bias f4 [100]
00000000: 4610 9f3b 4f8c df3c ad36 8c3d dc66 823d
00000010: 37ef 3c3d 50d4 893d 4b26 f1bb 86c5 bb3d
00000020: 7573 8b3d b1b0 5a3d 37dd ddbc 8cec 593d
00000030: 1404 1a3d 1b50 b8bc 37b1 07bb e747 b53d
00000040: 6615 003d 217f 1c3c 2e40 233c 6ef1 c63c
00000050: da8a f73c 85a1 05bd 6892 c23d 173e 9abc
00000060: 1c91 853d e80d 643b 618e fa3c 0e06 4f3d
00000070: c196 123d 81dd 483b 0ad7 f63c 4fe6 d83d
00000080: 5729 693d cef0 493c 6935 123d 6cc2 6d3d
00000090: cd60 bf3c aece 993d a065 113d e63a 903d
000000a0: e33b 1cbb d617 5c3c 4808 813d 338a 06bd
000000b0: c0e4 6c3c 9d17 2dbd 3886 aaba 2760 01bd
000000c0: 70dd 0c3d 32dd 30bd 4015 6a3a a300 86bb
000000d0: 9fc4 bfbd a61c 65bd 5bb2 b93c 49d7 34bc
000000e0: 62de 193c f677 a7bd b09f 15bd 1e3c 92bd
000000f0: 0b4f df3c f671 e43c 0cea de3b 82e6 f63c
00000100: ca83 0b3d e921 25bd 86dd a8bd f065 943c
00000110: 2ecb 3abc 5b9e 8abc 7c97 5cbd 0ab3 acbd
00000120: e626 1d3d 24b0 fd3c a1b0 36bd 5e3b 1cbd
00000130: 7fa0 bdbd 1e4e 8bbd edd4 033d 56bc e53c
00000140: 7a1a 303d abd1 0e3c 03ad 223d 913d debc
00000150: e0d2 a43c d531 51bb 06db ae3c c884 18bd
00000160: 4a19 ec3c 499a 82bd 4507 223d cf51 913c
00000170: 70a2 3f3d 275a c9bb 4c99 263a 5ba2 85bc
00000180: 3ccf 29bd 77e7 7abb 86de 0fbc 8190 abbd
0.004854235 0.027288584 0.06846366 0.06367275 0.04612657 0.067299485 -0.007359301 0.09168534
0.06809131 0.053391162 -0.027083023 0.053204104 0.037601545 -0.022499135 -0.0020704994 0.08851605
0.031270407 0.009551794 0.009964032 0.024285045 0.030217577 -0.03262474 0.09500581 -0.018828435
0.06521818 0.0034798328 0.03058547 0.050542884 0.0357883 0.0030649605 0.030131835 0.10590803
0.05692419 0.012325479 0.035695467 0.058046743 0.023361588 0.07510124 0.035497308 0.07042484
-0.0023839406 0.013433417 0.06300408 -0.03284664 0.014458835 -0.042258848 -0.0013009971 -0.03158584
0.034390867 -0.0431797 0.0008929558 -0.0040894314 -0.09363674 -0.055935524 0.022668054 -0.011037656
0.009391399 -0.081771776 -0.036529243 -0.07140373 0.02725937 0.027886372 0.006802803 0.030139212
0.03406123 -0.040315542 -0.08245377 0.018115014 -0.011400981 -0.016921213 -0.053855404 -0.084325865
0.038367175 0.03096778 -0.04460204 -0.038142554 -0.09259128 -0.06802009 0.032185484 0.028043907
0.042994 0.008716981 0.039715778 -0.027128967 0.020120084 -0.0031920571 0.021344673 -0.037236005
0.028820653 -0.06377084 0.039557714 0.017739205 0.04678577 -0.00614478 0.00063552405 -0.016312769
-0.0414574 -0.0038284936 -0.008781081 -0.08377171
