training_model/wandb/run-20200709_035516-1h44rqo4/aoa_fir_6cov_1.pt (torch_old, 403058 bytes, 16 tensors)

encode_conv1.weight f4 [4, 50, 3, 3]
000000 24 86 66 3c cf 24 b4 3b a1 62 3a bd e3 f4 d9 bc
       0.014070068 0.005497552 -0.045504216 -0.026606029
000010 82 1c b6 3d d8 6c 10 3c 57 76 4b 3d 76 7f 86 bd
       0.08892156 0.008815013 0.049673405 -0.0656728
000020 df 16 d2 3b 78 76 6c 3b e4 0a 3d 3d a2 b9 1d bd
       0.006411418 0.0036081355 0.046152964 -0.03850711
000030 a2 87 66 3d 81 91 b2 3d 2d d1 69 3c b4 91 a9 3d
       0.056281693 0.08719159 0.014271063 0.08279744
000040 2f 22 1a 3d 64 0c a5 3c 56 85 50 3c 79 83 9d 3d
       0.037630256 0.02014751 0.012727102 0.07691092
000050 e8 03 9f bd 32 de 71 3c d0 38 63 bd 28 d6 8b bd
       -0.07764417 0.014762448 -0.055474102 -0.068279564
000060 39 00 53 3d 1d eb 30 bc 58 e2 07 3c 4d 68 4b 3b
       0.051513884 -0.010798243 0.008293711 0.003103751
000070 b9 a1 2a bd ea f8 63 3d 07 94 fe bc 61 c6 4d bd
       -0.041658137 0.055657305 -0.031076444 -0.050238017
000080 c4 42 c2 3d 30 0d 9b bc ee bd 9d bd a5 4a 99 3d
       0.09485391 -0.018927187 -0.07702242 0.074849404
000090 3b b4 0a bd 8d 22 b1 bc 5d 8e d8 bc 22 76 13 bd
       -0.033863287 -0.02162292 -0.026435072 -0.036001332
0000a0 5a a0 3d 3d 6d fa 88 bd b9 e2 e9 3c d1 82 26 3d
       0.0462955 -0.0668839 0.028550493 0.0406521
0000b0 29 6c d0 bc a8 82 dd 3d ac 30 7b bc 39 05 2c be
       -0.0254422 0.10815936 -0.0153314285 -0.16798867
0000c0 bc d7 79 3c 52 cf 08 3d 09 81 37 be 1b 80 ba 3c
       0.015249189 0.03340084 -0.17920317 0.022766164
0000d0 3e 95 7c 3c 23 11 86 bd 8e 31 dd 3c 02 50 fe 3b
       0.0154164415 -0.06546237 0.027001169 0.0077610025
0000e0 c5 5a 71 3d 49 e2 47 3c cf 61 36 3b 6e 4a 5f 3d
       0.058924455 0.012199947 0.0027829295 0.05451434
0000f0 a0 b4 33 bc 63 04 e2 3c b3 6e 77 3d fb 7d 1c 3d
       -0.010968357 0.027589982 0.060408305 0.03820608
000100 22 5f 8c 3c 0a 2e f9 38 87 01 c1 3c 28 4f f4 3c
       0.017135207 0.00011881821 0.023560299 0.0298229
000110 95 a6 5b 3d 8e 77 b8 3c 9d 1c bf 3b 7c 8e ee 3b
       0.053625662 0.022517946 0.0058322684 0.007280169
000120 7f 94 0a 3d 81 9f f3 3c 49 a8 e5 3c 48 f0 4f 3c
       0.033833023 0.029739143 0.028034346 0.012691565
000130 90 51 2b 3d e6 90 81 3d 34 40 ac 3b dd 06 69 3a
       0.04182583 0.06326465 0.005256677 0.00088892673
000140 6d 53 79 3d c1 6d 35 3d 7d 12 e5 3c 8c e1 e1 3d
       0.060870577 0.044294123 0.027962917 0.11029348
000150 3f 27 4c 3d b3 dd ef 3d 82 42 a3 3d b6 3d 4e bc
       0.049842115 0.11712208 0.0797167 -0.012587955
000160 55 72 cc 3d 58 bf d1 3d 1f 42 ef 3b b4 0b b6 3c
       0.099827446 0.10241574 0.0073015834 0.022222377
000170 43 2a 6e 3d 4f 67 29 3d 2d a2 ab 3d fc 1a 06 3e
       0.058145773 0.04135829 0.08380542 0.13096231
000180 84 ee b6 bc 78 d9 89 3c b5 ac b1 3d 24 94 57 3a
       -0.02233053 0.01682733 0.086755194 0.0008223674
000190 af 2b 4d bd 50 b4 dc bc 09 5c 02 3c af 55 df bc
       -0.050090488 -0.026941448 0.007956513 -0.027262537
0001a0 5b ef 9c 3d 18 2c 70 bd df c3 50 3d 39 c3 d4 3b
       0.07662841 -0.0586358 0.050968047 0.006492999
0001b0 7f 91 31 bd 4d 02 aa bd e9 39 21 be ac f1 0b be
       -0.043351647 -0.0830122 -0.15744747 -0.13666409
0001c0 2a 5e ba bc 24 fb 5d be 8c 41 9c bb 7b 0d af bc
       -0.022749979 -0.21677834 -0.004768556 -0.021368733
0001d0 56 b5 0a be b2 e3 4b 3d 9f 5b 65 3c ce 39 4d 3c
       -0.13545737 0.049777694 0.013998895 0.012525989
0001e0 b7 d1 07 3c 2b 19 22 3d d5 34 95 bd f4 9b c6 3d
       0.008289746 0.039574783 -0.072854675 0.096977144
0001f0 86 83 04 bc 0f fd cd bc da 94 58 3c 61 a4 5a 3d
       -0.008087998 -0.025145082 0.013219083 0.05337942
000200 3f 7d bb 3d d4 18 d9 3c 6b 8b 82 3d ad 5f 72 3d
       0.09154748 0.026501097 0.06374248 0.059173275
000210 dc 88 4a 3b 25 3d 30 3d 2a 63 04 3e d6 25 23 3e
       0.0030904328 0.043027062 0.12928453 0.15932402
000220 95 7b 6b 3d 8d 91 09 3e 95 d8 ba 3d 50 04 2f 3e
       0.057490904 0.1343443 0.09123341 0.17091489
000230 d1 2d d4 3d cd 27 d2 bc 2d d2 d3 3c 57 47 e0 bb
       0.10360301 -0.025653744 0.025857056 -0.006844442
000240 8d 61 a5 bd 94 a7 53 bd 87 dd 8e bd c3 3c 86 bd
       -0.08075247 -0.051673487 -0.06975847 -0.06554558
000250 53 d7 91 bd a4 89 0b bd 9a f0 0a 3c ed ea ad bd
       -0.07121148 -0.03406681 0.008480215 -0.08492074
000260 68 5a a4 3d c5 bd a4 3c 58 b1 95 bd d1 fc 75 bc
       0.08025056 0.02011002 -0.07309216 -0.015013889
000270 94 f8 01 3e 07 0a a9 bd 62 1c 42 3d 16 fd ee bc
       0.12692481 -0.08253866 0.04739035 -0.029173415
000280 c7 80 8b 3a d5 e8 d7 3c c0 8f 76 bd 0b f7 27 bc
       0.0010643237 0.02635614 -0.060195684 -0.010251771
000290 27 c7 46 3c 06 25 c1 bc 66 61 0a 3c 12 87 a9 3d
       0.012132443 -0.023577224 0.008446073 0.08277716
0002a0 57 d6 e3 ba c9 c3 52 bc db a7 de ba 87 0d c0 bd
       -0.0017382604 -0.012864062 -0.0016987281 -0.0937758
0002b0 33 16 31 3d 0e 76 8b bc ff 44 85 bd 70 81 ae 3d
       0.04323406 -0.017024066 -0.065073006 0.08520782
0002c0 0c 11 19 3d d1 20 40 3c 26 ee 01 bd 49 a5 2c 3d
       0.037369773 0.011726574 -0.031721257 0.042149816
0002d0 8c a8 94 bb d8 0e 99 3d 5f cf e7 bd 78 8a f8 3b
       -0.004536694 0.07473534 -0.1131885 0.007584866
0002e0 b7 17 10 bd 2d 6e 2e 3d a1 ea 2c bd dc 7e 4c bc
       -0.035178866 0.04258554 -0.042215947 -0.0124814175
0002f0 1a b9 84 bb 98 03 93 bd 46 74 0c bd c3 af 9b 3b
       -0.004050386 -0.0717842 -0.034290574 0.004751177
000300 6b 0c c7 b9 ee 13 5f bc 48 d1 6f 3d b9 f8 df bc
       -0.0003796549 -0.013615591 0.058549196 -0.02734028
000310 ae 0d c8 3d 12 24 c2 3d 46 26 c9 bb 2b 55 ad bc
       0.09768234 0.09479536 -0.0061385958 -0.021158775
000320 a7 8c a6 bd 2a e1 2c bd ef 21 8c bc 92 8e 5d 3c
       -0.08132296 -0.04220692 -0.017106025 0.013522761
000330 2f 11 3b bd aa 3c 9b bc 15 d0 0f 3d 19 32 4a bd
       -0.045670684 -0.018949825 0.035110552 -0.049364183
000340 d6 1a ae bd 6f 11 98 bc b5 27 01 3e 78 37 c3 bd
       -0.08501212 -0.018563 0.12612803 -0.09532064
000350 b2 1a 98 3d 56 84 df 3c 71 8b 75 3c f0 f8 fd 3a
       0.07426967 0.027284782 0.014986859 0.0019376557
000360 f0 c3 93 3d be c0 84 bd b8 5e c1 bb 70 80 5a 3d
       0.072151065 -0.06482075 -0.005901184 0.053345144
000370 44 83 7e bc 73 49 93 bc e7 a9 8f 3c e9 5f 8a 3d
       -0.015534226 -0.01797936 0.01753707 0.06756575
000380 7b 4d 5e bb 24 ac fe bb dc 05 bd 3c b8 15 9a ba
       -0.0033920694 -0.0077719856 0.023074083 -0.001175574
000390 c4 07 2d be 64 5e 64 bc 95 ea 00 bd b2 36 61 bb
       -0.16897494 -0.01393852 -0.031473715 -0.0034364876
0003a0 a1 dc bc 3d 6d 7c 4c 3d 18 c2 74 bd 38 33 57 3d
       0.09221769 0.04992335 -0.059755415 0.05253908
0003b0 56 5b e4 3c fc e8 95 bd db 53 09 be e0 4b f4 3b
       0.027875584 -0.07319829 -0.13410895 0.007455334
0003c0 78 71 e0 3d a1 2c b4 3c 69 cf 0b bd 2f fd f9 3b
       0.109591424 0.021993937 -0.03413335 0.007629059
0003d0 b0 d6 51 bc 3f f5 15 bd 6d 5a c7 3d 5d 29 e3 bc
       -0.012807533 -0.036610838 0.09734044 -0.027729684
0003e0 3f 64 85 3d d3 1a bb ba 8a d3 9c ba 8e 70 c2 3d
       0.06513261 -0.0014274962 -0.0011964899 0.09494124
0003f0 2d d2 81 3d 0f 92 f8 bd d3 e4 67 3d 1b ce 38 3c
       0.06338916 -0.121372335 0.05661471 0.011279608

encode_conv1.bias f4 [4]
000000 e2 22 94 3d 39 80 a9 3a d3 6d d7 3c ea 79 35 bd
       0.07233216 0.001293189 0.026297485 -0.04430572

encode_conv2.weight f4 [4, 4, 3, 3]
000000 a5 d4 b5 bd 5c 47 8f bd 70 14 b8 bd a8 ad f1 3d
       -0.08878449 -0.069960326 -0.08988273 0.118007004
000010 2c 35 5c bd 0e a7 15 be c2 4e 71 3e cb b5 a9 3c
       -0.053761646 -0.14614508 0.235652 0.020716568
000020 c5 ea 31 bd 4d 1b 37 3e 7a 63 9f 3c c3 4f 9c bd
       -0.043436784 0.17881508 0.019456614 -0.07632401
000030 62 03 06 3e a4 f6 f9 bd 86 e4 01 be d1 b6 c1 bd
       0.13087228 -0.12205246 -0.12684831 -0.094586976
000040 ce 5b b1 bb 00 e0 b0 3d 53 95 0a be e6 d5 21 be
       -0.0054125553 0.086364746 -0.13533525 -0.15804252
000050 70 11 92 3e 94 5b ec bd 8a 20 8f 3e 80 23 c0 bd
       0.2852893 -0.11540905 0.27954513 -0.09381771
000060 c5 15 8d bd 56 34 d3 bd 33 fa 4e 3c 8b 9f 30 3e
       -0.06888918 -0.10312717 0.012632894 0.17248361
000070 e6 54 f8 3c 8b 58 7e bd c9 59 a6 3d 8f 8f 5b be
       0.03031392 -0.06209616 0.08122594 -0.21441482
000080 6f 83 79 3d b9 11 4b bd a5 7b 5a be a0 16 0d 3e
       0.06091636 -0.04957745 -0.21336229 0.13778162
000090 fe 1a 68 3e dd a0 e1 3c a4 60 fd bd 6c d8 1d 3d
       0.22666547 0.027542526 -0.12371948 0.038536474
0000a0 af 25 4d 3e 08 58 01 3d cf 00 e6 3d cc 4e e0 bc
       0.20033906 0.031578094 0.11230623 -0.027381323
0000b0 a6 8a 11 be 04 66 35 3e 3d f8 f4 3d ea 58 00 be
       -0.14213046 0.17714697 0.1196141 -0.12533918
0000c0 59 e6 ec 3c 09 f0 b5 bc fc 28 2c be 9e a3 1b 3d
       0.028918432 -0.022209184 -0.1681251 0.037997834
0000d0 77 3a 92 bc e4 2a 14 be 55 ed 2f bd 46 16 11 3d
       -0.017850144 -0.14469486 -0.042950947 0.035421632
0000e0 66 9a a5 3e ad f7 57 be a1 b7 20 3e 5a 7b ff 3d
       0.3234436 -0.21090575 0.15695049 0.12474699
0000f0 da 08 84 bd 17 4c d6 bd 42 19 85 3d 3e 8c f6 bc
       -0.06447001 -0.10463732 0.06498958 -0.03009617
000100 8a a1 12 be 06 74 ce bb b4 6e 0a 3e 09 15 22 be
       -0.14319435 -0.006300452 0.13518792 -0.15828337
000110 40 ca 50 be 0b 11 b4 3d 0d 39 ac 3d ea 96 28 be
       -0.20389652 0.08792313 0.08409319 -0.16463819
000120 17 45 19 be 2a 68 17 3e 9b 16 db 3d c2 fa d7 bd
       -0.14967762 0.14785829 0.10697671 -0.10545875
000130 29 ee 0c be 54 d8 51 3e 50 6b 2a bd d3 cb 89 3d
       -0.13762726 0.20492679 -0.041606247 0.067283295
000140 90 30 9a bb a9 3d d1 3d 06 19 44 bc a7 4d d6 bd
       -0.004705496 0.10216839 -0.011968857 -0.1046403
000150 67 da 27 3e b1 df b3 bd d9 0f 31 be 3c 3c e4 3d
       0.16391908 -0.087829 -0.17291202 0.11144301
000160 a0 36 12 3e d8 28 43 be 51 b9 ed 3d 4d 28 54 3e
       0.1427865 -0.1905855 0.11607612 0.20718499
000170 4b 19 83 3e ce 19 4b be 4c b8 f2 3d 9c 6a 0b 3c
       0.25605235 -0.19834062 0.11851558 0.008509304
000180 ec f0 87 3e fa 6d 28 3e 84 b5 05 3e d8 1a eb 3d
       0.26550996 0.16448203 0.13057524 0.114797294
000190 98 e4 9a bd fb 35 de 3d 5d 8c d1 bd a4 4c 38 3e
       -0.07563132 0.1085014 -0.1023185 0.17997986
0001a0 78 f1 10 bd 7e 6c df 3d 63 04 f3 bd c6 f8 ba 3d
       -0.035386533 0.10909365 -0.11866071 0.09129481
0001b0 50 a7 32 3a 54 3e 08 3e ef 79 d5 3d d7 fd fc 3d
       0.00068150926 0.13305026 0.104236476 0.123531036
0001c0 6e aa 05 bd 13 b8 32 3e 40 05 1e bd 5a 20 13 be
       -0.032633238 0.17453031 -0.038579226 -0.1436781
0001d0 db 48 18 bb 89 09 bf 3a a5 79 a5 3c 49 6a c3 bd
       -0.0023236785 0.0014574985 0.020199606 -0.09541757
0001e0 92 3b 81 3e 4e 35 2a 3e e8 7c be 3d 3f a0 a3 bd
       0.2524076 0.16621897 0.09301168 -0.07989549
0001f0 9c 44 aa 3d d6 fb e6 3d b8 db fa 3d 98 49 a2 bd
       0.083138674 0.11278503 0.12248939 -0.07924193
000200 45 63 bc 3e d0 6b 50 bd ac f2 86 bd e6 ed 63 bd
       0.36794487 -0.050884068 -0.06589255 -0.0556468
000210 6f 0b 6f be 88 fe 3e bd 85 e0 67 bd 3e 5a 89 3d
       -0.23344205 -0.04662946 -0.056610603 0.067066655
000220 44 73 04 be fc 52 b4 3d b0 3b 1b 3e 1d 3a dd bd
       -0.12934595 0.088048905 0.15159488 -0.108021
000230 b8 62 be bd f2 5c 59 3e 7f 87 34 3d a4 c8 6c be
       -0.09296173 0.21226862 0.04407453 -0.23123413

encode_conv2.bias f4 [4]
000000 5b 2e 80 3c e1 95 25 3d 98 aa 06 3e 55 f0 00 3e
       0.015647104 0.04042614 0.13151014 0.1259168

encode_conv3.weight f4 [8, 4, 3, 3]
000000 27 a1 07 bd 7a 31 05 be 6f 82 45 3e 08 3c cd 3c
       -0.03311267 -0.13007155 0.19288038 0.02505304
000010 b8 d5 ab be a5 5e 83 bc 57 eb 54 3d 9b dc 01 3e
       -0.33561492 -0.016036341 0.05198225 0.1268181
000020 2c 9a 50 3d fa 15 5c be 79 c3 39 be 6b 32 f3 3d
       0.05092828 -0.21492758 -0.18140973 0.11874851
000030 c4 c0 3e be bf 69 44 3b 71 33 cc 3d e4 8b 18 bd
       -0.18628222 0.0029970256 0.09970749 -0.037242785
000040 3a 3d ce bd bd 0f b3 3d 40 e1 05 be 8b dd a3 b9
       -0.10070272 0.08743236 -0.13074207 -0.00031254845
000050 32 42 36 3e de 45 b8 3d c3 2d 80 3d 99 aa 7b 3d
       0.17798689 0.08997701 0.06258728 0.06144199
000060 af 11 51 3e 73 28 15 be 13 5f 05 be 35 3f 67 bd
       0.20416902 -0.14566211 -0.13024549 -0.056456763
000070 8f 37 62 bc cf de b4 3d e9 b0 d5 bd b5 14 0f 3e
       -0.0138071915 0.0883156 -0.104341336 0.13972743
000080 df 49 0c 3e 3f fd 63 3c 4a 40 eb 3d fe 3c 82 3b
       0.13700055 0.013915359 0.114868715 0.003974556
000090 48 2e 05 3e 3b f1 8a be 8e 17 15 3e b5 2e 4d 3d
       0.13005936 -0.2713717 0.14559767 0.05009337
0000a0 2a 78 f3 be 76 fe 38 3e 77 4d 3e 3d ba df 54 3d
       -0.47552615 0.18065819 0.046460595 0.051971175
0000b0 f3 d3 c2 3d f2 a9 dc 3c 58 65 8e 3e 40 5e 5d 3d
       0.09513082 0.026936505 0.27811694 0.054044962
0000c0 95 67 11 3d 43 49 17 3d ee ee fb 3c a5 ef a1 3d
       0.035499174 0.036935102 0.030753579 0.07907037
0000d0 44 a7 b3 bd 8e 71 ff 3d 06 36 df bd 58 4c 03 3e
       -0.08772138 0.12472831 -0.10898976 0.12822092
0000e0 0d 01 e5 bb b6 3b f8 3b 7c 33 1c bd ef df 9b 3c
       -0.0069886507 0.0075754775 -0.038135037 0.019027678
0000f0 42 bd b6 3d 25 9b 5e 3d 1a ec ae 3d 49 02 3e be
       0.08922817 0.054347176 0.085411265 -0.18555559
000100 86 78 10 3b 9a 4c 24 bd 3e 05 50 be 99 17 08 3e
       0.0022044494 -0.040112115 -0.203145 0.13290252
000110 15 ea 4a be c2 e3 01 be f1 ae 05 be a6 1c ae 3d
       -0.19815858 -0.12684539 -0.13055016 0.08501558
000120 8d 8d ab 3d 26 ee 11 bc 9a cd 29 be 3f 17 01 3e
       0.08376608 -0.008906877 -0.16582337 0.12606524
000130 be ff df bc 01 ac 83 be f6 af 0d be a9 f1 78 3e
       -0.027343627 -0.25717166 -0.13836655 0.24310936
000140 de e0 e0 bd 3c 71 4e 3e 58 3f c8 bd 0c db 4f be
       -0.1098039 0.20160383 -0.09777707 -0.20298404
000150 d5 79 1e 3d 04 2c a2 bd 8d 1c 95 bd f1 32 f0 bd
       0.038690407 -0.079185516 -0.07280836 -0.11728466
000160 2b f1 da 3d e4 99 3b be ad 22 0a 3e 1b 6e 1b be
       0.106905304 -0.18320423 0.1348979 -0.1517872
000170 50 15 2a 3d 0c 49 d4 bd b2 67 14 3e 8d fb a8 bd
       0.04152423 -0.10365495 0.14492682 -0.082511045
000180 f8 d5 1a be ec 29 73 3c 2c 07 1b bd c3 cf f1 3c
       -0.15120685 0.014841538 -0.037848637 0.029518014
000190 65 c7 21 bd b5 8c ee bc 4d 65 e2 3c 6d 6d ed bd
       -0.039496798 -0.029119829 0.027636195 -0.11593137
0001a0 60 eb bf bd a2 ed 4c 3d 0f ec 07 3e a0 2d 10 be
       -0.09371066 0.05003131 0.13273643 -0.14079905
0001b0 2f f8 17 bd 9b 70 50 3d cd aa c4 bc a4 9c e2 3d
       -0.03710192 0.05088864 -0.024007225 0.11065033
0001c0 e9 58 44 be ad a4 0c be d4 87 c8 bb 03 39 2f bd
       -0.19174542 -0.13734694 -0.0061197076 -0.04277898
0001d0 e0 a3 ed 3d e9 d5 0e be dc 9c ac bd 57 f9 4c 3c
       0.11603522 -0.13948788 -0.08428356 0.012510619
0001e0 f0 75 d2 bd af 3c 10 be fd 1c 33 3e 12 ec 20 be
       -0.10276401 -0.14085649 0.17491527 -0.15715054
0001f0 ec 83 e1 3d df ab 0a 3c 27 49 e6 bd b1 f4 c9 bd
       0.1101149 0.008463829 -0.112444215 -0.09861124
000200 24 3c e8 3d 90 80 4f bd 05 80 1e be 05 23 15 be
       0.11339596 -0.050659716 -0.15478523 -0.1456414
000210 38 ed 12 be 2a ed fa 3d f4 28 06 be e2 49 bf bd
       -0.14348304 0.12252267 -0.1310156 -0.09340264
000220 34 d5 5d 3d 44 6e 10 3e ad da 22 3e 22 e7 52 3e
       0.054158404 0.14104563 0.1590373 0.20595983
000230 6f 46 4f 3c 27 93 87 bd 34 b5 89 3c c2 11 40 3e
       0.01265107 -0.06619864 0.016810037 0.18756774
000240 5e 38 7d 3d 01 69 82 bd eb 42 fc 3d 46 c4 33 be
       0.061821334 -0.06367684 0.12317451 -0.17555341
000250 2a 41 38 bb 71 70 f7 3c db 2e 49 bd b4 5d af be
       -0.0028115013 0.030204983 -0.04911695 -0.34251177
000260 84 83 18 3c c5 91 4e be 11 21 32 3e a7 b3 10 3e
       0.0093086995 -0.20172794 0.17395426 0.14131032
000270 a1 b8 33 be b1 af b9 3d 87 19 f8 3c ce 7d aa 3d
       -0.17550899 0.090667136 0.03028561 0.083247766
000280 8e c9 87 3d 34 a8 1a be bf fc 16 3e d0 57 26 be
       0.066302404 -0.15103227 0.14744852 -0.16244435
000290 c2 0f f3 bd 34 2f 5f 3d 80 96 a6 3d c7 84 4b 3c
       -0.1186824 0.054488376 0.08134174 0.012421793
0002a0 55 9a 2e 3e c0 e1 b7 3b 54 8c e8 3d 07 3e 9d 3d
       0.1705106 0.0056116283 0.113548905 0.076778464
0002b0 5a 66 12 3e 55 ce 2d be c7 bf c2 3c 84 12 3e 3e
       0.14296857 -0.1697324 0.023773087 0.1856175
0002c0 b6 10 2b be fb b0 1c bd f4 80 15 bd 2f 20 cc bd
       -0.16705593 -0.03825472 -0.036499932 -0.09967076
0002d0 eb 3b 37 3e df 3e 85 3c 49 c2 4d 3e 3c 87 4d bd
       0.1789395 0.01626533 0.20093645 -0.050177798
0002e0 82 eb 49 3d 8e f6 89 3d f4 39 01 3e 94 05 48 be
       0.049296863 0.0673648 0.12619764 -0.19533378
0002f0 41 fd a6 3d 7c 70 6c bd 95 90 bd bd e1 eb 64 3e
       0.08153773 -0.05772446 -0.092560925 0.22355606
000300 65 f2 3b bd 36 ad 97 bd b3 4b 40 3e 92 69 29 be
       -0.045885462 -0.07406084 0.18778877 -0.16544178
000310 52 67 24 bd 18 5c df 3d a1 4d 36 3e 2a e5 cc 3a
       -0.040137596 0.10906237 0.1780305 0.0015632261
000320 d2 7f f2 bd 03 32 17 3e f9 e5 1d 3e 55 59 db bd
       -0.11840786 0.14765172 0.15419759 -0.10710398
000330 8e 1b db bd 9f a3 a3 bd 6f 84 3e bb 5e 34 f7 3d
       -0.10698615 -0.079901926 -0.0029070636 0.12070535
000340 29 4b f6 3d 73 25 37 3d 10 0d 21 3e d3 0a 28 3e
       0.120260544 0.04471345 0.15727639 0.16410379
000350 bb c2 d4 3d 2b e4 10 3e f5 5e 27 3e b9 f7 94 3b
       0.103887044 0.14149539 0.16344817 0.0045461324
000360 3a bd 1a 3d 8a 94 32 be 8e 39 00 3e cb 2f 34 3e
       0.037778117 -0.17439476 0.12521955 0.17596357
000370 fc 0d 99 bd 76 e0 9c 3d 54 d0 f0 3c c8 d8 cc bd
       -0.074733704 0.0766 0.029396214 -0.10002285
000380 64 cb 30 3d 45 c8 20 bd b1 98 45 be e4 22 1e bd
       0.04316272 -0.039253492 -0.19296528 -0.038607493
000390 2c 87 0a 3e ea 07 21 3d 6b ee f5 3d 66 b7 5c 3d
       0.13528126 0.039314188 0.12008365 0.05388584
0003a0 52 49 4e be 69 0b c5 3d 6e b1 92 3b e0 06 00 3e
       -0.20145157 0.09621317 0.0044767177 0.12502623
0003b0 f8 8a 18 3e 5d 26 ac 3d 4c 00 51 bd d3 bf 23 be
       0.14896762 0.08405755 -0.051025674 -0.15991144
0003c0 d1 83 92 3d aa 9c f5 bd 1b dd c1 bd 98 72 d3 bd
       0.07154048 -0.11992772 -0.09466001 -0.103245914
0003d0 32 35 11 bd c4 9a d3 3d c0 4f 8f 3d 48 d9 0a 3e
       -0.03545112 0.103322536 0.06997633 0.13559449
0003e0 22 6e 9c 3d 07 a5 a1 3d 43 f7 88 be 66 a4 57 3d
       0.07638194 0.078928046 -0.26751146 0.052647017
0003f0 32 c9 3c be 2c 9f a6 bd 97 06 0f be d2 ba 21 3d
       -0.18436125 -0.081358284 -0.13967358 0.039484806

encode_conv3.bias f4 [8]
000000 a8 18 2c bd 93 19 11 be 5f a9 1b 3e e1 47 7c bd
       -0.0420157 -0.14169912 0.15201329 -0.061591987
000010 a8 cf e0 bd b3 c7 e7 bd 7a 2d 40 3c 1f c0 e5 3a
       -0.10977107 -0.113173865 0.011729592 0.001752857

encode_conv4.weight f4 [8, 8, 3, 3]
000000 fc 9f f4 bd 45 7a b1 3a 13 ad 8a 3d 7e 71 1d 3d
       -0.11944577 0.0013540467 0.067712925 0.038438313
000010 e6 4d 20 3e a4 f8 09 bd d1 dd 1f 3d 4e c7 d1 bc
       0.15654716 -0.033684388 0.0390299 -0.025607731
000020 75 be cf 3c 1b ad 01 bc 86 e3 fb bc ee d0 43 bd
       0.025359372 -0.007914807 -0.03074814 -0.047806673
000030 f5 6a ae bd d0 6f a1 3d 09 73 2f 3c ce a6 4e 3b
       -0.08516494 0.07882655 0.010708579 0.0031532529
000040 71 4e 2d bd 00 f4 2b 3d bf 66 9c 3d 9b 8d 21 bc
       -0.042311136 0.041980743 0.07636785 -0.0098604215
000050 77 ec 69 bd e4 23 99 bc 83 51 14 3e 82 2c 96 3d
       -0.057110276 -0.018693872 0.14484219 0.07332708
000060 d3 9b 53 bd fb 1f 18 bd 18 eb b5 3d 2c d9 69 3d
       -0.051662277 -0.037139874 0.08882731 0.057091877
000070 ad e2 da 3d 77 47 1e bd 70 a3 a6 3d 81 eb 88 3d
       0.10687766 -0.038642373 0.08136642 0.06685544
000080 36 8f 8c bc 2c 17 a1 bc 78 df 0e 3b 66 8e 23 be
       -0.017158132 -0.01966437 0.0021800678 -0.1597229
000090 b3 05 e1 3d f5 55 21 bd 00 ec c2 3d f9 28 1c be
       0.10987415 -0.039388616 0.0951767 -0.15250005
0000a0 87 43 32 3d 19 78 22 be c8 48 3d be e6 c4 17 3d
       0.04352143 -0.15866126 -0.18484795 0.03705301
0000b0 f0 50 0c be 29 6a b8 bd f7 8a c3 3c fa f7 e1 3c
       -0.1370275 -0.090046234 0.023869975 0.027584065
0000c0 1f 51 d6 bd 29 7f b7 3d d1 b0 c1 3d b2 f0 b8 bd
       -0.10464691 0.08959801 0.09457553 -0.09030284
0000d0 bc 66 b7 bd e1 1d d6 bb cf d3 8f 3d e1 22 d4 3d
       -0.08955142 -0.0065343236 0.07022821 0.10358215
0000e0 cb 73 02 3d 40 78 9d bd 01 63 c3 3d 71 ea ac bd
       0.03184871 -0.076889515 0.09540368 -0.08443154
0000f0 61 ef 0b bc b6 c1 42 3d e6 19 6b 3d 94 44 a1 3d
       -0.008540959 0.04754802 0.057397746 0.07874408
000100 95 45 b9 bd b4 4b ea 3c a7 35 06 3e 3e 8c 10 be
       -0.09046475 0.028600551 0.13106404 -0.14115998
000110 1f c8 fd 3d 10 cd 10 3e e6 22 b7 bd d9 60 bb 3c
       0.12391686 0.14140725 -0.08942203 0.022873329
000120 30 db 10 3e d4 c9 5a bd 5a f4 ef bd 41 5c 5b bd
       0.14146113 -0.053415135 -0.11716528 -0.053554777
000130 0a df b6 3c 04 b3 87 bd 07 fd 98 3d a8 9a f1 3d
       0.02232315 -0.066259414 0.07470136 0.117970765
000140 81 65 df bd a7 9d f5 bc 33 1c b9 3d b5 b5 ca 3b
       -0.10908032 -0.029982401 0.09038582 0.006186212
000150 ca f1 97 38 74 da 75 bd 6f 9d 08 3e 0d 1b ec bd
       7.245278e-05 -0.060022786 0.13341306 -0.11528597
000160 ca c8 1a bd 6c 94 24 3e 07 f8 0d be f1 f1 26 3c
       -0.037789144 0.16072243 -0.13864146 0.010189519
000170 3a 06 ec 3d b2 d8 59 bd c9 d4 c0 bd 67 9c c2 3d
       0.11524625 -0.053185172 -0.094155855 0.09502488
000180 14 c0 58 3d 46 20 8d bd 8e cc 55 bd fa 9e 94 bd
       0.052917555 -0.06890921 -0.05219703 -0.07256885
000190 32 52 c2 bd 4b e5 84 bd 97 fd 92 bd b0 64 66 bd
       -0.09488334 -0.06489047 -0.07177275 -0.056248367
0001a0 fc 72 e2 3c 31 67 24 3d dc c1 cf bd 8c 56 6b bd
       0.02764272 0.040137473 -0.101443976 -0.057455584
0001b0 f1 0a 3b bd cc 53 6b 3c 15 4c 81 3d 6d 7a 60 3d
       -0.04566473 0.01436324 0.063133396 0.054804254
0001c0 40 2e 22 bd 60 37 07 bd 16 0d 42 bd d2 eb 10 3d
       -0.03959489 -0.033011794 -0.04737576 0.035381146
0001d0 f7 7f e9 3c a4 92 06 bd 4e 13 c7 3d 38 fc fa 3d
       0.028503401 -0.03285469 0.09720479 0.12255138
0001e0 cb 0c c9 3d 7a 4c 7b 3d 65 e0 28 3d 5c 53 97 3d
       0.09816893 0.06135223 0.041229624 0.073889464
0001f0 99 7d b5 bd f7 e1 aa 3c 25 68 8e 3d 9f f6 bc 3c
       -0.088618465 0.020859702 0.06953458 0.023066817
000200 20 c2 41 3d d4 4c 73 bd bd e0 b1 bd b9 5b 54 3c
       0.047304273 -0.05939944 -0.086854436 0.0129613215
000210 d0 a2 af 3d 07 03 4a 3d 69 39 9f 3d e6 fe 27 bd
       0.08575976 0.049319293 0.07774622 -0.041014574
000220 b0 65 3d 3d 9b b5 79 bd 00 5d eb 3d 1d 5c fb 3d
       0.046239555 -0.060964208 0.11492348 0.122734286
000230 cc b4 97 3d 7a 18 97 3d 2c 31 32 3e 0f e0 4f 3e
       0.07407531 0.073777154 0.1740157 0.20300315
000240 a3 bb 06 3c 6f cf 0e 3d 64 e6 87 3d 14 56 0f bb
       0.008223447 0.034865793 0.066357404 -0.0021871375
000250 c4 49 0c 3e 3c e6 0b bc 52 e7 42 3c e2 bb ef 3c
       0.13700014 -0.008538779 0.011895971 0.029264394
000260 b3 99 f2 bd 8d 08 19 bd d6 6f 27 3d d5 43 4e 3d
       -0.11845722 -0.03736167 0.04087814 0.05035766
000270 83 6a 98 3d 25 c9 41 3d 3c 11 a6 bd e1 93 78 3d
       0.074421905 0.047310967 -0.08108756 0.060687903
000280 f0 65 7e 3d 2d 3d f2 3d 33 c3 80 3a e7 12 0d be
       0.062108934 0.118280746 0.0009823799 -0.13776742
000290 27 ab 19 3d 87 13 11 3d 55 61 ae bc 4d f0 dc 3d
       0.03751674 0.035419013 -0.021286646 0.10788021
0002a0 05 59 99 3d c0 3e 92 3d 6b 3c 16 bd 81 94 b6 3d
       0.07487682 0.07140875 -0.036678713 0.089150436
0002b0 a1 be b7 bd e8 50 03 be 82 43 9f bd 2a 88 79 bd
       -0.089719065 -0.12823832 -0.07776548 -0.06092087
0002c0 6a 8e 23 3b e1 a5 3a be 78 2f f6 bd 33 92 db bd
       0.0024956712 -0.1822734 -0.12020773 -0.10721245
0002d0 1a b6 ae bc ea 74 a8 bd b3 70 0c 3e bc 04 91 3d
       -0.021327067 -0.082254246 0.13714866 0.07080981
0002e0 80 25 be bd c2 20 ba 3a fb d6 35 3c 86 47 d4 3d
       -0.09284496 0.0014200436 0.011098619 0.103652045
0002f0 dd fe 8c 3d e9 78 9b bd 9c 7b 8b 3d 89 bb d5 bc
       0.06884549 -0.07591421 0.06810686 -0.0260904
000300 c6 61 61 3d 2b 29 05 3e 7d cd 81 3c 57 d1 9c bd
       0.055024885 0.13003986 0.015845055 -0.07657116
000310 96 e6 97 3d 2d 5f 20 bd 7b c5 46 bd 93 2c 0f 3e
       0.07417028 -0.039153267 -0.048528176 0.13981847
000320 3b 1c 48 3d 35 c3 d4 bd b3 ed a9 3d c8 95 43 3d
       0.048855048 -0.10388795 0.08297291 0.047750264
000330 fe 29 34 bd c8 67 0e 3e 0f 7e c1 3d 06 25 cb 3d
       -0.04398536 0.13906777 0.09447872 0.09919171
000340 9c 66 0d 3c 6a 52 b7 bc 69 cd 35 3d 25 78 a9 3d
       0.008630421 -0.022378165 0.044385348 0.08274869
000350 28 66 9b bd c3 c4 16 3e 58 db 95 3d 66 cc ca 3d
       -0.07587844 0.14723496 0.07317227 0.09902267
000360 31 bd 00 bc fb fd 0a 3d bb 39 00 bc 1a c0 b4 3d
       -0.007857607 0.03393362 -0.007826264 0.08825703
000370 4e 5e e4 bd cc 4d 6d 3d fe d5 8a 3d 77 15 04 3c
       -0.111508 0.05793552 0.06779097 0.008061758
000380 2c be 8d bc a7 3a 05 bd 75 df a3 bb eb 21 49 3d
       -0.017302595 -0.03252664 -0.0050010034 0.049104612
000390 be d7 bd bd 36 53 d7 3c 9b 89 01 bd 62 f1 06 3d
       -0.09269665 0.026284795 -0.03162537 0.032945044
0003a0 22 7d fb bd c6 6a 40 3b a2 87 8f bd 73 75 5c 3d
       -0.122797266 0.0029360517 -0.07008292 0.053822946
0003b0 d8 d9 20 bc 60 79 97 3c 08 e3 db 3d d4 a5 a4 bd
       -0.009817563 0.018490493 0.10736662 -0.08039442
0003c0 80 a4 c6 3d c8 ee 39 3e a1 08 5e bb 62 4a d1 bb
       0.09699345 0.18157494 -0.0033879655 -0.006387041
0003d0 4c 64 15 3d 33 b6 3c bd 4f fa 33 bb af 65 25 3e
       0.036472604 -0.046072196 -0.0027462428 0.1615207
0003e0 89 f1 90 bd ce 50 8a bd 9f b7 21 3d 77 1d 8a bd
       -0.07077319 -0.067536935 0.039481755 -0.06743901
0003f0 d0 94 cc bc e1 be 2e be 37 65 ab bd b0 71 22 3d
       -0.024973303 -0.17065002 -0.083689146 0.039659202

encode_conv4.bias f4 [8]
000000 20 22 cd 3a f8 0c 8b bd 7f 0f 87 bd 87 48 64 bc
       0.0015650429 -0.06789583 -0.065947525 -0.0139333075
000010 5d 04 0b 3d 5c f5 36 3d 26 59 9b 3d c6 94 46 bc
       0.033939708 0.044667587 0.07585363 -0.012120431

fc1_1.weight f4 [200, 192]
000000 82 18 51 bd a3 fb 10 bd 6d fa 6c bd 82 06 79 3d
       -0.051048763 -0.03539623 -0.057856012 0.060797222
000010 e0 f4 98 bc fd b7 57 3c a4 89 8c bd 2a bf bf bc
       -0.018671453 0.013166425 -0.0686219 -0.023406584
000020 46 54 33 bd 3e a7 6d 3d 72 fb 18 bd bf c0 45 bd
       -0.04378154 0.058020823 -0.037349172 -0.04827952
000030 9d bd 82 3d e0 e3 1d 3c d8 32 0e 3d 2b fc c0 3d
       0.06383822 0.009636849 0.034716457 0.09423097
000040 a0 c2 55 3d b8 f1 99 bc 75 0e 35 bb a2 ec 90 3d
       0.052187562 -0.018792018 -0.0027627025 0.07076384
000050 df f8 90 3c 99 b6 95 bd d1 b6 2f bd b7 d8 17 3d
       0.017696796 -0.07310218 -0.042898957 0.03707191
000060 bf 9a 40 3d b2 3a be 3a 5c 6a 78 bc bc da bf 3b
       0.047022577 0.0014513342 -0.015162077 0.0058549326
000070 23 eb 83 bd aa 33 8e 3d 37 a6 50 3d 65 c2 ab 3c
       -0.06441333 0.06943448 0.050939765 0.020966718
000080 41 b2 98 3d d1 e9 4a bd f5 6b 16 bd a3 07 50 3d
       0.07455874 -0.04953939 -0.03672405 0.050788533
000090 85 f3 29 bd 61 43 8b 3c 38 36 40 bd 56 ee 0e 3e
       -0.041492004 0.016999902 -0.046926707 0.13958105
0000a0 46 79 90 3d 9d 80 6f bb c3 2c ad 3d bf 9d 49 3d
       0.07054381 -0.0036545165 0.08455803 0.049222704
0000b0 ad 4b bb 3d c0 eb ae 3b ac 73 90 bd de 51 19 3d
       0.091452934 0.005338162 -0.07053313 0.03743159
0000c0 0d bf 74 bc 7f 57 60 3d 23 ec 90 3d 88 6e 63 bd
       -0.014938128 0.054770943 0.070762895 -0.055525333
0000d0 6e 1f 80 bc 7e 19 8b 3d 7d 0e 5f bc cc 65 e5 3c
       -0.015639987 0.067919716 -0.013614294 0.028002642
0000e0 95 cf 4d 3d b9 a1 11 bd e8 c1 74 3c 07 a8 31 3d
       0.050246794 -0.03555462 0.014938809 0.043373134
0000f0 01 12 5f 3e 4a fa 6c 3c a5 78 8b bd 00 4a 0d 3e
       0.21784212 0.01446397 -0.068101205 0.1379776
000100 45 47 41 bd c8 c1 7d bd 81 26 2b bd 7f 3e 8c bd
       -0.04718711 -0.061952382 -0.041784767 -0.06847858
000110 73 3a 32 bd a8 0d 18 bd c4 f0 49 3d 04 ed 39 3c
       -0.043512773 -0.0371224 0.049301878 0.011348013
000120 b1 d7 60 bc 56 fb 79 3c 62 00 8b 3c eb bd 35 3d
       -0.0137233 0.015257677 0.016967956 0.044370573
000130 77 6a f7 bc 69 2e 94 bd 1a c9 0d 3d 44 e1 51 bd
       -0.030202134 -0.072354145 0.034615614 -0.05124022
000140 14 a8 93 3d 1e a2 79 3d 06 c7 91 3d cb 4c a2 bc
       0.07209793 0.060945623 0.07118039 -0.019812008
000150 de 84 0c be f0 38 59 3d cd b0 c9 bc 72 97 d7 bc
       -0.1372256 0.053032815 -0.024620438 -0.026317332
000160 17 66 e4 bb 72 5e 27 3d ea f4 08 bd a2 72 0d 3d
       -0.006970178 0.040861554 -0.033436693 0.03453315
000170 9d 98 a1 3d f7 c2 ba 3d 82 9f 31 3d cb 3f 79 bc
       0.07890437 0.09119218 0.04336501 -0.015212963
000180 de 88 09 3d 30 c2 7f bd f7 94 91 be a7 32 ac 3c
       0.033577792 -0.06244105 -0.28433964 0.021020247
000190 03 17 bb 3d cc ab 3e bd c8 0e 52 bd 7e e7 37 bd
       0.091352485 -0.046550557 -0.051283628 -0.044898503
0001a0 a9 54 17 3c 0d 28 0b bc 06 f1 7b 3d 0c 6d 66 be
       0.009236493 -0.008493436 0.061509155 -0.22502536
0001b0 c4 ff 86 bd 79 33 b2 3d 81 a0 24 3c e9 d9 2c bd
       -0.06591752 0.08701224 0.010048033 -0.042200003
0001c0 f4 dc 66 3c 15 8f 2b bd 0d 74 58 bd 19 e6 36 bd
       0.014090765 -0.0418845 -0.05284505 -0.044653032
0001d0 fc 3c 78 3c 4d 35 58 bd 86 dd 26 bd c0 04 b8 3d
       0.015151259 -0.052785207 -0.040738605 0.08985281
0001e0 39 38 2e 3c 91 2f 86 3d 90 50 46 3d 05 1b 9e bd
       0.010633522 0.06552041 0.048416674 -0.07719997
0001f0 fd 47 c5 bc fc c8 07 bd b5 54 ae bd 6d 5e 4a 3d
       -0.024082178 -0.033150658 -0.0851225 0.049406458
000200 c9 e6 3f 3c 22 09 7d 3d ae 4a 6e bc 2f c8 b9 3c
       0.011712738 0.061776288 -0.014544172 0.022678463
000210 6a 5a 80 3c 32 9f 5e bc f6 97 bc 3c 79 8c 16 bd
       0.015668113 -0.01358776 0.02302168 -0.03675506
000220 e6 50 4a bc 1d b2 94 3d 17 95 4c 3d ea bd f5 3a
       -0.012348389 0.07260535 0.04994687 0.0018748615
000230 2b c0 10 bd c2 6d 0a 3e a7 f1 97 3d ef 66 3a bb
       -0.035339516 0.13518432 0.074191384 -0.00284427
000240 16 34 9f 3c 30 79 ae 3c 0d dc 15 3d 52 01 60 3d
       0.019434016 0.021298021 0.03658681 0.05468876
000250 b4 6e 50 bd 2d 33 28 3d 1d 4b 41 bd 9a 6d d4 bc
       -0.050886825 0.04106443 -0.047190774 -0.025931168
000260 e3 ba 84 3d 6d 71 75 bd 25 bf 7b bd 22 81 7f 3d
       0.06480958 -0.059922624 -0.061461587 0.06237901
000270 6e 10 79 bd dd 59 c7 3d f1 57 e1 3d e8 f4 a2 bc
       -0.060806684 0.09733937 0.110031016 -0.019892171
000280 14 d0 c2 bc 6d 67 9e 3d 8e 38 2a 3d 5e 04 af bb
       -0.02378086 0.07734571 0.04155784 -0.005341097
000290 7c e6 53 bd ab 2d 9c bc 44 8f a4 3c 18 46 9a 3d
       -0.05173348 -0.019064745 0.020087846 0.075329006
0002a0 c3 84 5c 3c c6 e2 20 bd 11 fc 28 3d 54 1d 90 bc
       0.013459387 -0.039278768 0.041256014 -0.01759211
0002b0 39 33 96 bc 6f 45 56 3d b7 fe f8 3c 35 4f f7 3c
       -0.018334972 0.05231231 0.030394895 0.030189136
0002c0 5a e3 88 3d fd b3 89 3d d2 10 19 3c 31 02 82 bd
       0.06683989 0.06723783 0.009342389 -0.06348074
0002d0 1f 75 5b bd 1c b4 fa bc 2f 71 00 3d dd c8 43 3d
       -0.053578492 -0.030603461 0.03135794 0.04779898
0002e0 6a fd 88 3d b3 3e 0a bd ed 9c 6f bc 86 f4 2e bd
       0.0668896 -0.0337512 -0.014624816 -0.042713664
0002f0 b2 05 53 3d 2f bf 8b 3d 94 68 f9 3c 88 0e 35 3b
       0.051519103 0.06823575 0.030445375 0.002762707
000300 45 c5 c4 bc 0e 31 8d bd 35 cb 49 3d 7d 23 86 3c
       -0.024019847 -0.06894122 0.04926606 0.016374344
000310 7d 0f 20 bd 04 87 9a bd 6c e9 0f bd ea cc 70 3d
       -0.03907727 -0.075452834 -0.035134718 0.05878917
000320 a8 69 bd 3c 35 01 3b bd 47 3e bd bc 2d 50 82 bd
       0.02312167 -0.045655448 -0.023100985 -0.063629486
000330 2b e1 14 3d da b5 69 ba f6 10 3e bc 57 b6 37 bd
       0.03634755 -0.00089153426 -0.0116007235 -0.044851627
000340 89 30 e9 3c d3 8f 30 bd 38 61 bc bc 81 62 16 bd
       0.028465526 -0.04310591 -0.022995576 -0.036715034
000350 27 89 3e bd 8c c1 3c 3b 85 c8 28 bb cc 75 c4 bc
       -0.046517517 0.0028801886 -0.0025754285 -0.023981951
000360 42 70 55 bd b1 66 ff 3c 13 54 86 3c 1c b9 5b 3d
       -0.05210901 0.031176897 0.016397512 0.05364333
000370 00 9d 50 3b da 5a 5a 3b d3 fc 18 bd 11 b5 40 3d
       0.003183186 0.0033318312 -0.037350487 0.04704768
000380 b3 57 1f 3d ad 77 d2 bd cb a1 87 bd f9 16 ae bd
       0.038901996 -0.102767326 -0.066226564 -0.085004754
000390 c9 16 56 bd 59 eb a5 3d 22 76 27 bb 59 e2 cf 3d
       -0.052267823 0.0810153 -0.002555259 0.10150594
0003a0 79 74 c2 bc 29 85 23 3d e9 f6 49 3d ff d6 8a 3c
       -0.02373718 0.039921913 0.049307737 0.016948221
0003b0 c0 f0 50 3d fc 15 a9 bd 6b 70 33 bc 75 5e ae bd
       0.051010847 -0.08256146 -0.0109520955 -0.0851411
0003c0 8f 96 01 3d 25 2a 34 bd 21 f2 96 bc 58 53 b5 3c
       0.031637724 -0.043985505 -0.018426003 0.022134468
0003d0 a2 1f 97 bd a7 b3 40 3b 93 cd 41 3d 9f 91 87 bd
       -0.0737908 0.0029403956 0.04731519 -0.06619572
0003e0 b0 6f c0 3c 7d 2f 6a 3d 5b 0f 60 3d 1a a0 d1 3d
       0.023490757 0.057174195 0.054702144 0.10235615
0003f0 d8 da b0 bd 9e 6a 58 bc 38 08 47 3d fb 15 45 3c
       -0.08635491 -0.013209013 0.048591822 0.012029166

fc1_1.bias f4 [200]
000000 81 27 e7 bc 20 86 74 3d 41 ac 5b bd ab 83 95 bd
       -0.02821708 0.059698224 -0.05363107 -0.07300504
000010 1d a4 65 bd 29 bf d4 3c 66 58 1c 3d b8 7d 64 3d
       -0.056064714 0.025970059 0.03817024 0.055783957
000020 42 f9 59 bb 3a 07 42 bd d5 57 a6 3c 03 a8 88 bc
       -0.0033260141 -0.047370173 0.020305553 -0.016681677
000030 e0 f1 27 bc 5a 4a 44 3d c8 18 99 3b 82 08 83 3d
       -0.010250539 0.04792247 0.0046721436 0.06398107
000040 3e 4f 4d bd c8 5a 17 3c 35 ba 04 3d 89 13 0d bb
       -0.0501244 0.0092379525 0.032404143 -0.0021526536
000050 2f 7e 44 3c a3 01 0a 3d e8 e4 a6 bd 99 0e 89 bc
       0.011992975 0.033692967 -0.08149129 -0.016730594
000060 c3 f2 6a 3d 57 ea 8f ba c6 e7 3b bc 42 01 e4 3c
       0.057360422 -0.0010979873 -0.011468833 0.027832631
000070 4d cd 97 bc b7 7a f4 3b 22 4c 75 bd 13 8f f2 bc
       -0.018530512 0.007460918 -0.05988706 -0.029609239
000080 00 20 4d bd be 9a a9 3b d2 28 cf 3c 85 59 8e 3c
       -0.050079346 0.0051759174 0.02528802 0.01737667
000090 44 c6 5e bd e3 67 26 3d 6e 84 80 ba 7a d6 d0 3b
       -0.0543883 0.040626418 -0.0009805092 0.006373224
0000a0 df 97 17 3b 5d 6a 62 bc cc b3 32 3d a2 a7 71 3d
       0.0023131294 -0.013819304 0.0436285 0.058997758
0000b0 1d 92 f0 ba f8 87 08 3d eb e6 32 3c 1b 14 8f 3d
       -0.0018354092 0.033332795 0.010919313 0.06986257
0000c0 97 4b c7 3c da 98 80 3d 90 d0 14 3d 61 54 ef 3c
       0.024328036 0.06279154 0.036331713 0.02921504
0000d0 79 6c 5e bc 54 7d 65 bd 3d 7c 01 3d 9b 0b 26 bc
       -0.013575667 -0.056027725 0.031612623 -0.010134603
0000e0 c8 3f b4 3c 49 3e 9e 3b 8f 32 8c bd 1c 9e 01 bc
       0.02200307 0.0048292023 -0.06845581 -0.007911231
0000f0 17 ed bc bb eb 95 13 3d d4 29 fa bb fc c9 89 3c
       -0.005765568 0.036031645 -0.007634381 0.016819946
000100 ee be 1f ba 44 1c d4 bc be 62 2c 3d 3f cc 28 3b
       -0.00060938194 -0.025892384 0.042086355 0.0025756506
000110 72 0c 57 3d 7f 65 c6 3c 14 1a 5c bd 93 26 75 bc
       0.052502103 0.024218319 -0.053735808 -0.01496281
000120 37 6a 93 bd 67 f0 12 bb eb 29 a3 bc f1 e5 39 bd
       -0.07197993 -0.0022421123 -0.019917449 -0.045385305
000130 24 43 72 3d 68 b1 37 bd 3e 7f 03 3d ac c4 73 3b
       0.05914606 -0.044846922 0.03210377 0.0037196083
000140 48 e4 dc bb e4 7d 2f 3c 08 97 31 bd 13 d6 7b 3d
       -0.0067410804 0.010711167 -0.043356925 0.061483454
000150 7f d0 0f 3d ef 45 ff bb ab 2c c2 bc 00 ae 2e bd
       0.035110947 -0.007790319 -0.02370294 -0.042646408
000160 44 9c 7e 3b a4 f8 68 3d 82 fa c9 3c df 2c f1 3b
       0.0038850466 0.056877747 0.024655584 0.0073600854
000170 8f c9 a9 bc 9a 39 07 bd a7 ac d9 3c 0a d6 49 3b
       -0.020725993 -0.033013918 0.026571585 0.0030797743
000180 39 44 dc bc 21 d8 4c 3d 64 f8 8c bd c3 2b c1 3a
       -0.026888 0.050010804 -0.06883314 0.0014737773
000190 9e 5c 58 bd c8 41 78 bb 84 57 63 3d e6 bf 8b 3d
       -0.0528227 -0.0037881006 0.055503383 0.06823711
0001a0 d0 75 f3 bc 8c 49 c8 bd 7c a5 31 bc 65 64 05 bd
       -0.029719263 -0.09779653 -0.010842677 -0.032566447
0001b0 66 95 fd 3c d1 f1 39 bd ad 60 e5 3c 41 e0 49 3c
       0.030955028 -0.04539663 0.0280002 0.012321533
0001c0 b2 73 55 3c e0 c1 23 bc d4 f1 28 bd b7 38 4a bd
       0.013028072 -0.009994954 -0.04124625 -0.049370494
0001d0 2d eb 3c 3d 64 df 9f bd 19 08 74 bc d9 3c 52 3a
       0.04612272 -0.0780628 -0.014894509 0.0008019931
0001e0 60 82 96 bb 1b 84 f1 3a ed 5d 1c 3d d7 18 e3 bc
       -0.0045931786 0.0018426211 0.038175512 -0.027721805
0001f0 7a 02 87 3d fc d1 55 3d 0f 4b 12 bd 6c 61 df bb
       0.06592269 0.05220221 -0.035716113 -0.0068170335
000200 c9 54 bd 3c c9 31 96 bd 11 15 43 bc fc 6f ae bc
       0.023111718 -0.073337145 -0.011906878 -0.021293633
000210 ea 96 c0 3a 40 65 b0 3b 31 eb 8d bc b5 52 11 3d
       0.0014693413 0.0053831637 -0.017324062 0.035479266
000220 21 35 1f 3d b0 5c 45 bd c2 78 87 bb 30 e2 64 3d
       0.038869027 -0.048184097 -0.0041342685 0.05587977
000230 9f e2 23 3d 0e 45 4b bd e8 cb 5c bd 20 49 ef bb
       0.040011045 -0.049626403 -0.053905398 -0.0073024184
000240 7d dd 7b 3c 25 03 80 3d c6 05 a4 3d 1c f9 69 3d
       0.015372631 0.062506 0.08008914 0.057122335
000250 4d 6e 1b bc f8 21 28 3d 50 55 ed bc 4e 69 1e bd
       -0.009486747 0.04104802 -0.028971344 -0.038674645
000260 49 99 e4 bb 2b ed 24 3d aa b5 0b bd 48 14 fa 3b
       -0.006976281 0.040265244 -0.034108795 0.0076318122
000270 bf b0 d6 3c 3a 02 8e bd 76 ec 8a bb 88 f2 5b bd
       0.026207326 -0.069340184 -0.004239614 -0.053698093
000280 c1 3a eb 3c 03 63 7a 3d 33 fd a2 bc 3e ff 47 3c
       0.02871454 0.06112958 -0.019896125 0.012206851
000290 e3 4e 92 3d 05 c3 50 bb 59 f2 77 3b 1b 1d 47 3d
       0.07143953 -0.0031854522 0.003783366 0.04861174
0002a0 1d 7d 37 bc d9 9c 5e 3c e5 21 1b bb 18 6f 11 bd
       -0.011199263 0.0135872 -0.0023671326 -0.035506338
0002b0 12 47 37 3d 5e dd 3c bd 02 59 03 bd b8 d8 1b 3d
       0.044745512 -0.04610955 -0.032067306 0.038048476
0002c0 54 7f e1 bc 9f 33 c7 bc 5e 33 57 bd 62 e2 e8 bb
       -0.027526535 -0.024316607 -0.052539222 -0.007107065
0002d0 93 70 8e 3d 4e df 5e bc ff 50 f9 3b 7b 37 98 bc
       0.069550656 -0.013603045 0.0076085324 -0.018581143
0002e0 84 05 d2 bc 17 34 5c bd 35 0d 89 bd 84 9f 86 3d
       -0.025637396 -0.053760614 -0.06691972 0.06573394
0002f0 e2 1b a0 bc c0 5c 44 3d 8e ef 25 bd b4 b5 26 3d
       -0.019544546 0.047940016 -0.04051166 0.04070063
000300 b6 1c 25 bd a9 04 18 bd a4 3d ed 3c d8 af c3 3a
       -0.040310584 -0.03711382 0.028960057 0.0014929725
000310 6a 75 2f bd 9e 51 93 bd 5f 05 45 3b 51 ae 35 3a
       -0.042836584 -0.071933016 0.0030063016 0.0006930577

fc1_2.weight f4 [200, 192]
000000 d8 8c df 3c 4f 37 67 3d 23 75 f2 3c b6 10 12 3d
       0.02728884 0.05644923 0.02959687 0.035660468
000010 c7 1d 5c 3d 38 86 45 3d 80 aa 80 3d 25 e9 05 3c
       0.053739335 0.048223704 0.0628252 0.008173262
000020 ee e0 db bc 25 18 2e 3c 56 b9 40 3d d3 ec 42 ba
       -0.026840653 0.010625874 0.04705175 -0.0007435802
000030 85 58 8f bd a9 5f 20 bd 5a cb 70 bd 16 16 85 bd
       -0.06999306 -0.03915373 -0.05878768 -0.06498353
000040 e6 be a0 bc e9 2e 09 bc 8f ab 82 bd a2 2f 21 bd
       -0.019622277 -0.008373001 -0.063803785 -0.039352067
000050 ed 4f 0d 3d 6d 08 bb bc ad ff 0f 3d 1c 96 00 bd
       0.03450005 -0.022831166 0.03515594 -0.031393155
000060 8f 16 08 3d 25 a1 86 3d c8 52 65 bb 31 4a cc ba
       0.03322464 0.06573705 -0.0034991968 -0.0015586076
000070 3b c5 a1 3d dd 8b 81 bc e2 14 27 bd 5b 9b 0a 3c
       0.07898947 -0.015813762 -0.0407914 0.008459891
000080 ea 15 33 bd 85 2b 91 bd 3a b2 b1 bc e4 24 c6 bc
       -0.04372207 -0.07088379 -0.02169143 -0.024187513
000090 bb 49 7c bd 31 dc 6d 3d 00 1d 97 bd 52 dd da bc
       -0.061593752 0.05807132 -0.07378578 -0.026716862
0000a0 3b c8 6e 3d c2 7e af bc 22 f1 28 bc 73 08 44 bb
       0.058296423 -0.021422748 -0.010311397 -0.0029912263
0000b0 b1 a7 1e bd 27 65 03 3c 48 e2 12 bd ee 28 6e 3d
       -0.03873414 0.008019722 -0.03586033 0.058144502
0000c0 b6 87 94 3c ad 44 ab bc 38 6c 45 3d 64 ff 2d 3c
       0.018131118 -0.02090677 0.04819891 0.010619972
0000d0 17 18 01 bc a3 fd c7 3c ef 28 e1 3c 99 98 5d 3d
       -0.007879279 0.024412936 0.027485339 0.054100607
0000e0 0b a7 2f bd e9 d3 98 3b 08 60 43 bd 97 2e 3e bc
       -0.042883914 0.0046639335 -0.047699004 -0.011607788
0000f0 e8 fe 0d bd 65 a4 ca bc 19 72 fd 3c a5 7a ba 3c
       -0.034666926 -0.024736593 0.030938195 0.02276356
000100 48 06 31 3d 82 b8 91 bb da fe 10 3d 4b 0a e9 bc
       0.04321888 -0.004447044 0.035399295 -0.02844729
000110 db 08 1e bd 26 10 9f bd dd 5d 70 bd de 59 8e bc
       -0.038582664 -0.07766752 -0.058683265 -0.017376836
000120 3e 4f 26 3d 7e 59 78 3d d8 23 30 3d b6 5d dd bc
       0.040602915 0.06063222 0.043002933 -0.027022224
000130 f1 71 4a 3d 33 4e 28 3d a8 dc 8d bd 68 a7 73 bd
       0.04942507 0.0410902 -0.069268525 -0.059485823
000140 6e f0 87 3c dc 5b 48 bc fb 72 9e bc 4c 65 40 3d
       0.016594138 -0.012228932 -0.019341936 0.046971604
000150 c3 1a 22 bd 3e fa 29 bc 63 66 5b 3d 47 fc 63 3d
       -0.039576303 -0.010374604 0.05356444 0.055660512
000160 02 6b 32 bd ab ed 4d 3c 6c 84 77 bd f9 1e c4 bc
       -0.04355908 0.0125688715 -0.06042902 -0.02394055
000170 8c 59 14 bd 9b 0b 56 bc 70 35 0a 3d f9 38 fe 3c
       -0.03621821 -0.01306429 0.03374237 0.031033026
000180 9c a0 28 3d 69 2c 92 bc a5 10 4f 3d 73 04 7e bc
       0.041168794 -0.017843442 0.050552983 -0.01550399
000190 17 e5 25 bb ed 04 48 3d c5 7d 34 3d c1 4b 0b 3d
       -0.002531355 0.048832823 0.044065256 0.03400779
0001a0 1d 49 1d 3b 2c fb 0e bd 1c 76 82 3c 35 a3 27 bd
       0.0023999878 -0.034907505 0.01592546 -0.04092713
0001b0 0f 63 b9 bc 18 6a b8 bc f4 22 a0 3d 54 0c cb 3b
       -0.022630243 -0.022511527 0.07819167 0.006196538
0001c0 0b f3 5d 3d 8c 4a 84 bd 75 1c bd 3d ff 7f 82 3d
       0.054186862 -0.06459531 0.092339434 0.063720696
0001d0 69 12 39 3c f5 b1 cd 3c 8e 63 f0 3c 38 a1 55 3d
       0.011295893 0.02510927 0.029344346 0.052155703
0001e0 37 80 5b 3c 0d 6e 2d bd 63 6c 09 bd 20 f3 58 3d
       0.013397268 -0.04234128 -0.03355063 0.052966237
0001f0 87 54 d1 3c b4 6b 5b bd f1 fc f9 bc 89 16 39 3c
       0.025553001 -0.05356951 -0.03051612 0.011296877
000200 48 97 00 3d e7 96 16 3d 98 43 19 bd 85 0a e4 bc
       0.031394273 0.036765005 -0.037417978 -0.027837047
000210 91 53 3c bd 1c 6f fb bc a5 3f 2d 3d 69 f4 9a bd
       -0.045978133 -0.03069263 0.042297024 -0.07566149
000220 fd a1 ff 3b c8 dc 5a bb 0c d5 ab bb 21 5d 0d 3d
       0.007801293 -0.0033395756 -0.005243903 0.034512643
000230 69 6b 6e bd c1 88 ce bb ef 28 c7 bb 1e 4e a1 bd
       -0.058207903 -0.0063029234 -0.0060778777 -0.07876228
000240 86 f9 8a 3c 5b af 90 bd c0 02 dd 3c 7b 71 84 3d
       0.016964685 -0.070646964 0.02697885 0.06466957
000250 8d fb 1d bd 16 7c 6c 3d c0 ee d7 bc f0 d9 6b bd
       -0.038569976 0.057735525 -0.026358962 -0.05758089
000260 b0 2f c9 b9 c5 51 80 3c a3 83 4c bc 6b f6 4f bd
       -0.00038373237 0.01566399 -0.0124825565 -0.050772112
000270 a0 cb be bc f1 bd d6 bc b8 56 c4 3c 25 56 d1 bc
       -0.023290455 -0.026213618 0.023967132 -0.025553772
000280 2c 2d 5a 3d 1a ce 5b 3d d6 5f 44 3d 5f b4 29 bd
       0.053265736 0.05366335 0.04794296 -0.04143178
000290 b4 ea 86 bd e1 7e 47 bc 1e 3c 92 3b c8 52 52 3d
       -0.06587735 -0.012176246 0.004462733 0.051348478
0002a0 17 2b bb bc 6f 30 9a bd 22 62 8f bd e3 4a 17 bd
       -0.022847695 -0.07528769 -0.07001139 -0.036936652
0002b0 62 45 6a 3a 99 c4 1c bd b3 cd 4a bd 30 da cb bc
       0.00089367304 -0.038273428 -0.049512576 -0.024884313
0002c0 fd de 01 bb a0 c5 6e 3c ff e6 25 3d ee 17 22 3d
       -0.001981675 0.014573485 0.0405035 0.039573602
0002d0 23 9c 77 bd 39 39 b8 3c 6c 90 3e 3d 10 40 ef bc
       -0.060451638 0.022488223 0.04652445 -0.029205352
0002e0 ea 6f 1f bd ef eb 9e ba 86 0a 05 bc 9a d7 8f bc
       -0.03892509 -0.0012124757 -0.008120185 -0.017558862
0002f0 e4 4e d3 3c 34 3d ac bc 3f f3 03 bd af b4 e3 bc
       0.025794454 -0.021025278 -0.0322144 -0.027796118
000300 cd 1c 82 bd 4b 68 af bd 52 2a a6 3b aa 0b db bc
       -0.063531496 -0.08564814 0.005070963 -0.02673896
000310 61 a6 e8 bb bd e4 a8 bd 0a 39 1c 3d e9 45 85 bd
       -0.007099912 -0.08246753 0.038140334 -0.06507475
000320 82 c8 28 bc ba f0 27 bd 63 25 cb 3c fa d5 eb 3c
       -0.010301711 -0.04100106 0.0247981 0.028788555
000330 53 b0 88 bd 59 76 ee bc c5 ae ae 3d 53 be 1d bd
       -0.06674256 -0.029109167 0.085294284 -0.038511585
000340 76 cd 61 3b 1f b8 89 bc ae 9a 7e bd 84 e9 5f 3d
       0.003445474 -0.016811429 -0.062159233 0.054666057
000350 ab 7a 05 bd 37 e5 b7 bc 87 b6 40 bd 73 b9 89 3c
       -0.03258769 -0.022448165 -0.04704907 0.016812062
000360 f5 2c 80 3d 93 1b ad b9 f4 a8 04 be 34 15 08 bb
       0.06258575 -0.00033017676 -0.12955076 -0.0020764591
000370 b1 98 50 3d b7 ab 0c bd 1a 50 ab bd be 6e 1a 3d
       0.050926868 -0.034343448 -0.083648875 0.03770327
000380 9d 7b 97 bd 1f 79 b9 bd f6 56 86 bd 97 81 10 3d
       -0.07396624 -0.09056305 -0.06559555 0.035279837
000390 fb 39 8a bd 3f 14 e2 3c 90 c7 27 3d 73 58 5c 3e
       -0.0674934 0.027597545 0.040961802 0.21518116
0003a0 13 04 7e 3b 07 2f 8c 3c 38 5e 02 be 75 08 10 bd
       0.0038759753 0.017112268 -0.12731254 -0.035164315
0003b0 17 7a 9e bd 16 a0 8c 3d bf 74 e8 3c cc 52 53 bc
       -0.077381305 0.068664715 0.028375981 -0.012898158
0003c0 a3 7a 49 bc 56 84 4a bd b5 84 31 bd 3a 6a 9e 3d
       -0.012297305 -0.04944261 -0.04333945 0.07735105
0003d0 88 48 59 bd 68 47 8d 3d fb 15 d3 3b 85 40 b8 bd
       -0.053047687 0.06898385 0.0064418293 -0.08996681
0003e0 c6 df 8c 3d 02 6d 74 3d 12 0f 20 bd 7a 5c b9 3c
       0.06878619 0.05967427 -0.039076872 0.022627104
0003f0 cb 02 5d bd e9 70 66 3c 7e 8a 30 3d 91 0a 66 bd
       -0.05395774 0.014065006 0.043100826 -0.05616242
