training_model/wandb/run-20200624_213207-3g3utfe1/AE_2.pt (torch_old, 133492 bytes, 16 tensors)

encode_conv1.weight f4 [4, 12, 3]
0.05711134 -0.17506738 -0.09276149 0.10016361 -0.122508354 -0.15320256 0.05533832 -0.031807333
0.12608023 -0.07288562 -0.08268201 -0.055709384 0.06091535 -0.096656375 -0.11085768 -0.12473973
0.07669282 0.01716276 0.066271074 0.13369875 0.04263045 0.14941102 -0.101621695 -0.006578635
0.06359846 0.16541888 -0.1619327 -0.12740327 -0.14835274 -0.010390809 -0.05728912 -0.013108776
-0.06463307 -0.16961339 0.15490995 -0.1427534 -0.02854578 0.13099074 -0.06674419 0.09685534
-0.0015567444 0.045184236 0.061407603 0.1757772 -0.009824626 -0.056864724 -0.112628154 0.14942645
-0.021721663 0.122340515 0.164572 -0.085943975 0.07794197 -0.06854874 -0.13187686 -0.072768554
0.13823701 -0.013554502 0.08640508 -0.05246201 0.04058172 0.13489355 -0.10270503 -0.14821145
0.050577357 0.006630791 -0.053475562 -0.038913805 -0.15084098 0.05347792 0.058027647 0.0028095094
-0.004556268 0.15069422 0.015369177 -0.10730163 0.044937767 0.09768944 -0.14531356 -0.12903826
-0.038999826 -0.06630056 -0.10263396 -0.07452756 -0.120350145 0.20311356 -0.16223009 -0.028474811
0.13076602 -0.0058179474 0.22693717 0.10664337 -0.023725681 0.14297058 0.013483701 0.15989774
-0.017469496 -0.21648571 0.05178679 0.11901245 0.11642472 0.005743299 0.032644454 0.04072825
-0.16552696 -0.13349904 -0.06333824 0.011325413 0.17148714 0.08854272 0.05621333 -0.1545638
0.070912026 0.076896824 0.08787614 0.093010895 0.15009414 -0.051208902 -0.015545155 0.12106913
-0.07277118 0.034739178 -0.15484157 -0.119047776 0.027587753 0.16807961 0.14801279 -0.06272704
0.14848602 0.17243716 0.14415008 -0.14390154 -0.11885748 -0.06527626 0.06491179 0.20111825
-0.022532199 0.24126457 -0.06308805 0.07522651 0.0057550203 0.1722256 0.07458458 -0.16626814
00000000: 95ed 693d dd44 33be bcf9 bdbd 9422 cd3d
00000010: a9e5 fabd 22e1 1cbe 6faa 623d 6848 02bd
00000020: 2d1b 013e 0e45 95bd 3055 a9bd 862f 64bd
00000030: 6082 793d c7f3 c5bd 5a09 e3bd 8b77 ffbd
00000040: 2011 9d3d eb98 8c3c 21b9 873d 53e8 083e
00000050: 449d 2e3d 34ff 183e 091f d0bd 9791 d7bb
00000060: e93f 823d 9163 293e b0d1 25be 0176 02be
00000070: c8e9 17be 363e 2abc ffa7 6abd 31c6 56bc
00000080: 585e 84bd 22af 2dbe b7a0 1e3e f32d 12be
00000090: d7d8 e9bc 7022 063e 2eb1 88bd 185c c63d
000000a0: ad0b ccba 1b13 393d 8a86 7b3d f0fe 333e
000000b0: 78f7 20bc fcea 68bd 97a9 e6bd 3f03 193e
000000c0: a1f1 b1bc aa8d fa3d 9085 283e 6503 b0bd
000000d0: 0aa0 9f3d 4863 8cbd ba0a 07be ae07 95bd
000000e0: 018e 0d3e b413 5ebc 26f5 b03d 68e2 56bd
000000f0: 0539 263d 8921 0a3e 0457 d2bd bec4 17be
00000100: 342a 4f3d 1b47 d93b 3109 5bbd 1564 1fbd
00000110: 0f76 1abe aa0b 5b3d 66ae 6d3d bf1f 383b
00000120: bf4c 95bb 964f 1a3e 00cf 7b3c f5c0 dbbd
00000130: aa10 383d 6711 c83d 14cd 14be 9b22 04be
00000140: 48be 1fbd 97c8 87bd c131 d2bd e8a1 98bd
00000150: 237a f6bd 00fd 4f3e a51f 26be 0244 e9bc
00000160: 87e7 053e 7ba4 bebb 3862 683e d767 da3d
00000170: 5c5c c2bc e166 123e beea 5c3c 3cbc 233e
00000180: 301c 8fbc 6eae 5dbe 631e 543d cdbc f33d
00000190: 1570 ee3d 4932 bc3b 31b6 053d aad2 263d
000001a0: e67f 29be f9b3 08be 7bb7 81bd 3a8e 393c
000001b0: 539a 2f3e e355 b53d f33f 663d f945 1ebe
000001c0: 533a 913d 157c 9d3d 68f8 b33d 7f7c be3d
000001d0: 47b2 193e 6dc0 51bd 1bb1 7ebc 18f3 f73d
000001e0: 0e09 95bd ab4a 0e3d ca8e 1ebe 52cf f3bd
000001f0: b6ff e13c 101d 2c3e aa90 173e 0977 80bd
00000200: b80c 183e 5e93 303e 149c 133e ed5a 13be
00000210: 8d6b f3bd 8faf 85bd 79f0 843d f1f1 4d3e
00000220: 7295 b8bc 0f0e 773e 4f34 81bd 5b10 9a3d
00000230: 9c94 bc3b e85b 303e cdbf 983d 3242 2abe

encode_conv1.bias f4 [4]
0.042996697 0.050532773 -0.119428076 0.044784486
00000000: 4e1d 303d 74fb 4e3d b596 f4bd f06f 373d

encode_conv2.weight f4 [4, 4, 3]
0.029278725 0.08642103 -0.25719422 -0.087358356 -0.33282545 0.229239 -0.33492565 -0.5428377
0.13739523 -0.16360243 -0.13013771 -0.24436113 -0.11467376 -0.30550545 -0.2880704 0.06262549
-0.17898846 -0.13961288 0.0005376714 0.13573246 -0.13850194 0.17607862 0.14915851 -0.23902468
-0.30361652 0.06618463 -0.20777182 0.23761708 -0.12820037 0.26801005 0.17351331 0.17730166
-0.2373477 0.18928617 -0.037617963 -0.12005023 0.012268041 0.2160144 0.13870706 0.29569364
0.32152984 -0.10868364 0.36867622 -0.14263573 0.38428268 -0.27828223 -0.021857506 -0.016376661
00000000: f0d9 ef3c 82fd b03d f6ae 83be f0e8 b2bd
00000010: 1968 aabe a1bd 6a3e 607b abbe 69f7 0abf
00000020: 56b1 0c3e 6587 27be d242 05be ce39 7abe
00000030: 14da eabd 366b 9cbe f77d 93be cb41 803d
00000040: c048 37be aef6 0ebe 84f2 0c3a 73fd 0a3e
00000050: 74d3 0dbe f44d 343e 02bd 183e e3c2 74be
00000060: a073 9bbe cf8b 873d 23c2 54be e451 733e
00000070: f546 03be 9d38 893e 79ad 313e 918e 353e
00000080: 470b 73be 3cd4 413e 4b15 1abd e5dc f5bd
00000090: e5ff 483c e132 5d3e 3909 0e3e 2865 973e
000000a0: 8f9f a43e 8795 debd 21c3 bc3e 1a0f 12be
000000b0: b3c0 c43e 027b 8ebe 830e b3bc 5928 86bc

encode_conv2.bias f4 [4]
0.07785568 0.16580717 0.16392182 -0.09279874
00000000: cc72 9f3d 5bc9 293e 1fdb 273e 440d bebd

encode_conv3.weight f4 [8, 4, 3]
-0.36418545 -0.10217497 0.04359974 -0.18736923 -0.09983761 -0.30088377 -0.21643837 -0.26500973
0.25233367 -0.477022 0.004076581 -0.15349144 0.26639536 -0.03214541 0.1371687 0.040726256
-0.044029225 -0.08362852 -0.2741632 -0.20315246 0.06563859 0.0047072037 0.07791627 0.13956991
-0.2806839 0.19830361 -0.29510885 0.18471235 0.28914568 0.06121446 -0.28652692 0.22454098
0.33608443 -0.18094562 -0.123770766 0.17062443 0.22383319 -8.772658e-05 -0.25131896 0.22200167
0.2964234 0.07295249 0.054282628 0.072264835 0.1379589 -0.12472081 0.16841622 0.21038327
0.27866286 -0.26394102 0.32974935 -0.22213642 0.26332596 -0.31508014 -0.3022208 -0.08783489
-0.043875393 -0.06875 -0.04383389 0.02938508 -0.08126756 -0.15893325 -0.27335474 0.1962718
0.09693397 0.029087702 -0.19537756 0.24047148 -0.33147374 -0.041175842 -0.099733315 -0.2986334
0.10688524 0.33039555 0.0074285665 -0.12824823 0.29402006 0.26072547 0.23112057 0.12083499
-0.1521289 0.32441416 0.044579674 0.031766217 -0.07561687 0.06043611 0.051865943 -0.11182883
-0.04876845 0.105143756 -0.16662118 0.29451153 -0.1616876 0.29209435 0.17659841 0.13131845
00000000: 8476 babe 1c41 d1bd a495 323d b8dd 3fbe
00000010: a977 ccbd 700d 9abe 05a2 5dbe 5baf 87be
00000020: e131 813e 3a3c f4be d794 853b dc2c 1dbe
00000030: f964 883e e8aa 03bd f475 0c3e 93d0 263d
00000040: fd57 34bd 6e45 abbd 1e5f 8cbe 3307 50be
00000050: 866d 863d e33e 9a3b 9192 9f3d 6aeb 0e3e
00000060: cdb5 8fbe 1a10 4b3e 8218 97be 3c25 3d3e
00000070: e70a 943e 03bc 7a3d a8b3 92be 12ee 653e
00000080: 4213 ac3e cf49 39be 877b fdbd 2cb8 2e3e
00000090: 8734 653e d9f9 b7b8 e1ac 80be 6854 633e
000000a0: cfc4 973e 1d68 953d 7657 5e3d 96ff 933d
000000b0: 1945 0d3e a06d ffbd 4d75 2c3e b66e 573e
000000c0: e6ac 8e3e 4723 87be e8d4 a83e bb77 63be
000000d0: a9d2 863e 2f52 a1be afbc 9abe c7e2 b3bd
000000e0: afb6 33bd cdcc 8cbd 2a8b 33bd fbb8 f03c
000000f0: 9b6f a6bd 66bf 22be 27f5 8bbe 7afb 483e
00000100: 5185 c63d 5549 ee3c 0e11 48be 283e 763e
00000110: edb6 a9be 00a8 28bd fb40 ccbd 7ae6 98be
00000120: a6e6 da3d 9b29 a93e 556b f33b 8153 03be
00000130: cc89 963e cf7d 853e dfaa 6c3e 5678 f73d
00000140: aec7 1bbe 9d19 a63e 2d99 363d 4b1d 023d
00000150: 04dd 9abd db8b 773d 6271 543d 8306 e5bd
00000160: 6dc1 47bd 9c55 d73d be9e 2abe 37ca 963e
00000170: 6f91 25be 648d 953e 37d6 343e 5878 063e

encode_conv3.bias f4 [8]
0.4663759 -0.031071072 0.2918189 -0.32902998 -0.022807205 -0.29916623 0.07091857 0.31297755
00000000: d2c8 ee3e c388 febc 4969 953e 9e76 a8be
00000010: 2dd6 babc 512c 99be c13d 913d 983e a03e

encode_conv4.weight f4 [8, 8, 3]
-0.18488644 0.03650349 -0.044185102 0.00064662274 0.18903063 0.010394114 -0.06585323 0.032815397
0.23612402 -0.029175702 -0.043374654 -0.13980731 -0.06858481 -0.15799227 -0.2713833 0.30549553
0.18869507 -0.13938664 -0.027521985 -0.0736121 -0.02949074 0.2061785 0.2779357 -0.10840691
-0.3852 -0.18997437 0.14041461 -0.25178614 -0.043799974 -0.07589076 0.18816298 -0.17599423
0.043083638 0.021920346 -0.17507142 -0.1477816 -0.1476001 -0.013971189 0.0067024915 -0.102874346
-0.36372438 -0.20521015 -0.08531803 -0.01533135 -0.10948994 -0.081364974 0.13088499 0.19394521
0.36820126 -0.25289464 0.2476223 0.049436945 -0.18717365 -0.10591567 -0.2210015 -0.04194454
0.06257984 -0.06625006 -0.045777354 0.16720752 -0.032506663 0.059838954 -0.08772254 -0.014045357
-0.15882044 -0.20440991 0.19440524 0.05495801 0.072213 -0.06521554 -0.27635798 0.14252155
0.019465799 -0.15191086 0.16886188 0.07065611 0.044511262 0.09727825 0.20002669 0.16559096
-0.1426067 0.15375914 -0.15303011 -0.19811435 -0.00078452507 -0.43986034 -0.0932125 0.0705439
-0.23256122 0.034277264 0.029455302 0.1378696 -0.18703462 0.06777924 0.042548176 0.08830606
-0.15227559 -0.0853419 0.0653323 0.13876486 -0.11449299 0.1281866 -0.06041887 -0.19562435
-0.19944307 -0.0055145826 0.19716673 -0.2743363 0.029557668 0.15625092 0.025681905 -0.010203778
-0.019046813 -0.20937164 0.10803839 -0.014949243 -0.017428456 -0.0007617816 0.18686545 0.13475515
0.20394859 -0.06789559 -0.23112383 0.08146821 0.091751985 -0.082645394 -0.057996627 -0.16802445
0.054354466 0.13768758 0.122322895 0.17021294 0.1911032 -0.15462382 -0.12928294 0.08519356
0.23588455 -0.070828326 0.10263977 -0.0015912977 -0.040580593 0.096485674 -0.25975037 0.15227649
-0.09430021 0.001641272 -0.08882715 0.06583839 -0.070701495 -0.068295024 -0.20626175 -0.06893592
0.053603575 -0.14396286 0.20145044 0.18621561 -0.11070469 -0.16411987 -0.14310116 0.15801722
-0.098900944 0.09892626 0.059151348 0.042521425 0.20150775 -0.05362968 0.11237158 -0.064074785
0.36382377 -0.17051032 0.005651264 0.1463061 0.027288692 -0.15537122 0.20849925 -0.07655897
-0.19645154 -0.16050555 -0.0545378 0.119036935 0.012365425 -0.054811507 0.118192405 -0.016092464
-0.09604034 0.15798526 -0.085720785 0.06786056 -0.03866036 0.16468073 0.050885856 0.08132478
00000000: df52 3dbe af84 153d 70fb 34bd 1e82 293a
00000010: 3f91 413e 134c 2a3c 0fde 86bd 7069 063d
00000020: 7fca 713e e201 efbc 9fa9 31bd a629 0fbe
00000030: 3176 8cbd bac8 21be c0f2 8abe e969 9c3e
00000040: 4839 413e 5fbb 0ebe c975 e1bc f1c1 96bd
00000050: 9096 f1bc 7520 533e 974d 8e3e 7104 debd
00000060: ef38 c5be a488 42be d9c8 0f3e 1dea 80be
00000070: 9a67 33bd 9d6c 9bbd ccad 403e d537 34be
00000080: 7878 303d 4c92 b33c ec45 33be 0f54 17be
00000090: 7b24 17be 6ae7 64bc 93a0 db3b c9af d2bd
000000a0: 153a babe 9c22 52be 38bb aebd 5830 7bbc
000000b0: 433c e0bd aea2 a6bd b706 063e 9399 463e
000000c0: e084 bc3e 687b 81be b390 7d3e 657e 4a3d
000000d0: 73aa 3fbe 51ea d8bd 384e 62be 0ace 2bbd
000000e0: dc29 803d 1dae 87bd 0981 3bbd 7338 2b3e
000000f0: b525 05bd b119 753d e0a7 b3bd 7f1e 66bc
00000100: d3a1 22be d550 51be 2b12 473e a61b 613d
00000110: 69e4 933d ba8f 85bd cb7e 8dbe 2bf1 113e
00000120: bd76 9f3c 858e 1bbe 21ea 2c3e 27b4 903d
00000130: 7151 363d d239 c73d ccd3 4c3e ad90 293e
00000140: 7e07 12be 0973 1d3e edb3 1cbe 7dde 4abe
00000150: 96a8 4dba 6035 e1be 32e6 bebd 5279 903d
00000160: 8724 6ebe 5166 0c3d 3f4c f13c b02d 0d3e
00000170: 0186 3fbe d8cf 8a3d ff46 2e3d cfd9 b43d
00000180: 22ee 1bbe bcc7 aebd f1cc 853d 6018 0e3e
00000190: 4d7b eabd 5943 033e c779 77bd c051 48be
000001a0: ce3a 4cbe acb3 b4bb 13e6 493e cf75 8cbe
000001b0: ec22 f23c 3e00 203e dc62 d23c bf2d 27bc
000001c0: 1008 9cbc 8565 56be 3b43 dd3d abed 74bc
000001d0: 1fc6 8ebc 4cb2 47ba a859 3f3e 41fd 093e
000001e0: e6d7 503e d80c 8bbd baab 6cbe ced8 a63d
000001f0: 77e8 bb3d fd41 a9bd df8d 6dbd 9a0e 2cbe
00000200: caa2 5e3d f9fd 0c3e 6d84 fa3d 4d4c 2e3e
00000210: 8fb0 433e b555 1ebe bf62 04be f679 ae3d
00000220: b88b 713e 710e 91bd cd34 d23d 1793 d0ba
00000230: d637 26bd 489a c53d 00fe 84be 5eee 1b3e
00000240: 7820 c1bd f31f d73a 02eb b5bd 47d6 863d
00000250: f2cb 90bd 43de 8bbd 4836 53be 472e 8dbd
00000260: 6c8f 5b3d 006b 13be 0649 4e3e 4eaf 3e3e
00000270: 24b9 e2bd 0a0f 28be 1c89 12be 44cf 213e
00000280: 948c cabd da99 ca3d af48 723d f22a 2e3d
00000290: 0c58 4e3e ccaa 5bbd 1223 e63d a439 83bd
000002a0: 1c47 ba3e 429a 2ebe 3d2e b93b 44d1 153e
000002b0: 898c df3c a219 1fbe d480 553e f3ca 9cbd
000002c0: 982a 49be 915b 24be 0763 5fbd a3c9 f33d
000002d0: 5a98 4a3c 0882 60bd dc0e f23d 58d4 83bc
000002e0: ccb0 c4bd e3c6 213e 618e afbd 7afa 8a3d
000002f0: 535a 1ebd 11a2 283e b06d 503d 9b8d a63d

encode_conv4.bias f4 [8]
0.24649253 0.12652928 -0.037872884 0.0051128073 -0.11871296 0.11207781 0.0988216 0.020397715
00000000: 8a68 7c3e e490 013e 9920 1bbd 5689 a73b
00000010: c81f f3bd 0d89 e53d fb62 ca3d 1c19 a73c

encode_conv5.weight f4 [16, 8, 3]
-0.007552117 0.1671569 0.11381245 -0.048224628 0.012376621 0.017951742 -0.19144791 0.04987669
0.06411776 -0.021193787 0.10160324 0.16123706 0.06743088 0.19648549 -0.13639143 0.018560588
-0.073390335 -0.11463018 -0.11309269 -0.0528816 -0.03698182 -0.12981692 0.16161203 -0.06519885
0.054787934 -0.17624398 -0.13752824 0.19543302 -0.11947388 0.07733673 0.12516841 -0.17433672
-0.057879046 0.027255848 -0.098912254 -0.07916669 0.05325964 -0.01400432 0.18318692 0.0075496584
-0.05534865 -0.20138285 0.18278 0.05617699 -0.15888108 0.032537505 0.11768457 -0.040776715
-0.11137883 0.115991145 0.08833587 -0.11595424 0.12968445 0.033764675 -0.037690714 -0.15908521
0.12947854 0.19587737 0.07576704 -0.10242224 -0.018156365 0.07750511 -0.10051008 0.075437665
0.1930252 -0.011418104 0.17751741 0.09189132 -0.14542341 0.13255721 0.028179407 -0.20236033
0.1790033 0.15099037 -0.109241135 0.16753846 -0.024216041 -0.13185808 0.084518254 0.10791385
0.19384068 0.005738318 -0.11436093 0.06566122 -0.043152288 0.007880017 0.031019196 -0.039793372
-0.10062852 0.18180263 -0.033550024 -0.10328924 -0.18047866 0.024960175 0.13668242 0.12436733
-0.13861464 0.10141605 -0.04711038 0.16286957 -0.10209057 -0.15845405 -0.087214895 -0.13025725
-0.15047565 0.18019521 -0.182776 0.103359014 -0.19161053 0.07892212 0.12741825 0.0067828447
0.117619246 0.05995795 -0.109867215 0.19531035 0.16894537 -0.14294124 0.20212498 0.16460606
0.07136148 0.12830377 -0.00716047 -0.085977755 -0.08108509 -0.006761968 0.16931576 0.19102556
-0.042437837 0.043268576 0.15873444 -0.03828919 0.059327185 -0.05490084 0.19471145 -0.18050496
0.18192607 -0.09440997 -0.15330993 0.080633104 -0.15119462 -0.009039596 0.17865899 -0.045811206
0.19676325 -0.050368994 0.0919714 0.09685978 -0.013614878 -0.1435099 -0.018467367 -0.1868847
-0.013723001 -0.14603966 0.12904194 -0.14781238 -0.13965598 0.1178177 -0.049828947 0.06114629
-0.07584302 -0.06754221 -0.15665641 0.03687364 0.14921111 0.012522161 -0.15624012 -0.12248177
0.20245889 0.14370811 -0.058823034 0.060526103 0.13535842 0.05177155 -0.19939807 -0.07756491
-0.077175826 0.08339125 0.132736 -0.06275533 -0.09518635 -0.042868346 0.096203715 0.018171966
0.09236035 0.1697233 -0.095107615 -0.073620066 -0.116292186 0.048894495 -0.08812105 -0.056386262
0.07825011 0.1578215 -0.06731808 0.13371894 -0.098923326 -0.057091653 0.03953655 0.06291291
0.120289505 0.112363815 0.12295318 -0.039002463 -0.13684288 -0.05063975 0.19295132 -0.030852005
0.039310813 0.20208326 0.0790962 0.058401078 -0.016984373 0.037855864 -0.17111623 0.14922395
-0.16192088 -0.15393688 -0.15936987 0.14780435 -0.019333929 -0.051725924 -0.021717906 -0.04748635
-0.053920448 -0.07601939 0.051419824 0.18033335 0.14908618 -0.02160053 -0.19119596 0.13120332
-0.07934367 -0.16059934 -0.052658394 0.04047768 -0.19159189 0.02394545 0.073182225 0.0032860488
0.060084105 0.123257995 -0.04455842 0.1675505 0.18342814 0.16322747 -0.15225458 -0.08459155
-0.20391269 0.033586845 0.19388434 -0.09536657 -0.18229981 -0.05164516 -0.18044694 -0.13178483
00000000: c077 f7bb 2e2b 2b3e 8016 e93d 3087 45bd
00000010: 50c7 4a3c 880f 933c ec0a 44be 804b 4c3d
00000020: 2c50 833d 989e adbc 5c15 d03d 541b 253e
00000030: 3419 8a3d 7e33 493e 32aa 0bbe 600c 983c
00000040: ac4d 96bd 3ac3 eabd 249d e7bd 609a 58bd
00000050: 407a 17bd baee 04be a07d 253e fa86 85bd
00000060: 5069 603d 4d79 34be 34d4 0cbe 981f 483e
00000070: b9ae f4bd b862 9e3d 262c 003e 5385 32be
00000080: 9412 6dbd a847 df3c 8292 cabd 2522 a2bd
00000090: c826 5a3d 6072 65bc 5a95 3b3e 2063 f73b
000000a0: 44b5 62bd 4e37 4ebe ae2a 3b3e d819 663d
000000b0: b9b1 22be 0c46 053d 9c04 f13d 7c05 27bd
000000c0: 961a e4bd c48c ed3d 70e9 b43d 6b79 edbd
000000d0: 00cc 043e d44c 0a3d 9461 1abd 3ce7 22be
000000e0: 0696 043e 1494 483e c02b 9b3d c0c2 d1bd
000000f0: a8bc 94bc 00bb 9e3d 3bd8 cdbd 107f 9a3d
00000100: 66a8 453e 0013 3bbc 20c7 353e 8431 bc3d
00000110: e0e9 14be 14bd 073e 80d8 e63c 8c37 4fbe
00000120: a44c 373e 389d 1a3e d1b9 dfbd 348f 2b3e
00000130: b860 c6bc ce05 07be e817 ad3d f001 dd3d
00000140: 2c7e 463e 8008 bc3b 1036 eabd 6479 863d
00000150: 74c0 30bd 301b 013c f81b fe3c 60fe 22bd
00000160: 5316 cebd 782a 3a3e c06b 09bd 4f89 d3bd
00000170: 66cf 38be 4879 cc3c 7af6 0b3e 4cb4 fe3d
00000180: fff0 0dbe 38b3 cf3d d0f6 40bd 48c7 263e
00000190: dc14 d1bd c741 22be b99d b2bd 2862 05be
000001a0: 4a16 1abe 1885 383e a229 3bbe e4ad d33d
000001b0: 8d35 44be eca1 a13d ee79 023e a042 de3b
000001c0: 5ce2 f03d 7896 753d 1002 e1bd 70ff 473e
000001d0: 0400 2d3e 305f 12be daf9 4e3e 7e8e 283e
000001e0: f825 923d 1062 033e 60a2 eabb 1b15 b0bd
000001f0: f10f a6bd 8093 ddbb 1c61 2d3e 349c 433e
00000200: 4cd3 2dbd 643a 313d 488b 223e 20d5 1cbd
00000210: 1001 733d b4df 60bd 7062 473e 4bd6 38be
00000220: d44a 3a3e 045a c1bd 47fd 1cbe f822 a53d
00000230: c3d2 1abe d01a 14bc 62f2 363e 88a4 3bbd
00000240: 4e7c 493e b84f 4ebd 805b bc3d 6c5e c63d
00000250: f010 5fbc 42f4 12be e048 97bc b45e 3fbe
00000260: 70d6 60bc 6c8b 15be 9223 043e 215c 17be
00000270: fa01 0fbe 684a f13d 7019 4cbd 8874 7a3d
00000280: 9653 9bbd 9253 8abd 8a6a 20be d008 173d
00000290: ccca 183e c029 4d3c 69fd 1fbe b9d7 fabd
000002a0: 6251 4f3e 3828 133e 6cf0 70bd 38ea 773d
000002b0: 669b 0a3e 680e 543d 022f 4cbe 5ada 9ebd
000002c0: 5c0e 9ebd 08c9 aa3d f2eb 073e de85 80bd
000002d0: 10f1 c2bd b896 2fbd 7406 c53d 60dd 943c
000002e0: 6c27 bd3d f2cb 2d3e c8c7 c2bd 1ec6 96bd
000002f0: 992a eebd 9845 483d cf78 b4bd 48f5 66bd
00000300: 9841 a03d f69b 213e 10de 89bd 9eed 083e
00000310: 5098 cabd f0d8 69bd 14f1 213d 7cd8 803d
00000320: 585a f63d 001f e63d e0ce fb3d 0cc1 1fbd
00000330: 8a20 0cbe a06b 4fbd 0895 453e 58bd fcbc
00000340: 6004 213d eaee 4e3e 30fd a13d f835 6f3d
00000350: d022 8bbc c00e 1b3d 1839 2fbe 2ace 183e
00000360: 96ce 25be a1a1 1dbe db31 23be 065a 173e
00000370: 3062 9ebc 90de 53bd c0e9 b1bc 0c81 42bd
00000380: b0db 5cbd 0eb0 9bbd 989d 523d 4ea9 383e
00000390: 0caa 183e 98f3 b0bc e0c8 43be 2a5a 063e
000003a0: ef7e a2bd 2774 24be 54b0 57bd eccb 253d
000003b0: aa30 44be 4029 c43c 90e0 953d c05a 573b
000003c0: c01a 763d b06e fc3d e482 36bd 5c92 2b3e
000003d0: 96d4 3b3e 1a25 273e a0e8 1bbe 563e adbd
000003e0: 7dce 50be 5c92 093d 9e89 463e 8c4f c3bd
000003f0: cdac 3abe e089 53bd 15c7 38be 9af2 06be

encode_conv5.bias f4 [16]
-0.04978852 -0.12289746 0.012748197 0.16697511 -0.038739696 -0.00061422586 -0.070050314 0.2015365
-0.18122144 0.073062986 -0.07725625 0.17482948 0.10548499 -0.15595356 0.13790134 -0.0629051
00000000: 0cef 4bbd aab1 fbbd d0dd 503c 86fb 2a3e
00000010: 84ad 1ebd 0004 21ba 8a76 8fbd 965f 4e3e
00000020: 1d92 39be 0ca2 953d 8638 9ebd 8006 333e
00000030: 8408 d83d 4ab2 1fbe 0236 0d3e 64d4 80bd

encode_conv6.weight f4 [16, 16, 3]
0.08711384 0.13245612 0.049892887 -0.11122505 -0.09251233 -0.011853859 -0.04066848 -0.03587556
-0.022798449 -0.071594775 -0.042863272 -0.09068961 0.052642807 0.08129078 -0.13335885 -0.030707687
0.03437224 -0.0794769 -0.055243112 0.04609935 0.13743395 0.0076414794 0.12902763 -0.121764965
-0.11103932 -0.0017724633 0.10135953 0.13095632 0.12858316 0.08122271 0.006298527 0.053489625
0.03708966 -0.028955683 -0.1365719 -0.08144742 0.02043493 -0.11711692 0.046132803 -0.027023137
-0.051961407 -0.022858024 0.09564486 -0.059998624 -0.08310801 0.11357942 -0.08510273 -0.09879361
-0.015245706 0.04655479 0.010575831 0.088242844 -0.05017022 0.12846792 0.06342755 0.11336303
-0.058660522 0.13921425 0.075109795 0.11096546 -0.13391988 -0.0989555 0.08874737 0.06428987
-0.076648876 -0.019279838 0.009276658 -0.040532 0.049576074 0.13576478 -0.050442822 0.046752706
0.07951808 -0.12516925 -0.108668506 -0.14375733 0.053139657 -0.12005027 0.0546982 -0.07201455
0.023874655 -0.0673591 0.086378306 0.10589534 0.121619076 0.041917726 -0.03141301 0.035138473
-0.0335655 -0.109702915 0.021678329 -0.056092054 0.011716321 -0.07113733 0.05900164 -0.012097731
-0.032438345 -0.12415476 -0.084416576 -0.1396853 0.048888996 0.07218391 -0.04061739 -0.105690375
0.11003804 0.073281795 0.01431039 -0.07728143 0.06866281 -0.1349625 -0.13123551 0.06865032
-0.04488626 -0.040950477 -0.05072695 -0.09490477 0.14348611 0.04160112 0.005138859 -0.053538628
-0.12425375 0.06648111 -0.09158778 -0.12856314 -0.0007753521 -0.043197647 0.037535712 -0.07912782
0.104532495 -0.012700468 0.04053858 0.07702941 0.06500627 -0.051948845 -0.039429106 -0.05126871
-0.0861181 -0.008032873 0.05355148 0.066979855 0.03045842 -0.13408583 0.10853648 0.13111377
-0.09583931 -0.06404242 -0.0070541203 0.017770216 -0.004072264 -0.11197381 0.036858663 -0.09536208
0.024687707 0.034379974 -0.118112825 -0.08871786 -0.096083015 0.14239863 0.00877358 -0.082392454
0.14255854 -0.08019468 0.07702924 0.042140156 0.088185385 -0.021809295 -0.09806366 -0.069485225
-0.042491905 0.05067511 0.014796108 0.0364424 0.10980672 0.1235486 -0.025772229 0.05830027
0.10978845 -0.020324178 0.0323876 -0.025530346 -0.120578915 0.11031711 -0.0676912 0.13337103
0.05458197 -0.13515592 0.08728908 0.043392375 -0.1351344 0.13139603 -0.023648635 0.09929772
-0.045955293 -0.10788573 -0.025078706 0.06974985 0.10873529 0.0036886483 0.039421037 -0.0016019344
0.055507377 0.095550254 -0.09117366 -0.0314828 0.040714785 0.022533402 0.08046807 -0.066446766
0.12648663 0.04003431 0.11196038 0.033270776 0.05237259 0.123986095 0.003645569 0.035593346
-0.09952457 -0.09248074 0.040458024 -0.10903467 0.004120484 0.09685512 0.009615585 0.04441586
0.04325585 -0.12404985 0.04059449 -0.11132547 -0.07553607 -0.04477191 0.008490264 -0.06628373
0.14433539 -0.048523657 0.0030844957 -0.09167874 0.10316467 -0.01101096 0.12107542 -0.023191862
0.13364235 0.058088392 0.09657794 0.11496228 0.053973526 0.10614851 -0.082206875 -0.10681391
0.06687215 0.041176528 -0.081541374 -0.04060506 0.010568216 -0.025991023 0.10910788 0.0013264716
00000000: be68 b23d 94a2 073e 7c5c 4c3d f6c9 e3bd
00000010: 1b77 bdbd b036 42bc fe93 26bd 40f2 12bd
00000020: d0c3 babc 48a0 92bd 6691 2fbd 79bb b9bd
00000030: fc9f 573d c87b a63d 398f 08be b08e fbbc
00000040: e8c9 0c3d c9c4 a2bd 9a46 62bd acd2 3c3d
00000050: 7cbb 0c3e 6065 fa3b d21f 043e e95f f9bd
00000060: 9568 e3bd 0052 e8ba 9695 cf3d 6a19 063e
00000070: 4eab 033e 1858 a63d e063 ce3b f017 5b3d
00000080: 54eb 173d 7834 edbc 81d9 0bbe e8cd a6bd
00000090: 2867 a73c ffda efbd c0f5 3c3d a05f ddbc
000000a0: 7cd5 54bd c040 bbbc 74e1 c33d 1ec1 75bd
000000b0: 8834 aabd 549c e83d 574a aebd 4e54 cabd
000000c0: 20c9 79bc 3cb0 3e3d 4046 2d3c aab8 b43d
000000d0: 4a7f 4dbd 188d 033e 4ee6 813d e02a e83d
000000e0: 0446 70bd 2e8e 0e3e 2ad3 993d dc41 e33d
000000f0: 4b22 09be 2ea9 cabd 2ec1 b53d 68aa 833d
00000100: 16fa 9cbd c0f0 9dbc 20fd 173c e204 26bd
00000110: 4810 4b3d ec05 0b3e 229d 4ebd c47f 3f3d
00000120: 60da a23d 5e2c 00be 988d debd 1f35 13be
00000130: f8a8 593d eadc f5bd 380b 603d 5d7c 93bd
00000140: c894 c33c 91f3 89bd 1ce7 b03d a8df d83d
00000150: 6c13 f93d ecb1 2b3d eeaa 00bd 5ced 0f3d
00000160: fa7b 09bd ecab e0bd c096 b13c c8c0 65bd
00000170: d0f5 3f3c 73b0 91bd b4ab 713d 9035 46bc
00000180: 12de 04bd da44 febd 99e2 acbd aa09 0fbe
00000190: d43f 483d 28d5 933d 6c5e 26bd 3274 d8bd
000001a0: a05b e13d c414 963d 2076 6a3c ba45 9ebd
000001b0: 169f 8c3d 9c33 0abe 9a62 06be 8a98 8c3d
000001c0: a8da 37bd b0bb 27bd 10c7 4fbd 6f5d c2bd
000001d0: 06ee 123e f065 2a3d e063 a83b 524b 5bbd
000001e0: c078 febd 4027 883d 6092 bbbd 0ea6 03be
000001f0: 0041 4bba 04f0 30bd 0cbf 193d c40d a2bd
00000200: 2215 d63d a015 50bc c80b 263d 98c1 9d3d
00000210: 0222 853d 50c8 54bd 6a80 21bd 24ff 51bd
00000220: b05e b0bd 509c 03bc cc58 5b3d bc2c 893d
00000230: f083 f93c cc4d 09be 6048 de3d b042 063e
00000240: 6647 c4bd ac28 83bd 4026 e7bb d892 913c
00000250: a070 85bb 8652 e5bd 1cf9 163d 324d c3bd
00000260: e03d ca3c 04d2 0c3d 23e5 f1bd b6b1 b5bd
00000270: 2cc7 c4bd f2d0 113e 10bf 0f3c 60bd a8bd
00000280: defa 113e 1c3d a4bd 82c1 9d3d 289b 2c3d
00000290: 8a9a b43d 68a9 b2bc 9ad5 c8bd 454e 8ebd
000002a0: fe0b 2ebd b490 4f3d 606b 723c a044 153d
000002b0: 58e2 e03d 0c07 fd3d 4820 d3bc 44cc 6e3d
000002c0: c4d8 e03d e47e a6bc dca8 043d 0425 d1bc
000002d0: 14f2 f6bd f0ed e13d afa1 8abd 6a92 083e
000002e0: 5891 5f3d 5066 0abe 9ec4 b23d 34bc 313d
000002f0: ac60 0abe ae8c 063e c8ba c1bc 9a5c cb3d
00000300: 9e3b 3cbd 32f3 dcbd dc71 cdbc 02d9 8e3d
00000310: 9cb0 de3d 40bd 713b f477 213d 00f8 d1ba
00000320: b45b 633d daaf c33d 41b9 babd 1cf4 00bd
00000330: 8cc4 263d f897 b83c 72cc a43d 3e15 88bd
00000340: b685 013e 04fb 233d 7c4b e53d f046 083d
00000350: a484 563d 6cec fd3d 80ea 6e3b 54ca 113d
00000360: 8ad3 cbbd 8b66 bdbd 50b7 253d 924d dfbd
00000370: 2005 873b fa5b c63d b08a 1d3c 68ed 353d
00000380: 0c2d 313d d90d febd 6846 263d 9cfe e3bd
00000390: a8b2 9abd c062 37bd c01a 0b3c c4bf 87bd
000003a0: a8cc 133e bec0 46bd 4025 4a3b 10c2 bbbd
000003b0: 0048 d33d 5067 34bc 64f6 f73d dcfc bdbc
000003c0: 8ad9 083e 18ee 6d3d a8ca c53d 5871 eb3d
000003d0: 5813 5d3d 6464 d93d 145c a8bd 40c1 dabd
000003e0: 44f4 883d b8a8 283d 2aff a6bd 7e51 26bd
000003f0: 5026 2d3c 20eb d4bc f473 df3d 00dd ad3a

encode_conv6.bias f4 [16]
0.052770033 -0.10846584 -0.009611785 -0.12024225 -0.008265287 0.066317186 0.08253743 -0.058637373
0.026570365 0.04362832 -0.07910538 0.062235564 -0.029153764 0.12997088 -0.11256479 0.08798167
00000000: 6425 583d 5723 debd c07a 1dbc 9241 f6bd
00000010: 206b 07bc 4ed1 873d 6209 a93d be2d 70bd
00000020: 18aa d93c 9cb3 323d 0002 a2bd b8ea 7e3d
00000030: e0d3 eebc 1617 053e 5e88 e6bd bc2f b43d

fc1.weight f4 [200, 104]
0.07265592 0.04635791 -0.07451103 0.11381371 0.0397203 0.06063831 -0.08942475 0.10102258
0.091624774 -0.050976474 0.05467798 -0.0348366 0.06440248 0.08156932 -0.022612069 0.02997003
-0.031017948 -0.072695605 -0.07890886 -0.07762982 0.016941 0.035503123 0.044890694 -0.06588388
-0.043274444 -0.016623782 -0.049031768 0.06014612 0.029240586 0.02158643 -0.050031282 0.03198221
-0.021940513 0.03724598 0.008973664 0.077933215 0.055609033 -0.066862434 -0.028037205 -0.057098746
0.007603907 0.06590518 -0.005001204 0.12737826 -0.039332923 0.09235594 -0.09044353 -0.06906021
-0.019802378 -0.030812053 -0.023584088 -0.049540937 -0.0168956 0.00028188736 -0.06853306 0.14047767
0.008715141 -0.032258887 -0.07006916 0.023928726 -0.05754983 0.0041431123 -0.07358797 0.06078582
-0.16678114 -0.05404711 0.035175893 0.056312922 0.091393724 -0.057537183 -0.036267683 -0.027299266
0.068442695 -0.015050996 0.04651268 0.05637538 0.04031488 -0.03158054 0.09096769 0.089676745
0.022023823 0.07852721 -0.046947155 -0.02107877 -0.08061735 -0.070582986 0.09090534 0.1060836
0.05159635 -0.03566044 -0.04553125 -0.08434794 0.043761536 0.12730542 0.0329555 -0.45014793
0.0072651403 -0.10560053 -0.099569425 -0.123080164 0.016208645 -0.10761396 -0.079815425 0.05775302
0.06392281 -0.0826898 -0.06382814 0.0883107 0.012014375 0.0034993442 -0.19506055 -0.006889289
-0.062702574 -0.05930915 0.12018178 -0.06365603 -0.07450165 -0.053341158 -0.004489296 -0.008977351
0.0139774345 -0.062852435 -0.09844373 0.00051426986 -0.08302264 0.024622628 0.05601725 -0.076125085
0.011311974 0.061055835 0.04892895 -0.0012394517 -0.1057123 -0.21412124 -0.049753718 0.12952322
0.04185111 -0.1430352 -0.068739265 0.0023814978 -0.034334872 0.093615696 -0.108523406 0.044329453
-0.040281013 0.11502433 -0.11195531 0.053186975 -0.12948565 0.043203205 0.01051929 -0.046242423
0.07453287 -0.066729195 -0.09419714 -0.053559225 -0.09419715 0.02926302 0.15362862 0.13250235
0.056010034 -0.0121584805 0.053926077 -0.08664919 0.26752457 -0.005140782 0.0036015415 -0.13364135
0.3085182 0.0627388 0.039113536 -0.095240384 0.077746235 0.11330739 0.05835888 -0.03819783
-0.01710164 -0.040333048 -0.02332351 -0.08587015 -0.06466525 0.026662285 0.10114085 -0.017943844
-0.074317046 0.31072772 -0.087206945 0.14746185 -0.10549618 0.082566075 0.04044356 0.029363865
0.046725683 0.021133965 0.04175566 -0.035517182 0.069226205 -0.072333045 0.014368676 0.5952021
-0.13376558 0.08309992 -0.101286985 0.2221479 -0.08326524 -0.123925045 -0.107053824 0.035078157
0.017662566 0.04420943 -0.19790195 0.05383705 -1.3058475 -0.037297983 0.27578986 -0.029906588
-0.02240331 0.044205617 -0.09887 -0.044298835 0.074314356 -0.06920241 0.01127481 0.08717632
-0.052601553 0.01208457 -0.09242468 0.0825777 -0.011022309 -0.015777813 0.015453327 -0.055911314
0.013916683 0.055108476 0.015471664 -0.034349035 -0.20635238 0.7663571 -0.067764714 0.016292334
-0.17672133 0.10355566 -0.007847328 -0.083640255 0.07687645 -0.030911691 0.038649257 -0.087712064
-0.058460727 0.14599544 -0.29528043 0.107471295 0.037571944 -0.054483224 0.015277853 0.10187962
00000000: a1cc 943d cbe1 3d3d 3d99 98bd 2a17 e93d
00000010: c1b1 223d e05f 783d 5324 b7bd ede4 ce3d
00000020: c5a5 bb3d b5cc 50bd 04f6 5f3d d3b0 0ebd
00000030: 73e5 833d d10d a73d f23c b9bc b583 f53c
00000040: 5a19 febc 6fe1 94bd f89a a1bd 62fc 9ebd
00000050: dac7 8a3c b96b 113d 4edf 373d 21ee 86bd
00000060: 8b40 31bd 992e 88bc 89d5 48bd c75b 763d
00000070: f489 ef3c 06d6 b03c 9aed 4cbd c7ff 023d
00000080: 97bc b3bc 3e8f 183d 4606 133c 739b 9f3d
00000090: 4cc6 633d 2cef 88bd 48ae e5bc 60e0 69bd
000000a0: 322a f93b 4cf9 863d 24e1 a3bb 726f 023e
000000b0: 8f1b 21bd 1c25 bd3d 753a b9bd 706f 8dbd
000000c0: 9938 a2bc 8f69 fcbc 6b33 c1bc 70eb 4abd
000000d0: a468 8abc 48ca 9339 105b 8cbd 61d9 0f3e
000000e0: f3c9 0e3c e521 04bd 6b80 8fbd 2d06 c43c
000000f0: 5fb9 6bbd f2c2 873b 4ab5 96bd 8dfa 783d
00000100: adc8 2abe 8160 5dbd 9914 103d 61a8 663d
00000110: a22c bb3d 1cac 6bbd 6c8d 14bd b6a2 dfbc
00000120: af2b 8c3d 7498 76bc 1484 3e3d dfe9 663d
00000130: 3721 253d 995a 01bd 454d ba3d 71a8 b73d
00000140: 4e6b b43c e0d2 a03d a94b 40bd 62ad acbc
00000150: b61a a5bd d08d 90bd 942c ba3d 5c42 d93d
00000160: b256 533d ae10 12bd fa7e 3abd 9dbe acbd
00000170: 4c3f 333d 5a5c 023e 59fc 063d ca79 e6be
00000180: 6a10 ee3b 1745 d8bd 0eeb cbbd 7411 fcbd
00000190: fec7 843c b564 dcbd 4576 a3bd 6e8e 6c3d
000001a0: f6e9 823d 4559 a9bd 54b8 82bd 3edc b43d
000001b0: f1d7 443c 4155 653b f4bd 47be 8bbf e1bb
000001c0: 356a 80bd 27ee 72bd dd21 f63d 185e 82bd
000001d0: 5294 98bd 427c 5abd f21a 93bb bd15 13bc
000001e0: 9c01 653c c7b8 80bd de9c c9bd 11d0 063a
000001f0: c607 aabd 65b5 c93c 5872 653d 78e7 9bbd
00000200: dc55 393c af15 7a3d b969 483d 1975 a2ba
00000210: b17f d8bd 9942 5bbe 8eca 4bbd bca1 043e
00000220: 126c 2b3d d277 12be 2cc7 8cbd e712 1c3b
00000230: b9a2 0cbd 96b9 bf3d 8541 debd cd92 353d
00000240: b4fd 24bd e091 eb3d d348 e5bd 96da 593d
00000250: e397 04be d8f5 303d 1a59 2c3c b268 3dbd
00000260: b0a4 983d 51a9 88bd 6eea c0bd eb60 5bbd
00000270: 6fea c0bd 00b9 ef3c d250 1d3e b2ae 073e
00000280: c76a 653d 5d34 47bc 97e1 5c3d 2175 b1bd
00000290: fbf8 883e 0174 a8bb d707 6c3b 47d9 08be
000002a0: 19f6 9d3e 337d 803d 8435 203d 640d c3bd
000002b0: 6b39 9f3d b40d e83d b909 6f3d 5475 1cbd
000002c0: bd18 8cbc 4434 25bd f210 bfbc b0dc afbd
000002d0: 376f 84bd dd6a da3c ef22 cf3d f8fe 92bc
000002e0: 8933 98bd b417 9f3e 8e99 b2bd 3d00 173e
000002f0: 620e d8bd 6718 a93d 25a8 253d 7d8c f03c
00000300: 6e63 3f3d 2321 ad3c fc07 2b3d 777a 11bd
00000310: 78c6 8d3d 5923 94bd 986a 6b3c 2a5f 183f
00000320: d8f9 08be 4a30 aa3d 8d6f cfbd bd7a 633e
00000330: f786 aabd 6acc fdbd 093f dbbd 1dae 0f3d
00000340: 16b1 903c f314 353d cfa6 4abe 3d84 5c3d
00000350: 0326 a7bf c5c5 18bd 5434 8d3e a9fe f4bc
00000360: 2587 b7bc f310 353d 5b7c cabd b272 35bd
00000370: 2032 983d feb9 8dbd fbb9 383c 8089 b23d
00000380: ba74 57bd 5cfe 453c 2749 bdbd 7f1e a93d
00000390: ea96 34bc 7940 81bc f42f 7d3c 4303 65bd
000003a0: cd02 643c 6db9 613d dd7c 7d3c 93b1 0cbd
000003b0: 0a4e 53be fb2f 443f 3ac8 8abd 8077 853c
000003c0: 70f6 34be fd14 d43d 1492 00bc 954b abbd
000003d0: 6671 9d3d 843a fdbc af4e 1e3d 62a2 b3bd
000003e0: 8474 6fbd d47f 153e ff2e 97be e919 dc3d
000003f0: 0ae5 193d cd29 5fbd f64f 7a3c 43a6 d03d

fc1.bias f4 [200]
-0.023402106 0.10053658 0.0113487495 0.011649001 0.0517336 0.045739807 -0.009776569 -0.074578024
-0.030803688 -0.022641243 0.083181456 -0.038978774 -0.052261703 0.0037943977 -0.05905686 0.058074407
-0.07763886 0.02044912 0.044081826 -0.009649003 -0.06495531 -0.012813623 0.066495605 0.06767088
0.07671688 0.0303689 0.059736095 -0.03439081 -0.0712255 -0.05936691 0.06392999 0.057844885
-0.08657334 -0.052322336 -0.064450406 0.04084586 0.010200991 -0.03520518 -0.012374078 -0.0070709786
0.058263168 0.054878555 -0.035142392 0.058628604 -0.09267293 0.007525847 0.0809443 -0.03636607
-0.016778102 0.013314785 -0.033373684 -0.04867205 -0.004695124 -0.09258007 0.048279613 -0.038583044
-0.065834746 -0.08073182 -0.10287804 0.06341497 0.08490702 0.066480435 0.07013091 -0.021850904
-0.02644893 -0.052006114 0.013156549 0.09143418 -0.008519403 -0.010902054 -0.020867405 0.007257369
-0.03642428 0.08007309 0.0017633667 0.058781225 0.042995907 0.05305225 -0.035856668 -0.061200906
0.042989075 0.053408675 -0.035983283 0.039132774 0.03763156 0.07241158 -0.034638356 -0.102328025
0.020718478 0.05824404 0.03316009 -0.06723725 -0.08251166 0.06640518 0.08298158 -0.05413054
0.06117799 -0.021165652 -0.033562165 0.07268523 -0.03787912 0.030576512 0.06526402 -0.09192962
-0.06368126 -0.07477387 0.039851632 -0.047584355 0.038984634 0.015394288 -0.05779347 -0.082984835
0.014561681 0.035376336 -0.05500016 -0.006497265 0.0440032 -0.06877846 -0.1035406 0.05957603
-0.0922611 -0.046247616 0.046940845 -0.09846079 0.06817592 -0.032345653 0.062874295 0.095597416
0.052591972 -0.045979343 0.03296617 0.005277247 -0.0681735 0.09472442 -0.011149156 0.017156161
-0.09323583 -0.0068545816 -0.09626456 -0.01286658 -0.08505198 -0.08934935 0.10392697 -0.07865671
-0.0427866 0.057744756 -0.069019854 0.01034883 -0.059723105 -0.0648209 -0.017158562 0.001891527
-0.057803366 -0.03084013 -0.066571765 -0.042618524 -0.014747052 0.045048673 -0.026327968 -0.0348309
0.09112049 0.10544296 -0.037715685 -0.059300628 0.03181492 -0.055978276 -0.0999127 -0.025220832
0.073125795 -0.05001671 -0.031621944 0.07923159 -0.058519732 0.04660563 -0.10136381 0.01809388
0.09011685 0.045218952 0.027982615 0.08014806 0.03739637 0.076412216 -0.10770916 -0.06723386
-0.05708662 0.03295189 -0.011169861 -0.06335789 0.06156345 0.029023614 0.046070352 0.08347986
-0.05420245 -0.013413613 0.0061364975 -0.043198645 -0.007114953 -0.09017445 -0.06302307 -0.026467906
00000000: c6b5 bfbc 1fe6 cd3d 1bf0 393c 74db 3e3c
00000010: 9de6 533d aa59 3b3d e72d 20bc 5dbc 98bd
00000020: 0458 fcbc 217a b9bc 0a5b aa3d 35a8 1fbd
00000030: 5e10 56bd 6eab 783b 9be5 71bd 6edf 6d3d
00000040: 1f01 9fbd ea84 a73c 258f 343d da16 1ebc
00000050: 4a07 85bd 3bf0 51bc d92e 883d 0897 8a3d
00000060: bd1d 9d3d 33c8 f83c d6ad 743d 61dd 0cbd
00000070: adde 91bd b82a 73bd baed 823d c2ee 6c3d
00000080: 5d4d b1bd f24f 56bd 93fe 83bd fd4d 273d
00000090: 0f22 273c 4f33 10bd a5bc 4abc abb3 e7bb
000000a0: 5ca5 6e3d 56c8 603d 78f1 0fbd 8c24 703d
000000b0: 4ecb bdbd 619b f63b 20c6 a53d 97f4 14bd
000000c0: 3b72 89bc 4226 5a3c d8b2 08bd 585c 47bd
000000d0: 8ed9 99bb 9f9a bdbd d8c0 453d 4109 1ebd
000000e0: 5ed4 86bd b956 a5bd b9b1 d2bd b5df 813d
000000f0: bbe3 ad3d e526 883d cba0 8f3d ab00 b3bc
00000100: 6dab d8bc 5d04 55bd 918e 573c d841 bb3d
00000110: f794 0bbc 879e 32bc 1ff2 aabc 39cf ed3b
00000120: a031 15bd 5cfd a33d c520 e73a 95c4 703d
00000130: 7a1c 303d 514d 593d 71de 12bd cdad 7abd
00000140: 5015 303d 0ec3 5a3d 3563 13bd b049 203d
00000150: 8d23 1a3d 864c 943d f3e0 0dbd 5b91 d1bd
00000160: ccb9 a93c 4d91 6e3d e0d2 073d afb3 89bd
00000170: e0fb a8bd 70ff 873d 3ff2 a93d fcb7 5dbd
00000180: c695 7a3d 9763 adbc 7b78 09bd fedb 943d
00000190: 2327 1bbd 987b fa3c 24a9 853d 9945 bcbd
000001a0: 526b 82bd 0b23 99bd 773b 233d d0e7 42bd
000001b0: 5aae 1f3d 5338 7c3c d8b8 6cbd f4f3 a9bd
000001c0: 1e94 6e3c c7e6 103d d947 61bd 02e7 d4bb
000001d0: b33c 343d b9db 8cbd 180d d4bd ff05 743d
000001e0: 63f3 bcbd 246e 3dbd 0b45 403d d0a5 c9bd
000001f0: d19f 8b3d e07c 04bd 3dc4 803d 94c8 c33d
00000200: ae6a 573d d654 3cbd 8907 073d c2ec ac3b
00000210: 8c9e 8bbd e0fe c13d f3aa 36bc 148b 8c3c
00000220: 6df2 bebd 669c e0bb 5b26 c5bd 59ce 52bc
00000230: bc2f aebd cbfc b6bd aad7 d43d c516 a1bd
00000240: 0041 2fbd c485 6c3d 485a 8dbd 248e 293c
00000250: 37a0 74bd d2c0 84bd 1d90 8cbc 1ded f73a
00000260: 39c3 6cbd 71a4 fcbc c756 88bd c390 2ebd
00000270: 9f9d 71bc f584 383d c0ad d7bc d9aa 0ebd
00000280: 619d ba3d 7bf2 d73d c37b 1abd 37e5 72bd
00000290: 5d50 023d 7a49 65bd 089f ccbd eb9b cebc
000002a0: fac2 953d 52de 4cbd 0386 01bd 2c44 a23d
000002b0: 63b2 6fbd 8ce5 3e3d d497 cfbd 9e39 943c
000002c0: 2f8f b83d 8237 393d cc3b e53c ab24 a43d
000002d0: f02c 193d 027e 9c3d 9f96 dcbd e8b1 89bd
000002e0: a9d3 69bd 90f8 063d cb01 37bc c8c1 81bd
000002f0: f529 7c3d eec2 ed3c 44b4 3c3d 7df7 aa3d
00000300: 6303 5ebd c5c4 5bbc ac14 c93b 10f1 30bd
00000310: 8d24 e9bb 62ad b8bd 3d12 81bd 39d3 d8bc

fc3.weight f4 [50, 200]
-0.047767583 -0.011254897 0.1383205 -0.0022421002 0.034405224 0.051489946 0.014956931 -0.021482825
0.004543345 0.07137532 0.07193178 -0.05696103 0.09341639 0.041083895 -0.03821143 -0.01836392
0.06658164 0.23291408 -0.07801558 -0.04199109 0.07488942 -0.039247543 -0.04657488 0.009830835
-0.067423165 0.011755094 0.026969733 0.00029692706 -0.025182955 0.03870366 0.019858679 -0.04555909
-0.012361088 -0.04248624 0.08433741 0.07891345 0.028033318 0.015211557 0.00769793 -0.14795637
0.00047027358 -0.026781635 0.034413777 0.0455202 0.1693167 0.032852482 0.04745865 0.057489414
0.0076576457 -0.03709182 0.050182275 -0.024909819 -0.046055302 -0.06353201 0.015783802 -0.08461473
-0.023822373 0.03894109 -0.0072644395 0.053567737 -0.035120245 -0.040105093 0.010952515 -0.06388323
-0.0044800015 0.06443738 -0.031133559 0.04783827 0.07376684 -0.02899432 0.07790126 0.018242275
0.031102609 0.10322537 0.006221419 -0.054191913 0.00046244462 -0.08469469 -0.016523682 -0.038713347
0.031809837 0.1217357 -0.009687687 -0.07385824 0.11678798 0.0075538643 0.07038734 -0.04589287
0.045219384 -0.06084211 -0.40684998 -0.010895717 0.040305942 0.030537622 -0.014473488 0.037949514
0.024159737 -0.021062162 0.08250604 0.0392379 -0.018307945 -0.05028749 -0.042455643 0.03991642
-0.038828187 0.04175728 0.047308147 -0.11239722 0.06451094 0.014421046 0.042033285 0.056743763
-0.073642865 0.049027108 -0.043819383 0.029903384 0.07595433 -0.045146644 0.0066991714 -0.01269988
-0.057342317 -0.031499434 0.037304968 -0.03334139 -0.020274548 0.041242868 0.08493609 0.110835455
-0.065935075 -0.04261664 0.026421683 -0.0026915425 -0.0004599858 -0.028378213 0.13890289 -0.0342381
-0.047667842 -0.0058387346 -0.03581619 -0.033358414 0.012376793 -0.069289036 0.025167743 0.005445906
-0.046042595 0.020228894 -0.028738895 0.061569646 0.39532876 -0.23270375 -0.01172187 0.06341207
0.03841557 0.060766373 0.048484713 0.035043016 0.010000115 -0.0030219867 0.08886289 -0.058695294
0.03523844 0.041490596 0.021294968 0.034466352 -0.029398855 -0.011707873 0.050401952 0.01851298
-0.043720163 -0.015038849 0.027694661 0.008705927 -0.0047028754 0.0017004859 -0.019407835 -0.0051136394
0.07121199 -0.014600799 0.042377662 0.01933419 0.06297536 0.028781658 0.033411548 0.06362784
-0.023065535 0.018510725 -0.0056514633 0.07286812 0.05875004 -0.10781857 -0.06251172 -0.038721196
-0.01319494 0.02354333 0.017423587 -0.013366529 0.03444928 -0.075940005 -0.03816518 0.069812655
-0.0060883765 -0.0104175275 -0.06631262 -0.030186262 0.031386074 -0.06918014 -0.009601716 -0.047783166
0.017454803 0.060889702 -0.046597 0.0464716 -0.062117178 0.070686996 0.030743847 -0.04868242
0.032543093 -0.03864972 -0.014264336 -0.02046607 0.048268694 -0.038372092 -0.0214515 -0.036388483
0.041787546 0.022464996 0.073840275 0.034789957 0.004446038 -0.0154639175 -0.036390003 0.034420926
0.003093884 0.01846792 -0.052275755 0.063554496 0.033256255 -0.038262624 0.011768978 -0.06674937
0.029392637 -0.051140968 -0.0582285 0.06323219 -5.193115e-06 -0.0070505734 -0.044862635 0.05340924
-0.025445966 0.023485977 0.017251262 0.06861113 -0.015150107 0.01922538 -0.057780903 -0.046671644
00000000: f1a7 43bd 7666 38bc e4a3 0d3e 33f0 12bb
00000010: 7eec 0c3d 1fe7 523d ea0d 753c c0fc afbc
00000020: 57e0 943b 392d 923d f850 933d f84f 69bd
00000030: 1851 bf3d 9647 283d 9783 1cbd ee6f 96bc
00000040: f45b 883d 0781 6e3e a2c6 9fbd d9fe 2bbd
00000050: a05f 993d 08c2 20bd 4dc5 3ebd 8311 213c
00000060: 2815 8abd 7098 403c a1ef dc3c e0ac 9b39
00000070: 7c4c cebc bb87 1e3d abae a23c 2b9c 3abd
00000080: 2986 4abc 0d06 2ebd 18b9 ac3d 609d a13d
00000090: 21a6 e53c e539 793c eb3e fc3b e081 17be
000000a0: 0d8f f639 2965 dbbc 76f5 0c3d 6473 3a3d
000000b0: 5b61 2d3e 5390 063d 0064 423d 057a 6b3d
000000c0: fdec fa3b 98ed 17bd ee8b 4d3d ad0f ccbc
000000d0: 7ca4 3cbd 121d 82bd 084d 813c 7d4a adbd
000000e0: 2327 c3bc b180 1f3d 890a eebb d869 5b3d
000000f0: 3fda 0fbd 3d45 24bd 2d72 333c 36d5 82bd
00000100: facc 92bb bff7 833d ce0b ffbc 10f2 433d
00000110: 1213 973d 7f85 edbc b28a 9f3d d370 953c
00000120: e6ca fe3c d367 d33d 0cdd cb3b 57f8 5dbd
00000130: 4474 f239 6974 adbd ac5c 87bc e391 1ebd
00000140: 084b 023d 9150 f93d 1bb9 1ebc fd42 97bd
00000150: 892e ef3d 6886 f73b 3d27 903d 29fa 3bbd
00000160: f637 393d 9435 79bd a44e d0be f383 32bc
00000170: d817 253d 092a fa3c 3522 6dbc f370 1b3d
00000180: a4ea c53c 8e8a acbc edf8 a83d ecb7 203d
00000190: 8bfa 95bc 41fa 4dbd f8e5 2dbd 667f 233d
000001a0: 4e0a 1fbd ae09 2b3d 30c6 413d 8430 e6bd
000001b0: 501e 843d 4046 6c3c 182b 2c3d 266c 683d
000001c0: 12d2 96bd a6d0 483d f47b 33bd f1f7 f43c
000001d0: f28d 9b3d b0eb 38bd b984 db3b 2813 50bc
000001e0: c7df 6abd 8d05 01bd 18cd 183d fb90 08bd
000001f0: cf16 a6bc 48ee 283d f9f2 ad3d b3fd e23d
00000200: f808 87bd c98e 2ebd 4972 d83c 9764 30bb
00000210: 402a f1b9 6d79 e8bc 8f3c 0e3e 403d 0cbd
00000220: 5b3f 43bd db52 bfbb ffb3 12bd d5a2 08bd
00000230: 08c8 4a3c 69e7 8dbd 952c ce3c 9273 b23b
00000240: 2997 3cbd 11b7 a53c d56d ebbc 7430 7c3d
00000250: 8868 ca3e e449 6ebe 160d 40bc 30de 813d
00000260: a559 1d3d 29e6 783d e897 463d 4489 0f3d
00000270: 86d7 233c 860c 46bb bffd b53d 7a6a 70bd
00000280: 2f56 103d 0bf2 293d c972 ae3c 972c 0d3d
00000290: ded5 f0bc 61d2 3fbc 4772 4e3d 88a8 973c
000002a0: ea13 33bd 8165 76bc eadf e23c 4ea3 0e3c
000002b0: 941a 9abb d7e2 de3a 2efd 9ebc 5190 a7bb
000002c0: 98d7 913d 3138 6fbc 3394 2d3d bc62 9e3c
000002d0: 3af9 803d 83c7 eb3c 8cda 083d 504f 823d
000002e0: eff3 bcbc cea3 973c e92f b9bb e23b 953d
000002f0: e2a3 703d fccf dcbd 2506 80bd 1e9a 1ebd
00000300: 972f 58bc f1dd c03c e9bb 8e3c 49ff 5abc
00000310: b01a 0d3d 6f86 9bbd 1753 1cbd f0f9 8e3d
00000320: 0181 c7bb 47ae 2abc e9ce 87bd 2e49 f7bc
00000330: af8e 003d 51ae 8dbd 8450 1dbc 48b8 43bd
00000340: 60fd 8e3c 7b67 793d 7fdc 3ebd 0159 3e3d
00000350: 956e 7ebd 58c4 903d 85da fb3c 3867 47bd
00000360: e84b 053d 2b4f 1ebd f6b4 69bc 76a8 a7bc
00000370: 65b5 453d 0e2c 1dbd 0ebb afbc 170c 15bd
00000380: 6b29 2b3d 8308 b83c 9239 973d ea7f 0e3d
00000390: 12b0 913b 5f5c 7dbc af0d 15bd f5fc 0c3d
000003a0: c3c2 4a3b 094a 973c 1a1f 56bd dc28 823d
000003b0: b637 083d 45b9 1cbd acd2 403c e5b3 88bd
000003c0: d4c8 f03c 3179 51bd 0281 6ebd e17f 813d
000003d0: 8540 aeb6 7f08 e7bb e2c1 37bd a6c3 5a3d
000003e0: 0f74 d0bc aa65 c03c 8552 8d3c fe83 8c3d
000003f0: 2838 78bc 8b7e 9d3c abab 6cbd c42a 3fbd

fc3.bias f4 [50]
0.031676263 0.043795504 -0.032497697 0.04526872 0.066228114 -0.023454167 0.020700885 -0.056725323
-0.030510472 -0.0437985 0.076079175 0.066990696 0.028414635 -0.047372106 0.049132545 0.014073167
-0.033122167 0.030690033 -0.053490747 0.024527423 -0.024408419 -0.0041854903 -0.06568088 -0.077485785
-0.008781345 0.006052372 -0.076742806 -0.028825851 0.042121466 0.0464054 -0.0038825604 -0.041657843
-0.01708975 -0.0318276 0.05245807 -0.04815299 2.5159063e-05 -0.029990118 0.051246587 -0.07503304
0.039512582 0.022351822 -0.002546949 0.011073432 -0.046199765 0.049353525 -0.06354192 -0.06431767
-0.031608213 0.023368796
00000000: f8be 013d ea62 333d 4e1c 05bd b16b 393d
00000010: 9ba2 873d f422 c0bc e794 a93c d058 68bd
00000020: 19f1 f9bc 0e66 33bd 66cf 9b3d 6b32 893d
00000030: cfc5 e83c 4109 42bd 353f 493d 2493 663c
00000040: 1cab 07bd aa69 fb3c 1d19 5bbd bced c83c
00000050: 2af4 c7bc 7026 89bb b283 86bd deb0 9ebd
00000060: a1df 0fbc fa52 c63b 552b 9dbd 3124 ecbc
00000070: 8f87 2c3d 9713 3e3d 8e72 7ebb 6aa1 2abd
00000080: ceff 8bbc a85d 02bd 46de 563d 123c 45bd
00000090: ad0c d337 d6ad f5bc f1e7 513d ecaa 99bd
000000a0: f2d7 213d 2b1b b73c b7ea 26bb 576d 353c
000000b0: f73b 3dbd ec26 4a3d 4422 82bd fcb8 83bd
000000c0: 9d77 01bd eb6f bf3c
