training_model/wandb/run-20200708_193216-2ppf8ktk/aoa_fir_6cov_1.pt (torch_old, 403058 bytes, 16 tensors)

encode_conv1.weight f4 [4, 50, 3, 3]
-0.012323912 0.10782771 -0.017474147 0.025412759 0.03842684 -0.03551012 0.02549867 -0.022805417
0.019673474 -0.02068507 -0.0438411 -0.03202462 0.059265237 0.026889008 -0.017405294 0.009822725
-0.0057307244 0.009495347 0.0645135 -0.03636805 0.020899188 0.014492727 -0.07225493 -0.014248244
-0.056444816 -0.03161482 0.009688664 -0.033569485 0.05062917 -0.023692694 -0.068703115 0.086814515
0.013672499 -0.033510286 -0.039954007 -0.07367437 0.03442788 0.06941856 0.04516999 0.13249095
0.027005227 -0.03112106 0.017801601 0.038919248 0.0054639084 -0.014285969 -0.021223392 -0.01671866
0.101737484 0.059775565 -0.0004121872 -0.028224804 -0.004528384 0.072154626 -0.03382049 0.07059139
0.048146866 0.039621837 -0.01036307 -0.047241706 -0.061708435 0.013331932 -0.028007606 -0.07596598
-0.0038468326 -0.029222261 0.06377434 0.039485008 0.06888405 -0.018211965 0.03757757 0.021389637
-0.0023540247 -0.0039826487 -0.08930983 -0.0046841153 0.11642628 0.04056348 -0.0079763215 -0.022227574
0.037523553 0.056736 0.016362756 -0.0480002 0.14423189 0.088313945 -0.010956129 0.09165671
-0.00810094 0.013131965 0.041478466 -0.0037940934 -0.08928697 0.1354035 0.012098019 -0.033480965
0.11927494 0.037290327 0.055702396 -0.051189464 -0.024397248 0.02496525 0.04868795 -0.009090628
0.024119617 -0.021365678 -0.034006104 0.06813707 -0.08446489 -0.020895123 -0.11274617 -0.0630351
0.03288276 -0.056424994 -0.025143683 -0.03983213 -0.011090104 -0.07780135 -0.021050606 0.033989564
-0.03276479 0.0048791803 -0.102365084 -0.020300057 0.017199606 -0.03903419 0.17517228 -0.07194622
0.023860212 0.061726607 0.039661087 0.034832027 0.06154324 -0.026171038 0.053935 -0.03968224
0.16402557 0.054682534 -0.010095407 0.100838564 0.11266102 -0.112339534 0.074092485 0.039193027
0.009750155 0.038096257 -0.057493355 0.09797753 0.037992626 -0.01361535 -0.023915354 0.05560481
-0.046479367 -0.06826203 0.0057849386 0.004035253 -0.07330293 -0.05507467 0.13530597 0.031632688
0.08671858 0.024882844 0.08438581 -0.03287726 -0.041548733 0.17268659 0.034991715 -0.045042414
0.030892123 0.06446581 -0.08284454 0.036533397 -0.011507577 0.032298952 -0.0172385 -0.0064362898
0.032060727 -0.07361946 -0.06129114 -0.053036466 0.021342587 -0.011749809 -0.038393226 0.010853139
-0.015601881 -0.03542291 0.030442944 -0.1024115 0.00795949 0.06386442 -0.00751014 0.0067233643
0.05605426 0.038653843 -0.036216922 0.009404491 0.059614345 0.009805207 -0.12838215 0.0003734761
0.11172861 -0.081373535 -0.10010252 -0.013102813 0.05729571 0.011483021 -0.006129645 0.03494556
-0.030949628 0.038006973 -0.027137427 0.016192041 -0.07924752 0.030002033 -0.010140807 -0.05645392
-0.06292777 -0.04288461 -0.04501659 -0.013239984 0.007011927 0.010946228 0.030783065 -0.029107861
-0.050715666 0.035437305 -0.08083966 0.024080325 -0.03610352 -0.06942215 -0.00010495905 0.07254658
-0.014077223 0.039169982 0.021757614 0.036387347 0.090972364 0.061161645 -0.023108337 0.040925495
0.021625938 -0.013351431 -0.041698504 0.031677186 -0.0071343645 -0.08652229 -0.04285814 -0.009493997
-0.04416489 0.031485744 -0.06452148 0.066064216 -0.0673179 0.01946792 -0.08095169 0.025243452
00000000: 3cea 49bc c6d4 dc3d f125 8fbc 6b2e d03c
00000010: 7665 1d3d 0f73 11bd 96e2 d03c 6dd2 babc
00000020: 442a a13c bc73 a9bc ba92 33bd 3f2c 03bd
00000030: 1bc0 723d 5646 dc3c 8c95 8ebc 7fef 203c
00000040: cdc8 bbbb 5f92 1b3c a71f 843d aaf6 14bd
00000050: c634 ab3c e772 6d3c 65fa 93bd 7871 69bc
00000060: ae32 67bd 8b7e 01bd 34bd 1e3c 2880 09bd
00000070: 8860 4f3d 2e17 c2bc 38b4 8cbd cfcb b13d
00000080: 9e02 603c 1542 09bd d0a6 23bd 97e2 96bd
00000090: 4004 0d3d 512b 8e3d 2b04 393d b5ab 073e
000000a0: 113a dd3c 98f1 febc aad4 913c ca69 1f3d
000000b0: 960a b33b b20f 6abc aedc adbc 92f5 88bc
000000c0: be5b d03d 39d7 743d d41a d8b9 b437 e7bc
000000d0: d762 94bb cec5 933d 5b87 0abd 3892 903d
000000e0: a635 453d 824a 223d dec9 29bc 8580 41bd
000000f0: fcc1 7cbd 2d6e 5a3c 3570 e5bc 0d94 9bbd
00000100: 241b 7cbb 8663 efbc 1f9c 823d 08bb 213d
00000110: 1513 8d3d 4231 95bc f0ea 193d 5239 af3c
00000120: fb45 1abb e180 82bb 12e8 b6bd 357d 99bb
00000130: e770 ee3d e425 263d 1eaf 02bc 9a16 b6bc
00000140: 4cb2 193d 0264 683d 300b 863c dc9b 44bd
00000150: 86b1 133e f1dd b43d 5681 33bc 83b6 bb3d
00000160: ceb9 04bc 7427 573c 53e5 293d 53a6 78bb
00000170: 16dc b6bd 37a7 0a3e c536 463c 5623 09bd
00000180: 6b46 f43d bebd 183d 3228 643d 0bac 51bd
00000190: bddc c7bc ed83 cc3c 046d 473d dbf0 14bc
000001a0: 8196 c53c 1307 afbc fc49 0bbd 738b 8b3d
000001b0: eefb acbd 402c abbc 77e7 e6bd 8c18 81bd
000001c0: 13b0 063d e51d 67bd 20fa cdbc 0427 23bd
000001d0: 44b3 35bc 5056 9fbd 5272 acbc a438 0b3d
000001e0: 5f34 06bd 88e1 9f3b c9a4 d1bd 4e4c a6bc
000001f0: 30e6 8c3c 51e2 1fbd 5d60 333e 8a58 93bd
00000200: 7e76 c33c 0ad5 7c3d aa73 223d 07ac 0e3d
00000210: c414 7c3d a564 d6bc f2ea 5c3d d889 22bd
00000220: 52f6 273e cbfa 5f3d 3567 25bc 7384 ce3d
00000230: d2ba e63d 4512 e6bd cdbd 973d de88 203d
00000240: 1dbf 1f3c d20a 1c3d 277e 6bbd 71a8 c83d
00000250: 289e 1b3d eb12 5fbc 22ea c3bc dfc1 633d
00000260: 2661 3ebd f7cc 8bbd 958f bd3b 283a 843b
00000270: d91f 96bd fa95 61bd a68d 0a3e 4791 013d
00000280: 8399 b13d 1bd7 cb3c 78d2 ac3d 4eaa 06bd
00000290: 012f 2abd c1d4 303e 7953 0f3d 657e 38bd
000002a0: 7a11 fd3c a706 843d 66aa a9bd 0ba4 153d
000002b0: 478a 3cbc e84b 043d c137 8dbc 83e7 d2bb
000002c0: 1c52 033d cdc5 96bd 6b0c 7bbd c43c 59bd
000002d0: a6d6 ae3c 4582 40bc 3742 1dbd 5dd1 313c
000002e0: 089f 7fbc 9d17 11bd 7b63 f93c 1fbd d1bd
000002f0: 8568 023c 59cb 823d 9f17 f6bb ab4f dc3b
00000300: 2799 653d 7e53 1e3d 3258 14bd 4b15 1a3c
00000310: 2c2e 743d 05a6 203c 9c76 03be 1dcf c339
00000320: f8d1 e43d 2ba7 a6bd 8d02 cdbd 2ead 56bc
00000330: e8ae 6a3d 4823 3c3c 30db c8bb 1323 0f3d
00000340: 138a fdbc 33ad 1b3d 4f4f debc 2ca5 843c
00000350: 864c a2bd d3c6 f53c a125 26bc 3a3c 67bd
00000360: 46e0 80bd c6a7 2fbd 5163 38bd 85ec 58bc
00000370: 4fc4 e53b cf57 333c c42c fc3c 9c73 eebc
00000380: 3bbb 4fbd b526 113d 438f a5bd 1a44 c53c
00000390: 49e1 13bd 332d 8ebd 761d dcb8 4d93 943d
000003a0: 27a4 66bc b470 203d 063d b23c e60a 153d
000003b0: b84f ba3d a284 7a3d b24d bdbc 7ea1 273d
000003c0: e128 b13c f6bf 5abc 0dcc 2abd f0bf 013d
000003d0: 63c7 e9bb 9932 b1bd 048c 2fbd b68c 1bbc
000003e0: 3ee6 34bd 32f7 003d d623 84bd ad4c 873d
000003f0: f8dd 89bd 307b 9f3c 00ca a5bd 5bcb ce3c

encode_conv1.bias f4 [4]
0.0028389238 0.04051067 -0.02457805 0.026230766
00000000: 3d0d 3a3b 84ee 253d e857 c9bc e7e1 d63c

encode_conv2.weight f4 [4, 4, 3, 3]
-0.01815086 -0.08289791 0.03871085 -0.27855328 0.06598542 0.2022071 0.028899036 -0.004467286
-0.11505919 0.10373717 0.15128547 0.09097501 -0.054268073 -0.0057428046 0.040371586 -0.058817558
0.18697523 0.046963174 -0.13556704 -0.10314298 -0.066155896 -0.20205157 -0.16863668 -0.061078075
-0.1819356 0.011935758 -0.038465746 -0.121939786 -0.13737378 0.00032283374 0.028121194 -0.19457552
-0.0009564103 0.08205319 -0.15500645 0.021237362 -0.10865059 0.10750838 -0.034153655 0.040978707
-0.21597779 0.29451096 0.096347906 0.010810854 -0.045951195 -0.14727177 -0.06840893 0.061642945
0.05878258 0.050185017 0.26135185 -0.0991959 -0.16123645 0.056898635 -0.15568377 0.09626911
0.019584471 0.20232348 0.163803 0.08756915 -0.062297992 0.2349348 -0.03690735 0.29144448
0.071455404 0.14857867 0.2824714 -0.2022349 0.10369732 -0.005967175 -0.14675811 -0.085849576
-0.07739726 0.19964781 -0.2334197 -0.26302475 0.02374427 -0.2314564 -0.045058493 -0.018955301
0.012370562 0.066297635 -0.21970928 -0.07766267 -0.25259873 -0.20316671 0.2590455 -0.11193301
0.15372139 0.037546143 0.14564939 0.04775829 -0.19169827 -0.07190094 0.034992784 -0.019968662
-0.046147212 0.15817505 -0.12734473 0.07707267 0.26523948 0.24630263 0.13532409 0.061311312
-0.12574652 -0.07868865 0.13321254 -0.10559664 0.18652599 0.054424323 0.19559631 -0.0016390583
-0.043334473 -0.04211088 0.11606633 0.21768807 -0.080063 -0.11485052 -0.14670637 0.08677905
-0.26982972 -0.029691176 -0.09506869 -0.11807513 0.111873075 0.0030155089 0.061056606 0.15893148
-0.065254204 0.14555413 0.18418942 -0.11517068 -0.03871983 -0.03129587 0.07557602 0.24674252
0.11730436 0.097567715 0.2922925 0.16982529 0.018679254 0.3430433 -0.110186115 0.17373836
00000000: 1db1 94bc 61c6 a9bd 458f 1e3d 899e 8ebe
00000010: 5d23 873d 610f 4f3e acbd ec3c 5062 92bb
00000020: 27a4 ebbd 2774 d43d 94ea 1a3e 1b51 ba3d
00000030: 3348 5ebd 232e bcbb ad5c 253d aeea 70bd
00000040: 6f76 3f3e 755c 403d 16d2 0abe a03c d3bd
00000050: be7c 87bd 9be6 4ebe 18af 2cbe 012d 7abd
00000060: 534d 3abe 338e 433c 428e 1dbd 91bb f9bd
00000070: b6ab 0cbe 0342 a939 6b5e e63c ce3e 47be
00000080: 9cb7 7aba 810b a83d 03ba 1ebe faf9 ad3c
00000090: 3384 debd 5b2d dc3d b4e4 0bbd 4ad9 273d
000000a0: 4829 5dbe 24ca 963e 0d52 c53d 0220 313c
000000b0: 5237 3cbd 69ce 16be fb19 8cbd 507d 7c3d
000000c0: 01c6 703d ce8e 4d3d e9cf 853e 3827 cbbd
000000d0: 2b1b 25be 8b0e 693d 916b 1fbe bd28 c53d
000000e0: 9d6f a03c e32d 4f3e f9bb 273e 7457 b33d
000000f0: 2e2c 7fbd c092 703e 292c 17bd 3638 953e
00000100: 3657 923d 0225 183e 17a0 903e aa16 4fbe
00000110: 435f d43d 4b88 c3bb c247 16be e7d1 afbd
00000120: 7482 9ebd 7a70 4c3e 9305 6fbe 2eab 86be
00000130: 5883 c23c e802 6dbe 418f 38bd 2648 9bbc
00000140: e6ad 4a3c 0ec7 873d 78fb 60be 9b0d 9fbd
00000150: 9f54 81be ef0a 50be 9da1 843e 223d e5bd
00000160: 2469 1d3e fcc9 193d 1d25 153e 329e 433d
00000170: 8d4c 44be cd40 93bd 9854 0f3d 5295 a3bc
00000180: dc04 3dbd a4f8 213e a866 02be 47d8 9d3d
00000190: 78cd 873e c236 7c3e 6692 0a3e 9221 7b3d
000001a0: b2c3 00be 8427 a1bd de68 083e 0d43 d8bd
000001b0: ab00 3f3e 0aec 5e3d 664a 483e acd5 d6ba
000001c0: 7d7f 31bd 757c 2cbd 2fb4 ed3d 9fe9 5e3e
000001d0: 12f8 a3bd c036 ebbd 323a 16be 37b9 b13d
000001e0: 1f27 8abe e93a f3bc 60b3 c2bd 60d1 f1bd
000001f0: b61d e53d d89f 453b 7e16 7a3d efbe 223e
00000200: ffa3 85bd 240c 153e 279c 3c3e 9bde ebbd
00000210: af98 1ebd 1930 00bd 9ac7 9a3d 12aa 7c3e
00000220: 453d f03d 95d1 c73d 5da7 953e aee6 2d3e
00000230: 3c05 993c 5fa3 af3e 42a9 e1bd 78e8 313e

encode_conv2.bias f4 [4]
-0.19408599 -0.037967566 0.078672126 0.027200956
00000000: 7abe 46be e183 1bbd da1e a13d 8ad4 de3c

encode_conv3.weight f4 [8, 4, 3, 3]
0.15458366 -0.096113354 0.03236887 -0.053770706 0.18091959 -0.03640813 0.018287497 -0.07998415
0.17270997 0.019645918 -0.11338136 0.18093865 0.12585987 0.075117506 0.15256445 -0.07116447
-0.18996327 0.046631087 0.15319552 0.31390432 0.25444275 0.43214983 0.50236624 0.21353547
0.062712744 -0.057364956 0.1376736 0.021227226 0.038701113 0.031928524 -0.043780204 0.14624
0.102926664 0.046813402 -0.075843304 -0.12904176 0.041684885 0.08606096 -0.1334823 0.040339142
-0.04181526 -0.10986568 -0.06062638 0.017217938 -0.14112903 0.013415837 -0.1182003 0.2011987
0.12260974 0.076781146 0.17838578 -0.10542299 0.14416169 0.069179334 0.2536274 -0.10325898
0.0046391217 0.30901358 -0.26615176 0.020661375 0.09310441 -0.118059844 0.23115997 -0.24758464
-0.17341863 0.17473313 -0.036262054 -0.04016862 0.21452683 0.04743968 -0.027355751 0.013914766
-0.1803282 0.013154649 0.10955594 -0.06563192 -0.053050563 0.10026809 -0.025113953 0.13521244
0.1756315 0.060961638 0.030277979 0.045362562 0.029011117 -0.12456154 -0.038080268 -0.26887357
-0.13509014 0.06067074 -0.14559571 -0.090201944 -0.32076874 0.27910566 0.2005501 -0.20814082
0.14715677 -0.22202711 -0.26952845 -0.06402614 0.04125942 -0.15211655 -0.15338108 0.008423959
0.11340023 -0.017432135 0.1264497 -0.10399692 -0.057937518 0.023756435 0.04853119 -0.09029404
0.14986569 -0.10356767 -0.018575273 0.13964708 0.14634451 0.13867015 0.17982413 0.13128573
-0.051743984 0.12843749 0.16872478 -0.11738479 0.06258048 0.082402386 0.20476414 -0.20958924
-0.21464686 -0.08318589 -0.09683127 -0.096622184 -0.39000297 -0.2497493 0.20101894 0.09910526
-0.21022812 0.27876505 -0.16355424 -0.13049963 0.21084449 -0.09966179 0.12408095 0.054948978
0.026254566 -0.013906021 0.033335425 0.007293298 -0.021192322 -0.015946241 -0.074676745 -0.12182571
-0.17977737 0.08829446 -0.11093293 -0.13196579 -0.0150321955 0.1615181 -0.034349285 0.14943308
0.20052794 0.18341312 -0.28517634 0.3805869 0.028286919 -0.097062096 0.035040174 -0.23221503
0.087976865 -0.03177577 -0.057708167 0.14297323 -0.0057337424 0.16688812 -0.101403676 0.084577754
-0.12936823 -0.030224016 0.15377486 -0.0006952151 0.16909224 0.071349956 0.2001014 0.24989711
0.09191784 0.20260045 0.015520234 -0.07696255 -0.0089174295 -0.14837715 -0.1029918 -0.13715637
-0.07987146 0.10175639 -0.14925082 -0.008515467 0.039616592 -0.01886128 -0.31215665 -0.039758213
0.050388966 0.016478723 0.09460189 0.122671455 -0.08245255 0.03209957 -0.14897504 0.013004809
-0.0960798 -0.23634903 -0.059117056 0.16428588 -0.030475264 -0.13736328 0.11135985 -0.07440559
-0.032385092 -0.17250097 0.051055726 -0.10777863 -0.104266 -0.012247898 -0.20497172 -0.10253528
-0.09597021 0.25120848 0.05825264 -0.17979813 0.14026912 0.0008453284 -0.077908196 0.0012152059
0.040440746 -0.068927914 -0.10062269 0.022722384 0.15766779 -0.09433366 -0.1477184 0.37879404
-0.09826733 -0.055818986 0.19094215 -0.108614765 0.11200073 0.020081168 -0.09547719 0.13229369
0.07893568 0.17988196 0.16194332 -0.141618 -0.24411254 0.049707383 -0.058580153 -0.056452632
00000000: 2e4b 1e3e 14d7 c4bd 3895 043d ac3e 5cbd
00000010: fc42 393e b120 15bd a9cf 953c bbce a3bd
00000020: e2da 303e 7af0 a03c 7d34 e8bd fb47 393e
00000030: 69e1 003e 35d7 993d db39 1c3e adbe 91bd
00000040: bb85 42be 3d00 3f3d 49df 1c3e 11b8 a03e
00000050: 5246 823e be42 dd3e 139b 003f 0ba9 5a3e
00000060: 8a6f 803d 84f7 6abd 4ffa 0c3e b8e4 ad3c
00000070: 0f85 1e3d 7cc7 023d df52 33bd f0bf 153e
00000080: 37cb d23d 69bf 3f3d bc53 9bbd 8623 04be
00000090: c5bd 2a3d bb40 b03d 96af 08be a83a 253d
000000a0: 7a46 2bbd 4201 e1bd 5e53 78bd a20c 8d3c
000000b0: 2184 10be 19ce 5b3c 0013 f2bd 0807 4e3e
000000c0: d11a fb3d 6f3f 9d3d c3aa 363e 02e8 d7bd
000000d0: 1f9f 133e e5ad 8d3d 73db 813e 7279 d3bd
000000e0: c603 983b 0737 9e3e 0b45 88be 0b42 a93c
000000f0: 86ad be3d 5cc9 f1bd 33b5 6c3e d486 7dbe
00000100: a794 31be 3eed 323e 8587 14bd da87 24bd
00000110: ecac 5b3e 1c50 423d 2b19 e0bc c2fa 633c
00000120: f5a7 38be 9986 573c dd5e e03d 076a 86bd
00000130: 8c4b 59bd 5b59 cd3d c7bb cdbc 2175 0a3e
00000140: bed8 333e e9b2 793d 8609 f83c 18ce 393d
00000150: b9a8 ed3c 1f1a ffbd 0efa 1bbd cca9 89be
00000160: 1255 0abe e281 783d 0b17 15be ccbb b8bd
00000170: cd3b a4be f0e6 8e3e 015d 4d3e de22 55be
00000180: 44b0 163e 135b 63be a2ff 89be 2320 83bd
00000190: a3ff 283d 71c4 1bbe ee0f 1dbe a504 0a3c
000001a0: 613e e83d d6cd 8ebc 087c 013e 56fc d4bd
000001b0: e44f 6dbd db9c c23c a4c8 463d 15ec b8bd
000001c0: 6476 193e 491b d4bd 2c2b 98bc a5ff 0e3e
000001d0: 56db 153e 8cff 0d3e d123 383e c46f 063e
000001e0: 80f1 53bd 1e85 033e 30c6 2c3e 7067 f0bd
000001f0: 322a 803d 95c2 a83d b1ad 513e 909e 56be
00000200: 63cc 5bbe 5d5d aabd 794f c6bd dae1 c5bd
00000210: 78ae c7be 48be 7fbe e9d7 4d3e b3f7 ca3d
00000220: 0a46 57be 4bba 8e3e c37a 27be b2a1 05be
00000230: 9ee7 573e 7b1b ccbd 271e fe3d 2e12 613d
00000240: d113 d73c 14d6 63bc ba8a 083d 9efc ee3b
00000250: 859b adbc b1a1 82bc 1ff0 98bd c27f f9bd
00000260: 8f17 38be bad3 b43d ce30 e3bd 0a22 07be
00000270: 9949 76bc 0065 253e d6b1 0cbd fc04 193e
00000280: 3257 4d3e a6d0 3b3e a202 92be 49dc c23e
00000290: f8b9 e73c 7ec8 c6bd 4986 0f3d c7c9 6dbe
000002a0: 372d b43d 4f27 02bd 665f 6cbd 9367 123e
000002b0: 1ee2 bbbb b8e4 2a3e bbac cfbd 1a37 ad3d
000002c0: 1b79 04be 5b98 f7bc 2877 1d3e 183f 36ba
000002d0: 8426 2d3e ed1f 923d 62e7 4c3e 07e5 7f3e
000002e0: 6c3f bc3d 7e76 4f3e 9448 7e3c 8b9e 9dbd
000002f0: 691a 12bc 2ef0 17be 5ded d2bd b872 0cbe
00000300: a693 a3bd a765 d03d 35d5 18be 7584 0bbc
00000310: 0245 223d f982 9abc ffd2 9fbe 82d9 22bd
00000320: a964 4e3d 63fe 863c a3be c13d 2c3b fb3d
00000330: e2dc a8bd d77a 033d ea8c 18be 1f12 553c
00000340: 7cc5 c4bd 7b05 72be ba24 72bd 8f3a 283e
00000350: 43a7 f9bc f6a8 0cbe a210 e43d f561 98bd
00000360: 3ba6 04bd 18a4 30be cf1f 513d 0bbb dcbd
00000370: 6a89 d5bd 68ab 48bc 1be4 51be 04fe d1bd
00000380: 088c c4bd 669e 803e 529a 6e3d 001d 38be
00000390: b5a2 0f3e 0799 5d3a 558e 9fbd 8b47 9f3a
000003a0: 32a5 253d 142a 8dbd 4513 cebd 4b24 ba3c
000003b0: aa73 213e 0232 c1bd 7e43 17be 4bf1 c13e
000003c0: 6240 c9bd 73a2 64bd 5786 433e 6b71 debd
000003d0: a460 e53d 4381 a43c 8c89 c3bd ff77 073e
000003e0: 08a9 a13d fa32 383e 78d4 253e 4f04 11be
000003f0: a3f8 79be f899 4b3d bef1 6fbd e03a 67bd

encode_conv3.bias f4 [8]
0.08594773 0.009547493 -0.06862118 0.08556054 -0.053786766 -0.071050584 -0.10151578 -0.068818785
00000000: 5d05 b03d 176d 1c3c 4389 8cbd 5d3a af3d
00000010: 834f 5cbd f882 91bd 81e7 cfbd ddf0 8cbd

encode_conv4.weight f4 [8, 8, 3, 3]
0.008084972 -0.056099474 -0.011568781 -0.10157461 0.0097212 -0.03925094 0.029397603 0.001353333
-0.10762065 0.08109436 -0.050855875 -0.053473704 0.114632756 0.06727965 -0.05228267 -0.083417535
0.14147232 -0.07070123 0.0003398167 -0.0015254726 -0.054808516 -0.011115189 -0.09977783 0.113483526
-0.14193073 0.07607999 -0.019822016 -0.053380992 -0.025125012 -0.08201237 -0.0410735 0.046364807
-0.0787892 -0.027848376 0.10920034 0.04939234 -0.011742321 -0.008957118 -0.07613837 -0.0014888914
0.012966653 0.08946236 -0.11493282 0.058171634 0.12023166 -0.12706663 -0.074624464 -0.13786139
0.017662045 0.10550239 0.06301556 -0.059582036 -0.105796486 -0.01490989 0.06330078 -0.023696192
-0.07979615 0.12077194 -0.14828958 0.026449773 0.08644266 0.017849592 -0.18768148 0.01769934
-0.082989424 -0.08180385 -0.005952546 0.16928801 -0.012312256 0.072500505 0.16849542 0.06639301
0.038892344 0.09301136 -0.0012463098 -0.027374128 -0.015443736 0.10292099 0.10729849 0.13021734
0.04339881 -0.035678692 0.08009141 -0.09727993 0.06269637 0.025614515 -0.15689494 -0.08816499
-0.08277782 -0.113548905 -0.026648501 -0.056644663 -0.06399849 0.06484293 -0.08029288 -0.09586809
-0.02656268 0.09114268 0.02758058 0.10575086 0.03466721 -0.001656059 0.027319988 -0.08788107
-0.16426323 0.012222527 -0.08143809 -0.1085355 -0.118739225 0.09248656 -0.079246685 0.116881564
0.05622767 0.024097728 -0.03036477 0.1294217 -0.08936154 0.18637636 -0.24745579 -0.0870412
0.058645137 -0.28231516 -0.08239411 0.10025452 -0.020773267 0.09885782 0.06317159 -0.014092843
0.019482775 0.12434577 0.012282486 -0.092639215 0.095405094 -0.02693697 -0.07447565 -0.06809601
-0.06640424 -0.08722961 0.026803683 0.12820846 -0.014929187 0.13321805 -0.0904547 0.0035795276
-0.049243577 0.139355 0.09591894 0.0310908 0.027723903 -0.07954093 0.046379335 0.021578038
-0.12171305 0.08455056 0.103449926 -0.11520165 -0.09703955 0.11128052 -0.11909814 -0.076507
0.15705827 -0.026456641 0.004911337 0.04732031 0.0075434567 0.036574204 -0.061834462 -0.029208172
0.031406295 0.06551388 -0.116273515 -0.042240717 0.05922823 0.13676476 -0.10329624 -0.08994402
-0.09366897 0.07613361 0.11378165 -0.10085344 -0.06191255 0.08015751 -0.009354186 0.15909559
-0.094927 0.09579602 0.123071596 -0.007045025 0.10946378 0.034720343 -0.069305226 -0.11607595
-0.024974855 -0.017920118 -0.08659816 0.11015543 0.16790971 -0.021133954 0.024950512 0.14048538
-0.10465477 0.029843321 0.035010926 -0.05665243 -0.097356126 0.08743656 -0.030538516 0.11427773
0.05754638 -0.023052115 -0.099074535 -0.007179914 -0.025055235 -0.094589286 0.06801178 -0.014270471
-0.14144173 0.08942949 -0.07326696 0.0035913473 0.09991395 0.06663978 -0.0951748 -0.0379563
0.03677917 0.020267192 -0.007011035 -0.0869167 -0.05461289 -0.04541653 -0.053335465 0.060251925
0.06296475 -0.10297028 -0.049121037 -0.08367314 0.086810604 -0.122211434 0.11088211 0.11076678
-0.1052495 -0.11499579 0.11874213 0.14224751 -0.09633143 -0.07007314 0.099036716 0.024224782
-0.023890667 0.050433338 0.043312665 0.0695052 -0.035018962 -0.042131376 0.015245731 0.16125418
00000000: d576 043c 90c8 65bd fc8a 3dbc 5906 d0bd
00000010: ab45 1f3c 98c5 20bd 3ed3 f03c 5262 b13a
00000020: 3768 dcbd cd14 a63d 404e 50bd 3e07 5bbd
00000030: 94c4 ea3d eac9 893d 5a26 56bd d0d6 aabd
00000040: 1fde 103e cecb 90bd 6d29 b239 5ef2 c7ba
00000050: e57e 60bd 7b1c 36bc 5258 ccbd 0d6a e83d
00000060: 4a56 11be d3cf 9b3d c861 a2bc 07a6 5abd
00000070: f8d2 cdbc 1af6 a7bd b03c 28bd 06e9 3d3d
00000080: 3b5c a1bd 4722 e4bc 6ea4 df3d 9f4f 4a3d
00000090: dd62 40bc e0c0 12bc 6fee 9bbd e826 c3ba
000000a0: 1672 543c 0b38 b73d e661 ebbd 6145 6e3d
000000b0: 043c f63d c11d 02be b6d4 98bd 892b 0dbe
000000c0: feaf 903c a311 d83d 4d0e 813d 4b0c 74bd
000000d0: d4ab d8bd 9c48 74bc d7a3 813d 841e c2bc
000000e0: 2a6c a3bd 4757 f73d 39d9 17be 32ad d83c
000000f0: d908 b13d 4f39 923c 932f 40be 35fe 903c
00000100: 5cf6 a9bd c788 a7bd 930d c3bb d659 2d3e
00000110: 58b9 49bc 257b 943d 108a 2c3e 0ff9 873d
00000120: 944d 1f3d bd7c be3d 385b a3ba b53f e0bc
00000130: b907 7dbc 3dc8 d23d 50bf db3d b257 053e
00000140: f3c2 313d d223 12bd f706 a43d b33a c7bd
00000150: f466 803d 88d5 d13c 11a9 20be d98f b4bd
00000160: 6b87 a9bd 548c e8bd f54d dabc 3c04 68bd
00000170: a411 83bd 5fcc 843d 9870 a4bd 7d56 c4bd
00000180: fa99 d9bc 03a9 ba3d abf0 e13c e893 d83d
00000190: 34ff 0d3d 1e10 d9ba 2bce df3c fefa b3bd
000001a0: 9f34 28be fe40 483c 03c9 a6bd dc47 debd
000001b0: 8d2d f3bd 9869 bd3d 164c a2bd 9a5f ef3d
000001c0: fc4e 663d 9968 c53c 8abf f8bc 1f87 043e
000001d0: 2f03 b7bd 72d9 3e3e 0d65 7dbe a842 b2bd
000001e0: e235 703d 9d8b 90be 3ebe a8bd 3e52 cd3d
000001f0: b32c aabc f875 ca3d 1b60 813d abe5 66bc
00000200: 579a 9f3c ffa8 fe3d 7b3c 493c a1b9 bdbd
00000210: bf63 c33d ecaa dcbc b186 98bd ec75 8bbd
00000220: f2fe 87bd 70a5 b2bd 6693 db3c 1449 033e
00000230: 8c99 74bc 506a 083e 5040 b9bd 8296 6a3b
00000240: a2b3 49bd 14b3 0e3e 2671 c43d 22b2 fe3c
00000250: 3d1d e33c 5be6 a2bd 42f8 3d3d 6dc4 b03c
00000260: b144 f9bd d828 ad3d 8edd d33d d8ee ebbd
00000270: acbc c6bd 0be7 e33d bae9 f3bd b4af 9cbd
00000280: e2d3 203e 99bb d8bc 48ef a03b f1d2 413d
00000290: 1a2f f73b d5ce 153d 2246 7dbd fa45 efbc
000002a0: e3a3 003d 242c 863d cf20 eebd 9a04 2dbd
000002b0: 4d99 723d 100c 0c3e fb8c d3bd 9234 b8bd
000002c0: 84d5 bfbd f0eb 9b3d 5b06 e93d 408c cebd
000002d0: 0498 7dbd 9f29 a43d 4d42 19bc f4e9 223e
000002e0: 1669 c2bd b430 c43d f60c fc3d f4d9 e6bb
000002f0: 8c2e e03d eb36 0e3d e6ef 8dbd 3ab9 edbd
00000300: 1198 ccbc 36cd 92bc 605a b1bd 2c99 e13d
00000310: 86f0 2b3e 1d21 adbc 0465 cc3c 66db 0f3e
00000320: 3d55 d6bd fb79 f43c 9e67 0f3d 610c 68bd
00000330: a662 c7bd f011 b33d e92b fabc 710a ea3d
00000340: c1b5 6b3d cad7 bcbc 97e7 cabd 7c45 ebbb
00000350: a340 cdbc 07b8 c1bd c349 8b3d b2ce 69bc
00000360: 1ad6 10be cf26 b73d fd0c 96bd cf5c 6b3b
00000370: af9f cc3d 707a 883d 01eb c2bd 1178 1bbd
00000380: c1a5 163d 6207 a63c d3bc e5bb 6201 b2bd
00000390: c4b1 5fbd af06 3abd 4a76 5abd b9ca 763d
000003a0: aaf3 803d 15e2 d2bd 2433 49bd d35c abbd
000003b0: c2c9 b13d fd49 fabd 2916 e33d b2d9 e23d
000003c0: 0d8d d7bd ea82 ebbd 132f f33d 55a9 113e
000003d0: 6a49 c5bd 8282 8fbd c3d3 ca3d 0d73 c63c
000003e0: 5cb6 c3bc 3093 4e3d 9f68 313d be58 8e3d
000003f0: 0b70 0fbd f391 2cbd 3bc9 793c d11f 253e

encode_conv4.bias f4 [8]
0.08012769 0.09400301 0.014399182 0.0058714463 -0.004816038 -0.043155454 -0.09855354 0.083851874
00000000: fd19 a43d a684 c03d 8cea 6b3c 4365 c03b
00000010: dbcf 9dbb c6c3 30bd 70d6 c9bd 88ba ab3d

fc1_1.weight f4 [200, 192]
-0.055422414 -0.048815995 0.016122872 0.06922686 -0.010590309 -0.052921448 -0.047829784 0.021792315
-0.0082033845 -0.0016122467 0.09319416 -0.0334605 -0.106976524 0.08333947 0.05645132 -0.0030664825
0.03998559 0.068992786 0.009685578 0.06932964 -0.017253632 0.041488715 0.0894925 0.034879323
-0.006590197 -0.04226298 0.04865101 0.041164786 -0.005883881 -0.041311085 -0.04073807 0.06031559
0.05886436 0.017750518 0.04950049 -0.080810554 -0.0029515608 0.0193311 -0.06987167 -0.108653024
-0.042495046 0.019302191 0.083621785 -0.06184779 -0.027185354 -0.050813425 0.011120854 -0.074634
-0.0016233808 0.03406556 0.046707205 -0.0397119 -0.0055346373 -0.010380036 0.049582478 -0.016799768
-0.04192925 -0.041260697 0.015727175 -0.0039686523 -0.09432947 0.12343981 0.08006332 0.053773098
0.055286743 0.069794804 -0.04060668 0.018260432 -0.049382966 -0.053258356 0.105235696 -0.022507193
0.0159544 -0.02666424 -0.0057647554 -0.0013126653 0.018340651 -0.048862614 0.39816535 -0.028654737
-0.038067453 -0.22556111 0.07528291 -0.014685731 -0.29924586 0.093884006 -0.06382968 -0.057291154
0.13962112 -0.1210402 0.02724023 -0.007064027 0.06131426 -0.18037897 -0.062964566 0.054091007
-0.03878308 -0.006767484 -0.057028897 -0.015202604 0.059259325 0.08745634 0.03751718 0.027863597
0.04379495 -0.025154432 0.010840255 0.011769941 -0.082714245 -0.04045369 0.057546012 -0.03152704
0.052907467 0.062810466 -0.025110627 -0.0025573196 -0.025347752 0.062406622 0.045280416 0.005781553
0.04418209 -0.051621784 -0.04313656 -0.02278274 0.06439307 0.049709488 0.058863126 -0.056415807
0.029645318 -0.05049412 -0.0038238077 -0.06362308 0.010802799 0.08740119 0.06714157 -0.01987498
-0.04748535 0.05387673 0.035484485 -0.0041805706 0.03986454 -0.035310287 0.019342331 0.053564712
0.0617962 -0.03693977 0.048032 -0.015835471 -0.0035361573 0.054261938 -0.07464765 0.04073082
0.0012121516 0.023228941 -0.014701689 -0.067711785 0.020018233 0.058507387 0.007467496 -0.0028379334
-0.046463687 0.09065185 0.063123934 -0.03197344 -0.021315373 -0.014859546 0.0031864597 0.055327702
-0.05005842 0.0651039 0.0247131 0.07465618 0.0199542 -0.01104507 -0.003936532 0.02227353
0.0705391 0.030398678 0.041256707 0.15736568 0.012825534 0.10921186 -0.08274041 -0.03745367
0.031142995 0.053992413 -0.04712296 -0.041792717 -0.04803035 -0.029441183 0.07956373 0.06589492
-0.03224669 0.030884419 -0.06431464 -0.058443144 -0.034004435 -0.026259493 -0.082784034 -0.012693678
0.043582484 0.023432342 0.015031942 -0.07404567 -0.036880523 0.019329296 -0.04058155 0.027388325
-0.00072606595 -0.040866707 0.040059317 0.05029245 -0.021963848 0.0067271385 -0.08208548 -0.06448368
0.0453565 -0.021436615 -0.036684245 -0.008741522 -0.015388667 0.0033507305 -0.06816012 0.03976165
-0.031380817 -0.07039227 -0.0456781 0.015148099 0.041426003 -0.012914703 -0.029317569 0.014523317
-0.020369591 -0.0038799057 0.02492482 0.020248227 0.060133662 0.055905364 -0.06933423 -0.05004706
0.038889065 0.008281703 0.08097093 -0.03550572 0.0013805913 0.07286128 -0.0007444856 -0.0003829079
0.07705286 -0.0717906 -0.007988016 -0.044170793 -0.030492548 -0.009363526 0.035169106 0.0025636253
00000000: 9d02 63bd 48f3 47bd 1d14 843c d0c6 8d3d
00000010: fa82 2dbc 29c4 58bd 2ae9 43bd cc85 b23c
00000020: 7d67 06bc 0652 d3ba 94dc be3d e10d 09bd
00000030: 8216 dbbd e2ad aa3d 8039 673d 0af7 48bb
00000040: eec7 233d 174c 8d3d 42b0 1e3c b3fc 8d3d
00000050: 7d57 8dbc 12f0 293d d847 b73d 9fdd 0e3d
00000060: 94f2 d7bb f21b 2dbd 4846 473d 689c 283d
00000070: 92cd c0bb d035 29bd f6dc 26bd 7b0d 773d
00000080: c11b 713d 8969 913c 07c1 4a3d 0180 a5bd
00000090: f96e 41bb 415c 9e3c e118 8fbd 7a85 debd
000000a0: 490f 2ebd a11f 9e3c e641 ab3d 1c54 7dbd
000000b0: d2b3 debc bd21 50bd 3e34 363c b6d9 98bd
000000c0: 9fc7 d4ba 5488 0b3d 0e50 3f3d f2a8 22bd
000000d0: e75b b5bb 0711 2abc ff16 4b3d ab9f 89bc
000000e0: 01be 2bbd fa00 29bd 47d6 803c 780b 82bb
000000f0: cf2f c1bd 03ce fc3d 3df8 a33d 2e41 5c3d
00000100: 5a74 623d 94f0 8e3d 3153 26bd e796 953c
00000110: cb45 4abd 6f25 5abd d085 d73d 0161 b8bc
00000120: cdb2 823c f76e dabc 46e6 bcbb bd0d acba
00000130: 223f 963c 2a24 48bd 54dc cb3e 57bd eabc
00000140: 9eec 1bbd 7ef9 66be ed2d 9a3d 6c9c 70bc
00000150: c136 99be 4246 c03d 23b9 82bd 21aa 6abd
00000160: d7f8 0e3e ede3 f7bd e726 df3c 5a79 e7bb
00000170: a924 7b3d 44b5 38be 91f3 80bd 888e 5d3d
00000180: 02db 1ebd c5c1 ddbb 2297 69bd 5814 79bc
00000190: e8b9 723d 4f1c b33d 9dab 193d 3342 e43c
000001a0: 5562 333d ab10 cebc 539b 313c b6d6 403c
000001b0: 1666 a9bd c5b2 25bd 5eb5 6b3d 7f22 01bd
000001c0: 80b5 583d c6a2 803d cdb4 cdbc b498 27bb
000001d0: 17a6 cfbc 169e 7f3d f577 393d 2f73 bd3b
000001e0: 47f8 343d 5d71 53bd f6af 30bd dea2 babc
000001f0: 84e0 833d 2d9c 4b3d 761a 713d 4314 67bd
00000200: bdda f23c ecd2 4ebd d998 7abb d14c 82bd
00000210: 39fe 303c 65ff b23d 8581 893d dbd0 a2bc
00000220: 0080 42bd d9ad 5c3d 2e58 113d 2bfd 88bb
00000230: 0049 233d 85a1 10bd cf73 9e3c ac66 5b3d
00000240: 031e 7d3d 284e 17bd 34bd 443d 64b9 81bc
00000250: e0be 67bb c441 5e3d dee0 98bd 5cd5 263d
00000260: 0fe1 9e3a 9f4a be3c 5adf 70bc 7aac 8abd
00000270: 47fd a33c 71a5 6f3d e6b1 f43b 9ffc 39bb
00000280: b550 3ebd ada7 b93d 1f47 813d 95f6 02bd
00000290: 949d aebc 7475 73bc ecd3 503b 4d9f 623d
000002a0: 0f0a 4dbd 3255 853d 2173 ca3c 57e5 983d
000002b0: fe76 a33c 62f6 34bc 06fe 80bb fa76 b63c
000002c0: ce76 903d a606 f93c cbfc 283d 7824 213e
000002d0: 3022 523c 78aa df3d ce73 a9bd 0569 19bd
000002e0: 981f ff3c 2627 5d3d 0104 41bd d72e 2bbd
000002f0: 79bb 44bd a32e f1bc 4ff2 a23d eaf3 863d
00000300: 1b15 04bd 5201 fd3c 65b7 83bd 1462 6fbd
00000310: 3c48 0bbd 261e d7bc ad8a a9bd 25f9 4fbc
00000320: 8c83 323d 2ff5 bf3c 8948 763c 42a5 97bd
00000330: 0810 17bd 7958 9e3c d738 26bd 7b5d e03c
00000340: 7655 3eba d963 27bd 3d15 243d 75ff 4d3d
00000350: 87ed b3bc 546f dc3b 6f1c a8bd 0510 84bd
00000360: bdc7 393d d79b afbc 3842 16bd 9a38 0fbc
00000370: bf20 7cbc ee97 5b3b 8897 8bbd 1ddd 223d
00000380: 2c89 00bd d329 90bd f618 3bbd bb2f 783c
00000390: 50ae 293d 3198 53bc 662b f0bc 35f3 6d3c
000003a0: 21de a6bc 0446 7ebb 232f cc3c 9cdf a53c
000003b0: b74e 763d 06fd 643d 1bff 8dbd 25fe 4cbd
000003c0: 244a 1f3d fbaf 073c 16d4 a53d 726e 11bd
000003d0: f5f4 b43a 4b38 953d 9529 43ba 07c1 c8b9
000003e0: e4cd 9d3d f306 93bd 2be0 02bc 6fec 34bd
000003f0: 82cb f9bc 7969 19bc 7b0d 103d 7f02 283b

fc1_1.bias f4 [200]
0.008578804 -0.0103819445 -0.008237884 -0.019666435 -0.034044556 0.048694164 0.01727787 -0.011904359
0.05460172 -0.007898308 -0.019398397 -0.070802405 -0.032620475 0.059526082 -0.01427784 0.01665262
-0.05186757 0.011510158 0.07240086 0.03147042 -0.0020976758 -0.00853004 -0.010309314 0.007436913
0.044257347 0.038340166 0.00048138064 -0.013358751 -0.022382783 -0.021068227 -0.030401705 -0.06773281
0.052557107 -0.012116109 0.004370317 0.036145274 -0.038218215 0.040509004 0.05343628 0.064348266
-0.016670965 -0.09847199 -0.06152518 -0.022890346 0.0671293 -0.048635494 -0.028942743 -0.036689837
0.014752022 0.03143612 0.029390005 0.017814849 -0.04474084 0.025815351 -0.033147547 -0.0039143353
0.015214124 -0.07169278 -0.06115876 -0.035305206 -0.050585955 -0.05307401 0.055351086 -0.05860057
-0.00029852698 -0.02457529 0.040070336 -0.047634985 -0.038090616 0.05251293 -0.050969727 0.015187173
0.03470892 -0.029576492 0.014761568 0.055577252 -0.029320188 0.04886008 -0.0075667994 0.019599112
-0.04325173 0.06561657 0.038911548 -0.007866051 0.05174211 0.05135776 0.0069275135 0.04520936
-0.05356958 -0.017029481 0.0652992 0.01624744 0.029135846 0.042987186 0.075704314 -0.03342496
0.05279979 -0.0427433 0.0016265081 -0.008166248 -0.019349445 -0.05130787 -0.045315694 0.019243428
-0.02455973 0.036289543 -0.0065244087 -0.024230963 -0.041130073 0.03515241 -0.0119070215 0.0135863805
8.291159e-06 -0.051394604 -0.03628221 0.06965477 0.060301337 -0.061364073 -0.03360137 -0.06697128
0.03957313 0.07057653 0.057845034 -0.0024804524 0.035999604 0.05218549 -0.06469626 -0.04106597
0.04621604 0.02245725 -0.04003267 -0.033947337 0.0026349116 -0.05207261 0.049164146 0.0612818
-0.010999706 -0.066161714 -0.03741231 0.033789106 -0.02083956 -0.08372518 0.004582011 -0.042940475
-0.044284835 0.040545423 -0.033870414 0.0775147 -0.051148705 0.037519936 0.017115993 -0.007468618
0.02887639 -0.0306306 0.015785292 -0.047076866 -0.034490753 0.0108377235 0.026253019 -0.022601798
0.033113115 0.06441752 -0.0034938215 0.03622949 -0.03695736 0.022776261 0.014157047 0.044335175
0.05428612 -0.066287726 0.03163269 -0.04730021 -0.04078836 0.061403453 -0.026828337 0.03320078
-0.057261102 -0.03546513 0.026868187 0.016846437 0.0382146 -0.021920105 0.048793405 -0.053529438
-0.052087586 -0.04018797 0.04041915 0.005448642 0.0016304278 -0.026411941 0.054281026 0.059809085
0.029899297 0.049309444 -0.043504722 0.02137371 -0.055984236 -0.023066873 -0.033615027 0.030946456
00000000: 1d8e 0c3c 0819 2abc 31f8 06bc 811b a1bc
00000010: 4e72 0bbd 8873 473d 528a 8d3c 800a 43bc
00000020: 0ea6 5f3d e867 01bc 63e9 9ebc da00 91bd
00000030: 0c9d 05bd 9fd1 733d 9aed 69bc 136b 883c
00000040: 1773 54bd 1a95 3c3c e746 943d 21e7 003d
00000050: 2979 09bb 95c1 0bbc 66e8 28bc 59b1 f33b
00000060: 3147 353d 940a 1d3d d161 fc39 aade 5abc
00000070: 195c b7bc 4697 acbc ff0c f9bc 80b7 8abd
00000080: 1f46 573d a582 46bc e034 8f3b 110d 143d
00000090: b48a 1cbd c5ec 253d 00e0 5a3d 06c9 833d
000000a0: 8c91 88bc afab c9bd d401 7cbd 8984 bbbc
000000b0: 167b 893d 0336 47bd 5519 edbc 1548 16bd
000000c0: 77b2 713c 29c3 003d 4fc3 f03c 72f0 913c
000000d0: 2c42 37bd b77a d33c b9c5 07bd d343 80bb
000000e0: a944 793c aad3 92bd 9c81 7abd 319c 10bd
000000f0: 3833 4fbd 2264 59bd d2b7 623d 2707 70bd
00000100: 9d83 9cb9 1e52 c9bc cb20 243d e71c 43bd
00000110: e804 1cbd cc17 573d a2c5 50bd 9fd3 783c
00000120: f12a 0e3d 664a f2bc 81da 713c f9a4 633d
00000130: e430 f0bc 8221 483d eaf2 f7bb 518e a03c
00000140: ba28 31bd fb61 863d b761 1f3d 9ce0 00bc
00000150: 89ef 533d 845c 523d 3200 e33b 732d 393d
00000160: c76b 5bbd 6981 8bbc 96bb 853d 5a19 853c
00000170: 4cae ee3c 5513 303d dd0a 9b3d 9ce8 08bd
00000180: 9844 583d 9913 2fbd 8e30 d53a bacb 05bc
00000190: ba82 9ebc 3328 52bd f39c 39bd 65a4 9d3c
000001a0: 7d31 c9bc 58a4 143d b5ca d5bb 0380 c6bc
000001b0: 0278 28bd f9fb 0f3d ab15 43bc 6999 5e3c
000001c0: 421a 0b37 2683 52bd a89c 14bd 29a7 8e3d
000001d0: 89fe 763d e558 7bbd 97a1 09bd 3d28 89bd
000001e0: 6f17 223d 6e8a 903d eaee 6c3d 168f 22bb
000001f0: 5274 133d 74c0 553d 797f 84bd ca34 28bd
00000200: 084d 3d3d 44f8 b73c 4cf9 23bd 5d0c 0bbd
00000210: 7bae 2c3b 174a 55bd 5860 493d a002 7b3d
00000220: 1c38 34bc cb7f 87bd a63d 19bd 7266 0a3d
00000230: bab7 aabc 1b78 abbd b224 963b 5ae2 2fbd
00000240: 0464 35bd f512 263d b4bb 0abd 07c0 9e3d
00000250: 4e81 51bd 81ae 193d d736 8c3c 4fbb f4bb
00000260: 2e8e ec3c 06ed fabc 2850 813c acd3 40bd
00000270: 2d46 0dbd b590 313c 9210 d73c 6827 b9bc
00000280: 9ea1 073d 55ed 833d 99f8 64bb 6065 143d
00000290: 9a60 17bd 4895 ba3c f5f2 673c cd98 353d
000002a0: 1f5b 5e3d dcc1 87bd 4891 013d ddbd 41bd
000002b0: b211 27bd 3082 7b3d 1ac7 dbbc 8bfd 073d
000002c0: 9e8a 6abd e243 11bd ac1a dc3c 8a01 8a3c
000002d0: ea86 1c3d cb91 b3bc 98db 473d af41 5bbd
000002e0: cb59 55bd 249c 24bd 8d8e 253d 868a b23b
000002f0: 14b4 d53a db5d d8bc c855 5e3d 5ffa 743d
00000300: 5fef f43c b3f8 493d 0232 32bd eb17 af3c
00000310: ba4f 65bd bdf6 bcbc e9af 09bd 6c83 fd3c

fc1_2.weight f4 [200, 192]
-0.016116017 0.047268305 -0.006414758 0.0028400775 0.02184476 -0.052877117 0.05928311 -0.018268611
-0.058190595 -0.068843186 -0.056415856 -0.01102971 0.0037943183 -0.014329527 -0.08220142 0.053840723
0.011964516 0.066665195 0.014088964 0.0656092 -0.016990563 0.06525189 0.022116033 -0.047849864
-0.0703603 0.011098774 -0.031200504 0.056406043 -0.077476025 0.061724633 -0.017564332 0.037387
0.018357076 0.022795472 0.064585686 0.046909127 -0.041921064 0.009579629 0.043525033 -0.064041615
-0.063875735 -0.008571715 0.026555035 0.02507266 0.023369655 -0.0467055 -0.07441469 0.049527414
0.024019364 -0.029164106 -0.09232479 -0.02093746 0.014822341 -0.017770538 0.036082312 -0.08675155
0.05059345 -0.03807579 0.0076383064 -0.02532888 0.07712385 0.0535125 -0.07327937 -0.10333449
0.031634584 0.03691271 0.0007824965 -0.011959253 -0.022618573 -0.051022984 0.06680771 0.02361925
0.027679572 0.02489492 0.0702273 -0.017009363 -0.03712003 0.033973154 -0.010768294 0.05924251
-0.06536163 -0.011494643 0.039732296 0.020963686 0.03956382 -0.0046784966 0.031834256 0.055195566
-0.03653856 -0.012941728 -0.031186657 -0.063126475 0.039095182 -0.017297953 -0.06215398 0.04003458
0.037099063 -0.038025368 -0.03757968 -0.034545247 0.0021740026 -0.059734285 0.054258198 -0.052873768
0.053595107 0.04085473 -0.0683708 -0.034811437 0.0016239705 0.03308814 -0.03563908 -0.029168472
-0.020879528 0.048459984 0.023536716 0.044757627 0.045957513 0.057112604 0.034222677 -0.042290755
-0.060141135 0.007950551 0.047131892 0.017794065 0.0276613 0.04526058 -0.039598934 -0.055422705
-0.04258628 0.069963 -0.02051747 -0.05397016 -0.01901875 0.02192354 -0.01983769 0.042670432
-0.00640393 -0.05144446 0.0025967022 0.064588435 -0.066588424 -0.049913 0.0005820235 -0.04727807
-0.0007769514 -0.05781946 0.062308226 -0.020176347 0.038374003 0.036352403 -0.059898578 -0.03580873
-0.032775138 -0.00015629118 0.051059447 0.016690265 -0.021128953 -0.028902639 0.060278706 0.075988546
-0.042738505 0.001432967 0.021055626 -0.041750807 0.04571939 0.07378369 -0.0030715575 0.0028757786
-0.042830184 0.030756846 0.0437371 -0.0628536 0.02300405 0.059148844 0.033810556 -0.053319253
-0.024835337 0.012207824 0.024003841 0.04612107 -0.02369882 0.0700294 0.08969055 0.0636756
-0.04905102 0.057585448 -0.06776009 -0.060256243 0.06642422 0.044367976 -0.050954375 -0.08198565
-0.0131117515 0.019595342 -0.050978962 -0.02177256 -0.0012601176 0.05817445 -0.043038856 0.058875795
0.0510318 0.0021031774 -0.084204175 0.0765465 -0.0016986546 0.019001191 -0.0442028 -0.07464994
-0.070162326 0.039648082 -0.008421012 0.01768939 -0.05142674 -0.0014709047 0.026167987 -0.045270886
-0.05807025 0.044710368 0.04910055 -0.044597868 0.016968444 -0.08132948 -0.015665902 0.02694422
-0.019852536 -0.033374995 0.031295232 -0.068737976 -0.09016783 -0.07187283 0.02553227 -0.033106636
-0.0040438613 0.041769758 -0.07666956 -0.027263423 0.058721308 -0.046241947 0.039179213 0.056955684
0.0027778838 0.07252647 0.0662003 0.039509688 -0.007034657 -0.06291489 -0.012816487 0.013156691
0.043607395 -0.07628795 0.05066436 0.036516786 0.030043663 0.037212837 -0.031335667 0.07369705
00000000: bd05 84bc 699c 413d e432 d2bb 9820 3a3b
00000010: c8f3 b23c ad95 58bd d9d2 723d 0ea8 95bc
00000020: 4359 6ebd a8fd 8cbd 5014 67bd f5b5 34bc
00000030: 19aa 783b 64c6 6abc 3859 a8bd 1788 5c3d
00000040: d106 443c c387 883d 66d5 663c 1e5e 863d
00000050: cb2f 8bbc c8a2 853d af2c b53c 38fe 43bd
00000060: 1019 90bd a2d7 353c 3398 ffbc 060a 673d
00000070: c0ab 9ebd f8d2 7c3d 13e3 8fbc 1c23 193d
00000080: 9461 963c 92bd ba3c 8045 843d c923 403d
00000090: 6cb5 2bbd e0f3 1c3c 4e47 323d 4028 83bd
000000a0: 48d1 82bd 6170 0cbc f289 d93c 2e65 cd3c
000000b0: b871 bf3c 444e 3fbd bb66 98bd 42dd 4a3d
000000c0: 42c4 c43c 90e9 eebc c814 bdbd 0985 abbc
000000d0: 67d9 723c 8593 91bc 0ccb 133d ccaa b1bd
000000e0: 143b 4f3d 5cf5 1bbd c24a fa3b 837e cfbc
000000f0: 1cf3 9d3d ec2f 5b3d 7f13 96bd 08a1 d3bd
00000100: 4493 013d c831 173d 7420 4d3a bef0 43bc
00000110: 964a b9bc 7afd 50bd 7bd2 883d 287d c13c
00000120: 45c0 e23c 6ef0 cb3c 55d3 8f3d 3857 8bbc
00000130: 2c0b 18bd 6f27 0b3d 806d 30bc 46a8 723d
00000140: 51dc 85bd 0754 3cbc 55be 223d 09bc ab3c
00000150: ac0d 223d 134e 99bb a364 023d bf14 623d
00000160: 75a9 15bd 8b09 54bc 297b ffbc 7448 81bd
00000170: 4522 203d 70b4 8dbc 2c95 7ebd 4dfb 233d
00000180: 30f5 173d 7dc0 1bbd 27ed 19bd 517f 0dbd
00000190: b679 0e3b f0ab 74bd d83d 5e3d 2a92 58bd
000001a0: 8b86 5b3d 4a57 273d fd05 8cbd 7096 0ebd
000001b0: 68db d43a 6e87 073d 49fa 11bd b8f2 eebc
000001c0: 8b0b abbc fa7d 463d 12d0 c03c c653 373d
000001d0: f23d 3c3d e8ee 693d 142d 0c3d 1239 2dbd
000001e0: 8d56 76bd 0743 023c 5f0d 413d dcc4 913c
000001f0: f399 e23c 2863 393d 7e32 22bd eb02 63bd
00000200: f36e 2ebd c348 8f3d 4114 a8bc d10f 5dbd
00000210: 36cd 9bbc ff98 b33c a782 a2bc 31c7 2e3d
00000220: 0fd8 d1bb 6db7 52bd 6f2d 2a3b f146 843d
00000230: 835f 88bd 9371 4cbd f092 183a a6a6 41bd
00000240: 53ac 4bba 19d4 6cbd e936 7f3d de48 a5bc
00000250: 0f2e 1d3d 42e6 143d 3658 75bd 2dac 12bd
00000260: 393f 06bd 18e2 23b9 b623 513d 06ba 883c
00000270: a016 adbc 3ac5 ecbc cee6 763d e29f 9b3d
00000280: 920e 2fbd 65d2 bb3a d97c ac3c e502 2bbd
00000290: 4144 3b3d e71b 973d 2f4c 49bb 8f77 3c3b
000002a0: b46e 2fbd c8f5 fb3c ac25 333d 63b9 80bd
000002b0: fd72 bc3c 0f46 723d f07c 0a3d 4a65 5abd
000002c0: 7a73 cbbc 5303 483c b4a3 c43c 72e9 3c3d
000002d0: 0724 c2bc 936b 8f3d aeaf b73d 5a68 823d
000002e0: b9e9 48bd b8de 6b3d cdc5 8abd 40cf 76bd
000002f0: 6c09 883d 32bb 353d 89b5 50bd 18e8 a7bd
00000300: acd2 56bc 6986 a03c 51cf 50bd 5e5c b2bc
00000310: 882a a5ba 5548 6e3d 8349 30bd bf27 713d
00000320: b906 513d 76d5 093b 3d73 acbd 69c4 9c3d
00000330: 64a5 deba 63a8 9b3c ff0d 35bd 11e2 98bd
00000340: 44b1 8fbd 0766 223d 49f8 09bc 57e9 903c
00000350: d8a4 52bd 5fcb c0ba 3f5e d63c f76d 39bd
00000360: 12db 6dbd 3822 373d a91d 493d 41ac 36bd
00000370: 6801 8b3c 1290 a6bd c755 80bc 20ba dc3c
00000380: c9a1 a2bc 38b4 08bd 6e2f 003d 7fc6 8cbd
00000390: e9a9 b8bd 1032 93bd 0d29 d13c d39a 07bd
000003a0: 5e82 84bb c416 2b3d ee04 9dbd 8b57 dfbc
000003b0: c185 703d 3268 3dbd 627a 203d 5d4a 693d
000003c0: 280d 363b c288 943d 0694 873d e9d4 213d
000003d0: fb82 e6bb 86d9 80bd 3efc 51bc 298f 573c
000003e0: ab9d 323d db3c 9cbd 6f85 4f3d a092 153d
000003f0: 211e f63c 7d6c 183d d459 00bd 7bee 963d

fc1_2.bias f4 [200]
0.05678957 0.03873748 -0.04302044 0.023826478 0.0351137 0.05562068 0.009433018 -0.06486058
0.049534593 -0.0063450886 0.014790292 0.028345495 -0.06446141 0.023193015 0.036609508 0.06305144
0.009670688 0.05691801 -0.020107238 -0.028740916 0.062975615 0.05146531 0.038110144 0.04929237
-0.082673624 0.006566181 -0.056644227 -0.05374825 0.024058554 0.022539085 -0.08142965 -0.031479593
0.02138641 0.060269006 0.036541127 -0.048265565 0.026805967 -0.032151468 0.06916436 0.0575415
0.029325569 0.068260625 -0.02966982 0.03121529 -0.032142743 0.006646577 0.015853103 -0.04585065
0.015723167 0.011683677 0.0694824 -0.04215624 0.0032157598 0.02999308 0.018739896 0.04161743
0.036321614 0.018314563 -0.031295907 -0.021002393 0.02565974 -0.046615392 -0.01897234 0.035224736
0.027054437 0.01127861 -0.008868623 0.001147801 0.055448443 -0.01985844 0.054545343 0.07057194
-0.009229018 0.04625948 -0.0065441453 -0.010200754 0.007738065 0.06217501 -0.032501165 0.0132577745
-0.0031627612 0.05399295 -0.0065273196 -0.029581212 -0.053099383 0.042690936 0.06806174 0.0108286375
-0.048532322 0.017501678 0.032509036 -0.026259542 -0.006122666 0.025987431 -0.058880918 0.041855507
0.0023272126 0.052977525 -0.038791604 -0.05924542 -0.04025845 -0.043342464 -0.025371121 -0.06451049
-0.01222415 -0.05113793 0.05501177 0.061778035 -0.0702439 -0.08852227 -0.03554145 0.027306017
0.061221562 0.04508817 0.05452764 -0.027311767 -0.013981735 0.012368863 0.065551534 0.03738398
0.06631799 -0.029172985 -0.034315646 0.018799808 0.02600738 0.023460979 -0.023298588 0.030326894
-0.045361906 0.0518918 -0.06914388 0.03654646 -0.041990675 0.009383414 -0.05423244 -0.061145626
0.0561131 -0.03560349 -0.024470296 -0.07880216 0.046894394 -0.054588933 0.025407065 -0.0533812
0.059900615 -0.021780804 -0.063509874 0.051795974 -0.058044795 0.039210346 -0.018363629 -0.01378866
-0.018096434 -0.03433415 -0.0041532037 -0.07070915 -0.042137723 -0.008632046 -0.07168914 0.075729035
0.037143447 -0.06920902 -0.01912753 0.03325817 -0.014008265 0.050034262 0.043329023 -0.036728807
0.0016219218 0.04541967 -0.032418653 -0.0391929 -0.06960088 -0.002924799 -0.009181495 -0.05449195
-0.02975735 -0.015121784 0.062157985 -0.013093263 0.0024211493 -0.011304586 0.07195254 0.017442437
-0.044276137 0.007366588 -0.024447875 -0.070205666 0.007902672 -0.012723439 0.012550253 0.008752609
-0.0101182135 0.07088832 0.041739672 -0.0022874684 -0.087384015 -0.058603175 -0.07732453 0.0034682227
00000000: 2e9c 683d 31ab 1e3d 3336 30bd bf2f c33c
00000010: 62d3 0f3d 83d2 633d f28c 1a3c a0d5 84bd
00000020: c9e4 4a3d 76ea cfbb fb52 723c d034 e83c
00000030: 5804 84bd 47ff bd3c daf3 153d 1d21 813d
00000040: ce71 1e3c dc22 693d efb7 a4bc 1272 ebbc
00000050: 5cf9 803d 4acd 523d 6219 1c3d cce6 493d
00000060: ca50 a9bd 1e29 d73b c703 68bd 2027 5cbd
00000070: 7216 c53c e3a3 b83c 97c4 a6bd bff0 00bd
00000080: 8d32 af3c a2dc 763d 26ac 153d 1db2 45bd
00000090: 3098 db3c 42b1 03bd 0ba6 8d3d a3b0 6b3d
000000a0: 2d3c f03c 3acc 8b3d 1f0e f3bc 35b7 ff3c
000000b0: 1ca8 03bd 87cb d93b 5ede 813c e4cd 3bbd
000000c0: dfcd 803c e56c 3f3c ca4c 8e3d 06ac 2cbd
000000d0: 7fbf 523b 0cb4 f53c 6984 993c 0a77 2a3d
000000e0: f9c5 143d 6c08 963c 2330 00bd 360d acbc
000000f0: 6034 d23c c8ef 3ebd e16b 9bbc d047 103d
00000100: 44a1 dd3c ebc9 383c b34d 11bc d071 963a
00000110: e81d 633d 2bae a2bc f06a 5f3d 0588 903d
00000120: 4f35 17bc 957a 3d3d 4570 d6bb 1021 27bc
00000130: 988f fd3b 39ab 7e3d f11f 05bd 2337 593c
00000140: 5446 4fbb b627 5d3d 20e3 d5bb 4c54 f2bc
00000150: bd7e 59bd b1dc 2e3d f463 8b3d 996a 313c
00000160: d4c9 46bd ae5f 8f3c 3228 053d 401e d7bc
00000170: a5a0 c8bb 98e3 d43c 1e2d 71bd ae70 2b3d
00000180: 2684 183b f6fe 583d f2e3 1ebd 53ab 72bd
00000190: 0be6 24bd de87 31bd 19d7 cfbc 131e 84bd
000001a0: cd47 48bc 0276 51bd 0654 613d f70a 7d3d
000001b0: 09dc 8fbd 2a4b b5bd e993 11bd deb0 df3c
000001c0: 76c3 7a3d 5fae 383d 6058 5f3d edbc dfbc
000001d0: a613 65bc c6a6 4a3c e23f 863d f21f 193d
000001e0: bad1 873d 2ffc eebc 908e 0cbd 0e02 9a3c
000001f0: 6e0d d53c 3d31 c03c aedc bebc 1b70 f83c
00000200: 68cd 39bd 7f8c 543d 4e9b 8dbd beb1 153d
00000210: 6afe 2bbd e4bc 193c d622 5ebd d673 7abd
00000220: dad6 653d f7d4 11bd ee75 c8bc 0763 a1bd
00000230: 5614 403d a598 5fbd 7a22 d03c 3fa6 5abd
00000240: 595a 753d a86d b2bc 7711 82bd 0428 543d
00000250: 61c0 6dbd 079b 203d 526f 96bc d5e9 61bc
00000260: f93e 94bc f7a1 0cbd 9917 88bb f5cf 90bd
00000270: 9b98 2cbd 6d6d 0dbc c1d1 92bd d317 9b3d
00000280: ba23 183d 75bd 8dbd 56b1 9cbc b839 083d
00000290: ec82 65bc baf0 4c3d c679 313d f270 16bd
000002a0: aa96 d43a fa09 3a3d 6cc9 04bd bc88 20bd
000002b0: e88a 8ebd fcad 3fbb fb6d 16bc f332 5fbd
000002c0: b0c5 f3bc 5cc1 77bc 5f99 7e3d 2085 56bc
000002d0: 25ac 1e3b df36 39bc da5b 933d 71e3 8e3c
000002e0: e55a 35bd 6b63 f13b e946 c8bc fdc7 8fbd
000002f0: 357a 013c f975 50bc 949f 4d3c 1a67 0f3c
00000300: ddc6 25bc e52d 913d 38f7 2a3d 5ae9 15bb
00000310: 64f6 b2bd e209 70bd 535c 9ebd 1f4b 633b
