training_model/wandb/run-20200708_225006-102m702r/aoa_fir_6cov_1.pt (torch_old, 403058 bytes, 16 tensors)

encode_conv1.weight f4 [4, 50, 3, 3]
000000 85 0b 2c 3d fb 08 37 3d 9d ab 4c bc 4b 61 ed bc
       0.042003173 0.0446863 -0.012492088 -0.028977057
000010 f2 ad 34 3c da 97 f7 bc f3 8b 89 3d d9 ae 82 bb
       0.0110278 -0.030223776 0.06716146 -0.0039881286
000020 df 55 4c bd fb 27 8e bc 46 d6 2c 3d eb a2 17 3c
       -0.04988658 -0.017353049 0.042196535 0.009255151
000030 56 99 1f 3d 61 9b ee bb d7 b7 8e b9 92 5f 99 bc
       0.038964592 -0.007281706 -0.00027221322 -0.01872233
000040 55 d0 aa 3c 73 38 48 3d 4c 9a e4 bb cf bc 03 bd
       0.020851294 0.04888196 -0.0069764014 -0.032162484
000050 ef e1 04 bd b2 31 42 bc c0 0e 33 3c 54 d3 4f bd
       -0.03244203 -0.011852669 0.01092881 -0.050738648
000060 10 45 46 bc 08 3f 9a 3c 15 c4 a0 3c e3 5f 01 3c
       -0.012101427 0.018828884 0.01962475 0.007896396
000070 13 dd 70 bc c2 cb c1 3c 64 96 84 3c 87 c8 f6 bd
       -0.014701146 0.02365673 0.016184993 -0.12049966
000080 64 d6 b5 3c 66 f8 61 3d e5 a3 a7 bc 0e b6 b6 3c
       0.022196956 0.05516853 -0.020463893 0.022303607
000090 b2 f2 c0 bd fd bc 31 b9 27 5d 08 bd 3d 44 3f bd
       -0.094212905 -0.00016950439 -0.033291962 -0.046695936
0000a0 24 02 b4 3d 24 cd 39 bd 13 7b 0b bd c0 ce 66 3d
       0.08789471 -0.045361653 -0.03405292 0.056349516
0000b0 a9 6e 03 bd 8a 65 33 3d 0e 13 e2 3d c2 a0 54 3c
       -0.032087956 0.043798007 0.11038791 0.012977781
0000c0 a2 4d 43 bb a9 f0 c5 3d a8 4e ad bc da 2a 48 bc
       -0.0029800911 0.09665043 -0.02115567 -0.012217248
0000d0 4c 1f 42 3d 95 86 72 3d b5 51 0f 3d 73 41 64 3d
       0.04739313 0.05921038 0.03499003 0.05572648
0000e0 74 48 02 bd 1a c7 2b 3d 30 70 81 3d 75 84 59 ba
       -0.031807378 0.041937925 0.06320226 -0.00082976307
0000f0 3b 09 c8 3d 8d 74 a1 3d 03 1c 47 3d 37 cf 19 3d
       0.097673856 0.078835584 0.0486107 0.03755113
000100 bf 17 0d 3d e7 25 1f 3d af af 82 3d 49 bf 21 3d
       0.034446474 0.038854506 0.06381165 0.039489064
000110 15 24 8f bc 1b 75 84 3c 53 4c 19 bd d5 1c df 3c
       -0.01747326 0.016169121 -0.037426304 0.027235428
000120 91 7e b6 3c f6 49 91 3d 18 7c b2 3d 49 a0 e1 3b
       0.022277148 0.07094185 0.08715075 0.0068855626
000130 8b a8 fa 3d 8f 09 18 3d f4 c4 03 3d 0e b5 8b 3c
       0.12239178 0.03711849 0.03217025 0.017054107
000140 10 00 2a 3d 1f 17 bb 3d 1c f6 a2 3d 62 7a 2c 3d
       0.041503966 0.091352694 0.07957098 0.0421089
000150 e3 ae 29 bb 15 72 e6 3d 94 19 6d 3d 25 89 8a 3c
       -0.0025891594 0.11252228 0.05788572 0.016911099
000160 f7 35 6b 3c db c0 72 3d e2 e1 0f 3d 6d 92 41 3d
       0.014356128 0.059265953 0.035127528 0.047258783
000170 39 a6 38 3d 3d be 55 3d bc 69 96 3d b7 d4 c6 3d
       0.045080397 0.05218338 0.07344386 0.09708541
000180 6e d8 d8 bb c9 9a b3 3d b9 ec 84 3d 99 b0 32 3d
       -0.0066175973 0.08769757 0.06490464 0.043625448
000190 cc 3c 48 bb ee f9 81 3d 92 12 79 3d aa c8 96 3d
       -0.0030553816 0.063464984 0.060808726 0.073624924
0001a0 e5 c6 8f 3d 49 f1 53 bc 9b 8f b7 bd 40 d6 4b bc
       0.07020358 -0.012935945 -0.089629374 -0.012441218
0001b0 19 ab 58 3d c8 1f a6 3d d7 2d c4 3d de ff 28 3c
       0.052897546 0.081115305 0.09579056 0.01031491
0001c0 a6 4b 0c 3e 49 22 83 3d 69 a7 99 bd 6c 2b 2a 3d
       0.13700733 0.06403024 -0.07502634 0.041545317
0001d0 26 9c 95 3d b9 92 17 bd 64 b0 2e bc fa c4 8a 3d
       0.073051736 -0.03700516 -0.010662172 0.067758515
0001e0 6e 45 30 3d 24 11 84 3c b2 6f 77 3c 82 ed db 3b
       0.043034963 0.016121455 0.015102314 0.0067116627
0001f0 a2 ec 80 bd 52 11 0e bc 64 73 17 3e d4 ac 41 bd
       -0.06295134 -0.008671122 0.14790112 -0.047283962
000200 f4 7a 1b bd 3d 47 89 3d db 89 09 bc ac c6 68 bd
       -0.037959054 0.06703041 -0.008394684 -0.056830093
000210 10 a9 aa bc 09 69 ad bd 34 aa 8d bd 87 2e 5b bd
       -0.020832568 -0.084672995 -0.06917229 -0.05351117
000220 f3 e7 80 3d 61 e6 48 bd 8c f8 00 3b 04 a9 88 3d
       0.06294241 -0.04904783 0.0019679395 0.06672862
000230 fb 90 68 bd 26 d5 c8 3c 68 75 d5 3c 3d 59 d8 3a
       -0.05677889 0.0245157 0.02605696 0.0016506087
000240 cc 38 ea bc 80 f2 a2 3b 2c fa 4c bd de 95 2a 3d
       -0.028591536 0.004972756 -0.05004327 0.04164683
000250 0d 55 10 3e bb 9d c8 3c 18 8f c2 3d 1f f9 08 3e
       0.14094944 0.024489274 0.09499949 0.13376282
000260 5a c0 e8 3c 78 db 8b 3c 77 41 f2 bc 5b c0 ba bd
       0.028412033 0.017072424 -0.029572232 -0.0911872
000270 1d 3f 16 bc c6 05 4f bd 0f b2 1f bc ba a4 62 3d
       -0.009170321 -0.050542615 -0.009747042 0.055332877
000280 d1 7c 86 bd 98 39 c0 3b ca 2d 15 3d 78 d7 e4 b9
       -0.065667756 0.0058662407 0.03642062 -0.00043648086
000290 e7 97 b2 3a 65 5d 95 3d 25 0d 66 3d 04 15 d5 bc
       0.0013625593 0.07293204 0.05616488 -0.026010998
0002a0 64 87 e5 3d 64 56 24 3d 4f ca c8 bb 1f ff f6 3c
       0.11207464 0.04012145 -0.0061276327 0.030150948
0002b0 5c a7 aa 3c 8f d1 f5 3c 26 50 10 3d 8e 5f 83 3d
       0.020831756 0.030007152 0.035232686 0.0641471
0002c0 ec 2f e8 bb 5f 9d a1 bd 27 ec 59 3d ae fc bd 3c
       -0.007085791 -0.07891344 0.053203728 0.023191776
0002d0 2c 46 b6 3b 7f e8 05 3d 4f 66 e6 3c 2e 27 45 bc
       0.0055625644 0.03269243 0.028124956 -0.012033267
0002e0 cd df 5f bc 16 8d 8f 3c 74 12 55 bd 27 76 38 3c
       -0.013664198 0.01752333 -0.05201955 0.011258638
0002f0 bc 3c 10 3d 3a c4 f9 3d 91 5f a4 3c 70 2f a1 bd
       0.03521417 0.1219563 0.0200651 -0.07870376
000300 34 ac a0 bc 7c 4d dc 3c d7 69 48 3d ae 64 12 3b
       -0.019613363 0.026892416 0.04892906 0.0022337842
000310 09 90 9e 3c 96 bd 7e bd 31 70 12 3c 2e b6 27 bd
       0.01935579 -0.062192522 0.008937881 -0.040945224
000320 9b 0f b2 bc de f3 ff 3c 33 c1 7c bc 8b e5 f4 bd
       -0.021735957 0.031244215 -0.015426922 -0.11957844
000330 5c d2 6e 3d 5e d2 89 bb 60 a5 2e bd 8a 32 21 3b
       0.058306083 -0.004205986 -0.042638183 0.0024596774
000340 61 27 ac bc d3 4a 9f bc dd d4 79 bd c2 e2 5c 3d
       -0.021014871 -0.019444859 -0.060994018 0.05392719
000350 d6 87 57 bb 80 dd a6 3b 83 25 42 3d 62 06 27 bb
       -0.003288736 0.005092323 0.047399055 -0.0025485982
000360 21 20 b0 bc 04 42 62 3d 08 a8 9f bc 54 af 33 bd
       -0.021499695 0.05523874 -0.019489303 -0.043868378
000370 19 40 33 bd bf 82 1d bd 45 26 bd 3c e7 39 84 3b
       -0.0437623 -0.038454767 0.023089537 0.004035223
000380 7d 2a 1f 3d 68 6c f5 bc 67 9a 7f bd d1 3b bd 3c
       0.03885888 -0.029958919 -0.06240311 0.023099812
000390 36 80 9f bd d6 f6 ed bc 9e 86 bc bc 24 aa b8 3b
       -0.07788126 -0.029048365 -0.02301341 0.0056355167
0003a0 69 48 13 3d e4 35 f5 3c ec 9c 41 bd 48 17 31 bd
       0.035957728 0.029932924 -0.047268793 -0.043235093
0003b0 47 4e ac 3c 6c 99 42 3c e7 fe cf 3c 70 a1 df bb
       0.02103342 0.011877399 0.025390102 -0.006824665
0003c0 f4 8a 98 3a 52 0f 83 3d 70 a6 f9 bb 55 1b ec bb
       0.0011638091 0.063994065 -0.007618718 -0.0072054067
0003d0 a8 15 99 3d f5 39 a1 3c 56 e6 70 3d ca 1d 99 bc
       0.07474834 0.019680956 0.058813415 -0.018690962
0003e0 6a 37 55 bd a2 e3 b8 bb 7b b9 2a 3c 85 32 8e bc
       -0.0520548 -0.0056423703 0.010420199 -0.017358074
0003f0 f1 43 a5 bc d5 f1 d0 bb 3c 63 a4 3d ee b7 43 bd
       -0.020173999 -0.006376485 0.0802674 -0.04778283

encode_conv1.bias f4 [4]
000000 4b 56 36 bd dd c0 0e 3d 52 66 af bc 5d 4d 43 bc
       -0.04451589 0.034851898 -0.021411095 -0.0119203

encode_conv2.weight f4 [4, 4, 3, 3]
000000 eb c9 4d 3e 42 48 e7 b9 a8 c6 2a be e5 60 56 bd
       0.20096557 -0.0004411359 -0.16677344 -0.0523385
000010 d3 b6 56 3c 2f 65 a0 bc 95 68 5c 3d eb 03 55 be
       0.013105112 -0.019579498 0.053810675 -0.20802276
000020 c1 d4 15 bd 63 1b 50 be c1 83 2c 3e 3d e5 f5 3d
       -0.03657985 -0.20322947 0.16847135 0.12006614
000030 05 12 af 3d 76 a9 d9 3c 70 1d 9b 3d b4 6a 09 3e
       0.08548359 0.026570063 0.07573974 0.1341961
000040 c9 42 a2 bd c3 ba 3a 3e 4b 20 8e 3e d3 29 47 3e
       -0.079228945 0.18235306 0.27759013 0.19449548
000050 3c 86 67 bd 7e c1 8a 3e 33 2c 0a 3f f3 2d 05 3e
       -0.0565245 0.27100748 0.5397369 0.1300581
000060 ee 01 60 bd d4 64 8d 3e 10 0f 3e 3d 49 fc 18 be
       -0.05468934 0.27615988 0.046401083 -0.14939989
000070 56 11 1f 3c 4c ad f1 bc ad 34 63 bd 88 c2 08 3d
       0.009708723 -0.02950158 -0.055470157 0.033388644
000080 07 56 af bd ea de b1 3d 79 e7 c0 bd 5b e6 9b bd
       -0.0856133 0.086850956 -0.0941915 -0.07612296
000090 4f 2e 03 3e 7b c0 d1 bc bc 72 8e 3d 8a 28 5f bd
       0.12810634 -0.025604477 0.069554776 -0.05448202
0000a0 84 2a 68 3d 69 a1 cf bb fd e3 07 3d 7a e8 c1 bd
       0.05668117 -0.0063363803 0.03317641 -0.094681695
0000b0 2d c5 08 3d 34 6d 2d 3c 0f 35 69 3e 04 be 0a be
       0.033391166 0.010585118 0.22774146 -0.13549048
0000c0 c9 24 4d 3e ea b6 d0 bc 0a 8d 3d bb cf 82 7d 3e
       0.20033564 -0.025477845 -0.0028923177 0.24756931
0000d0 54 e4 1b 3d 22 58 72 3d 38 9b 97 bd 69 fa 81 bd
       0.038059548 0.05916608 -0.074026525 -0.0634659
0000e0 a6 2c 94 3e b2 a4 9d bc 6e a7 18 3e 1e e8 b8 bd
       0.28940314 -0.019243572 0.1490762 -0.09028648
0000f0 98 d0 01 3e e3 01 aa 3d 1e 6d b4 3e 1d 52 84 3d
       0.12677228 0.08301141 0.352395 0.06460974
000100 d9 a7 cf 3d 03 c1 fb 3d 62 f5 38 3e 8c 0d 10 3d
       0.10139436 0.122926734 0.18062356 0.03516917
000110 80 9d 80 3e d0 0d cd bc 03 47 07 3e 42 ed 12 3d
       0.25120163 -0.025031 0.13210683 0.035870798
000120 a4 d7 23 3e a6 db 8a bd 9d df 46 be 47 00 33 3e
       0.16000229 -0.06780176 -0.19421239 0.17480575
000130 86 50 a2 3d d4 23 ce 3d 42 f5 8d 3e 88 89 23 3d
       0.07925515 0.100654274 0.2772618 0.039926082
000140 7f f0 32 3e 6d 0b 08 be 37 47 af 3d 19 5e 26 3e
       0.17474554 -0.13285609 0.08558505 0.16246833
000150 55 ef 1d be 1a 29 7c bd 09 92 4e bd 1f b5 45 bd
       -0.15423329 -0.061562635 -0.05043224 -0.048268434
000160 10 9d 02 3e af 7c b5 3a 62 b1 74 3e 01 d8 03 bd
       0.12755227 0.0013846363 0.23895791 -0.03218842
000170 9c d5 97 3e af 08 b4 3e e9 43 be 3d 00 95 8d 3e
       0.2965516 0.35162875 0.092902966 0.2765274
000180 b6 b2 e7 3c a0 67 e2 3d ad 10 f1 3d 16 c8 d3 bd
       0.028283458 0.11054921 0.11770759 -0.10340898
000190 e1 22 a0 3d e0 6b 17 3e 5f 56 f6 bd 9d 87 cf 3d
       0.078191526 0.14787245 -0.12028193 0.10133288
0001a0 e5 ce 3d bd af 6f e1 3d fd cc 06 3d 55 24 10 be
       -0.046339888 0.1100763 0.032910336 -0.1407636
0001b0 00 1b 51 3d 9d cd 08 be 68 aa 2e be bf 73 fe 3d
       0.05105114 -0.13359685 -0.17057192 0.124244206
0001c0 b7 73 48 3e 0d ff 5d bd 71 a4 3b 3e db 0a fc bd
       0.19575392 -0.054198314 0.18324448 -0.12306758
0001d0 61 41 93 3d 46 10 30 be fc 25 0e 3e 0c 36 22 3e
       0.071902044 -0.17193708 0.13881677 0.1584093
0001e0 d8 f2 20 bd 18 50 99 bc 71 00 41 3e 10 f2 99 bb
       -0.039294094 -0.01871495 0.18847825 -0.0046980456
0001f0 3d 7b 0a 3d ca 24 31 bc ba bb 37 bc 37 a4 57 be
       0.033808935 -0.010811994 -0.011214191 -0.21058737
000200 25 2c 8e be b0 b3 e7 3d e8 10 c4 bd 68 b9 d4 bc
       -0.27768055 0.113135695 -0.09573537 -0.025967315
000210 af 58 32 3d fe 71 55 3e d0 80 c1 be a8 6c 55 3d
       0.043541607 0.20844266 -0.3779359 0.052105576
000220 31 4b 90 bd e3 38 f1 bd 58 6c 48 bd f3 00 fe bd
       -0.070455916 -0.117784284 -0.04893145 -0.12402525
000230 8a c1 0e bd d5 8d ec bd 89 aa c4 bd 92 3b 7e be
       -0.034852542 -0.1155049 -0.096028395 -0.24827412

encode_conv2.bias f4 [4]
000000 57 1c 81 3d 22 a4 3c bd d2 ed a0 bd cb f6 e3 3d
       0.063042335 -0.046054967 -0.078578606 0.111310564

encode_conv3.weight f4 [8, 4, 3, 3]
000000 ed 6b 34 be a6 cf d8 bd b7 fd 2b bd 52 ec 84 3d
       -0.17619295 -0.10586481 -0.04199001 0.06490387
000010 c6 03 11 be c4 fd a0 3d 31 d5 1a be fc 35 2e 3c
       -0.14161596 0.07860902 -0.15120389 0.010632988
000020 02 dd 82 3d 26 f7 d5 3d 47 56 fd 3d 09 14 62 3e
       0.0638981 0.104475304 0.12369972 0.22077955
000030 8a 92 18 3e b0 2f 73 bd 32 cf 00 3d 56 b3 2a 3c
       0.1489965 -0.05937165 0.031447597 0.010418734
000040 e2 3c 22 be b6 69 8b 3d 86 8d aa bd 40 63 ef 3d
       -0.15843537 0.06807272 -0.08327775 0.11688852
000050 13 c2 75 3e 35 51 ba bd ca ee 7a bd a6 3a 74 bd
       0.23999815 -0.0909752 -0.061262883 -0.059626244
000060 55 93 97 bd 1e 2e c7 bc 06 27 a5 bc 25 d0 1d be
       -0.07401148 -0.024313983 -0.02016021 -0.15411432
000070 f0 eb 95 3d fc 9e e6 3d 14 91 cc 3d 09 6d 54 be
       0.07320392 0.112607926 0.09988609 -0.20744719
000080 38 e4 04 bd b0 48 92 bd aa 42 74 3d d1 be ac bd
       -0.03244421 -0.0714277 0.05963389 -0.08434833
000090 bc 07 e8 3c 95 a6 10 bd e4 70 66 3c 03 08 31 3e
       0.028324 -0.035315115 0.014065001 0.17288212
0000a0 6a 3e 42 be e0 e6 f4 3b b3 5b 23 3d ce 42 5c be
       -0.18969122 0.0074738115 0.039882373 -0.21509859
0000b0 73 be e5 bd a9 a4 2c bc 9b 98 e1 3d 77 d5 8e bd
       -0.11217966 -0.010537305 0.11015435 -0.06974309
0000c0 e9 85 dc bc ff d3 36 be 69 51 13 3e 3d dd 1f be
       -0.026919322 -0.17854308 0.14386524 -0.1561174
0000d0 8d 88 9d bd 3e 3b 15 bd 9e 11 a7 bc 8f f2 5d be
       -0.076920606 -0.03643345 -0.020394143 -0.2167456
0000e0 d2 d5 5e 3d f4 90 02 bd 73 f5 45 3d 25 7c 40 3e
       0.054403134 -0.03187652 0.04832978 0.18797357
0000f0 51 e7 e1 bd a5 a0 35 be c4 69 e1 bc ef b9 00 3e
       -0.11030448 -0.17737062 -0.027516253 0.12570928
000100 4a 5c d3 bd 86 23 9b 3d 13 0b 2b bb e6 cd 1b 3e
       -0.10320337 0.07575135 -0.002609913 0.15215263
000110 d9 89 e6 3d 19 36 01 3e ab 6e cd bc 14 eb 2c 3d
       0.11256761 0.12618293 -0.025077185 0.042216375
000120 f9 86 02 be 7f ce f8 bd 73 e0 7e bd 30 bd 3a be
       -0.127468 -0.12148761 -0.06222577 -0.18236232
000130 6d bf 01 be 45 80 05 3d a1 61 28 be 8c 11 33 be
       -0.1267068 0.03259303 -0.16443492 -0.17487162
000140 b9 3f 6a 3e 18 87 79 bd 87 21 4e 3e c8 a1 b0 bc
       0.22875871 -0.06091985 0.20129977 -0.021561518
000150 fc cb e6 bd 23 3b 2c 3e ea 66 10 3b 62 3f 28 3d
       -0.11269376 0.16819434 0.0022033998 0.04107607
000160 c5 a7 ef 3d 29 35 ad bb 7f 65 1f 3c 07 9c a2 3c
       0.117019214 -0.005285878 0.009728788 0.01984979
000170 05 64 b8 bd 6c bd 29 3e fe 60 24 bd 39 24 57 3b
       -0.09003452 0.16576165 -0.04013156 0.0032827987
000180 0f 58 0a 3e 53 84 ee 3d 31 5b c0 3d 41 9f 3a be
       0.13510154 0.116463326 0.093923934 -0.18224813
000190 79 6e 24 3d f7 38 f9 bd 32 31 8e bd b0 96 cc bc
       0.040144417 -0.12169068 -0.06942977 -0.024974197
0001a0 8e 55 a2 3b e1 c6 cf 3d d9 90 1c bc c6 f8 73 3c
       0.0049540466 0.10145355 -0.009556019 0.014890855
0001b0 0f 22 10 be 20 b4 53 3e 93 98 49 3e 18 0a 96 3d
       -0.14075492 0.20674181 0.19687109 0.07326144
0001c0 14 e3 25 3e ea 58 22 3e a3 e3 ec bc 79 21 aa 3d
       0.16199905 0.1585423 -0.02891714 0.08307166
0001d0 f9 d3 12 be 05 5f 0f 3e 9e 80 ff 3d d8 d1 3b 3e
       -0.14338674 0.14001091 0.12475704 0.18341768
0001e0 b4 f4 1f be 83 99 92 3d 7e 15 c7 bb 72 75 ab bd
       -0.1562069 0.07158186 -0.00607556 -0.0837201
0001f0 c0 b3 d7 3d 6f 4a 01 3b 53 17 85 3c 85 73 84 bc
       0.105323315 0.0019728204 0.016246473 -0.016168365
000200 ad 15 54 39 b5 b1 59 3c a1 fa 85 bd 8a da 59 bd
       0.0002022597 0.013286998 -0.06541944 -0.05318693
000210 be 17 02 3e dc 84 d7 3d eb 6f 15 3d f9 69 1f 3e
       0.1270437 0.10523388 0.036483686 0.15567769
000220 25 87 99 3d 81 f8 44 3e 9b 37 d9 ba 65 a7 8f bd
       0.0749648 0.19235422 -0.0016572358 -0.0701435
000230 cb 9a 91 bd 21 ba bd bd 53 b3 00 be 6c 52 13 3d
       -0.071096025 -0.09264017 -0.12568407 0.035967276
000240 89 61 29 bc 89 58 31 3d ca fb e9 3d 80 e4 3a be
       -0.010338196 0.043297324 0.11424978 -0.18251228
000250 7e e9 49 3e 60 9a 29 be 2b 96 0a 3e 03 1b 66 3d
       0.19717976 -0.16562796 0.13533847 0.056178104
000260 e2 95 30 be 95 5f 90 3d 0f 1e dc 3b ce be 16 3e
       -0.17244676 0.07049481 0.0067174505 0.14721224
000270 f0 66 de 3d 2e 8d 9b 3d e4 1f 1f 3e 67 38 ea 3c
       0.108594775 0.07595287 0.15539509 0.028591348
000280 6d ae 18 3e ad c4 17 3e 53 8b 1c bc ab 1c 9a 3d
       0.14910288 0.1482112 -0.009554702 0.07524999
000290 a1 af 25 bd 47 22 24 3e dd 3f 6f bd f7 0f ea bd
       -0.040450696 0.16028701 -0.058410514 -0.11428826
0002a0 b6 4d 3e 3e 53 3d 2b be f5 ab 0d bd df 12 97 3d
       0.18584332 -0.16722612 -0.03458782 0.07376646
0002b0 ce 01 61 3e b2 a1 4c 3d 07 bd c3 bd f2 fa 88 3d
       0.21973345 0.049958892 -0.095575385 0.06688489
0002c0 0b 76 4c bb 61 07 2d bd c4 ac 5d 3e 91 fc 29 3d
       -0.0031198289 -0.042243365 0.21647936 0.04150063
0002d0 7b cb 40 3d 18 c8 9c bd 60 30 4b 3e 32 99 3b be
       0.047069054 -0.07655352 0.19842672 -0.18320158
0002e0 4d e4 36 3d c9 34 88 bd 4a 4c b2 3d 8a d5 1c be
       0.04465132 -0.06650693 0.08705957 -0.15315834
0002f0 13 64 b3 3d 3d 09 ff bd d7 0b 2c 3e 96 76 c8 3d
       0.08759322 -0.12452934 0.16801392 0.097882435
000300 ba 83 16 3c 56 21 5e 3e 30 24 b2 3d b9 d8 13 be
       0.0091866795 0.21692404 0.086983085 -0.14438142
000310 b5 a1 fc bc 64 bc 1f be cb 71 ad 3d b6 67 16 be
       -0.030838827 -0.15599209 0.0846897 -0.14688
000320 48 f4 56 3e 94 36 0d 3d 4e cc 16 be 36 56 c0 bb
       0.20991623 0.034475878 -0.14726374 -0.005869652
000330 57 c4 87 be 33 ad 8b bd d8 da 21 bd 42 51 13 be
       -0.26516983 -0.068201445 -0.039515346 -0.14386466
000340 85 bb b5 3d 91 e0 b9 bd 39 86 c9 bd 92 a9 e4 bd
       0.08873657 -0.09076036 -0.09840054 -0.111651555
000350 4c 33 70 bb 5e 48 4a bc 3d a8 a6 bd 20 5a a7 3d
       -0.003665167 -0.012346355 -0.08137558 0.08171487
000360 3e 8e 05 be 97 aa 68 bd 13 69 0e be ce 70 d6 ba
       -0.13042542 -0.056803312 -0.1390727 -0.0016360523
000370 aa 66 9e bd dd 84 06 3e 1d 10 bf bd c7 7c 9b bd
       -0.07734425 0.13136621 -0.09329245 -0.07592159
000380 db f8 02 bd 26 15 d4 3c 1d 3b f2 3d 49 54 0f 3e
       -0.03197561 0.02588899 0.11827681 0.13996996
000390 6b 64 33 3e 51 f4 a8 3d a9 34 8a bb 0e 14 32 bd
       0.17518775 0.08249725 -0.0042177034 -0.043476157
0003a0 9e 37 12 bd c4 25 df 3d 30 07 74 bd 2c fd 2e 3d
       -0.035697572 0.10895875 -0.059577167 0.042721912
0003b0 4f 56 00 be 33 b4 7e 3e cc 58 0a bb c7 6f c2 bc
       -0.12532924 0.24873428 -0.0021110056 -0.02373494
0003c0 4e 9e 9a 3d 1a 37 19 be 79 82 05 3e 8a 70 13 3d
       0.075497255 -0.14962426 0.13038053 0.035995997
0003d0 c2 ee dc 3d 04 68 bd bd a4 ba 3d 3c f4 b4 24 3c
       0.10787727 -0.09248355 0.011580143 0.010052908
0003e0 26 5c ad bd ce 2e 22 3e 44 b2 d8 bd 98 b5 7e 3e
       -0.084648415 0.15838167 -0.105808765 0.2487396
0003f0 ce 4d cf bd 22 de b0 bd 07 0f 74 be 23 d2 fc 3c
       -0.10122262 -0.086361185 -0.23833857 0.03086192

encode_conv3.bias f4 [8]
000000 80 74 0e 3d 95 63 26 3e 90 ac ca 3d d9 48 74 bd
       0.03477907 0.16248925 0.09896195 -0.059639785
000010 74 63 1b bd fe c0 dd 3d 58 a0 ba 3b cc d8 10 3e
       -0.037936643 0.10827826 0.005695384 0.14145201

encode_conv4.weight f4 [8, 8, 3, 3]
000000 db f4 d2 3d 0b b4 9e bc f2 b4 0a be 6a b7 d7 bb
       0.10300609 -0.01937296 -0.13545588 -0.006583144
000010 2c 34 89 bd 66 cb b2 3d 71 51 d9 3d 14 15 c9 3d
       -0.06699404 0.087302014 0.10611237 0.098184735
000020 6b 6a 97 3c 60 86 c8 bd 88 b3 e6 bc 66 c4 dd bd
       0.018483361 -0.09791255 -0.028161779 -0.10828476
000030 53 3e d4 3c f2 55 78 3d 5f c1 13 be c8 ef ee bd
       0.025908625 0.06062884 -0.14429234 -0.116668284
000040 e7 de ae bd b7 7e e4 bd a0 c4 8d 3d f0 af ad 3d
       -0.08538609 -0.111569814 0.06922269 0.08480823
000050 5c a8 66 bc 56 04 0f 3d b2 f2 d4 3d 63 f2 31 bd
       -0.014078226 0.034916244 0.10397853 -0.04344405
000060 58 98 2a bd 92 d8 84 3d 18 82 ce 3d 4f 7e 2b 3c
       -0.041649193 0.0648662 0.10083407 0.010467126
000070 26 e1 18 3a 3b b7 70 3d ea f7 72 3d be 2e 88 3d
       0.00058318896 0.058768492 0.05931846 0.0664954
000080 39 35 96 3d bc 8d b7 3d 64 f3 5b bd fd a2 cb bd
       0.0733437 0.089625806 -0.053698912 -0.09943197
000090 54 8b d7 3d 37 6d 81 bd 40 bc 9e 3d b2 ca bd bc
       0.105246216 -0.06319659 0.077507496 -0.023167942
0000a0 be c5 59 bb 99 0c c1 bc f7 23 e1 3c 9d 36 74 bd
       -0.0033229436 -0.023565577 0.02748297 -0.059622396
0000b0 8c 6a ce 3d 2f 2c c2 bd 60 82 6d 3d ca 2d a0 bc
       0.10078916 -0.094810836 0.057985663 -0.019553084
0000c0 f2 37 ed bc 8a 02 b2 3d d8 53 03 be aa 20 a0 bd
       -0.02895734 0.086918905 -0.12824953 -0.0781873
0000d0 e1 ea d0 3d d0 73 6a bc 0b d5 83 3c 8b 8e c9 bc
       0.102010496 -0.014309838 0.016092798 -0.024604103
0000e0 e1 b6 fb bd 9b ae 03 bd 2b 2b ce 3d 17 43 ac 3d
       -0.12290741 -0.03214894 0.100668274 0.08411234
0000f0 59 94 32 bd a7 42 ed 3c 36 b5 df bc 2d c4 06 bc
       -0.043598507 0.028962446 -0.027308088 -0.008225483
000100 a6 1b 41 bc ef d0 00 bd 59 17 88 3c a2 1b b1 3d
       -0.011786377 -0.031449255 0.016612696 0.08647849
000110 59 30 d9 bd c7 60 93 3b a4 b0 ff 3d d5 77 0a be
       -0.10604925 0.0044976207 0.124848634 -0.13522275
000120 f6 2b 82 3d 18 0f 00 3e 7d 55 3a 3d 94 ad fe bd
       0.06356041 0.12505758 0.045491684 -0.12435451
000130 dc b6 97 3d 76 23 e9 3d 08 81 a2 3c d9 50 a8 bd
       0.074079245 0.11383717 0.019836918 -0.082185455
000140 e1 94 5e 3d 0d 1e 11 3d 8d 4c 06 3c 0a 3f 99 3d
       0.0543412 0.03542905 0.008196962 0.07482727
000150 e0 d9 9d 3d 5c 15 0a 3c c8 a2 04 3e 83 fe 0c 3d
       0.07707572 0.008427944 0.12952721 0.03442241
000160 7c a0 09 3e fd 12 eb bc b3 60 db bd 4c 59 bb 3d
       0.13440126 -0.028695578 -0.10711803 0.091478914
000170 b2 bd ef 3d ac 77 01 3d 10 e5 c4 bd 97 fd 07 3e
       0.117061034 0.03160827 -0.09614003 0.1328033
000180 00 22 94 3d 05 06 ee 3d 7b db 65 bd ba 80 ee 3c
       0.072330475 0.11622242 -0.056117516 0.029114116
000190 43 73 a4 3d ef 74 9b 3d a3 0b df bd ef ed 0a be
       0.08029797 0.07590663 -0.108908914 -0.13567327
0001a0 94 51 d7 bd 7e f2 5c bc f2 e3 22 be 1f 96 2c bc
       -0.10513607 -0.013485549 -0.15907267 -0.0105338385
0001b0 00 1b cb 3c c7 b7 41 bd ce 7d e9 bd c9 b4 54 bd
       0.024793148 -0.047294404 -0.114009485 -0.051930223
0001c0 82 f0 12 be a0 ae e6 3a 14 cd f1 3d 41 a8 08 be
       -0.14349559 0.001759965 0.11806694 -0.13345434
0001d0 ca 11 0c 3e 43 62 43 bd f4 88 3c 3d cb 2c c5 3d
       0.13678661 -0.04770113 0.046029046 0.09627684
0001e0 cc 50 fd bd 53 00 05 3d 39 f5 62 3d 4b 2e e6 bc
       -0.123689264 0.032471012 0.055409644 -0.028098246
0001f0 fb 26 05 3d be d2 06 bd b3 93 28 bd 27 89 66 3d
       0.032507878 -0.032915823 -0.041156482 0.056283142
000200 bc 50 00 3e fa a7 5f 3b 36 dc d6 bd c8 9d 9e 3d
       0.12530798 0.0034127221 -0.10491221 0.07744938
000210 65 20 f4 3d 38 0d 68 3d 72 a5 b8 bd aa 39 bd bd
       0.11920241 0.05665323 -0.09015931 -0.09239514
000220 2e 4b 7e bd cd 29 10 3d e9 21 2e bd ee 07 67 3d
       -0.062083416 0.035196114 -0.042512808 0.056404047
000230 12 86 83 3d 87 81 f0 3c 21 9b 3b 3e e5 49 b6 bd
       0.06422056 0.029358638 0.18320896 -0.08900813
000240 16 f4 03 be dd 62 a9 3c db 12 9a 3d 46 cc e9 bd
       -0.1288608 0.020677024 0.07523128 -0.11415915
000250 df da 72 bc 98 c3 81 bc 1e a0 3a bc 2b 45 b9 3d
       -0.014822691 -0.015840337 -0.011390714 0.09046396
000260 ae 59 0d be 77 28 9c bd 86 e6 70 3d fb 22 0f be
       -0.13803741 -0.076249056 0.058813594 -0.13978188
000270 b1 5d be 3d 8a eb ec bd 45 2a 66 bd c2 a2 8e bd
       0.09295214 -0.11568363 -0.056192655 -0.06964637
000280 2b d9 ee 3d 1b 03 ba 3a 67 84 b4 bd 5f b6 1a bd
       0.11662515 0.0014191599 -0.08814316 -0.03777158
000290 d6 1b 96 3d 5f 3f 94 bd 6c d7 b9 3c 3d 56 f8 bd
       0.07329528 -0.072386496 0.022685729 -0.12125824
0002a0 6e 40 a9 3d 20 f0 86 bd e4 cf 45 bd ef a7 60 3d
       0.08264242 -0.06588769 -0.048293963 0.054847654
0002b0 27 f6 cc 3d 36 7d 23 bd a6 ef da 3d 4c fd 24 bc
       0.10007887 -0.039914332 0.106902406 -0.010070156
0002c0 a1 5f 85 bb f1 d7 cb 3d af dc 10 3c c0 da 8d bc
       -0.0040702377 0.09953297 0.008841678 -0.017316222
0002d0 a0 ac 38 bd 94 86 0b 3d a8 b1 dc bd dd 86 dd 3c
       -0.045086503 0.03406389 -0.10776073 0.027041847
0002e0 23 ee a1 3d ee 29 9f 3d 13 bb d3 3d 1b d6 ab 3d
       0.07906749 0.07771669 0.10338416 0.08390447
0002f0 06 18 e3 bd 38 11 54 bd 1e 22 ff 3c ae 7b f2 bd
       -0.110885665 -0.051774234 0.031144198 -0.11839996
000300 84 47 04 bc 6f 20 8a 3d 98 0b 4d bc 33 f7 7a 3d
       -0.008073691 0.067444675 -0.012514971 0.061270904
000310 59 92 9d bd 76 55 7a bc 33 e1 15 bd 6f cd 86 bd
       -0.07693929 -0.015279165 -0.03659172 -0.06582152
000320 48 02 8b 3d f3 9e 8a 3d 94 54 9f 3d cc 6b a9 bd
       0.067875445 0.067685984 0.07779804 -0.08272514
000330 ce 19 60 3d 62 76 01 3e ae 1d a3 bc f1 d6 55 3d
       0.05471211 0.12642816 -0.019911613 0.052206937
000340 05 f5 9f 3c e0 11 df bd a3 a6 d6 3d 90 b6 9c bd
       0.019526014 -0.10892081 0.10481002 -0.076520085
000350 2c 01 05 be b0 db 51 bd 6e 61 df bd 60 7c d1 bd
       -0.12988728 -0.0512349 -0.10907255 -0.10228801
000360 97 13 ee 3d 69 89 68 3b fb ff 5a 3d 79 e7 01 3e
       0.1162483 0.0035482293 0.05346678 0.12685956
000370 3a 61 e0 3d b5 64 9d bd 56 38 61 bd e7 6d 23 3e
       0.109560445 -0.07685224 -0.054985367 0.15959893
000380 c2 5c 4f bd 20 f7 ba bc 51 92 19 be e3 33 61 bd
       -0.05062557 -0.022822917 -0.14997222 -0.054981124
000390 78 2c 16 3d 80 42 1f bd ea df 80 bc ba 14 f9 3b
       0.036663502 -0.03888178 -0.01573177 0.0076013478
0003a0 a0 1e 01 3c df 30 05 3d a7 2e 82 bd 02 74 9a 3d
       0.007880837 0.03251731 -0.063565545 0.07541658
0003b0 48 d7 3f bd 6a 50 ba 3d c6 5f 11 3e 81 20 55 3d
       -0.046836168 0.09097369 0.14196691 0.05203295
0003c0 16 0f 14 bd d3 33 f8 3d 00 38 8b 3c a9 c7 c8 3d
       -0.0361472 0.1211926 0.016994476 0.09803707
0003d0 8f 72 f9 3d 85 d1 6a bd dd 47 1f 3d ef 73 28 bd
       0.121800534 -0.05732872 0.038886894 -0.041126188
0003e0 c7 79 60 3d 4b 10 82 bd f0 ed 56 bd a6 a5 32 bd
       0.054803636 -0.06350764 -0.05247301 -0.043615006
0003f0 77 c2 dd 3c 45 bc d8 3d 60 87 23 3d 23 61 5b 3d
       0.027070267 0.105827846 0.039924026 0.053559434

encode_conv4.bias f4 [8]
000000 4b c2 9d 3d a4 b7 b1 bd 72 b3 e2 3d bd b5 8d bd
       0.07703074 -0.08677605 0.11069383 -0.069194295
000010 79 b7 e1 3d ee 63 45 bd 17 59 cc bc 33 9f b3 bd
       0.11021323 -0.048191004 -0.024944825 -0.08770599

fc1_1.weight f4 [200, 192]
000000 78 fa 73 bc a3 34 5b bd e5 a0 96 bc e9 8e 4a bd
       -0.014891259 -0.053516995 -0.018387267 -0.049452696
000010 80 cb 2a 3d 34 be 77 bd 59 d9 7e 3d 96 e5 6d 3d
       0.04169798 -0.060484126 0.062218998 0.05808028
000020 98 5e c4 3c b4 8f d4 3c f2 23 19 bd 9c 18 01 3c
       0.023970887 0.02594743 -0.037387796 0.0078794025
000030 45 49 10 bd ed f1 35 bd e4 33 37 3d 0d 49 7f 3c
       -0.035226125 -0.04442017 0.04472722 0.0155813815
000040 e7 db e6 3b 2b 4a 09 bd 98 bf e8 3c 99 1b 87 3d
       0.0070452574 -0.033517998 0.028411672 0.06597061
000050 c0 4c 26 bd c6 d9 4f 3c cf a3 7c bc 9d 45 ae bc
       -0.04060054 0.012686199 -0.015419914 -0.021273429
000060 e8 09 cf 3a 43 9c 0c 3d a6 31 b2 3c a5 c4 81 3d
       0.0015795799 0.03432871 0.02175219 0.06336335
000070 d2 94 90 3d 3d fc 4b 3c 12 0c 28 3d cf 48 45 3c
       0.07059635 0.012450275 0.041027136 0.012041285
000080 22 e1 85 bb 75 35 a4 3d 76 87 18 bc 9f 7d 4a 3d
       -0.004085676 0.080180086 -0.00930964 0.049436208
000090 32 99 bb 3a 3e a1 9d bc 72 66 98 3c b4 e6 ed 3c
       0.0014312624 -0.019241925 0.018603537 0.029040672
0000a0 eb f3 47 3d 5f af 50 3d 33 29 b6 3c a1 82 68 bc
       0.048816603 0.050948497 0.022236442 -0.014191301
0000b0 5f 6b 2b bd 08 a8 77 3d 6a b1 97 ba 21 7d a3 3c
       -0.041850444 0.06046298 -0.0011573259 0.019957127
0000c0 04 ff 7c 3d db 7c de ba bb e5 54 bd fa dc 1b 3c
       0.06176664 -0.0016974466 -0.0519769 0.009513134
0000d0 be 47 94 bd ff 56 3f 3d be 32 08 3d 57 fa b1 bc
       -0.07240246 0.046713825 0.033251517 -0.021725817
0000e0 1f b8 73 bd 44 60 9a 3a ef d4 8b 3d 5b 36 93 39
       -0.059501763 0.0011777957 0.06827723 0.00028078523
0000f0 c2 5b 6f 3d 79 1a d3 3b aa 1a 41 3d cd 89 06 bc
       0.058437116 0.006442365 0.04714457 -0.008211565
000100 29 66 15 3c 5c 93 2a 3d 40 3c 3a 3c 04 1d 9c bc
       0.009118595 0.04164444 0.011366904 -0.019056804
000110 dd e0 3f 3d bc ff 91 bd 36 78 7c bd 52 51 3a 3c
       0.046845306 -0.071288556 -0.06163808 0.011371927
000120 e3 a5 b8 3b 28 40 6a 3d 5c cf 19 3d e4 9a 05 3d
       0.0056350096 0.05719009 0.03755127 0.03261842
000130 ec 51 18 3d 1a 07 80 3d 62 c2 20 bd 37 72 05 bd
       0.0371875 0.062513545 -0.039247878 -0.032579627
000140 eb 50 69 39 f7 5a 3b bd 03 ac bc bc 22 92 80 3c
       0.00022250756 -0.045741048 -0.02303124 0.015694682
000150 4d 3d 2a bd 92 d0 38 bc 72 47 d6 3c 87 e6 c3 bd
       -0.041562367 -0.011280196 0.026157115 -0.09565454
000160 1f 40 6f bd ab 5f 93 bc 32 f1 03 3d 16 61 03 bd
       -0.05841076 -0.017989954 0.032212444 -0.03207501
000170 1d 70 07 bc f1 6b d4 3c 80 d9 85 bd fd 2b 0c bd
       -0.008266476 0.025930377 -0.065356255 -0.034221638
000180 52 c0 7f bd 1f f1 20 3c ea 7c 32 bb e8 49 8f bd
       -0.06243927 0.009823113 -0.00272351 -0.069965184
000190 c6 45 7a bd 9f dc 4d 3d 80 a1 03 bd e4 12 8f 3d
       -0.061101697 0.05025923 -0.03213644 0.06986025
0001a0 3b 9b cf 3c 39 95 90 3d b0 f1 af bb 8e a1 09 3d
       0.025342574 0.07059712 -0.0053693876 0.033601336
0001b0 97 67 d8 bb db e6 7d 3b 3c b0 20 bd 6f ee 29 3d
       -0.0066041457 0.0038742337 -0.03923057 0.041487154
0001c0 20 78 21 3d cb 6f f9 3c ec 9c 61 3c b4 7b 05 3d
       0.0394212 0.030448815 0.013770323 0.032588676
0001d0 7f fd 38 bb 20 8c 05 bd eb 44 29 bd fa 85 6b 3c
       -0.0028227267 -0.032604337 -0.04132549 0.014375204
0001e0 de 3a 4f 3d db 83 05 bc 16 69 05 bc 17 78 9c bc
       0.05059325 -0.008149113 -0.00814273 -0.019100232
0001f0 bc ff 87 3d 59 0b e6 3c 04 ff 01 3d dc 2a a9 bc
       0.06640574 0.028081583 0.031737342 -0.02065032
000200 7c 2d 5c 3d e2 eb 76 bd 29 c6 cc bb 56 5e 8e bd
       0.053754315 -0.06028355 -0.0062492085 -0.06951587
000210 64 db 9a 3d f1 56 1d bd 77 27 de 3b a6 3d 84 bd
       0.07561377 -0.038412992 0.006779607 -0.06457071
000220 bd b6 d4 bc d8 c3 31 bd 11 7b 9e 3d 63 97 d5 3c
       -0.025966043 -0.04339966 0.07738317 0.026073163
000230 70 b9 62 3c 79 ae 61 3d c0 e7 76 3b 9f 1a 8e bc
       0.013838157 0.05509803 0.0037674755 -0.017346678
000240 b7 01 f1 bc 06 0c 50 3d 3b 8c 36 3c bc d1 d7 3d
       -0.029419763 0.050792716 0.011141832 0.105380505
000250 65 e1 eb bc b9 ef 78 3c 79 7d ed 3c 55 df 7b 3d
       -0.028794 0.015193873 0.028990494 0.061492283
000260 b1 b2 85 bd 5f c0 c2 3c d7 28 3b bc 88 8e a9 bd
       -0.06528223 0.02377337 -0.011423311 -0.08279139
000270 ef ba 24 3d a3 1f 50 bc 4c 1d 38 3d 24 7c 01 bc
       0.040217336 -0.012702855 0.044949815 -0.007903133
000280 e5 72 ad bb a0 59 1c bd 29 5f 51 bd 8c a6 b4 3c
       -0.0052932375 -0.03817141 -0.051116142 0.022052072
000290 3a 69 93 bd 58 6d bc 3d 94 7e 58 bc 1d 07 9b 3c
       -0.07197805 0.09200543 -0.013213772 0.01892429
0002a0 b5 db 30 bd e5 33 83 bd 3f ff d9 bc da 61 70 bd
       -0.04317828 -0.064063825 -0.026610969 -0.05868707
0002b0 ba 4e 92 3d 6d cb 90 3d dc e5 10 bd 9f 3f 19 3d
       0.07143922 0.070700504 -0.03537546 0.03741419
0002c0 d5 e2 da b8 42 e4 0c bd 5a de 4c bd c6 57 b8 3c
       -0.00010437301 -0.03439737 -0.05001674 0.022502791
0002d0 b5 7d b0 bd b4 17 96 bd a0 d7 30 bc 81 a8 0d bd
       -0.08617727 -0.0732874 -0.0107935965 -0.034584526
0002e0 e4 20 19 bd 18 a4 a6 bb 4b c3 6f bd 1d 67 6d 39
       -0.037384883 -0.0050854795 -0.058535855 0.00022640494
0002f0 c3 2e ee bc 25 40 ce bc b1 a3 af bc e4 10 48 3c
       -0.029075032 -0.02517707 -0.021440359 0.012211058
000300 42 05 80 3c a9 e4 59 3d 95 05 58 3d 9f 9f 01 3d
       0.015627507 0.053196583 0.0527397 0.031646367
000310 b2 e6 74 bd f7 f9 1f 3d a8 ff 77 3d 76 76 92 3d
       -0.05979032 0.039056744 0.060546547 0.07151501
000320 9d 0a 16 3d 67 f3 fc 3c 29 ce f0 3c 68 e8 75 bd
       0.036631215 0.030877782 0.02939518 -0.060036093
000330 6f 02 87 bc ba 0f 27 bd 5a 8f eb 3c ec 8e 08 3c
       -0.016480653 -0.040786482 0.028754879 0.0083348565
000340 b5 03 91 3d 0b 22 69 bb 44 19 69 bc 44 c3 33 bd
       0.07080785 -0.003557327 -0.014227215 -0.04388739
000350 77 c0 37 3d 5c 30 6d bc c4 b1 c3 bc 2d 39 13 bc
       0.044861283 -0.014476862 -0.023888476 -0.0089858
000360 0d 28 af 3b d0 f7 69 bc f8 80 69 bc 2d 5d 81 be
       0.0053453506 -0.0142802745 -0.01425194 -0.252664
000370 7e 8b 47 bd 87 87 c3 3c a0 8f df 3d 12 b8 10 3e
       -0.048717014 0.023868335 0.10916066 0.14132717
000380 69 45 90 3c 20 6d 2e bd 7d 07 82 3d 9c 06 7b 3d
       0.017611222 -0.04258454 0.063490845 0.0612856
000390 ef 44 28 be 7a f9 20 be a7 08 aa 3d 21 f4 50 be
       -0.16432546 -0.15720168 0.083024316 -0.20405628
0003a0 f5 75 f1 3c 9b ba 61 bc 1b df 84 bd f8 d6 e0 3c
       0.029475192 -0.0137774 -0.064878665 0.027446255
0003b0 0c 7b 60 bc e3 ea cd 3d bb 50 32 bd 04 21 4f bd
       -0.013701212 0.10054567 -0.04353402 -0.050568596
0003c0 64 7d 53 bd a3 19 8b bc 87 f0 8f bd b1 a1 6c 3c
       -0.051633254 -0.016979998 -0.07028299 0.014442847
0003d0 89 3b 35 bd 7b 24 20 3d 33 2c f2 3c 87 36 f3 3c
       -0.04424623 0.03909729 0.029562091 0.029689087
0003e0 fa cb 5a bd 16 87 5e bc f7 39 d0 3d 48 eb 12 bd
       -0.053417183 -0.013582012 0.10167306 -0.035868913
0003f0 db 8b 54 be 00 4f 0e 3c 28 00 87 bd bd 45 8e 3c
       -0.20756476 0.008685827 -0.06591827 0.017367238

fc1_1.bias f4 [200]
000000 cd 2b ce bc ac b3 02 3d 0f a8 b8 3c 36 fa 23 3d
       -0.02516737 0.03190963 0.022541074 0.04003354
000010 1f 4b 99 3c 00 49 63 3d bf d3 06 3d d2 e7 4e 3d
       0.018712578 0.05548954 0.03291678 0.05051405
000020 d5 4b bd bd 24 0e 45 bd bb 06 bb 3c e2 44 ff 3c
       -0.092429794 -0.04810919 0.022830358 0.031160776
000030 f1 a9 65 3d b8 19 c2 bb f9 20 bf 3d 89 8d c0 3c
       0.056070272 -0.005923476 0.09332461 0.02350499
000040 81 06 93 bd 87 c6 b3 bd 54 2a 36 bc b6 6a 82 bc
       -0.07178975 -0.087781005 -0.01111849 -0.015920024
000050 09 7a ae 3c c3 64 f0 bc 38 5e b8 bc cd db e2 3c
       0.021298425 -0.029344922 -0.022505865 0.0276927
000060 4f 89 4d bd ae e3 36 ba af a7 3e bd 99 c0 9f bc
       -0.050179776 -0.0006976676 -0.046546634 -0.019501017
000070 13 19 85 3c 40 87 de 3c 9e e8 6f 3d c9 9d 53 3d
       0.016247308 0.027164102 0.05857145 0.051664148
000080 7b 3c 89 3d 05 82 80 3c 7c b6 41 3d e1 b4 81 bd
       0.06700989 0.015686998 0.04729317 -0.06333328
000090 c6 ac 44 3d d0 a2 28 3d 4f 68 28 bd 8a ca 32 3d
       0.048016332 0.041170895 -0.0411151 0.043650188
0000a0 d7 a5 1e bd f6 5e 1e 3d 72 76 46 bd 9f ff 36 3c
       -0.038732376 0.03866478 -0.048452802 0.011169343
0000b0 65 f1 0c 3b 81 ed 7d bc ec 1d ff 3b 5d 9e 96 bd
       0.0021506187 -0.01549852 0.0077855494 -0.07354424
0000c0 95 a2 3a bd cf 58 60 bb ed 39 96 3d fb d0 1d 3d
       -0.045565207 -0.0034232622 0.07335267 0.038529377
0000d0 e6 f6 42 3d ea b9 54 3d 82 66 6b bd 1f 01 42 bd
       0.047598742 0.051935114 -0.057470806 -0.04736435
0000e0 e0 d1 cb 3c d6 27 1c 3d 6a c2 a3 bd c7 91 30 bd
       0.02488035 0.038123928 -0.07996066 -0.043107774
0000f0 97 fb 18 3c 5a dd 34 3c 83 42 93 bd 10 32 8e 3d
       0.009337327 0.011039102 -0.071904205 0.069431424
000100 d2 47 93 3c ca 60 22 bc 00 b7 b1 3c 0f 89 06 3d
       0.017978583 -0.009910772 0.021693707 0.032845553
000110 35 8e 9d 3b f0 8c 27 ba 69 71 6a bd 67 2f 4e 3d
       0.004808212 -0.0006391546 -0.057237063 0.050338175
000120 76 1d 7a 3d eb 7a 81 bc 54 35 09 bd 16 29 cc 3c
       0.061063252 -0.015805682 -0.033498123 0.024921935
000130 b1 5a 6b bc 26 a3 cd bc a6 3e 31 3c d4 18 ad 3b
       -0.014364884 -0.02510221 0.010818159 0.0052825008
000140 ff 53 b2 3c 17 9b 39 bd 7f be 74 3d 7a 07 f5 3c
       0.021768568 -0.04531392 0.059751984 0.029910792
000150 d0 6a ff bd 97 2b 2e bc 12 b5 1f bd eb 6e 77 3d
       -0.12471545 -0.01063051 -0.03899104 0.060408514
000160 26 40 80 3d bd 61 61 bd 54 34 43 bd 8a c6 44 bd
       0.06262235 -0.05502485 -0.047657326 -0.048040904
000170 ff 5a 23 bb ea 6a 3a bc 33 3b cd bc 30 fd 4a bd
       -0.0024926064 -0.011378029 -0.025052642 -0.049557865
000180 ef 3f 42 3b 0d 96 80 bc 4c b2 7c bc 47 38 a7 bd
       0.0029640158 -0.01569655 -0.015423369 -0.08165031
000190 e1 87 69 bd 00 99 dd 3c f3 a3 13 3d bb 53 90 3d
       -0.05701435 0.027050495 0.036045026 0.0704722
0001a0 96 83 db 3a 21 1d 0e 3d 09 81 e2 bc 6f 80 84 3d
       0.001674759 0.03469575 -0.02764942 0.06469809
0001b0 15 65 83 bd de 16 74 bd a5 aa 07 3d 7f 48 96 3c
       -0.06415764 -0.05959212 0.033121724 0.018345116
0001c0 c9 f2 11 3c e0 c3 6b 3d 4b 35 47 bd ca 70 61 bd
       0.008907982 0.057559848 -0.04863481 -0.055039205
0001d0 b4 89 a3 3c 1f b9 9b 3a 26 99 63 3d 24 84 43 3d
       0.019963123 0.0011880732 0.055565976 0.04773344
0001e0 e7 90 06 bd aa db 9b 3c c6 9b 6e 3d 87 ac e0 3b
       -0.032853033 0.019025642 0.058254026 0.0068565044
0001f0 d1 32 de 3b 9f e5 77 bd 1b 7f d3 3b 42 55 d8 bc
       0.00678096 -0.060521718 0.006454361 -0.026407842
000200 92 87 98 3d 1d b2 85 bd c3 05 aa bd 68 69 47 3d
       0.07447733 -0.06528113 -0.0830188 0.048684508
000210 72 0f 57 bd b6 53 fb bc 71 88 e3 3a f0 c4 88 bc
       -0.052504964 -0.030679565 0.0017359388 -0.01669547
000220 13 f7 85 3d f8 16 1d bd 3c 79 30 bd d3 0c ec 3c
       0.06541266 -0.038351983 -0.043084368 0.028814709
000230 0a f8 9f bd 58 de 68 3c 65 96 29 3d 95 f5 44 bd
       -0.078109816 0.014213167 0.041403193 -0.048085768
000240 42 1e 5a 3c 0f 16 20 3d ad d7 3d bd 25 f6 3e bd
       0.013312878 0.039083537 -0.046348263 -0.04662146
000250 0e 56 04 3d bd e8 98 bd 59 9d 81 3d 2a d9 7d 3d
       0.03230863 -0.07466266 0.0632884 0.061974682
000260 af 93 a2 bc 46 51 e9 3c f3 87 16 3c 6d a1 41 3d
       -0.019845812 0.028481137 0.009187686 0.04727309
000270 14 3c 46 3d 7d 8d 86 3d d9 b0 39 3c 8e 70 16 3d
       0.04839714 0.065699555 0.011333668 0.036728434
000280 7a 8d c4 bc 06 6e 8f bd 7b 8c 81 3d 40 4f b3 3c
       -0.023993243 -0.07003407 0.06325623 0.021888375
000290 f0 a6 e6 bb b3 79 06 3d fb 93 8c bd 46 fd 2c bd
       -0.0070389435 0.032830905 -0.068641625 -0.042233728
0002a0 9b 4b 7b 3c ae f1 16 3d 39 4e 79 3d 37 28 2f bc
       0.01533785 0.036851577 0.060865615 -0.01069074
0002b0 2d 52 a8 ba 59 83 23 3c 26 30 3c bd 1c 9d 3a 3d
       -0.0012841873 0.009980046 -0.045944355 0.045559987
0002c0 b2 04 60 bc fa 33 48 3b 42 cf 40 bd 68 12 52 3c
       -0.013672994 0.0030548559 -0.047072656 0.012821771
0002d0 37 ef 84 bd 00 bf 81 bd ea 32 ce 3c c6 f5 30 3c
       -0.06490939 -0.063352585 0.025170762 0.010800784
0002e0 32 18 60 3d 79 ce 4c bd b7 eb e9 bc ed 1b 05 bd
       0.054710574 -0.050001595 -0.02855478 -0.032497335
0002f0 ca 75 9b 3c d6 ba 08 bd 52 14 b5 3c 5a 31 31 3d
       0.018977065 -0.033381306 0.022104416 0.043259956
000300 d6 63 52 bd 46 85 e1 3c dc af 7b bd 4f 6b 87 bd
       -0.051364742 0.02752937 -0.06144701 -0.06612264
000310 99 f4 eb bc be 48 26 bd f0 c9 27 bc c8 e4 57 bd
       -0.028803157 -0.040596716 -0.010241017 -0.052708417

fc1_2.weight f4 [200, 192]
000000 ac c8 14 3c cf d0 95 bc 16 bf c1 3c a0 79 96 bd
       0.009081047 -0.018288044 0.023650687 -0.07347417
000010 3e 95 1d bd 98 56 07 bd 76 06 23 bd bf b9 3a 3d
       -0.038472407 -0.033041567 -0.039801084 0.045587298
000020 64 97 b4 bd d9 00 6b bd b5 5c 00 bb 2e e7 b9 bd
       -0.08817938 -0.057373855 -0.0019586508 -0.09077297
000030 6d 3d 87 bb ae 8f 1d 3d ab 24 65 bc 7c 6b df 3c
       -0.0041271956 0.0384671 -0.013985793 0.027272932
000040 c6 3c 71 bd 20 94 2a bd 51 fd 81 bd 1e 02 e8 3c
       -0.05889585 -0.04164517 -0.063471444 0.028321322
000050 fd a8 50 bd 38 37 2a 3d 96 c1 9d bc 28 c4 2e bd
       -0.05094241 0.041556567 -0.019257348 -0.042667538
000060 c4 48 50 bd 31 a7 69 3d e6 c1 85 3c 29 22 21 bd
       -0.050850645 0.05704421 0.01632781 -0.03933922
000070 62 8f e7 bd a9 ab 44 bd 7c 41 cd bc 3f ec a1 bd
       -0.11306645 -0.04801527 -0.02505564 -0.079063885
000080 9a 76 5b 3d fe f2 6c 3d ae 4e 45 bd 8a 89 bd 3b
       0.053579904 0.057848923 -0.048170738 0.005784218
000090 7d b3 9f 3d 98 af d1 3b 4f a4 67 3d 32 8f 85 3c
       0.077979065 0.0063991062 0.05655318 0.016303632
0000a0 b8 5d d8 3c f8 b9 91 3d 13 8a 2b bd d8 de 88 bd
       0.026411876 0.07115549 -0.041879725 -0.06683129
0000b0 16 b1 28 3d b6 11 63 3d 2c 25 9a bc 99 d6 54 bb
       0.041184507 0.055436812 -0.018816553 -0.0032476543
0000c0 e1 6d 8f bd 64 f6 87 3d 36 71 08 bc 0d 2e a7 bd
       -0.070033796 0.06638792 -0.008327773 -0.0816308
0000d0 f7 43 af 3c 5a 37 10 bd 00 e4 98 bc 33 21 40 bc
       0.021394713 -0.035209037 -0.018663406 -0.011726665
0000e0 3f 5a b2 3c b0 19 62 3d 35 b7 78 bc 36 e9 27 bc
       0.021771548 0.05520028 -0.015180399 -0.010248473
0000f0 ce 2c a1 3d e2 ac e0 bd 10 7b a7 bc 3a 70 d2 bd
       0.07869874 -0.10970475 -0.020444423 -0.10275312
000100 60 3a ea 3c f9 e7 9e bd f4 47 02 bb b6 9b 2b 3c
       0.028592288 -0.07759089 -0.0019879313 0.010474136
000110 a5 bb 3b bd 8b 1b 76 3d d7 17 9e bd af aa 80 bd
       -0.04583325 0.06008486 -0.07719391 -0.06282555
000120 3a 33 d3 bd 73 6c eb 3d e7 73 bf 3c fe cc 5b bd
       -0.10312505 0.114952944 0.023370696 -0.053662293
000130 70 ff 82 3d 81 cd 9c bd 0e 09 eb bc de 8a ec bc
       0.06396377 -0.07656384 -0.028690841 -0.02887481
000140 63 6c 8b bd 6f 63 dd bc e9 6d 41 3d aa 98 37 bb
       -0.068077825 -0.027024953 0.04722396 -0.002801458
000150 3d 49 87 3d bd 3c 6c bd 8e 6e 24 3d ae de 70 3d
       0.06605766 -0.057675112 0.040144496 0.058806114
000160 b2 b8 68 3d 7f 6e 8a 3c 66 a6 92 bd 3f 84 f8 3c
       0.056816764 0.016898392 -0.07160644 0.030336497
000170 8c 36 21 3d f5 21 4c bc 9b 6e ca 3c 1b ac 8b bd
       0.03935866 -0.012459268 0.024710944 -0.06819936
000180 78 32 74 bd b8 e0 5e 3c e4 af 75 3c fb 0d 7d 3d
       -0.059618443 0.013603382 0.014995549 0.06178091
000190 98 ff e2 bc f4 d4 de bc cb c7 05 bd 91 50 4f bd
       -0.027709767 -0.027201153 -0.03266124 -0.050613943
0001a0 64 53 64 3c 72 84 68 3d bf 5c 62 3d 1c 7a 35 bc
       0.0139358975 0.056766935 0.05526423 -0.011076476
0001b0 32 2d 93 bc 13 0e 95 bd 6b 36 38 3d c2 8f e5 3c
       -0.017965887 -0.07278075 0.044973772 0.02802265
0001c0 11 5b 0c 3c f3 7f 9b bd 0c 92 04 3d 13 e6 1e bd
       0.008566634 -0.07592764 0.032365844 -0.038793635
0001d0 52 dc cc 3c a5 db 0d 3d 81 65 be bc f9 43 87 bd
       0.0250074 0.034633297 -0.02324176 -0.06604762
0001e0 af 4e 06 3d 57 40 0d 3c e6 a0 00 bd ad 60 a9 3c
       0.032789882 0.008621297 -0.031403445 0.020675981
0001f0 6c 3d 2e 3c 14 eb e0 3c 8a 75 13 bd 43 10 84 bd
       0.010634761 0.027455844 -0.036000766 -0.06448414
000200 e6 d6 15 bd b6 38 33 bc 6b ee 96 3d 52 95 38 bd
       -0.036581896 -0.010938814 0.07369693 -0.045064278
000210 b0 22 14 bd 5b b6 8a bd b4 45 29 bd fd 91 96 3d
       -0.036165893 -0.06773063 -0.04132624 0.07352064
000220 cc fb 8f 3c e6 68 79 bc 74 f5 16 3d f4 c5 66 bd
       0.01757612 -0.015222764 0.036855176 -0.056341127
000230 89 bf 6d 3c d4 d5 0a bd 9a 55 2e 3c 6b 44 3b bd
       0.014510998 -0.03389533 0.010640526 -0.045719545
000240 26 7e 0a bc 71 b5 d1 bd e6 bf 1a 3c d7 4e ef bb
       -0.008452928 -0.10239685 0.009445166 -0.0073030996
000250 be a6 2c 3d ce 5d 85 3d 80 b8 a4 3b c6 fa 82 3d
       0.042151205 0.065120324 0.005026877 0.063954875
000260 05 a9 85 3d 6b 1b 2f 3b 60 25 86 3c bb 4f c6 ba
       0.065263785 0.0026719223 0.016375244 -0.0015129963
000270 2f 25 8b 3c 1a 31 04 3c bc ee d1 bc 1b 4a d3 bd
       0.016985504 0.008068347 -0.025626533 -0.10316869
000280 84 3c 46 3d 4b 50 4e 3d 12 6b 9a bc 53 b7 e4 3b
       0.048397556 0.050369542 -0.018849883 0.0069798618
000290 55 37 74 3c 76 fd 9e 3c c8 f4 5f 3d 98 74 d4 3c
       0.01490577 0.019407969 0.0546768 0.025934502
0002a0 cf 17 44 bd 51 16 61 bd 0d 1c b7 3c 50 75 7a bd
       -0.04787427 -0.054952923 0.022352243 -0.061147034
0002b0 a8 20 48 3d 60 8e 6f 3c 29 a6 7e 3c 77 6e 25 3d
       0.04885927 0.014621347 0.015542545 0.04038855
0002c0 d5 a5 ef 3b 7a d8 a5 bb f1 7c 45 3d 50 56 2e bd
       0.00731347 -0.0050612064 0.048214857 -0.042562783
0002d0 99 97 95 3d 10 a4 ab 3c f8 85 8c bc 02 3c c0 3d
       0.073043056 0.020952255 -0.017153725 0.093864456
0002e0 02 2c 89 bd 7d 74 78 3b ed ad 09 3d 1e 24 2b 3d
       -0.06697847 0.003791123 0.033613134 0.04178249
0002f0 6f 7a 77 3d 1c ed b8 bc a0 20 3c 3d d1 b1 5a bc
       0.060419496 -0.022574 0.04592955 -0.013348059
000300 2d b3 42 bc 99 ad da 3d b7 32 4f bd ee cf 00 3d
       -0.011883539 0.106776424 -0.050585475 0.031448297
000310 2f 33 34 bd b8 4f 32 3d 21 62 b4 3b 5e 0f 87 3c
       -0.043994125 0.043533057 0.005504862 0.01648682
000320 de ae 25 bc af f0 8d 3d f5 ec b4 3c 62 4c 6b 3c
       -0.010112492 0.069306724 0.022085646 0.014361473
000330 1e d0 db 3c 33 28 81 3d ca 50 ee 3c 0b 11 0a 3d
       0.026832636 0.063064955 0.029091258 0.03370766
000340 7c 81 a2 bc 92 5e a2 bd d7 a3 c1 3b f1 ff a0 3d
       -0.019837134 -0.07928194 0.005909424 0.07861317
000350 8f 33 db 3b d3 96 0b 3d a8 34 d6 3d c1 89 27 bd
       0.006689496 0.034079384 0.10459262 -0.040902857
000360 63 dc 17 3d 96 34 ec 3d 03 85 ad be 9a 5d e6 3d
       0.03707541 0.115334675 -0.33890542 0.11248322
000370 2a d2 d2 be 00 d5 8b 3c e8 87 3c 3c b3 4c b3 bc
       -0.41175967 0.01706934 0.011507012 -0.021887159
000380 f1 eb 99 bd 8b 5e 70 3d 5b be e7 bc f1 1b e2 3d
       -0.075157054 0.058683913 -0.02828901 0.11040486
000390 66 c5 15 3d 9a cd 82 bd 09 3b 9d 3c 41 06 67 3c
       0.036565207 -0.06386872 0.01919319 0.014100612
0003a0 62 cf 07 3d 5c 8d bf bd 26 b4 90 bb cd 32 a6 bc
       0.03315676 -0.09353134 -0.0044160066 -0.020287896
0003b0 52 61 88 bd 70 24 ea 3d 8f d2 15 be b3 3c 18 bd
       -0.066591874 0.11432731 -0.14631103 -0.037167262
0003c0 d7 fb 56 3d c8 3b 20 bc c5 89 af bc a0 78 a6 bc
       0.052486267 -0.009779878 -0.021427998 -0.02032119
0003d0 ce 6e 81 3d 4b 2a 5c bd d5 7f be 3d 9b 45 a1 3d
       0.063199624 -0.05375127 0.09301726 0.07874604
0003e0 25 eb 8d 3c 0a 2e 62 3c 3d 78 60 3d 36 1d b2 bd
       0.01732404 0.013804922 0.05480217 -0.08696978
0003f0 e7 82 9a 3e 7d 3b f4 3d 92 19 a5 3d 21 03 e1 3d
       0.30177996 0.11925409 0.08061518 0.10986925
