training_model/wandb/run-20200708_155636-3lauc742/fir_6cov_1.pt (torch_old, 69680 bytes, 12 tensors)

encode_conv1.weight f4 [4, 12, 3]
000000 5a 89 ab 3e 6f bd 10 3e 16 65 75 3c 9b 8c ac be
       0.33503228 0.14134763 0.014977714 -0.33701023
000010 b5 3e f4 bd c1 11 56 bd 2c 7f dc 3d 14 55 c5 bd
       -0.11926023 -0.052263025 0.107664436 -0.09635368
000020 1c 17 6f b9 98 c4 06 3d b3 2e 06 3c 11 c8 d5 3c
       -0.00022801425 0.03290233 0.008189845 0.026096376
000030 5a e4 85 3c 06 1a 72 3e 75 2f c6 3c 6e 39 29 be
       0.016344238 0.2364274 0.024192551 -0.16525814
000040 2b 16 77 be 55 bb 85 bb ee 07 7c 3a 99 cf c4 3d
       -0.2412955 -0.0040811696 0.0009614219 0.096099086
000050 70 92 c2 3d 73 03 b8 bc 3a bb 71 3d 8f 1e b1 bd
       0.09500587 -0.022462582 0.059016444 -0.08648407
000060 57 c0 3c 3e 61 5c 48 3e 5b a4 b9 3b 28 31 e2 bd
       0.18432747 0.1956649 0.0056653447 -0.11044532
000070 00 ca 32 be 30 8b a2 bd 9e 66 86 3d 2b cb a1 bd
       -0.1745987 -0.07936704 0.065625414 -0.07900079
000080 ec 6f 9d bb fe be fb bb a5 d1 8d 3d 3e c6 72 3c
       -0.004804602 -0.00768268 0.06924752 0.014817772
000090 5c 82 43 bd 5e ed 24 3d d1 66 2a 3e 28 4d cb 3d
       -0.047731742 0.040265433 0.16640784 0.09926826
0000a0 c4 ea 77 be 9e ce 37 3d 18 1a 27 3e 97 7f 75 bb
       -0.2421065 0.04487478 0.16318548 -0.0037460083
0000b0 f9 81 f0 3d 46 2c 71 3d ec b3 bd bd 1f 8e 19 3e
       0.1174354 0.058880113 -0.09262833 0.14995621
0000c0 43 2b 0f 3e 18 62 94 bd 4a 73 81 3e cb d8 28 3e
       0.13981347 -0.072452724 0.2528327 0.1648895
0000d0 ff a7 cd bd 16 e3 57 bd 51 27 63 3c 35 2d 2b bd
       -0.10041808 -0.0527068 0.013864354 -0.04179116
0000e0 d2 38 11 3e 05 f5 e9 3d 8a 82 4d 3c 76 17 9b 3d
       0.14181831 0.11423687 0.01254333 0.07572834
0000f0 a4 b8 bb 3d 3d d3 16 be ba 18 5a 3d 3b 68 d5 3a
       0.09166077 -0.14729019 0.053246237 0.0016281673
000100 ae 30 2b be 0a e7 39 3d 02 4a 59 3e 08 fe a0 bd
       -0.16717789 0.04538635 0.21219638 -0.078609526
000110 88 75 83 3d a4 5e 39 3e b3 6d eb bd 1b 8e ed bc
       0.06418902 0.18102509 -0.11495533 -0.028998425
000120 cb 6a 05 3e 1a 3a 92 3e 7e 59 8b 3d f0 58 de 3d
       0.1302902 0.28559953 0.06804179 0.10856807
000130 b2 8d 37 3d 46 d9 d4 3d 4d d0 46 3d 08 ca 14 3e
       0.044812866 0.10393004 0.048538495 0.14530194
000140 96 9a 0e bd 8b 4c f5 3c 97 7f a9 3d e3 79 b1 bd
       -0.034815393 0.029943725 0.08276289 -0.08665826
000150 ad 56 c0 3c 18 ce 45 3d 40 3f 9e 3d 52 e0 ad 3c
       0.02347883 0.04829225 0.07726908 0.021225128
000160 cd 7e 31 3c e3 5b 69 3e 4b 25 a4 bc c8 5f 21 3c
       0.010833454 0.22788958 -0.020037314 0.009849496
000170 05 8c cc 3a cb 4c c2 bc 49 b6 e7 bb 3b 12 37 3e
       0.0015605694 -0.023718258 -0.0070712906 0.17878048
000180 c2 91 f2 3c 16 b0 02 3e 40 0e ca bb 7c a0 a2 3c
       0.029610518 0.12762484 -0.0061662495 0.019851916
000190 7d a8 5f 3e 2e ab 5a 3d 41 b7 32 3e 0c 7e c5 bb
       0.21841617 0.053385906 0.17452718 -0.006026989
0001a0 b7 e6 5d 3e 4c e9 e5 3d 20 81 0d 3e 4e ab b1 3d
       0.21670042 0.112261385 0.13818789 0.08675252
0001b0 57 2c 62 3c 35 3f 35 3d 21 fe 8f 3d ef ea 1e 3e
       0.013804517 0.044249732 0.07030893 0.15519308
0001c0 06 c6 09 3e 92 a2 89 3d 89 a9 dc bc e4 1e c4 3b
       0.13454446 0.06720461 -0.02693631 0.0059851278
0001d0 52 2f e3 ba 4b 3f 0e bd 94 5e fd 3c 17 7c ea 3d
       -0.0017332828 -0.03472833 0.030928887 0.114494495
0001e0 74 0e cb bd cb 46 0a 3c df 12 78 3e 6f 52 38 bb
       -0.09914866 0.00843973 0.24225949 -0.0028125306
0001f0 5c aa 19 3e 78 36 ce bc 0f 19 26 bc 68 ad 51 3d
       0.15006393 -0.025172457 -0.01013781 0.051190764
000200 0f 3e 19 3e 3a 14 8e bb 47 a4 67 3c 02 4d bb 3d
       0.1496508 -0.0043359073 0.014138288 0.091455474
000210 16 31 89 bd d1 67 5c bb d2 2a 68 3e 5b 5f 29 3e
       -0.066988155 -0.0033631215 0.22672585 0.16540281
000220 49 68 01 3e 6c be f6 3d 1c 8f 97 bd 63 f8 9c bc
       0.12637438 0.12048039 -0.07400343 -0.019161409
000230 10 89 3f 3d 3f 1c ed bc 77 62 8e bd 5e 58 bf 3d
       0.046761572 -0.028944133 -0.069523744 0.093430266

encode_conv1.bias f4 [4]
000000 3e 2b c7 be fb 28 38 3d 96 a5 d2 bb 5c 34 da 3d
       -0.3890018 0.044960957 -0.006428431 0.10654518

encode_conv2.weight f4 [4, 4, 3]
000000 38 70 56 bf db 3e ab be 8c 06 41 bf 4e 79 c0 bd
       -0.8376498 -0.33446392 -0.75400615 -0.09398137
000010 92 cb 9b bd 69 d3 c4 3e b6 b0 69 be e9 2e e7 3c
       -0.07607187 0.38442543 -0.22821316 0.02822061
000020 41 2f ce 3d 8c 34 30 bd 79 e4 ab 3e 8e 56 91 3e
       0.10067607 -0.043018863 0.33572748 0.28386348
000030 03 56 4c be 9a 1f 30 bf 90 17 95 bd bb 46 40 bb
       -0.19954686 -0.6879822 -0.07279885 -0.0029339034
000040 2f 27 0c 3e 48 5e 3d be 47 4f 4e bd f8 78 15 3d
       0.13686822 -0.18492997 -0.050368574 0.036492318
000050 9f 6f 8c 3e 17 7e 4f be 81 12 9f 3e fb ac 42 3e
       0.2742891 -0.20262943 0.31068805 0.190113
000060 91 34 2f 3f e3 47 1e 3d aa d8 1d 3f 82 0f 2b bc
       0.68439585 0.038642775 0.6165873 -0.010440709
000070 ab ab c9 bd d7 85 19 be e0 85 1c be 46 0d 9d bd
       -0.09847196 -0.14992462 -0.15285444 -0.07668547
000080 eb 4e 28 3e af 1d 12 be d2 22 69 3e 79 c9 8b be
       0.16436355 -0.14269136 0.22767189 -0.2730215
000090 37 0d 4b be 16 79 49 bf 24 b3 ee 3e 61 91 21 be
       -0.1982926 -0.7870039 0.46621048 -0.15778114
0000a0 5a 18 f4 bd f0 7e ac 3d fb c2 37 3d 03 d3 c1 3e
       -0.11918707 0.08422649 0.044863682 0.37856302
0000b0 cb 19 aa 3d ec 59 28 3d 5a a2 81 3e 9d 21 1f bd
       0.08305701 0.04110138 0.25319177 -0.038850415

encode_conv2.bias f4 [4]
000000 50 ab 5c bd 51 35 bf 3c b9 fb 80 3e 97 02 ea 3d
       -0.053874314 0.023340853 0.2519205 0.11426275

encode_conv3.weight f4 [8, 4, 3]
000000 ed b8 42 be ad a7 4b 3e 88 49 39 3e d7 f6 1e 3b
       -0.19015856 0.19888182 0.18094456 0.0024256015
000010 a3 46 1a 3c 21 23 8d 3e e5 df 26 bf 87 f3 07 bf
       0.009416255 0.27565864 -0.65185386 -0.5310597
000020 ec b8 1c 3e b1 de 66 3e 56 c6 20 bd 0c b8 2c 3e
       0.15304917 0.22545888 -0.039251648 0.16867083
000030 e0 38 8c 3d a8 ec 42 be 63 a9 cc be 96 c7 4c 3c
       0.068467855 -0.1903559 -0.39972982 0.012498757
000040 b2 c9 95 3e 21 f2 b4 bd 0b 97 1c 3e c7 a8 4d be
       0.29255444 -0.08835245 0.15291993 -0.20083915
000050 f8 0c 6c be d6 84 e8 3d 6e 1f a9 bd 54 bb 5f 3e
       -0.23051822 0.113534614 -0.08257948 0.21848804
000060 4b fd e5 3d 90 af 22 be a8 27 78 3e ba 2a 1e 3e
       0.112299524 -0.15887284 0.24233878 0.15445986
000070 9b 99 28 3e a8 1e 4b be 1c 1e c1 be 09 ff 98 bd
       0.16464846 -0.19835913 -0.37718284 -0.07470519
000080 f0 eb 70 3e 19 29 47 3e a8 44 8f bd fe ad 0c 3d
       0.23527503 0.19449271 -0.06995517 0.03434562
000090 62 0f e6 be e3 6a 35 be b9 55 50 3e 2a 70 e1 3d
       -0.4493361 -0.17716555 0.203452 0.11007722
0000a0 10 43 91 3d d9 33 80 bd 27 07 27 be f4 fd 49 3e
       0.07092869 -0.06259889 -0.16311322 0.19725782
0000b0 14 ed f2 be 58 fe 0a 3e 8e 6c 1a 3e 0e e6 fe 3c
       -0.474465 0.13573587 0.15080473 0.031115558
0000c0 96 e7 b5 3e 7c 22 52 bd 08 ec 5a be 04 9b 78 3e
       0.3552825 -0.051302418 -0.21379101 0.24277884
0000d0 ec 97 36 3e b1 ed a9 be 81 8a 8e be 1f 79 62 3e
       0.17831391 -0.33189157 -0.27840045 0.22116517
0000e0 41 8f 8f be d6 53 76 3e 11 bb 8f bd 15 ca 5e 3e
       -0.28038982 0.24055418 -0.07018102 0.21756776
0000f0 ec 28 78 be 36 f8 b1 bd 57 57 4c 3e 2f 65 22 3e
       -0.2423436 -0.086899206 0.19955193 0.15858911
000100 1d 01 1b 3e ae bc 07 3d 98 fe 25 3e 63 94 17 3d
       0.15137143 0.033138923 0.16210401 0.037006747
000110 85 85 46 3e 8b c5 15 be 62 a6 d9 be ec 58 bf 3e
       0.19386871 -0.14626138 -0.42509753 0.3737253
000120 86 97 c6 3e f4 fe cb bd c7 51 86 be a6 33 83 3e
       0.38787478 -0.09960738 -0.26234266 0.25625342
000130 cc 98 47 3e 6e 91 46 3e 3a 32 03 3f a3 ee b7 bd
       0.19491881 0.19391415 0.51248515 -0.08981063
000140 e4 78 37 3e ba 75 5d 3e 48 6a 30 be 69 75 b0 3d
       0.1791721 0.2162694 -0.17228043 0.08616144
000150 27 a4 64 3a 11 1f 5e be b8 87 ab 3e 69 c0 3f 3e
       0.00087219704 -0.21691538 0.33501983 0.18725742
000160 fe 8f 97 be 4f d0 cb 3e 44 65 8f be 10 d2 37 be
       -0.29602045 0.39807364 -0.28006947 -0.17951226
000170 a6 b2 a6 bc f9 cd 54 be 41 88 43 be 5d ef 6a 3d
       -0.020348858 -0.20781697 -0.19094945 0.05735718

encode_conv3.bias f4 [8]
000000 bd 96 84 be 7e ac 9d 3d 06 7f 82 be e7 74 8f bd
       -0.25896254 0.07698916 -0.25487536 -0.07004719
000010 46 f8 d8 3d 4b ff 87 3e 0a 9e 6f be f6 8d 27 3e
       0.105942294 0.2656196 -0.23400131 0.16362748

encode_conv4.weight f4 [8, 8, 3]
000000 d7 55 a6 bb ad 45 4f bd 20 46 1a 3e 34 de 72 be
       -0.005076151 -0.050603557 0.15065813 -0.23717576
000010 52 cc 1d be d3 ff 27 3e 1e 06 8c 3d a3 ae 0b 3e
       -0.15409973 0.16406183 0.06837104 0.13640837
000020 2e 33 86 3e ce c1 bf bd f8 fb 8b be a8 d0 a8 3d
       0.26210922 -0.09363137 -0.27340674 0.08242923
000030 72 2f 5c 3e 14 90 20 3e 2f 61 c8 3d 4d 8d d3 bc
       0.21502474 0.15679961 0.09784161 -0.025824213
000040 2d d3 13 be 0a 2a c9 bd c8 ec 0f be 78 da ea 3d
       -0.14436026 -0.098224714 -0.14055169 0.11467451
000050 f0 35 35 3e fc c9 8f bd 8c 66 3a be d6 f5 36 be
       0.17696357 -0.07020947 -0.18203181 -0.17867216
000060 e9 b7 79 bd 1c e2 e0 3d b9 24 01 be 35 80 c5 3d
       -0.060966406 0.10980627 -0.12611665 0.09643594
000070 0a d8 9b 3d c3 ef 9f bb 14 fb e2 3c 58 72 30 be
       0.076095656 -0.0048808767 0.027707614 -0.17231119
000080 86 f5 58 bd 7d cf 1c 3e 07 1c 33 be 3e 30 35 3d
       -0.052968524 0.15313525 -0.1749116 0.04423546
000090 d2 3f 6f bd eb 85 ee 3b b2 e9 03 be a8 06 db bd
       -0.058410473 0.007279148 -0.12882116 -0.10694629
0000a0 b1 c6 7b bc 41 2c 19 be 86 f5 d6 bd 20 ce fa 3d
       -0.015367196 -0.14958288 -0.10496049 0.122463465
0000b0 1f aa d9 bd 66 02 6a be ec ef ab bd e1 cd 76 be
       -0.10628151 -0.22852477 -0.08395371 -0.24101974
0000c0 1b ed b9 bd 26 d5 27 be e9 9f 57 be ee 4e 3c be
       -0.090784274 -0.16389903 -0.21057095 -0.18389484
0000d0 f1 a4 38 3d f5 6d ff 3d 9b 92 05 3e b4 18 02 3e
       0.045079175 0.124721445 0.13044207 0.12704736
0000e0 04 d1 4c be 2a c6 3c 3e c8 2c 9b bc 9a 0a 04 be
       -0.20001608 0.18434969 -0.018942252 -0.12894669
0000f0 78 e1 1c be c8 89 71 be 05 f7 a7 3d 2e 3b f9 bd
       -0.15320385 -0.23587716 0.08201412 -0.12169491
000100 2c fc 05 3e 5f 4f 1c bd 4b 4b da 3b 18 9e 90 3b
       0.13084477 -0.03816163 0.0066618077 0.0044133775
000110 da 3b 0d be 60 08 51 be 2b 3e 43 be af be 32 be
       -0.13792363 -0.20413351 -0.19066684 -0.17455553
000120 39 88 de 3d 3b 67 93 3e fd 23 59 3d 6b e4 82 be
       0.10865826 0.28789696 0.053012837 -0.25564894
000130 b0 6d 42 be 2b 1c e3 3d 0a 8c 47 3e 23 c1 c4 bc
       -0.18987155 0.11089357 0.19487014 -0.024017876
000140 52 cc 8f 3e 16 f0 99 3e 07 7b fa bc 80 8b c6 3c
       0.28085572 0.30065984 -0.030576242 0.02423644
000150 39 6f 7b be 6b aa 7e be 9e 71 f8 bd bd ec 1f be
       -0.24554147 -0.24869697 -0.12131046 -0.15617652
000160 87 fe 50 3c 03 13 07 bd 0e 69 06 be de c3 2a 3e
       0.012755997 -0.032977115 -0.13126013 0.1667628
000170 aa 42 48 3e f3 78 98 bd d2 37 7d 3e ce 3d 94 3e
       0.1955668 -0.07444944 0.24728325 0.28953403
000180 c6 dd 49 bd f7 61 b4 3d 42 58 81 3e 30 d2 d3 bc
       -0.049283765 0.08807748 0.25262648 -0.025857061
000190 fe b1 8c 3d 49 d4 8a 3d a1 4b c5 bc 3a 0a c3 3d
       0.06869887 0.067787714 -0.024083914 0.09523435
0001a0 8d bc 21 3c d6 4a 6d bd f3 e8 f4 3d 9b fe c3 3d
       0.009871614 -0.057932697 0.11958494 0.095700465
0001b0 23 9d ab 3d a1 94 ad 3c fd ce f3 bd f0 f6 98 be
       0.08379581 0.021189036 -0.11904714 -0.29875898
0001c0 52 5e 4f 3d 33 07 9c 3d 69 73 21 be 83 b5 89 be
       0.05062706 0.07618561 -0.15766682 -0.26896295
0001d0 9d df 0a bb f6 c8 a1 be 59 48 ed 3e a1 e6 64 3e
       -0.0021190413 -0.31598634 0.4634426 0.22353603
0001e0 c5 9c d3 3c 53 a6 1f bd b9 8f 4a 3d ce 2d 06 bd
       0.02583159 -0.03897698 0.04945347 -0.032758527
0001f0 39 8c fa 3d 49 59 5a 3e 6e 86 c3 3d ba 91 e8 bd
       0.122337766 0.21323122 0.09547125 -0.1135592
000200 74 12 8d bc 5c 51 a3 bd 3b 42 a0 3d 7f 2c 56 3c
       -0.017220713 -0.079745024 0.078251325 0.013072132
000210 19 a0 d9 3d e7 d6 7b bd 1c 25 18 3e 09 49 3f bd
       0.10626239 -0.061484244 0.14857906 -0.04670051
000220 0d 76 f3 3d 6b b4 6c 3d 58 8a 53 3e 94 ac 00 3e
       0.11887751 0.057789247 0.20658243 0.12565833
000230 db 65 de bd b1 17 86 3e 20 6f 1b bd db 70 e3 bd
       -0.10859271 0.2618995 -0.037947774 -0.1110551
000240 11 de d3 3d 56 e7 f4 bd ca c0 e4 bd 4b 88 4d bd
       0.1034509 -0.11958186 -0.11169584 -0.050178807
000250 16 78 63 be a9 39 ab 3c c3 08 e2 3d a0 10 18 3b
       -0.22213778 0.020901518 0.110368274 0.0023203269
000260 21 d2 5c bd 88 a1 4d be 8f a2 76 be 80 60 9e bd
       -0.053911332 -0.2008115 -0.24085449 -0.0773325
000270 a6 ba c7 bd 12 8a e0 bd e4 10 ef bd 88 32 6a bc
       -0.09752397 -0.10963835 -0.116731435 -0.014294274
000280 d8 d6 42 be 6b d9 22 3d cd 16 f1 bd e0 a6 5a bd
       -0.19027269 0.039758127 -0.11771927 -0.0533818
000290 d2 2d 2e 3c 23 12 65 be 1d 7d 49 bd 99 f5 0c be
       0.010631042 -0.223702 -0.049191583 -0.13765563
0002a0 80 af 2d 3e 9f 5d a1 3e f5 d3 2c be 06 94 39 bd
       0.16961479 0.3151674 -0.1687773 -0.04530718
0002b0 48 6d d5 3d b9 cf 80 3e e4 26 c4 bc fb 94 69 bd
       0.10421234 0.2515848 -0.023944326 -0.057026844
0002c0 2f 99 21 3e d3 ca 09 3e 5f 04 84 bd e7 98 03 3e
       0.15781091 0.13456278 -0.06446146 0.12851296
0002d0 c9 43 b1 bd 49 c5 7d 3e 40 f8 e1 3c 58 57 90 3d
       -0.08655507 0.2478229 0.027584195 0.070479095
0002e0 03 b5 ac 3e fa c8 cd be 75 30 5a be 00 cd 34 bd
       0.3373185 -0.40192395 -0.21307547 -0.044140816
0002f0 13 e1 89 3d 18 7f 3a 3e 96 ee 1a 3e 7e 32 f6 be
       0.067323826 0.18212545 0.15130076 -0.48085397

encode_conv4.bias f4 [8]
000000 66 c7 b9 3c f5 81 52 bd 3f 2e ef bd 98 48 f2 3d
       0.022678088 -0.051393468 -0.116787426 0.118302524
000010 83 8f 13 3d 61 28 5d 3c 1c 5f 21 be 9b a4 0d be
       0.036025535 0.013498397 -0.15758938 -0.13832323

fc1.weight f4 [200, 56]
000000 e5 55 9f 3d 1e af 06 be cd 5d 89 3d dc 5d 0b 3d
       0.07780055 -0.1315274 0.06707344 0.03402506
000010 45 16 0a bd 95 6b e4 bd 8d 47 03 3d 46 e9 70 bd
       -0.033712644 -0.11153332 0.032050658 -0.058816217
000020 30 6f 91 3d 51 81 07 3e cc 5b 12 bd 95 f8 09 3e
       0.071012855 0.13232924 -0.035732076 0.13473733
000030 c1 d2 e1 3d b6 71 e2 bc 83 fe 0d 3e aa da be 3d
       0.11026526 -0.027642112 0.1386662 0.093190506
000040 a3 5c e4 3d 5a ba 25 3e 67 c6 1f 3e 3a 98 2b 3e
       0.111504816 0.16184369 0.15603028 0.16757289
000050 67 43 4d 3d bc 82 15 be 7a 07 16 3c 0d f0 cb 3d
       0.050113108 -0.14600652 0.009157056 0.099578954
000060 b4 1b a2 bd f8 54 3d bc 04 3b 28 bd af 6c 53 bc
       -0.0791544 -0.011555903 -0.041071907 -0.01290433
000070 cb c4 b0 bd 19 53 27 bc 70 2e 93 bd c4 fa cf bd
       -0.08631285 -0.010212683 -0.071865916 -0.101552516
000080 82 aa e9 3c b1 b1 41 bd 5a f1 cb 3d 47 5a 83 bd
       0.028523687 -0.0472886 0.099581435 -0.064137034
000090 49 a9 fe 3b 3f 7d ee bd f3 ac 5a bd 68 eb cd 3d
       0.007771645 -0.116449825 -0.053387593 0.10054666
0000a0 ef 8e d1 3d fd ac d6 3b d8 30 23 bd 75 6e 76 bd
       0.102323405 0.0065513835 -0.039841503 -0.060163934
0000b0 ec e5 00 bd 18 eb 0c 3e 8b 36 18 3d 9b c8 38 3e
       -0.03146927 0.13761556 0.03716139 0.18045275
0000c0 02 a9 1d 3e 6b c7 48 3e e9 31 26 be b2 39 12 bd
       0.15396503 0.19607322 -0.16229977 -0.035699554
0000d0 09 85 30 3d ce 98 16 3d 77 e6 8b 39 0a 8b 5d bd
       0.043095622 0.03676682 0.00026683856 -0.054087676
0000e0 1a 16 25 be 6b 35 e5 bd 6f 8d 62 3d bf 90 04 3e
       -0.16121712 -0.11191829 0.055310663 0.12945841
0000f0 40 e4 eb bc ee 11 5a 3d 9d fa 0f 3e 50 b2 54 bd
       -0.028795362 0.053239755 0.14060445 -0.051927865
000100 cb 14 0c 3e da ee 31 be d7 54 1e be 34 fa e9 3d
       0.13679807 -0.17376271 -0.15462051 0.114246756
000110 47 f6 79 3d 6d 08 c8 3d c2 7c c9 bd 63 b2 78 bd
       0.061025884 0.09767232 -0.09838249 -0.060716998
000120 41 b9 cc 3c be 48 07 be e3 82 8d bd 24 a3 03 be
       0.02499068 -0.13211343 -0.0690973 -0.12855202
000130 71 5c fe ba 54 e5 55 bd 15 61 70 3d fc 7e d5 3c
       -0.0019406212 -0.052220657 0.058686335 0.026061527
000140 05 a4 19 be 83 2d 17 3e 48 d5 78 3d ff b1 0b 3d
       -0.15003975 0.14763455 0.060750276 0.034105297
000150 1a ac 71 3d 65 c7 e4 3d 67 9a aa 3e 4b 57 5a 3e
       0.05900202 0.11170844 0.33320925 0.21322362
000160 1d 35 8c 3c 8f fe ff bc 06 ca dc bb ac 3c e0 bd
       0.01711517 -0.031249313 -0.0067379503 -0.10949072
000170 64 2f ad bd c7 8f 6c bd 42 51 1a 3e 61 df 2b bd
       -0.08456305 -0.057754304 0.1507006 -0.041961078
000180 25 3d e0 3d 18 80 36 bd ae e1 b3 bd 6a 80 bd 3d
       0.109491624 -0.044555753 -0.08783279 0.09253009
000190 3e da dd 3d 79 04 2c be 96 0b 04 be be 14 c8 3d
       0.10832642 -0.16798581 -0.12895045 0.09769581
0001a0 02 da 0a be ff 9d 3a be b4 7c 68 3d 90 df 87 be
       -0.13559726 -0.18224333 0.05675955 -0.26537752
0001b0 69 dc 84 3d 86 6c 77 be c5 6e 11 be 98 57 8b 3c
       0.064873524 -0.24162492 -0.14202411 0.017009541
0001c0 c0 ef f4 bc 9c 4e 0b be ac 41 77 3e 59 00 ff 3c
       -0.029899478 -0.13604206 0.24146146 0.031128095
0001d0 27 90 63 bd bf 8c 86 bd ac 09 26 bd 43 40 39 bc
       -0.055557396 -0.06569814 -0.040536568 -0.011306825
0001e0 51 58 1c be c2 aa bb bd 09 cd 31 3b f5 ad 0f bd
       -0.15268065 -0.09163429 0.0027130267 -0.035078008
0001f0 d2 64 c2 3c a8 68 0d be 16 02 8c bd 7d 85 23 be
       0.023729715 -0.13809454 -0.06836335 -0.1596889
000200 27 9d 13 3d bb 3a 65 3d 3b 3b c2 bd 92 34 5c bd
       0.036038544 0.055964213 -0.094839536 -0.053761072
000210 c8 36 65 3d 32 a0 ad 3c 9a 16 bf be 0f 42 86 3d
       0.055960447 0.021194551 -0.3732193 0.065555684
000220 04 ee ef 3d 43 fb db bd ae 7a a0 bb 57 6f 01 be
       0.1171532 -0.10741284 -0.004897437 -0.12640129
000230 bd 4a 81 bd d8 5c 05 bd 85 62 39 3e b3 e3 90 3e
       -0.06313083 -0.032559246 0.18103988 0.2829872
000240 0c 77 e5 3e b1 bc ec bd b9 3d 85 bc 5c 9e a0 3c
       0.44817388 -0.115594275 -0.016264783 0.019606762
000250 74 38 51 3e 04 4d 00 3d 50 dc 49 3c b6 1f c9 3b
       0.20431691 0.031323448 0.012320593 0.0061378134
000260 99 5e d2 3b 64 c1 04 bd 60 8b 26 3d 27 09 9b bc
       0.0064199683 -0.032410994 0.040660262 -0.018925263
000270 b6 8a 72 bd 2f b9 4a 3c f9 71 63 3d 90 5b 00 bd
       -0.059214316 0.012373253 0.055528615 -0.03133732
000280 10 91 ac bd 42 a4 94 bd 83 4e f5 3c a9 a4 20 be
       -0.08426106 -0.07257892 0.029944664 -0.15687813
000290 81 f9 77 be c5 63 88 bd f8 dd 05 3c 05 11 07 be
       -0.24216272 -0.066596545 0.008170597 -0.13190086
0002a0 a2 60 97 3c aa 7c 29 3e d4 ed 8f bc 8f 04 20 be
       0.018478695 0.16551462 -0.01756946 -0.15626739
0002b0 5b 43 16 be 32 d7 34 bd 08 2c 04 be 84 d5 88 ba
       -0.14674132 -0.04415054 -0.12907422 -0.0010439609
0002c0 af 1a ac 3d 9a b9 d2 3d e3 ea cf bd f0 ba 9a 3d
       0.08403527 0.10289307 -0.10152223 0.07555187
0002d0 df 13 0f be c3 16 8d 3d 23 e2 67 bd 93 b5 33 be
       -0.13972424 0.06889107 -0.056612145 -0.17549734
0002e0 44 77 d6 bd 05 b6 48 3d bf e3 9a bd f3 62 fb bd
       -0.10471967 0.049001712 -0.0756297 -0.122747324
0002f0 e7 9b 9f 3b e3 f2 0d 3e 6b 2d aa bc 00 00 05 be
       0.00487088 0.13862185 -0.02077361 -0.12988281
000300 6c b0 ad bd c6 f9 1c 3e 7a 95 fd 3c 87 3a a3 3c
       -0.084809154 0.15329656 0.030955065 0.019925369
000310 05 b0 bc 3d 1b 55 04 3e ac 39 72 3e 82 16 df 3e
       0.092132606 0.1292309 0.23654813 0.4357186
000320 4d e9 6f bd d1 80 d0 3c 16 9c cd 3b 2a 7b 1f 3e
       -0.058572102 0.02545205 0.0062747104 0.15574327
000330 03 e6 b8 bb 29 09 de bc 51 42 29 bd 4e 6c a5 3d
       -0.005642654 -0.027103977 -0.04132301 0.08077298
000340 54 7b 3e bd ba 04 2a 3c 6f 5c 99 b9 8b db 10 3d
       -0.046504334 0.010377103 -0.00029251302 0.035365622
000350 f2 cb 06 be b3 c3 0d 3d 80 b9 f9 bc 20 85 7c bc
       -0.13163736 0.03461046 -0.030483961 -0.015412599
000360 c1 2f 80 bc e9 08 e8 3d e2 56 95 3e 8c d4 72 bb
       -0.01564777 0.113298245 0.2916785 -0.0037052957
000370 e6 1b 93 be 33 3c ad 3d 3f 3c 1f bd 26 3b f2 bd
       -0.28732222 0.08458748 -0.038875815 -0.11827688
000380 33 a9 b9 bb 57 8c a4 bd 3f 43 d8 bc a9 97 1a 3b
       -0.005665922 -0.0803458 -0.026399253 0.0023588932
000390 b1 79 99 3d f8 1d d8 bd f9 b6 03 3e 94 01 a3 bd
       0.07493914 -0.10552591 0.12862767 -0.079592854
0003a0 6d 94 87 3b 1d c3 26 bd 40 e6 97 bd b1 20 34 3d
       0.004137567 -0.04071342 -0.074169636 0.04397649
0003b0 fd a6 27 be 32 b4 94 bd c7 dc 26 be 8c 4e a2 bd
       -0.16372295 -0.07260932 -0.16295157 -0.07925138
0003c0 a8 7b 8e 3c b4 97 12 bc 88 6f 4c 3d 92 f8 a1 bd
       0.017392948 -0.008947302 0.049911052 -0.07908739
0003d0 1a d8 03 be 18 9b 3c 3e b6 58 a4 bd 4e 7e e4 3b
       -0.12875405 0.18418539 -0.08024733 0.0069730645
0003e0 6a d4 73 bb 4d 7b 8d bd c6 38 63 3d 90 5a d5 3c
       -0.0037205466 -0.069082834 0.055474065 0.02604416
0003f0 f6 b1 3a 3e 4f 9f 16 3d a6 dc 2a bd e0 c7 a4 3d
       0.18231949 0.036773022 -0.041714333 0.08045936

fc1.bias f4 [200]
000000 8c 2d 06 be 70 1a 49 3d 25 93 57 3d 6c 4b 5b 3d
       -0.13103312 0.04909748 0.052630562 0.053538725
000010 01 03 8e 3d 48 ef 35 3e c8 2e 02 3e 11 19 8f bd
       0.06934167 0.1776706 0.12713158 -0.06987203
000020 85 3b 25 3e c4 ac e6 bd ac e2 60 3d 7a 84 30 be
       0.16135986 -0.11263421 0.05490367 -0.17238036
000030 f8 a6 01 3e 8c 20 ea 3d 2a fb 24 3e 57 5d 97 be
       0.1266135 0.11431989 0.16111436 -0.295634
000040 1f 9d f9 3b cf 59 39 bc c0 4e c7 3d 23 e0 86 3c
       0.0076176072 -0.011312916 0.09731817 0.016464299
000050 58 1f 1e 3e 29 2d 24 be ec e4 25 be 70 f6 04 3e
       0.15441644 -0.16032852 -0.16200608 0.12984633
000060 65 2a 18 be 9a 01 71 3d 80 84 15 3d 6b 19 21 3e
       -0.14859922 0.058839418 0.036503315 0.15732352
000070 c9 ea 23 be 28 6d 3d be 8d 61 b3 bd a8 bc 04 3e
       -0.16007532 -0.18498671 -0.08758841 0.12962592
000080 b6 95 b5 3d 8c a0 b4 bd 3e bc fc bd fb 05 8c 3d
       0.08866446 -0.088196844 -0.12340592 0.06837078
000090 40 c7 03 be 61 17 ad bd 5f 57 2b 3d d5 3f 3c bd
       -0.12868977 -0.08451725 0.04183137 -0.045959312
0000a0 c7 a1 04 3e a9 fc 26 3e 41 96 34 3e d2 e3 82 bd
       0.12952338 0.1630732 0.17635442 -0.063911095
0000b0 01 c2 3b 3d 20 2f 0b 3e 0f 84 9f bd 23 3d 40 be
       0.045839313 0.13592196 -0.0778886 -0.18773322
0000c0 a0 cd 38 be e9 20 f8 bd 01 dc 19 3e b0 a5 0d 3e
       -0.1804719 -0.12115652 0.15025331 0.13832736
0000d0 e1 46 29 3e 70 0b e5 bb 33 59 0b 3e d2 d4 95 3d
       0.16530944 -0.006989889 0.13608246 0.07315983
0000e0 4a ba c3 3d 55 a9 09 be e3 ca 02 be 60 ef 15 3e
       0.09557016 -0.13443501 -0.12772708 0.14642096
0000f0 80 51 f7 3d e8 a7 b3 3d 0d 1d 00 3e 37 d4 10 3e
       0.12076092 0.0877226 0.12511082 0.14143454
000100 e7 ac b9 bd 02 5e 80 be b0 1c c4 bd f4 91 10 be
       -0.09066182 -0.25071722 -0.09575784 -0.14118177
000110 e9 2f 19 3d 21 f8 ab 3d 5d 05 0c be 27 08 c7 3d
       0.037399206 0.08396936 -0.13673921 0.09718352
000120 b2 ad 52 bd 0c ee b3 3d 9e ab 82 3d 7c 5b 47 be
       -0.05143518 0.08785638 0.0638039 -0.19468492
000130 4f 54 16 bd c6 a5 8d 3d fa f5 35 3d 86 fd 90 be
       -0.036701497 0.069163844 0.044424035 -0.28318423
000140 20 5c b0 bd ad 96 0e be 36 b7 86 3d 34 74 0f 3d
       -0.086113214 -0.13924666 0.065779135 0.03502293
000150 e9 7b c7 bd 41 09 ad 3d f8 c8 67 3d a9 de 1d 3e
       -0.09740431 0.08449031 0.056588143 0.1541697
000160 ba d5 e3 bd 82 e5 25 3e 5a 1f 86 bd 68 5e e5 3d
       -0.111247495 0.16200832 -0.065489486 0.11199647
000170 7c 5f 03 bb 4a bd 2b 3e 05 85 b0 bd 83 eb 22 3c
       -0.0020045927 0.16771427 -0.086191215 0.009943846
000180 ef 91 ae bd 25 93 02 be 26 3e f5 bd a4 11 07 3e
       -0.085239284 -0.12751444 -0.119747445 0.13190323
000190 62 7d 02 3d 38 cc ae bd 43 f9 30 3e 61 6f 1e 3e
       0.031857856 -0.085350454 0.17282586 0.15472175
0001a0 c1 4d 19 be 52 f9 1d 3e 0f f2 35 3e 00 f6 22 3e
       -0.14971067 0.1542714 0.1776812 0.15914154
0001b0 c4 cf be 3d 85 e9 e8 3d fb 1c d8 bd d0 7e ac 3d
       0.09316972 0.11372665 -0.105524026 0.08422625
0001c0 be f9 23 3e 0d e5 18 3d 33 62 11 3e b5 e5 3f be
       0.16013238 0.037327815 0.14197616 -0.1873997
0001d0 1a ce 37 3e a4 aa 7f bd 41 27 c9 3d b8 ce 19 3e
       0.17949715 -0.062418595 0.0982194 0.15020263
0001e0 f8 49 af 3c 94 bc 36 3e 7b 95 2b 3e e3 9f 2e 3e
       0.021397576 0.17845374 0.16756241 0.1705318
0001f0 d7 bf e7 bd 23 d8 78 bd f6 5b db 3d 4f d8 bd 3d
       -0.113158874 -0.060753 0.107108995 0.09269773
000200 5a af d7 bd a3 da ab 3d 9c 5f 31 3e b3 24 04 be
       -0.105314925 0.08391311 0.17321628 -0.12904625
000210 6d 56 35 be 31 31 9b 3d 59 1c 17 3e 64 5b e5 3d
       -0.1770875 0.07577742 0.14756908 0.11199072
000220 3e 45 f6 bc 65 89 2e be 99 37 82 3c c9 45 25 be
       -0.030062314 -0.170446 0.015895652 -0.16139902
000230 24 bf 5e 3d f1 10 1c be c3 e2 25 3e ee aa 10 be
       0.054381505 -0.15240838 0.16199784 -0.14127705
000240 38 28 c1 bd 2b 5d a8 3d 75 42 d0 3d 1c 8d 12 3e
       -0.09431499 0.082208954 0.10168926 0.14311641
000250 16 b9 11 3e cd d9 ad bd ff d6 0f be dd 47 f1 bd
       0.14230761 -0.08488808 -0.14046858 -0.11781285
000260 02 d4 9a 3d ff 57 92 bc f5 58 f6 bd 11 43 ca bd
       0.075599685 -0.017864225 -0.12028686 -0.09876073
000270 c1 3f 32 3e af 66 bc 3d de e6 46 3d dd d0 85 bd
       0.17407133 0.09199273 0.048560016 -0.06533978
000280 71 d0 d7 3d 8a 18 3c be ec 4b 18 be 59 1b 85 3d
       0.10537804 -0.18368736 -0.14872712 0.06499357
000290 6b 1b 2f 3d 62 24 29 3e b3 25 e9 bd 9d 6d 1a 3e
       0.042750757 0.16517785 -0.11384144 0.15080877
0002a0 8e dc 32 3e 61 b2 c4 bd 2b 26 1e be 02 52 ed bd
       0.17466947 -0.096043356 -0.15444247 -0.115879074
0002b0 c5 8f 00 be ca 2d 42 be 07 6b 86 bd ea b3 36 3e
       -0.12554844 -0.1896278 -0.065633826 0.1784207
0002c0 01 02 19 3e 19 27 e3 bd 5a 2e fb bd fa 52 0b be
       0.1494217 -0.11091442 -0.122647 -0.13605872
0002d0 05 6e 2e be 12 dc dd bd b6 7b 01 be 56 07 87 3d
       -0.17034157 -0.10832991 -0.12644848 0.06593196
0002e0 d3 d2 19 be f2 da 14 3d c4 69 39 bd ef 50 da 3d
       -0.1502183 0.036341615 -0.04526688 0.10659968
0002f0 9b b0 59 bd e7 93 5f 3d 92 ba 6d bd 00 a2 26 be
       -0.05314694 0.05458441 -0.058039255 -0.16272736
000300 c0 aa 29 be 6c a6 c4 bd 44 0c 47 bd 5c 16 fd bd
       -0.16569042 -0.09602055 -0.04859568 -0.1235778
000310 d8 36 36 be 2e a2 dd 3d 62 90 63 3d 49 b5 d1 3d
       -0.17794359 0.10821949 0.055557616 0.102396555

fc3.weight f4 [25, 200]
000000 99 ef e3 bd 05 a0 b9 3d ad f3 c2 3d 22 97 4c 3d
       -0.11129684 0.090637244 0.09519134 0.04994882
000010 ab 1a fb 3c e6 68 19 3d 20 83 68 3c 3c 75 29 3e
       0.030652365 0.037453555 0.014191419 0.16548628
000020 c2 f4 ef 3c 00 3d d0 bd 64 62 af 3d 75 7d 82 bd
       0.029291514 -0.10167885 0.085636884 -0.06371585
000030 62 e9 6a ba 53 65 20 3d 45 71 9c 3d 55 b4 cf bd
       -0.00089611684 0.03915913 0.07638792 -0.101418175
000040 ab 37 09 3d 38 8a 41 bf 61 fb 7e 3d d1 7e 60 3c
       0.033500355 -0.7560153 0.062251452 0.01370211
000050 b6 fc 4f bc 47 43 59 bb 30 59 82 bd 1b 11 43 3d
       -0.012694528 -0.0033151673 -0.063646674 0.047623735
000060 1d d8 1f bd 4e 11 cf 3d 18 91 8a 3d d6 80 67 3d
       -0.03902446 0.101107225 0.06765956 0.056519352
000070 55 6e 9f bd a6 40 87 bd 48 16 ed bd 83 3c a2 3d
       -0.07784716 -0.066041276 -0.115765154 0.07921698
000080 49 87 55 3c 35 07 32 bf 2e c2 1d be cb 47 bf 3d
       0.013032743 -0.6954225 -0.15406105 0.09339865
000090 da bf e9 bc 0e f8 85 be d0 57 2a 3d a2 a4 58 bd
       -0.028533865 -0.26165813 0.04158765 -0.05289138
0000a0 9b 62 bf 3b 1e 2e 67 3d e2 0a 4c bc 09 76 27 bd
       0.005840612 0.056440465 -0.012453767 -0.04088405
0000b0 60 06 cb 3d c8 78 a1 3d b1 95 ce bd 6f 3d 78 bd
       0.09913325 0.07884365 -0.10087145 -0.060605463
0000c0 94 1c 66 be 43 21 c5 bd 2d d3 10 bc 0d 58 99 3d
       -0.22471839 -0.09625485 -0.008839411 0.074874975
0000d0 51 e1 fc 3c c4 9f 80 be ae a9 10 3d 84 e0 b3 bc
       0.030869158 -0.25121891 0.03531807 -0.021957643
0000e0 cb e9 7c 3d 42 e8 b8 bd d3 c0 9a bd 5e 69 52 3d
       0.0617464 -0.09028675 -0.075563096 0.051370017
0000f0 a5 ed 05 3e bc 46 08 3e 70 9c a9 3c 1f 8f 82 3d
       0.13078935 0.13308233 0.020704478 0.063749544
000100 61 59 9a bd 51 0a 8d be a0 c5 d6 bd 77 10 7e be
       -0.07536579 -0.27546933 -0.10486913 -0.24810968
000110 fe 48 20 3e ff 77 8d 3d d9 67 d6 bd 2a 26 b3 3d
       0.15652844 0.06907653 -0.10469026 0.087475136
000120 60 42 ac 3e ec 3d f3 3d ff 05 30 3e 8e cc 68 3d
       0.3364439 0.11877045 0.17189787 0.056835704
000130 75 bb 5a 3e 99 6e 00 bc 5d 1c 3f bd 58 06 ed be
       0.21360572 -0.007838869 -0.04665791 -0.46293902
000140 af f7 48 bc 72 46 99 bd 2d 21 8a 3d 02 9a d2 3d
       -0.012266084 -0.074841395 0.06744609 0.10283281
000150 16 74 34 bd a4 65 1e 3b 9b 5b 7d 3d 5a ac 3b 3d
       -0.04405602 0.002416947 0.06185494 0.045818664
000160 30 d8 b7 be 90 a3 e7 3b fa 19 87 3e 90 d6 5c 3d
       -0.35907125 0.0070690587 0.26387006 0.05391556
000170 b6 0d 42 3e b1 48 11 3c 68 18 f8 bc 68 19 42 bd
       0.18950543 0.008867429 -0.030285075 -0.04738751
000180 85 0f bf 3c 08 d8 d5 bd 4f b2 b2 bd 33 7c 4b 3d
       0.02332283 -0.10441595 -0.08725416 0.049678992
000190 4e da 14 ba e4 39 37 bc f9 5b b9 3c ca bc fb 3d
       -0.0005678282 -0.011183236 0.022626864 0.12291868
0001a0 b9 60 42 bd b9 1b a9 3d 53 af aa 3d d2 01 72 3d
       -0.047455523 0.08257241 0.08334222 0.059083767
0001b0 ea b3 24 3b 1c 05 38 3d a2 01 46 bd d5 fc 20 3d
       0.0025131651 0.044926748 -0.0483414 0.03930362
0001c0 9c 30 d7 3d 45 0d bd 3d 16 f5 dd 3d 42 f4 d4 be
       0.105073184 0.092310466 0.10837762 -0.41592604
0001d0 12 74 81 bc b3 c0 70 3d d9 fa 4c 3d ee bc 05 3e
       -0.015802417 0.058777522 0.050043914 0.13060352
0001e0 28 0d b8 3c 8e 83 de 3c b6 32 17 3d f2 1a 39 3d
       0.02246721 0.02716234 0.036913596 0.045191713
0001f0 76 1b 5c bc 95 d4 43 3c f1 d9 de 3d 37 af 94 3d
       -0.013434282 0.011952539 0.10881413 0.07259982
000200 bd bb 9e 3c 22 d1 78 3d b3 13 88 3d 3e e7 f9 3b
       0.01937663 0.06074632 0.06644382 0.007626443
000210 78 f4 d0 bd 9a 1f da 3b 2a b8 55 3d 47 8b 52 3d
       -0.10202879 0.006656599 0.052177586 0.051402356
000220 95 8e 46 be a8 88 e5 bd 22 30 ef 3c e7 6a e8 bc
       -0.19390328 -0.11207706 0.029197756 -0.028371288
000230 6d 30 18 bd aa 97 44 bc 23 a9 a2 bc 7c 31 d4 bd
       -0.037155557 -0.01199905 -0.019856041 -0.10361001
000240 65 cb b8 bd 1e e5 eb 3d 3a 04 81 3d c2 79 8a 3c
       -0.090231694 0.1151831 0.06299634 0.016903762
000250 bc 89 85 3d 2a ad e0 3c d3 62 56 be 92 05 17 3c
       0.06520411 0.027426321 -0.20936136 0.009217637
000260 1c 6d 28 3d 25 08 3a be 80 aa 13 bd 70 8c 5d bb
       0.04111968 -0.1816717 -0.036051273 -0.003380563
000270 b7 b6 b9 3d b5 31 7c 3c 0f 99 2d 3e 72 89 03 3e
       0.09068053 0.01539271 0.16952918 0.128454
000280 72 95 1f 3e 2b a4 97 bd 57 14 a2 bd 52 37 e1 3d
       0.15584353 -0.074043594 -0.07914036 0.1099688
000290 ec f7 ff 3b cf b8 79 3d c9 e3 1e be a3 7f be 3d
       0.007811537 0.060967263 -0.1551658 0.093016885
0002a0 19 dd 3d 3c f1 8e ea bc 89 de b1 bd 5c af c7 3c
       0.011588358 -0.028632613 -0.08685023 0.02437561
0002b0 38 de c3 bd 71 d6 91 bd 1f 21 af bd 6e 40 9b 3d
       -0.09563869 -0.071209796 -0.08551239 0.07580648
0002c0 9c c3 95 3d 0a 51 43 3c be 48 04 bd 7c ff ab bc
       0.073127 0.011921177 -0.032295935 -0.020995848
0002d0 c7 f1 9c 3a a3 76 32 be 9b 66 46 bd a5 07 10 3d
       0.0011973911 -0.17428069 -0.048437696 0.03516354
0002e0 1d 00 f5 bc fb b4 2f bd d3 f7 7d be 7c 5d 24 bc
       -0.02990728 -0.042897206 -0.24801569 -0.010032054
0002f0 47 a1 97 bd 2b 44 17 3e 3d ec b2 bd e6 d7 e8 be
       -0.07403808 0.14772098 -0.08736465 -0.45477217
000300 d3 47 7d bd b0 f8 b0 3b 3d c6 66 3e 5d b0 b7 3c
       -0.061836075 0.0054007396 0.2253656 0.022422964
000310 0c f2 82 bd d8 0e 07 3e d5 58 8d 3d dc 51 eb 3c
       -0.06393823 0.13189256 0.06901709 0.028725557
000320 b9 51 db bc 80 e9 00 3e 0d 53 b5 3d e9 69 e3 3d
       -0.026772367 0.12589073 0.08853731 0.11104185
000330 55 22 81 3d ce 71 a6 3d 2d 9c 4c 3d 84 17 40 3e
       0.063053764 0.08127175 0.04995363 0.1875897
000340 d5 b6 d7 3d db 4c 08 be 1c 6e 56 3d 21 28 a9 bd
       0.10532919 -0.13310568 0.052351102 -0.08259607
000350 a8 08 86 3d 48 9a 1e bb be ab 5c 3d e0 93 7f be
       0.0654462 -0.0024200846 0.053874724 -0.24958754
000360 a3 d7 ab bb e6 d6 21 bf 48 c4 e1 3d 7c 49 46 3d
       -0.0052442118 -0.63218534 0.11023766 0.048409924
000370 43 9e b4 3d e6 5d 7f bd e8 2f c3 bc 55 05 4e bc
       0.088192485 -0.062345408 -0.023826554 -0.012574513
000380 35 a0 8e bd 39 cd 76 3b f1 ca 51 bc f3 47 cd 3d
       -0.06964151 0.0037658943 -0.012804733 0.10023489
000390 c2 a7 53 bd fb 8d e8 bc b2 e7 98 3b 97 96 95 3d
       -0.05167366 -0.028388014 0.004666292 0.07304113
0003a0 6e 1c fb 3d df f2 1a bf d2 6b 6f be f2 59 51 3d
       0.12261282 -0.6052684 -0.23380974 0.05111117
0003b0 2c 9c 95 bd 5f 43 8a be 87 03 81 3d 24 df b6 bc
       -0.07305178 -0.27004525 0.06299501 -0.022323199
0003c0 2e 6e 8e 3d 19 00 e1 3c c0 10 b9 3d 33 5f c2 bb
       0.06954609 0.027465867 0.09036398 -0.005931759
0003d0 57 1c 8e 3d 36 d4 da 3c ee 4a ca bc 5f 03 2d 39
       0.06938999 0.026712518 -0.024693932 0.00016499822
0003e0 6b 7e 30 be 7f 79 9f bc 3f 00 c9 3c ff f1 78 3d
       -0.17235725 -0.019467114 0.02453625 0.06077766
0003f0 ed 24 25 bc bc f1 67 be ee fe 9a 3c 19 fd dc 3d
       -0.010079605 -0.22650808 0.018920388 0.10790462

fc3.bias f4 [25]
000000 82 62 b2 3c 42 94 34 3d b1 47 05 3d df 5f f9 3c
       0.021775488 0.044086702 0.032539073 0.030441223
000010 6b 1e 76 3d 9d 14 45 3c 6d b5 d2 3d b6 7b 68 bc
       0.060087603 0.01202884 0.102885105 -0.014189651
000020 bc 3c c6 3d 71 7f 31 3d 2b c6 ea bc 7d 60 37 bd
       0.09679553 0.04333443 -0.028658947 -0.044769753
000030 1f 9d f3 bd 1b 41 7a bd fc 79 d8 bc 9d 28 c0 bd
       -0.11895203 -0.061097246 -0.026425354 -0.09382746
000040 16 e7 60 bd d0 77 c8 bc 6d f5 9b 3c 8f d3 dd bd
       -0.05490788 -0.024471194 0.019037927 -0.10831367
000050 e1 f5 15 bd 4d 97 0c bd 4e fb 80 3c 06 37 d9 bd
       -0.03661144 -0.03432398 0.015744831 -0.10606198
000060 1c 7a 6d bc
       -0.014494445
