training_model/wandb/run-20200708_224942-2ne0wf9u/fir_6cov_1.pt (torch_old, 69680 bytes, 12 tensors)

encode_conv1.weight f4 [4, 12, 3]
0.07944879 0.13529278 -0.05747859 0.18727975 0.13034604 -0.026921859 -0.0058747004 -0.0021063671
-0.10137872 0.14509183 0.15597486 0.088628784 -0.06530993 0.108314924 -0.09545818 0.21637028
0.05722736 0.1615085 -0.15024017 0.13679202 0.13232705 0.07454365 0.030703537 0.069274105
0.023203742 -0.09253421 -0.032812256 -0.03884916 0.11830735 0.016249971 -0.06799703 -0.020672696
0.05397721 -0.03871526 0.113848925 0.17091113 0.0049496735 0.18033199 0.09767122 0.012158061
0.21146303 -0.106691524 0.034564666 0.064647764 0.1391421 0.01655619 -0.02965489 -0.19395
0.029879045 0.05518066 0.099951096 0.04235083 -0.05030368 0.032454953 0.09925731 0.011116105
-0.012752988 -0.15661196 0.008088776 -0.1626915 -0.13536108 0.15418936 0.06830603 -0.106139824
0.15445556 -0.07806164 0.036213554 0.13834491 -0.016150596 -0.0038871649 0.29524162 0.03449303
0.28758663 -0.08908027 0.09139422 -0.20689563 0.077792495 -0.4476758 -0.044373464 0.066941686
-0.11671035 0.23049746 0.068363056 -0.10997843 0.3023202 0.12548488 -0.026332436 -0.019342726
0.02972022 -0.2216771 0.04008989 -0.12938577 0.18133093 0.1737126 0.017246967 -0.14401032
0.28641227 -0.10898316 0.0069927485 -0.24157703 -0.17751034 -0.23762326 0.18427429 0.012067072
0.078862645 0.04351238 -0.0023122134 0.0118915485 -0.05308875 0.14954202 0.19287427 0.034861773
0.0039384514 -0.29801673 -0.07310558 0.10168722 0.05006564 0.18022367 0.091878355 -0.08947972
0.08082281 0.13795039 0.1384252 0.016620403 0.09001712 -0.15448472 0.073030286 -0.02055569
0.032689176 0.09908062 0.12616834 -0.041764643 0.021245379 0.20697933 0.1301386 0.042641323
0.058302443 -0.157756 0.065519765 0.19565949 -0.02245197 0.021915574 -0.058227908 0.1040265
00000000: 0cb6 a23d 318a 0a3e ac6e 6bbd 43c6 3f3e
00000010: 6f79 053e 3b8b dcbc 8f80 c0bb fa0a 0abb
00000020: a59f cfbd f492 143e e0b7 1f3e 0283 b53d
00000030: 36c1 85bd 37d4 dd3d 947f c3bd 2c90 5d3e
00000040: 3c67 6a3d 7c62 253e 8fd8 19be 3513 0c3e
00000050: be80 073e 57aa 983d fc85 fb3c 95df 8d3d
00000060: c615 be3c 9382 bdbd 2566 06bd 4c20 1fbd
00000070: 204b f23d a91e 853c 0742 8bbd c959 a9bc
00000080: 3517 5d3d e493 1ebd a029 e93d 5403 2f3e
00000090: df30 a23b f3a8 383e d907 c83d 9b32 473c
000000a0: c489 583e 1681 dabd ae93 0d3d 0c66 843d
000000b0: 447b 0e3e d9a0 873c d0ee f2bc d49a 46be
000000c0: e6c4 f43c 1e05 623d 29b3 cc3d 1078 2d3d
000000d0: 3b0b 4ebd 7cef 043d 6b47 cb3d 5320 363c
000000e0: e9f1 50bc e35e 20be c986 043c 9a98 26be
000000f0: 189c 0abe d1e3 1d3e 08e4 8b3d d65f d9bd
00000100: 9929 1e3e c8de 9fbd aa54 143d 4aaa 0d3e
00000110: 414e 84bc cebf 7ebb e929 973e 9048 0d3d
00000120: 8e3e 933e b76f b6bd e52c bb3d 73dc 53be
00000130: ac51 9f3d c335 e5be f3c0 35bd b918 893d
00000140: d605 efbd 8707 6c3e ee01 8c3d 5f3c e1bd
00000150: b7c9 9a3e 1c7f 003e 1fb7 d7bc a374 9ebc
00000160: d277 f33c 52ff 62be 4c35 243d b47d 04be
00000170: d1ae 393e b7e1 313e 8349 8d3c 7177 13be
00000180: a1a4 923e 9032 dfbd 6d23 e53b f85f 77be
00000190: 45c5 35be 8353 73be 66b2 3c3e f8b4 453c
000001a0: bd82 a13d 0a3a 323d 8188 17bb c5d4 423c
000001b0: 9773 59bd 8b21 193e d580 453e 38cb 0e3d
000001c0: 200e 813b a695 98be 61b8 95bd 6441 d03d
000001d0: a111 4d3d 8e8c 383e b82a bc3d 2541 b7bd
000001e0: 6e86 a53d de42 0d3e 56bf 0d3e 8327 883c
000001f0: e55a b83d 3e31 1ebe e790 953d 6864 a8bc
00000200: 16e5 053d c8ea ca3d 4632 013e 6711 2bbd
00000210: ca0a ae3c 64f2 533e 0e43 053e aba8 2e3d
00000220: 8bce 6e3d ca8a 21be 3a2f 863d f65a 483e
00000230: 32ed b7bc 4a88 b33c 6380 6ebd d80b d53d

encode_conv1.bias f4 [4]
-0.03738893 0.09293694 0.22079127 0.025894426
00000000: 2225 19bd b955 be3d 1b17 623e 8c20 d43c

encode_conv2.weight f4 [4, 4, 3]
0.116343044 -0.21052782 -0.078500606 0.28652728 0.12729919 -0.087267496 -0.17666186 0.22243439
0.024018103 0.31258687 0.07082402 0.26640475 0.09748723 -0.05982455 -0.2557591 0.19063213
0.1973912 -0.093837366 -0.16317616 0.12724254 0.004864543 -0.19790709 -0.18518768 -0.06706141
-0.16661271 0.28013837 -0.34745774 0.179432 -0.1136084 -0.43396297 0.14760363 0.14030172
0.026902875 -0.3426715 0.11447374 -0.22444324 0.13630356 0.302448 0.21443975 0.02513155
0.20142789 -0.16739695 -0.31949413 -0.4647659 -0.20404801 0.28373453 0.26221916 0.18101054
00000000: 4345 ee3d 9b94 57be edc4 a0bd b4b3 923e
00000010: b85a 023e 4db9 b2bd d9e6 34be d7c5 633e
00000020: 9dc1 c43c 630b a03e 2f0c 913d 3466 883e
00000030: 63a7 c73d 960a 75bd dbf2 82be 1235 433e
00000040: eb20 4a3e ce2d c0bd a717 27be de4b 023e
00000050: bf66 9f3b 28a8 4abe d7a1 3dbe 7e57 89bd
00000060: 869c 2abe 4c6e 8f3e fbe5 b1be 06bd 373e
00000070: 85ab e8bd 6530 debe 6825 173e 41ab 0f3e
00000080: 6b63 dc3c a472 afbe 3571 ea3d 73d4 65be
00000090: 2993 0b3e 77da 9a3e 1896 5b3e aee0 cd3c
000000a0: 1d43 4e3e 1b6a 2bbe bc94 a3be ccf5 edbe
000000b0: f6f1 50be a745 913e 9741 863e d45a 393e

encode_conv2.bias f4 [4]
-0.086572945 0.06304018 -0.30238828 0.21434437
00000000: 284d b1bd 361b 813d a3d2 9abe 177d 5b3e

encode_conv3.weight f4 [8, 4, 3]
-0.20495465 0.01054042 -0.052323453 -0.27487713 0.009116262 -0.13734469 -0.062050153 0.16727813
-0.030265167 0.24146827 -0.30220783 0.2840692 0.23306568 0.083788194 -0.14834283 -0.005085988
0.21400456 -0.07052835 0.17290197 0.10963134 -0.11045148 0.32721937 -0.2690455 -0.07954337
0.021068482 -0.022924671 -0.07609694 -0.14244051 0.12509936 0.14742143 -0.18136519 0.094010524
0.06982292 -0.10949445 -0.025608296 -0.2668601 0.085315846 0.17523634 0.21126178 -0.082859345
0.32001537 -0.13127299 0.26071078 0.015457534 -0.17235138 -0.19980274 -0.20078272 0.204368
-0.0703043 -0.08642337 0.23944268 -0.14521381 -0.025518136 -0.061053824 0.002568897 -0.14818454
-0.025118826 -0.121133156 0.2552582 0.26442164 -0.020013701 0.21313836 -0.3527795 -0.25553566
0.28947613 -0.121622436 -0.434387 -0.06969141 0.18974602 0.108873695 0.2320081 -0.17008664
-0.25202712 -0.29999915 -0.08455026 -0.005480446 0.108123325 -0.20795317 0.025017709 0.023048589
0.14634678 -0.023513502 0.104960576 0.2898773 0.11963895 0.37464577 -0.23413163 0.26542583
0.18117522 -0.19600023 -0.05738187 0.33213973 0.072363116 0.15319596 0.12620518 0.14155924
00000000: a2df 51be bab1 2c3c 1e51 56bd b2bc 8cbe
00000010: 605c 153c 16a4 0cbe 4d28 7ebd f54a 2b3e
00000020: a8ee f7bc 7543 773e fcba 9abe 8571 913e
00000030: c5a8 6e3e 2599 ab3d 2fe7 17be 5ca8 a6bb
00000040: 0324 5b3e 2b71 90bd 370d 313e 6586 e03d
00000050: 6334 e2bd 4c89 a73e 55c0 89be a2e7 a2bd
00000060: cf97 ac3c 85cc bbbc b6d8 9bbd eddb 11be
00000070: 0c1a 003e a5f5 163e ccb7 39be 9788 c03d
00000080: 52ff 8e3d a03e e0bd 7dc8 d1bc e3a1 88be
00000090: 13ba ae3d 2871 333e 0255 583e 29b2 a9bd
000000a0: 0ed9 a33e 6d6c 06be e27b 853e 9941 7d3c
000000b0: e17c 30be 1799 4cbe fc99 4dbe d845 513e
000000c0: b3fb 8fbd bcfe b0bd 7630 753e eeb2 14be
000000d0: 690b d1bc 9313 7abd f15a 283b b0bd 17be
000000e0: ffc5 cdbc a914 f8bd 34b1 823e 4662 873e
000000f0: c6f3 a3bc f140 5a3e 849f b4be 92d5 82be
00000100: 3736 943e 2f15 f9bd f967 debe 5fba 8ebd
00000110: c84c 423e 2cf9 de3d 8893 6d3e 312b 2ebe
00000120: b309 81be 7d99 99be b028 adbd 5095 b3bb
00000130: c36f dd3d adf1 54be f0f1 cc3c 65d0 bc3c
00000140: eedb 153e 639f c0bc 92f5 d63d cc6a 943e
00000150: 4405 f53d 92d1 bf3e 34c0 6fbe e5e5 873e
00000160: ff85 393e 49b4 48be 4009 6bbd 380e aa3e
00000170: 1d33 943d 67df 1c3e ee3b 013e e8f4 103e

encode_conv3.bias f4 [8]
0.13699797 -0.12884249 0.010000047 -0.1474153 0.0071755964 -0.2732531 -0.2304572 -0.2559736
00000000: 3249 0c3e 49ef 03be 3dd7 233c 09f4 16be
00000010: 4421 eb3b d5e7 8bbe f9fc 6bbe f90e 83be

encode_conv4.weight f4 [8, 8, 3]
0.15561831 -0.17280072 0.0115570985 0.1375711 -0.26340243 0.042208686 -0.037586045 0.091170646
-0.089562364 0.025136447 -0.16448121 0.21002756 -0.032052852 -0.025756016 0.15239719 -0.08896841
0.18261938 -0.19719867 0.11416029 0.07903287 -0.11750869 -0.15757306 -0.0784398 0.22823133
0.025688834 0.029826362 -0.18363987 0.008117895 -0.06080192 0.1343618 -0.122780405 0.12939069
-0.15373576 0.33953035 -0.12547919 -0.16158548 -0.18237214 0.07796791 -0.0069060754 -0.27405766
-0.19481914 0.116977565 0.13384034 -0.120803826 0.10795252 -0.19043738 0.08880753 -0.22657827
0.08222851 0.0777053 0.14806733 -0.7680502 -0.06547142 -0.10834085 0.11624485 0.051856037
0.014651439 0.024235846 -0.14232291 -0.7524023 0.24114758 -0.020242268 -0.1590337 0.07891224
0.21755075 0.13500656 0.32796335 0.31372225 -0.050845753 0.039998695 -0.18809979 -0.020181652
0.21737736 -0.13590439 0.033578534 0.121500485 -0.019044569 0.29016015 -0.051112287 0.08489245
-0.051330484 0.067106046 -0.14860483 0.0121665 -0.03223325 0.14448993 -0.15046814 -0.11083757
-0.131178 0.113149166 -0.089890674 -0.37344414 -0.18482052 0.054132823 -0.023400024 -0.0750866
0.10705997 0.03289348 0.035781093 0.19079079 0.17902157 0.07121544 -0.16205253 -0.14874466
-0.11963014 0.2335607 -0.0154589135 0.08089376 0.034860298 0.21846227 0.20962463 0.2504175
-0.15656446 0.10676524 -0.015236966 0.063828796 0.08348269 -0.0016536607 -0.06953648 0.0587164
-0.030533358 0.003571813 -0.2930804 -0.0669525 0.12955189 0.05072662 0.1957729 0.08170601
0.06678453 0.16459404 0.30853602 -0.14619368 0.18603282 0.1156386 0.025095811 -0.10888412
-0.03252182 0.29566726 -0.030155232 0.23053348 -0.2492211 -0.15081657 0.27893436 0.08922859
0.23018487 0.25872475 -0.28343344 0.2503892 -0.45884454 -0.24343777 -0.14260927 -0.30399045
-0.17925048 -0.6881762 -0.26227263 0.16467471 -0.17694281 0.14285526 0.23082432 -0.18010855
-1.7963947 0.43545255 -0.35827696 0.269868 -0.20703474 0.08434674 -0.03120566 0.21088576
0.31626064 -0.30341867 0.13112259 0.6342911 -0.13532911 0.09818352 -0.1425391 0.0039711073
0.051454023 -0.17138463 0.1579099 0.025867786 -8.454029e-05 0.16720957 -0.06376092 -0.27868685
0.11664051 0.25170004 -0.014188075 0.13972796 -0.05681291 -0.013586386 -0.12416263 0.2683746
00000000: 685a 1f3e acf2 30be fc59 3d3c 70df 0c3e
00000010: afdc 86be 04e3 2c3d d3f3 19bd adb7 ba3d
00000020: 796c b7bd f3ea cd3c c36d 28be 7711 573e
00000030: da49 03bd 48fe d2bc 020e 1c3e 1235 b6bd
00000040: 9300 3b3e 73ee 49be dfcc e93d fcdb a13d
00000050: 65a8 f0bd d55a 21be 0ca5 a0bd 79b5 693e
00000060: 6471 d23c 6a56 f43c 170c 3cbe eb00 053c
00000070: 6f0b 79bd 2496 093e 4b74 fbbd fe7e 043e
00000080: e86c 1dbe ecd6 ad3e 9e7d 00be aa76 25be
00000090: c3bf 3abe a4ad 9f3d 5c4c e2bb 4951 8cbe
000000a0: ab7e 47be ef91 ef3d 710d 093e ff67 f7bd
000000b0: 3616 dd3d 0402 43be b9e0 b53d 2204 68be
000000c0: 6c67 a83d f523 9f3d f69e 173e f09e 44bf
000000d0: e115 86bd cfe1 ddbd c811 ee3d ff66 543d
000000e0: 970c 703c 418a c63c 19bd 11be 709d 40bf
000000f0: 64ef 763e 1dd3 a5bc bbd9 22be be9c a13d
00000100: a0c5 5e3e 293f 0a3e d0ea a73e 34a0 a03e
00000110: a343 50bd acd5 233d 3b9d 40be fe53 a5bc
00000120: 2c98 5e3e 852a 0bbe a589 093d 3fd5 f83d
00000130: 5b03 9cbc df8f 943e 1e5b 51bd 18dc ad3d
00000140: ea3f 52bd e56e 893d dd2b 18be 0056 473c
00000150: 0307 04bd 2bf5 133e 5214 1abe cffe e2bd
00000160: 8753 06be c0ba e73d 9a18 b8bd 1234 bfbe
00000170: 9741 3dbe 61ba 5d3d 68b1 bfbc 01c7 99bd
00000180: 4242 db3d 50bb 063d 328f 123d a95e 433e
00000190: 6e51 373e 67d9 913d 19f1 25be 8550 18be
000001a0: a600 f5bd 892a 6f3e 6247 7dbc a1ab a53d
000001b0: acc9 0e3d 93b4 5f3e d7a7 563e b936 803e
000001c0: 6f52 20be bca7 da3d 78a4 79bc acb8 823d
000001d0: f9f8 aa3d a5bf d8ba 2469 8ebd 9c80 703d
000001e0: 1821 fabc 1415 6a3b a20e 96be 641e 89bd
000001f0: 40a9 043e b7c6 4f3d b178 483e 7b55 a73d
00000200: 54c6 883d 578b 283e 6ff8 9d3e ccb3 15be
00000210: 637f 3e3e eed3 ec3d bb95 cd3c a3fe debd
00000220: 9a35 05bd b361 973e 1b08 f7bc f810 6c3e
00000230: d133 7fbe a96f 1abe 7cd0 8e3e 7bbd b63d
00000240: 95b5 6b3e 9277 843e 301e 91be 0333 803e
00000250: aced eabe c047 79be 2a08 12be a3a4 9bbe
00000260: 708d 37be 512c 30bf 9948 86be 7da0 283e
00000270: 7f30 35be a648 123e 365d 6c3e 606e 38be
00000280: 43f0 e5bf a3f3 de3e 1470 b7be 232c 8a3e
00000290: ea00 54be fcbd ac3d 03a3 ffbc 70f2 573e
000002a0: eaec a13e b159 9bbe 0045 063e e760 223f
000002b0: b793 0abe 7114 c93d c5f5 11be 1020 823b
000002c0: 74c1 523d 747f 2fbe 22b3 213e aee8 d33c
000002d0: 394b b1b8 fc38 2b3e 1695 82bd 0bb0 8ebe
000002e0: 38e1 ee3d d4de 803e 1a75 68bc d914 0f3e
000002f0: a7b4 68bd 6f99 5ebc fa48 febd 6568 893e

encode_conv4.bias f4 [8]
0.21983485 -0.17841826 0.033414263 0.12924664 0.046700083 -0.001080801 -0.15703093 -0.1603949
00000000: 631c 613e 47b3 36be 65dd 083d 3b59 043e
00000010: 9648 3f3d aaa9 8dba b7cc 20be 903e 24be

fc1.weight f4 [200, 56]
-0.14209537 0.13705435 -0.024693865 0.15184301 -0.1372022 0.016918538 0.015210304 -0.0442051
0.07947654 -0.0049851118 -0.043099806 0.05870298 0.114290446 -0.039439134 -0.05773926 -0.2084367
0.38883588 0.15071349 -0.17339207 -0.24775453 -0.15369105 -0.10089476 -0.039492395 0.15828112
0.31652293 0.075762145 -0.10807076 -0.015896045 -0.18957804 0.043964103 0.087143876 0.13827662
0.101446085 -0.037853763 0.047636583 0.08094219 0.0005005772 0.12467204 -0.036752507 0.09722069
0.0014039803 0.07005895 -0.15987043 0.25003168 -0.7085024 -0.033918194 -0.104676336 0.10663061
-0.06675248 0.031930037 -0.029977445 0.33089742 0.38237488 0.17396201 -0.06585998 -0.08258393
0.15074094 0.055895578 -0.020529263 0.16435072 0.13999507 -0.06837483 0.12733601 -0.07165696
0.022536328 -0.05193609 -0.09726219 -0.043482695 -0.04026573 0.010934664 -0.08698658 0.14556795
-0.058474727 -0.075863555 0.08637402 0.08610197 0.1571351 -0.022795824 0.036225807 -0.007210605
-0.051032875 -0.07143332 0.08002573 0.0415331 -0.0629931 0.121247575 0.062912084 0.1610102
0.07717457 0.116293535 0.014902593 -0.13261172 0.20922548 -0.08224088 -0.08241726 -0.020343436
-0.15493895 -0.17831525 0.0919957 0.1251005 -0.14685807 -0.0024005505 0.024218377 -0.08001259
-0.05045494 0.050280243 -0.015695205 -0.06882309 -0.0393567 -0.049679574 -0.08370924 -0.052057646
0.0357082 0.13097295 0.0020569516 0.12711671 -0.09100749 0.029235704 -0.06259508 -0.037758537
-0.16674098 0.07777133 0.0070745405 0.037482724 -0.02551851 0.036311887 -0.07670397 -0.119854815
0.050379075 -0.0058499346 -0.092955455 -0.14610288 -0.026925148 -0.009504189 0.10819832 -0.12848665
-0.089369774 -0.09189218 -0.04861145 0.052501675 -0.021764375 0.17749332 0.040424336 -0.093203135
-0.056050394 0.12641506 0.13829905 0.0001257646 0.0804975 -0.020886946 -0.029990384 -0.07547537
-0.04117085 0.07764038 0.06611703 0.23188956 0.09190472 -0.047158003 -0.059861694 -0.117829986
-0.087343365 0.024680682 0.13212468 0.10329214 0.0084823165 -0.10379848 -0.008493267 -0.1864968
0.032299295 -0.0277823 0.063721746 -0.07982682 0.026749056 0.021889092 -0.09341452 0.06219269
0.13778418 0.0034826112 0.14097835 -0.03217765 -0.08835254 0.10096061 -0.13784984 0.11093812
0.032980654 -0.15074989 0.0846699 -0.07364462 -0.14924948 0.093406186 0.035445202 0.06153879
-0.03622612 0.061330598 0.053510193 -0.0875101 -0.1448515 0.058589227 -0.16329 -0.1524232
-0.039561052 0.057338182 -0.13673832 0.07111342 -0.09434212 0.024424046 0.18687913 0.13347782
0.09241342 0.024365226 0.022455076 -0.22291218 0.21070354 0.013720459 0.0670589 -0.09645008
-0.010322471 -0.05663566 -0.08105291 -0.14726663 0.16523694 -0.0063006245 0.13953675 0.012225117
-0.053123895 0.09873471 -0.06506469 0.11827416 -0.018606314 0.02839637 -0.044530578 -0.047235504
-0.16461277 0.077477254 -0.086842105 0.05367878 -0.0022658806 -0.15473264 0.03627274 -0.07223911
-0.022522047 0.08448538 -0.045359895 0.03925788 -0.074156165 0.16641234 0.13670667 0.040677957
0.0440196 0.12631726 0.0026284342 0.15308924 0.104382835 0.07758461 0.07740219 -0.071154386
00000000: 7381 11be fa57 0c3e ca4a cabc bc7c 1b3e
00000010: bc7e 0cbe bf98 8a3c a434 793c 6810 35bd
00000020: 99c4 a23d 265a a3bb 6c89 30bd 8972 703d
00000030: 1c11 ea3d ee8a 21bd 0180 6cbd 6e70 55be
00000040: 7f15 c73e a354 1a3e b18d 31be 5db3 7dbe
00000050: 3061 1dbe e9a1 cebd c7c2 21bd 7214 223e
00000060: 4b0f a23e 2f29 9b3d 3454 ddbd 6c38 82bc
00000070: bf20 42be b413 343d 7d78 b23d 6398 0d3e
00000080: f7c2 cf3d 8c0c 1bbd 941e 433d 05c5 a53d
00000090: 2b39 033a 0e54 ff3d cc89 16bd a41b c73d
000000a0: c305 b83a 117b 8f3d 13b5 23be 2704 803e
000000b0: 6a60 35bf ceed 0abd 8c60 d6bd 2661 da3d
000000c0: 86b5 88bd 12c9 023d 4293 f5bc 636b a93e
000000d0: a4c6 c33e 1923 323e 99e1 86bd c321 a9bd
000000e0: d55b 1a3e c3f2 643d fc2c a8bc 8e4b 283e
000000f0: de5a 0f3e 1a08 8cbd 5f64 023e e2c0 92bd
00000100: 1b9e b83c f0ba 54bd 6631 c7bd e91a 32bd
00000110: aeed 24bd 4e27 333c 0526 b2bd c40f 153e
00000120: 3283 6fbd 5a5e 9bbd dde4 b03d 3b56 b03d
00000130: 06e8 203e 4fbe babc 8361 143d f046 ecbb
00000140: d907 51bd a24b 92bd 88e4 a33d 9d1e 2a3d
00000150: 8702 81bd a650 f83d 0dd8 803d dcdf 243e
00000160: b30d 9e3d 4e2b ee3d 012a 743c 5ecb 07be
00000170: 343f 563e e86d a8bd 61ca a8bd 47a7 a6bc
00000180: 51a8 1ebe 4698 36be 3e68 bc3d 581a 003e
00000190: f661 16be 8e52 1dbb 9e65 c63c a4dd a3bd
000001a0: d7a9 4ebd a8f2 4d3d 3b93 80bc 1ff3 8cbd
000001b0: 7e34 21bd cf7c 4bbd c06f abbd 663a 55bd
000001c0: c342 123d c61d 063e eccd 063b e22a 023e
000001d0: 2362 babd b77f ef3c d931 80bd b2a8 1abd
000001e0: 26be 2abe 9346 9f3d 8cd1 e73b 7c87 193d
000001f0: 320c d1bc c6bb 143d f916 9dbd 7176 f5bd
00000200: 4a5a 4e3d cfb0 bfbb 6e5f bebd fe9b 15be
00000210: 2192 dcbc 75b7 1bbc 1597 dd3d 0192 03be
00000220: 8007 b7bd f831 bcbd cd1c 47bd ff0b 573d
00000230: 344b b2bc cfc0 353e fd93 253d 49e1 bebd
00000240: 1995 65bd f372 013e 449e 0d3e aedf 0339
00000250: e0db a43d 1a1b abbc 65ae f5bc d592 9abd
00000260: c4a2 28bd eb01 9f3d 5e68 873d 7574 6d3e
00000270: 8b38 bc3d c028 41bd 8931 75bd d950 f1bd
00000280: 14e1 b2bd 242f ca3c b14b 073e d48a d33d
00000290: 6af9 0a3c 4c94 d4bd 5827 0bbc 04f9 3ebe
000002a0: 444c 043d b597 e3bc 8c80 823d 3e7c a3bd
000002b0: d620 db3c c150 b33c 1d50 bfbd c3bd 7e3d
000002c0: 4c17 0d3e 853c 643b a15c 103e b6cc 03bd
000002d0: 2df2 b4bd 70c4 ce3d 8228 0dbe 8633 e33d
000002e0: b916 073d 2e5e 1abe 6a67 ad3d fed2 96bd
000002f0: dbd4 18be be4b bf3d fd2e 113d 1910 7c3d
00000300: d761 14bd cb35 7b3d 812d 5b3d 7f38 b3bd
00000310: f453 14be 42fb 6f3d 7e35 27be d414 1cbe
00000320: c50a 22bd 71db 6a3d 2105 0cbe eaa3 913d
00000330: 7136 c1bd f014 c83c 3e5d 3f3e 69ae 083e
00000340: 3f43 bd3d 9599 c73c b5f3 b73c 1743 64be
00000350: abc2 573e c7cb 603c 2d56 893d 9f87 c5bd
00000360: 951f 29bc cbfa 67bd 11ff a5bd 10cd 16be
00000370: df33 293e 7875 cebb b9e2 0e3e db4b 483c
00000380: 7198 59bd 6c35 ca3d a340 85bd b939 f23d
00000390: 456c 98bc 819f e83c b265 36bd 047a 41bd
000003a0: 4090 28be 65ac 9e3d 46da b1bd 48de 5b3d
000003b0: 2b7f 14bb 3c72 1ebe ba92 143d 19f2 93bd
000003c0: 2880 b8bc ac06 ad3d 4ccb 39bd dfcc 203d
000003d0: 30df 97bd ff67 2a3e d5fc 0b3e ee9d 263d
000003e0: e54d 343d 5059 013e cf41 2c3b 6dc3 1c3e
000003f0: abc6 d53d aee4 9e3d 0a85 9e3d 64b9 91bd

fc1.bias f4 [200]
-0.03859532 0.11268332 0.0069342656 -0.17986733 0.15786147 0.06666355 0.077558 0.096715674
0.13146165 0.15992019 -0.14247163 0.08572493 0.06439429 0.03511382 -0.08503935 0.14940469
-0.07666423 0.09934362 -0.10730609 0.030664477 -0.029398488 0.02012025 -0.014446419 0.065095216
0.073173836 -0.08884877 -0.056174416 0.004169284 0.051832706 -0.13492723 0.062178828 0.095456176
-0.15778726 -0.03971006 -0.119050525 0.07214328 0.047468953 -0.047585886 -0.045628708 -0.042097256
-0.18610567 -0.075651854 -0.11608902 0.092417486 0.1475207 -0.15630963 0.016553795 0.0798704
0.06397261 -0.02360458 -0.11239149 0.07956173 0.1723701 0.01597978 0.04667104 0.028826246
-0.06317405 0.08557405 -0.12933585 -0.07764998 0.072482206 -0.063586794 -0.0017635943 0.060890578
-0.081065185 -0.09289101 0.1092886 0.10400953 0.007556118 0.050810307 -0.10668472 -0.020051762
0.07026379 0.008090101 0.04007925 -0.08734377 -0.004453582 -0.14944524 -0.0628045 -0.09576705
-0.100166045 0.025989588 -0.17706074 0.13510408 0.15613776 0.052416258 0.08268446 -0.05296708
0.016170561 -0.123743184 -0.105612844 -0.020151801 0.028733864 0.057135098 -0.0063361716 -0.083408065
-0.09346726 -0.022090137 0.08294661 -0.052998357 -0.03727538 -0.14086196 -0.02226448 0.12847172
0.007943534 -0.07058047 -0.20218708 0.1386257 0.09838464 0.058767367 0.01326413 -0.0126871215
0.0021140603 0.104864426 0.06360635 -0.054111496 0.06415286 -0.15312797 0.15243137 -0.12558742
0.0028206822 0.10200204 0.03457846 0.04807568 0.10176186 -0.052323803 -0.1518743 -0.052629083
-0.10420985 -0.11405574 0.06065974 0.12567742 -0.075564265 -0.043031603 -0.039642543 0.16078724
0.03940546 0.12277508 0.1250534 0.009969957 0.07864568 0.14874364 -0.033967193 0.00051160017
-0.068145715 0.17043579 -0.032402344 0.109046556 0.0633125 -0.11648406 -0.050332278 -0.15840456
0.15997386 -0.1739055 -0.04888849 -0.13364616 0.13944292 -0.10935623 -0.11416879 -0.060668897
-0.0030014883 -0.16835159 -0.19398549 -0.13237709 -0.17101985 -0.07063849 -0.17478739 0.12307866
-0.1319682 0.11198109 0.00819342 0.11078628 0.025195956 -0.0025060535 -0.08409128 -0.075294286
0.15265216 -0.14636427 0.037262224 0.05690142 -0.050643034 0.085819 -0.028700473 -0.11361256
-0.059812978 -0.115684405 -0.07022036 -0.010301086 0.15248773 0.014616293 0.036465537 -0.031373218
-0.008191112 0.026273983 0.08844837 -0.032242835 0.03359382 0.17001663 0.07898928 0.047377694
00000000: 2016 1ebd 83c6 e63d d638 e33b 242f 38be
00000010: 70a6 213e e686 883d bbd6 9e3d de12 c63d
00000020: e29d 063e 1ec2 233e 15e4 11be 8d90 af3d
00000030: 27e1 833d 82d3 0f3d 1c29 aebd 8bfd 183e
00000040: 2302 9dbd ab74 cb3d 4cc3 dbbd 1234 fb3c
00000050: 19d5 f0bc 39d3 a43c acb0 6cbc a450 853d
00000060: 2adc 953d 58f6 b5bd 2517 66bd 7d9e 883b
00000070: 884e 543d 5d2a 0abe 3aaf 7e3d 877e c33d
00000080: fc92 21be 04a7 22bd c3d0 f3bd dbbf 933d
00000090: ce6e 423d 6be9 42bd 2be5 3abd 2c6e 2cbd
000000a0: 7c92 3ebe 5cef 9abd 15c0 edbd 6145 bd3d
000000b0: ab0f 173e a20f 20be d39b 873c 1893 a33d
000000c0: 1204 833d 645e c1bc 822d e6bd 43f1 a23d
000000d0: ca81 303e 07e8 823c 222a 3f3d 0525 ec3c
000000e0: 6561 81bd 7341 af3d 9e70 04be f406 9fbd
000000f0: 8d71 943d cb39 82bd 6828 e7ba 6668 793d
00000100: 8105 a6bd a43d bebd b4d2 df3d f302 d53d
00000110: 5099 f73b 781e 503d 857d dabd 9843 a4bc
00000120: 76e6 8f3d 588c 043c 242a 243d 4ae1 b2bd
00000130: 5bef 91bb 2c08 19be a59f 80bd 8421 c4bd
00000140: db23 cdbd 1ee8 d43c 694f 35be b958 0a3e
00000150: 94e2 1f3e 6eb2 563d 7856 a93d 02f4 58bd
00000160: 2078 843c 116d fdbd 8c4b d8bd 6415 a5bc
00000170: 4863 eb3c 7e06 6a3d a99f cfbb d9d1 aabd
00000180: c36b bfbd 60f6 b4bc eadf a93d ce14 59bd
00000190: 12ae 18bd 1e3e 10be 0064 b6bc 178e 033e
000001a0: 9925 023c 7e8c 90bd 210a 4fbe e5f3 0d3e
000001b0: e37d c93d 0db6 703d cb51 593c a5dd 4fbc
000001c0: 0c8c 0a3b 29c3 d63d 0c44 823d 04a4 5dbd
000001d0: 9362 833d 94cd 1cbe f816 1c3e fd99 00be
000001e0: 32db 383b 72e6 d03d 25a2 0d3d 01eb 443d
000001f0: 8668 d03d 7c51 56bd f084 1bbe 9891 57bd
00000200: f96b d5bd 0e96 e9bd 5976 783d 95b1 003e
00000210: 70c1 9abd e841 30bd 3860 22bd 69a5 243e
00000220: 9f67 213d 8071 fb3d 000e 003e 0859 233c
00000230: fc10 a13d 4150 183e 2f21 0bbd e81c 063a
00000240: fb8f 8bbd b886 2e3e 52b8 04bd cd53 df3d
00000250: fca9 813d 328f eebd 3829 4ebd ce34 22be
00000260: 30d0 233e 4914 32be 4c3f 48bd 8ada 08be
00000270: 20ca 0e3e 29f6 dfbd 54d1 e9bd f37f 78bd
00000280: 9eb4 44bb 5c64 2cbe 22a4 46be dc8d 07be
00000290: d41f 2fbe eaaa 90bd 77fb 32be aa10 fc3d
000002a0: ac22 07be 5756 e53d b23d 063c ebe3 e23d
000002b0: c067 ce3c 9a3c 24bb 0d38 acbd e433 9abd
000002c0: d950 1c3e 84e0 15be 46a0 183d 7711 693d
000002d0: 126f 4fbd dfc1 af3d 411d ebbc b4ad e8bd
000002e0: 74fe 74bd f2eb ecbd b1cf 8fbd e3c5 28bc
000002f0: be25 1c3e 2d79 6f3c e35c 153d 3481 00bd
00000300: 0434 06bc 893c d73c 6b24 b53d 1011 04bd
00000310: ac99 093d d718 2e3e 22c5 a13d 1d0f 423d

fc3.weight f4 [25, 200]
-0.7071655 0.040204234 0.09093808 -0.03531804 -0.0063676904 0.10271625 0.014617336 0.064839184
0.019334897 0.056962486 -0.026288291 -0.0013890692 -0.012252625 0.018026996 0.15140358 0.09404642
-0.051205695 0.06594913 -0.035981026 0.0050812983 0.06295736 0.11386468 -0.006934347 0.07054254
0.050411783 0.0108417515 -0.020647665 0.0076023713 0.07210082 -0.03251708 -0.021146279 0.015534413
-0.04424355 -0.42741448 -0.025432535 0.07856146 -0.18731917 0.24716482 -0.07003698 0.13608807
0.019425668 -0.0855933 -0.111277744 0.0030745177 0.09006963 -0.10532193 -0.015476412 0.40433753
0.033128556 -0.1592767 0.0036816942 -0.04052956 0.070027485 0.0030048678 -0.042864744 -0.009534415
0.008817292 -0.008384919 -0.042507734 0.07637704 -0.017768301 -0.045006033 0.023414291 0.1041385
-0.021984152 -0.11800074 0.07129313 0.060955934 -0.031971272 0.11576677 -0.09689924 -0.012218067
0.05883031 0.052930847 0.032143444 -0.03261703 0.08794536 -0.052985337 0.012242771 -0.10816485
-0.09818272 0.100724556 -0.08113946 0.08835965 0.06806003 0.1106697 0.107260846 0.06024818
0.093059 -0.049524236 -0.045946587 -0.057451434 -0.018387187 -0.009866189 0.0039692363 -0.09732228
-0.07560383 0.086522676 0.01311389 0.045093294 -0.020330096 0.021484975 0.0055504944 -0.036329575
-0.008287337 -0.10446724 -0.12259883 0.090208456 0.038821492 0.10125107 -0.024344895 0.062347654
-0.015295906 -0.027727546 0.015090057 0.0033083057 0.04314497 -0.08525844 0.08071341 -0.02060168
0.059576802 -0.025425995 0.03753359 -0.0333128 0.041313548 0.037118662 -0.089876615 0.06414187
-0.020014223 0.0061953235 -0.035957497 0.05434199 0.050233405 0.028820168 -0.014540441 0.100905076
0.06422906 0.10608548 0.029843967 0.05608108 0.09701433 -0.009821484 -0.06424274 0.05909012
-0.014588374 0.084826544 0.025600178 0.06651572 0.044279683 0.68400604 0.057997998 -0.09408594
0.04879798 -0.15896532 0.028321518 -0.007385588 0.0263879 -0.26216954 -0.049994122 0.031699657
-0.062393054 0.031964615 -0.1309299 -0.11140584 -0.10455139 -0.09055025 -0.7469707 0.010335824
-0.07237432 -0.012237015 0.04394578 0.00054876704 0.09450019 0.032528117 0.016186554 -0.03142904
-0.008282324 0.013742557 0.018444238 0.06891847 -0.052233763 0.028763335 -0.04989267 -0.8274301
-0.043496978 -0.001377531 0.27983683 -0.011897225 0.056016035 0.11219855 0.029816221 -0.139256
-0.039798606 0.026585922 -0.0444904 0.021969173 -0.08467017 -0.030925272 0.0093299905 0.042615168
-0.147303 0.0146508515 0.05113414 0.004431939 0.111227386 0.059028007 0.061570585 0.17006253
0.08592885 0.0041406937 0.026396202 0.0077729337 0.008309597 0.10158795 0.20602676 -0.0010681197
-0.057321023 0.0026528859 0.00068055256 0.04115822 0.059826422 0.071708314 -0.07384817 0.07226774
0.033553947 -0.12555009 0.10226673 0.054262444 0.1592709 0.018388532 0.078050055 -0.02045775
-0.07590015 -0.42482278 -0.042838763 -0.0031652423 -0.29961646 0.09002553 0.08596993 0.047166463
0.011236044 -0.0029656254 -0.08984923 0.114225954 0.00016059665 -0.067710675 -0.011471031 0.15773854
0.060570363 -0.09636871 -0.03053444 0.113238715 0.021048207 0.09789823 0.08067638 0.04526726
00000000: cc08 35bf 32ad 243d be3d ba3d a6a9 10bd
00000010: 0fa8 d0bb e65c d23d 8d7d 6f3c 68ca 843d
00000020: 3864 9e3c 7f51 693d 8b5a d7bc 6e11 b6ba
00000030: 3cbf 48bc 5aad 933c 8a09 1b3e 699b c03d
00000040: 10bd 51bd 5610 873d d760 13bd 0581 a63b
00000050: caef 803d e331 e93d 8539 e3bb 9b78 903d
00000060: 967c 4e3d 9aa1 313c 4b25 a9bc 501d f93b
00000070: 98a9 933d a130 05bd f63a adbc 0d84 7e3c
00000080: ba38 35bd 12d6 dabe e457 d0bc d5e4 a03d
00000090: 99d0 3fbe c618 7d3e 8c6f 8fbd ac5a 0b3e
000000a0: 9422 9f3c 8a4b afbd 96e5 e3bd d97d 493b
000000b0: 6d76 b83d 06b3 d7bd c790 7dbc 5405 cf3e
000000c0: cfb1 073d 6e19 23be 9448 713b 5302 26bd
000000d0: 926a 8f3d 51ed 443b f192 2fbd 3c36 1cbc
000000e0: 6776 103c e660 09bc 971c 2ebd 916b 9c3d
000000f0: d48e 91bc 3f58 38bd 54cf bf3c 9146 d53d
00000100: 1c18 b4bc 5faa f1bd 2202 923d eeac 793d
00000110: 4ff4 02bd 2117 ed3d 1c73 c6bd 4a2e 48bc
00000120: 0df8 703d 04ce 583d d8a8 033d 6f99 05bd
00000130: b21c b43d 2707 59bd e795 483c 8885 ddbd
00000140: 0614 c9bd ad48 ce3d 722c a6bd e7f5 b43d
00000150: 0f63 8b3d cca6 e23d 93ab db3d ccc6 763d
00000160: b895 be3d edd9 4abd 7d32 3cbd 3252 6bbd
00000170: baa0 96bc cca5 21bc 5e10 823b e750 c7bd
00000180: 2ed6 9abd cd32 b13d a4db 563c bfb3 383d
00000190: 4d8b a6bc 4201 b03c ece0 b53b 52ce 14bd
000001a0: 9cc7 07bc ecf2 d5bd 1815 fbbd 36bf b83d
000001b0: 4903 1f3d b95c cf3d f26e c7bc 4160 7f3d
000001c0: ae9b 7abc e124 e3bc 493c 773c 29d0 583b
000001d0: c8b8 303d fa9b aebd 134d a53d dbc4 a8bc
000001e0: ce06 743d 2d4a d0bc d2bc 193d 0173 08bd
000001f0: 6538 293d bd09 183d 3b11 b8bd d05c 833d
00000200: def4 a3bc 2402 cb3b 2b48 13bd b595 5e3d
00000210: 8bc1 4d3d 4618 ec3c 083b 6ebc 52a7 ce3d
00000220: 878a 833d 5843 d93d 567b f43c 46b5 653d
00000230: 73af c63d 4aea 20bc b391 83bd 7b08 723d
00000240: 1304 6fbc 8ab9 ad3d 77b7 d13c 6539 883d
00000250: 9d5e 353d 051b 2f3f 4f8f 6d3d 21b0 c0bd
00000260: 64e0 473d cec7 22be 8702 e83c cd02 f2bb
00000270: 702b d83c 163b 86be a3c6 4cbd 80d7 013d
00000280: dc8f 7fbd 54ed 023d 7d12 06be bf28 e4bd
00000290: 0a1f d6bd 6972 b9bd 7939 3fbf 9757 293c
000002a0: fd38 94bd c37d 48bc 7d00 343d 22db 0f3a
000002b0: 5189 c13d 343c 053d aa99 843c bdbb 00bd
000002c0: 96b2 07bc 7628 613c 5f18 973c 2025 8d3d
000002d0: 12f3 55bd 16a1 eb3c 425c 4cbd 76d2 53bf
000002e0: e329 32bd 458e b4ba c646 8f3e 94ec 42bc
000002f0: 1271 653d 5ac8 e53d 2641 f43c 2099 0ebe
00000300: dd03 23bd b8ca d93c 913b 36bd b2f8 b33c
00000310: 8e67 adbd ff56 fdbc d1dc 183c 3e8d 2e3d
00000320: 99d6 16be 200a 703c 0872 513d cd39 913b
00000330: 2fcb e33d 5ac7 713d 7031 7c3d df24 2e3e
00000340: 77fb af3d a8ae 873b d93c d83c 18b4 fe3b
00000350: fa24 083c 580d d03d aef8 523e 2600 8cba
00000360: 73c9 6abd 0adc 2d3b 1c67 323a 8695 283d
00000370: 8d0c 753d cfdb 923d b63d 97bd 1c01 943d
00000380: dd6f 093d 3490 00be 3871 d13d 4c42 5e3d
00000390: e917 233e 8ca3 963c b5d8 9f3d 0397 a7bc
000003a0: 8a71 9bbd 5f82 d9be b377 2fbd f46f 4fbb
000003b0: 5467 99be 4e5f b83d 0111 b03d 9f31 413d
000003c0: 6217 383c f05a 42bb e002 b8bd 4cef e93d
000003d0: d665 2839 e5ab 8abd fef0 3bbc 3686 213e
000003e0: a118 783d f55c c5bd 5d23 fabc b3e9 e73d
000003f0: 4a6d ac3c de7e c83d a839 a53d 2a6a 393d

fc3.bias f4 [25]
0.053637322 0.0052300273 -0.008697454 -0.022030292 0.032771636 0.052571744 0.06873713 0.09735411
-0.030473236 0.07280477 0.023965191 -0.009537467 -0.07050616 -0.10081566 -0.08845677 -0.0050709164
-0.051387087 0.02074663 -0.07560071 0.017764729 0.01439354 -0.01757539 -0.016642673 -0.060029134
-0.06633718
00000000: cfb2 5b3d a660 ab3b c47f 0ebc df78 b4bc
00000010: 8d3b 063d 7855 573d 0dc6 8c3d 9761 c73d
00000020: 02a3 f9bc ab1a 953d a652 c43c 0943 1cbc
00000030: 8965 90bd 7178 cebd d328 b5bd ee29 a6bb
00000040: 447b 52bd d6f4 a93c 8cd4 9abd 5687 913c
00000050: e2d2 6b3c 44fa 8fbc 3756 88bc 1ce1 75bd
00000060: cadb 87bd
