training_model/wandb/run-20200624_214906-36fty06p/AE_4.pt (torch_old, 250492 bytes, 16 tensors)

encode_conv1.weight f4 [4, 12, 3]
00000000: 301b da3d 54f3 a8bd 857c 723d 9e30 943d
00000010: fccb f73d e729 913d 2c60 7dbd 767a 44be
00000020: b762 13be ceb8 56bd b192 963d d3c1 3bbe
00000030: d06d 833d eb01 903d ee5e 163e 5aab 193e
00000040: 0be2 773e b0de 5e3d 4422 9abd 337d 79bd
00000050: 0743 213d 01de 223d 5f3f 583c 72b2 293d
00000060: 28cb 3bbe 0f58 f7bd 3e4f 123e 0a4d 8d3d
00000070: 841c 143d f664 50bc 6da8 febc 30f5 083e
00000080: beaa ec3d 51b9 cb3d 0566 173e 76f5 ad3d
00000090: eb2e 95bd f0d2 913d 02fb 143e 2569 973d
000000a0: e1b2 223c 6082 473e 9b84 a2bd 4eed e8bc
000000b0: 993b e7bd 0033 0cbe 7450 21be 3dee 3a3e
000000c0: 9372 fabb 4f56 0d3e f0cd 7f3c 90ae 69bd
000000d0: 3724 0d3e 1073 953d 5dd6 1b3c 97f1 513e
000000e0: 2783 ac3d 2961 cebd 62a5 adbd ea6d cabd
000000f0: 9600 7c3a 1794 3bbe da5a 493b 01de 3f3e
00000100: 93ac 083e b05a 9cbc 7d68 22bd 20d6 1f3d
00000110: 981c 34bb 47e5 ab3d 5a94 a1bc b420 073e
00000120: c3ca 873d e1e1 0dbd a3e3 30be 0428 6cbd
00000130: 3fd1 b63d 9601 1cbe 9d27 2d3e fc6c 71bd
00000140: 952f a2bd ec33 febd 76f3 8f3d 88ec 81bd
00000150: a366 153d 2c8d 6c3d 510f 803d 07b0 3abc
00000160: 175e b63c c3d4 c73d a3a7 ec3d 0f11 fe3d
00000170: 70b2 163e 63b3 133e b721 093e 89e7 e93d
00000180: 15c3 803c f981 c73a cdf8 953d f644 4bbd
00000190: 211a d1bd a65f e63d 4d1f 4e3c 51b7 0bbe
000001a0: 48cc f73d f1e6 66bd 358e a9bd d13c 083d
000001b0: 87bb bc3d d3be 00be c0d8 0c3e c70e a5bd
000001c0: 111d 15be 4e39 3f3d 91d3 58bd b6cf 513d
000001d0: 6b3e 1a3e 190a 60bd f1f6 d43d 1648 d9bb
000001e0: 3236 abbd 845d 82bd e282 0c3e 2161 163e
000001f0: 5ef0 4b3e a478 cebd 17bb b03d bca8 02bd
00000200: ed4b 1cbe 3946 5abe b460 193e 3c27 bf3c
00000210: b316 26be 1ebb 1e3e d211 963d 01a0 82bc
00000220: d737 9a3d 2b29 c0bd 3fc7 38be 26f3 e9bd
00000230: a40c 523d e678 c83c 817f 6abd 88de 273d
0.10649717 -0.08249536 0.059200782 0.072358355 0.12099454 0.0708807 -0.061859295 -0.1918734
-0.14393125 -0.052422337 0.07352198 -0.18335657 0.064174294 0.07031616 0.1468465 0.15006772
0.24207322 0.05441159 -0.07526067 -0.060910415 0.039370563 0.0397625 0.013198703 0.041429944
-0.18339217 -0.12077343 0.14288041 0.0689946 0.036160007 -0.012719383 -0.031086171 0.13374782
0.11556004 0.09947456 0.14785011 0.084940836 -0.072843395 0.07120311 0.14548877 0.073931016
0.009930343 0.19483328 -0.07935449 -0.028433468 -0.11290664 -0.1369133 -0.15753347 0.18254943
-0.007643053 0.13802455 0.015613064 -0.05705124 0.13783346 0.07297337 0.009511557 0.20502315
0.08423453 -0.100771256 -0.0847881 -0.09884246 0.00096131244 -0.1831821 0.0030724318 0.18737032
0.13347082 -0.019086212 -0.03965043 0.039022565 -0.0027482864 0.083933406 -0.01972406 0.13196069
0.066304706 -0.034639243 -0.17274337 -0.05765535 0.08926629 -0.1523498 0.16909643 -0.058941826
-0.07919232 -0.12412247 0.07028858 -0.06343943 0.036474835 0.05775182 0.062529214 -0.011394507
0.022261662 0.09757378 0.11555412 0.124055974 0.14716506 0.144239 0.13391767 0.11421115
0.015718022 0.001522123 0.073228456 -0.049626313 -0.10210062 0.11248712 0.012580705 -0.13644148
0.120995104 -0.056372587 -0.08279077 0.033261124 0.092154555 -0.12572794 0.13754559 -0.08059459
-0.14561869 0.04668551 -0.05293614 0.05122348 0.15062873 -0.05469713 0.10398663 -0.0066309078
-0.08359946 -0.06365493 0.13721803 0.14685489 0.19915912 -0.10081604 0.086294346 -0.0318992
-0.15263338 -0.2131585 0.14978296 0.023334138 -0.16219597 0.15501067 0.07327618 -0.015945436
0.07530182 -0.09382852 -0.18044756 -0.1142333 0.051281586 0.024471711 -0.057250503 0.040983707

encode_conv1.bias f4 [4]
00000000: 5798 bd3d 9090 cc3d f8e7 78bc 9107 993d
0.09257572 0.099885106 -0.015192024 0.07472146

encode_conv2.weight f4 [4, 4, 3]
00000000: 5c04 003e de72 983e 949d 6a3e 7fe3 9b3e
00000010: 3272 1f3d 3b97 7cbe 19ce 653d 966a bf3c
00000020: 9401 963e b976 a3be fff3 9f3e 076b 82bd
00000030: 1665 193d 288a 83bd 446f fe3d 019a 8d3e
00000040: d8de 463e 1cb4 593e 7e37 853e cb88 8c3d
00000050: 8db3 c03b e294 bebd 5aca 7bbe 0357 e1bd
00000060: 9878 4dbe 0ac5 a4be f725 a8be 4bab 56bd
00000070: 0ee3 6f3e 64e0 9dbe 2709 79bd 74ea f3bd
00000080: 3fa5 0dbd 0c98 cabd 9832 c2bc 0e44 883e
00000090: 7f5e 1dbe dd9b c43d ff2e 853e cf96 243e
000000a0: dfd0 8cbe 8f8b 2fbe edf4 163e ab38 943e
000000b0: 5c05 a6bd b2fb c0bd b9ab 893e a994 003e
0.12501663 0.29775137 0.22911674 0.30447003 0.038927265 -0.24667065 0.056104753 0.023366254
0.2929808 -0.31926516 0.31240842 -0.0636807 0.03744992 -0.064228356 0.12423566 0.27656558
0.19420946 0.21260113 0.260189 0.06862029 0.005880779 -0.09305741 -0.2458891 -0.11002924
-0.20065534 -0.3218158 -0.32841465 -0.05240945 0.23426458 -0.3083526 -0.060799744 -0.11909953
-0.03458142 -0.09892282 -0.023705766 0.26614422 -0.15368079 0.09600041 0.26012418 0.16073154
-0.27503106 -0.17143081 0.1474187 0.28949484 -0.08106491 -0.09423007 0.26888826 0.1255671

encode_conv2.bias f4 [4]
00000000: b5e8 c3bd c776 0fbe 7784 833e 7d07 66be
-0.0956587 -0.14010154 0.25687 -0.22463794

encode_conv3.weight f4 [8, 4, 3]
00000000: b7ce 7cbd 9e0f fa3c d845 423e 8ebc 95be
00000010: 933b b23e 4b8c 62be 39f4 4f3e 84ee 2b3e
00000020: f6c1 d8bd f260 8bbe 17c8 3a3c 22c7 4fbe
00000030: 8c2c 9dbe 336e 0fbe 5f15 573d b4f4 343d
00000040: 3915 84bd 1981 30be 1595 1cbe 6021 663d
00000050: 2e9a 06be ccdf 183e 987b 91bc f386 203e
00000060: 7e33 81be c258 98be e5d7 f5bd 362b 8cbe
00000070: 9c21 19be d0dd 753e 1fd8 5ebe 1935 963e
00000080: c0df 40bd 2f3d 99be 6c56 76be d330 203c
00000090: 769e 9e3e faef 5ebe 6be9 5bbe eee2 39be
000000a0: f6b3 24be 1d29 a13e a41e 9fbd b35b 3abe
000000b0: d137 68be 09b5 223d ceaf 873d 520b adbe
000000c0: 069a 99be e217 2b3d af2a 093e 52ee 7f3e
000000d0: 1a0a 5bbd 926e 83be a0c2 723e 7e06 7fbe
000000e0: 4d0c a23d 76ae 7bbe b569 873e b826 b53d
000000f0: 4372 3cbe 011f 9bbe a2ed 493e 3fde 8abe
00000100: e7e4 90be f17d 53be 287f 37be 33e9 afbd
00000110: d03b 63bd ca89 0a3e 6e4c 813e d5ae 87bc
00000120: 424b aabd 0ce9 71bd db1c 50be 05dd be3d
00000130: 9d1e 703e 34f6 7bbc 7bbf 373e f90b 32be
00000140: 1d0a 47be cdc8 3cbe ad6c 533e 65d2 8c3e
00000150: 0f4e a33e d67c fdbd 4c1c 83be 74d4 e53d
00000160: 7f38 1d3e 60dc eb3d 4274 7ebe e246 86be
00000170: dfca 6a3e 08cc 1dbe 40b3 923e cf40 a2bd
-0.061720576 0.030525025 0.18971956 -0.29245418 0.34811077 -0.2212383 0.20308007 0.16790205
-0.1058387 -0.272224 0.011400244 -0.20290807 -0.3069805 -0.14006881 0.052510615 0.04417868
-0.064493604 -0.17236747 -0.15291245 0.056184173 -0.13144752 0.14929122 -0.01775913 0.15676479
-0.25234598 -0.29755217 -0.12004069 -0.27376717 -0.14954227 0.24010396 -0.21762131 0.29337385
-0.047088385 -0.29929492 -0.24056405 0.009777266 0.3098027 -0.21771231 -0.2147576 -0.18152973
-0.16084275 0.3147668 -0.07769516 -0.18199043 -0.22677542 0.03972343 0.06625329 -0.337977
-0.30000323 0.041770823 0.13395189 0.24993256 -0.05347643 -0.25670296 0.23707056 -0.2490482
0.079125024 -0.2457827 0.26447836 0.08845276 -0.18402962 -0.30297092 0.19719556 -0.27122685
-0.2829964 -0.20653512 -0.179196 -0.08589401 -0.055476964 0.13529125 0.25253624 -0.016562859
-0.083151355 -0.05906014 -0.20323507 0.093195 0.23449178 -0.015378524 0.17944138 -0.1738738
-0.19437452 -0.18435974 0.20646925 0.27504268 0.3189549 -0.12377326 -0.25607526 0.11222163
0.15353583 0.115166426 -0.24849036 -0.26225954 0.22928952 -0.15409863 0.28652382 -0.079225175

encode_conv3.bias f4 [8]
00000000: 1827 64bd 9543 383e fa1c a4be 0a23 d1bd
00000010: 7e8a adbd 8f39 5bbe 09bc 003e 0ab4 afbd
-0.055701345 0.1799453 -0.32053357 -0.10211761 -0.08473681 -0.21408676 0.1257173 -0.085792616

encode_conv4.weight f4 [8, 8, 3]
00000000: dd49 0abf 8700 ea3c f645 113e 026b c43d
00000010: 13f7 66be 7631 fc3d 4ea0 3bbe af73 0fbe
00000020: f8d9 98bd 7710 9ebe c97d 44be 012b c73d
00000030: eb23 923e 6d45 ce3d 61e7 4c3e c5e7 34be
00000040: 3074 51bd df58 50bd 19fb 2ebe 4bf8 8c3d
00000050: 1b7b 10be 72f1 8abe 4c4b 5c3e 27aa 17bd
00000060: c82e 2c3d 1f83 f8bd 9c23 1bbd 2057 30be
00000070: 0145 67bd b33e 053d 6eb9 793e 3960 853d
00000080: 5e39 d5bb 92fd c03d 1b5e 643e 225a 5dbe
00000090: b52d 933d 5a37 29be 4ba1 e83b e8bd 99bc
000000a0: 1ae9 29be 0acb 18be 899c 013e 7149 16be
000000b0: 04d6 1abe 9d62 543d e10e 083d c19e d23d
000000c0: d267 893b 97d2 9bbd a560 a73e 8f2a 073e
000000d0: d18a ff3c 797e b83c 1449 283e b9c9 0e3e
000000e0: ba04 20be a84c 803c a818 b3be d533 fabd
000000f0: 97ef a6bc 1dd6 5aba 5f50 bd3e ae83 8ebd
00000100: 9f77 09bc 4ed0 32be 3dc2 0a3d 9819 333e
00000110: 62e1 30bd 2b3b 8abd a56a 143c e237 b73d
00000120: 176e 1e3f b2f8 7d3e 27ce c83d 7894 92bd
00000130: 5928 a9bd 20da 14bd ec16 4f3c d2a6 d1bd
00000140: 328e 33bc aeb1 46be 2bc7 82bd a1e4 473e
00000150: 5f26 8b3c bf1f 8e3e 6fdf 09bd fcdf a9bd
00000160: 2ca2 cbbd ea1d 08be a748 bbbd 9460 293e
00000170: 4765 343e 1474 85be 92d8 23be 7031 ad3d
00000180: 00bf 99bd 545d 10bc 7487 933d e145 61be
00000190: 36c0 d73d 03f0 81be 5592 72be edfa 25bd
000001a0: 0768 883d e464 8fbe 5557 c83e fe1f 933e
000001b0: 9fce b6bc 080e 51be 842a 943e fc6e fcbc
000001c0: 4f12 353d a884 2ebe 802f 963d a8a7 3dbe
000001d0: 7945 b7bd 46be 67be b13c 673d 8247 0e3e
000001e0: 2a82 033e 4df4 c23d 0731 14bf 1c6f 2abe
000001f0: 7fe6 0fbe e5cb ab3c 759a 53be 04c9 2d3e
00000200: 58ad 183e c059 46be fc5b 1b3e 409a 603d
00000210: a873 8e3e a66b 143e b270 d6bd 7ac3 f6bd
00000220: 4a5b 283e 3d67 f93b 934c 123d ff8d 703e
00000230: 4d60 5dbe 4d61 8fbd a5c2 0ebe bfc3 543e
00000240: f820 333e 3750 223d b9f3 233e b908 84bd
00000250: b142 f3bd 6fad 01be 79e6 72be 0064 a43d
00000260: 024f 72bd 83e9 9abe aaba 203e 14e8 80bc
00000270: 23fa 313e c904 2f3e 82a3 abbe 6a3a 4a3d
00000280: b469 d93c 0ba0 aa3d df79 a03c f62b 22bd
00000290: a3b8 79be 002a 51bd d93d 22be 63fb 373e
000002a0: 1a7c 5b3e 011b b6bb ee10 403e c8b3 013b
000002b0: 808e 853d 75c2 063e 9a16 333e 39d2 db3d
000002c0: 4fc8 8b3e a157 623d dd86 f9bd 8770 1dbc
000002d0: 7ef9 36be 634b 013e 3a56 97bd 55ef 60bd
000002e0: 582e fc3d 1ddf 243e b866 323e b0c0 2f3d
000002f0: db52 a03c 89f0 0d3d 156e ec3d 2f60 8f3d
-0.54018956 0.028564705 0.14186844 0.095907226 -0.22555189 0.123141214 -0.1832287 -0.14008974
-0.07463449 -0.30871937 -0.19188608 0.09724999 0.28543028 0.10071836 0.20010139 -0.17666538
-0.051136196 -0.050866004 -0.17087974 0.068832956 -0.14109461 -0.27137333 0.21513098 -0.037027504
0.0420368 -0.12134384 -0.037875757 -0.17220736 -0.05646229 0.032530498 0.24387142 0.06512494
-0.006507083 0.09423365 0.22301523 -0.21616414 0.07186452 -0.16525021 0.0070993057 -0.018767312
-0.16592827 -0.14921203 0.1265737 -0.14676453 -0.15120703 0.051851857 0.033217315 0.10284186
0.0041932845 -0.07608526 0.3269092 0.13199829 0.031194123 0.022521244 0.16434127 0.13944139
-0.15626803 0.015661553 -0.3497975 -0.122169174 -0.020377917 -0.00083479454 0.3697538 -0.0695871
-0.008390336 -0.17462274 0.033876646 0.17490232 -0.04318369 -0.06749567 0.009058629 0.08946206
0.61886734 0.24801901 0.098049454 -0.071572244 -0.08259649 -0.036340833 0.012639742 -0.102368966
-0.010959195 -0.19403717 -0.063856445 0.19520809 0.01698607 0.27758595 -0.03366035 -0.08294675
-0.09943041 -0.13292661 -0.09144717 0.16540748 0.17616759 -0.26065123 -0.16000584 0.08456695
-0.075071335 -0.008811314 0.0720357 -0.21999313 0.10534708 -0.25378427 -0.23688634 -0.040522505
0.06660467 -0.2800666 0.3912913 0.28735346 -0.022315321 -0.20415509 0.28938687 -0.03081464
0.044206914 -0.17042792 0.07333279 -0.18520987 -0.08948798 -0.22631177 0.056454364 0.13894466
0.12842622 0.09519253 -0.5788731 -0.16643947 -0.14052771 0.020971248 -0.2066439 0.16971213
0.14909875 -0.19370174 0.15171808 0.054834604 0.27822614 0.1449419 -0.10470714 -0.12049003
0.16441074 0.007611184 0.035717558 0.23491667 -0.21618767 -0.070009805 -0.13941438 0.20777796
0.17493045 0.03962728 0.16010942 -0.06446976 -0.11877955 -0.12663816 -0.23720731 0.08026886
-0.05915738 -0.3025628 0.15696207 -0.015735663 0.17380576 0.17091669 -0.33523184 0.049372114
0.026539661 0.08331307 0.019589363 -0.039592706 -0.2438684 -0.051065445 -0.15843906 0.1796699
0.2143406 -0.0055574183 0.18756458 0.0019790996 0.0652132 0.13160117 0.1748909 0.10733456
0.2730126 0.05525935 -0.12183926 -0.009609348 -0.17868611 0.12626414 -0.07389493 -0.054915745
0.12313527 0.16100736 0.17421997 0.04290837 0.019570759 0.03465322 0.11544434 0.070007674

encode_conv4.bias f4 [8]
00000000: 690c c3bc a044 86bd 0130 293e 1d27 ca3c
00000010: 9116 9abd ae0f 323e f979 6f3e 8d85 43be
-0.023809629 -0.06556058 0.16522218 0.024676854 -0.075238355 0.17388794 0.23386373 -0.19093914

encode_conv5.weight f4 [16, 8, 3]
00000000: ff7a c9bd b679 393e f02d 28bd 4209 193e
00000010: d070 16bd c075 d63c 081e a0bc 9001 4dbc
00000020: 6866 3f3d 4cab 6bbd 9a72 37be 315c 0ebe
00000030: 0ea2 9ebd 78da bd3c 4c7e ddbd 20bf 5d3c
00000040: 38ef de3d af7e 27be 08da dbbd 347e 48bd
00000050: ccb6 b13d 2c28 b03d a03b e4bb 4047 fd3d
00000060: dc9c 4abe b81b fb3d 847a bb3d 584e 3bbd
00000070: 444f e43d 2088 bebb 3532 ecbd d8a5 7abd
00000080: f843 3fbe a5ac ddbd 8ce6 2e3e f0d1 193e
00000090: e065 69bd 3b33 fcbd 50b7 4ebe 38fc 25bd
000000a0: 50ff 56bc 9005 a43d b058 a23d e695 ddbd
000000b0: 167b 0a3e a422 4bbd 3074 e2bc 6e5e 80bd
000000c0: 0821 1ebd 588d 9b3d ca24 bcbd ea16 233e
000000d0: cdec dabd a0f3 cf3c 6013 f4bb 80f7 6b3d
000000e0: 2cff 493e e07f c0bb 908b 213e 7a6a 2d3e
000000f0: b877 ef3d c01f 833b c67f 133e 4c00 02be
00000100: 90f3 d7bc 5821 bb3d 9846 77bd 468e 4f3e
00000110: 905d 593d de84 1f3e 2031 903d 54dc 453e
00000120: 9cf2 f13d 4877 b33d 26a5 233e baca 193e
00000130: f2ff 17be 2e13 91bd e17a bcbd cc34 ee3d
00000140: d8fb b03c f019 33bd a8af df3d 3404 5fbd
00000150: 8856 b8bc 10d7 b73d fc0b 94bd 9c83 39be
00000160: c04f 1ebd 8e60 87bd 458a d6bd b082 f33c
00000170: 18c4 56bd fc54 103e 00be 0dbb c395 b7bd
00000180: 9497 25be 7432 413e 1c02 263d 908b 13bd
00000190: 4078 fabc 6cda 3dbe 8892 12bd 00f1 e6ba
000001a0: 0068 9b3d 6852 debc 00b0 ed39 0c4a 103e
000001b0: 503f 183e 5852 7b3d 329d 053e e835 c63d
000001c0: fe93 403e 558d 4abe 98b0 d63d e045 55bd
000001d0: e069 7b3d 1caf 14bd a614 3a3e 505b 683d
000001e0: 00aa 89bd 7eed efbd 2c0b 2dbd 5e93 4abe
000001f0: b07f 773d a057 ad3d 6449 f43d 38a2 283e
00000200: 4d36 fabd 1cac 493e 80eb 0cbc 386a bebc
00000210: b4eb aa3d 00a9 3b3b dc76 c83d fc26 1dbd
00000220: d354 40be 64db ee3d fdd9 1cbe ad8c e5bd
00000230: 5a1f 0f3e 78c9 67bd 9a45 0dbe 60d4 19bc
00000240: 22b1 253e c810 d7bc b8f0 053d c42f 1a3d
00000250: 9876 473e 10b1 7ebd 51dc 35be c09b 47bd
00000260: 88bd cb3d 98c7 293e 6071 10bd 3cf7 2d3e
00000270: 782f 8ebd d08d 78bc 38ef 45bd d851 5c3d
00000280: 68fa 3f3d 5836 ce3c c661 343e d476 843d
00000290: b6b9 26be fef3 08be d6ba 163e c00f 3d3d
000002a0: 503e 23bd 8a75 d1bd 2460 483e f36d 03be
000002b0: e6dc 3a3e c7ce c9bd 6ab1 213e 3bed 46be
000002c0: 6cdb 2fbe 8c8b 46be 9c76 3b3e acc4 4d3e
000002d0: 1400 343d e3f4 4abe 600a e23d 58cb babc
000002e0: 5073 21be 6c10 323d c250 3c3e 58cc 053d
000002f0: dce4 35bd 8008 dfbc b85d e93c 7084 243e
00000300: 00a4 89bd 447f 123e 91de 3bbe 0030 2dbd
00000310: bc45 ae3d 2c7b cf3d 208d 183c 7a5f 423e
00000320: dccc 37bd 9c6f f53d 4028 7b3c 14e2 c33d
00000330: a843 f73c 4091 66bc 74d7 37be b824 183e
00000340: 35b9 a3bd 00e7 18ba a0cd 473e bc5d 46be
00000350: b680 d7bd a00a 993c 50cd 5a3d c0b1 34be
00000360: 3059 21bd dc87 2a3e d014 f5bc 168f 083e
00000370: 0082 edbc b03f bbbd 84f0 283e 6c0a b23d
00000380: a048 a2bb f447 be3d 40ef 88bd 6c6b a43d
00000390: 8b55 4abe 58cb 3abd d06c 2a3e d020 8b3d
000003a0: dc39 0a3d 5037 223e 0958 a2bd cade 1a3e
000003b0: e445 2fbe 454e f2bd 6fa6 fcbd a8ee ea3d
000003c0: 745a 1d3e 8eda 383e 52d3 2abe d865 ed3d
000003d0: 121f 423e 10c5 ac3d 2067 febd 0684 f9bd
000003e0: 28de 57bd 80a2 2c3e ec86 6dbd 969b 1c3e
000003f0: 6ca7 4dbe 5c09 6dbd 908b 343e e0c5 233c
-0.09837913 0.18112835 -0.041059434 0.14944938 -0.03672868 0.026179194 -0.01954557 -0.01251258
0.04672852 -0.05753641 -0.17914811 -0.13902356 -0.07745753 0.023175463 -0.10815105 0.013534337
0.10885471 -0.1635692 -0.107349455 -0.04894848 0.08677444 0.08601412 -0.0069651157 0.123671055
-0.197864 0.12261146 0.091542274 -0.04572901 0.11147931 -0.005814567 -0.11533014 -0.061193317
-0.18678272 -0.10823945 0.17080134 0.15021491 -0.05698192 -0.12314459 -0.20187116 -0.040523738
-0.013122395 0.080088735 0.07927072 -0.108196065 0.13523516 -0.049593583 -0.027643293 -0.06268011
-0.03860572 0.075953186 -0.091867045 0.1592671 -0.106896974 0.025384724 -0.0074485987 0.05760908
0.19726247 -0.005874619 0.15775895 0.16935149 0.116927564 0.0040015876 0.1440421 -0.12695426
-0.026361257 0.09137219 -0.060370058 0.20269117 0.053067744 0.15578029 0.0704062 0.1932233
0.11813852 0.087629855 0.15980968 0.1501874 -0.14843729 -0.07083736 -0.09203125 0.11631164
0.021604463 -0.043725908 0.10922176 -0.054447368 -0.022502199 0.08976567 -0.07228848 -0.18116611
-0.038650274 -0.06610213 -0.104755916 0.029725403 -0.052433103 0.14094919 -0.0021628141 -0.08964112
-0.16171104 0.18866903 0.040529355 -0.03602177 -0.030574918 -0.18540353 -0.035784274 -0.0017619431
0.07588196 -0.027138904 0.00045335293 0.14090747 0.14867902 0.061357826 0.13048247 0.096782506
0.18806455 -0.19780476 0.10482901 -0.05206859 0.061380267 -0.03629981 0.18171939 0.056727707
-0.06721878 -0.1171522 -0.042246982 -0.19782779 0.060424507 0.08463979 0.11928061 0.16468132
-0.12217388 0.19694561 -0.008601069 -0.023244008 0.08345738 0.0028634667 0.097882956 -0.038367257
-0.18782358 0.11662939 -0.15317531 -0.112084724 0.13976803 -0.05658862 -0.13796082 -0.009389013
0.16180852 -0.02625312 0.03270027 0.03764321 0.19478834 -0.06218058 -0.17759825 -0.04873252
0.099482596 0.16580045 -0.035264373 0.16988844 -0.06942648 -0.0151705295 -0.04832384 0.05378899
0.046869665 0.025172397 0.17615423 0.06467977 -0.1628178 -0.13374326 0.1471971 0.0461576
-0.039854348 -0.10227497 0.19567925 -0.12834911 0.18248329 -0.09853893 0.15790334 -0.19426434
-0.17173547 -0.1938917 0.18306965 0.20094556 0.043945387 -0.1981998 0.11037135 -0.02280204
-0.15766644 0.043472692 0.18390182 0.03266558 -0.04440771 -0.027225733 0.028487071 0.16066146
-0.06720734 0.1430636 -0.18346621 -0.042282104 0.085093945 0.10130915 0.009310991 0.18981734
-0.044873103 0.119841784 0.015329421 0.09564605 0.030183628 -0.014072716 -0.17953283 0.14857757
-0.0799431 -0.00058327615 0.19512033 -0.19371694 -0.105225965 0.018681824 0.053418458 -0.17645931
-0.039391696 0.16653389 -0.02991715 0.13335833 -0.028992653 -0.09143007 0.16498 0.08693394
-0.004952505 0.09291068 -0.06686258 0.080283016 -0.19759195 -0.04560408 0.16643071 0.06793368
0.033746585 0.15841413 -0.079269476 0.1512405 -0.17116505 -0.11831335 -0.12336432 0.11471301
0.15366536 0.18052122 -0.16682175 0.11591691 0.18957165 0.08436024 -0.12422013 -0.121833846
-0.0527021 0.16858864 -0.05799 0.15293726 -0.20083398 -0.057870254 0.17631364 0.009995908

encode_conv5.bias f4 [16]
00000000: 0204 b6bd 243a b13d d0af 43be 0e08 233e
00000010: 5c5b 3abd e074 b9bb 9003 05be c494 953d
00000020: fc66 f0bd b056 a63c 4003 183c f401 3abd
00000030: 807c 3e3e 889a 8abd f858 0c3e 5a6e 0b3e
-0.08887483 0.086536676 -0.19110036 0.15921041 -0.045497283 -0.0056596845 -0.1298964 0.073037654
-0.11738393 0.020305008 0.009278119 -0.04541202 0.1860218 -0.06767756 0.13705814 0.13616315

encode_conv6.weight f4 [16, 16, 3]
00000000: a210 0d3e 7c38 09be 6ed2 d13d 7a49 8abd
00000010: 80d0 733d f0ab 103d 80b9 54bd d072 fa3d
00000020: fc82 9e3d cf1d f3bd 742a bf3d fe94 49bd
00000030: 1e9b ba3d c052 24bc 60a7 463c d69f 0a3e
00000040: 30b9 07be 57e6 9dbd 4869 323d dcbe e83d
00000050: e0a4 f73c 8c2c 35bd 50ec e73d de57 0b3e
00000060: 0049 44ba b017 23bc 36e4 c63d 8077 2a3d
00000070: 0894 e4bc 003e 033d 02cc 1ebd 00ba 01bb
00000080: 7937 0cbe 480c c5bd 7c1d 083e 600a fbbd
00000090: a87a fc3c ec2a 183d 6e29 b4bd ac76 a5bd
000000a0: 00cd d33b 001f 6f3a 70e9 c33d b883 163d
000000b0: c052 af3c 86fe 9f3d 88a2 c63d 2069 7c3c
000000c0: 8683 88bd 54e8 493d 5c48 fc3d 2001 e63c
000000d0: 18f9 c73d 80b9 9c3b 22be 123e 0031 a0bd
000000e0: 0f38 80bd b1cf 0fbe 8072 0b3b 2cfe febd
000000f0: 409d 97bb a463 383d 3ac0 88bd c8d7 0a3e
00000100: 40af 443c 8082 bd3b 88f5 543d 3004 5c3d
00000110: f3ca 10be 666d 013e e039 5e3d eeb5 ca3d
00000120: 3859 0f3d 2081 c6bd c002 0ebc 601e 03bc
00000130: f2da 01bd b82d d73d 4475 f63d 0020 e337
00000140: 0b9c 11be 817b 0bbe 90fd 55bc fe46 d63d
00000150: 8081 f1bd 1241 8e3d a7a6 93bd 709e db3c
00000160: 20bd 943b 4ac3 13bd 50b9 d23c c0dc e03c
00000170: a879 d73d 70be 823c b8ce 9b3c 4a9f 10bd
00000180: 22d2 cfbd 848b 533d 8855 733d bc5d 02bd
00000190: b0b8 55bc 44ad acbd a0cb 4abc 4499 edbd
000001a0: 5650 863d 9ea9 69bd 1873 cdbc c05d 00be
000001b0: 3275 5abd aa5b 903d 7801 cfbc 549e 9a3d
000001c0: e47c e3bc d846 b5bd f6a0 09bd dced 393d
000001d0: 80aa 2ebb e828 c6bd 7065 26bc 6056 cfbb
000001e0: c0a7 413d a46d 283d f884 44bd 80ce eb3a
000001f0: 6447 87bd 208b 6d3d b03d 5fbc 2565 a2bd
00000200: bcb0 f03d c403 f13d 64b0 413d 19dd bdbd
00000210: fa2b bebd fc60 69bd f4b5 d13d f2d1 093e
00000220: 846d dc3d 1c14 3d3d 8076 f9bb 005d 583d
00000230: 04d6 02bd da0a 07bd 3216 22bd e044 69bc
00000240: 8e3e 37bd 70fc dfbc 8047 263d 9cf2 673d
00000250: e41f 123d 88e1 afbc 4a57 b2bd 58b0 e33c
00000260: 5412 e63d bef1 57bd 7607 a43d 5210 cbbd
00000270: c01d e53c 00ff 54bc c6f9 a43d c080 093e
00000280: a884 803d 5450 fa3d ac7a 393d b063 393d
00000290: 9875 e33c 9885 01be 2a45 c93d 1027 44bc
000002a0: b8ee ec3d d2fa 2dbd 9eb5 d53d 0f49 edbd
000002b0: 849f 0f3d c46d abbd c325 a4bd 2ac4 0fbd
000002c0: 6a76 923d 0a8e 9bbd d846 9c3d 0c94 e23d
000002d0: 3821 093d c292 34bd 28cb eb3d e006 e2bb
000002e0: 7cf3 f4bd 600e 073e 401f 01bd 30f4 1fbc
000002f0: f680 00be e6dc 3bbd 3c5e a7bd a01a 77bd
00000300: 30e7 4cbc 2cde c4bc d477 54bd e416 703d
00000310: 14dd b73d f2f5 003e 7cf9 f8bd 5639 0a3e
00000320: 54e7 d23d 188b 993d 9007 44bc 0006 4cbb
00000330: ec3b 6a3d ae75 a53d 3498 053e 9d2b 9fbd
00000340: 80d6 d13b be22 0c3e 0e20 0f3e b838 be3c
00000350: 7c0a 6e3d 65b2 11be e8ed 4a3d 8419 8fbd
00000360: 44e8 22bd 9c1d 473d 20af ebbd 200b 5abd
00000370: cce4 e13d 2cac 883d 60fb 8d3c 8b68 93bd
00000380: 144a 363d 10ae 3cbc 583d bfbd f4cf 8d3d
00000390: 53e4 0cbe d061 8e3d ba09 863d 0db2 09be
000003a0: a88b 11be 4c82 e93d 5871 d53c 6421 b73d
000003b0: 3b31 81bd d4d9 0a3e 343a 673d 1a78 803d
000003c0: 607b 1bbd 5f02 8abd 4a8e 073e dc66 ef3d
000003d0: d41a 313d 52ca b63d 948b 253d 780d ab3c
000003e0: 71f7 99bd 6894 833c ba4c 07be 86c0 a83d
000003f0: 2047 4bbc 52fc c03d f2dc 8a3d d26b 8f3d
0.13775876 -0.13400453 0.102452144 -0.06752296 0.059525013 0.035320222 -0.05193472 0.1222893
0.07739827 -0.1187092 0.09334269 -0.049214356 0.091116175 -0.010029495 0.012124866 0.13537535
-0.13254237 -0.077099495 0.043557435 0.113645285 0.030229986 -0.044231936 0.1132437 0.13607737
-0.00074876845 -0.009954378 0.097114965 0.04161787 -0.027902618 0.03204155 -0.038768776 -0.0019794703
-0.13693036 -0.09621483 0.13292497 -0.12257838 0.030820206 0.03715031 -0.087969646 -0.080792755
0.006463647 0.0009121746 0.09566009 0.03674671 0.021401763 0.07812218 0.09698969 0.015405923
-0.06665711 0.04929383 0.12318489 0.028076708 0.09764308 0.0047828555 0.14330342 -0.07821846
-0.06260692 -0.14044072 0.0021277964 -0.12450823 -0.0046269 0.0450169 -0.06677289 0.13558877
0.0120046735 0.005783379 0.05199197 0.05371493 -0.14139919 0.12639388 0.054254413 0.098979816
0.034997195 -0.096925974 -0.008667648 -0.008002847 -0.031702943 0.10506767 0.120340854 2.707541e-05
-0.14219682 -0.13621332 -0.013060942 0.104627594 -0.11792278 0.06946005 -0.07209521 0.026808947
0.004539147 -0.036074914 0.02572313 0.027449012 0.10521251 0.015959948 0.01901947 -0.03530816
-0.101475015 0.051646724 0.05940774 -0.031827673 -0.013044521 -0.08431485 -0.01237765 -0.11601499
0.065582916 -0.057046525 -0.025079295 -0.12535763 -0.053334422 0.070487335 -0.025269255 0.0754973
-0.027769513 -0.08851403 -0.03360077 0.045392856 -0.002665192 -0.09675771 -0.0101560205 -0.0063274354
0.04727912 0.041120186 -0.04797837 0.0017990619 -0.066054136 0.057994008 -0.013625547 -0.07929448
0.117524594 0.11768296 0.04728736 -0.09270687 -0.092857316 -0.056977257 0.10239783 0.13458994
0.10763076 0.046161756 -0.0076130033 0.052823067 -0.031942382 -0.032969333 -0.03957195 -0.0142376125
-0.04473739 -0.027342051 0.04059553 0.056627855 0.035674945 -0.021469846 -0.08708055 0.027794048
0.112339646 -0.052720778 0.080092356 -0.09915222 0.027968287 -0.01300025 0.08055453 0.1342802
0.06275302 0.122223526 0.045283005 0.045261085 0.027766034 -0.12648618 0.09827645 -0.011972204
0.115689695 -0.04247553 0.10435031 -0.115862004 0.035064235 -0.083705455 -0.08015015 -0.035099186
0.07151492 -0.07595451 0.076307 0.11063394 0.033478945 -0.04408527 0.11513358 -0.006897792
-0.119605035 0.13189077 -0.031523943 -0.009762809 -0.12549195 -0.045864962 -0.08172271 -0.060328126
-0.012506291 -0.024031721 -0.05187209 0.05861558 0.08977714 0.1259382 -0.1215696 0.13498434
0.102980286 0.07497233 -0.011964694 -0.0031131506 0.057186052 0.08079086 0.13046342 -0.077719904
0.006403744 0.13685128 0.13977072 0.023220405 0.058115467 -0.14228208 0.04954329 -0.069872886
-0.039772287 0.048612222 -0.11508012 -0.053233266 0.11029968 0.06673464 0.017331779 -0.07197674
0.04450424 -0.011516109 -0.09337872 0.069244295 -0.13758974 0.0695225 0.06544824 -0.13446827
-0.14213431 0.11401805 0.026055023 0.08941916 -0.06308218 0.13559657 0.05645199 0.062729076
-0.037959456 -0.067387335 0.13237873 0.11689541 0.043238476 0.08925308 0.040416315 0.020880446
-0.07517899 0.016061977 -0.13212863 0.08239846 -0.012407094 0.09423126 0.06780423 0.07002987

encode_conv6.bias f4 [16]
00000000: 80eb 57bb 4c6c 083e e079 86bc 18fb fb3d
00000010: 22bc b8bd b8f3 103e e0a0 773d 3cb9 f5bc
00000020: 2c72 6b3d b104 04be 2841 223d ecf5 0a3e
00000030: a45c d83d f65e b93d 8088 e8bd f0a3 053e
-0.0032946765 0.13322562 -0.016415536 0.12303752 -0.090202585 0.14155471 0.060456157 -0.029995553
0.05748193 -0.12892415 0.03961292 0.13570374 0.10564545 0.090513155 -0.1135416 0.13050818

fc1.weight f4 [200, 200]
00000000: ed8c 813d 1558 683d df31 563d e55a 193c
00000010: 884f f8bc a187 043d 935d 4b3d d984 bbbc
00000020: 311c 80bd 77c7 9cbd cd5a d93d 30df b03a
00000030: 86dc 0e3d 8295 443c 43fb 5abe 3535 96bd
00000040: 5f7a 4f3c 0157 603d a45b 0d3d 78ba 873d
00000050: e852 043e 47dd 733c fe8e c33d ede2 c73c
00000060: 41d9 533c 3cfb 87bd 4943 903d 927e 553c
00000070: 703a 56bd 115b 103c d836 903d 7cf1 853d
00000080: e96a 953d 824e cebc 86a6 823c 0f6e 8f3d
00000090: b00d 383d 29e3 dcbc a44b 7d3d b5bf 023e
000000a0: 7919 0e3d f3d7 863d 87bb 623d 0f24 d43d
000000b0: 2d2c f8bc dc08 0e3d a77b c03c 5673 9f3c
000000c0: 3233 a7bc eaca 2ebd ada3 273d 457a 0f3d
000000d0: c350 6cbd f826 f7bc 9db6 12bd 7171 52bd
000000e0: ff80 2cba 5321 833b 9f1b ff3c f509 24bc
000000f0: 8d4b a0bc f89d f9bc 4b08 5bbc 329b d0bc
00000100: c204 8f3d 3b6c 473d 87b7 883d 2cf7 02bd
00000110: 07f2 bebc 6c72 893d 98d1 46bd 68a7 223d
00000120: edb1 39bd 25bb a8bd 7e4d 0bbd f925 a93d
00000130: 30a0 c73c 8e78 73bd 6d04 3c3c 90a9 36bd
00000140: 3177 f9bb fed6 883e 33ff 123d eaec ab3d
00000150: 4e55 60bd de80 923c da91 b0be 67c2 1c3c
00000160: 459c 423c 7177 babd a5ab 813d 4250 d43c
00000170: 752d 6f3c 1dba e4bc 33e2 7dbd 580d c43d
00000180: dd14 a1bd 08ee 023b c614 683d b0d4 47bd
00000190: 3db2 22bc 76d8 833c c6e2 803d 0b73 b83d
000001a0: a8cf 5ebc 75eb 213c d4c0 1ebc 1c9b b93d
000001b0: 3283 96bd 0db8 c63d d28f e83d 4ab4 e0bc
000001c0: d957 28bd cef6 77bc f2c8 f53d 4f49 3c3d
000001d0: 83e5 3dbd 333c fe3c db8f 81bd 1438 f83c
000001e0: ecb9 c03d fa51 db3c 7be2 963d c32c c1bb
000001f0: 91fc d73c c2e4 8c3c 843c 87bd daff 643d
00000200: ff2e 213d 17c6 113d 3722 0cbe 9c0d 9d3d
00000210: 3078 d93b 123b a3bd 25a7 be3c d3fa 5abc
00000220: e38a 553d aa4e 43bd bf39 833c b0ec d4bc
00000230: 586b 683d ec49 a3bc 6823 94bc 16cf a83b
00000240: dda3 d5ba 886e 7ebd 217e cd3c fce9 b93c
00000250: a216 013d 559d 713d dc7a 9abc 41cb 4fbb
00000260: 2fb9 233d 978a d1bc c41c f83c 287a 3cbd
00000270: 4049 a0bd 2945 a93d 7fae 153e 7f82 863e
00000280: 647e b43b e67a d5bd 4d07 acbc aa36 63bd
00000290: 6885 933d 31f1 9f3d 6ca2 023d 62cd 813b
000002a0: 9bd6 283d caaf 18bd 424e 39bb f42b ebbc
000002b0: a74e d03b e666 fdbb 00b3 083c de42 703d
000002c0: c5db 2c3d 4df6 263d efa7 a1bc dc4c 823d
000002d0: 71f7 8e3c a625 4d3d e3a6 6a3d ac61 a73d
000002e0: bc26 b93d 783e 703d a512 0e3d 9d1d 38bc
000002f0: 37da d6bd 85ae 8abd db7e 66ba 4e97 b23d
00000300: b70d 803c cb28 c43d 069d a53d 0e74 a73b
00000310: 543e 073c 1526 1fbd 3500 d5bc 67b6 19bd
00000320: 4965 143d bf10 25bd c34c 853d 1316 b3bb
00000330: 9f41 fbbc a96c 793d 58ce 66bd 39ec 43bd
00000340: 790c 4bbd 1292 43bc 4a45 163c fe2d 103e
00000350: 09be 66b9 b256 86bc e9ab 7e3e ec1f 763d
00000360: 62ce 9dbd 3b0d 38bd 63e4 46bd 3cfa 02bd
00000370: 9316 813c e865 703d 8f0e d13c 52d7 073d
00000380: b926 7cbd 4321 873d 3161 07bd ab6e 943d
00000390: 7fc1 583c ea4e 91bc e629 1bbd ff8a 8ebd
000003a0: 2c26 173b 2a5c 6dbd d243 8ebc fa57 debd
000003b0: e9f5 35bd 0cb7 4cbd 6de3 693d 3fc7 bdbd
000003c0: 5cdb a1bc 439b 33bd 3614 d0bd 27bf cbbd
000003d0: 7804 db3b 428a 2dbd 9472 983c a574 22bd
000003e0: 9870 4a3c 112f 2abd 72c2 63bc 5714 593d
000003f0: 9f30 303d 0564 53ba 42ee 91bd 6b8a 5ebd
0.063257076 0.056724627 0.052293655 0.00936005 -0.030311361 0.03235591 0.049649786 -0.022890495
-0.06255377 -0.076552324 0.10613022 0.001349425 0.034878276 0.011998536 -0.21384911 -0.07334367
0.012663453 0.054770473 0.034511223 0.06627363 0.12922251 0.0148843 0.09548758 0.024400199
0.012930215 -0.06639716 0.070440836 0.013030665 -0.052301824 0.008810774 0.070417106 0.065402
0.07295782 -0.02518392 0.015948545 0.07003414 0.04493493 -0.026963787 0.061839715 0.12768443
0.03469226 0.06584158 0.05535462 0.1035844 -0.030294502 0.034676418 0.023496462 0.019464176
-0.020410154 -0.042673983 0.040927578 0.035028715 -0.057694208 -0.030169949 -0.035818685 -0.051377717
-0.0006580501 0.0040017753 0.0311411 -0.01001214 -0.019567275 -0.030470833 -0.013368676 -0.025464628
0.06983329 0.0486872 0.0667563 -0.031974003 -0.023308767 0.06711277 -0.048539728 0.039710432
-0.0453357 -0.0823882 -0.03400945 0.08259196 0.024368376 -0.05944114 0.011475665 -0.0445953
-0.0076130857 0.26726526 0.03588791 0.08394797 -0.054768853 0.017883714 -0.34486276 0.0095678335
0.011878078 -0.09104813 0.06331567 0.025917176 0.01459824 -0.027920777 -0.0619833 0.095728576
-0.078653075 0.0019978303 0.056660436 -0.04878682 -0.009930191 0.016094428 0.062932536 0.09006318
-0.013599314 0.0098827975 -0.0096895285 0.09062788 -0.07349242 0.09703074 0.113555565 -0.027429719
-0.041099403 -0.015134526 0.12001218 0.04596835 -0.046361458 0.031034565 -0.063262664 0.030300178
0.09410462 0.026772488 0.073674165 -0.0058952286 0.02636555 0.017198924 -0.06603339 0.05590806
0.03935146 0.035589304 -0.13684927 0.076686114 0.006636642 -0.07970251 0.02327306 -0.013365465
0.052134406 -0.04768244 0.016018746 -0.025991768 0.056742996 -0.01993271 -0.01808329 0.0051516397
-0.0016299445 -0.06211713 0.025084557 0.02269458 0.031515725 0.058987934 -0.018857412 -0.0031706842
0.039971527 -0.02557878 0.030287154 -0.046014935 -0.07826471 0.082651444 0.14617346 0.26271436
0.005508231 -0.10423832 -0.020999575 -0.055472054 0.072031796 0.078096755 0.03189318 0.003961251
0.04122029 -0.03727702 -0.0028275405 -0.028707482 0.0063570323 -0.0077332137 0.008343458 0.05865752
0.042201776 0.040762234 -0.019733397 0.06362316 0.017451974 0.050084732 0.05728806 0.08172926
0.09040591 0.058653325 0.03468575 -0.011237529 -0.1049084 -0.06771568 -0.00087927066 0.08720265
0.01563154 0.09578093 0.080865905 0.0051102703 0.008254606 -0.038854677 -0.026001075 -0.037527468
0.036229406 -0.040299173 0.06508782 -0.005465278 -0.030670939 0.060894642 -0.05634913 -0.0478327
-0.04957244 -0.011936681 0.009171793 0.14080045 -0.00022005303 -0.016398761 0.24870266 0.060089037
-0.0770538 -0.044934493 -0.04855765 -0.031976923 0.015757835 0.058690935 0.025519637 0.03316433
-0.061560366 0.06598141 -0.033051673 0.07247671 0.013229727 -0.017737824 -0.037881754 -0.06960105
0.0023063524 -0.057949223 -0.017366324 -0.10856624 -0.04442397 -0.049979255 0.057101656 -0.09266519
-0.019757919 -0.04384924 -0.10160105 -0.09948569 0.0066838823 -0.04236818 0.018609323 -0.039662022
0.012355946 -0.041548792 -0.01390134 0.052997913 0.04301512 -0.00080639153 -0.07125522 -0.054331224

fc1.bias f4 [200]
00000000: 8279 f0bc ac0a 223d df78 3cbd e7d8 3d3b
00000010: 3726 823c b2d2 0d3d 3a25 cbbc c3c5 d0bc
00000020: fba7 25bd 5baf 21bd d3c9 4bbd e9f0 80bd
00000030: 94b4 8f3d 4dd9 6e3d 6e21 c8bc f113 52bd
00000040: f733 203d 1f93 41bd 3f46 8c3b 2893 fabc
00000050: 94f6 ae3c 0a08 0dbc 1e0a 663d 4d6c 06bc
00000060: 40f1 a83d 7113 543c eb6b 993d a1cc 99bc
00000070: 94fa 323d e029 78bd c200 8e3d 2dc8 2ebd
00000080: 42b9 993d d40c b63b eec1 a0bd 953e 51bd
00000090: 5b31 f53b 8115 8b3d 0887 453d f1f6 a1bb
000000a0: 7b66 673c 5919 d0bc a3aa 00bd ad0b ed3c
000000b0: a5ff 753d 92eb 28bd ea9c 9fbc be99 113d
000000c0: 5410 97bb b420 76bd 80f7 d4bc 30ad 0ebd
000000d0: 43ac 39bb 4571 973d 3060 86bd 17cd 1f3d
000000e0: 16f4 2b3d eed7 95bc a7fc 0dbd ef99 42bd
000000f0: 098f f33a 2709 7f3d 1173 ae39 0378 813d
00000100: 3316 2bbc f6bd 6f3d f8e2 de3c 0a2c 82bd
00000110: bf1a 0bbd 6aa3 8ebc e4b9 76bd d3fe 4abd
00000120: abe1 733a aed4 0e3c a67d 1c3c 6450 373d
00000130: 0583 4ebb 6303 8f3b 2e10 15bd dc4c 123c
00000140: 4a66 ce3c b116 2dbd b941 17bd c13c 61bb
00000150: 713c 22bd e291 a2bd f385 79bc 84e7 12bd
00000160: 316c db3c d375 acbd 6866 d4bc 2c08 85bd
00000170: 0df9 4cbd 71cf 8fbd 6f00 2abc 57d9 80bb
00000180: 784d 2fbd 1c53 46bd b898 ab3c 1d90 19ba
00000190: 598c 98bc 101e dabb 8916 7fbc 78fe 273d
000001a0: 5fd8 28bc 34e4 4ebd de2c 9a3c 3cd9 36bd
000001b0: 9e1d 54bd 4305 82bd 9d0c 45bd f00b 493d
000001c0: e611 44bc 0ad0 00bd b161 133d 563a aabb
000001d0: 2bf4 4d3d 06ed 823d ec0d 61bc 3b34 5a3c
000001e0: 7e3a 7dbd a4e5 733d 3e41 0dbd fb2c a53c
000001f0: 5d4f 8dbd 7afe 6a3d 8821 9bbd 9af0 1dbd
00000200: 3e85 053d 3034 923d 4f20 143d 06cd 72bd
00000210: 8ae3 8e3d 4d64 fc3c c79b e1bc 9e27 4dbd
00000220: 5784 ebbc f40a 06bd 49c5 35bc 209c 78bd
00000230: cc79 153d 7afa b4ba 4137 eebc 3618 933c
00000240: 1c92 493d 6d67 09bc 0419 d5bc 613e fe3c
00000250: c43d 4dbd 9ad9 203d 718d b1bb 4d20 89bc
00000260: e24b d5bd 9740 5fbd 6680 7c3d 4e22 6bbd
00000270: 8990 ecbc e24f cbbb 7ec8 92bd a277 0c3d
00000280: 9cc0 e6bb d34b 05bc ce7c 363d e0f9 30bb
00000290: 1c42 3ebd e33c 81bb d5d3 4abd 4215 33bd
000002a0: a01e 703c 616b 97bd 247a 55bb f4c5 97bd
000002b0: 5bb4 2abd 7788 56bd bd04 48bd a8f9 dd3b
000002c0: 6311 4cbd b954 243d 6a91 3dbd 4aa7 0a3d
000002d0: 8f90 243d ac6a 2e3d 1d34 4f3d 68af 1e3c
000002e0: 2301 043d de49 0abc 0400 b1bc 5092 00bd
000002f0: e778 713c 55fe 533c 81d3 2abd ea40 1ebd
00000300: 7afb 0b3d 0636 553c ce79 1ebd 3f1e 73bd
00000310: 2f3c 343d 3ae0 4bbd a2f4 ebbc e4c2 8abc
-0.029354814 0.03956096 -0.04601371 0.0028968395 0.015887363 0.034624763 -0.024798024 -0.025484925
-0.0404434 -0.039473873 -0.04975302 -0.0629595 0.070168644 0.058312703 -0.024430003 -0.05128855
0.039112058 -0.047259446 0.004280835 -0.030587748 0.021357812 -0.008607874 0.056161992 -0.008204532
0.0824914 0.012944088 0.07491287 -0.018774332 0.043696 -0.06058681 0.06933738 -0.04267137
0.07506038 0.0055557285 -0.07849489 -0.051085074 0.0074826903 0.06791211 0.04822448 -0.004942768
0.014123554 -0.025402712 -0.03141273 0.028936232 0.060058255 -0.041240282 -0.019484002 0.03554701
-0.0046101008 -0.060089782 -0.025996923 -0.034833133 -0.0028331436 0.07394651 -0.06561315 0.03901395
0.041980825 -0.01829144 -0.034664776 -0.047510084 0.0018582057 0.062264588 0.00033273597 0.063217185
-0.010442304 0.05853077 0.027207837 -0.06356056 -0.033961054 -0.017411906 -0.060235873 -0.049559426
0.00093033415 0.008717699 0.009551441 0.0447544 -0.00315112 0.0043644174 -0.036392383 0.0089294575
0.02519526 -0.04225797 -0.036927912 -0.0034368488 -0.039608423 -0.07937981 -0.01522969 -0.03586532
0.026784988 -0.08420911 -0.025927737 -0.06495699 -0.0500422 -0.07021988 -0.01037608 -0.003932159
-0.04279849 -0.048419103 0.020946845 -0.00058579614 -0.01862161 -0.0066564158 -0.015569338 0.041014165
-0.010305493 -0.0505106 0.018820222 -0.044640765 -0.051786058 -0.0634866 -0.048107732 0.04908365
-0.011967158 -0.0314484 0.035981838 -0.0051949425 0.050281685 0.06392865 -0.013736229 0.013318117
-0.06182336 0.059545174 -0.034486048 0.02016305 -0.06899903 0.057371594 -0.07574755 -0.038559534
0.032597773 0.0713886 0.036163624 -0.059277557 0.069769934 0.030809546 -0.0275401 -0.05008661
-0.028749628 -0.03272529 -0.0110944 -0.060695767 0.036493108 -0.0013807558 -0.029079081 0.01795588
0.049211606 -0.008386475 -0.026012905 0.031035604 -0.050107732 0.03927002 -0.0054184725 -0.016739035
-0.10414864 -0.054504957 0.061645888 -0.057405762 -0.028877513 -0.006204591 -0.07167147 0.03429378
-0.007042004 -0.008135754 0.044552617 -0.0027004406 -0.046449766 -0.003944026 -0.049518425 -0.043721445
0.014655739 -0.07393528 -0.0032574022 -0.074108034 -0.041675907 -0.052376237 -0.048832644 0.006774146
-0.04982127 0.04011986 -0.046281256 0.033850946 0.040176924 0.0425822 0.05058681 0.009685375
0.032227647 -0.008440463 -0.021606453 -0.031389534 0.014738298 0.012939055 -0.041705612 -0.038636126
0.034175374 0.0130133685 -0.03869038 -0.059355017 0.044002708 -0.049774386 -0.028803173 -0.016938634

fc3.weight f4 [100, 200]
00000000: a23a 7abd faf4 2abd f4fa 22bd 9ad0 9c3b
00000010: d392 9bbc 448d 5a3d a2fd a9bc a847 5b3c
00000020: d86f 9b3a bfd4 92bd 9ff6 cdbc c37c 023d
00000030: 4139 6a3d 8ee8 a8bc 3078 e5bc 7d1c 6c3d
00000040: 319a 61bd 31ec 9c3d d174 1abd c0ac 0dbd
00000050: 7b74 3c3c 3ef9 293b 7a36 c73c ac4c 07bd
00000060: f114 593b 2f4b a3bc a352 db3b 209f a73c
00000070: 8386 9dbc 1bb6 1bbd 4ec9 a3bd 8d71 963d
00000080: 08d6 c33d 680b 9abb 44d3 0f3e 77b5 44bd
00000090: 7812 c73c 0fa2 823d b2fe 093d 3142 083d
000000a0: 0e11 233c 477f 15b9 a189 643e 0c3f ac3c
000000b0: aa9f 093c 7d4a c5bc d446 7b3d 298c af3d
000000c0: cdf8 96bb 9173 83bd d0b4 8e3c 96c1 753c
000000d0: f4ed 823d d0d7 203d 6b5f d9bd 32d1 0bbd
000000e0: 08aa 0cbc 7617 fbbc c718 6b3c ad45 f7bc
000000f0: 97f5 d13d 00a4 b33c 6e74 3e3c 2cdd a2bd
00000100: 5487 fd3c d53a 42bd 6677 363d 7ad7 72be
00000110: 5b74 2f3d fe7c 13bc 6085 033d e6e0 233b
00000120: 1c18 9e3d 53fc 643c 79d6 d43d 887f 773d
00000130: 1e26 b7bc 5514 163d a62d 40bd 4f91 113d
00000140: 06e2 3abd f12e 7c3d cd58 11bd 02d1 103d
00000150: 316b e3b6 d02a 853c 67e2 6e3d 49e3 083d
00000160: 9d2f af3b 1414 afbe d97a c03b 2abb 5f3d
00000170: 235f 52bd d9fd 28bd 7b24 1b3d 7c68 823d
00000180: f3d1 753d d9eb 48bc 4096 243d 4507 bb3b
00000190: c830 6cbd 1b7a 6c3d 7216 85bc 884b af3d
000001a0: 6a3f 523e da32 11bd a0f5 9c3d cda8 e53c
000001b0: 3b34 2cbe 52b9 833d 03ba 75bd 961d 163d
000001c0: 9557 d1bc eb4c 82bb e550 93bc 78be 063d
000001d0: 2f62 fd3c cb9c 1c3d d112 0dbb 2581 8cbd
000001e0: 13c6 72bd b7bb b73c 357b 223c 4a40 ad3d
000001f0: 9bd6 cdbc f1be 3e3c cee8 6c3c 4842 dbbe
00000200: 129b 3ab8 c037 37bc f155 82bd a20e 563c
00000210: 19d1 323d c170 083e 6d42 80bb 7099 3abd
00000220: a380 833c db81 86bd 9c6f 96bd 4013 58bc
00000230: a55e 91bd 4c3c b5bd 3fc6 a03c e052 d1bc
00000240: 57c1 993d 31b0 de3d d4d3 953e d5a2 6bbc
00000250: 350c 60bc 3692 eebc 71aa 493d 46a2 3a3d
00000260: 227b 00bd f1e9 d43c e8ef 9b3d cb41 883d
00000270: 095a 18bd e07a 30be b4de 70bd 2042 5bbd
00000280: 9eb5 6bbd 3298 993d 70c9 053c e414 823c
00000290: 78c8 37be 2a84 aabb 9bf9 93bd b7c1 663d
000002a0: 3ddd 75bc 1d70 70bd 11ca 823d 9c50 623c
000002b0: 7ebe 4b3d 7c53 03bd aee2 7e3c 9e36 69bd
000002c0: a00e 8c3e 37d2 73bc 0eff 333d a6a4 f8bc
000002d0: d3f5 06be 841d 79bd 34b8 33bc ac96 143d
000002e0: c1be 5ebc 2a65 18bd 0f76 33bd 53ea e63c
000002f0: 42ac 68bc 2740 893d 0366 3e3d 7bc4 9fbd
00000300: d844 f43d 4d50 73bd 0933 213d e61a 873d
00000310: 9f91 4a3d b749 623d fd95 76be a440 d63c
00000320: a546 6fbc db24 0dbc 26b5 7cbd ae8a e33a
00000330: afb5 4ebb 928c ff3c 8487 ddbc f1de 8b3c
00000340: 8865 063c cd03 a93c dda9 26bd 74b3 f3bc
00000350: cbd0 243d d721 94bc 7c18 0f3c 506c 55bb
00000360: 206c 743d 808d ffbc f9bd 863d b1da 91bd
00000370: dbbd 7f3d 0a1b 543d c226 8f3d 664d dbbc
00000380: 606f 873d 9f50 193b 9c2b 7c3c 7716 363d
00000390: 8c02 99bd ef9b a33c 2255 eebc e9c6 953d
000003a0: 431c d23d e613 45bb faad 483d 174a e2bc
000003b0: b644 a83c ae90 e93c 76cd e6bc 68a0 f03c
000003c0: 9a21 e73c 57c5 2ebc 7aec 533e d4f9 223d
000003d0: d593 28bd c81f bfbc 9bd6 ccbb d5ef 01bb
000003e0: 49da 7e3d 7048 403c 4192 5ebd 0a8e 833d
000003f0: 71f2 3e3b 2705 df3c df42 d1bc 625f 0dbd
-0.061091073 -0.041737534 -0.03979011 0.0047856094 -0.01899091 0.053357378 -0.020750824 0.013383783
0.0011858894 -0.07169484 -0.025142012 0.031857263 0.057183508 -0.020618703 -0.028011411 0.057644356
-0.05507869 0.076622374 -0.03770906 -0.034588575 0.0115023805 0.0025935913 0.024317969 -0.033032104
0.0033124054 -0.019933311 0.0066932007 0.020461619 -0.01922918 -0.038015466 -0.0799738 0.07345877
0.095623076 -0.0047010668 0.14045435 -0.04802462 0.024300799 0.063785665 0.033690162 0.03326625
0.009952797 -0.00014257162 0.22318126 0.021026157 0.008399883 -0.02408337 0.061346844 0.08571655
-0.004607296 -0.06418527 0.017420202 0.014999768 0.06393042 0.039268315 -0.10613903 -0.03413505
-0.0085854605 -0.030650835 0.014349169 -0.030184591 0.10251921 0.021928787 0.011624439 -0.079523414
0.030948319 -0.047419388 0.04454746 -0.2371501 0.042835575 -0.009001968 0.03210962 0.0025005876
0.07719442 0.013976174 0.1039247 0.060424358 -0.022357043 0.036640484 -0.046918534 0.035538968
-0.04562571 0.061568204 -0.035485078 0.035355575 -6.777606e-06 0.016255766 0.058321383 0.03341988
0.005346252 -0.34195006 0.0058740196 0.054621853 -0.05136026 -0.041257713 0.037876587 0.06367585
0.060014676 -0.012263262 0.040182352 0.0057076537 -0.05766371 0.057733636 -0.016246054 0.08559328
0.20532003 -0.035448886 0.07664037 0.028034592 -0.168168 0.064318314 -0.059991848 0.03664931
-0.025554458 -0.0039764545 -0.01798291 0.03289649 0.030930607 0.038235467 -0.0021526108 -0.0686057
-0.05927093 0.022428377 0.00991707 0.08459528 -0.025126746 0.011642204 0.014459802 -0.42824006
-4.4490276e-05 -0.011182725 -0.06364048 0.013065012 0.043656442 0.13324262 -0.0039141686 -0.045556486
0.01605255 -0.06567737 -0.073455065 -0.013188183 -0.0709813 -0.08849391 0.019625781 -0.025552213
0.0750758 0.108734496 0.29263175 -0.014382084 -0.013674785 -0.029122453 0.04923481 0.045564912
-0.03136743 0.025990458 0.07614118 0.06653174 -0.03719524 -0.17234373 -0.058806136 -0.05352986
-0.05754625 0.07499732 0.008165702 0.015879102 -0.17947567 -0.0052037435 -0.07225343 0.056337085
-0.015006361 -0.05870067 0.06386197 0.013813164 0.049742214 -0.03206204 0.015556974 -0.056936853
0.27354908 -0.014881662 0.04394441 -0.030351948 -0.13179712 -0.060819164 -0.01096921 0.036276504
-0.013595284 -0.037205853 -0.04381376 0.028187906 -0.014201226 0.06701689 0.046484005 -0.078011476
0.119271934 -0.059402753 0.03935531 0.06596927 0.04945528 0.05524608 -0.24080653 0.02615387
-0.014604245 -0.008614744 -0.061696194 0.0017360055 -0.0031541397 0.031194959 -0.027042158 0.01707408
0.008202918 0.020631695 -0.040689338 -0.029748656 0.040238183 -0.018082542 0.008733865 -0.003256578
0.05967343 -0.031195402 0.06579203 -0.0712179 0.06243692 0.0517836 0.06989814 -0.026770305
0.0661304 0.0023394001 0.015391257 0.044455018 -0.07471189 0.019971816 -0.029093329 0.0731333
0.10259297 -0.0030071675 0.048994042 -0.02762322 0.020540576 0.028511371 -0.028174143 0.029373363
0.028214265 -0.010667167 0.20695677 0.039789036 -0.04115661 -0.023330584 -0.006251169 -0.001982679
0.06221989 0.01173602 -0.054338697 0.06423576 0.0029136206 0.027224137 -0.025544582 -0.034514792

fc3.bias f4 [100]
00000000: d3f1 f6bc a58d 2ebd db32 c23d baa7 38bd
00000010: d40a 32bc 6dc8 6b3c 5295 543d b386 193d
00000020: 4e1c 12bb b429 6cbb 896c 9c3d c535 823d
00000030: 00a4 b73c fc29 4c3d 19b6 353c da5d 8e3d
00000040: 6739 6fbc 4627 71bc cc1b bf3b ff96 21bd
00000050: ea29 9fbc fe16 cabc 0027 fd3c f1ee 5d3d
00000060: fbe0 9b3d 8f85 173d 1a5e 54bc 7acb 8abc
00000070: 54b7 273c a9a7 bb3d fb43 80bd c7c6 693c
00000080: f924 9e3c 5d0a 5f3b d9e6 55bc db9e 223d
00000090: bc1d a8bc fe32 43bd 5b16 66bc 01ed 6e3c
000000a0: 01cd ccbb 8038 133d a4ea fa3c 4293 bb3c
000000b0: ecdf b8bc 59fb 8dbd 43ee d3bb 8294 40bd
000000c0: 2d61 293d 84f2 4f3b 5ed6 2ebd 8318 1e3d
000000d0: a64e 60bd 90f8 98bd 2c4c af3c ca3a 8cbd
000000e0: 834a caba 4287 bf3c e165 b8bd 4baf 6dbd
000000f0: 8d76 79bd 6b66 7d3c b142 d0bc b57e a33c
00000100: 1093 073c 80ca 1abd d9c6 033c 401a 32bc
00000110: 17cd 52bd a210 d03c 8b3f b63b dfb3 6ebd
00000120: c97b 96bc 76c6 02bc 98d4 8e3c 9841 413d
00000130: 0091 4dbd e046 54bd 5b8c 443c b982 b43c
00000140: 88f7 863b 57ee c2bb 1f46 d7bc 9c77 70bc
00000150: 0c06 3c3d f671 703d 7c5c 39bc 7bf5 94bd
00000160: de0e 6fbd 213f 16bd e3e0 683b beaa 643d
00000170: c22b 333d 1def 163d 21c0 803d 3b02 473c
00000180: 3c5e c9bc 676f 4f3d eaf1 d2bc cf29 aebd
-0.030144608 -0.04261555 0.09482356 -0.04508183 -0.010866839 0.014391047 0.051900215 0.037481975
-0.0022294703 -0.00360356 0.07637889 0.06357912 0.022417068 0.049844727 0.011090779 0.069514945
-0.014601088 -0.014718836 0.005832171 -0.03945064 -0.019429166 -0.024669167 0.030902386 0.05418295
0.07611271 0.036992606 -0.012961889 -0.016942728 0.01023658 0.09162838 -0.06262966 0.014268584
0.01930474 0.0034033277 -0.013055527 0.039702278 -0.020521991 -0.04765605 -0.014043416 0.014582873
-0.0062500243 0.035942554 0.030629463 0.022897366 -0.022567712 -0.069327064 -0.006467612 -0.047016628
0.04135244 0.0031730244 -0.042684905 0.038597595 -0.054762505 -0.074692845 0.021398626 -0.068471506
-0.0015433583 0.023379926 -0.09003807 -0.0580285 -0.060904074 0.015466313 -0.025422426 0.01995788
0.0082748085 -0.037790775 0.008043014 -0.010870516 -0.05146512 0.025398556 0.005561774 -0.058277007
-0.018369572 -0.007981887 0.017435357 0.047181696 -0.05018711 -0.051825404 0.011996354 0.02203499
0.0041188635 -0.0059488225 -0.026278554 -0.014676955 0.045904204 0.05870243 -0.011313554 -0.07273384
-0.058363788 -0.0366813 0.0035534434 0.055826895 0.043742903 0.03684913 0.06286646 0.012146528
-0.024581067 0.05064335 -0.02575012 -0.08504068
