training_model/wandb/run-20200708_225910-3f7ztnml/fir_6cov_1.pt (torch_old, 53280 bytes, 12 tensors)

encode_conv1.weight f4 [4, 12, 3]
000000 4e 6d 7f 3d 93 7c 88 3e 4c c9 c3 3d 64 21 a8 3e
       0.0623601 0.26657543 0.09559879 0.32837975
000010 ef de d7 3d 35 b1 70 3e e1 9d 9b 3d 31 70 89 3e
       0.10540568 0.23505099 0.075984724 0.26843408
000020 f5 04 3a bd d8 d6 61 bc 61 f6 8d 3d 9f 31 25 3d
       -0.045414884 -0.013784133 0.06931759 0.040330525
000030 f2 25 f5 3c d2 8c 37 3e 0f ab d6 3d 17 aa 59 3c
       0.02992532 0.17924812 0.104818456 0.0132851815
000040 d0 3f 60 3d 1f 32 08 3e cb 0c aa bd 34 15 4b 3a
       0.054748356 0.1330037 -0.08303221 0.0007746995
000050 39 f4 03 ba ce 54 1e be 9d c9 e6 bc 1e a6 f4 3d
       -0.00050336454 -0.15462038 -0.028172309 0.11945747
000060 6c 40 b9 3d e0 b6 87 3e 15 f3 11 3e 50 26 2e 3e
       0.090454906 0.2650671 0.14252885 0.17006803
000070 0e 7e b4 3d b5 25 d0 3d 9b ae 26 be 7c 16 8d 3e
       0.088131055 0.10163442 -0.16277544 0.27556217
000080 7d 20 58 3d de fc f1 3c 71 49 21 3e ef b8 f1 3d
       0.05276536 0.029539522 0.15750672 0.118028514
000090 53 9d 5f 3e 10 cb b4 bb 20 a8 48 3d 06 d2 00 be
       0.21837358 -0.005517371 0.04898846 -0.12580118
0000a0 25 4b 2e 3e eb a3 df bd 8b 40 52 bb c3 32 9b bd
       0.17020853 -0.10919937 -0.0032081928 -0.075780414
0000b0 3e 08 4f 3e 92 d7 ab 3d 15 93 2c 3c 78 2e 04 be
       0.20217988 0.08390726 0.010533114 -0.12908351
0000c0 c6 17 c8 3c 92 b2 e0 bd 66 fd 83 bd 12 b3 0d bd
       0.024425399 -0.109715596 -0.06444816 -0.034594603
0000d0 88 64 34 3e 9f f9 03 bd 70 72 70 3c 00 cd b1 bd
       0.17616475 -0.03222048 0.0146757215 -0.08681679
0000e0 c8 2d b5 bd 0a 60 9e 3d a3 ad e1 bd 26 bc 04 be
       -0.08846623 0.07733162 -0.11019447 -0.12962398
0000f0 6d 5c 81 3e 1b 68 dd 3d 97 a4 0c bd a4 ea 5d 3e
       0.25265828 0.10810872 -0.034336653 0.2167154
000100 c7 b0 85 bd b2 1e a1 bd 36 9c 32 bd 86 e8 3f be
       -0.06527858 -0.07867183 -0.043606006 -0.18741044
000110 e3 eb 35 bd ea 7b c9 3d 78 82 3f 3d 15 71 bb bd
       -0.044414412 0.09838088 0.046755284 -0.09152428
000120 93 fe 14 be ae 2e c8 3a a0 e8 23 3e 1b c0 b3 be
       -0.14550237 0.0015272701 0.16006708 -0.35107502
000130 96 cd 60 bd 2d 25 23 bd 62 3c 4b bd 19 89 f9 bd
       -0.054883562 -0.039830375 -0.049618132 -0.121843524
000140 41 ae 2c 3e d4 f9 6d bd 67 7e 1e 3d 5b 27 67 3d
       0.16863348 -0.058099583 0.038694765 0.056434017
000150 af b8 4f be f2 bc 38 be 9b c4 8d 3e 6f a2 7b bb
       -0.20285295 -0.18040827 0.2768906 -0.0038396379
000160 cb 88 9d bd ed f0 35 3d 4f e9 ea bd 01 d3 e3 3d
       -0.07692107 0.044419218 -0.11470281 0.1112423
000170 c3 3a 55 3e a9 b2 22 bc 8d 84 0d 3e 31 6f 8d 3e
       0.20823197 -0.009930291 0.13820095 0.27623895
000180 3f a7 6e be 23 7e f0 bd b8 b0 04 3e 78 51 09 be
       -0.23305987 -0.11742809 0.12958038 -0.13409984
000190 a4 6b 09 3d 75 76 22 3d 2f 09 89 bd 31 b7 91 3d
       0.03354992 0.03966375 -0.06691205 0.07115019
0001a0 a1 29 48 3e 0a 8b 8e bd 53 16 c0 bd 45 b4 48 3e
       0.1954713 -0.06960113 -0.09379258 0.19600017
0001b0 dd ea 2c be f7 c6 31 bb 85 aa 87 bd 42 8f fa 3e
       -0.16886468 -0.002712665 -0.06624321 0.48937422
0001c0 5e bf 19 3c 41 49 17 bd fb 65 6f bd 07 e0 13 be
       0.009384004 -0.036935095 -0.058446866 -0.14440928
0001d0 fd 73 5a bd aa ad da 3c e4 e2 12 bd b8 61 66 bd
       -0.05333327 0.026694138 -0.03586091 -0.056245536
0001e0 be b9 4c be 4b c9 cc bd df 70 b6 bd b1 c2 00 3e
       -0.1999273 -0.09999331 -0.08908247 0.12574269
0001f0 1c 48 7d 3e ce 13 98 3d 28 a4 54 3d 71 9b 83 bd
       0.24734539 0.074256524 0.051914364 -0.064261325
000200 f7 15 7e bc 1f 3e ee 3d 4a ff bd 3d 09 79 84 bd
       -0.0155081665 0.116329424 0.09277208 -0.06468398
000210 be 40 18 be 14 0c 32 bd db c4 37 be 0c 37 cd 3e
       -0.14868447 -0.04346855 -0.17946188 0.4008106
000220 cc 01 26 3e f5 11 7e bc 10 f4 c4 3d c1 73 1c be
       0.16211623 -0.015507211 0.09616864 -0.15278532
000230 14 2c 4f be 90 a4 67 bd a6 de 02 3c ad 6a 9a bd
       -0.20231658 -0.056553423 0.007987654 -0.07539878

encode_conv1.bias f4 [4]
000000 a9 14 1b be 6a 65 96 bd f2 be ef bd d8 4f d4 bd
       -0.151446 -0.07343562 -0.11706342 -0.103667915

encode_conv2.weight f4 [4, 4, 3]
000000 82 28 c6 bd d1 9d 86 be a2 f1 ed 3d ce cc 9b bd
       -0.09675695 -0.2629228 0.116183534 -0.07607423
000010 c7 43 d2 3d 93 5a 88 3e 6f 1b ad bc df 4c a6 3d
       0.10266834 0.26631603 -0.021131245 0.08120131
000020 99 02 2e be be 2f 3a 3e 83 64 64 3e d6 74 4e bd
       -0.16993178 0.18182275 0.22303967 -0.050404392
000030 6b a7 ac 3e 99 0c 60 be 9e 73 d0 bd a2 31 78 3e
       0.3372148 -0.21879806 -0.10178302 0.24237683
000040 d3 f8 0c 3e db 73 9d bc 3c 53 8e 3e 52 f5 1c be
       0.13766794 -0.019220283 0.27797878 -0.15327957
000050 2a cc 99 3e 8b 3d ab be c5 38 12 3e 34 d2 07 bf
       0.30038577 -0.3344539 0.14279468 -0.5305512
000060 1b 80 ac 3e 9b 07 df 3e bb c6 7b 3e 1d 59 4b bd
       0.33691487 0.4356049 0.24587528 -0.049645532
000070 f3 57 1b 3e 68 7c 7b 3e 53 d8 4d 3e 4d 02 8a 3e
       0.15170269 0.24559176 0.20102052 0.2695488
000080 1b 12 d4 3e 50 6d e4 be c3 7d 17 3f 27 f8 71 3e
       0.41420063 -0.4461465 0.5917627 0.23629819
000090 ca 63 10 be c8 b8 06 3e 85 ab a0 3e 2d e7 f0 be
       -0.14100567 0.13156426 0.3138086 -0.47051373
0000a0 3c e6 ae be e7 72 66 bd af e1 03 3e e6 10 0c be
       -0.3416003 -0.056261923 0.1287906 -0.13678321
0000b0 9b b1 f6 3e 2a 37 1d 3f f9 20 57 3f 84 b4 82 3e
       0.48182377 0.614123 0.8403469 0.25528347

encode_conv2.bias f4 [4]
000000 c2 07 29 bd 9a 70 73 bd 12 5b 6e 3d cb bb f1 bc
       -0.041267164 -0.059433557 0.05819232 -0.029508492

encode_conv3.weight f4 [8, 4, 3]
000000 9d f9 37 bd b3 8f ec bd bb 5d 4a 3d b5 05 bf 3d
       -0.044915784 -0.11550846 0.049405795 0.093272604
000010 57 06 9e bc b3 a5 0c 3f 85 b4 4b 3e bc 60 55 3e
       -0.019290132 0.54940337 0.19893081 0.20837682
000020 72 ef 97 bd b6 b0 d1 bd 8f d3 a2 3e f8 32 3f bf
       -0.074187174 -0.10238783 0.3180203 -0.7468715
000030 23 f3 a0 3d 77 c5 25 be 7b f2 85 3d 34 ab be 3e
       0.07858875 -0.16188608 0.0654039 0.37239993
000040 2f 86 c1 bd c5 0d c3 bd 8c b2 47 3e b7 bf 48 bd
       -0.094494216 -0.09524111 0.19501704 -0.04901096
000050 60 24 83 be 96 4a 82 bd d1 46 d8 be 35 e8 01 be
       -0.2561369 -0.063618824 -0.4224153 -0.12686236
000060 69 c8 01 bc e1 ee 55 be e2 66 e0 bd 21 dd d3 be
       -0.007921317 -0.20891906 -0.10957123 -0.41379645
000070 c3 0d 76 3e 07 64 87 3e ec c6 65 3d 58 40 15 be
       0.24028687 0.26443502 0.05609791 -0.14575326
000080 44 e0 7d 3e 5d db 88 3e 27 e3 62 3e 73 6a a6 3e
       0.24792582 0.2672986 0.22156964 0.3250309
000090 bc c2 2a 3d 46 a1 cf 3c 22 f3 4e 3e 2d a7 84 3e
       0.04168962 0.025345456 0.20209935 0.25908795
0000a0 82 3a be be ba 37 10 3e 75 a3 38 be 8e 48 af bd
       -0.37154013 0.14083758 -0.18031104 -0.085587606
0000b0 4e 96 2e 3e 8f 87 f1 3d fd 16 84 bd d5 0c d2 3e
       0.17049524 0.11793434 -0.06449697 0.41025415
0000c0 2d 5b 01 3e c0 15 4a be fe 13 9c 3e e4 84 c7 3d
       0.12632437 -0.1973486 0.30484003 0.09742144
0000d0 85 02 fb 3d 8f e0 4b 3e a9 08 b3 bd 39 45 67 3e
       0.1225634 0.19909881 -0.08741886 0.22585
0000e0 45 69 92 bd c2 4f 46 be e6 c9 74 3e 07 3d 46 be
       -0.07148985 -0.19366363 0.23905143 -0.19359218
0000f0 f0 23 11 be 53 94 ed bd 6a 7c 57 3e 44 3f 5c 3d
       -0.14173865 -0.11600556 0.21043554 0.053771272
000100 90 70 c1 3c ee 7d 6b bd 25 6b 67 be d2 81 a6 be
       0.023613244 -0.057493143 -0.22599466 -0.3252092
000110 70 08 1c 3e 9f 92 1f be 97 4b 45 be 17 99 16 3e
       0.15237594 -0.15583275 -0.19267116 0.14706837
000120 69 4d 07 3e 45 91 0d 3e 12 ed 2e 3e 95 30 f6 3e
       0.13213123 0.13824947 0.17082623 0.4808394
000130 61 8d cc 3e d6 3b 51 bd d6 fa 3a be d8 3a b5 3d
       0.39951614 -0.051082455 -0.18259749 0.08849114
000140 33 eb 88 3e 92 c1 77 be 33 19 b4 3e 10 95 82 be
       0.26741943 -0.24194935 0.35175475 -0.2550435
000150 1c 27 17 bc 87 33 95 3e 30 b5 8f 3e 48 66 5b 3e
       -0.009225633 0.29140875 0.28067923 0.21425736
000160 da a7 84 3e 49 6c 75 3d 74 ab 1a be f5 bf 8e 3e
       0.2590931 0.059917722 -0.15104467 0.27880827
000170 fb ee 96 be 1d 5b 1e be 60 a7 b7 3e 57 74 2b 3e
       -0.29479203 -0.15464444 0.35869884 0.16743599

encode_conv3.bias f4 [8]
000000 c3 5f 20 be 6b 5d 0b 3e f2 44 05 be e6 cc 7d 3e
       -0.1566153 0.13609855 -0.13014582 0.24785194
000010 52 5e 05 3e 8c 0a 3f 3e 04 d3 01 be c8 da 57 bd
       0.13024262 0.18656367 -0.12678152 -0.05269888

encode_conv4.weight f4 [8, 8, 3]
000000 14 31 0c be fd dd 12 3e 13 46 9d 3e 61 e3 d6 be
       -0.13690597 0.14342494 0.30717525 -0.4197035
000010 34 64 06 be 75 5e 67 3d d0 4b 95 3e a3 c4 d1 3d
       -0.13124162 0.056486566 0.29159403 0.102425836
000020 9e 08 a1 bd ad a9 55 3e 7b 2a 52 bd c8 9d 88 bd
       -0.07862972 0.20865507 -0.051310044 -0.066707194
000030 e3 10 28 bc e8 65 87 3e a8 74 6e 3e b7 19 83 3e
       -0.010257932 0.26444936 0.23286688 0.25605556
000040 7d ad 0d 3d 21 3d 99 3d 36 5f 83 3e 99 59 d6 3d
       0.03458928 0.074823625 0.25658578 0.10466308
000050 6a 42 0d 3c 50 da ed 3d 23 d1 76 be a5 d7 ae bd
       0.008621791 0.116139054 -0.24103217 -0.08537225
000060 d4 21 8b 3e 3f 6f 05 3e a4 24 02 3e 2d df a0 bd
       0.27174246 0.13030718 0.1270929 -0.078550674
000070 b8 a2 12 bd de 3c fb bc b4 a9 10 be 75 b6 8b 3d
       -0.035799712 -0.030668672 -0.14127237 0.0682191
000080 82 01 59 be 35 a9 f1 bd 29 c7 0a be 85 c6 82 be
       -0.21191981 -0.11799852 -0.13552536 -0.25542083
000090 bf 6a 72 3e e7 38 57 3e 82 75 82 3e 39 84 c6 3c
       0.23673533 0.210178 0.25480276 0.02423297
0000a0 af 06 bb bb 3f ae 18 be ba 78 94 3d bd 32 52 bb
       -0.005707584 -0.1491022 0.07249589 -0.00320737
0000b0 8e 12 7f 3e af 50 6e 3d 1f 34 42 be 76 45 f0 3b
       0.24909422 0.058182415 -0.18965195 0.007332499
0000c0 2e 2a 56 3e ab 1d 79 3d 8a 91 32 be 94 8d 81 bc
       0.20914528 0.06081931 -0.17438331 -0.01581458
0000d0 f2 28 04 3c 22 e0 ca 3d 2b cf 25 3e 6f 02 14 be
       0.008066403 0.09906031 0.1619231 -0.14454053
0000e0 da 80 0f 3e 1f aa 3b 3e ab 65 1c 3e 40 cd 34 3e
       0.14013997 0.18326615 0.15273158 0.17656422
0000f0 6a 92 40 3e e5 5a 81 3d a8 8b 1c be 06 90 51 3e
       0.18805853 0.06316165 -0.1528765 0.20465097
000100 26 6a ad 3d e0 f2 e1 bd 3d f6 3e 3d fc 51 2f 3d
       0.08467512 -0.11032653 0.04662155 0.042802796
000110 49 50 e1 bd bc ba a6 bd 12 9a fe bd 8c a1 40 3e
       -0.11001641 -0.081410855 -0.1243173 0.18811625
000120 63 ed d6 bd e7 19 cf bd fa 73 8a 3e d1 43 d8 be
       -0.10494497 -0.10112362 0.27041608 -0.4223924
000130 26 11 73 bd e3 f7 9e bc 76 63 41 3e 7c a3 87 3e
       -0.059342526 -0.019405311 0.18885598 0.26491916
000140 7b 8a 33 3e b4 28 ae 3d ab 51 eb 3d c2 80 90 be
       0.17533295 0.08503857 0.11490186 -0.28223234
000150 ee e0 c9 3d 2d b0 01 3e d6 3e 29 3b ce 87 8d 3d
       0.09857355 0.12664862 0.0025824807 0.06910668
000160 91 58 b9 bd dc b3 7b be ee 9f 1b 3e 89 c0 35 3e
       -0.09050096 -0.2458033 0.15197727 0.17749228
000170 dd 7d 27 3e 44 bd 30 3e 50 b5 96 3e dd d9 08 b8
       0.16356607 0.17259699 0.29435205 -3.2627828e-05
000180 04 bd 04 be 38 32 69 3e 75 bd c5 bd 38 6a b8 3c
       -0.12962729 0.22773063 -0.09655277 0.022511587
000190 cc 2d 10 3d d1 86 a5 bc 70 e9 28 be 34 08 b4 bd
       0.035199925 -0.020205887 -0.164953 -0.08790627
0001a0 dc 5d 8d 3e 8b ee 14 be 54 ca 28 bd 3e 79 23 3c
       0.27610672 -0.14544122 -0.04120858 0.009977637
0001b0 06 d4 84 3d 53 7b 81 3e 7a a4 51 3d d2 38 8f bd
       0.06485753 0.252894 0.051182248 -0.069932595
0001c0 c1 77 bc 3a 32 19 b0 3d 5b 78 1a 3d d1 3e 91 3e
       0.0014378951 0.085985556 0.037712436 0.28368238
0001d0 7e ec b4 bd 90 6c 89 3e 09 ef 66 3d 79 78 7b 3d
       -0.0883417 0.2684064 0.056380305 0.06139419
0001e0 63 be 4e be 86 72 9d be 70 c7 86 3e e9 95 b4 3e
       -0.20189814 -0.30751437 0.26324034 0.35270622
0001f0 dd 21 58 3e ae 33 c0 bd d2 e0 37 3d 0e 02 08 3e
       0.21106668 -0.09384857 0.04489214 0.13282034
000200 fe 1a 78 bd 14 c9 37 3e 94 24 88 3d ae 23 88 3e
       -0.060572617 0.17947799 0.06647602 0.2658972
000210 05 c0 0b bc 0c cd 5a be 69 ad 27 3d cc 27 27 3d
       -0.008529668 -0.21367282 0.04093686 0.040809438
000220 b7 bb 2b 3e 89 61 a0 bd e1 eb b7 be d3 b3 44 3e
       0.16770826 -0.07831103 -0.3592215 0.19209222
000230 92 d8 8d 3e 31 15 81 3d 3a bb 3a 3e 34 5b 0c 3e
       0.27704293 0.0630287 0.18235484 0.13706666
000240 52 02 e3 3d 85 99 88 3e ed a5 a3 bd fb a0 6a 3e
       0.11084427 0.26679626 -0.07990632 0.22912972
000250 2c a1 32 3e 3b f7 82 3d 2a 5e 9e bd 33 5f a8 3b
       0.17444295 0.06394812 -0.07732804 0.0051383018
000260 52 35 88 3d bb 67 4b 3d fb 3a ee bd 2c ac 12 bd
       0.06650795 0.049659472 -0.116323434 -0.035808727
000270 73 66 ed 3d 0f 86 b0 bd af 7d 6d be 43 31 4f 3e
       0.11591806 -0.0861932 -0.23192476 0.20233636
000280 09 1e 2d be 19 e5 04 3e 2f e3 08 3e 11 b1 10 3d
       -0.16905989 0.12978019 0.13367914 0.035325114
000290 c9 7b 4a 3d 7c 84 5a bd cb 56 63 be c3 15 80 be
       0.049434457 -0.053349003 -0.22201078 -0.25016603
0002a0 64 d9 3b 3d 17 da 15 3d f1 c3 3d be 7e 78 80 3e
       0.045861617 0.03658494 -0.18531777 0.25091928
0002b0 df f6 26 3d 7e e4 d4 3d 15 9c d6 bc 76 cf 3f 3e
       0.04076278 0.10395144 -0.026197473 0.18731484
0002c0 c2 44 ef bd d4 af 1b 3e 78 22 81 bc 16 97 e7 3d
       -0.116830364 0.15203792 -0.015763506 0.11308114
0002d0 7e f6 87 3e 22 71 66 bc f9 9e 44 3e 00 84 4f 3d
       0.26555246 -0.014065059 0.19201268 0.050662994
0002e0 ec 7b ac bc ad b9 8b 3d ed be 83 3e cb 33 12 bd
       -0.021055184 0.06822524 0.25731602 -0.035693925
0002f0 a8 78 15 be e7 5e 41 3e 2d 73 93 bb 97 8a 8f 3e
       -0.14596808 0.18883859 -0.004499814 0.28035423

encode_conv4.bias f4 [8]
000000 b0 81 0e 3c e3 75 44 3e 16 20 92 3d 4e 2d e2 bd
       0.008697912 0.19185595 0.07135026 -0.110437974
000010 a4 00 b6 3d eb b8 a3 bb 1a 0d 60 3e f2 4f 35 3e
       0.08886841 -0.004996409 0.21879998 0.17706278

fc1.weight f4 [150, 56]
000000 d8 c5 14 be e7 c7 0b 3d b2 ba 84 3e 1c 37 fd 3d
       -0.14528596 0.03412619 0.25923687 0.12364027
000010 41 06 0a be 2c b1 38 be 35 41 79 be 65 1d dc bd
       -0.13478948 -0.18036336 -0.24341281 -0.10747794
000020 aa c8 13 3e a0 bf 66 bd 4a ba 8e bd 9d 42 3a 3e
       0.14432016 -0.05633509 -0.069691256 0.18189473
000030 e2 15 28 bd 9b c6 09 bd a8 7c b1 3d 90 73 ed bb
       -0.041036494 -0.03363667 0.086663544 -0.007246442
000040 b0 44 42 3e 65 05 10 3e 19 80 7a bd c1 4d 97 bd
       0.18971515 0.14064558 -0.06115732 -0.07387877
000050 a7 4e 6b 3d 8a eb 7b 3d e7 9a 3f 3e 16 f9 39 3e
       0.057448056 0.061503924 0.18711434 0.18161425
000060 fa 21 78 3a 98 be 44 be d5 88 be bc e9 05 f3 bc
       0.0009465512 -0.19213331 -0.023258606 -0.029665904
000070 38 f4 40 3d 07 98 84 3d 14 23 b8 3d da ed c3 3c
       0.047107905 0.064743094 0.089910656 0.023917127
000080 5a 4c 83 3b d8 61 ac bd 0d a0 7d 3d ef 2c b1 bd
       0.0040069045 -0.084171 0.061920214 -0.086511485
000090 91 0f 62 bd e7 4c 97 bd 55 0e 41 3e cd b5 e6 3d
       -0.055190627 -0.07387715 0.18853123 0.112651445
0000a0 4b ab 88 bd f6 fc 1f 3e 6c 3a 9c bd c4 83 0d 3e
       -0.066732965 0.1562384 -0.076283306 0.13819796
0000b0 6a f4 6b bd c1 06 a2 bb a1 7f 6a 3d 37 6a a3 3d
       -0.05760614 -0.004944653 0.057250623 0.07979243
0000c0 b3 1b c6 bd 10 c2 37 3d be f3 ac bd cb 8d 2e 3d
       -0.09673252 0.044862807 -0.08444928 0.042615693
0000d0 92 a6 c3 3d 85 fe 8b 3d e2 dd dd bb ad 70 f9 3d
       0.09553255 0.06835655 -0.0067708353 0.12179694
0000e0 25 79 8b be e8 68 14 3e 34 7a e7 3d a6 d2 99 3d
       -0.27240863 0.14493144 0.11302605 0.07510881
0000f0 f3 1d eb 3d ab 1b a3 3c f1 00 fa bd 4d a6 92 bd
       0.11480322 0.019910654 -0.12207211 -0.071606256
000100 95 42 9c 3d 32 4a 98 3c 70 a1 e5 bd f7 75 1f 3d
       0.07629887 0.018590067 -0.112124324 0.03893086
000110 86 73 2a bd 92 ae db 3d 1e 88 f7 bd 87 82 20 3e
       -0.041614078 0.10726656 -0.12086509 0.15674792
000120 ff 9c b9 bd 0a 7e 93 3d 77 f8 7d bd da b9 2a 3c
       -0.09063148 0.072017744 -0.062004533 0.010420287
000130 3b 1b ab 3d 8d f0 a2 bc 45 84 24 3d a8 84 4b bc
       0.08354803 -0.019890094 0.040165205 -0.012421764
000140 60 0a 8b bd 02 38 71 3d 55 05 c5 3c 42 96 25 3e
       -0.06789088 0.058891304 0.024050394 0.161706
000150 ea 27 02 3e 10 64 29 3d 6c dd 1e 3d ea c1 5e 3d
       0.12710539 0.041355193 0.038785383 0.05438415
000160 1a 57 bf 3c 88 29 8c bd b1 6f d6 3d d4 73 21 3e
       0.023356963 -0.06843859 0.10470522 0.15766841
000170 b2 03 5d bc 46 90 d1 3d 3b 37 99 bd 98 cf 04 bd
       -0.013489651 0.10232596 -0.074812375 -0.03242454
000180 d7 85 fe bd ec f5 bd 3d ba a8 11 3e e0 ed ae 3d
       -0.12427872 0.092754215 0.1422452 0.08541465
000190 fc c4 1f 3e 3c 6a 4b bd 3a ab a1 3d 84 69 2c 3e
       0.15602487 -0.04966186 0.07893987 0.16837126
0001a0 b3 38 f7 3d 5b 06 fe 3c 46 b0 a2 3d 8c a2 f7 3d
       0.120713614 0.03100889 0.07943778 0.1209155
0001b0 b0 50 6d 3a 3a 62 31 bd 99 f2 9e 3c a3 66 7a 3c
       0.0009052856 -0.043306567 0.019402789 0.01528326
0001c0 86 ca ec bd f6 e2 01 3e dd 99 9b 3b ff bd 99 3b
       -0.11562066 0.12684235 0.0047485665 0.0046918388
0001d0 55 e2 01 3e 71 5f 06 bd 9f 30 d0 3d 05 d4 c2 bd
       0.12683995 -0.032805864 0.10165524 -0.09513096
0001e0 c9 bc a3 3c 4e 9b d4 3d 0f 95 73 bd 64 ad 7a 3d
       0.01998748 0.103811845 -0.059468325 0.061200514
0001f0 13 30 e8 3d 4a 0a 81 bd fc d4 56 3d c2 fd 3d 3d
       0.113372944 -0.063007906 0.05244921 0.04638458
000200 c3 0c 15 3d 0e 99 e7 3c 63 82 f5 3d 54 0a a9 3d
       0.036389124 0.028271224 0.1198776 0.08253923
000210 8e 7f 6f bd 7d de 44 3d 4b ae a4 3d a4 19 a2 bd
       -0.058471255 0.048063744 0.08041056 -0.07915047
000220 87 83 1c be 59 e2 03 be e4 b0 8f bd d1 2e c5 bd
       -0.15284549 -0.12879314 -0.07016161 -0.0962807
000230 e8 0c d6 bd 76 30 02 bb 51 6b bd 3d 75 81 b0 bc
       -0.104516804 -0.001986531 0.092489846 -0.021546105
000240 95 d0 36 bd 38 42 c2 3d ec 29 d6 3d a9 d5 41 bd
       -0.044632513 0.094852865 0.10457215 -0.047322903
000250 48 d9 3f 3d ef 3e 6b b9 de 4c b6 3c 85 2e b0 3d
       0.046838075 -0.00022434791 0.02225345 0.08602623
000260 94 c7 97 bc 58 9b 97 3d ca 99 d5 bd dd 41 ac 3d
       -0.018527783 0.07402676 -0.104297236 0.08411
000270 a7 b5 63 bd 05 52 3d ba fd 8c 9b 3d 5c 1a af bc
       -0.05559316 -0.00072219997 0.07595251 -0.021374874
000280 f8 b2 9e 3d 57 2c b7 3d b2 15 88 bc 16 37 0c bd
       0.07748979 0.08944004 -0.016611908 -0.03423222
000290 84 cb 48 3d 38 fa cf 3d 37 2d 82 bd d7 c7 53 3d
       0.049022213 0.10155147 -0.0635628 0.051704254
0002a0 b7 9f 6e be c6 a5 5a 3d 24 72 38 3e eb b8 24 bd
       -0.23303114 0.05338075 0.18012291 -0.040215414
0002b0 a5 cc eb bb e9 5d 5b 3c f8 22 57 bd 3c 9e f8 3d
       -0.0071960264 0.013389089 -0.052523583 0.12139556
0002c0 0a 49 b6 3d f9 c1 2c 3d 4b d5 52 bc c8 c4 17 3d
       0.0890065 0.042177174 -0.012868236 0.0370529
0002d0 5b 55 9f bc 58 b8 14 3d c9 4a c2 3d ed 91 38 3c
       -0.01944988 0.036308616 0.094869204 0.01126526
0002e0 4c 4f 45 bd 0f b1 c2 bd 81 94 c2 3d d0 9d 0a 3e
       -0.048171327 -0.095064275 0.09500981 0.13536763
0002f0 76 e7 93 bd aa d1 18 3e 6f a6 f1 3d 5e ff 2d 3d
       -0.07221882 0.1492373 0.11799323 0.042479865
000300 d3 98 4c be b5 83 58 be 39 9e 5e 3c 9d 56 aa be
       -0.19980173 -0.21143992 0.013587528 -0.33269206
000310 3e c8 f7 bb a3 21 8f bd 01 57 fa 3d 21 33 90 3d
       -0.0075617125 -0.069888376 0.12223626 0.07041002
000320 bc 0b 18 3e 3f 6c 89 3d 3d 96 63 bc bc d0 c9 3b
       0.14848226 0.067100994 -0.0138908 0.0061589163
000330 92 5f 70 3d b6 e7 17 bd 7c 9e 87 3d 2c 11 13 3e
       0.058684893 -0.03708621 0.06622025 0.1436202
000340 41 4d 22 bd bb ca 70 3d f8 7a df bd 9a eb c6 bd
       -0.039624456 0.05878709 -0.10912126 -0.09712906
000350 30 fd 2f 3e 72 9e 4c bc 5e 08 a5 3d 81 e6 85 3d
       0.17186427 -0.012488948 0.080582365 0.06538106
000360 31 6f 60 bd 3b 02 c5 bc d5 e4 8a bd df a8 00 3e
       -0.05479354 -0.024048915 -0.067819275 0.12564419
000370 f9 d9 15 be 71 3b 64 3d c7 1e dd bd 75 76 0d bc
       -0.14633931 0.05572075 -0.10796886 -0.008634199
000380 cc f2 96 3d d9 15 d7 bc 2b 91 03 be 9e 09 96 3c
       0.073705286 -0.026255535 -0.12848346 0.018315133
000390 23 8b 1f bd 69 b8 4e 3d a0 d6 0a 3e 92 08 eb bd
       -0.03895105 0.050468836 0.13558435 -0.11476244
0003a0 9d 45 4f be f7 c8 d6 bd f5 fc 8a 3d 1c f9 1b bd
       -0.20241399 -0.1048755 0.06786529 -0.038079366
0003b0 94 d0 bf 3c f3 41 96 3c 92 07 86 bd e9 54 2e 3d
       0.023414887 0.018341994 -0.06544413 0.042561445
0003c0 14 2b c0 bd 88 ff 17 3d 7c c8 9b bc 92 9e 64 bd
       -0.093832165 0.037108928 -0.019016497 -0.055815287
0003d0 8b b3 c8 3d 72 9e 33 be 0e 02 39 be 68 66 00 3d
       0.0979987 -0.17540911 -0.1806719 0.031347662
0003e0 cd 66 0d bd 4e 11 14 3e 6d 3e a5 3d ce 5d cb 3d
       -0.034521867 0.14459726 0.080685474 0.09930001
0003f0 89 81 fb bd e3 e3 c8 3d 4c b3 2e 3d 62 22 86 3d
       -0.12280566 0.09809091 0.04265146 0.06549527

fc1.bias f4 [150]
000000 7e 3a 1e 3e 86 7a 04 3e c9 f2 c1 3d 98 1b f9 3d
       0.15452 0.12937364 0.09470136 0.12163466
000010 01 cc ee bd 7d ce 3b 3d fa 42 14 be 9f 6f 1a 3d
       -0.116600044 0.04585122 -0.14478675 0.037704106
000020 51 5b 78 3d 34 63 b5 bc c6 aa 17 3d b3 a1 b9 bc
       0.06063396 -0.02214203 0.037028097 -0.022660112
000030 77 f8 d2 bd cd c2 fe 3c 79 1d 2e bd b6 23 0d b9
       -0.10301297 0.031098748 -0.042508576 -0.00013460111
000040 64 25 9c bd 97 45 2e bc dc 53 7f bd b1 25 cd 3d
       -0.07624319 -0.010636709 -0.062335834 0.10016955
000050 23 2d 09 be 99 70 f2 bd b0 a4 6c bd 9b 59 c4 3d
       -0.13396125 -0.118378825 -0.057774246 0.095874034
000060 21 a2 27 3e cb 3e 0d bd 32 c9 09 bd b0 6d f9 bc
       0.16370441 -0.034483712 -0.03363914 -0.03044781
000070 b0 93 86 3d 8c 1c 66 bc 58 d9 44 3c 07 2a 6b bc
       0.06571138 -0.014044892 0.012014709 -0.014353282
000080 7c 97 a7 3c c9 d1 b6 bd 87 37 83 3a 8c e0 1c 3e
       0.020457976 -0.08926732 0.0010011055 0.15320033
000090 f5 42 cc bd 5b 76 05 be e3 6a 9b 3d 42 4f df 3d
       -0.099737085 -0.1303343 0.075887464 0.10903789
0000a0 9d 19 fa 3c e3 ee 68 bc 16 ac ca bc 40 22 b1 bd
       0.030529791 -0.014217111 -0.02474026 -0.08649111
0000b0 fb 7e c9 bd 3d bb 23 3c 16 2e d5 bd bf ef 18 be
       -0.09838673 0.009993372 -0.10409181 -0.14935206
0000c0 f6 4a c8 bd de 0f 10 3d 2c 90 20 be 34 3d 13 3d
       -0.09779923 0.035171382 -0.15679997 0.03594704
0000d0 af 35 b4 bc 6c fb 67 3d 39 fe a0 3b 1e 2b d6 bb
       -0.021998255 0.05663626 0.004913118 -0.0065359017
0000e0 54 5c cb bd d4 cf 18 be d7 c6 b8 bc c5 a3 f8 3b
       -0.099297196 -0.1492303 -0.022555752 0.007587882
0000f0 ca 85 a4 3d b6 99 b0 3c 70 25 fd 3d 20 8d 24 be
       0.08033331 0.02155767 0.12360656 -0.1606946
000100 fa c2 c0 bd eb 8b fd 3c 6b 9a d8 bd bc 21 86 bd
       -0.09412189 0.030950507 -0.10576328 -0.06549403
000110 c5 a2 68 bd 58 b6 b8 3d 64 2c 04 be 3e d3 10 3e
       -0.056795854 0.09019154 -0.12907559 0.14143082
000120 ad f1 5e bd 59 43 e9 bd 37 43 4c 3d 06 d4 f3 3d
       -0.0544297 -0.11389799 0.04986879 0.11905675
000130 35 1d 86 bd f4 9a 1c 3e 59 98 bb bd 54 2d b4 bd
       -0.065485395 0.15293485 -0.091599174 -0.08797708
000140 ef 8d 57 be 14 64 7f bc 18 b1 7a 3d b9 08 19 3e
       -0.21050237 -0.015587825 0.061204046 0.14944734
000150 b0 99 c9 3d ee 41 22 3e f1 f0 1e be aa 59 b7 3c
       0.09843767 0.15845463 -0.155216 0.022381622
000160 59 a8 f5 bd 8c fb 03 bd 20 5a 29 be 32 6d e3 3c
       -0.119950004 -0.032222316 -0.16538286 0.02776203
000170 90 cf 0c 3e 81 49 ac bd 46 12 04 be ef 6e 28 bd
       0.13751054 -0.08412457 -0.12897596 -0.04112142
000180 84 42 7a 3d 51 74 e2 3d f0 7e 18 bc 45 d5 ac 3d
       0.06109859 0.11057342 -0.009307608 0.084391154
000190 0d f5 b3 3d 4c f2 86 3d 37 0e 51 bd 37 b6 ed b9
       0.08786974 0.06589183 -0.051038947 -0.00045339923
0001a0 c0 e4 b5 bd 8a e9 0c be 72 1b b9 3c c3 53 ea 3d
       -0.08881521 -0.13760963 0.022596095 0.114417575
0001b0 2b f7 2b 3e 4a e2 26 3e e6 67 94 bd b8 3c be 3d
       0.16793506 0.1629726 -0.072463796 0.09288925
0001c0 ce 5a 94 3d 22 8f a7 3d 9d 85 f2 3d 1e 60 5c bd
       0.07243882 0.08181597 0.11841891 -0.053802602
0001d0 db a2 95 bd a6 3d 4a be fe d1 bf 3d e2 f7 22 be
       -0.07306453 -0.1975008 0.09366225 -0.15914872
0001e0 e0 3d 0b be c4 29 b8 3b 19 28 24 bc 63 6b c9 3c
       -0.13597822 0.005620213 -0.010019326 0.024587339
0001f0 97 90 44 bd 8c 1a c9 3d c0 41 8b 3d bd ba 83 3d
       -0.047989454 0.098195165 0.0679965 0.06432102
000200 8a 73 f2 bd 69 22 97 3d 20 b0 15 3e 9d 93 1a be
       -0.118384436 0.0737961 0.14617968 -0.15095372
000210 e4 7c 6d 3d 09 40 aa bd fd 69 6e 3c 0c dd 12 3d
       0.057980433 -0.08312995 0.014551637 0.035855338
000220 f0 60 03 3e 84 60 64 3d fc c5 1c 3e 9b 49 28 3d
       0.12829947 0.055756107 0.153099 0.04108582
000230 b8 06 67 3d fe 01 00 3c 09 0c 15 bc 8e ee 23 bb
       0.056402892 0.007812975 -0.009097108 -0.0025014016
000240 2c a7 d2 3c 7e 63 3d bd 90 5d cc bd ef 78 14 be
       0.02571448 -0.04623746 -0.09978783 -0.14499258
000250 9d 49 92 3d cd 51 e7 3d
       0.07142947 0.11294899

fc3.weight f4 [25, 150]
000000 66 db 3d ba f3 3e 9a 3d cb 5c c6 bb 67 2e a1 bd
       -0.0007242471 0.07531538 -0.0060535423 -0.07870179
000010 3a d4 79 bd d4 7e ad 3d a4 8f b7 bd 7b 8a d3 bc
       -0.06099341 0.08471456 -0.08962944 -0.025822869
000020 4a 09 5f 3b ac 02 62 be 45 d3 01 3e 05 ce a7 3c
       0.0034032636 -0.22071332 0.12678249 0.02048398
000030 c0 aa 88 bd b6 f7 05 bc 65 4e b1 bc d5 7d 01 bd
       -0.06673193 -0.008176735 -0.021643827 -0.031614143
000040 e2 5c 6f bc fd bd 82 bc d9 20 a7 3d a4 cd e7 3d
       -0.014609547 -0.015959734 0.08160562 0.1131852
000050 e1 f1 a4 3c cb b3 0a bc 06 f6 8c 3e 87 65 4e 3d
       0.020134868 -0.008465718 0.2753145 0.050389793
000060 62 c1 14 bc 50 4b d8 bd 97 af 35 3c dd ea f8 3d
       -0.009079309 -0.1056124 0.011089227 0.121541716
000070 e9 ff 88 bc 70 29 70 bd 21 f3 a6 3d 7c 23 80 3d
       -0.01672359 -0.058633268 0.08151842 0.06256768
000080 7e a9 d3 be 09 9e 6d bd 19 3b 02 3e 6b 78 51 3d
       -0.4134025 -0.058012042 0.12717856 0.05114023
000090 fd 3f c9 bd 4f 88 fe bb f4 ee 90 bc b2 e7 fa 3d
       -0.09826658 -0.007767714 -0.017692067 0.122512236
0000a0 90 60 f0 ba d6 b8 46 3d fb 85 44 bd 5e 4d dd 3d
       -0.0018339325 0.048516117 -0.047979336 0.10805772
0000b0 57 d2 b8 3b 6a f6 a0 bd a6 bb d1 3d 28 b0 85 bf
       0.005640309 -0.078595 0.10240869 -1.0444384
0000c0 e0 53 51 3d 36 24 b4 3d 4a 12 53 bd fd 66 23 bd
       0.05110538 0.08795969 -0.051531114 -0.03989314
0000d0 71 1d b2 3d d4 d6 60 3d 24 12 bd bd 13 f7 dc bd
       0.08697022 0.054892376 -0.09231976 -0.10789313
0000e0 d7 cb 0c 3d 73 a9 a7 bc 5e 21 0f 3e 03 75 a0 bd
       0.034374084 -0.020466542 0.13977572 -0.07834818
0000f0 37 6f f4 3d 30 4e 9c 3c 9a de 75 3d 1b 31 9f be
       0.11935275 0.019080251 0.060026743 -0.31092152
000100 25 56 72 3d 49 8b 51 bd 4d e8 8d bc 9d df 9e 3d
       0.059164185 -0.051158223 -0.017322684 0.077574946
000110 83 f4 98 bd a7 c0 1c bb f1 ad 16 bd ca 45 1a bd
       -0.07468512 -0.002391854 -0.036786977 -0.037664212
000120 dd 25 28 bc 45 60 c1 bd f5 44 86 bc af 5d f4 bb
       -0.010262934 -0.0944219 -0.016390303 -0.007457457
000130 7f bb f0 3b a6 cd b1 3d 11 70 38 3d bd 6d 5c 3d
       0.00734657 0.086818025 0.04502875 0.053815592
000140 84 35 f8 3e 3a 09 43 bc fa 7d 2a 3d 59 ac 88 ba
       0.4847833 -0.011904055 0.041624047 -0.001042734
000150 17 69 88 3c 16 5e 08 3e cc 02 95 bc 89 96 17 3d
       0.016651673 0.13317141 -0.01818981 0.037008796
000160 50 3f ab bd d3 09 6d bf 05 30 a8 3d 09 ba c0 3d
       -0.08361685 -0.92593116 0.08212284 0.094104834
000170 e1 4e a3 3d 91 00 95 3d 9d eb 1a 3c 47 4a 7c 3f
       0.07974029 0.07275499 0.009455589 0.9855084
000180 2d 1a 4f bc de 63 d4 3d eb 8c 00 be b0 7b c1 3d
       -0.012640518 0.10370611 -0.12553756 0.0944742
000190 da a6 c2 bc ea 31 b2 3d 8c 16 9a bc dc bd 12 bc
       -0.023761202 0.087009266 -0.01880958 -0.008956399
0001a0 7e c3 b6 3c 08 cb 3b 3e 49 67 0a bd 3e 51 21 bd
       0.022310015 0.18339169 -0.033789907 -0.03938412
0001b0 0b 04 8f bd 0f 9e 5e 3e 26 4c 94 3a ca e2 4f 3c
       -0.06983193 0.21739982 0.0011314198 0.012688348
0001c0 bc 37 2a be b7 5a cb bc bd 92 a9 3d ab 14 18 3d
       -0.16622823 -0.02482353 0.08279941 0.037129086
0001d0 85 bd 8e bd 7d 26 58 bd 64 c8 e4 3c 9d 6c 99 3a
       -0.06969742 -0.05277108 0.027927585 0.0011705343
0001e0 d3 dc be be bb 3b 58 bc a6 91 1f 3d 60 b2 e8 3d
       -0.3727785 -0.013197835 0.03895726 0.11362147
0001f0 26 07 1a bd dc e9 ae bd 34 6f 6a 3d 58 ee 24 bc
       -0.037604474 -0.08540699 0.057234958 -0.010066591
000200 de 39 69 bd bf c9 c4 3d bf 9a 92 3d 11 9d 35 bc
       -0.056939952 0.096087925 0.07158422 -0.011084811
000210 4e 72 6d 3b 82 37 3a bd d7 e2 da 3d b7 87 b6 3d
       0.003623146 -0.045463093 0.106877975 0.08912604
000220 b2 30 28 be ed 5c 1f 3d 13 72 dc 3d ea cf 74 3d
       -0.16424826 0.03890698 0.107639454 0.059768595
000230 ab c5 c1 3d 36 16 49 bc e5 19 39 3d 7c d2 aa bd
       0.0946153 -0.012273362 0.04519071 -0.08340928
000240 93 66 bd 3b c9 bf 07 bd 7f b0 40 3d a3 c8 68 bd
       0.00578005 -0.033141885 0.04704332 -0.056831967
000250 db 1b ec bd f5 b7 1e 3d e6 db 38 bd 87 18 b1 3d
       -0.115287505 0.038749654 -0.045131586 0.08647256
000260 58 73 70 3c b8 f2 9a 3d 87 01 a0 bd fd c5 2e 3d
       0.014675938 0.07565826 -0.07812791 0.042669285
000270 eb 2c 5f bd ef d2 bc 3d e4 7c d8 3d 0c c1 10 be
       -0.054486196 0.0921992 0.10570696 -0.14136142
000280 29 5f b1 3d 66 68 cf 3d 9d 4e b3 bc 25 a6 90 3d
       0.086607285 0.10127334 -0.021888072 0.070629396
000290 40 c9 0f 3d 2b 47 a3 3c d3 91 47 be 99 1f 87 3d
       0.035104036 0.019931396 -0.19489221 0.06597824
0002a0 5e 90 81 bd 83 63 04 3e 5b 3d bd bd cb 7f ea b9
       -0.06326364 0.12928586 -0.09240218 -0.0004472717
0002b0 0b 55 4f 3d 16 87 45 3b 38 fb 63 3c 83 03 0f 3c
       0.050618213 0.0030140332 0.013914876 0.008728865
0002c0 2d 6c aa bd 45 4b 0c be d2 54 16 3d 4c 36 2e 3d
       -0.08321414 -0.13700588 0.036701985 0.04253225
0002d0 c4 7b da 3d 69 e6 fc 3d e6 13 09 be 44 f1 cc 3d
       0.10668138 0.12348635 -0.13386497 0.10006955
0002e0 ca 55 33 bc ba 92 7c bd 86 71 e7 bd 48 ad e8 bd
       -0.010945747 -0.061663367 -0.1130095 -0.11361176
0002f0 18 1c ae bc ec 9a d4 3d ec 10 c1 bc 75 4b 34 bd
       -0.02125363 0.103811115 -0.02356764 -0.044017274
000300 7b d3 34 bd 9e c1 02 3e 2f 0b c0 bd a9 94 c2 3d
       -0.044146996 0.12769172 -0.09377133 0.09501011
000310 6c f1 3a 3d b6 19 16 be 8c a6 32 3d ca 4b 8d bd
       0.045640394 -0.14658245 0.043615863 -0.06899221
000320 da 12 63 3c e3 a1 0c 3e dd 59 a0 bd 04 e3 07 be
       0.013859475 0.1373363 -0.0782964 -0.13270193
000330 65 5c 8b be 2d b8 82 be 9c c4 6e bd ec 4b d2 bc
       -0.2721893 -0.2553114 -0.05829297 -0.025670968
000340 65 53 92 be e3 a3 2a 3d 4d 55 4a bd e7 bd be bd
       -0.2857925 0.0416602 -0.049397755 -0.09313565
000350 b1 55 ab 3a 9f ea 13 bf 44 64 e3 bc 24 ed 71 3d
       0.0013071803 -0.5777988 -0.027757771 0.059064046
000360 54 ba 11 bc a3 56 5f bd 76 00 bd bd 31 1e 18 bd
       -0.008894522 -0.054525983 -0.092286035 -0.037138168
000370 b6 5e a3 bd 3a 2a a4 3d 15 de c8 bd be ff 94 bd
       -0.07977049 0.080158666 -0.09807984 -0.072753415
000380 7e f0 45 3c cb ac c1 3d 17 d1 9c 3c 7e d0 d9 3c
       0.012081264 0.09456786 0.01914267 0.026588675
000390 84 ef 9a bd 4f 86 83 bd 3f b3 e7 3c 28 50 99 3d
       -0.07565215 -0.06422102 0.028283713 0.07485992
0003a0 d3 d3 71 3d e7 8a bd 3d c0 bf 95 3d 74 77 07 bd
       0.059039902 0.09255009 0.07311964 -0.033072904
0003b0 68 df 1f bd 19 8a ae 3d bc 13 3c 3d 54 60 d5 3d
       -0.039031416 0.08522434 0.045917258 0.10418764
0003c0 43 9a b9 3d 2d cf ad 3d 47 bd 51 3c 6e 7d be bd
       0.09062626 0.08486781 0.012801475 -0.093012676
0003d0 67 ca 27 bd 83 75 d8 3d 23 0b 81 3d 7e 20 ab 3d
       -0.04096451 0.105692886 0.06300952 0.08355807
0003e0 df 34 cf 3c 52 af 40 bd b0 73 9b 3c 7f 69 a3 3d
       0.025293766 -0.0470422 0.018976063 0.07979106
0003f0 8d 07 52 bd 56 44 69 3d c8 90 62 bc 09 8a 32 3c
       -0.051276732 0.056949936 -0.013828464 0.010897168

fc3.bias f4 [25]
000000 03 72 cf 3b dd 9f 90 3d 23 88 48 3a 8a 59 a2 bc
       0.00633073 0.070617415 0.00076496805 -0.019818086
000010 4f 3b 83 3d a5 22 95 3d 57 ad be 3d 93 a0 7d 3d
       0.064077966 0.072819985 0.09310406 0.061920714
000020 0b 47 4e 3d fc 81 0c bd d4 a8 15 bd d3 d1 6e 3d
       0.05036072 -0.03430365 -0.03653796 0.058305573
000030 b9 cf 90 bd e6 2a 91 3c c3 f4 5c bd 0c 2e 38 bd
       -0.0707087 0.01772065 -0.05394436 -0.04496579
000040 da 37 a8 bd 5a 74 ba bd e3 15 35 3c 79 8f a6 bd
       -0.08213778 -0.091042235 0.0110525815 -0.08132834
000050 05 72 9f bd 04 1e 93 3c 95 73 31 bd 6e b3 f2 bc
       -0.077854194 0.017958649 -0.04332312 -0.029626574
000060 ec 56 0e 3b
       0.002171929
