training_model/wandb/run-20200706_215843-55mix8gl/aoa_fir_6cov_1.pt (torch_old, 403058 bytes, 16 tensors)

encode_conv1.weight f4 [4, 50, 3, 3]
0.020846397 -0.055167053 0.04914654 -0.04918928 0.010763312 0.05244957 0.034792837 -0.043439116
-0.003997876 0.048614975 0.0457981 0.06267263 0.031202018 -0.037167124 -0.05628839 -0.010507443
-0.03593492 0.0249243 -0.049891107 0.00907975 -0.047761418 0.007917452 -0.058488797 -0.017825682
0.0019327527 -0.07876739 -0.015475769 0.050317336 0.024560751 0.047357522 -0.037434317 -0.04544147
0.061606325 -0.009839565 -0.014894011 0.070323475 0.10444385 -0.016858365 0.030179495 0.104252346
0.020506086 0.011600537 0.11187969 0.015421502 0.045006152 0.0003714661 -0.011851497 0.03178493
0.105064616 0.006061478 0.037894007 0.06497032 0.05113056 0.07657901 -0.110900715 -0.004338794
0.045416277 -0.10098789 -0.07304065 -0.020352226 -0.13542457 -0.090182506 0.0011069599 0.017806502
-0.042127475 0.0117044635 0.05559542 -0.011148131 -0.016809499 0.07253737 0.017802685 0.049022734
-0.0027914625 0.08123073 -0.056039937 0.01812729 0.018592495 -0.02496043 0.09479584 0.08570028
-0.06321808 0.01845785 0.034618303 -0.13268772 0.15169911 0.020572122 -0.05212388 0.1906159
0.10822785 -0.09952135 -0.059166104 -0.012040149 -0.08595333 0.10862692 -0.01775734 -0.046658844
0.15087754 0.013172897 -0.13978463 -0.028333891 0.02291978 0.07119406 0.014680427 0.017378805
0.0282057 -0.017876958 0.06370296 -0.011760243 -0.06727263 -0.032854132 0.026047254 0.055073086
-0.025616813 -0.037079316 0.073205814 -0.007575478 -0.037237406 -0.0824832 -0.06414893 0.031210471
-0.037944842 -0.0341689 -0.014747536 0.062696084 -0.07172079 -0.027608253 0.01388121 -0.033342242
0.0028688887 0.037824884 -0.011915039 0.029160853 0.123705335 -0.021869479 -0.019624658 0.14633065
0.05270667 0.042892516 0.14949131 0.051809613 -0.038422856 0.15808086 0.05836282 -0.008085673
0.028131533 0.027658371 0.04632372 0.016536877 0.037620768 -0.07343983 0.017292487 -0.042435173
-0.06438868 0.055543352 -0.021379048 0.056049813 -0.03214772 -0.052718278 -0.01929369 8.710631e-05
-0.022553941 0.0015609388 -0.041682135 -0.07376443 0.0205235 0.015558631 -0.011612086 -0.052875385
-0.019135974 -0.031733274 -0.017455222 0.019202515 0.014071965 -0.034180813 -0.03257609 0.043714605
-0.064712614 0.047572386 -0.030089917 -0.079018936 -0.01642683 0.014666817 0.06023758 -0.030779757
0.0019777745 0.005698599 -0.008636497 -0.06594449 -0.05088033 0.041966356 -0.026890256 -0.020830804
0.019823493 -0.004792942 -0.0324631 -0.058964778 -0.07457701 0.013155559 -0.0056122555 -0.028499253
0.0056416085 -0.024367332 -0.009148855 0.030395934 0.021971159 0.04249548 -0.059394043 0.01817739
-0.010166612 0.04767114 0.0063155717 -0.009295939 0.015326558 -0.004803609 -0.014021103 -0.026340606
0.014194783 -0.048829835 0.07127177 0.039526653 -0.031725943 -0.03967897 -0.04526722 0.017186351
-0.047671705 0.010119314 -0.026959231 0.017354615 -0.026003342 -0.039347522 -0.04491397 -0.011628575
-0.06107059 -0.045765787 0.0005605731 0.031068271 0.042827662 -0.015382473 0.008471708 0.0024831982
0.02880273 -0.037943754 -0.03706619 0.064800665 -0.024002315 0.02155824 0.011340475 0.0054973173
0.0028009315 -0.0135375885 -0.014992276 0.094281346 0.012804072 -0.024453467 -0.013493563 0.0061710803
00000000: 10c6 aa3c d9f6 61bd e24d 493d b37a 49bd
00000010: 9a58 303c 5cd5 563d ef82 0e3d 37ed 31bd
00000020: 9d00 83bb 7f20 473d ca96 3b3d 825a 803d
00000030: 609b ff3c 8e3c 18bd a88e 66bd 6927 2cbc
00000040: 7f30 13bd 0c2e cc3c 9e5a 4cbd 3bc3 143c
00000050: 7aa1 43bd 33b8 013c f391 6fbd 2a07 92bc
00000060: 6b54 fd3a cc50 a1bd 148e 7dbc 8d19 4e3d
00000070: a133 c93c f6f9 413d ba54 19bd d620 3abd
00000080: ea56 7c3d 2036 21bc 0306 74bc c105 903d
00000090: a8e6 d53d 8e1a 8abc fd3a f73c 4182 d53d
000000a0: 61fc a73c 2e10 3e3c 2e21 e53d 78aa 7c3c
000000b0: 5f58 383d 56c1 c239 c82c 42bc ea30 023d
000000c0: 1e2c d73d 5d9f c63b bf36 1b3d 290f 853d
000000d0: 476e 513d 75d5 9c3d ea1f e3bd 712c 8ebb
000000e0: 6b06 3a3d bdd2 cebd 5696 95bd b6b9 a6bc
000000f0: bdac 0abe 9bb1 b8bd 6917 913a f1de 913c
00000100: dc8d 2cbd 14c4 3f3c 06b8 633d a7a6 36bc
00000110: 13b4 89bc 798e 943d f0d6 913c 10cc 483d
00000120: f8f0 36bb 4c5c a63d 228a 65bd af7f 943c
00000130: 4a4f 983c d179 ccbc 5224 c23d a183 af3d
00000140: 7b78 81bd eb34 973c eccb 0d3d 4adf 07be
00000150: 0357 1b3e de86 a83c d97f 55bd d130 433e
00000160: 90a6 dd3d d9d1 cbbd 2858 72bd 0c44 45bc
00000170: 4d08 b0bd ca77 de3d d777 91bc 581d 3fbd
00000180: a47f 1a3e 22d3 573c b423 0fbe 7a1c e8bc
00000190: 43c2 bb3c 31ce 913d 2c86 703c ff5d 8e3c
000001a0: a40f e73c b372 92bc b376 823d 09ae 40bc
000001b0: 3cc6 89bd 0e92 06bd 0d61 d53c 5194 613d
000001c0: 5ada d1bc 7be0 17bd eeec 953d b73b f8bb
000001d0: 4086 18bd f4ec a8bd 8460 83bd 1aad ff3c
000001e0: 0d6c 1bbd b0f4 0bbd a69f 71bc ce66 803d
000001f0: 59e2 92bd b42a e2bc 046e 633c e091 08bd
00000200: f703 3c3b 44ee 1a3d 4c37 43bc bee2 ee3c
00000210: 3959 fd3d 9f27 b3bc e4c3 a0bc b4d7 153e
00000220: f3e2 573d 10b0 2f3d 4014 193e 5136 543d
00000230: 4961 1dbd f3df 213e da0d 6f3d c579 04bc
00000240: 1a74 e63c cf93 e23c f1bd 3d3d 5878 873c
00000250: 3c18 1a3d 9f67 96bd f9a8 8d3c 81d0 2dbd
00000260: 36de 83bd 6d81 633d 1d23 afbc 7d94 653d
00000270: 54ad 03bd 1fef 57bd cd0d 9ebc d8ac b638
00000280: 0bc3 b8bc 6a98 cc3a e3ba 2abd ce11 97bd
00000290: e620 a83c a1e9 7e3c 9e40 3ebc dc93 58bd
000002a0: 0cc3 9cbc c0fa 01bd 41fe 8ebc 984e 9d3c
000002b0: 198e 663c 2e01 0cbd 826e 05bd 160e 333d
000002c0: 0c88 84bd 43db 423d 217f f6bc aed4 a1bd
000002d0: 8f91 86bc 174d 703c aebb 763d d425 fcbc
000002e0: 8d9d 013b 50bb ba3b 1880 0dbc e80d 87bd
000002f0: e567 50bd eae4 2b3d f448 dcbc 5da5 aabc
00000300: e164 a23c 1d0e 9dbb 07f8 04bd 0d85 71bd
00000310: d5bb 98bd 6a8a 573c 03e7 b7bb 4477 e9bc
00000320: 3edd b83b 009e c7bc 14e5 15bc e500 f93c
00000330: dcfc b33c be0f 2e3d 2b47 73bd c0e8 943c
00000340: dd91 26bc d042 433d dbf2 ce3b fe4d 18bc
00000350: 3e1c 7b3c 9867 9dbb c5b8 65bc 41c8 d7bc
00000360: 3c91 683c cb01 48bd eff6 913d b3e6 213d
00000370: 10f3 01bd 6a86 22bd 1f6a 39bd 64ca 8c3c
00000380: 6843 43bd 7bcb 253c 9bd9 dcbc 442b 8e3c
00000390: f604 d5bc de2a 21bd b6f7 37bd c785 3ebc
000003a0: 2825 7abd e874 3bbd 6df3 123a e382 fe3c
000003b0: 0f6c 2f3d c506 7cbc ebcc 0a3c 27bd 223b
000003c0: b4f3 eb3c e96a 1bbd b8d2 17bd 36b6 843d
000003d0: 81a0 c4bc e89a b03c 66cd 393c d722 b43b
000003e0: d58f 373b c3cc 5dbc 2aa2 75bc 9416 c13d
000003f0: 2cc8 513c a352 c8bc 1b14 5dbc c636 ca3b

encode_conv1.bias f4 [4]
0.012738902 -0.000308316 0.025960773 0.0015740955
00000000: d4b6 503c 79a5 a1b9 b0ab d43c e151 ce3a

encode_conv2.weight f4 [4, 4, 3, 3]
-0.03794785 0.070174225 0.0030611863 0.12540345 -0.26099366 0.033009533 0.0891503 -0.24044305
-0.046521842 0.092400886 0.13672942 -0.16774854 -0.07761981 0.097878575 -0.06411277 0.013666252
-0.044274412 -0.09781155 0.11099509 0.041249514 0.19032283 -0.13423525 -0.05911125 0.22993337
-0.032491066 0.11139974 0.027299292 0.09668316 -0.2045981 0.15067619 0.16685677 0.02157781
0.24276906 0.0972955 -0.14163713 0.17640322 0.18291458 0.21480946 -0.0031976318 0.24028127
0.24054973 0.063498735 0.15096043 0.1320011 0.019334974 -0.17938334 0.002912918 0.13033189
-0.036225293 0.24046794 0.1698008 -0.020742904 0.16997506 0.1500669 0.13133772 -0.00087893597
0.119662836 0.19388925 -0.046374664 0.09938185 0.21822053 -0.17230049 0.023191173 -0.007577905
-0.043273527 0.025516015 0.27576935 -0.14248198 -0.11002637 0.08648278 0.104930505 0.11767012
0.09781901 -0.07666941 -0.11962627 -0.07299288 -0.05607976 -0.10061376 -0.20313565 0.08389314
0.15918274 0.15172286 0.0776618 -0.067392476 0.19278224 -0.15655035 0.010212493 -0.087951116
-0.059262432 0.1562777 -0.0026140541 0.024229007 -0.12418404 0.012763946 0.17102423 -0.08033507
-0.10794139 0.0253051 0.15166791 0.07307473 0.07848344 0.041669652 0.18115847 0.053180132
0.101945356 -0.04769045 -0.064299926 -0.0043034097 0.07814841 0.10099748 0.14853437 -0.02004978
-0.07929798 -0.12529951 -0.14368705 -0.078817114 -0.011954658 -0.034355965 -0.07068053 -0.11242804
-0.1614773 0.17117678 0.004478797 0.117926694 0.05085215 -0.041558146 0.013565313 -0.071707144
0.030435847 -0.07761754 -0.042020123 0.002057785 0.09493561 -0.12012616 0.08326043 0.08254091
-0.15781532 -0.028123632 0.1531757 -0.11532622 -0.05064523 -0.02388872 -0.050903283 -0.08460096
00000000: 346f 1bbd 81b7 8f3d 2f9e 483b c369 003e
00000010: f6a0 85be 0135 073d 6f94 b63d b436 76be
00000020: b08d 3ebd ad3c bd3d cc02 0c3e 46c6 2bbe
00000030: 23f7 9ebd 9074 c83d 8e4d 83bd 6ae8 5f3c
00000040: 1659 35bd 6c51 c8bd 6551 e33d 40f5 283d
00000050: fde3 423e f774 09be a31e 72bd a773 6b3e
00000060: 5a15 05bd 8c25 e43d c4a2 df3c d201 c63d
00000070: 2a82 51be dc4a 1a3e 80dc 2a3e f3c3 b03c
00000080: 7498 783e dd42 c73d 5309 11be 0ca3 343e
00000090: f64d 3b3e 03f7 5b3e 5c8f 51bb 4b0c 763e
000000a0: ab52 763e a00b 823d 5f95 1a3e 4c2b 073e
000000b0: 6164 9e3c 44b0 37be a8e6 3e3b b975 053e
000000c0: f960 14bd 3a3d 763e 43e0 2d3e 06ed a9bc
000000d0: f10d 2e3e 23ab 193e 657d 063e 6568 66ba
000000e0: ca11 f53d e78a 463e 5cf3 3dbd b688 cb3d
000000f0: 3475 5f3e 8a6f 30be 6afb bd3c 1350 f8bb
00000100: 953f 31bd f606 d13c a431 8d3e cce6 11be
00000110: 8155 e1bd e21d b13d cee5 d63d 08fd f03d
00000120: 5555 c83d da04 9dbd 9efe f4bd 4b7d 95bd
00000130: e4b3 65bd 960e cebd cb02 50be 2bd0 ab3d
00000140: cd00 233e 3d5d 1b3e 260d 9f3d 1105 8abd
00000150: b568 453e bc4e 20be 4d52 273c b71f b4bd
00000160: 2abd 72bd 4307 203e 8d50 2bbb e97b c63c
00000170: 3454 febd df1f 513c fa20 2f3e b786 a4bd
00000180: 6010 ddbd a44c cf3c d54e 1b3e 34a8 953d
00000190: edbb a03d ccad 2a3d 9b81 393e 69d3 593d
000001a0: bac8 d03d 1057 43bd aeaf 83bd 9e03 8dbb
000001b0: 460c a03d c4d7 ce3d 6519 183e 703f a4bc
000001c0: fb66 a2bd 844e 00be b322 13be de6a a1bd
000001d0: 78dd 43bc d7b8 0cbd f4c0 90bd ac40 e6bd
000001e0: 4e5a 25be f748 2f3e dfc2 923b 8d83 f13d
000001f0: 584a 503d e038 2abd 0c41 5e3c 32db 92bd
00000200: 9954 f93c f2f5 9ebd 4b1d 2cbd e7db 063b
00000210: 9a6d c23d b404 f6bd 7284 aa3d 350b a93d
00000220: 579a 21be 8863 e6bc 17da 1c3e 2730 ecbd
00000230: 5f71 4fbd 47b2 c3bc f67f 50bd 4543 adbd

encode_conv2.bias f4 [4]
-0.061726257 -0.07044197 0.042503025 0.08037173
00000000: acd4 7cbd e143 90bd a717 2e3d ef99 a43d

encode_conv3.weight f4 [8, 4, 3, 3]
0.13066335 -0.09121201 -0.14043532 0.15736154 0.1331875 0.07196631 0.16666141 0.18826579
-0.077217154 -0.18269873 0.18296464 -0.0034757894 -0.02306446 -0.051762763 0.046763867 0.14146337
-0.03294498 0.16437972 0.12429604 -0.1823674 0.034050845 -0.10244089 -0.048521683 0.022797773
0.0679391 -0.15892132 -0.20488733 0.056252893 -0.18111286 -0.1799242 -0.03304418 -0.07458956
-0.019750394 0.108561814 0.01389747 0.12750809 -0.1209416 -0.15807046 0.073779285 0.0536023
-0.063683845 0.11177841 0.038082268 -0.01904362 0.16088212 0.12626067 0.22145893 -0.04924291
-0.01783501 0.23420584 0.07144548 -0.080244526 0.057125676 -0.08616813 -0.20408402 -0.1189677
-0.04219092 0.08572736 -0.095543444 -0.17422116 0.14736244 -0.022139098 0.0674291 0.117656566
0.13691556 0.07823695 -0.1295363 -0.105143204 -0.09593744 0.099696316 0.021407606 0.19678035
0.051366277 -0.044710305 -0.12723933 0.008869824 0.049239505 0.18158805 0.10572781 -0.17234474
0.30015433 0.17798759 0.086948566 -0.115613416 0.03923029 0.07899154 -0.1393201 0.15556028
0.031469822 0.112167984 0.074453846 0.05617692 -0.109005526 0.13118288 -0.11862086 -0.009367704
0.077402726 -0.18562308 0.10935354 0.061149742 0.16718198 0.07762269 -0.1833805 0.08225027
0.19189788 0.12713033 -0.13919356 -0.09013983 0.047445145 -0.14884907 -0.078975305 -0.21690716
0.0005890691 0.05524416 -0.031219313 0.11991627 0.2293874 -0.022610972 -0.07391058 0.15493187
-0.1505544 -0.0408483 0.20260774 -0.052775692 -0.027273795 0.038147654 -0.0020844496 -0.008465017
0.004349817 0.12354805 0.19557945 -0.12416094 0.081515804 -0.17494817 -0.1208018 -0.13455282
0.011418518 0.11035077 -0.21593013 0.09263062 0.12320555 0.14275554 0.010101992 0.24388106
0.095275596 0.04164354 -0.01228698 0.02753489 -0.058220446 0.13989492 -0.083700314 0.11446222
-0.149925 0.101102315 0.05264939 0.20048296 -0.05339037 0.1779322 -0.06177013 -0.09968753
-0.116574205 0.12886798 0.18919614 0.016788818 0.08685037 0.05360478 0.09735745 -0.09459516
-0.07817161 -0.064779185 -0.1292413 -0.095004804 -0.16515487 -0.032691237 -0.0019270835 -0.18218198
-0.16042645 0.16551426 0.047054727 -0.015429084 -0.023775354 0.073802635 0.09763944 0.09494303
0.28075066 -0.09743734 -0.07231738 -0.010040758 -0.20409493 0.021439614 0.054753434 0.18296304
-0.16317627 -0.12829256 0.14319278 -0.086413115 -0.019654674 0.19475673 0.11995096 0.13578516
-0.1557872 -0.11549612 0.07932521 0.13304769 0.040623114 -0.05405692 -0.13667957 0.041250188
0.059872318 0.09025222 0.13444437 -0.05602229 -0.06892385 0.35728115 -0.107313305 -0.17858641
-0.015109516 -0.003325531 0.18966602 0.06917829 0.13124809 0.19522645 -0.04629094 0.13792609
0.22710273 0.036871664 -0.07998131 0.07969346 -0.04173488 0.1340942 0.12334662 -0.011335824
-0.0801552 -0.06280753 0.14418428 -0.15746248 -0.0007076456 0.16110724 -0.106543906 -0.07516722
0.08143057 -0.09310488 -0.08154919 -0.072184116 0.07922304 0.16289361 0.051438723 -0.10704352
0.015936611 0.13123341 -0.0052891783 0.066208504 -0.0503312 -0.20231986 -0.0039534946 -0.08351851
00000000: 9dcc 053e 5dcd babd 47ce 0fbe 6223 213e
00000010: 4e62 083e 1363 933d 4aa9 2a3e bfc8 403e
00000020: 0724 9ebd 6015 3bbe 155b 3b3e 12ca 63bb
00000030: aef1 bcbc 3105 54bd 788b 3f3d c6db 103e
00000040: 51f1 06bd 2853 283e ec8e fe3d 85be 3abe
00000050: e678 0b3d 88cc d1bd acbe 46bd 65c2 ba3c
00000060: a823 8b3d 45bc 22be fccd 51be 6f69 663d
00000070: a675 39be 0d3e 38be 5659 07bd 69c2 98bd
00000080: 94cb a1bc a855 de3d 37b2 633c 7b91 023e
00000090: 3bb0 f7bd 39dd 21be 9819 973d 168e 5b3d
000000a0: ad6c 82bd 14ec e43d 27fc 1b3d 5e01 9cbc
000000b0: 48be 243e 7a4a 013e 21c6 623e efb2 49bd
000000c0: ba1a 92bc a8d3 6f3e 0252 923d 3e57 a4bd
000000d0: 9dfc 693d eb78 b0bd 67fb 50be 56a5 f3bd
000000e0: 63d0 2cbd d391 af3d 48ac c3bd 0867 32be
000000f0: 2ee6 163e 0e5d b5bc 4518 8a3d edf5 f03d
00000100: 9833 0c3e b23a a03d 2aa5 04be 5255 d7bd
00000110: d97a c4bd 952d cc3d 015f af3c ca80 493e
00000120: 7265 523d 2722 37bd 074b 02be bd52 113c
00000130: 5daf 493d 38f2 393e d287 d83d 247b 30be
00000140: d4ad 993e 6142 363e 1712 b23d bac6 ecbd
00000150: f1af 203d 51c6 a13d eea9 0ebe 324b 1f3e
00000160: 80e6 003d 54b8 e53d 427b 983d c519 663d
00000170: 4a3e dfbd ce54 063e 7eef f2bd 007b 19bc
00000180: 5285 9e3d fa13 3ebe c0f4 df3d 2778 7a3d
00000190: c131 2b3e a5f8 9e3d 19c8 3bbe d472 a83d
000001a0: e180 443e 742e 023e c288 0ebe 3b9b b8bd
000001b0: d755 423d e46b 18be cebd a1bd e91c 5ebe
000001c0: c26b 1a3a b347 623d a5bf ffbc a996 f53d
000001d0: 88e4 6a3e a53a b9bc 6e5e 97bd 76a6 1e3e
000001e0: ef2a 1abe 8c50 27bd 6778 4f3e 532b 58bd
000001f0: 4b6d dfbc b740 1c3d 439b 08bb dbb0 0abc
00000200: e988 8e3b c306 fd3d fb45 483e 1748 febd
00000210: c2f1 a63d 9d25 33be ef66 f7bd 37c8 09be
00000220: bc14 3b3c 96ff e13d ca1c 5dbe 1fb5 bd3d
00000230: 3153 fc3d 822e 123e d382 253c f5bb 793e
00000240: da1f c33d 6b92 2a3d 544f 49bc da90 e13c
00000250: 9078 6ebd 9d40 0f3e 126b abbd 2b6b ea3d
00000260: f085 19be bb0e cf3d e3a6 573d 684b 4d3e
00000270: dcaf 5abd dc33 363e ad02 7dbd fa28 ccbd
00000280: 75be eebd f8f5 033e a2bc 413e b488 893c
00000290: 9bde b13d b090 5b3d 5863 c73d 1bbb c1bd
000002a0: 7018 a0bd f3aa 84bd d557 04be e191 c2bd
000002b0: 5c1e 29be 3fe7 05bd 3196 fcba ea8d 3abe
000002c0: d546 24be 927c 293e 75bc 403d 45ca 7cbc
000002d0: 88c4 c2bc d625 973d 30f7 c73d 7e71 c23d
000002e0: 8dbe 8f3e 3a8d c7bd 221b 94bd fe81 24bc
000002f0: 43fe 50be 21a2 af3c 2345 603d aa5a 3b3e
00000300: ae17 27be 205f 03be 21a1 123e 5cf9 b0bd
00000310: d702 a1bc 4f6e 473e d9a8 f53d 440b 0b3e
00000320: ae86 1fbe 3b89 ecbd 4175 a23d a73d 083e
00000330: 6c64 263d ca6a 5dbd bbf5 0bbe f5f5 283d
00000340: ad3c 753d 28d6 b83d c9ab 093e a177 65bd
00000350: f327 8dbd 8eed b63e 14c7 dbbd 5bdf 36be
00000360: e78d 77bc 27f1 59bb cf37 423e 59ad 8d3d
00000370: e665 063e 71e9 473e 929b 3dbd 7f3c 0d3e
00000380: 9e8d 683e be06 173d 3ecd a3bd 5336 a33d
00000390: 32f2 2abd fd4f 093e 279d fc3d e4b9 39bc
000003a0: 6928 a4bd 3ca1 80bd 0ba5 133e d83d 21be
000003b0: 4b81 39ba 4cf9 243e b133 dabd 45f1 99bd
000003c0: 12c5 a63d c5ad bebd 4303 a7bd 44d5 93bd
000003d0: b03f a23d 95cd 263e 69b1 523d a239 dbbd
000003e0: 7f8d 823c 0d62 063e d850 adbb 5398 873d
000003f0: 1728 4ebd f02c 4fbe 518c 81bb c10b abbd

encode_conv3.bias f4 [8]
0.1147528 -0.002716937 0.1002262 -0.041607555 -0.09739495 0.021565653 0.005532994 0.085909806
00000000: 8403 eb3d a40e 32bb 6543 cd3d af6c 2abd
00000010: 0177 c7bd 74aa b03c 1e4e b53b 7bf1 af3d

encode_conv4.weight f4 [8, 8, 3, 3]
0.111564144 0.048694372 -0.09566289 -0.029524116 -0.105166934 -0.004048763 0.03783246 0.039698347
0.08067585 0.040497534 -0.03253125 0.075083055 0.016369684 0.06510449 0.14823975 0.079707086
-0.07808842 0.1492612 0.050410915 0.04297297 0.08133049 0.05636628 0.00055736874 0.11146831
-0.005975898 -0.018090602 -0.032029614 -0.022385847 0.028406017 0.13450718 -0.099510044 -0.022746246
0.014202764 0.009543058 -0.03370041 0.10936153 -0.11042845 0.043261815 -0.06552301 0.01733176
-0.011824002 0.04932289 -0.01669634 -0.12556778 -0.08189792 -0.09650773 0.11570998 -0.17096804
-0.122578174 0.11263023 -0.15006039 -0.028110763 0.11786283 -0.060955953 0.054155607 -0.10685729
-0.010115019 0.10387031 0.0027065075 0.107616276 -0.08100862 -0.008685008 0.008641264 -0.11752232
-0.049286082 0.024438275 0.055809163 0.01710115 -0.011478527 -0.023867577 -0.119322486 -0.04706454
0.11353023 -0.1250435 0.0086586485 -0.0634042 -0.085618824 0.11004661 0.10950005 0.09688815
-0.016238984 -0.118009716 0.022591421 0.07053768 -0.10304239 0.09970459 -0.07246654 0.03580419
0.056800656 -0.14626668 -0.11999759 0.04742645 -0.058334854 -0.11805881 0.11371087 -0.12897094
0.0036674817 -0.037750114 0.019123366 0.035375476 0.06557528 -0.11576522 0.0012353503 -0.16618618
-0.08746717 -0.050635904 -0.0018519034 -0.06553856 -0.0018367346 -0.10726697 0.012371139 -0.034251127
-0.004187593 -0.10219711 -0.07427524 -0.0942544 -0.095234364 0.12139586 -0.09880202 0.13875104
-0.11047691 -0.091280825 -0.05685926 0.043769095 0.0131283 0.17220487 -0.04465964 0.21946563
0.049060132 -0.118354306 0.079908535 -0.001472921 -0.026037877 0.14056852 0.11334001 -0.026322203
0.07406497 -0.14489765 -0.0486116 0.049987167 -0.094905734 -0.07503783 -0.064515136 -0.12173079
0.079322115 0.06601005 -0.0753522 -0.030640263 0.086376876 0.13265379 -0.06367671 -0.022279592
0.012567748 0.01804058 0.06218859 0.11273144 0.1411031 -0.094469406 0.05637111 0.08501976
-0.03815624 0.09654059 0.060842466 0.0117485635 0.12446838 0.06102374 -0.048306298 -0.06783975
0.024438001 0.055478998 -0.019860113 0.04317116 -0.007360841 -0.0013989507 -0.0377242 -0.06155981
0.037065674 0.067379326 -0.05191986 0.10895185 0.07325515 -0.01737608 -0.22423889 0.058175243
-0.09076293 -0.09757736 -0.023147926 0.020099401 0.0018077411 -0.12414537 0.09825952 -0.16397454
-0.12921245 -0.055221755 -0.039170858 0.06442803 0.11139187 0.006373239 0.115718104 0.076238476
0.03488704 0.11000032 0.04976755 0.07516645 0.0424465 -0.0044955905 0.062271114 -0.13826205
-0.1468971 -0.09335824 -0.112014584 -0.04327964 -0.02075295 -0.094703846 -0.11997152 0.034842305
-0.09734739 0.031100936 -0.003144752 -0.11780229 0.014658698 0.041967962 -0.0030686394 -0.111546986
-0.027270991 -0.13776717 0.095061846 -0.086150475 0.11300756 -0.06137078 -0.008421788 -0.06513054
0.077680975 0.13346575 0.103658885 0.07396279 0.022589356 0.0020419909 -0.09214023 -0.033952877
0.10348704 -0.13598008 0.06318888 -0.10038524 0.0997187 0.07520734 -0.02018143 0.011742761
0.098010905 -0.07130917 -0.0906356 -0.026630878 0.042938773 0.061906885 -0.10370014 0.1054957
00000000: be7b e43d c073 473d e8ea c3bd 8fdc f1bc
00000010: c361 d7bd 7cab 84bb 36f6 1a3d bc9a 223d
00000020: 6139 a53d bee0 253d 7d3f 05bd 25c5 993d
00000030: b719 863c 8155 853d 29cc 173e 783d a33d
00000040: d2ec 9fbd eed7 183e ad7b 4e3d 6d04 303d
00000050: 9a90 a63d 54e0 663d 621c 123a 7f49 e43d
00000060: 77d1 c3bb be32 94bc 7c31 03bd 8662 b7bc
00000070: bcb3 e83c 40bc 093e eccb cbbd 5656 babc
00000080: b6b2 683c 7d5a 1c3c 7109 0abd f0f8 df3d
00000090: 5028 e2bd 4d33 313d ee30 86bd 56fb 8d3c
000000a0: 75b9 41bc cc06 4a3d c3c6 88bc d794 00be
000000b0: 19ba a7bd d8a5 c5bd 5bf9 ec3d 3f12 2fbe
000000c0: 440a fbbd aeaa e63d 6ea9 19be 8b48 e6bc
000000d0: 1162 f13d f3ac 79bd 45d2 5d3d ffd7 dabd
000000e0: 77b9 25bc f5b9 d43d a95f 313b ec65 dc3d
000000f0: d9e7 a5bd 904b 0ebc 1794 0d3c 8baf f0bd
00000100: 34e0 49bd c732 c83c 2698 643d b617 8c3c
00000110: 6f10 3cbc f085 c3bc 595f f4bd bfc6 40bd
00000120: 8a82 e83d 670b 00be 01dd 0d3c 10da 81bd
00000130: ec58 afbd 1e60 e13d 9041 e03d 4b6d c63d
00000140: 9e07 85bc 14af f1bd a511 b93c 0f76 903d
00000150: e307 d3bd ec31 cc3d 5669 94bd 6aa7 123d
00000160: cea7 683d efc6 15be 4cc1 f5bd 3d42 423d
00000170: 87f0 6ebd d1c8 f1bd 3fe1 e83d f510 04be
00000180: 225a 703b dd9f 1abd 9ba8 9c3c e0e5 103d
00000190: 554c 863d 5116 edbd 7aeb a13a b62c 2abe
000001a0: fd21 b3bd 9867 4fbd 91bb f2ba 1539 86bd
000001b0: 96be f0ba c9ae dbbd 51b0 4a3c e94a 0cbd
000001c0: 1338 89bb b84c d1bd 9e1d 98bd 7308 c1bd
000001d0: 3c0a c3bd 659e f83d b758 cabd c114 0e3e
000001e0: b841 e2bd 71f1 babd 41e5 68bd 3947 333d
000001f0: 1518 573c 7956 303e 07ed 36bd 99bb 603e
00000200: 47f3 483d be63 f2bd 16a7 a33d 070f c1ba
00000210: 634d d5bc 32f1 0f3e cf1e e83d a9a1 d7bc
00000220: 60af 973d 0d60 14be f51c 47bd 58bf 4c3d
00000230: f05d c2bd 6fad 99bd 8320 84bd fe4d f9bd
00000240: a273 a23d 4730 873d 4152 9abd 4a01 fbbc
00000250: 5ce6 b03d 65d6 073e ef68 82bd b183 b6bc
00000260: f5e8 4d3c d7c9 933c 77b9 7e3d bedf e63d
00000270: 557d 103e 2d79 c1bd 65e5 663d d71e ae3d
00000280: b849 1cbd 13b7 c53d f335 793d 0c7d 403c
00000290: 47e9 fe3d 07f4 793d d3dc 45bd 91ef 8abd
000002a0: 3432 c83c f23d 633d adb1 a2bc 3ed4 303d
000002b0: 3633 f1bb ff5c b7ba b184 1abd 2426 7cbd
000002c0: 2dd2 173d 2cfe 893d eba9 54bd 2622 df3d
000002d0: cc06 963d 4858 8ebc e19e 65be 2a49 6e3d
000002e0: eae1 b9bd a4d6 c7bd b8a0 bdbc 80a7 a43c
000002f0: baf1 ec3a ee3f febd 4a3c c93d f1e8 27be
00000300: 4550 04be 3530 62bd 9f71 20bd d8f2 833d
00000310: 6c21 e43d 9bd6 d03b 9dfd ec3d eb22 9c3d
00000320: b6e5 0e3d d947 e13d 0fd9 4b3d def0 993d
00000330: 62dc 2d3d bf4f 93bb ff0f 7f3d 9194 0dbe
00000340: 326c 16be 9b32 bfbd e767 e5bd fe45 31bd
00000350: 1702 aabc 17f4 c1bd a1b3 f5bd ceb6 0e3d
00000360: 125e c7bd 64c7 fe3c 2f18 4ebb 5442 f1bd
00000370: 092b 703c 99e6 2b3d 3a1b 49bb bf72 e4bd
00000380: 6a67 dfbc d612 0dbe c9af c23d a96f b0bd
00000390: 8270 e73d ed5f 7bbd 8afb 09bc 2963 85bd
000003a0: 3417 9f3d 3fab 083e 1c4b d43d ce79 973d
000003b0: 500d b93c ecd2 053b 04b4 bcbd 2c12 0bbd
000003c0: 03f1 d33d 5d3e 0bbe 2c69 813d c796 cdbd
000003d0: 5139 cc3d 4e06 9a3d 8753 a5bc b664 403c
000003e0: f1b9 c83d 8b0a 92bd 289f b9bd 0029 dabc
000003f0: 91e0 2f3d 1392 7d3d bd60 d4bd 210e d83d

encode_conv4.bias f4 [8]
0.09239703 0.04829457 -0.010510205 0.050453637 0.07977157 0.07022693 0.11253214 -0.06532809
00000000: a73a bd3d 87d0 453d ff32 2cbc 79a8 4e3d
00000010: 475f a33d 23d3 8f3d 4077 e63d bcca 85bd

fc1_1.weight f4 [200, 192]
-0.009979934 0.008075095 0.032259405 -0.0019689607 -0.046864137 0.03916258 -0.023724765 0.019968288
-0.04211955 0.010694525 0.053653248 0.031459212 0.12779063 0.106118 -0.008420273 0.09164773
0.0058133313 0.0032268965 -0.06740901 -0.015252111 -0.019489216 0.010568664 -0.006653134 -0.076173835
0.071075365 0.01901931 0.05346185 0.03160482 0.0050990423 0.008155006 -0.047811303 0.011832834
0.017224692 -0.042383026 -0.043838665 -0.120676175 0.0226199 0.015690446 -0.25339994 0.0059501245
-0.048542257 -0.18304905 0.022844851 -0.054081872 0.00058865297 0.036103375 -0.07047088 -0.0050024157
0.046436246 -0.008293872 -0.040973164 0.15263207 0.051353734 0.00827838 0.04854821 0.050146274
-0.0044595464 0.10625569 0.081014715 -0.021696938 0.15285589 0.14394963 0.08952324 0.092468545
0.04125392 0.06646829 -0.023669345 0.04886432 0.036635473 -3.193968e-05 0.099612534 -0.0276677
-0.07630656 -0.0052860235 -0.073897354 0.07569832 -0.038895994 -0.028620724 -0.049453065 0.030537868
0.019789543 -0.07268509 -0.10876908 0.020624071 -0.017167479 -0.030593485 0.031545144 0.0019272
0.0055491948 -0.034836315 0.040259838 0.06254113 -0.06340002 0.056561317 0.057332214 -0.070963986
0.013670899 0.0042510326 0.072436705 -0.03627625 -0.052388735 -0.0020126272 0.046907425 0.008685165
0.030213114 0.061395947 0.0130961295 0.08754431 0.10135582 0.09002949 -0.030947955 0.04410616
0.015601985 -0.04418482 0.021056322 -0.054095518 -0.0055178395 -0.019388264 -0.010496585 -0.025981046
0.055132885 -0.059042152 0.055677257 0.06094332 -0.100857355 -0.03412545 0.14141047 -0.0015208484
0.0032793952 -0.037716832 0.071088634 -0.024839366 -0.19476713 -0.07520694 -0.019171895 0.053971894
0.018129313 0.029177237 -0.026116274 -0.008187863 -0.099377 0.025157178 0.038354047 -0.039424688
-0.039852154 0.02215364 -0.0815883 -0.0033683206 0.05907957 -0.04017874 0.06338615 0.02668271
-0.051816843 -0.06642921 0.022586403 -0.06541098 -0.051307805 -0.02661869 -0.0694585 0.04538369
-0.03883345 0.0378384 -0.03806383 0.021304244 -0.0355792 -0.013135178 0.046465244 0.0060427296
-0.0029621704 0.020397307 -0.13750754 0.031731516 0.061420035 0.08737776 -0.059141956 0.08920676
-0.07256156 0.094864935 -0.10295464 0.020372884 -0.018422283 0.035772234 0.15657519 0.04318671
0.065893404 -0.046902798 0.041113116 -0.023992853 -0.041934535 0.03162385 0.061071314 0.11934619
0.080373816 0.076272376 0.021100374 0.074974425 -0.05187426 -0.054239824 -0.049678855 0.05553452
0.0054245736 0.064389214 0.04294133 0.036855508 0.040831074 0.039976012 -0.048534133 -0.04212896
-0.025094852 -0.030407177 -0.04750621 0.039298512 -0.062229015 -0.038568355 0.0008777645 -0.018637158
-0.062126838 0.016942339 -0.010736676 -0.022704495 -0.059489444 0.031229086 0.020954644 -0.010746808
0.058029786 0.02982494 -0.10114195 0.056082875 -0.019729713 -0.13831519 -0.1358965 -0.039157107
0.048966516 -0.017990552 0.035438534 -0.040191103 0.071382806 0.09316119 0.0091165695 0.068933874
-0.059218746 0.035805102 -0.08641923 -0.04321645 0.048753332 -0.0024487134 -0.09332769 -0.042588323
-0.046103295 -0.059411325 -0.10961593 0.011092455 -0.090323225 -0.08352227 -0.07133447 -0.100271605
00000000: e182 23bc 674d 043c 7022 043d ae09 01bb
00000010: 9cf4 3fbd f168 203d 705a c2bc 8994 a33c
00000020: 8d85 2cbd 1738 2f3c 82c3 5b3d 60db 003d
00000030: 8cdb 023e 6554 d93d 2ff5 09bc ceb1 bb3d
00000040: c27d be3b 577a 533b bc0d 8abd fde3 79bc
00000050: d9a7 9fbc 3128 2d3c 8802 dabb 0701 9cbd
00000060: f68f 913d 62ce 9b3c d0fa 5a3d 0e74 013d
00000070: de15 a73b 939c 053c c9d5 43bd 81de 413c
00000080: cc1a 8d3c d399 2dbd 2c90 33bd 1225 f7bd
00000090: 5e4d b93c 4089 803c a3bd 81be 43f9 c23b
000000a0: 3fd4 46bd 3671 3bbe 2025 bb3c f484 5dbd
000000b0: d54f 1a3a 22e1 133d 0953 90bd 4eeb a3bb
000000c0: ef33 3e3d 05e3 07bc 7ad3 27bd 954b 1c3e
000000d0: 4b58 523d 0ba2 073c 7dda 463d 2e66 4d3d
000000e0: 6321 92bb 959c d93d 0beb a53d c7bd b1bc
000000f0: 4186 1c3e 8867 133e f657 b73d 2660 bd3d
00000100: dff9 283d 8720 883d 37e6 c1bc f425 483d
00000110: 140f 163d f8f6 05b8 a801 cc3d 5fa7 e2bc
00000120: 9d46 9cbd 6136 adbb 7f57 97bd b907 9b3d
00000130: 6851 1fbd 0276 eabc 4c8f 4abd 8d2a fa3c
00000140: ae1d a23c ecdb 94bd 53c2 debd d0f3 a83c
00000150: d0a2 8cbc 309f fabc 7b35 013d 1a9a fc3a
00000160: 05d6 b53b 86b0 0ebd 80e7 243d 9015 803d
00000170: dfd7 81bd d7ac 673d 2fd5 6a3d 9155 91bd
00000180: e8fb 5f3c 3f4c 8b3b b259 943d 6896 14bd
00000190: 9295 56bd 48e6 03bb 0022 403d 394c 0e3c
000001a0: 7e81 f73c 517a 7b3d 2691 563c 6e4a b33d
000001b0: a493 cf3d 6261 b83d 9186 fdbc a9a8 343d
000001c0: 789f 7f3c 24fb 34bd 4f7e ac3c 4393 5dbd
000001d0: fece b4bb 23d4 9ebc def9 2bbc 34d6 d4bc
000001e0: 05d3 613d 2fd6 71bd d60d 643d b49f 793d
000001f0: 4d8e cebd 21c7 0bbd e8cd 103e 3457 c7ba
00000200: 1feb 563b f77c 1abd eb96 913d ed7b cbbc
00000210: 0971 47be 1906 9abd 610e 9dbc a211 5d3d
00000220: ed83 943c 1a05 ef3c ccf1 d5bc 6326 06bc
00000230: 2b86 cbbd 6d16 ce3c 2219 1d3d c87b 21bd
00000240: 033c 23bd 8d7b b53c c417 a7bd 0bbf 5cbb
00000250: 6bfd 713d 7692 24bd 99d0 813d b395 da3c
00000260: e63d 54bd 0a0c 88bd 1f07 b93c 31f6 85bd
00000270: 2228 52bd 700f dabc 4240 8ebd 40e4 393d
00000280: d30f 1fbd 70fc 1a3d d2e8 1bbd 3d86 ae3c
00000290: 7fbb 11bd ee34 57bc 5752 3e3d 1702 c63b
000002a0: f920 42bb 4118 a73c c7ce 0cbe e8f8 013d
000002b0: 9393 7b3d 1cf3 b23d d63e 72bd 09b2 b63d
000002c0: 289b 94bd 8c48 c23d e2d9 d2bd 09e5 a63c
000002d0: 54ea 96bc e885 123d 3f55 203e 8ce4 303d
000002e0: 1ff3 863d 261d 40bd 3a66 283d a98c c4bc
000002f0: 8cc3 2bbd 0388 013d ea25 7a3d c66b f43d
00000300: 079b a43d b134 9c3d b1da ac3c 318c 993d
00000310: 1b7a 54bd 942a 5ebd 0e7c 4bbd 2a78 633d
00000320: 9fc0 b13b 7ede 833d 3fe3 2f3d cdf5 163d
00000330: 7c3e 273d e3bd 233d bacb 46bd 6b8f 2cbd
00000340: b893 cdbc 7918 f9bc df95 42bd 7af7 203d
00000350: dae3 7ebd daf9 1dbd c719 663a f4ac 98bc
00000360: b678 7ebd a9ca 8a3c e2e8 2fbc c7fe b9bc
00000370: 34ab 73bd 24d4 ff3c 13a9 ab3c 6113 30bc
00000380: a4b0 6d3d 6f53 f43c 8323 cfbd 28b7 653d
00000390: 35a0 a1bc 7fa2 0dbe 7428 0bbe 3463 20bd
000003a0: 1d91 483d ec60 93bc ff27 113d 6d9f 24bd
000003b0: 2631 923d 4bcb be3d aa5d 153c 342d 8d3d
000003c0: 5b8f 72bd 5fa8 123d 91fc b0bd bb03 31bd
000003d0: 93b1 473d 987a 20bb 9722 bfbd 1871 2ebd
000003e0: cfd6 3cbd 4a59 73bd 517e e0bd 21bd 353c
000003f0: 62fb b8bd b90d abbd ce17 92bd 335b cdbd

fc1_1.bias f4 [200]
-0.03855936 -0.0128182005 -0.025718767 0.012368769 -0.06012485 -0.049577255 -0.046829063 -0.0054588006
0.021679286 -0.04899134 0.0024024986 -0.014613724 -0.018948713 -0.048772976 -0.057317108 0.043426264
-0.00040530416 0.031990666 -0.00027658785 0.029865572 0.058943965 0.027619956 0.05072642 0.015930805
-0.06970786 0.02128757 -0.044294797 0.033681214 -0.006251666 0.03274094 0.0009684056 -0.01590773
-0.044434126 -0.029311147 -0.006638031 0.013214834 0.07022936 0.015760478 0.054253276 -0.06989818
0.0783905 0.061184593 0.04956783 0.025142835 0.031247858 0.024910765 0.007903097 0.04646671
0.034838315 -0.07108507 0.04886338 -0.045185424 0.067990005 -0.0536093 0.03342975 -0.08402903
-0.046033785 -0.043405525 0.025033334 0.051855586 -0.04075762 -0.043571785 -0.041805 -0.052778013
-0.04908916 -0.030025085 -0.055929337 -0.07167089 -0.071381524 -0.05766185 0.0025879815 0.04708614
-0.0010737255 -0.034540825 0.02606375 -0.029198067 -0.0068907617 0.020779138 0.018641822 -0.011926951
0.05203033 0.069095 -0.056401588 -0.057445344 -0.05799721 0.059795063 0.007176837 -0.061989132
-0.03743658 0.040205266 0.06462744 -0.014035446 0.0018198221 0.052530643 0.05727263 -0.051097773
-0.009250057 -0.023580655 -0.042952072 0.013686532 0.0515251 -0.0049479096 0.043764032 0.029819258
-0.00921393 0.041874062 -0.040970884 -0.025458062 0.006130744 0.027548412 0.06996238 0.04953222
0.041755766 -0.01493473 -0.011952648 -0.013934242 -0.060851473 -0.048177186 -0.013295349 0.025789851
-0.07906604 -0.02259207 -0.022510335 0.023439309 -0.02541625 -0.030254956 0.05283278 0.041907065
0.044272747 0.013882615 0.054688286 0.029248832 -0.04101602 0.009880271 -0.023185534 -0.014325438
-0.01258656 0.003825097 -0.0388785 0.043814063 0.058534108 -0.054325774 0.051227808 -0.023220332
-0.044360425 -0.031473573 -0.032441024 0.018186936 -0.047434628 0.02804425 -0.028795049 0.057964902
-0.052662432 -0.022890639 0.045648344 -0.0020327119 0.0060555055 0.058985602 0.0021306202 -0.00021915745
-0.029238714 -0.040826675 -0.024256358 0.07295465 -0.07525499 -0.050762188 0.027538843 0.06719846
0.0818682 -0.041940916 -0.05294829 0.014486216 -0.067939095 -0.08952679 -0.009110188 0.026128737
0.046935093 0.011636952 0.031268723 -0.044198703 0.06891492 0.06689042 0.021156121 -0.03369841
0.018260257 0.023603287 -0.012874287 -0.04026062 0.011329006 -0.0204907 -0.017016044 0.046554964
-0.00094678975 -0.0031100353 -0.04713233 0.015151483 -0.035476215 -0.018612364 -0.023951292 0.05558096
00000000: 6bf0 1dbd 6e03 52bc 2ab0 d2bc 61a6 4a3c
00000010: 7a45 76bd 8511 4bbd d5cf 3fbd bddf b2bb
00000020: c298 b13c 25ab 48bd 3d73 1d3b 676e 6fbc
00000030: 553a 9bbc 2cc6 47bd 58c5 6abd bddf 313d
00000040: 017f d4b9 a508 033d fe02 91b9 a5a8 f43c
00000050: 3a6f 713d 3f43 e23c 82c6 4f3d 5281 823c
00000060: ffc2 8ebd 4563 ae3c 766e 35bd 50f5 093d
00000070: c7da ccbb 5d1b 063d 9adc 7d3a ee50 82bc
00000080: 8f00 36bd ee1d f0bc d783 d9bb 0883 583c
00000090: 69d4 8f3d 1e1c 813c af38 5e3d c726 8fbd
000000a0: 338b a03d b29c 7a3d a307 4b3d 59f8 cd3c
000000b0: 82fb ff3c a911 cc3c fe7b 013c e053 3e3d
000000c0: 9fb2 0e3d 0d95 91bd f824 483d 5a14 39bd
000000d0: 583e 8b3d 6d95 5bbd a2ed 083d 6917 acbd
000000e0: ec8d 3cbd fec9 31bd b512 cd3c 8666 543d
000000f0: 76f1 26bd 5478 32bd b83b 2bbd c22d 58bd
00000100: b711 49bd 2bf7 f5bc 2916 65bd 30c8 92bd
00000110: 7a30 92bd d52e 6cbd 209b 293b 65dd 403d
00000120: 40bc 8cba ae7a 0dbd a583 d53c c930 efbc
00000130: e6cb e1bb 0339 aa3c bcb6 983c 4269 43bc
00000140: c11d 553d ae81 8d3d 5a05 67bd cf4b 6bbd
00000150: 7c8e 6dbd abeb 743d ac2b eb3b 51e8 7dbd
00000160: 1957 19bd 47ae 243d 645b 843d edf4 65bc
00000170: 1987 ee3a 5f2a 573d b596 6a3d e64b 51bd
00000180: 8d8d 17bc 382c c1bc 83ee 2fbd 7a3d 603c
00000190: fc0b 533d 1322 a2bb ea41 333d 8447 f43c
000001a0: 06f6 16bc 2384 2b3d 16d1 27bd 6d8d d0bc
000001b0: 68e4 c83b 35ad e13c 7048 8f3d 4ce2 4a3d
000001c0: 1808 2b3d ccb0 74bc 0ad5 43bc 724c 64bc
000001d0: 653f 79bd 7155 45bd bcd4 59bc 3d45 d33c
000001e0: 60ed a1bd 0113 b9bc 9867 b8bc cb03 c03c
000001f0: bd35 d0bc 3ed9 f7bc 2f67 583d bea6 2b3d
00000200: 5757 353d e873 633c d300 603d 3f9b ef3c
00000210: 6a00 28bd dce0 213c 97ef bdbc 3eb5 6abc
00000220: dc37 4ebc 7bae 7a3b 103f 1fbd 6076 333d
00000230: 76c1 6f3d b484 5ebd 40d4 513d 9138 bebc
00000240: 47b3 35bd 6fea 00bd e1e0 04bd c5fc 943c
00000250: d04a 42bd 0ebd e53c 98e3 ebbc 9b6c 6d3d
00000260: 90b4 57bd 2685 bbbc c2f9 3a3d 3f37 05bb
00000270: 436d c63b e39a 713d e0a1 0b3b a1cd 65b9
00000280: 0786 efbc df39 27bd 45b5 c6bc 3f69 953d
00000290: 4a1f 9abd 03ec 4fbd 2499 e13c 599f 893d
000002a0: 84aa a73d 3dca 2bbd 4ee0 58bd 9857 6d3c
000002b0: a723 8bbd d259 b7bd e642 15bc ef0b d63c
000002c0: 033f 403d eaa8 3e3c a213 003d b309 35bd
000002d0: 4423 8d3d d8fd 883d 9a4f ad3c 5807 0abd
000002e0: 8996 953c ae5b c13c acee 52bc 52e8 24bd
000002f0: 4c9d 393c 1ddc a7bc 3b65 8bbc 6bb0 3e3d
00000300: fc31 78ba bcd1 4bbb d40d 41bd ed3d 783c
00000310: 824f 11bd f578 98bc 8035 c4bc dca8 633d

fc1_2.weight f4 [200, 192]
0.045102917 -0.02113128 -0.024961356 -0.0027880596 0.056558006 0.054805625 0.026380012 -0.059742037
0.06469405 -0.023953624 0.058862336 -0.046486937 0.0072707953 0.069235 -0.062373392 -0.0016323627
0.050986473 -0.058833625 0.039288707 -0.038502026 -0.021811437 -0.052194573 -0.006444165 0.036828794
-0.0002204429 -0.046787333 -0.0466543 -0.009627976 0.014583101 0.052742396 -0.070131965 -0.029364595
0.006999184 -0.019453675 -0.0058429884 0.04712655 -0.05561591 0.03352798 0.11196968 -0.019971594
0.03604974 -0.05237936 -0.016719647 -0.02341728 0.019053211 0.06159321 -0.008484898 -0.017384643
0.061313823 0.030873902 0.036576107 -0.07718248 -0.048058163 -0.032133847 -0.015019567 0.037346885
0.022306876 0.0058678347 0.06767939 -0.04572219 -0.002487037 0.07388962 -0.026353179 0.011990028
0.00083026756 0.035836473 -0.030332234 0.046339527 -0.0047003436 0.005518213 0.01932114 0.071352795
0.001076507 0.04868325 -0.011154613 -0.005433662 -0.028518192 0.0036813042 -0.017173832 0.013183964
0.038219865 -0.023887917 -0.04767297 -0.01756427 -0.05160944 0.10296833 -0.020397516 -0.011677693
0.016266674 0.015396971 -0.04358282 0.05621825 -0.036917042 0.023213303 -0.055252295 -0.0021187682
-0.04648812 0.011334194 -0.06248574 -0.047512114 0.063668 -0.018258283 0.049446695 0.06235278
0.018758139 -0.0048800693 -0.06605717 -0.021738036 -0.058267944 0.041034494 0.05568813 0.03364637
-0.041273657 0.012861589 0.029526541 0.013151812 -0.00554766 0.04109302 -0.028266473 0.045042872
0.008332155 -0.007633329 0.048213642 0.043256406 0.023478296 -0.0015183282 -0.06818701 -0.041519273
0.06916078 0.0011529695 0.029972479 0.020841938 -0.026471447 -0.047813594 0.012376936 0.02822873
0.10133308 0.05633529 -0.014823597 0.005140026 0.03884943 0.004351354 0.061359648 -0.02362368
0.056235272 0.035109192 -0.06514231 0.053818088 -0.056622617 0.008969786 0.070868485 -0.02647915
-0.06886212 -0.07045058 -0.00843935 -0.016094133 0.0593442 0.064646594 0.07322772 -0.033531796
-0.057055693 -0.052220844 0.015396657 0.05252339 -0.0038045493 0.07158134 0.049604286 0.06911871
0.029489446 0.11205809 -0.07480197 0.0470335 -0.037580892 0.006351404 0.06112377 -0.006387609
0.055974424 0.07191113 -0.04902538 -0.044090293 -0.040868904 0.0026497748 0.03850758 0.01717853
-0.067609414 -0.05966617 0.02642122 -0.06805088 0.020719107 0.036162965 0.068074584 -0.025236007
0.05126023 0.021537267 -0.060958736 0.06317539 -0.009317886 0.03909282 -0.06490912 -0.075199775
-0.046479754 -0.03696981 0.03553202 0.024535237 -0.04153198 -0.0072912658 -0.13823426 -0.014546011
-0.10478305 -0.019052122 -0.07480464 -0.028349977 0.06031148 0.010313557 -0.09331766 -0.011888326
-0.08974375 -0.024185304 0.05205645 -0.09437338 0.046855755 -0.015776739 -0.059112914 0.0032545943
0.02872031 0.08909029 0.02396972 -0.016866481 0.040788796 0.023074195 0.014443836 -0.08109503
0.100310475 -0.028989702 -0.037106745 0.10413332 0.057938274 0.06774285 0.1014384 -0.023322964
0.05926513 0.013682152 -0.03822297 -0.011113545 0.053793307 -0.010897398 0.054550342 0.04383651
-0.017755684 0.11876203 0.051169604 0.04525013 -0.18736772 -0.03822798 0.0019074294 -0.18807584
00000000: d6bd 383d 821b adbc c27b ccbc e1b7 36bb
00000010: 5ea9 673d dd7b 603d e51a d83c 11b4 74bd
00000020: 507e 843d 643a c4bc a219 713d 1669 3ebd
00000030: da3f ee3b 14cb 8d3d 3e7b 7fbd 01f5 d5ba
00000040: 31d7 503d 87fb 70bd 32ed 203d 4db4 1dbd
00000050: e6ad b2bc fac9 55bd 9329 d3bb cad9 163d
00000060: b126 67b9 13a4 3fbd 9418 3fbd a9be 1dbc
00000070: f5ed 6e3c 6908 583d 59a1 8fbd 058e f0bc
00000080: 6959 e53b 505d 9fbc 8a76 bfbb c507 413d
00000090: 82cd 63bd a354 093d 5c50 e53d 789b a3bc
000000a0: e4a8 133d bd8b 56bd a4f7 88bc 98d5 bfbc
000000b0: 7b15 9c3c 2949 7c3d 3e04 0bbc 3d6a 8ebc
000000c0: 3424 7b3d 44eb fc3c d4d0 153d d911 9ebd
000000d0: a3d8 44bd c89e 03bd a114 76bc 0cf9 183d
000000e0: e9bc b63c f746 c03b 7e9b 8a3d 3147 3bbd
000000f0: 8ffd 22bb 7153 973d 9fe2 d7bc d371 443c
00000100: 50a6 593a 44c9 123d 4e7b f8bc 84ce 3d3d
00000110: 5705 9abb 20d2 b43b 5e47 9e3c 6a21 923d
00000120: 9519 8d3a 1668 473d d7c1 36bc dc0c b2bb
00000130: fc9e e9bc 0942 713b 23b0 8cbc 8e01 583c
00000140: 6f8c 1c3d 98b0 c3bc bb44 43bd f2e2 8fbc
00000150: 6c64 53bd 0fe1 d23d b118 a7bc cb53 3fbc
00000160: b041 853c 9443 7c3c e683 32bd 1c45 663d
00000170: 5336 17bd d329 be3c 3b50 62bd 08db 0abb
00000180: 546a 3ebd 0eb3 393c 0cf1 7fbd 109c 42bd
00000190: 5e64 823d 6592 95bc 9e88 4a3d a165 7f3d
000001a0: abaa 993c fde8 9fbb fb48 87bd f713 b2bc
000001b0: 5eaa 6ebd c913 283d 3d19 643d c7d0 093d
000001c0: 910e 29bd 6ab9 523c a5e1 f13c b37a 573c
000001d0: 25c9 b5bb 2851 283d 178f e7bc e07e 383d
000001e0: 9783 083c 0121 fabb ab7b 453d a12d 313d
000001f0: 8e55 c03c a402 c7ba a2a5 8bbd 1d10 2abd
00000200: 2ba4 8d3d 3d1f 973a d888 f53c b6bc aa3c
00000210: a6da d8bc 30d8 43bd a2c8 4a3c f03f e73c
00000220: b887 cf3d d5bf 663d acde 72bc aa6d a83b
00000230: 9420 1f3d ce95 8e3b 4154 7b3d 7386 c1bc
00000240: f556 663d a8ce 0f3d 5569 85bd 5b70 5c3d
00000250: 1eed 67bd 02f6 123c 7f23 913d cdea d8bc
00000260: 9507 8dbd 6548 90bd 3345 0abc d8d7 83bc
00000270: e712 733d 6f65 843d 6af8 953d a358 09bd
00000280: 3bb3 69bd 86e5 55bd 4342 7c3c c422 573d
00000290: bf55 79bb 3d99 923d dd2d 4b3d 1c8e 8d3d
000002a0: da93 f13c b67e e53d c631 99bd 33a6 403d
000002b0: 6cee 19bd 701f d03b eb5c 7a3d 264f d1bb
000002c0: 7045 653d 2446 933d d6ce 48bd 0698 34bd
000002d0: 2766 27bd d8a7 2d3b 20ba 1d3d fdb9 8c3c
000002e0: ce76 8abd 8464 74bd 5071 d83c 435e 8bbd
000002f0: 1ebb a93c 9e1f 143d b06a 8b3d bebb cebc
00000300: 3ff6 513d ec6e b03c deaf 79bd 1962 813d
00000310: 0caa 18bc cb1f 203d 13ef 84bd 5702 9abd
00000320: 8e61 3ebd a86d 17bd 068a 113d 1ffe c83c
00000330: 701d 2abd 92eb eebb 488d 0dbe 6452 6ebc
00000340: 7f98 d6bd 3213 9cbc 2d33 99bd 363e e8bc
00000350: 2c09 773d 32fa 283c 541d bfbd 41c7 42bc
00000360: 92cb b7bd 4220 c6bc 2539 553d d546 c1bd
00000370: d2eb 3f3d 383e 81bc 6220 72bd 084b 553b
00000380: db46 eb3c f874 b63d 255c c43c 932b 8abc
00000390: 2712 273d 1806 bd3c d7a5 6c3c 2715 a6bd
000003a0: 946f cd3d d07b edbc 3efd 17bd da43 d53d
000003b0: af50 6d3d c3bc 8a3d f0be cf3d cd0f bfbc
000003c0: febf 723d 1b2b 603c b08f 1cbd 9615 36bc
000003d0: 5f56 5c3d 008b 32bc 2e70 5f3d ea8d 333d
000003e0: 5e74 91bc 8239 f33d 3897 513d 3358 393d
000003f0: 53dd 3fbe f194 1cbd b602 fa3a f496 40be

fc1_2.bias f4 [200]
0.05576794 -0.011900578 0.05306807 -0.018137783 -0.053586446 0.04175152 -0.015099089 0.065156706
0.05030299 -0.01993359 0.039468464 -0.0488787 0.029738037 -0.011593322 -0.05861171 0.027345497
0.041325312 0.021451427 0.011535357 0.0025400496 0.038653523 0.024580564 0.053864032 0.036951523
-0.029292231 0.053332433 0.022430742 -0.065502204 0.028940415 0.027891211 0.068468764 0.043596398
0.021941865 -0.031545337 0.021303533 0.019477734 0.03412258 0.00276255 0.025266558 0.06504666
0.054960027 -0.060666725 0.040381216 0.0062499344 0.041217286 0.05607329 -0.037789207 0.005594823
-0.042020924 -0.03008238 0.029201413 -0.05944008 0.07225665 -0.030139152 -0.030355498 -0.03311106
-0.015573741 -0.06959627 0.04692665 0.061035685 0.03394901 0.00763294 0.02264584 -0.0056571458
-0.020556383 0.016280638 0.04370154 -0.08935806 0.014938121 -0.020122554 -0.042672567 -0.061938047
0.023870992 0.046018563 0.04881665 0.011074735 0.0069572073 0.054617036 -0.06407745 -0.07195128
-0.06688162 0.014713908 0.03565445 0.07057998 0.005331394 -0.005744706 -0.029084394 -0.029468987
-0.037727896 -0.00087145995 0.017720202 -0.08242783 0.029218858 -0.049750764 0.0060745254 0.027373265
-0.064735755 -0.026704269 -0.054900445 -0.013023024 0.050874017 0.032493446 -0.004053592 0.017132891
-0.04789886 -0.055216018 0.060381472 0.018117674 -0.078761436 0.057061616 0.03363541 0.0067744083
-0.054859776 -0.0062765284 -0.025870673 0.03758386 0.012906492 0.037645932 0.066927195 -0.01910057
-0.008397408 -0.0038010105 0.011875384 -0.060899876 -0.009268625 0.066221975 -0.0024691874 -0.026004449
0.012765339 0.02538286 -0.04170738 0.060931936 -0.008996339 -0.019813633 -0.025062075 0.038938817
-0.034133982 -0.0024435697 0.042105235 -0.03022296 0.02241294 -0.059575178 0.016274348 0.0017910685
-0.02049949 0.013075396 0.0010461488 0.07181777 -0.0026286 -0.023533177 -0.024497127 0.024447797
0.050713915 -0.009644472 0.02648055 0.041733623 0.06665571 0.011196687 -0.01835095 0.00804698
0.028013233 0.023452457 0.040505566 -0.045702297 0.05819684 0.05978907 0.06873107 -0.0045417836
0.011016782 -0.054068785 0.0042479197 -0.039431646 0.053416967 0.048229434 -0.031631384 0.019469408
0.0620588 -0.07191848 0.07554287 -0.05950747 -0.025612557 0.011556669 0.044850755 -0.008307881
0.060905553 0.06289955 -0.014295496 0.07030639 -0.00082369876 -0.023854803 -0.032084055 0.0073243435
-0.023495894 -0.046975728 -0.014494092 -0.03462255 -0.03857643 -0.0057063056 -0.03187535 0.055834237
00000000: ec6c 643d a4fa 42bc e85d 593d b095 94bc
00000010: 767d 5bbd a403 2b3d 2b62 77bc e170 853d
00000020: 820a 4e3d c54b a3bc afa9 213d 0835 48bd
00000030: 2f9d f33c ebf1 3dbc d512 70bd aa03 e03c
00000040: bb44 293d e7ba af3c cbfe 3c3c f676 263b
00000050: 2853 1e3d 2e5d c93c 88a0 5c3d 7b5a 173d
00000060: 43f6 efbc 1c73 5a3d adc0 b73c 0526 86bd
00000070: 7314 ed3c 1c7c e43c 5a39 8c3d 2392 323d
00000080: 6dbf b33c af35 01bd bf84 ae3c c58f 9f3c
00000090: 1ec4 0b3d e60b 353b d0fb ce3c 2f37 853d
000000a0: c41d 613d ac7d 78bd c666 253d 40cc cc3b
000000b0: 75d3 283d 1bad 653d dbc8 1abd c754 b73b
000000c0: 221e 2cbd 536f f6bc cd37 ef3c 7177 73bd
000000d0: 4bfb 933d 62e6 f6bc 18ac f8bc 769f 07bd
000000e0: 0129 7fbc 7d88 8ebd 2936 403d 8e00 7a3d
000000f0: 1e0e 0b3d be1d fa3b c583 b93c 945f b9bb
00000100: dc65 a8bc f95e 853c 6300 333d 5c01 b7bd
00000110: 05bf 743c 0ed8 a4bc 6ec9 2ebd c0b2 7dbd
00000120: 198d c33c f67d 3c3d f8f3 473d ce72 353c
00000130: 49f9 e33b 1db6 5f3d 0a3b 83bd 315b 93bd
00000140: 3bf9 88bd 9a12 713c 670a 123d 3d8c 903d
00000150: f9b2 ae3b 163e bcbb 6542 eebc f268 f1bc
00000160: 9188 1abd b072 64ba f529 913c eccf a8bd
00000170: 635c ef3c 75c7 4bbd d00c c73b e63d e03c
00000180: 2e94 84bd e9c2 dabc 4adf 60bd 865e 55bc
00000190: 4661 503d d917 053d ffd3 84bb 475a 8c3c
000001a0: 9831 44bd 312a 62bd 9052 773d 846b 943c
000001b0: ad4d a1bd 71b9 693d 49c5 093d dbfb dd3b
000001c0: a5b4 60bd 56ab cdbb bcee d3bc 89f1 193d
000001d0: c075 533c 9f32 1a3d 2011 893d cc78 9cbc
000001e0: 4895 09bc 601a 79bb f890 423c 2672 79bd
000001f0: 6edb 17bc 639f 873d 17d2 21bb 4807 d5bc
00000200: b625 513c b7ef cf3c 5cd5 2abd c493 793d
00000210: 6165 13bc 3350 a2bc fb4e cdbc 4f7e 1f3d
00000220: 13d0 0bbd 4c24 20bb 8a76 2c3d 2496 f7bc
00000230: 589b b73c 1a05 74bd c851 853c 49c2 ea3a
00000240: 8cee a7bc 303a 563c ee1e 893a 3215 933d
00000250: 9744 2cbb a6c8 c0bc 33ae c8bc bf46 c83c
00000260: 65b9 4f3d d903 1ebc bded d83c e0f0 2a3d
00000270: ca82 883d 4f72 373c bb54 96bc 7bd7 033c
00000280: 027c e53c 5e1f c03c 2ae9 253d 5532 3bbd
00000290: cf5f 6e3d 62e5 743d e0c2 8c3d 3ed3 94bb
000002a0: bc7f 343c 3b77 5dbd 2232 8b3b 1483 21bd
000002b0: c0cb 5a3d 3a8c 453d e98f 01bd 4f7e 9f3c
000002c0: 5e31 7e3d ff49 93bd 38b6 9a3d 1bbe 73bd
000002d0: 6dd1 d1bc 2f58 3d3c 6db5 373d c71d 08bc
000002e0: 1a78 793d 7bd1 803d a837 6abc ccfc 8f3d
000002f0: 7ded 57ba 266b c3bc 926a 03bd 0c01 f03b
00000300: 767a c0bc 9f69 40bd a178 6dbc 60d0 0dbd
00000310: 5202 1ebd f6fb babb ba8f 02bd 71b2 643d
