training_model/wandb/run-20200624_225733-2gjpc9x0/AE_filter_4.pt (torch_old, 250492 bytes, 16 tensors)

encode_conv1.weight f4 [4, 12, 3]
0	0x3ea734a0	0.32657337
1	0x3e1b2ec8	0.15154564
2	0x3d0c768d	0.034292746
3	0xbeadafe5	-0.3392326
4	0xbe04e9df	-0.1297984
5	0x3dacb647	0.08433204
6	0x3df1ce52	0.118069306
7	0xbe071d1b	-0.13194697
8	0x3d2ce0c8	0.042206556
9	0x3d80cfa3	0.062896036
10	0xbd4a7dc6	-0.049436353
11	0x3d62ff6c	0.05541937
12	0x3ef54bd4	0.47909415
13	0x3ce564bd	0.028002137
14	0xbe65c254	-0.22437412
15	0xbd179c5f	-0.03701436
16	0x3d6d1b18	0.057887167
17	0xbdc400e3	-0.09570482
18	0x3d61cf5e	0.0551294
19	0xbc670acf	-0.014101698
20	0x3d694199	0.056947324
21	0x3d65c061	0.05609167
22	0x3d8468d5	0.064653076
23	0xbe5d5414	-0.21614105
24	0x3ec9491a	0.39313585
25	0x3e3a9a07	0.1822282
26	0xbe1f1d6a	-0.15538564
27	0xbdd48375	-0.10376636
28	0xbe25a13e	-0.1617479
29	0xbdb61cb8	-0.088921964
30	0x3d702ba1	0.058635358
31	0xbdd68e19	-0.10476322
32	0xbe1e36c4	-0.15450579
33	0x3e9ad314	0.30239165
34	0x3d21ceba	0.03950379
35	0xbdab66b9	-0.08369202
36	0xbc06a48e	-0.008217944
37	0x3b5e93a3	0.003396251
38	0xbe95af7e	-0.29235452
39	0xbec691ea	-0.387832
40	0xbd9ff36d	-0.07810102
41	0x3e2b5283	0.16730694
42	0xbda627a5	-0.0811303
43	0xbe18e25c	-0.14930099
44	0x3df97486	0.12180428
45	0xbdc13eb1	-0.094357856
46	0xbe6a6829	-0.22891296
47	0xbbc5f3ce	-0.0060410267
48	0x3ddca923	0.10774448
49	0x3d9b2549	0.07575471
50	0xbd3da65c	-0.04630123
51	0xbe814510	-0.25248003
52	0xbb49f8b0	-0.0030818395
53	0x3c73fb79	0.014891499
54	0xbd76873c	-0.060187563
55	0xbe038c1c	-0.12846416
56	0xbd7bb2fe	-0.061449997
57	0x3d8b7365	0.06809119
58	0xbe54d399	-0.20783843
59	0xbdfa771c	-0.122297496
60	0x3d451115	0.048111994
61	0xbdd88c93	-0.105736874
62	0xbe9b9dc2	-0.30393797
63	0xbe8e357f	-0.2777519
64	0xbd62ce1f	-0.055372354
65	0xbdb777d7	-0.089584045
66	0x3cfcffcf	0.030883698
67	0xbcd4e38d	-0.02598741
68	0x3db14d7d	0.08657358
69	0x3c74ede0	0.014949292
70	0xbda4ceef	-0.08047282
71	0xbe8222c5	-0.25417152
72	0x3d60a1bd	0.054841746
73	0x3e71db7c	0.23618883
74	0x3d9ef0a5	0.07760743
75	0x3e89561f	0.26823518
76	0x3e13b9d9	0.14426364
77	0xbd64a89e	-0.05582487
78	0xbd8bb906	-0.068224
79	0x3e3cc660	0.18435049
80	0x3d3e56ff	0.046469685
81	0x3e8c3bb7	0.2738931
82	0x3e1bbd17	0.15208851
83	0xbc7ad9b4	-0.0153106935
84	0x3d3d6a61	0.04624403
85	0x3e31d2b7	0.17365538
86	0x3e9e21ac	0.30885065
87	0x3e56c95f	0.20975254
88	0x3e159b41	0.14610006
89	0xbd53fbc5	-0.051753778
90	0x3dc7f32d	0.09763179
91	0xbc5901c4	-0.01324505
92	0x3e417c14	0.18894988
93	0xbd384c5f	-0.04499471
94	0x3e59f853	0.21286134
95	0x3e0fa13f	0.14026354
96	0xbe2a51d9	-0.16632785
97	0x3e74aa69	0.23893131
98	0x3e742282	0.23841289
99	0xbd13c655	-0.036077816
100	0x3cb441e1	0.02200407
101	0x3dc8fe6c	0.09814152
102	0x3e360b05	0.17777641
103	0x3dc45097	0.09585684
104	0x3e2be81f	0.16787766
105	0xbda2de06	-0.07952504
106	0x3df166c2	0.117871776
107	0x3db3e62a	0.08784135
108	0x3dd2a9b8	0.102862775
109	0x3ea1088e	0.3145184
110	0x3ef7569f	0.48308274
111	0x3f31e611	0.6949168
112	0x3e3647b6	0.17800793
113	0xbf3da394	-0.74077725
114	0x3e7a6a76	0.24454674
115	0x3d253713	0.040335726
116	0xbe291668	-0.16512454
117	0x3e2793f8	0.1636504
118	0x3d1d3c8f	0.03838783
119	0xbe13d277	-0.14435755
120	0xbf0405ab	-0.5157115
121	0xbca7ab22	-0.020467345
122	0x3f30a8ec	0.69007754
123	0xbd2abe63	-0.041685473
124	0x3d7809f6	0.060556374
125	0x3d7ed11d	0.062211145
126	0xbdf7bc2b	-0.12096437
127	0x3e2dd59d	0.16976018
128	0x3d0530b6	0.032517157
129	0xbae5c1ea	-0.0017529104
130	0xbdc1a71a	-0.094557
131	0x3d8e2f77	0.06942647
132	0xbebc0b9a	-0.367276
133	0x3e84c663	0.25932607
134	0x3f195471	0.5989447
135	0x3da48e49	0.08034951
136	0x3ea3eb88	0.32015634
137	0xbd4422a0	-0.047884583
138	0xbe2a31fd	-0.16620632
139	0xbde3c202	-0.111209884
140	0xbc982b3e	-0.018575307
141	0xbc1c2819	-0.009531044
142	0x3e8f93d0	0.2804246
143	0x3e8d8b29	0.27645233

encode_conv1.bias f4 [4]
0	0x3de2245f	0.110420935
1	0xbde76704	-0.112989455
2	0xbe88d645	-0.26725975
3	0xbe25da2b	-0.16196506

encode_conv2.weight f4 [4, 4, 3]
0	0xbf2555dc	-0.64584136
1	0xbf0f5ed0	-0.5600405
2	0xbf01193f	-0.5042915
3	0xbeb8fb10	-0.36129045
4	0xbe36dadb	-0.17856924
5	0xbe0a744a	-0.13520923
6	0x3db486b3	0.08814754
7	0x3e6a333a	0.22871104
8	0x3a15c69d	0.00057134946
9	0x3e2512e5	0.16120489
10	0x3e068f24	0.13140541
11	0x3ea2a22d	0.31764355
12	0x3dc14310	0.09436619
13	0xbd05c959	-0.032662723
14	0x3e48bc3b	0.19603054
15	0xbdfd3c98	-0.12365073
16	0xbe612341	-0.21986105
17	0x3df6f7cf	0.120589845
18	0xbea23caf	-0.31686923
19	0xbe970512	-0.29496056
20	0xbe9466de	-0.2898473
21	0xbebe382d	-0.37152234
22	0xbee2be02	-0.4428559
23	0xbeb28608	-0.34867883
24	0xbf7c64b0	-0.98591137
25	0xbf51ea0c	-0.8199775
26	0xbe5796a7	-0.21053563
27	0xbd824bec	-0.06362137
28	0xbdcaf026	-0.09909086
29	0xbe9c4a09	-0.30525234
30	0x3e72f117	0.23724781
31	0x3eb4e6a7	0.35332224
32	0xbddeb2f9	-0.1087398
33	0x3efebf06	0.49755114
34	0x3f1d0335	0.6133302
35	0x3ebdcf67	0.37072298
36	0x3c822d72	0.01589081
37	0x3ea6030c	0.324242
38	0x3e7b39ce	0.2453377
39	0xbe3b7c9b	-0.18309252
40	0xbd23ded3	-0.040007424
41	0xbe16c0ff	-0.1472206
42	0x3ebfa5d5	0.37431207
43	0x3e6906f7	0.22756563
44	0x3ee2f9b5	0.44331136
45	0x3f1cbe2c	0.6122768
46	0x3f2629e8	0.64907694
47	0x3e4f8042	0.2026377

encode_conv2.bias f4 [4]
0	0x3e694685	0.22780807
1	0x3e355f9b	0.17712252
2	0xbe958b6f	-0.29207942
3	0x3ca6dcdf	0.020368991

encode_conv3.weight f4 [8, 4, 3]
0	0xbd93b86e	-0.072129115
1	0xbd7e4441	-0.06207681
2	0xbddae5d5	-0.10688368
3	0x3d8f6395	0.07001416
4	0x3dc0f707	0.09422117
5	0xbe071801	-0.1319275
6	0x3f02c9df	0.5108928
7	0x3e83341b	0.2562569
8	0x3e86cbfd	0.26327506
9	0x3eb6096a	0.35554057
10	0x3ddc68e5	0.107621945
11	0x3dd661e9	0.10467894
12	0xbefe298c	-0.49641073
13	0xbf1ff74e	-0.6248673
14	0xbd5a3137	-0.05326959
15	0xbed9d87d	-0.4254798
16	0xbddde88a	-0.10835369
17	0xbe347e7b	-0.17626373
18	0xbe065fbb	-0.13122456
19	0xbd2d7ac2	-0.0423534
20	0xbeecc182	-0.46241385
21	0x3ed21965	0.41035
22	0x3ecc9456	0.3995692
23	0xbe4bba90	-0.19895387
24	0x3d28f412	0.04124839
25	0x3ed8be3e	0.42332643
26	0x3eaf62ae	0.34254974
27	0xbe40045b	-0.18751661
28	0x3e679fbc	0.22619528
29	0x3e1f429d	0.15552755
30	0xbe3b4cad	-0.18290968
31	0x3e027b99	0.12742461
32	0xbe1153ec	-0.1419217
33	0xbcde4ecc	-0.027137183
34	0xbe98af13	-0.2982107
35	0xbe882a47	-0.26594755
36	0xbc5c37a3	-0.013440999
37	0xbe13c07b	-0.14428894
38	0x3e6774b3	0.22603111
39	0xbe8776b4	-0.2645775
40	0x3e376bf4	0.17912275
41	0x3dcd7611	0.10032285
42	0xbd371293	-0.044695448
43	0xbf08de9c	-0.53464675
44	0xbed82e49	-0.42222813
45	0xbe806d17	-0.2508323
46	0xbeb6cd41	-0.3570347
47	0x3e1edea5	0.1551462
48	0x3f1c701f	0.61108583
49	0x3e9fe424	0.31228745
50	0x3e8d5ac6	0.27608317
51	0xbe824607	-0.25444052
52	0xbee63460	-0.44961834
53	0xbebf15db	-0.37321362
54	0x3e919451	0.2843347
55	0x3f51d01f	0.8195819
56	0x3f342a79	0.7037731
57	0xbe13cb47	-0.14433013
58	0x3c885668	0.016642764
59	0x3ebec7dd	0.3726186
60	0xbdea5b1a	-0.114431575
61	0xbd4c6eeb	-0.049910467
62	0x3ee093e9	0.43862846
63	0x3dc01de7	0.093807034
64	0xbd9545cc	-0.07288703
65	0xbe16beb9	-0.14721192
66	0xbe13a9a4	-0.14420182
67	0x3de7286f	0.11287009
68	0x3eebd90f	0.4606404
69	0xbeccf986	-0.4003412
70	0xbdd2de1b	-0.102962695
71	0x3e940c79	0.28915766
72	0x3e46206d	0.19348307
73	0xbcdf62c3	-0.027268773
74	0xbe8a6b65	-0.2703506
75	0xbce87fc0	-0.028381228
76	0x3ded4ca2	0.11586882
77	0x3e4797f0	0.19491553
78	0x3f3426d5	0.7037175
79	0x3f07906e	0.5295476
80	0xbd47fda7	-0.048825886
81	0x3e4d6f6f	0.2006204
82	0x3e36cc16	0.1785129
83	0xbe0c1ac0	-0.1368208
84	0xbeb4e14f	-0.35328147
85	0xbe8e35dc	-0.27775466
86	0xbd660c7b	-0.056164246
87	0x3d891351	0.066931374
88	0x3e03b56f	0.1286218
89	0x3e319b6d	0.17344446
90	0x3cb9dcd9	0.022688316
91	0xbf107188	-0.56423235
92	0xbeacc4fa	-0.3374403
93	0x3d51e843	0.051246893
94	0xbdacd85a	-0.08439703
95	0xbd87bfeb	-0.06628402

encode_conv3.bias f4 [8]
0	0x3c03e36d	0.008049828
1	0xbc976a9a	-0.018483449
2	0xbe088f09	-0.13335814
3	0x3baead38	0.005330708
4	0xbe2a55f3	-0.1663435
5	0xbed3b8f3	-0.41352043
6	0xbc7b8463	-0.015351388
7	0xbd862566	-0.06550102

encode_conv4.weight f4 [8, 8, 3]
0	0xbd5eb101	-0.054368023
1	0x3e002af0	0.1251638
2	0x3e3a9be8	0.18223536
3	0xbe103dfc	-0.14086145
4	0x3e8f57f8	0.27996802
5	0x3ead62cd	0.33864442
6	0x3b0c7da5	0.0021437195
7	0xbdc083c4	-0.09400132
8	0xbdc88f1b	-0.0979292
9	0xbe12679d	-0.14297338
10	0xbe0a92a1	-0.13532497
11	0xbe4c62ec	-0.1995961
12	0x3c733114	0.014843244
13	0x3ddb2a7f	0.10701465
14	0xbdcb5d5c	-0.09929916
15	0xbdb14e22	-0.08657481
16	0xbefef80d	-0.49798623
17	0xbe876250	-0.26442194
18	0x3c8c3e46	0.017119538
19	0x3e563bc7	0.20921241
20	0x3e069123	0.13141303
21	0xbae586d9	-0.0017511501
22	0xbd3ce241	-0.04611421
23	0x3cecdefa	0.028914917
24	0x3e6ed363	0.23322825
25	0x3e0de70e	0.13857672
26	0xbe252da3	-0.1613069
27	0x3fa5ef72	1.2963698
28	0x3f91a064	1.1377072
29	0x3edc4465	0.4302093
30	0xbe69c96f	-0.22830747
31	0xbe016338	-0.12635505
32	0x3e6833a0	0.22675943
33	0xbd3ef33e	-0.046618693
34	0xbcc957fb	-0.024578085
35	0x3c11dab9	0.008902245
36	0xbec119bb	-0.37714943
37	0xbe9b863e	-0.30375856
38	0xbe880861	-0.26568893
39	0x3de0a6e3	0.10969331
40	0x3ed87bc4	0.42281926
41	0xbe8ec4b6	-0.27884454
42	0xbc617ca5	-0.013762628
43	0xbe1a6d36	-0.15080723
44	0xbdd916db	-0.106000625
45	0x3e867b3d	0.26265898
46	0x3ec4e38b	0.38454852
47	0xbdfb796e	-0.1227902
48	0xbd85f2bd	-0.06540439
49	0x3d8b7237	0.06808894
50	0x3e8b205b	0.27173123
51	0xbe9c3434	-0.30508578
52	0xbf8abd04	-1.0838933
53	0xbf9d26c5	-1.2277457
54	0xbd4a8224	-0.049440518
55	0xbe034dc8	-0.1282264
56	0xbd50b664	-0.05095519
57	0xbdff15bb	-0.12455317
58	0x3e1ed69d	0.15511556
59	0xbcdcf36a	-0.026971538
60	0xbe029bfc	-0.12754816
61	0xbe3ce60e	-0.18447134
62	0x3e49ffb7	0.19726454
63	0xbf053df9	-0.5204769
64	0xbf78568b	-0.97007054
65	0xbf284500	-0.65730286
66	0xbe5e0198	-0.21680295
67	0xbe33a7d6	-0.17544493
68	0xbebf2152	-0.3733011
69	0x3c0d80c6	0.008636659
70	0xbd4706ab	-0.048590343
71	0xbdbd03df	-0.09229254
72	0xbbe2933a	-0.0069145234
73	0x3e3ca123	0.18420844
74	0x3e4ae555	0.19814046
75	0xbf14c76d	-0.581168
76	0xbf359d6c	-0.7094333
77	0x3ed60934	0.41803896
78	0x3d9168ee	0.07100092
79	0xbe2fda08	-0.17173016
80	0x3de56163	0.11200216
81	0x3da1707c	0.07882783
82	0xbec0f04b	-0.3768333
83	0xbe9796b2	-0.2960716
84	0x3e399f34	0.18127137
85	0x3f04c528	0.51863337
86	0x3e240983	0.16019253
87	0xbd804d84	-0.06264785
88	0xbf2638b3	-0.64930266
89	0xbf5d8d92	-0.86544144
90	0xbe2eadbe	-0.17058465
91	0xbe04eb75	-0.12980445
92	0x3ee43236	0.44569558
93	0xbd8ea2cf	-0.06964647
94	0xbde3e153	-0.111269616
95	0xbc8577ef	-0.01629254
96	0xbd1f3018	-0.038864225
97	0x3d6d7771	0.057975236
98	0xbd4f32ee	-0.05058568
99	0xbfb7366f	-1.4313487
100	0xbf9230ff	-1.1421202
101	0xbf51691d	-0.81801015
102	0x3e9b9fda	0.30395395
103	0x3e116590	0.141989
104	0xbd807211	-0.062717564
105	0x3ea1d43e	0.3160724
106	0x3e53252c	0.20619649
107	0x3df4db1e	0.11955856
108	0xbf046f2c	-0.51732135
109	0xbe139a07	-0.14414226
110	0x3eaa2f10	0.3323903
111	0xbf109146	-0.5647167
112	0x3e9e833e	0.30959505
113	0x3d8032b2	0.06259669
114	0xbec42471	-0.38309053
115	0xbfb01850	-1.375742
116	0xbdce5572	-0.10074891
117	0x3e2d144a	0.16902271
118	0x3dd3ad72	0.103358164
119	0xbdecf5a2	-0.11570288
120	0x3df9c8be	0.12196492
121	0x3e6a58c7	0.22885428
122	0x3deaafde	0.11459325
123	0xbf08a869	-0.53381974
124	0xbe29f266	-0.16596374
125	0x3e82c2a3	0.2553912
126	0xbc395a4b	-0.011313031
127	0x3dc474dd	0.095926024
128	0xbd551ba7	-0.052028324
129	0xbe11b082	-0.14227489
130	0x3cbec074	0.023285128
131	0x3d48798a	0.048944034
132	0x3e61aa02	0.22037509
133	0x3e929f4b	0.28637156
134	0x3e55c225	0.20874842
135	0x3d8ae1c9	0.06781346
136	0xbe027304	-0.12739187
137	0xbebfa18f	-0.37427947
138	0xbdb9170a	-0.090375975
139	0x3ea42a4c	0.3206352
140	0x3d8b0077	0.06787198
141	0xbe075533	-0.13216095
142	0xbea1283c	-0.3147601
143	0xbe1ad57d	-0.15120502
144	0x3d8368a6	0.064164445
145	0xbe10b375	-0.14130957
146	0x3b8b4b0a	0.0042508887
147	0x3e81d8d0	0.25360727
148	0xbf11df87	-0.569817
149	0xbef62a98	-0.4807937
150	0xbe64d0cb	-0.22345273
151	0xbd77d2eb	-0.06050388
152	0xbe8fd53f	-0.2809238
153	0x3dcd6ef5	0.10030929
154	0x3e0114e8	0.12605631
155	0xbd9857cc	-0.07438621
156	0xbec79297	-0.38979027
157	0xbe95fd6f	-0.29294917
158	0xbd5e4a18	-0.05426988
159	0xbf38ae02	-0.72140515
160	0xbf36d86d	-0.7142399
161	0x3eaec0ff	0.3413162
162	0x3dc88c64	0.097924024
163	0xbe74e790	-0.23916459
164	0xbd38413e	-0.044984095
165	0x3c7ab683	0.015302303
166	0xbd2aa281	-0.041658882
167	0x3c088253	0.008331853
168	0xbe43b4f7	-0.19112001
169	0xbe2cb70d	-0.16866703
170	0xbd388340	-0.045047045
171	0xbea683de	-0.32522482
172	0xbf8b9760	-1.0905571
173	0xbf4ab5fb	-0.7918393
174	0x3da14cd4	0.07875982
175	0x3dd07205	0.101779975
176	0x3daf5ec1	0.08562995
177	0x3d118cb8	0.03553459
178	0x3e071161	0.13190223
179	0x3e3bed28	0.18352187
180	0xbefcf510	-0.49405718
181	0xbe953629	-0.29142883
182	0x3e261368	0.1621834
183	0xbf2089eb	-0.62710446
184	0x3f210a60	0.62906456
185	0x3e4c255d	0.19936128
186	0x3d7ec073	0.062195253
187	0xbf265b1b	-0.64982766
188	0x3d159356	0.036517464
189	0x3ee8eff6	0.45495576
190	0x3c223e70	0.009902582
191	0xbe648bee	-0.22319004

encode_conv4.bias f4 [8]
0	0x3df02b98	0.11727065
1	0xbe7b48f3	-0.24539547
2	0x3d76c447	0.06024578
3	0xbe150726	-0.14553508
4	0xbe578cc0	-0.21049786
5	0xbe3ee06e	-0.186403
6	0x3c6d1703	0.014470818
7	0xbf102d8e	-0.5631951

encode_conv5.weight f4 [16, 8, 3]
0	0xbe1d916f	-0.1538751
1	0xbe087d2a	-0.13328996
2	0xbde6dde4	-0.11272791
3	0x3d7ca450	0.061680138
4	0xbe3436fe	-0.17599103
5	0x3cbacb90	0.022802144
6	0xbe4f8b54	-0.20267993
7	0x3e351ee6	0.17687568
8	0xbd773e90	-0.0603624
9	0x3df49bbc	0.119437665
10	0xbd820a8e	-0.063496694
11	0x3c826330	0.015916437
12	0x3cb83120	0.022484362
13	0x3e25cc20	0.16191149
14	0xbd6f3a0c	-0.058404967
15	0x3db9c444	0.09070638
16	0x3e3276c6	0.17428121
17	0xbe1e6858	-0.15469491
18	0xbe2e56f4	-0.17025357
19	0xbdfb9ee9	-0.12286169
20	0x3cf44508	0.029818073
21	0x3e3a5270	0.1819551
22	0x3d03de5c	0.03219448
23	0x3e164aee	0.14677021
24	0xbdf8db9f	-0.121512644
25	0x3cbee3d8	0.023302004
26	0xbdfd795f	-0.12376665
27	0xbcff3d88	-0.03115727
28	0xbd496d88	-0.049176723
29	0xbe0f3dd8	-0.13988435
30	0x3e11eabc	0.142497
31	0x3dcd2eb0	0.100186706
32	0x3e356a60	0.1771636
33	0xbe4d5ed4	-0.20055705
34	0xbce65e20	-0.028121054
35	0x3e49a2e0	0.19691038
36	0x3c2aedb0	0.010432646
37	0x3dec5964	0.115404874
38	0x3d614538	0.054997653
39	0xbe3364bb	-0.17518894
40	0xbe24e826	-0.16104183
41	0x3e37c872	0.17947558
42	0xbe4b72ee	-0.19868061
43	0xbdf27cf6	-0.11840241
44	0x3b969100	0.004594922
45	0xbd40183c	-0.04689811
46	0x3e15cbbc	0.146285
47	0x3d79b918	0.060967535
48	0x3e006e22	0.12542012
49	0x3d807410	0.06272137
50	0x3e0afc94	0.13572913
51	0x3d6bc780	0.057563305
52	0x3dfe1394	0.12406078
53	0x3ccc9dd8	0.02497761
54	0x3da90980	0.08253765
55	0xbe0d30f2	-0.13788202
56	0xbe0c3f18	-0.13695943
57	0x3d7fb308	0.062426597
58	0xbd8b64fc	-0.068063706
59	0x3d9c8b34	0.076437384
60	0xbe3135fe	-0.17305753
61	0x3e026346	0.12733182
62	0x3e42df2c	0.19030446
63	0xbe3fb2ee	-0.187206
64	0x3dedba84	0.11607841
65	0x3e01fe6c	0.1269471
66	0xbde7637a	-0.112982705
67	0xbe4ecf27	-0.2019621
68	0x3cb1ab78	0.021688208
69	0x3dd34088	0.10315043
70	0x3dc097f0	0.0940398
71	0x3db25c24	0.08708981
72	0x3d351860	0.0442127
73	0xbe2ae927	-0.16690503
74	0xbbc4af80	-0.0060023665
75	0x3e3f0ec0	0.1865797
76	0xbe38228a	-0.17981926
77	0xbdd99cbf	-0.106256
78	0xbe3eaebc	-0.18621343
79	0x3d8d0a04	0.06886676
80	0x3ca5ae80	0.02022481
81	0x3dbcc2e4	0.0921686
82	0x3dc4f90c	0.096178144
83	0x3d5eeab0	0.054423034
84	0xbcb17cc0	-0.02166593
85	0xbde444b7	-0.11145919
86	0x3df2c49c	0.118539065
87	0x3dbc8d6c	0.092066616
88	0x3e3fa9c2	0.18717101
89	0xbe420903	-0.1894875
90	0xbd803982	-0.06260969
91	0xbd91d2fe	-0.07120322
92	0xbe38977e	-0.1802654
93	0x3db39c08	0.08769995
94	0xbd3f69b0	-0.04673165
95	0xbdc43480	-0.09580326
96	0xbda3f5df	-0.080058806
97	0x3cceb910	0.025234729
98	0x3e3d72ca	0.1850082
99	0xbdb2e266	-0.08734588
100	0x3e1393f6	0.14411911
101	0x3d2eee98	0.04270801
102	0x3da0dd04	0.078546554
103	0x3b9a54e0	0.004709825
104	0xbdeec56d	-0.1165875
105	0x3ddcafc8	0.10775715
106	0x3d99eab4	0.07515469
107	0xbd24bcd8	-0.040219158
108	0x3dbb4198	0.091433704
109	0x3d999cfc	0.075006455
110	0x3dc83624	0.097759515
111	0xbddcf731	-0.107893355
112	0xbe047298	-0.12934339
113	0x3a4fe200	0.00079301
114	0x3e34d8f8	0.17660892
115	0x3d96b614	0.073589474
116	0x3d9d857c	0.07691476
117	0x3e2c560c	0.168297
118	0xbe4b43dc	-0.19850105
119	0x3d603958	0.054742187
120	0xbe1c7cec	-0.15282029
121	0xbdd9ff8b	-0.10644444
122	0x3d3fb628	0.046804577
123	0xbe0b3353	-0.13593797
124	0x3dea29d4	0.11433759
125	0x3b98f100	0.0046674013
126	0xbe091dd7	-0.13390289
127	0x3cb34220	0.021882117
128	0x3def8ed0	0.11697161
129	0xbe4ca1e1	-0.19983627
130	0xbc7cb750	-0.0154245645
131	0x3c850848	0.0162393
132	0x3e190362	0.14942697
133	0xbdde6d4a	-0.10860689
134	0x3e4180fc	0.1889686
135	0xbd91a98a	-0.07112415
136	0xbdcef339	-0.10104985
137	0x3e40db8e	0.18833753
138	0xbde44fdd	-0.11148045
139	0xbe26d84e	-0.16293451
140	0xbe13bb08	-0.14426816
141	0x3c857710	0.016292125
142	0x3e0dbf86	0.13842592
143	0xbda573b6	-0.08078711
144	0xbc8bcc48	-0.017065182
145	0x3e2b93de	0.16755626
146	0xbd8f0604	-0.06983569
147	0x3db6e50c	0.08930406
148	0xbd487200	-0.048936844
149	0xbd1481ec	-0.036256716
150	0x3c2f1a00	0.010687351
151	0xbdf50856	-0.119644806
152	0x3d330070	0.04370159
153	0xbe170c96	-0.14750895
154	0x3d9e1bbc	0.07720134
155	0xbe34407f	-0.17602728
156	0xbe0abbb8	-0.13548172
157	0xbe3f6fb5	-0.18694957
158	0xbda760d9	-0.08172769
159	0xbddd4b4a	-0.10805376
160	0xbd8dc3c2	-0.069221035
161	0xbdde7b4c	-0.10863361
162	0x3d7f04a0	0.06226027
163	0x3e069e28	0.1314627
164	0x3e03d4d2	0.12874153
165	0x3e113d24	0.1418348
166	0x3e4d96f8	0.20077121
167	0x3e03c072	0.12866381
168	0xbcc65a10	-0.024212867
169	0xbb9c8c80	-0.004777491
170	0xbe051b1e	-0.12998626
171	0xbe2dbc6f	-0.16966413
172	0xbe2c77e5	-0.16842611
173	0xbe0657e6	-0.13119468
174	0xbe15d60a	-0.1463243
175	0x3e4b92e2	0.1988025
176	0xbde9d16e	-0.11416899
177	0x3e3366b8	0.17519653
178	0xbd9829fc	-0.07429883
179	0x3c211e20	0.0098338425
180	0x3d5d16f0	0.053976953
181	0x3d9e7d20	0.077387094
182	0xbceb5438	-0.028726682
183	0xbe2bc847	-0.16775618
184	0x3db59010	0.08865368
185	0xbd10dc2c	-0.035366222
186	0x3d9e63c0	0.077338696
187	0x3cdc4868	0.026889995
188	0xbe27aa7b	-0.16373627
189	0x3e0bc6b4	0.13650018
190	0xbda346b2	-0.079724684
191	0x3c95c068	0.018280223
192	0x3e1e1404	0.15437323
193	0xbc746d90	-0.0149187
194	0x3e0d5ebe	0.13805673
195	0x3e0f0184	0.13965422
196	0xbc58ce80	-0.013232827
197	0xbd8b26e4	-0.06794527
198	0xbe094254	-0.13404208
199	0x3ddd3750	0.10801566
200	0x3dce59a4	0.10075691
201	0xbcfe3cf0	-0.031034917
202	0x3dcf50e8	0.101228535
203	0xbe0fe497	-0.14052044
204	0xbe37225b	-0.178842
205	0xbdfb2057	-0.12262028
206	0xbe0c01f8	-0.13672626
207	0x3e3dae32	0.18523481
208	0x3e130a10	0.14359307
209	0x3e02f144	0.12787348
210	0xbdb13a6f	-0.086537234
211	0x3df9c4cc	0.12195739
212	0xbdc2845e	-0.09497903
213	0xbdd0d914	-0.10197654
214	0x3b652a00	0.003496766
215	0xbc7fb0e0	-0.015606135
216	0xbc310e60	-0.01080665
217	0xbe270803	-0.1631165
218	0xbdf86473	-0.12128534
219	0xbe4037e1	-0.18771316
220	0x3da8b86c	0.08238301
221	0xbe4164d7	-0.18886124
222	0xbd921e12	-0.07134642
223	0xbcb84378	-0.02249311
224	0x3e173022	0.14764455
225	0xbd9d1ef8	-0.076719224
226	0x3de32b34	0.11092225
227	0x3db587d8	0.08863801
228	0x3dca80e8	0.09887868
229	0xbd58301c	-0.052780256
230	0x3e0b1ed6	0.13585982
231	0xbe390198	-0.18067014
232	0x3e359c6c	0.17735451
233	0x3d454f48	0.04817131
234	0xbd974264	-0.0738571
235	0xbd9811de	-0.07425283
236	0xbe3cef61	-0.18450691
237	0xbd2e8300	-0.0426054
238	0xbd57a5e8	-0.052648455
239	0xbe3be95c	-0.18350738
240	0x3d844c80	0.06459904
241	0x3e1331d0	0.1437447
242	0xbcbcaaa0	-0.02303058
243	0x3e14bb62	0.14524606
244	0x3c7d4b80	0.015459895
245	0xbded340a	-0.11582191
246	0x3d766148	0.06015137
247	0xbd04b870	-0.032402456
248	0xbe4cc858	-0.199983
249	0x3e2fdb2a	0.17173448
250	0x3e3fcf78	0.18731487
251	0xbd769024	-0.060196057
252	0xbc898ff8	-0.016792282
253	0xbc55e6a0	-0.013055474
254	0x3d857428	0.06516296
255	0x3e26cd9a	0.16289368

encode_conv5.bias f4 [16]
0	0x3e307804	0.17233282
1	0x3dbdcb40	0.092672825
2	0xbd48e5e4	-0.049047366
3	0xbe50b3cd	-0.20381089
4	0xbda591b8	-0.08084434
5	0x3e3bf7de	0.18356273
6	0xbbd7f940	-0.006590992
7	0x3dee6e3c	0.11642119
8	0xbd972d72	-0.07381715
9	0x3dd36ba8	0.10323268
10	0xbc80c8d0	-0.015720755
11	0x3e205f3c	0.15661329
12	0xbe497ebe	-0.19677255
13	0x3e38ea14	0.18058044
14	0x3e0b1ace	0.13584444
15	0x3e15f5b6	0.14644513

encode_conv6.weight f4 [16, 16, 3]
0	0xbca7e96c	-0.020497046
1	0xbd6c3426	-0.05766692
2	0xbdc33198	-0.09530944
3	0xbda8aad6	-0.08235709
4	0xbd83b5ff	-0.064311974
5	0x3ded8524	0.1159766
6	0x3df85280	0.121251106
7	0xbdcd845a	-0.1003501
8	0xbd133e92	-0.035948344
9	0x3d2f89e4	0.042856112
10	0xbdf1d311	-0.11807836
11	0x3c289e20	0.010291606
12	0x3d3df2a8	0.046373993
13	0x3c93b680	0.018031359
14	0x3d1cade0	0.038251758
15	0x3c2fece0	0.010737628
16	0x3da277b6	0.07932989
17	0x3d9c8a7c	0.07643601
18	0x3e087024	0.13324028
19	0xbcbf9148	-0.023384705
20	0x3dc31758	0.09525937
21	0xbc3c66b0	-0.011499092
22	0xbdc397b2	-0.09550418
23	0xbcac62b4	-0.021043159
24	0xbd16cf28	-0.036818653
25	0xbd6fdf3e	-0.05856251
26	0xbcc5fc64	-0.0241682
27	0x3d88ac24	0.06673458
28	0x3cbd0f70	0.02307865
29	0xbcd2bab4	-0.025723793
30	0x3e0935cc	0.13399428
31	0x3d132af0	0.03592962
32	0xbe09cc81	-0.13456918
33	0x3ca27668	0.019831851
34	0x3e12fce4	0.14354283
35	0xbc7531f0	-0.014965519
36	0xbdefb8be	-0.11705159
37	0xbe02ebd8	-0.1278528
38	0xbdc9a8f2	-0.09846677
39	0xbe0e0c1b	-0.13871805
40	0xbdda2f5a	-0.10653563
41	0x3d84cc18	0.0648424
42	0xbdedf353	-0.11618676
43	0x3dcfabf2	0.10140218
44	0x3bee58e0	0.0072737783
45	0x3d37cebc	0.04487489
46	0xbd046c22	-0.032329686
47	0xbcd0a9ac	-0.02547153
48	0xbe0f4487	-0.13990985
49	0xbd7918dc	-0.060814723
50	0xbdb61bbc	-0.08892009
51	0xbe10f650	-0.14156461
52	0xbd8eed62	-0.06978871
53	0xbd89e48f	-0.06733047
54	0xbdd5f40c	-0.10446939
55	0xbd1c29d8	-0.038125843
56	0xbd6bbc8c	-0.05755286
57	0x3cf1e080	0.029525995
58	0xbc2a5360	-0.010395855
59	0x3c993900	0.018703938
60	0x3ca135f8	0.019679055
61	0x3cac1ef0	0.021010846
62	0x3d0e2dbc	0.034711584
63	0xbdc57578	-0.09641546
64	0x3dda86a4	0.10670212
65	0x3ddd7d24	0.10814884
66	0xbe025140	-0.12726307
67	0xbdfc50a1	-0.12320066
68	0x3d860e86	0.06545739
69	0x3df8a478	0.12140745
70	0xbdee821a	-0.11645909
71	0x3c330710	0.010926977
72	0x3e06a31e	0.13148162
73	0xbc74b5e0	-0.0149359405
74	0x3d7e3438	0.06206152
75	0x3df778dc	0.12083599
76	0xbe10a1b4	-0.14124185
77	0x3d0a8054	0.03381379
78	0xbcf26874	-0.029590823
79	0xbdcf33cb	-0.101173006
80	0x3d858030	0.065185905
81	0x3da1afe6	0.07894878
82	0xbe109989	-0.14121069
83	0xbde900ea	-0.113771275
84	0x3d84c2b2	0.06482448
85	0x3dd9e500	0.106393814
86	0x3e070bea	0.13188139
87	0x3e08e268	0.13367617
88	0xbd26c978	-0.04071948
89	0xbd636c1c	-0.055523023
90	0xbd8572ca	-0.06516035
91	0x3e13bf88	0.14428532
92	0xbd9ad870	-0.075608134
93	0xbcdb45dc	-0.02676671
94	0x3d5342a8	0.05157724
95	0xbe112711	-0.14175059
96	0x3be16ce0	0.006879434
97	0x3e03b124	0.12860543
98	0xbd1f5910	-0.038903296
99	0xbb6a6f00	-0.0035771728
100	0x3d0d6238	0.034517497
101	0xbde535b2	-0.11191882
102	0x3dabef2e	0.08395229
103	0xbdc1eeed	-0.094693996
104	0x3de545ec	0.11194977
105	0xbe0f63db	-0.14002936
106	0x3dc389ba	0.09547754
107	0x3d1bb33c	0.038012728
108	0xbcaea7c4	-0.021320231
109	0x3ba36980	0.004986942
110	0x3da02d64	0.078211576
111	0xbdcfe26f	-0.10150611
112	0xbddbb193	-0.10727229
113	0x3cdf0218	0.027222678
114	0xbd8f2fec	-0.06991562
115	0x3e0af214	0.13568908
116	0x3d2c8e4c	0.042127892
117	0xbda12797	-0.07868879
118	0x3ddc3de4	0.10753992
119	0x3d74d080	0.059769154
120	0x3e0c0186	0.13672456
121	0x3e0c6d1e	0.137135
122	0x3da40428	0.08008605
123	0xbbe7c6a0	-0.0070732385
124	0x3dbc0902	0.091814056
125	0x3dee4170	0.11633575
126	0x3d7ab9a8	0.06121221
127	0xbd5e15c6	-0.054219984
128	0x3dc8e054	0.09808412
129	0xbde095e0	-0.109660864
130	0xbcc7127c	-0.024300806
131	0x3dc5bece	0.09655534
132	0xbdeda090	-0.116028905
133	0xbd805665	-0.062664784
134	0x3d827bf0	0.063712955
135	0x3dbd7286	0.09250359
136	0xbe0acc9e	-0.13554618
137	0xbb772c40	-0.0037715584
138	0xbd4fee86	-0.050764583
139	0xbd6af558	-0.057362884
140	0xbdbb0516	-0.091318294
141	0xbc988820	-0.018619597
142	0x3d418878	0.047249287
143	0x3c93fc18	0.018064544
144	0x3cd1ed10	0.025625736
145	0x3de4af70	0.111662745
146	0xbdb4915a	-0.08816786
147	0x3cee94c0	0.029123664
148	0x3c3f3530	0.011670396
149	0xbccc4808	-0.02493669
150	0x3c5ec510	0.013596788
151	0xbda46aa6	-0.08028154
152	0x3db44312	0.08801855
153	0x3d85f7d6	0.065414116
154	0xbdede3cc	-0.116157144
155	0x3dea7564	0.11448172
156	0xbe06d3a5	-0.13166673
157	0x3da0c89e	0.07850765
158	0x3dfb440c	0.12268838
159	0xbda537dc	-0.08067295
160	0x3db53dfe	0.08849715
161	0xbd8d8602	-0.069103256
162	0x3d51b1a0	0.051194787
163	0xbdbd918c	-0.092562765
164	0xbdf57459	-0.11985082
165	0xbd0da386	-0.034579776
166	0x3d0955e0	0.033529162
167	0x3d0d4d78	0.034497708
168	0x3d867020	0.06564355
169	0x3e049eba	0.12951174
170	0xbb223800	-0.0024752617
171	0x3d72f874	0.059318975
172	0xbd35f49e	-0.04442274
173	0xbbc43c60	-0.0059886426
174	0xbe11d3e2	-0.14240983
175	0x3d6aa3d0	0.05728513
176	0xbdbbce70	-0.09170234
177	0xbcd46a20	-0.02592951
178	0xbdb60498	-0.08887595
179	0xbcc19034	-0.023628332
180	0xbdb1fd90	-0.08690941
181	0x3e09b98a	0.13449684
182	0xbd98342b	-0.07431825
183	0x3d445010	0.047927916
184	0xbdb3815b	-0.08764907
185	0xbda44827	-0.080215745
186	0xbdf51ea8	-0.11968738
187	0xbe10307a	-0.14080992
188	0x3de543a8	0.11194545
189	0x3d922a48	0.07136971
190	0x3d047ce4	0.032345667
191	0xbba3ea80	-0.00500232
192	0x3de4f348	0.11179215
193	0x3e02bb2a	0.1276671
194	0x3d2b7d0c	0.0418673
195	0x3d23d54c	0.039998338
196	0x3db2d8f2	0.08732785
197	0x3d9d97d2	0.07694973
198	0xbc35c5f0	-0.011094555
199	0x3cf584d0	0.029970556
200	0xbd5e0208	-0.054201156
201	0x3d744a78	0.05964133
202	0x3cafd028	0.021461561
203	0xbdb967bd	-0.0905299
204	0xbd26b0ee	-0.040696077
205	0x3d3c3bc4	0.045955434
206	0xbe0cda4a	-0.13755146
207	0x3d8cb726	0.0687087
208	0x3dbc23e8	0.09186536
209	0x3db1dff0	0.08685291
210	0xbdf33787	-0.118758254
211	0x3d71674c	0.058936402
212	0xbd955f00	-0.072935104
213	0x3b0d3f80	0.0021552742
214	0xbd8f8056	-0.070069
215	0xbe042321	-0.12904026
216	0x3e06b70c	0.13155764
217	0x3d0273d0	0.03184873
218	0x3dbfae22	0.09359385
219	0xbd980ff8	-0.07424921
220	0xbd2c670a	-0.042090453
221	0x3deab4d8	0.114602745
222	0x3ce15840	0.027507901
223	0x3e0f8ed4	0.14019328
224	0xbbdb5dc0	-0.0066945255
225	0xbddaa1fe	-0.10675429
226	0x3d99177c	0.074751824
227	0xbcea11f4	-0.028573014
228	0x3d9506ca	0.072766855
229	0x3e120840	0.1426096
230	0x3d9eef0c	0.07760438
231	0x3d9b5684	0.07584861
232	0x3e002910	0.12515664
233	0x3d89a9f8	0.06721872
234	0xbdd066b8	-0.10175842
235	0xbd7ea110	-0.06216532
236	0xbd8ebee8	-0.06970006
237	0xbc89bb78	-0.016813025
238	0xbcddb25c	-0.027062587
239	0x3ddcfb40	0.1079011
240	0x3de052a0	0.109532595
241	0xbdea16cb	-0.11430129
242	0xbd25e636	-0.04050275
243	0xbe03e0ef	-0.12878774
244	0x3bc7b560	0.0060946196
245	0xbdf894cf	-0.12137758
246	0x3e04980e	0.1294863
247	0xbe048881	-0.12942697
248	0xbe09a5f2	-0.1344221
249	0x3d826970	0.06367767
250	0xbdb30602	-0.0874138
251	0xbd2c76c0	-0.042105436
252	0xbc9d62c0	-0.019212127
253	0xbdff6690	-0.12470734
254	0xbbfc8b80	-0.0077070594
255	0xbd93f167	-0.07223778

encode_conv6.bias f4 [16]
0	0x3de9aaa0	0.11409497
1	0xbc069a00	-0.008215427
2	0x3d5948d4	0.05304797
3	0xbd385014	-0.044998243
4	0x3d03b270	0.032152593
5	0xbdd65ba0	-0.10466695
6	0xbca4f8f4	-0.020138241
7	0x3decdb80	0.11565304
8	0xbbb34060	-0.0054703206
9	0xbbc0d5a0	-0.005884841
10	0x3e0d1c08	0.13780224
11	0x3d1f4bc4	0.038890615
12	0xbd5415ee	-0.051778726
13	0xbe085d12	-0.13316754
14	0x3d7965fc	0.060888276
15	0xbdb80fb6	-0.089873716

fc1.weight f4 [200, 200]
0	0xbc286cef	-0.010279878
1	0x3d33e79b	0.043922048
2	0xbde5a2e1	-0.11212707
3	0xbe2b5a60	-0.16733694
4	0xbd0eab5d	-0.034831394
5	0xbdeed2f9	-0.116613336
6	0xbc5b9809	-0.013402947
7	0xbcaea673	-0.021319604
8	0xbe53f20b	-0.20697801
9	0x3b231fd0	0.0024890788
10	0xbd8b4edc	-0.068021506
11	0xbdbae698	-0.091260135
12	0xbd0dee42	-0.03465105
13	0xbddb4a2b	-0.10707506
14	0x3d6dd6c3	0.05806614
15	0xbd356936	-0.04428979
16	0x3d3c67ab	0.045997303
17	0xbd34c5aa	-0.04413382
18	0x3d577d10	0.052609503
19	0xbd7ce4f3	-0.06174178
20	0xbc66347e	-0.014050601
21	0xbd2ca2eb	-0.04214756
22	0x3b740471	0.0037234093
23	0xbd42bc0a	-0.04754261
24	0xbccd292f	-0.025044052
25	0x3c71a9a5	0.014749919
26	0x3e1592de	0.14606807
27	0x3dd9e500	0.106393814
28	0x3e971181	0.29505542
29	0xbeb39a25	-0.3507854
30	0x3d53342c	0.051563427
31	0xbf33363c	-0.7000463
32	0x3da31554	0.079630524
33	0x3eaaec8a	0.3338359
34	0xbdfd0bb5	-0.123557486
35	0x3dd1a397	0.102362804
36	0x3ea3460f	0.31889388
37	0x3e998122	0.29981333
38	0xbe317aaf	-0.17331956
39	0x3de9505b	0.1139228
40	0x3ea0bab4	0.31392443
41	0x3d1d6040	0.03842187
42	0x3e28c07e	0.1647968
43	0xbd9c005b	-0.07617255
44	0xbf00fe7f	-0.5038833
45	0xbe138b66	-0.14408645
46	0xbe19973d	-0.14999099
47	0xbe8c18ef	-0.27362773
48	0x3e330476	0.1748217
49	0xbdbb88af	-0.0915693
50	0xbe48ea99	-0.19620742
51	0xbe12265d	-0.14272447
52	0x3d6e11bf	0.058122393
53	0x3e22cbeb	0.15898101
54	0x3db0a600	0.08625412
55	0x3db2cdf8	0.08730692
56	0x3d1c5839	0.038170073
57	0xbc9ab7d7	-0.01888649
58	0x3dc6ccc5	0.097070254
59	0x3dbd1826	0.092331216
60	0x3c804ad1	0.015660675
61	0x3e1442af	0.14478563
62	0xbdba4dab	-0.09096845
63	0x3e19b235	0.15009387
64	0x3c64b6b1	0.013959573
65	0x3c52c224	0.01286367
66	0xbe082348	-0.13294709
67	0x3de468b9	0.11152787
68	0x3cba3686	0.022731077
69	0x3c814daa	0.015784103
70	0x3d3d6533	0.04623909
71	0x3ded57cf	0.11589014
72	0xbd4a4b04	-0.049387947
73	0xbd161d5f	-0.036649104
74	0x3d9fed19	0.07808895
75	0x3d10141d	0.03517543
76	0xbd5dfd2b	-0.054196518
77	0xbd9ff7b5	-0.07810918
78	0xbe08df2b	-0.13366382
79	0xbe25e6ee	-0.16201374
80	0xbe6bf02a	-0.23040834
81	0x3db3525f	0.087559454
82	0x3ce42c14	0.02785305
83	0xbe6c623d	-0.2308435
84	0xbe397e73	-0.18114643
85	0xbd8494be	-0.06473683
86	0xbe751970	-0.23935485
87	0xbde702aa	-0.11279805
88	0x3d2f75b9	0.04283688
89	0x3db3ef83	0.087859176
90	0x3e039291	0.1284888
91	0xbb82ce26	-0.00399186
92	0xbd4d7051	-0.05015594
93	0x3dacecc0	0.08443594
94	0x3e57e5c7	0.21083747
95	0xbd3ce6bc	-0.046118483
96	0x3dd079a2	0.101794496
97	0x3dcb1492	0.09916033
98	0x3dbf30dd	0.09335492
99	0xbe134db6	-0.14385113
100	0xbe27b2e7	-0.1637684
101	0xbe954c6a	-0.29159862
102	0x3d61102e	0.05494707
103	0x3dacfd69	0.08446772
104	0xbd69d241	-0.05708528
105	0x3e1ab4f8	0.15108097
106	0x3d82fb90	0.06395638
107	0xbe15d441	-0.1463175
108	0x3dcc9cb7	0.099908285
109	0xbdf57321	-0.1198485
110	0x3d344913	0.044015
111	0x3d8dc668	0.069226086
112	0x3de2c99d	0.11073611
113	0x3e200833	0.15628128
114	0xbdef923f	-0.11697816
115	0x3cbd303b	0.023094287
116	0xbe7be03b	-0.24597256
117	0x3e002afe	0.125164
118	0xbdee53fe	-0.11637114
119	0x3d7bbfb6	0.061462127
120	0x3b2debd5	0.0026538272
121	0x3e358b44	0.17728907
122	0xbd75e2a3	-0.06003059
123	0xbd28ad03	-0.04118062
124	0x3d92c21e	0.07165931
125	0x3dcd7c23	0.10033443
126	0x3d6b18a1	0.057396535
127	0xbc1f13d9	-0.009709322
128	0xbd9bf9f5	-0.07616035
129	0xbdc4ac00	-0.09603119
130	0xbe594d52	-0.21220902
131	0xbbbd4385	-0.005775871
132	0xbd8719b6	-0.06596701
133	0xbe63b0c0	-0.22235394
134	0xbd55c4cb	-0.05218963
135	0xbdbbfefc	-0.09179494
136	0xbe1043e9	-0.14088406
137	0xbce0deab	-0.027449926
138	0x3d2b1565	0.04176845
139	0x3e0e02c8	0.13868248
140	0x3dd67f18	0.1047346
141	0x3d3ea3bd	0.04654287
142	0xba9a84bf	-0.0011788829
143	0x3e1ece7a	0.15508452
144	0x3e178468	0.14796603
145	0x3b33638a	0.0027372562
146	0x3dce7590	0.10081017
147	0x3e5235c2	0.2052832
148	0x3dd5cc48	0.10439354
149	0xbda5d25d	-0.08096764
150	0xbc35c93e	-0.011095343
151	0xbc952649	-0.018206732
152	0x3e0aa05f	0.13537739
153	0x3e3122a6	0.17298374
154	0x3b4a4ebd	0.0030869686
155	0x3e0e2bc2	0.1388388
156	0xbc30c6a6	-0.010789549
157	0x3ca2e93e	0.01988661
158	0x3d8b8ecc	0.06814346
159	0x3d83deef	0.064390056
160	0x3e18f07e	0.1493549
161	0x3d713111	0.058884684
162	0xbab09fd3	-0.0013475366
163	0x3d80f573	0.06296816
164	0xbb34ee89	-0.0027607998
165	0xbd9477f5	-0.072494425
166	0xbdd31f9b	-0.10308763
167	0x3d526dc7	0.051374223
168	0xbd5190bd	-0.051163424
169	0xbd9227bc	-0.07136485
170	0xbb77258b	-0.0037711586
171	0x3bff9493	0.007799694
172	0xbe1bb86b	-0.15207069
173	0xbd13449a	-0.035954095
174	0x3d8b6183	0.06805708
175	0xbda7aeb6	-0.0818762
176	0xbde2c038	-0.11071819
177	0xbc974202	-0.018464092
178	0x3e18c10a	0.14917389
179	0x3cb719cb	0.022351166
180	0x3de6c605	0.11268238
181	0x3d2ac073	0.04168744
182	0xbd0d50ea	-0.034500994
183	0x3de2ca1f	0.11073708
184	0xbd42638f	-0.047458228
185	0x3e2628b4	0.16226465
186	0x3e2e0b3a	0.1699647
187	0xbec71832	-0.38885647
188	0x3e837712	0.2567678
189	0xbe2cc3d5	-0.16871579
190	0x3c1b94a3	0.009495887
191	0xbe43a5c8	-0.1910621
192	0x3e14ceb1	0.14531972
193	0xbda170fb	-0.078828774
194	0x3d97e258	0.074162185
195	0x3d1be292	0.03805787
196	0x3e003e92	0.12523869
197	0xbdf8288e	-0.1211711
198	0x3c72c3d1	0.014817194
199	0x3e0c5697	0.13704906
200	0x3df69c59	0.1204154
201	0xbcc04bce	-0.023473646
202	0x3cda4221	0.02664286
203	0x3de88c72	0.11354913
204	0x3d8ae510	0.067819715
205	0x3d801a35	0.062549986
206	0xbd01b12e	-0.031663112
207	0x3e1369cf	0.14395832
208	0x3dbd9b83	0.09258177
209	0x3dd908fb	0.10597416
210	0x3da10ce9	0.078637905
211	0x3e08c0de	0.13354823
212	0x3d894251	0.06702102
213	0xbe222b9d	-0.1583695
214	0xbd15d21a	-0.03657732
215	0x3ca0f9ad	0.019650305
216	0x3ded09c0	0.11574125
217	0x3b100ff8	0.0021982174
218	0x3da0ab4d	0.07845173
219	0x3dfd80fe	0.12378119
220	0xbaec4d22	-0.0018028358
221	0xbd7ed7e9	-0.062217627
222	0xbd38bb54	-0.045100525
223	0x3d90a154	0.07062021
224	0x3c305f45	0.0107649015
225	0xbd1d332f	-0.03837889
226	0xbd822b93	-0.063559674
227	0xbd6b666c	-0.057470724
228	0xbe91103b	-0.28332695
229	0xbd70afa3	-0.05876125
230	0x3df7adbc	0.12093684
231	0x3ed8e04d	0.42358628
232	0xbeae9d62	-0.3410445
233	0x3d9c9a91	0.07646669
234	0x3b8c1680	0.004275143
235	0x3cd9a577	0.026568158
236	0x3e1b9483	0.15193371
237	0x3c940b60	0.01807183
238	0xbe8a451a	-0.27005845
239	0xbe560a6c	-0.20902413
240	0xbed4a3b0	-0.41531134
241	0xbe44bca4	-0.19212586
242	0x3e4a60bc	0.19763464
243	0xbe01edd1	-0.12688376
244	0xbdb9036b	-0.09033855
245	0x3e577140	0.21039295
246	0xbe14014a	-0.14453617
247	0xbf0a7c96	-0.54096353
248	0x3dfba4e8	0.12287313
249	0x3da16f1d	0.07882521
250	0x3e69b524	0.22823006
251	0x3dac9075	0.084259905
252	0x3c13f021	0.009029419
253	0xbd3804ae	-0.044926338
254	0xbd829484	-0.06375983
255	0x3aa3df73	0.0012502506

fc1.bias f4 [200]
0	0xbdfa253a	-0.12214132
1	0x3d7178d6	0.05895313
2	0x3d731edf	0.059355613
3	0xbdc52577	-0.096262865
4	0x3e1c913d	0.15289779
5	0xbd3f501b	-0.046707254
6	0x3d41e892	0.047340937
7	0x3afa6c5a	0.0019105778
8	0x3d2e8ed9	0.0426167
9	0xbd6787ae	-0.05652588
10	0x3c7fe223	0.01561788
11	0xbe495dfb	-0.19664757
12	0xbd81f58f	-0.06345665
13	0x3d582353	0.052768063
14	0xbe0b53e5	-0.13606222
15	0x3d850677	0.06495374
16	0xbe4fe99e	-0.20303962
17	0xbd50f9a1	-0.051019315
18	0x3df5530f	0.11978733
19	0x3d7fe5be	0.06247496
20	0x3d3df7e2	0.046378978
21	0x3dfbb31e	0.12290023
22	0xbd96f2fb	-0.073705636
23	0xbda6910f	-0.081331365
24	0x3df720e6	0.12066822
25	0xbd282ff3	-0.041061353
26	0x3dc35458	0.09537572
27	0xbe2cfefd	-0.16894145
28	0xbd8dccea	-0.0692385
29	0xbda771f0	-0.08176029
30	0xbd7ead7d	-0.06217717
31	0x3dc143e8	0.0943678
32	0xbc87eb94	-0.016591825
33	0xbdc95796	-0.09831159
34	0x3da12a43	0.07869389
35	0x3d170662	0.03687132
36	0xbda29b99	-0.07939834
37	0x3d1d256a	0.03836576
38	0x3dd585f9	0.10425944
39	0x3de8c1c9	0.113650866
40	0xbd57b349	-0.052661214
41	0x3da0a6aa	0.07844289
42	0xbd93ef5f	-0.07223391
43	0xbe160fc1	-0.14654447
44	0x3d9dfe1b	0.077144824
45	0xbdb8b260	-0.09018397
46	0xbcd1850b	-0.025576135
47	0x3bffa357	0.007801454
48	0x3ca847a9	0.020541983
49	0x3b747c39	0.0037305488
50	0x3c6cf67d	0.014463064
51	0xbd355ad7	-0.044276085
52	0x3daaa0ff	0.08331489
53	0xbda4be59	-0.080441184
54	0x3bef9711	0.0073117097
55	0xbd591291	-0.052996222
56	0xbd7f7ecb	-0.06237678
57	0xbd889316	-0.066686794
58	0x3dacd9a2	0.08439948
59	0xbc14099a	-0.009035492
60	0x3e1beb8b	0.15226571
61	0x3db0a14e	0.086245164
62	0xbc6f19d7	-0.014593563
63	0x3c1c3c93	0.009535926
64	0xbe1022f9	-0.14075841
65	0x3d40e062	0.047088988
66	0xbd97fe89	-0.074215956
67	0x3c41aedb	0.011821474
68	0xbdc6f278	-0.09714216
69	0xbd0450f8	-0.03230378
70	0x3c4bef9f	0.012447267
71	0x3da74188	0.08166796
72	0xbd4411dd	-0.0478686
73	0x3d1d0254	0.0383323
74	0xbdd31bbb	-0.103080235
75	0xbe156d8c	-0.1459257
76	0xbd92c6a9	-0.07166798
77	0xb9e7b452	-0.00044194103
78	0x3c3e108a	0.011600623
79	0x3c72d001	0.0148201
80	0xbcf56e31	-0.02995977
81	0x3d916c8e	0.07100783
82	0xbd832bb5	-0.06404821
83	0x3d521bd1	0.05129606
84	0xbb6c2f1d	-0.0036038824
85	0x3de75c49	0.11296899
86	0xba36c467	-0.0006972015
87	0xbd8068f8	-0.06270021
88	0xbd7f941a	-0.0623971
89	0xbe23413e	-0.15942857
90	0xbd3e7c86	-0.046505474
91	0xbcdf2b32	-0.027242277
92	0x3dc9201f	0.0982058
93	0x3c016cb3	0.007899451
94	0xbb22da5b	-0.0024849388
95	0x3cdd3182	0.027001146
96	0x3d94676d	0.072462894
97	0x3e14d450	0.14534116
98	0x3e0c2186	0.13684663
99	0x3bb297c6	0.0054502217
100	0x3d92b351	0.07163108
101	0xbe0c0fc8	-0.13677895
102	0x3db76c11	0.08956159
103	0x3d5a31e1	0.053270224
104	0xbd7a352e	-0.061085872
105	0xbc6be136	-0.014396956
106	0xbcbf956b	-0.023386678
107	0x3b5f5bc2	0.0034081792
108	0x3daefab5	0.08543912
109	0x3d797182	0.060899265
110	0xbc6660d3	-0.014061171
111	0xbbac33b5	-0.0052551874
112	0x3ca878bc	0.020565383
113	0xbcb134c6	-0.02163161
114	0x3bac3163	0.005254911
115	0x3cffac1d	0.03121
116	0x3d8a8df3	0.06765356
117	0xbd8e582e	-0.06950413
118	0x3dd3a841	0.10334826
119	0xbd8d93fa	-0.0691299
120	0x3c791703	0.01520324
121	0xbe1ccba1	-0.15312053
122	0x3d599874	0.053123906
123	0x3e101e4a	0.14074054
124	0xbc9e776d	-0.019344056
125	0xbd6ff1ec	-0.058580324
126	0x3da4024b	0.0800825
127	0x3d70d1d6	0.058793865
128	0x3d526428	0.051365048
129	0xbd6f0442	-0.05835367
130	0xbbf058b2	-0.007334792
131	0xbd943e52	-0.07238449
132	0xbc38403e	-0.011245785
133	0xbd4c22f1	-0.04983801
134	0x3d63cdf3	0.05561633
135	0xbeac8906	-0.3369829
136	0xbca6a32d	-0.02034148
137	0x3c9ad891	0.018902095
138	0x3d00d054	0.031448677
139	0x3cc25c5a	0.023725677
140	0xbd8bc211	-0.068241246
141	0xbc6ca2df	-0.014443128
142	0x3d696fdb	0.05699144
143	0xbdbb1a8b	-0.09135922
144	0x3da64b8b	0.081198774
145	0x3c2abf66	0.0104216095
146	0xbdcd0502	-0.10010721
147	0x3d123e1f	0.035703775
148	0x3c73dee9	0.014884689
149	0x3d8753d9	0.066077895
150	0x3d675e84	0.05648662
151	0xbd2e90e4	-0.042618647
152	0xbddabb90	-0.10680306
153	0x3da27d00	0.07933998
154	0x3d508590	0.050908625
155	0x3b9891dd	0.00465606
156	0x3b531032	0.0032205698
157	0x3d842151	0.06451667
158	0xbda9dd09	-0.08294112
159	0x3d007b32	0.03136749
160	0x3c94d4c7	0.018167866
161	0x3da0a23b	0.07843443
162	0x3df8eee9	0.121549435
163	0x3dc096d2	0.09403767
164	0xbd08c5fa	-0.03339193
165	0x3da7ac6f	0.08187186
166	0xbd352c12	-0.04423148
167	0x3dbfa3a8	0.09357387
168	0xbe631336	-0.22175297
169	0xbb981bce	-0.0046419865
170	0xbcfcfffe	-0.030883785
171	0xbdf58259	-0.119877525
172	0x3c44eebd	0.01201981
173	0x3cd35242	0.02579606
174	0x3e0d0345	0.13770778
175	0x3ce73546	0.028223645
176	0x3d0dd703	0.03462888
177	0x3dbe6e80	0.0929842
178	0xbd64399c	-0.055719003
179	0xbdae6bac	-0.085166305
180	0xbdce6ab2	-0.10078944
181	0xbc88716a	-0.016655643
182	0x3b29d4e8	0.0025914256
183	0x3dae85c3	0.08521607
184	0x3d7d671f	0.061865922
185	0x3d118302	0.03552533
186	0x3d069760	0.032859206
187	0xbc94a088	-0.018142954
188	0xbdc2b55d	-0.095072486
189	0xbcfec0f6	-0.03109787
190	0x3d39ef44	0.045394197
191	0x3cc69e85	0.02424551
192	0xbd98768f	-0.07444488
193	0x3d2c2348	0.042025834
194	0x3d7c0fa9	0.061538372
195	0x3da76a4b	0.08174571
196	0x3d9be7af	0.076125495
197	0xbb819fee	-0.0039558327
198	0x3cde14ca	0.027109522
199	0x3b03342e	0.0020020115

fc3.weight f4 [100, 200]
0	0x3a7f8e07	0.0009748642
1	0x3d8f72c3	0.07004311
2	0x3d219f4d	0.03945856
3	0xbb947e8a	-0.004531686
4	0x3aff5be3	0.001948234
5	0x3c66cdb0	0.014087126
6	0xbd484ce7	-0.048901465
7	0x3e2ceb77	0.16886698
8	0x3dd8fcd6	0.105951
9	0xbec34673	-0.38139686
10	0xbe3f57c9	-0.18685831
11	0xbf591c50	-0.84808826
12	0xbd2d5384	-0.042315975
13	0xbe3cbd57	-0.18431602
14	0x3cdaebc3	0.026723748
15	0xbb5f97a4	-0.0034117484
16	0x3e884096	0.26611775
17	0x3e06cdc1	0.13164426
18	0xbe5ca0b6	-0.21545681
19	0x3b7e958a	0.0038846456
20	0x3dac5804	0.08415225
21	0xbdc54aca	-0.096334055
22	0xbd3b1bb1	-0.045680705
23	0x3e107122	0.14105657
24	0x3db5d4cb	0.08878478
25	0xbd17d2a6	-0.037066124
26	0xbdf0dc59	-0.11760778
27	0x3ab32a99	0.0013669311
28	0x3c283ad8	0.010267936
29	0x3b1449c8	0.0022626985
30	0x3d2a3756	0.04155668
31	0xbcd1d7c8	-0.025615588
32	0xbd828bc5	-0.06374315
33	0x3bb1c568	0.005425144
34	0xbe1db839	-0.15402307
35	0x3dfd40cf	0.12365877
36	0x3ca6fe85	0.020385036
37	0xbe04a09f	-0.12951897
38	0x3df9e22a	0.122013405
39	0xbe0907f2	-0.13381937
40	0xbd3ba555	-0.04581197
41	0xbd0137f6	-0.03154751
42	0x3d68206f	0.056671556
43	0x3d959949	0.073046274
44	0x3d2ac627	0.04169288
45	0x3ebc2de6	0.36753768
46	0x3d833bc0	0.06407881
47	0x3dc272d0	0.09494555
48	0xbc1cd671	-0.009572611
49	0xbbe45b32	-0.006968879
50	0xbdff6e97	-0.12472265
51	0x3d8d6487	0.0690394
52	0x3da6eb6e	0.081503734
53	0x3e83f141	0.2577
54	0xbed0e3fe	-0.40798944
55	0x3cc494a4	0.023996659
56	0xbd44aeff	-0.04801845
57	0x395758e9	0.0002053712
58	0x3df6f7d9	0.12058992
59	0x3bc5d114	0.006036887
60	0x3c8ac43f	0.01693928
61	0xbe877127	-0.26453516
62	0xbea02976	-0.31281632
63	0xbd547d7a	-0.051877476
64	0xbdd38dfc	-0.10329816
65	0xbd93d874	-0.072190195
66	0xbbaef5b7	-0.00533935
67	0x3dbce81d	0.092239596
68	0xbea3d8ae	-0.3200125
69	0xbe3fe45e	-0.18739459
70	0x3e14e6d4	0.14541179
71	0xbd0f9dea	-0.035062708
72	0xbde98170	-0.11401641
73	0x3df02259	0.11725301
74	0xbdc5b691	-0.096539624
75	0x3c9e82a3	0.019349402
76	0xbe38d76b	-0.18050925
77	0x3cfea9a0	0.031086743
78	0x3d5e8cb6	0.05433341
79	0xbd52928e	-0.051409297
80	0x3aa99571	0.0012938214
81	0x3f0fd450	0.5618334
82	0xbb4d9c8c	-0.0031373827
83	0x3ea0975a	0.31365472
84	0xbcd1ed3d	-0.02562582
85	0x3db34eae	0.08755241
86	0x3e181d16	0.14854845
87	0xbd39df5a	-0.04537902
88	0x3d3422e5	0.04397859
89	0xbee6ccdb	-0.45078167
90	0x3d1f2dfa	0.038862206
91	0xbd97924a	-0.07400949
92	0x3d8cf569	0.06882746
93	0xbd163c47	-0.03667858
94	0xbd55979b	-0.052146535
95	0xbd99bbdc	-0.075065345
96	0x3db8f2fe	0.09030722
97	0xbe864701	-0.26226047
98	0xbc74bd6e	-0.014937742
99	0x3d19483b	0.0374224
100	0x3e1593f7	0.14607225
101	0x3e0219e9	0.12705196
102	0xbc89190e	-0.01673558
103	0xbd47e254	-0.048799828
104	0xbd081032	-0.03321857
105	0x3c63145a	0.013859833
106	0xbc8451e6	-0.016152333
107	0x3af17b0b	0.001842351
108	0x3d7078b2	0.058708854
109	0xbd789a2d	-0.06069391
110	0x3cbc1267	0.022957994
111	0xbdba5e45	-0.09100012
112	0x3e1581a4	0.14600235
113	0xbd23201e	-0.03982555
114	0xbd33fe22	-0.04394353
115	0xbd611143	-0.054948103
116	0x3c963816	0.01833729
117	0x3ea4c2a3	0.32179746
118	0x3d2fb1ce	0.042894177
119	0xbd7890ab	-0.06068484
120	0x3c554705	0.013017421
121	0x3cbefd60	0.023314178
122	0x3c19edce	0.009395076
123	0xbd1f02d6	-0.038821064
124	0xbe3ecd01	-0.1863289
125	0xbe2fe532	-0.17177275
126	0x3dc5bd88	0.09655291
127	0x3e858b96	0.26083058
128	0xbdebaf9e	-0.11508106
129	0xbd5eff91	-0.054442946
130	0x3dedf0ac	0.1161817
131	0xbd8c14dd	-0.06839917
132	0x3cf1c61f	0.029513417
133	0x3bdafbec	0.0066828635
134	0x3e01c2db	0.12671988
135	0x3ed6d81e	0.4196176
136	0x3e41bb8f	0.18919204
137	0x3d987d1d	0.074457385
138	0x3dec486a	0.115372494
139	0xbdb6d2d9	-0.08926935
140	0x3a3d89c2	0.00072303053
141	0x3c93b03b	0.01802837
142	0x3e5d761e	0.2162709
143	0xbd8277d5	-0.063705124
144	0x3e9f9756	0.31170148
145	0xbe2386ad	-0.15969343
146	0xbd1f1e18	-0.03884706
147	0xbca9532e	-0.020669546
148	0x3d58fa91	0.052973334
149	0xbd666374	-0.05624719
150	0x3e3ff8ec	0.187473
151	0x3e32f6a9	0.17476906
152	0xbd995815	-0.074875034
153	0xbd8670d6	-0.065644905
154	0x3da58994	0.080828816
155	0x3cf9e50f	0.030504731
156	0x3cdc64c8	0.026903525
157	0xbd3bf13d	-0.04588436
158	0xbcbe5e63	-0.023238366
159	0xbea47c62	-0.32126147
160	0x3e7e0894	0.2480796
161	0x3e2be4c6	0.16786489
162	0xbe2eead8	-0.17081773
163	0xbe6e7f47	-0.2329074
164	0xbd1efd3a	-0.038815714
165	0xbe52f5c5	-0.20601566
166	0x3d884b55	0.066549934
167	0xbb6863d9	-0.0035459904
168	0xbd7eb5b5	-0.062185008
169	0xbdbdc7be	-0.092666134
170	0xbc4a4e8e	-0.01234783
171	0x3d47406f	0.048645433
172	0x3cf17a7a	0.029477347
173	0xbcae487c	-0.021274798
174	0x3e11e48a	0.14247337
175	0xbd919221	-0.0710795
176	0x3b20f5a3	0.0024560473
177	0x3d869112	0.06570639
178	0xbd71cc35	-0.059032638
179	0xbda95813	-0.08268752
180	0xbe8f7f64	-0.2802688
181	0xbdfd74c4	-0.12375787
182	0xbecbcda8	-0.3980534
183	0xbea8f8c8	-0.33002305
184	0xbc4d1bf3	-0.012518871
185	0xbccaa94c	-0.02473893
186	0xbdc6f932	-0.09715499
187	0xbd819d49	-0.06328828
188	0xbd94e4e0	-0.07270217
189	0xbddc438e	-0.107550725
190	0x3e8fd8d0	0.28095102
191	0x3d3f267c	0.04666756
192	0xbe06f30c	-0.13178653
193	0xbe144dd4	-0.14482814
194	0xbd8a5d0b	-0.06756028
195	0xbd661439	-0.05617163
196	0xbc15e5d1	-0.009149031
197	0x3e90d72a	0.28289157
198	0x3d57d88e	0.052696757
199	0x3dab02d6	0.0835015
200	0x3dba00cb	0.090821825
201	0x3c60f4f2	0.0137302745
202	0xba92e8a7	-0.0011208252
203	0xbc6de613	-0.014520186
204	0xbd3c816d	-0.046021868
205	0xbcdfec57	-0.027334375
206	0xbd436448	-0.047703058
207	0x3d9dff62	0.07714726
208	0x3da8e122	0.08246066
209	0xbe68bd5a	-0.22728482
210	0xbca18e1c	-0.019721083
211	0xbde95ad3	-0.113942765
212	0xbcac01b2	-0.020996902
213	0xbd97797f	-0.073962204
214	0x3d028690	0.03186661
215	0x3d756670	0.059912145
216	0xbd0cac75	-0.034344155
217	0x3d234d58	0.039868683
218	0xbd64fbef	-0.055904325
219	0x3daa8df3	0.08327856
220	0x3d30fdc0	0.043210745
221	0x3d04aa95	0.032389242
222	0xbcdc7fad	-0.02691635
223	0x3e38a6c9	0.18032373
224	0x3b55474a	0.0032543712
225	0x3da07a2a	0.07835801
226	0x3d8b6404	0.06806186
227	0x3ce65def	0.028120963
228	0x3dccdad2	0.10002674
229	0xbda6c309	-0.08142669
230	0x3e2853c1	0.164382
231	0x3d2c4752	0.042060204
232	0xbd1a1140	-0.037614107
233	0x3bc8cb3e	0.006127744
234	0x3cd6d99d	0.026226813
235	0x3cd7821c	0.026307158
236	0x3db76d26	0.08956365
237	0xbe8f61c1	-0.28004268
238	0xbc755ed3	-0.014976221
239	0x3c59db1e	0.0132968705
240	0x3d19e34b	0.03757028
241	0xbd33382e	-0.04375475
242	0x3e0e4a8b	0.13895623
243	0x3e749086	0.23883256
244	0x3dbbefc4	0.09176591
245	0x3de123bf	0.10993146
246	0x3cd8910a	0.026436348
247	0xbc8e2bc0	-0.017354846
248	0x3d28397d	0.04107045
249	0xbd6853db	-0.056720596
250	0xbd9907d0	-0.07472193
251	0x3c9f80f9	0.019470679
252	0xbd881667	-0.06644898
253	0x3e8376c8	0.2567656
254	0xbe403f7f	-0.18774222
255	0xbcb94bd7	-0.022619171

fc3.bias f4 [100]
0	0xbc74ff8a	-0.014953503
1	0xbb01e46c	-0.0019819988
2	0x39ed8a9b	0.00045307432
3	0xbc95d74b	-0.018291136
4	0x3d707e17	0.058714
5	0x3d4043c3	0.046939623
6	0xbd32653a	-0.04355357
7	0x3d7061bb	0.058686953
8	0x3d7e98d3	0.062157463
9	0xbc735f70	-0.014854297
10	0xbd31024b	-0.043215077
11	0xbd75e480	-0.060032368
12	0x3d82574b	0.06364306
13	0x3d9d615f	0.07684588
14	0x3c36d55c	0.011159267
15	0xbd586c2c	-0.052837536
16	0x3ce21e9b	0.027602484
17	0x3d94ca6c	0.072651714
18	0x3c8dacb6	0.017294269
19	0x3d97a44d	0.07404385
20	0x3da71e67	0.08160096
21	0xbcdf42eb	-0.027253589
22	0x3d4f87e1	0.050666694
23	0xbd111139	-0.035416815
24	0xbd02f8c0	-0.031975508
25	0xbcd8e9b8	-0.026478633
26	0x3ab97d4d	0.0014151722
27	0xb6b758b6	-5.4641523e-06
28	0x3d8ee6a2	0.069775835
29	0x3a881d62	0.0010384733
30	0xbd4a9405	-0.04945757
31	0xbd02922b	-0.031877678
32	0x3d70c95a	0.058785774
33	0x3c825ffb	0.015914908
34	0x3d7c0c3f	0.061535116
35	0x3da07440	0.07834673
36	0xbd07ecfe	-0.033184998
37	0xbca35c45	-0.019941458
38	0x3bb2169a	0.005434823
39	0x3d8a7de2	0.067622915
40	0xbcdcfa1d	-0.026974732
41	0x3d9f9533	0.07792129
42	0x3e1e8976	0.15482125
43	0x3d220919	0.039559457
44	0xbd0d2fd8	-0.034469455
45	0xbc2fa10b	-0.010719548
46	0x3df98848	0.12184197
47	0x3d2c2c54	0.042034462
48	0x3d1094e6	0.03529825
49	0x3a9aebf7	0.001181959
50	0xbd8c8854	-0.0686194
51	0xbd32ba2e	-0.043634586
52	0x3d1189c4	0.035531774
53	0xbd71653c	-0.058934435
54	0xbd53a01b	-0.05166636
55	0xbd8b8f3a	-0.06814428
56	0xbda8465b	-0.08216544
57	0xbce62db7	-0.02809797
58	0xbd8b3179	-0.067965455
59	0xbcf80781	-0.030277016
60	0x3c74c72e	0.014940066
61	0xbd08b6f6	-0.03337761
62	0xbd1f8466	-0.038944624
63	0xbdba9858	-0.091110885
64	0xbd087623	-0.03331579
65	0xbdaffefc	-0.08593556
66	0x3cb54242	0.02212632
67	0x3c60a387	0.013710863
68	0xbdba7bae	-0.09105621
69	0xbda59f3b	-0.080870114
70	0xbd7a9282	-0.061174877
71	0x3c73a2c6	0.014870351
72	0x3c88b44b	0.016687533
73	0xbd98cb81	-0.0746069
74	0xbc9497da	-0.018138815
75	0x3cc66ea6	0.024222683
76	0xbdc0f91b	-0.09422513
77	0x3cc5b6e8	0.024135068
78	0x3c963a04	0.01833821
79	0x3ce17d54	0.027525581
80	0xbd6e4a9e	-0.05817663
81	0xbb12bab2	-0.002238911
82	0xbd326363	-0.043551814
83	0x3d198fc8	0.037490636
84	0xbd3ee348	-0.04660347
85	0xbbd3da68	-0.006465245
86	0xbd1cc167	-0.03827038
87	0xbd825317	-0.063635044
88	0xbd12b5c7	-0.035817888
89	0xbd06273c	-0.03275226
90	0xbcfd510c	-0.030922435
91	0xbdb4e1ab	-0.08832105
92	0xbd939aec	-0.072072834
93	0xbda96d6b	-0.08272823
94	0xbc19a5e2	-0.009377928
95	0xbd577252	-0.05259926
96	0xbcba2c75	-0.022726277
97	0x3bacf8a0	0.005278662
98	0xbc08d117	-0.008350632
99	0x3d201efa	0.03909204
