training_model/wandb/run-20200624_214630-210dzafx/AE_4.pt (torch_old, 250492 bytes, 16 tensors)

encode_conv1.weight f4 [4, 12, 3]
000000 39 86 05 be f6 18 91 3d 81 bc 10 bd 41 f1 03 3e
       -0.13039483 0.07084839 -0.03533602 0.12885
000010 86 eb d8 3d 8e c4 dd bd d8 16 81 bd 9c 6c 24 be
       0.105917975 -0.108285055 -0.06303185 -0.16057056
000020 c9 45 10 3d 84 42 b4 3d cf c5 af bd 02 74 b7 bc
       0.035222802 0.08801749 -0.08582651 -0.022394184
000030 60 55 47 bc 33 36 9c bb 5a 55 3f 3d 1f 79 a1 3d
       -0.012166351 -0.0047672032 0.046712257 0.0788443
000040 36 43 6c bd b4 a1 16 3e d9 1b 80 bc 3e 2f 00 be
       -0.057681285 0.14710122 -0.015638279 -0.12518021
000050 6f bd 06 bd bd 6d 6d bd dc 25 fb 3d 82 66 b2 bc
       -0.0328955 -0.057965983 0.122630805 -0.021777395
000060 78 5a 3f bd 5d 39 ab 3d 4a 5c 11 be 95 70 29 be
       -0.046717137 0.083605506 -0.14195362 -0.16546853
000070 42 aa 08 be 70 b1 34 bd df 7f 22 3e b9 36 1f 3d
       -0.13346198 -0.04411453 0.15869091 0.038870547
000080 1e 9c b6 3d 92 85 0b 3e a0 31 a8 3d e0 d4 fa 3d
       0.08916496 0.13625172 0.0821259 0.12247634
000090 2e 1e 22 bc 5f db 5a bd 2a 39 dc 3c f0 63 07 3e
       -0.009894891 -0.053431865 0.026882727 0.13221717
0000a0 4b 91 0a bd 35 39 05 be db bb ea 3d 50 df b9 3d
       -0.03382997 -0.13010104 0.11461612 0.090757966
0000b0 c1 a2 be 3d e1 32 74 3d 73 fa e4 bb c7 9c 27 3d
       0.093083866 0.059618834 -0.0069878637 0.040921
0000c0 a0 a4 72 bd 3e 3b 47 bd 78 97 17 3e f0 0b 91 bd
       -0.05923903 -0.048640482 0.14803874 -0.07082355
0000d0 9f c0 cc 3d a9 43 16 bd d5 3b c1 bc 2b b9 15 be
       0.09997677 -0.03668562 -0.0235881 -0.14621417
0000e0 21 a4 c1 bd cc 79 23 bd 28 46 25 3e d3 9c 8b 3d
       -0.09455133 -0.039911076 0.16140044 0.06817021
0000f0 fc 9f e3 bd 0d 8a e6 3d 46 ab 26 3e de 9e 34 3e
       -0.11114499 0.112568 0.16276273 0.17638728
000100 0c dd 67 bd 03 c0 1d 3d ac 14 9a bd a2 6a 96 bd
       -0.05660729 0.038513195 -0.07523474 -0.07344557
000110 21 f2 af 3d fd 9e 12 bc 1a fa dd 3d 1e 99 ca bd
       0.08591104 -0.008949039 0.10838719 -0.09892486
000120 a7 3b 27 3e 9b c1 2d 3e de 46 05 3c e0 9e 38 3e
       0.1633135 0.16968386 0.008134572 0.18029356
000130 04 98 90 3d 32 c2 4e 3d 44 28 8f bc 33 7f ff 3d
       0.07060245 0.050478168 -0.017475255 0.12475433
000140 4d 1d af bd 5f cf 05 be cb 57 cc 3d a0 a0 c1 bd
       -0.085505106 -0.13067387 0.09977683 -0.09454465
000150 ab aa 04 3e bb 24 3e bd dd 90 b8 3c 56 6b 07 3e
       0.1295573 -0.046421748 0.022530014 0.13224539
000160 bc 98 93 3d 93 57 f0 3d 79 65 ab 3d fb be ec bd
       0.07206866 0.117354535 0.08368964 -0.11559864
000170 ff e5 0c bd 09 f0 ce bc 10 2a f5 bd 30 9d c8 bc
       -0.03439903 -0.025260942 -0.119709134 -0.024489015
000180 32 87 02 bd ad e3 b6 3d 34 51 b0 bc 4e 92 c4 bd
       -0.031867214 0.089301445 -0.021523096 -0.09598218
000190 6f 89 89 3c e5 77 7d bd de 68 db bd b5 c8 15 3a
       0.016789166 -0.06188192 -0.10713361 0.00057138066
0001a0 66 7d 39 3e ad 04 14 bd b8 81 f0 3c 3d cc c4 3d
       0.18114242 -0.03613727 0.02935873 0.09609268
0001b0 f3 87 4e bd df f5 5e 3c 42 11 48 3d 6e 67 11 3e
       -0.05042262 0.013608425 0.048844583 0.14199612
0001c0 fc f0 57 3c d4 58 7c bd 2d 97 b7 bd b0 05 69 3d
       0.013180014 -0.06160815 -0.08964381 0.05689019
0001d0 56 b0 94 bd 39 f7 45 3d a5 67 b0 3c 5e 1b 34 3e
       -0.07260196 0.048331473 0.021533797 0.17588565
0001e0 47 39 6b 3d d6 03 8f 3d 9e 7c d3 bd 56 d3 91 bd
       0.05742767 0.069831535 -0.10326503 -0.07120387
0001f0 c7 8d 22 bd b3 37 34 3e 19 a7 ae 3d 29 de 14 be
       -0.03968599 0.17599373 0.08527965 -0.14537872
000200 e5 2e ae 3d 11 83 0b bd 66 f7 1a 3e b2 7b 03 be
       0.08505038 -0.03406054 0.15133438 -0.12840155
000210 7e 29 f6 bc 0a 03 cd bd 51 77 03 3e 0b 6c ba bd
       -0.030049082 -0.10010345 0.12838484 -0.09102639
000220 e7 5f b8 3c bb 9f 10 be 6a 9d 41 3d 26 de 18 be
       0.022506667 -0.14123432 0.047269262 -0.14928493
000230 a8 d4 78 3c 7b 48 e3 bd 5c 19 87 bd 4a 79 09 3e
       0.01518742 -0.11097809 -0.06596634 0.13425174

encode_conv1.bias f4 [4]
000000 fb b8 2d 3e d7 90 df bd 5c 33 bc 3c 6b 57 18 be
       0.16965096 -0.10916298 0.022973709 -0.14877097

encode_conv2.weight f4 [4, 4, 3]
000000 5e 3b 85 3e 13 d6 93 bd fb 3d a2 bc c2 f7 ff bd
       0.26021856 -0.07218566 -0.019804945 -0.12498428
000010 ad 54 1f be 26 45 c9 bc ed ab 10 3e c3 00 9d be
       -0.15559645 -0.024569105 0.14128084 -0.30664644
000020 48 c1 6a be 0d 04 9b 3d 86 cd fc bb 4e 5b cc 3d
       -0.22925293 0.07569132 -0.00771493 0.099783525
000030 97 2b 58 be 0e 80 03 be 6f 57 0d 3e d0 ba 12 3e
       -0.21110378 -0.12841818 0.13802885 0.14329076
000040 03 c1 18 be e6 76 05 be 7d 55 4b 3e a4 04 79 be
       -0.14917378 -0.13033637 0.1985683 -0.24318177
000050 10 7a 50 3e 9b 57 70 be 70 67 fd 3d a7 a0 38 3e
       0.20359063 -0.23470919 0.12373245 0.18030034
000060 5f 56 11 bd 7d 12 15 3e 44 c7 25 3e ae 81 b6 bd
       -0.03548276 0.14557834 0.16189295 -0.08911453
000070 1c d5 0a be 75 15 f0 bd cf 00 78 3e 10 14 fd 3a
       -0.13557857 -0.117228426 0.24219058 0.0019308347
000080 a8 0b 83 bd 00 0b 20 3e 53 d8 8f be f0 c7 00 3e
       -0.06398708 0.15629196 -0.2809473 0.1257627
000090 26 39 19 3e e7 60 27 be d4 6a 91 be 1a d0 62 3e
       0.14963207 -0.16345559 -0.28401816 0.22149697
0000a0 37 a1 83 3d 5b bd 6a bd 9f 49 96 3d 3f a3 35 3e
       0.06427234 -0.05730949 0.07338261 0.17738055
0000b0 38 91 40 be 8c 19 47 be 72 86 3d 3e 5b a8 21 be
       -0.18805397 -0.19443339 0.18508318 -0.15786879

encode_conv2.bias f4 [4]
000000 be e1 8f bc a5 67 f1 3c 6e 36 cc bc d7 97 21 3e
       -0.017563697 0.029468367 -0.024928298 0.15780579

encode_conv3.weight f4 [8, 4, 3]
000000 bb 9d 82 bb 84 35 3c 3e e2 99 2f 3e 96 b5 d5 bd
       -0.003986088 0.1837979 0.17148545 -0.104350254
000010 8a 33 81 be fd 06 86 bd 9b d8 09 be 84 a8 d2 bd
       -0.25234634 -0.06544302 -0.13461535 -0.10286048
000020 c6 d3 20 3e 9e 28 5b bd 6a 26 1f 3d d2 51 46 3e
       0.15705785 -0.053505532 0.038854994 0.1936715
000030 bc c7 03 bd 0c 2e 8b bd 68 ae 64 3e 51 61 88 be
       -0.032172903 -0.06795892 0.22332156 -0.26636747
000040 0c 6c b1 3d 98 e6 1d be 83 c0 02 be 53 ad 17 be
       0.086631864 -0.15419996 -0.1276875 -0.14812212
000050 d9 29 56 3e fa 4f a8 3d ae 14 ae be f5 69 4f 3e
       0.20914401 0.08218379 -0.34000152 0.20255263
000060 8d 30 33 be d0 20 22 bd da a2 35 be 79 1e 7e bd
       -0.1749899 -0.039582074 -0.17737904 -0.06204078
000070 88 1f 74 3d dd 0e b9 3d e7 a0 07 3e cf fd a1 bd
       0.059600383 0.09036038 0.13244973 -0.07909738
000080 2a 43 05 bd fe 7f d0 bd bc 8c 6f 3e 4b 0f 99 3e
       -0.032534756 -0.101806626 0.2339353 0.2989448
000090 6d 21 cf bd 92 f0 92 bd dd 32 65 bd c8 2e ec bd
       -0.10113797 -0.071747914 -0.05595671 -0.1153236
0000a0 6e 66 15 3d b7 5c 35 be 7e 54 61 be b2 16 44 3e
       0.036474638 -0.17711149 -0.22004887 0.19149283
0000b0 77 f8 35 3e de df a1 3c 09 4b 59 3e 87 38 07 be
       0.17770563 0.019760069 0.2122003 -0.13205157
0000c0 5e b4 37 3b 07 8d ed bd 1e 3c 9e 3d 80 e8 80 be
       0.0028031091 -0.115991645 0.0772631 -0.25177383
0000d0 fc 52 8b 3e 1f 36 de 3d 00 c8 c5 3c 07 53 42 be
       0.2721175 0.108501665 0.024143219 -0.18976985
0000e0 1b c9 f4 3c ef cd 37 3d 66 da ca bd b3 c2 4d 3e
       0.02988105 0.044874128 -0.099049374 0.20093803
0000f0 99 7a cf 3d aa 8e 5b bc 6b 7f 91 bc 1c c9 55 3c
       0.101308055 -0.013400713 -0.017760953 0.0130484365
000100 b6 65 23 3e c0 b7 7c be 21 06 47 be 22 b3 3c 3e
       0.15956768 -0.2467947 -0.19435932 0.18427709
000110 4e 1a a1 3d a6 92 8b be c9 51 c3 bd fe 36 6f 3e
       0.07866345 -0.2726032 -0.09537084 0.23360822
000120 a6 8b 23 3d ee 6c 2a be 01 af 21 3e ce f1 43 be
       0.0399281 -0.16643116 0.15789415 -0.1913521
000130 9e 41 27 3e 2f 24 e1 3d ab 3f c2 3d 81 01 f2 bd
       0.16333625 0.109932296 0.094848 -0.11816693
000140 f3 9b 40 be 75 29 7c 3e df c2 74 3e 22 c4 04 3e
       -0.1880949 0.2462519 0.23902462 0.12965444
000150 e8 3b 1e 3e 02 31 50 bd 2e 3f 57 3e 1f d0 26 3d
       0.1545254 -0.050827987 0.21020195 0.040725823
000160 44 f6 7a be 8b 27 13 3e 65 4d 15 bd 1f 3b 27 3e
       -0.24508005 0.14370553 -0.036450762 0.16331147
000170 58 e4 86 3e ec af 9c 3c 49 d4 23 3c 93 0a 94 be
       0.26346087 0.019126855 0.009999343 -0.28914317

encode_conv3.bias f4 [8]
000000 55 6e 3f be 32 4c 96 bd 45 3a b6 bd a2 ef 50 bd
       -0.18694432 -0.07338752 -0.08897833 -0.05100978
000010 45 e6 0b be 34 b9 26 3e ce b0 b5 3d dc a3 af bd
       -0.1366206 0.16281587 0.088716134 -0.085761756

encode_conv4.weight f4 [8, 8, 3]
000000 85 57 07 bd 35 1f 2b be 92 bb 99 3d 94 f5 35 be
       -0.03304245 -0.16711123 0.07506479 -0.17769462
000010 d1 3a 0d bd 27 d5 37 3e 10 8c 1d bc 6f 9a dc 3d
       -0.03447992 0.17952405 -0.009615913 0.10771643
000020 48 c2 1d 3e 67 2a 18 3e 20 a9 89 bd 89 a2 25 be
       0.15406144 0.14859925 -0.06721711 -0.16175283
000030 16 4a 20 3e 24 5a 5e 3d 58 cb de 3d 8a 25 a9 bc
       0.15653262 0.054285184 0.108786285 -0.020647783
000040 e1 e1 3e 3e 3d 80 d5 bd 9c 40 ac bc f2 c1 03 be
       0.18640853 -0.1042485 -0.021026902 -0.12866953
000050 12 a4 59 3e b1 ce a3 3d 88 54 05 3d 2c 74 a7 bc
       0.21253994 0.07998408 0.03255132 -0.020441137
000060 0d c6 39 be 2d 75 de bd 6f 63 26 3e 41 df 1b be
       -0.18141957 -0.10862193 0.16248868 -0.15221883
000070 be 8d 18 be cd 8e d8 3d 9a af 91 bd 71 2c b8 3d
       -0.1489782 0.10574112 -0.071135715 0.089928515
000080 8f 48 72 3b 28 77 2d 3e cf ad 5a bc c1 e4 9f bd
       0.0036969518 0.16939986 -0.013347103 -0.07807303
000090 dc 3a 35 3e 00 4e ed bd d9 50 e3 3d fa e0 c5 3c
       0.17698234 -0.11587143 0.11099405 0.024155129
0000a0 4b 45 e2 3d e4 52 09 be 18 a7 1b be 54 51 a8 3d
       0.11048373 -0.13410527 -0.1520046 0.08218637
0000b0 af 44 6a bd 6c cc 1a 3e 88 84 15 be 5e 99 41 3e
       -0.057194408 0.15117043 -0.14601338 0.18906161
0000c0 5d 1f ad bd ea 7e 1a be 52 11 27 3e cb 8b 04 3e
       -0.08453248 -0.15087476 0.16315201 0.12943952
0000d0 42 9d 51 be f8 94 36 3e 03 90 19 be 0c 01 40 bd
       -0.20470145 0.17830265 -0.14996342 -0.046876
0000e0 db de 04 3e 3a 10 af 3d 24 27 c7 bd 27 5f 1a 3e
       0.12975638 0.08548017 -0.09724262 0.1507536
0000f0 92 96 ea bd 02 19 1c 3e 10 93 25 3e 48 2b fe bd
       -0.114545 0.15243915 0.16169381 -0.12410599
000100 a1 0a 86 ba 23 75 1a bd fc 27 42 3e f9 a6 38 3e
       -0.0010226556 -0.037709367 0.18960565 0.18032445
000110 f7 a1 b4 bd a1 8e f5 3d ce 05 3a 3e 7f f1 34 bd
       -0.08819955 0.11990095 0.18166277 -0.04417562
000120 4b 04 50 3e 5e 1e ae bd 01 ce 22 3d 74 f8 26 bd
       0.20314138 -0.08501886 0.039747242 -0.040764287
000130 0c 12 df bd b2 5d 36 be ac e1 34 3e 65 c2 b2 3d
       -0.10892114 -0.1780918 0.17664212 0.08728484
000140 41 8a a5 3d 68 c4 5c 3e e9 13 28 3e be 04 2a 3e
       0.080830105 0.21559298 0.16413845 0.16603372
000150 3e ee 85 3e 88 72 c8 bd e6 0c 2b 3e 21 6d 18 3d
       0.26158327 -0.0978747 0.16704139 0.03721345
000160 04 63 41 be 65 23 9a bd 1e 6f 1a 3e 5e 9d 31 bd
       -0.18885428 -0.07526282 0.1508145 -0.043362968
000170 06 b4 a4 bc ed 14 8b bc 03 5b 81 bd 95 25 d6 3d
       -0.020105373 -0.016977752 -0.06316187 0.10456387
000180 a6 54 d9 3d 0d 93 33 bd 8e dd ad 3d a9 1d 2a 3e
       0.106118485 -0.04384141 0.08489524 0.16612877
000190 d6 a0 92 bd 7e e2 31 3e 2b a9 d1 bd 1f e4 3c 3d
       -0.07159583 0.17371556 -0.10237344 0.04611599
0001a0 67 e8 3a 3d 0b a1 b4 bc ee d4 e0 3d cb 1c 96 bc
       0.045631792 -0.022049448 0.10978113 -0.018324276
0001b0 bb 9e 3a 3e 34 54 00 be bd 71 9f bd 50 9c 84 bd
       0.18224613 -0.12532121 -0.07785366 -0.06475127
0001c0 66 5a 46 3e 56 0f 6c bd 73 66 47 be 76 7d 2e bd
       0.19370422 -0.057631813 -0.19472675 -0.042600118
0001d0 86 dc 20 bd f5 58 61 bc 73 fa 0f be 72 96 09 3e
       -0.039272808 -0.013754119 -0.14060383 0.13436297
0001e0 26 32 61 bd 8c e5 41 be 07 ff e2 bd 06 c4 36 3e
       -0.054979466 -0.18935221 -0.11083799 0.17848215
0001f0 f9 ce 01 be 5e fb 12 bc 4a 5f e1 3d e3 ed 02 3e
       -0.1267661 -0.008971063 0.11004503 0.12786059
000200 9a fb 3b 3d be 2c 0c be 7e 61 37 3e 35 14 05 3e
       0.045894243 -0.13688943 0.17908284 0.1299599
000210 e2 cc 17 bd 97 8f 0a 3e cd 92 df bc 5f 66 42 be
       -0.037060626 0.13531338 -0.02729168 -0.18984364
000220 76 2b 0c be 46 88 01 3e 4d 68 3e 3e e9 12 3b bd
       -0.13688454 0.1264964 0.18594475 -0.04567233
000230 bc c3 46 3e 70 db 94 3c 58 87 dd bd 1f d7 b9 bc
       0.19410604 0.018171042 -0.108168304 -0.022685586
000240 dc 35 8f bd d9 e3 34 be 10 f5 34 3e 06 78 dd bd
       -0.06992695 -0.17665042 0.17671609 -0.10813908
000250 2c 18 55 3e 61 cc 9e bd 8d a5 db bd 11 7a 12 be
       0.20810002 -0.07753826 -0.10724936 -0.14304377
000260 56 64 e3 bc 82 b0 11 3e 9d ad b1 3d 12 af 13 3d
       -0.027757805 0.14227489 0.08675692 0.036055632
000270 99 f1 3c 3e 64 5b 3f 3d 0f b7 c2 3d af 0c ac 3d
       0.18451537 0.046718016 0.09507572 0.08400857
000280 97 9e f1 3d 0a ba 63 3e 9c 23 d3 3b 8b 77 cc 3d
       0.11797827 0.22238937 0.006443454 0.099837385
000290 ae 90 ad 3b 08 75 06 3e 0a 8e ea 3d 64 48 22 3d
       0.005296788 0.13130581 0.11452873 0.03961982
0002a0 72 ae 8a 3d 5e 9c 74 3d 9b 14 3b 3d a6 93 13 be
       0.06771554 0.059719436 0.045673948 -0.14411792
0002b0 3d 6d bc 3c d3 d4 6f bc be f4 31 be ba 63 0b 3d
       0.023001308 -0.014638144 -0.17378518 0.034030654
0002c0 e4 82 1c be 27 7a 99 bd 4a 77 51 3e 2c f7 36 3e
       -0.15284306 -0.07494002 0.20455661 0.17867726
0002d0 83 a0 25 3e 0b 95 16 3d 56 6b 14 be 06 99 10 3d
       0.16174512 0.036763232 -0.1449407 0.035302185
0002e0 24 75 3a 3e ae 18 c5 bc e0 2a eb 3d 80 28 b0 bc
       0.18208748 -0.02405962 0.11482787 -0.021503687
0002f0 a2 bc 49 be 7b f8 d2 3d 54 65 c3 3d 81 fa 75 3c
       -0.19700864 0.103013 0.09540811 0.015013338

encode_conv4.bias f4 [8]
000000 aa ae 61 bd 4e 68 3c 3d db 82 a7 3d f5 10 51 3b
       -0.055098213 0.04599791 0.081792556 0.0031900976
000010 de f2 59 3e c8 42 cd 3d 0a 7e 5d 3c dc 79 31 3e
       0.21284053 0.10022503 0.01351882 0.17331642

encode_conv5.weight f4 [16, 8, 3]
000000 b6 0a 9e bd f8 e5 ae 3d a6 d9 4b 3e e4 0d 4e bd
       -0.07716887 0.08539957 0.19907245 -0.050306216
000010 8a b7 95 bd ea 25 27 3e 69 de 43 be e0 dd 62 3d
       -0.07310398 0.16323057 -0.19127811 0.055387378
000020 1e 79 f3 bd 70 9c 36 bc ed 1c 17 be 6e 7b 85 bd
       -0.11888336 -0.011145696 -0.14757128 -0.06517683
000030 a4 cc 2a 3d 40 47 09 3b 84 c4 13 bd c4 ce f1 bd
       0.041699067 0.002094701 -0.036076084 -0.118070155
000040 12 1e 46 3e 52 b7 3c 3e 98 17 4c 3e 00 a8 62 3d
       0.19347408 0.18429306 0.19930875 0.055336
000050 16 ea 1d be 6c d4 06 3e 08 cc 95 bc 20 64 a4 3d
       -0.15421328 0.1316697 -0.018285766 0.0802691
000060 3c c1 50 3e 66 f9 3f be 38 b7 50 be 66 d1 15 3e
       0.20386213 -0.18747482 -0.20382392 0.1463066
000070 08 c4 27 bd 34 29 06 3e 2c ab 85 3d 2a 4d 42 3e
       -0.040958434 0.13101655 0.06526789 0.18974748
000080 34 ec f0 3d 48 6c a1 3d 88 d3 0e be 9c 00 1e be
       0.11763802 0.07881981 -0.1394788 -0.1542992
000090 00 3b 3f 3d 55 bf d9 bd 1c 22 e3 3d a0 7e c1 3d
       0.046687126 -0.10632197 0.1109049 0.0944798
0000a0 ac a8 8c bd 56 1f 0d be 0c 8d c4 3d 7c 4a 65 bd
       -0.06868109 -0.13781485 0.09597215 -0.055979237
0000b0 fc 13 8a 3d 38 5d 4f bd 8c 04 52 bd ac dc 16 3e
       0.06742093 -0.05062601 -0.051273867 0.14732617
0000c0 4b 00 22 be e2 2a 31 3e c8 2a 53 3d ea 1c 0d be
       -0.15820424 0.17301515 0.05155447 -0.13780561
0000d0 40 06 ae 3b f0 df e6 3d bc 1c 1a be 76 f7 11 be
       0.0053108037 0.112731814 -0.15050024 -0.14254555
0000e0 1c 75 22 3e 15 ba 4a be e4 cd 52 bd 5d bf 35 be
       0.15864986 -0.19797547 -0.051465884 -0.1774878
0000f0 e4 a5 ea 3d ec 00 90 3d 8c 27 d2 bd 94 57 23 bd
       0.114574224 0.07031426 -0.10261449 -0.039878443
000100 d8 80 0f 3e 14 a9 a7 3d b8 9d 9e bd a1 ed fe bd
       0.14013994 0.08186546 -0.07744926 -0.12447668
000110 ae 87 3c 3e 94 96 bb 3d 9c 39 1a 3d 98 a8 39 3d
       0.18411133 0.0915958 0.037652597 0.0453268
000120 50 cc 58 bc 16 b5 34 3e f7 3d d1 bd ac 24 8a bd
       -0.013232306 0.17647204 -0.10216897 -0.06745276
000130 28 9e 38 3e 68 3d 84 bd 60 2b 6a bc b0 3e f8 3c
       0.18029082 -0.06457025 -0.014292568 0.03030333
000140 e0 e2 5a 3d 16 cd 34 be 0d 50 b3 bd 3e 1e 86 bd
       0.05343902 -0.17656359 -0.08755503 -0.06548737
000150 cc 8a 88 3d fc 70 16 3e c8 fd dc 3d 01 4f 0f be
       0.066670984 0.14691538 0.107905924 -0.13994981
000160 28 fd 49 be 49 ef 38 be f0 54 6e 3d 1e bc 15 be
       -0.19725478 -0.1806003 0.05818647 -0.14622542
000170 44 68 31 3e 16 98 08 3e 70 19 d6 bc 1b 96 fc bd
       0.1732493 0.13339266 -0.026135176 -0.12333318
000180 fe 23 4e be 60 6d 3e be c8 9b fd 3d 30 cb a9 3d
       -0.20130917 -0.18596411 0.123832285 0.08290708
000190 80 ea 7f 3d 7a bd 21 be f0 a4 09 3d e0 23 5b bd
       0.062479496 -0.15794936 0.033604562 -0.05350101
0001a0 97 2d dd bd 78 9c 89 bc b8 7b 00 3e c0 36 98 bb
       -0.10799711 -0.016798243 0.12547195 -0.0046451986
0001b0 ac 51 a2 3d c8 a3 48 3d b3 43 14 be 4a 82 20 be
       0.07925734 0.04898432 -0.1447895 -0.15674701
0001c0 00 85 59 3b 33 bc b7 bd 18 18 f7 bc 69 53 27 be
       0.0033190846 -0.08971443 -0.030162856 -0.16340412
0001d0 b6 7c c3 bd f8 ea 1c be ec b5 02 bd 0e 5d 33 3e
       -0.09545271 -0.15324008 -0.031911775 0.17515966
0001e0 14 74 f3 bd 18 27 36 3d 98 3d 62 bd bc 07 a7 3d
       -0.118873745 0.044470876 -0.05523452 0.08155772
0001f0 70 d1 ca 3c 74 67 8a bd 44 f8 38 bd 7c fb ec 3d
       0.02475807 -0.06758013 -0.04515864 0.11571404
000200 18 84 8e bc ce 29 4d 3e a8 0c f3 bc 90 e9 d5 bc
       -0.017396972 0.20035478 -0.02966912 -0.026112348
000210 20 8d ed bd 7e bc dc bd 88 9d fc bc 1c b7 ee bd
       -0.11599183 -0.107781395 -0.030836836 -0.11656019
000220 d0 1b 0d be 79 0b 05 be b0 dd 4c be dc 9c b6 bd
       -0.13780141 -0.12992658 -0.20006442 -0.08916637
000230 45 8f b2 bd 78 aa bb 3c 40 87 1a 3c 88 5a 52 3d
       -0.08718733 0.022908434 0.00943166 0.05135587
000240 0c 33 3f be a9 7a e1 bd a0 7e 8c 3c 3f 43 d6 bd
       -0.18671817 -0.11009724 0.017150223 -0.10462045
000250 60 b3 61 3c 60 b2 0d 3d e0 f6 20 bd 40 a2 02 3c
       0.0137756765 0.03459394 -0.03929794 0.007973254
000260 68 c2 96 bc 00 34 7f 3c a8 78 dc 3d 22 95 18 be
       -0.018403247 0.015576363 0.10765201 -0.1490064
000270 94 b5 59 bd 9c c0 85 3d 55 8e a7 bd 1a de ba bd
       -0.053151682 0.06530878 -0.081814446 -0.09124394
000280 be 0f 2d be 9a 4b 13 3e 54 18 f7 bd 30 35 43 3d
       -0.16900536 0.14384308 -0.12065187 0.047658145
000290 07 6a 4c be e2 e5 20 3e e0 11 a5 bc 7a 16 ca bd
       -0.19962321 0.15712693 -0.020150125 -0.09867568
0002a0 d9 84 d1 bd 30 c0 37 3d f6 f3 2c 3e f8 08 1f 3d
       -0.10230417 0.04486102 0.16889939 0.038826913
0002b0 f3 33 20 be 08 1d 4d 3d 38 d8 df 3c 58 6e 21 3d
       -0.15644817 0.050076514 0.02732478 0.039411873
0002c0 3e a2 46 3e 10 71 52 bd a8 29 da bc bc 8b a9 bd
       0.19397828 -0.051377356 -0.026631191 -0.08278605
0002d0 3a c9 38 3e 8c 79 60 bd 38 44 c7 bc 2c 4d 42 bd
       0.18045512 -0.054803416 -0.024324521 -0.047436878
0002e0 38 0a 32 be 1c 3d 65 bd a0 80 4a bc 64 2a 27 be
       -0.1738671 -0.05596648 -0.012359768 -0.16324764
0002f0 2c 2e fb 3d d8 ca 1c bd 00 c2 99 b9 cc 44 10 bd
       0.12264666 -0.038279384 -0.00029326975 -0.03522186
000300 1c 08 4a 3e 58 ad ec bd 40 83 40 3e 64 41 37 3d
       0.19729656 -0.115565 0.18800068 0.044740096
000310 3f f2 14 be 00 98 bf 3d 3a f5 e5 bd 58 2a 01 3e
       -0.14545535 0.093551636 -0.11228414 0.12613809
000320 65 09 2c be 24 77 36 bd d4 fb 9e bd d0 8e da 3d
       -0.16800459 -0.044547215 -0.07762876 0.106717706
000330 4f d4 2d be 20 63 0e 3e b6 25 50 be bb 79 d3 bd
       -0.1697552 0.13905 -0.20326886 -0.103259526
000340 56 ca 44 3e 6c 00 0f be 90 ae 5a bc d0 ae 87 3d
       0.1921781 -0.13965005 -0.013347283 0.0662514
000350 58 25 ed bd 69 ca f8 bd 83 9b 4b be 30 0e 36 be
       -0.115793884 -0.12147982 -0.19883542 -0.1777885
000360 30 23 2e 3c 74 ad 06 3e 64 e4 6e bd 80 9a 86 3a
       0.010628507 0.13152105 -0.05832328 0.0010269433
000370 d8 78 b4 bc 56 8a 1e 3e e0 ac 96 bc fa 9f d9 bd
       -0.022030279 0.15482458 -0.01839298 -0.10626216
000380 92 88 3f 3e db b4 1d be 70 1d 30 3c 08 b6 3d 3e
       0.18704441 -0.15401022 0.010749206 0.1852647
000390 0c a1 ad 3d 2c 42 ee bd 42 df 4b 3e 92 76 20 be
       0.08477983 -0.11633715 0.19909385 -0.15670231
0003a0 dc a9 6c bd a0 48 c4 3c 8c 2a 1f 3e a0 e1 43 be
       -0.057779178 0.023960412 0.15543574 -0.19129038
0003b0 10 41 10 3d 02 cc aa bd 0e 77 ff bd 93 45 e7 bd
       0.0352183 -0.08339693 -0.1247388 -0.11292567
0003c0 a6 8a 28 3e bc 9b 50 be 1c 57 09 3d 40 66 d1 3d
       0.1645914 -0.20371908 0.03353034 0.10224581
0003d0 b8 82 f4 3d c8 31 94 3d b4 dd 16 3e 14 5e fd 3d
       0.11938995 0.072360575 0.1473301 0.123714596
0003e0 dc 76 04 be 68 33 49 3e b8 47 0a bd 50 90 5b 3c
       -0.12935966 0.19648516 -0.033759803 0.013401106
0003f0 18 c7 3a be bc f0 15 be 58 6d 29 3d dc 32 05 bd
       -0.1824001 -0.14642614 0.041364044 -0.032519206

encode_conv5.bias f4 [16]
000000 00 bf a2 bb fc 1b c2 bd f7 d2 0f be 0c 42 92 bd
       -0.0049666166 -0.09477994 -0.1404532 -0.07141504
000010 72 71 30 be d0 ab 53 3d 61 9c 04 be 64 51 83 3d
       -0.17230776 0.051677525 -0.12950279 0.064120084
000020 34 5a f4 3d 20 fd ec bb ca 66 db bd b4 db 20 3d
       0.119312674 -0.0072323233 -0.10712965 0.039272025
000030 a9 82 33 be e8 a4 22 bd 16 48 3d 3e 5a dc 2f be
       -0.17530312 -0.039708048 0.1848453 -0.17173901

encode_conv6.weight f4 [16, 16, 3]
000000 4b 8b a0 bd 2b 24 11 be fe 00 c1 bd d4 89 16 3d
       -0.07839068 -0.14173953 -0.09424017 0.036752537
000010 00 d3 35 3c 20 ba f9 3d ee 9f 94 3d fc f6 d4 3d
       0.01109767 0.12193704 0.07257067 0.10398671
000020 20 10 02 3c 56 6a b9 3d ac ed 4f bd 98 5f b0 3d
       0.007938415 0.09053485 -0.05076377 0.08611983
000030 08 fa b7 bc 53 81 92 bd 20 fa 8d 3b 1e c9 b1 3d
       -0.022458091 -0.07153573 0.0043327957 0.08680938
000040 c8 8b 6b 3d d6 dc 8b bd 4c 8d f0 bd f2 6a 05 be
       0.057506353 -0.068292305 -0.117457 -0.13029078
000050 60 c5 4c 3d b0 b9 51 3d c6 e6 43 bd d8 9b 19 3d
       0.04999292 0.051202476 -0.047827505 0.03750214
000060 ed 3c f8 bd fc 77 73 3d a0 e0 cd bb 88 db 11 3e
       -0.12120996 0.059440598 -0.006282881 0.14243901
000070 e0 32 92 bc 12 04 04 3e b4 00 17 bd 92 58 b4 3d
       -0.017846525 0.12892178 -0.036865905 0.08805956
000080 f0 41 72 bd 58 4c 0f 3d 00 b6 3d 3a 37 a0 98 bd
       -0.059144914 0.034984916 0.0007236898 -0.074524336
000090 e0 62 8d 3d 80 d5 99 3b 70 a5 3f bd e7 ef e9 bd
       0.069036245 0.0046946406 -0.046788633 -0.11422711
0000a0 e8 a4 92 3c c4 9b 5a 3d 6b d6 d2 bd 08 9b 77 3d
       0.017900899 0.053371206 -0.10294803 0.060450584
0000b0 18 41 06 3e 08 35 f8 3d a0 c8 03 3e 3a 7f a6 bd
       0.13110769 0.1211949 0.12869501 -0.08129735
0000c0 28 84 11 bd f0 a7 6f bc d5 94 b5 bd 58 47 10 be
       -0.035526425 -0.014627442 -0.08866278 -0.14089715
0000d0 ec 54 7b bd 68 e9 dd 3d d8 26 b0 bc 40 05 4c 3d
       -0.061360285 0.10835534 -0.021502897 0.049809694
0000e0 44 e1 bd bd 61 85 f4 bd d0 ec e8 3d 94 c6 ed bd
       -0.09271482 -0.119395025 0.113732934 -0.116101414
0000f0 0c f2 9d bd 0c b6 8c 3d 38 d6 7f 3d 1c 9c 5b bd
       -0.077121824 0.0687066 0.062460154 -0.053615674
000100 b8 8d 82 bc 76 ab f8 bd 70 df 6d 3d d4 0c 37 3d
       -0.015936717 -0.121420786 0.058074415 0.04468997
000110 c0 9a cd 3b 81 b9 e7 bd ee 28 0e bd 40 28 64 3b
       0.006274551 -0.11314679 -0.034707002 0.003481403
000120 58 13 91 bc c4 60 a1 3d e4 d9 d8 bc d6 06 12 3e
       -0.01770942 0.07879785 -0.026471086 0.1426042
000130 4e d9 a0 3d 66 55 04 be 6c a7 ec 3d 10 99 61 3d
       0.078539476 -0.12923202 0.11555371 0.055077612
000140 e4 23 92 bd b4 a8 0d bd 2c f5 49 bd bb 8c bf bd
       -0.07135752 -0.034584716 -0.04930608 -0.09353014
000150 a8 79 f2 3d c3 98 a1 bd 44 0e 54 3d f0 5b 23 3c
       0.1183961 -0.07890465 0.051771417 0.00997065
000160 74 f6 ad bc 40 8f de bd c8 0a bb 3d 06 dc 13 bd
       -0.021235682 -0.108671665 0.09132916 -0.036098503
000170 e0 24 ae 3b a8 c3 11 3e d8 ea aa bc a1 c6 13 be
       0.0053144544 0.14234793 -0.020863935 -0.1443124
000180 35 16 13 be 8a 54 f6 bd 12 20 98 bd 80 84 4d 3c
       -0.1436394 -0.12027843 -0.07427992 0.0125437975
000190 f2 03 11 3e d0 e9 92 bc b4 de 42 3d e8 68 c7 3c
       0.14161661 -0.017933756 0.047575668 0.024342015
0001a0 00 00 43 b6 f6 ed f5 bd 04 02 41 bd 0e 0a f7 bd
       -2.9057264e-06 -0.12008278 -0.047121063 -0.12062465
0001b0 a6 05 1d bd 84 c5 d4 bd 98 0a d8 3c f1 4a 0a be
       -0.038335465 -0.103892356 0.026372239 -0.1350515
0001c0 80 d4 f5 3d 52 bf c9 3d ae 6a 5f bd a4 0b ce 3d
       0.12003422 0.098509446 -0.054545097 0.10060814
0001d0 ac 76 9c 3d f3 5a 95 bd 2e 9e 88 3d a4 e3 e2 bc
       0.07639822 -0.07292738 0.066707954 -0.027696438
0001e0 0c a9 b6 bc 84 97 2f 3d be 12 a1 bd c6 cd 84 bd
       -0.022297405 0.042869106 -0.07864903 -0.06484561
0001f0 20 e9 e2 3c ae f6 ab bd c6 43 02 3e b0 a2 8f bd
       0.027699053 -0.0839666 0.12721166 -0.07013452
000200 02 52 90 3d e6 62 0d 3e 00 74 2e 3c 18 b6 79 bd
       0.07046892 0.13807258 0.010647774 -0.060964674
000210 28 03 21 3d c4 36 37 3d c4 9b 98 3d 90 d7 16 3c
       0.03930965 0.044729963 0.07451585 0.009206668
000220 e0 c3 3f bc 7c 8e ec bd a4 28 a8 bd b2 36 ca 3d
       -0.011704415 -0.11550614 -0.082108766 0.098737136
000230 1d 4d e5 bd 47 87 87 bd 1a cd b2 bd 1f 3c 0b be
       -0.11196349 -0.06617599 -0.08730526 -0.13597153
000240 6c 0c ef bd 44 d8 ad 3d 60 cc ef 3c 78 34 5d 3d
       -0.11672291 0.08488515 0.029272258 0.054005116
000250 80 6b fe 3d e0 4f 84 bc 28 8e d0 bd a2 41 b2 3d
       0.12422848 -0.016151369 -0.10183364 0.08703925
000260 f0 4b d0 bd b0 fc d7 bd 80 6a 96 3a 48 a6 a9 bd
       -0.10170734 -0.10546243 0.0011475831 -0.08283669
000270 2e b4 9c 3d 21 ed 8a bd c5 ab 96 bd 62 f9 aa 3d
       0.07651554 -0.0678351 -0.07356981 0.08348347
000280 24 f5 01 bd 48 9b b7 3c 7c 44 a7 bc 76 dd 5e bd
       -0.031727925 0.022412911 -0.020418398 -0.05441042
000290 2a 72 9d 3d fc 5b 6f 3d 0a cf 08 bd 48 e4 4c 3d
       0.07687791 0.058437333 -0.033400573 0.050022393
0002a0 78 f8 f2 3c de f6 93 3d 34 9a 08 3e 9e 43 0f bd
       0.029659495 0.072248206 0.13340074 -0.034976594
0002b0 a2 44 fb bd a5 4d a4 bd 08 e7 bc bc 86 85 8c 3d
       -0.1226895 -0.08022622 -0.023059383 0.06861405
0002c0 c4 a2 06 3e 34 79 f0 3d 60 2d 86 3c a2 8d 84 3d
       0.13148028 0.11741868 0.016379058 0.06472327
0002d0 2e 69 e7 bd a6 40 c1 bd d0 6e fc bd 0e b9 ca 3d
       -0.11299358 -0.09436159 -0.12325823 0.09898578
0002e0 58 ac f1 3d 0e bb 75 bd 24 1c 22 3d 9c a1 b7 bd
       0.1180045 -0.059992842 0.03957762 -0.089663714
0002f0 ac b0 12 3d 30 1d a5 3d d9 63 07 be 58 40 e7 3d
       0.03581302 0.08062208 -0.13221683 0.112915695
000300 ec 4f 0a be 0e 9a 0c be 80 f0 31 bd a9 08 97 bd
       -0.1350705 -0.13730642 -0.04344225 -0.07374699
000310 95 3e a9 bd b0 8c 74 3d 00 07 8b 3c 22 85 80 3d
       -0.0826389 0.059704483 0.016971111 0.06275393
000320 a0 c2 15 3c 3e 3d 09 be 34 f9 a2 bc 98 31 0f bd
       0.0091406405 -0.13402268 -0.01989422 -0.034959406
000330 47 c1 fd bd 28 bf d6 3c 40 a8 1e bc 48 bb f7 3d
       -0.1239038 0.026214197 -0.009683669 0.12096268
000340 88 02 7b 3d 70 7b 5d bd d8 48 b4 3c 9c 29 03 bd
       0.06128171 -0.054072797 0.02200739 -0.032022104
000350 20 de 7b 3c 14 22 01 3e 18 f5 f6 3d ac e2 e6 bc
       0.015372783 0.12610656 0.12058467 -0.028184257
000360 00 48 1b 3a ca 07 11 be 82 0c ac 3d 00 d8 e7 39
       0.00059235096 -0.14163128 0.08400823 0.00044220686
000370 76 5a 95 3d 5b ff c4 bd e1 85 9f bd ea 19 01 be
       0.07292645 -0.09619018 -0.07789207 -0.12607542
000380 00 6b 78 3d 88 a5 a2 bc a6 70 03 3e f6 71 d3 3d
       0.06064892 -0.019854322 0.1283594 0.10324471
000390 14 99 f5 3d d8 23 d4 bc 38 3f 15 3d d8 0e 74 bd
       0.11992088 -0.025895998 0.036437243 -0.05958447
0003a0 c8 fa 96 3c 16 32 af bd 0c a5 7a 3d f3 c5 09 be
       0.018430129 -0.08554475 0.061192557 -0.13454418
0003b0 da 0b 60 bd 54 63 20 bd 80 98 58 3c f6 a5 b0 3d
       -0.054698803 -0.039157227 0.013219953 0.086254045
0003c0 10 fb 72 3c 2c 7a 09 3d 7e f4 11 3e b0 6a 99 3c
       0.014830366 0.033563778 0.14253423 0.01872763
0003d0 4d 75 00 be 50 cf 40 bc d0 c0 ed 3d 48 f2 c4 3c
       -0.12544747 -0.011768177 0.11609042 0.02404131
0003e0 20 1f f6 bd 5a e0 8f 3d 80 94 c8 3c b0 e5 05 3d
       -0.120176554 0.070252135 0.024484873 0.03268975
0003f0 e0 ca 41 3d 7e 75 bd 3d 5c 5d c9 3d 7c 94 27 3d
       0.047312617 0.092509255 0.0983226 0.04091309

encode_conv6.bias f4 [16]
000000 7e f1 d4 bd 08 09 98 bd 72 ec 06 3e 74 7e e4 3d
       -0.103976235 -0.074235976 0.13176134 0.111569315
000010 f0 2f 20 3c 90 fb 10 3c 80 4f 90 bc 1e 98 ca 3d
       0.009777054 0.00884904 -0.017616034 0.09892295
000020 ce 2b ca 3d f0 90 b2 bc fa ca 83 bd 3e 00 59 bd
       0.09871636 -0.021797627 -0.06435199 -0.052978747
000030 c0 ca 6f 3d e9 bb 9a bd 8b 99 02 be 81 58 13 be
       0.058542967 -0.07555372 -0.12753884 -0.1438923

fc1.weight f4 [200, 200]
000000 84 84 22 bc 53 20 4b bd dd eb 08 bd 99 06 74 bd
       -0.0099192895 -0.049591374 -0.03342806 -0.059576605
000010 86 83 4b bd 1d 49 07 bd d0 cd 26 3d 60 26 c0 3c
       -0.049685977 -0.03302871 0.04072362 0.023455799
000020 a5 87 a7 bd d2 4d e5 3d 28 e5 2a 3d b2 a6 6c 3c
       -0.08180169 0.11196484 0.041722447 0.01444404
000030 08 67 bf bc f4 7c 1e be 7a 83 95 3d 36 5e ce bc
       -0.023364559 -0.15477353 0.07300468 -0.025191408
000040 35 88 bd bd 50 7f 88 bd d7 bd ea 3c 80 4c 90 bc
       -0.09254495 -0.06664908 0.028654976 -0.017614603
000050 9a d9 ab bd 71 04 f7 3c cb dc a1 3d 76 0f cb bb
       -0.083911136 0.030153485 0.07903441 -0.0061969114
000060 b8 6d 36 bd ce a1 47 bd 7a 25 c1 3c 35 5b 54 3d
       -0.04453823 -0.048738293 0.02357744 0.051844794
000070 b0 93 11 bd f6 95 fc bc 8a 6c cd bc ac be e7 3c
       -0.035541236 -0.030833226 -0.02507617 0.028289162
000080 10 42 23 bc da 1a 94 bd d0 58 24 be 58 5c 86 3c
       -0.009964481 -0.07231684 -0.16049504 0.016401455
000090 a1 d4 51 bd 5d 84 1d ba 0b 2c 00 be 9f bb f2 3b
       -0.05122817 -0.00060087984 -0.12516801 0.00740762
0000a0 9f fd ee bc 12 81 bd 3c 8c 87 da 3c 1f 2c 93 bd
       -0.02917367 0.023132835 0.026675962 -0.0718615
0000b0 b8 e8 5b bd f8 4b c7 bd e9 58 c2 3d d1 de a4 3a
       -0.053688735 -0.09731287 0.094896145 0.0012578611
0000c0 db 72 47 3d f2 56 d2 bd 50 7b 45 bd 68 70 0d bd
       0.04869352 -0.1027049 -0.048213303 -0.034531027
0000d0 59 67 07 3d c3 88 09 3c 21 1f 2d 3d 29 1b 04 3d
       0.033057544 0.008394423 0.042266015 0.032252464
0000e0 d3 d7 64 3d db a5 41 bd c6 72 0a bd 00 f2 5f bb
       0.05586989 -0.047277313 -0.033800863 -0.0034171343
0000f0 a2 50 94 bd 56 36 0a bd e8 5b 2c 3c 4f a6 19 3d
       -0.07241942 -0.033743225 0.010519959 0.03751212
000100 52 3d 0e bd 73 14 5d bc ea 2c 7f bc 8a f8 38 bd
       -0.03472645 -0.013493645 -0.015574673 -0.0451589
000110 0e af 3f 3d a7 4f 51 bd 3c 4e 66 bd 0e 72 0b 3d
       0.046797805 -0.051101353 -0.056226954 0.034044318
000120 87 89 5b 3c 2a 98 4e 3d 9c 83 a9 bc 29 44 41 bb
       0.013399488 0.050438084 -0.020692639 -0.002949009
000130 d9 b2 66 bc a5 a3 62 ba 0a ef ab 3c 24 3b 62 bd
       -0.014080727 -0.0008645601 0.020988006 -0.055232182
000140 c7 13 d5 3c 53 c6 89 3d fc 92 b6 bc 1b a5 b2 bc
       0.026010407 0.067272805 -0.022286884 -0.021807244
000150 95 ce c6 bc ac f3 e0 bb ca d5 63 bd 9c a0 4c 3d
       -0.024268428 -0.0068649855 -0.055623807 0.049957857
000160 e5 57 cb 3c 78 0b 3b bd 38 e8 8b ba b5 d2 f3 3c
       0.024822185 -0.045665234 -0.0010674065 0.029763559
000170 56 ed 10 bd 8a c8 85 3c 8e 13 73 bd ea ae dc 3c
       -0.03538259 0.016330976 -0.05934482 0.026938874
000180 54 47 45 bd d9 4a 73 bd 06 9e 32 3d 2a 23 ad 3c
       -0.048163727 -0.059397552 0.043607734 0.021134932
000190 3d 2f f4 ba 5e a3 36 3d 97 e1 f5 3c ab bb 2f 3d
       -0.0018629801 0.044589393 0.030014796 0.042903583
0001a0 2b 90 11 bd fc ba 3a 3c bf f4 96 bb 9a e6 be bb
       -0.03553788 0.01139712 -0.0046068127 -0.0058258297
0001b0 c3 f4 1f bd 86 e8 c3 bb 9c 01 78 bd 1d b9 fb 3c
       -0.039051782 -0.0059786467 -0.06054841 0.030727917
0001c0 f5 f8 ef 3c d6 96 4d 3d 02 15 4b bd c4 26 06 bc
       0.029293517 0.050192676 -0.04958058 -0.008187953
0001d0 5e e2 d5 3c a4 20 24 3d 62 f6 15 3c db c2 33 bb
       0.026108917 0.04007019 0.0091529805 -0.0027429375
0001e0 b0 45 7b 3b 80 dc bd ba 85 60 ff bc d9 c2 ad bc
       0.0038341098 -0.001448527 -0.031173954 -0.021211075
0001f0 49 17 5d bd c2 b1 0b bd c5 a2 48 bd 62 a5 09 3c
       -0.053977285 -0.03410507 -0.048983354 0.008401247
000200 3f a1 de 3c 71 64 06 3b 62 5e 9e bc 74 34 63 bd
       0.027176498 0.0020506645 -0.019332115 -0.055469945
000210 61 c9 7f 3d e2 98 33 bd 25 68 57 bd ac cd 3b 3d
       0.06244791 -0.043846972 -0.052589554 0.04585044
000220 ed 3a 1b 3d f4 87 a5 3d 2e 94 87 3d 84 df de 3c
       0.037897993 0.080825716 0.0662006 0.02720619
000230 6a 61 91 3d 77 d9 77 3d a5 6a a2 bc d8 b8 2d 3c
       0.070986584 0.060510125 -0.019826243 0.010603152
000240 8b 0b a0 3d 6c 22 9c bd 75 32 02 3a 72 e3 80 bd
       0.07814702 -0.07623753 0.0004966625 -0.06293382
000250 ee a8 32 bd ec 93 7b bc e5 ed e6 bc 83 54 57 bd
       -0.043618135 -0.015355092 -0.028189609 -0.05257083
000260 76 72 70 3c 2b 7a 8c 3c 86 5f 4d 3c 41 25 ec bc
       0.014675727 0.017148098 0.012534982 -0.028826358
000270 28 a6 09 bd 1a a9 a3 bd 02 b4 1c 3c 25 a4 08 3e
       -0.033605725 -0.07991238 0.009564402 0.13343866
000280 1f 28 0c bd 99 8d 0b 3d ce 73 50 bd ad 32 a7 3d
       -0.03421795 0.034070585 -0.05089169 0.081639625
000290 75 aa 35 3d 6e 9f 9c bd 43 58 64 3c fd ad 14 ba
       0.044352014 -0.07647596 0.013937059 -0.0005671678
0002a0 26 cf 62 bd 29 fe c7 bc 0e 37 2f bd 11 43 1b 3d
       -0.055373333 -0.024413185 -0.042777114 0.037905756
0002b0 a1 67 90 3d aa 91 66 bd a0 14 37 3a d2 81 89 3d
       0.07051016 -0.05629126 0.00069839694 0.067142144
0002c0 23 18 9d bc 65 36 8e 3d 80 89 73 3c 3f f4 bd bc
       -0.019176548 0.06943969 0.0148643255 -0.023187755
0002d0 b1 3e 95 3c 33 62 b9 bc fa f3 a4 bd eb 60 67 3c
       0.01821837 -0.022629833 -0.08054347 0.014122228
0002e0 65 80 2b 3c 18 f4 9a bd 0d aa 98 3c d6 bf 10 3d
       0.010467623 -0.075660884 0.018635774 0.0353392
0002f0 d9 cd 3a bc bb e5 0a 3d e9 a6 03 3d 3e 44 26 bd
       -0.011401617 0.033910494 0.0321416 -0.040592425
000300 b8 a5 82 3c 11 ac 5d bd f6 3d 04 3d 62 7c a7 bb
       0.015948161 -0.054119173 0.032285653 -0.005111263
000310 2d b4 b7 bc a6 e2 db bc b6 15 bf bd c6 7a 81 bc
       -0.022424782 -0.026841473 -0.09330313 -0.015805613
000320 dc e1 b1 bc 5b 66 26 bd 06 8f 8c 3c 75 6d 7c bd
       -0.021714143 -0.040624958 0.017158043 -0.061627824
000330 f0 0c c0 3c de 3f 50 bd ef 29 85 3c ff e0 f3 bc
       0.02344367 -0.05084216 0.016255347 -0.029770372
000340 3f b7 48 3d db 61 6a 3d 81 81 96 3d ad 84 19 3d
       0.049002882 0.05722223 0.0734892 0.037480045
000350 fd ae f5 bb 39 1a e2 3d 49 ff af 3c 2f ca 40 bb
       -0.007497667 0.11040158 0.021484034 -0.0029417386
000360 5e 6e aa bc 4d 7a 80 3d ba ae 7b bc d6 be 5f 3d
       -0.02080458 0.06273327 -0.015361482 0.054625355
000370 a7 52 16 bc 27 a7 7c bd 97 e6 9a bc bb 3c 76 bc
       -0.009174979 -0.061682846 -0.018908782 -0.015029128
000380 3e fb bd 3d 9b 1f 86 3c 9a d5 b2 bc 20 60 8a bd
       0.09276436 0.016372493 -0.021830369 -0.06756616
000390 77 b3 f2 3c 40 bf 27 3d e9 3f 7a bc 14 12 86 bd
       0.029626591 0.040953875 -0.015274026 -0.06546417
0003a0 ea 83 dc 3d 09 4a 3f 3d b0 05 25 3e 08 c4 e4 bc
       0.10767348 0.046701465 0.16115451 -0.027925506
0003b0 9b 50 69 bc 5b 69 02 3d 7b fe fd 3d 0c 13 00 bd
       -0.014240409 0.031838756 0.12402054 -0.031268165
0003c0 f9 47 e3 3d 39 21 8b bd 1f d4 27 bd fa b2 41 3d
       0.11097712 -0.06793446 -0.04097378 0.047289826
0003d0 30 a8 fe 3c 7c 5a d8 bc 19 2a d2 bc 1a df 6a bd
       0.031086057 -0.026410334 -0.02565484 -0.057341672
0003e0 ba ae 60 bc bd a6 08 3e 10 0c a1 3c 07 5b 80 3d
       -0.013713533 0.13344856 0.019659072 0.06267362
0003f0 cc 25 83 3c 3a b4 5f 3d a1 25 85 bd 80 62 70 3d
       0.016009234 0.054615237 -0.06501318 0.058687687

fc1.bias f4 [200]
000000 b1 06 09 bd 5a 3f 93 3d c4 ba 9a 3c cd e1 92 3d
       -0.033453647 0.07189818 0.018887885 0.07171974
000010 cd c6 6c 3d 63 a9 6a 3d 9b 87 c2 3c 62 ab ad bb
       0.05780678 0.057290446 0.023746302 -0.0052999714
000020 6b 1f 63 3a 40 2b 11 3b c2 ab 5c 3c a0 69 42 bc
       0.00086640444 0.0022151023 0.013468685 -0.011866003
000030 9f 55 28 3d 2f 09 7b 3d 7c 83 9d bd 33 05 38 3d
       0.04109728 0.061288055 -0.07691094 0.044926833
000040 66 a8 d4 bc 0d e7 9a bd f7 22 16 3d 7c fb 00 3d
       -0.025959205 -0.07563601 0.03665444 0.031489834
000050 dc 66 a3 3c b4 36 0f bd 66 5f d6 bb a8 54 a5 bd
       0.019946508 -0.03496428 -0.006542134 -0.080727875
000060 cf 70 0e bc 9e 90 38 bd 16 c5 59 bd b1 f9 01 3d
       -0.008693888 -0.045059793 -0.05316647 0.031732265
000070 9c 72 4d bd b3 29 a0 3d c6 0d b6 3c 94 c6 78 3d
       -0.05015813 0.078204535 0.022223365 0.060736254
000080 3d d9 f5 3c bc 71 72 ba 6d 2d 68 bd 36 c0 6f 3d
       0.030010814 -0.0009248515 -0.056683946 0.058532916
000090 0a 89 86 bd 6a 66 89 3c b1 69 4b bd 2b f8 63 3a
       -0.06569107 0.016772468 -0.049661342 0.00086963427
0000a0 c5 fc 12 3a dd 37 9e bd ea 08 29 3d 39 d6 b2 bc
       0.00056071236 -0.07725499 0.041268267 -0.021830665
0000b0 6d aa da ba 36 de b6 bc 8f 3c d0 bc 15 db 56 3d
       -0.0016682871 -0.022322755 -0.025419502 0.052455027
0000c0 ec 5d 6f 3b 9a 99 bd bc b7 4e f2 3c a0 5f 59 bd
       0.0036524488 -0.023144532 0.02957855 -0.05306971
0000d0 7c 9d e1 bc db ed 2f 3d 10 c5 29 3d 13 c1 f6 bc
       -0.027540915 0.042951446 0.0414477 -0.030121362
0000e0 b8 0b 2d bd 51 a4 a0 bd 1f b4 ee ba ea 32 89 bd
       -0.042247504 -0.07843841 -0.0018211639 -0.06699164
0000f0 22 08 19 3d f3 2d 67 bd a0 d9 b9 3c 01 b3 74 bb
       0.03736127 -0.056440305 0.02268678 -0.003733814
000100 34 3c a0 3c 3e af de 3c ae b8 2b 3c ad ce 8e bd
       0.019559957 0.027183171 0.010481043 -0.06973014
000110 0e dd 3b 3d 78 df 2e 3c 75 f3 18 bd 8b f0 1d bb
       0.04586511 0.010673396 -0.037341554 -0.0024099674
000120 9a 96 62 bb 33 93 c6 3c bc d2 9f 3d 71 8e c4 3c
       -0.0034574629 0.024240112 0.07803866 0.023993703
000130 c7 62 f3 bc c6 1c 11 3d 6d 87 6e bd c8 41 c6 3c
       -0.029710187 0.03542783 -0.05823462 0.024201289
000140 ef 2d 98 3c 12 b1 78 bc 9f fc 79 3d d7 16 b8 3c
       0.01857659 -0.015178936 0.061031934 0.022471828
000150 00 49 82 bc 2e 53 97 3d fe c9 d5 bc 91 92 5a bc
       -0.01590395 0.07388912 -0.026097294 -0.013340608
000160 c8 34 60 bd 0c f7 80 3d f3 85 9a 3b 4e 10 06 3c
       -0.054737836 0.062971205 0.004715675 0.008182598
000170 42 be b4 3c ae c2 4e bd 9c dc 74 bd ce 5d 04 bc
       0.022063378 -0.05047863 -0.059780702 -0.008079005
000180 70 dd 0a 3d 6d 68 81 bb 64 25 17 bd d0 92 f7 3c
       0.033902586 -0.003949216 -0.036900893 0.030221373
000190 93 93 4a 3d a0 0f 7c bd ee 8a 8e bc 32 ac 8e 3c
       0.049457144 -0.06153834 -0.017400231 0.017416093
0001a0 b7 e5 68 bc 74 b1 48 3d 93 81 90 bd 37 8e 5c bd
       -0.014214925 0.048997357 -0.07055964 -0.053846564
0001b0 50 20 02 3d 2a 83 00 3d 3f fa 7b 3d 25 2a f4 3c
       0.031769097 0.031375088 0.06151795 0.029805252
0001c0 88 d5 33 3d 95 d5 8e bd d4 6b e4 ba e8 20 2c 3d
       0.04390481 -0.06974331 -0.0017427155 0.04202357
0001d0 a3 a6 45 bb c0 ae d8 3c ab 80 55 3d 0e 1c 5e 3c
       -0.0030159138 0.026450515 0.05212466 0.013556493
0001e0 b3 17 5d bd 53 db 83 3d b1 d8 08 bd 2d ea a9 3b
       -0.05397768 0.06438317 -0.033409778 0.0051853866
0001f0 6c bf 60 bd f1 c3 67 bc 10 5c cd 3b dc 41 e1 3c
       -0.054870054 -0.014145837 0.006267078 0.027497225
000200 60 58 f4 bc 9c 65 8d bc 14 e8 0d bc d1 18 97 bc
       -0.029827297 -0.017260365 -0.008661289 -0.01844445
000210 a0 5a 53 bc c8 28 99 3b c8 85 79 bc 64 1b 01 3d
       -0.012900025 0.004674051 -0.01522965 0.031520262
000220 94 a2 3a b8 c6 72 7f bd 8f 3b 17 3d 98 22 5a bd
       -4.449727e-05 -0.062365316 0.036922034 -0.053255647
000230 4d c2 2d bc f6 10 03 bd 10 29 61 3d dd 10 73 3d
       -0.010605407 -0.031998597 0.0549708 0.059342254
000240 a2 2d c2 bc fe 2b 05 3d bf 12 a8 3c d6 1b 95 bd
       -0.0237034 0.032512657 0.020516751 -0.072807
000250 ee 88 8d bd 6a c7 61 bd c2 98 1d bc a9 c5 88 3d
       -0.06910883 -0.055121817 -0.00961894 0.06678326
000260 87 2a 2f 3c 12 49 99 bd 40 30 97 3d 6e 71 21 bd
       0.010691292 -0.0748464 0.0738225 -0.039414816
000270 da 34 b1 3c ec 5b 97 3c 11 62 9f 3c 15 8f 30 bc
       0.021631647 0.018476449 0.019455941 -0.010776301
000280 19 0f 92 3d eb 8e a5 bc 90 1a 20 3d 37 e1 5d 3d
       0.07131786 -0.02020975 0.039087832 0.05416986
000290 02 f4 49 bd 7d 8e 35 3d 50 56 6a bc 99 5e 82 bd
       -0.04930497 0.04432534 -0.014302805 -0.06365699
0002a0 38 a3 86 3d d6 b4 50 bc 41 f8 0c 3d 67 1c 2a bd
       0.065741 -0.012738427 0.03441644 -0.041530993
0002b0 00 fc 2d 3d a7 a8 95 bc 4c 2a d6 bc dc 46 63 3c
       0.042476654 -0.018268896 -0.026143216 0.013871875
0002c0 ca cc 57 3d 7e 87 49 3d d9 7f ba 3c 4c 93 a4 3c
       0.052685536 0.04920148 0.02276604 0.020089768
0002d0 6b ce f7 bc a0 82 3a bd 68 a2 01 bc ae d6 be bc
       -0.030249795 -0.04553473 -0.007912256 -0.023295727
0002e0 12 4c 5d 3c 91 b9 53 3d 49 b1 04 bd 6e eb fa 3c
       0.013506906 0.05169064 -0.032395635 0.03062984
0002f0 83 13 2e 3d a9 08 4a bc 5b 0b 13 bd 2c dc 07 3d
       0.042499077 -0.012331166 -0.0358995 0.033168957
000300 ec 79 85 3c a4 72 ae b9 a5 69 df bc d5 63 19 bc
       0.016293488 -0.0003327328 -0.027272055 -0.009362181
000310 d7 d2 0f 3d 56 6c 50 bd 9a 61 2e 3d 70 92 14 bd
       0.035113182 -0.050884567 0.04257355 -0.036272466

fc3.weight f4 [100, 200]
000000 cf b6 f9 3c a1 33 9c bc 4a 32 21 3d 07 4e 60 3d
       0.030482678 -0.019067587 0.0393546 0.054761913
000010 81 d8 cd 3c f4 68 df bc 92 5f 3b 3d 24 7b d2 bb
       0.025127651 -0.027271725 0.04574544 -0.006423371
000020 11 4f a7 3c e8 72 6f 3d 86 12 ef 3c b6 77 00 3d
       0.020423444 0.058459193 0.029183637 0.031364165
000030 d4 d3 44 bd e3 a7 93 3b af 85 a7 3d 47 47 a3 3d
       -0.048053578 0.0045060976 0.08179795 0.079725794
000040 b4 e8 85 bd 88 cf 6b bd a1 97 11 3c 02 6a 4f 3d
       -0.06538525 -0.057570964 0.008886249 0.050638206
000050 fa 57 f6 bc 44 f0 1a be 21 df f7 bd ab 8f 47 bd
       -0.030071247 -0.15130717 -0.12103105 -0.048720997
000060 ed 41 80 bd 85 f5 8c bd fd e9 bf bd 34 15 51 bb
       -0.06262574 -0.06882767 -0.093708016 -0.0031903507
000070 65 df 53 3d 22 05 93 3d 38 88 1a bd 2b 16 45 bd
       0.051726718 0.071787134 -0.037727565 -0.048116844
000080 75 5c dc bc 31 a2 ce bc a1 44 cb bc 48 e2 48 bd
       -0.026899556 -0.025223823 -0.024812998 -0.049043924
000090 84 35 53 3c 85 e1 9b bc ad c8 a1 3c f6 a8 90 bd
       0.012891177 -0.019028435 0.01974901 -0.07063477
0000a0 2a 37 8e 3d 64 3e e7 3d 66 bf 85 3c 56 a4 b6 bb
       0.069441155 0.11291197 0.016326617 -0.0055737896
0000b0 91 44 97 3c af a6 0e bc 74 4f c2 3c 84 fe 75 bb
       0.018465312 -0.008706733 0.023719527 -0.0037535736
0000c0 fd 7d 50 3d c2 e7 9d bc d8 cc 24 bc 9f bf b2 3d
       0.0509014 -0.01927555 -0.010058604 0.08727955
0000d0 22 ee 99 3c d3 ed 8a bc fc db a9 3d e4 50 0f bd
       0.018790308 -0.016959107 0.08293912 -0.034989253
0000e0 9b 1f 50 bd a3 21 e0 3c 0a b2 3f 3c 14 9b 96 3b
       -0.05081139 0.02735979 0.011700163 0.0045961235
0000f0 3c 19 9a bc 19 c8 9d bd 60 f8 78 3d 7f dd 17 3d
       -0.01881086 -0.07704181 0.060783744 0.03707647
000100 d2 7a 0e bd 32 a3 90 3c 43 10 17 bd 10 11 95 3d
       -0.0347851 0.017655943 -0.036880743 0.07278645
000110 ae e4 95 3c 4d ea af 3d 3a 94 50 3d e3 a0 b7 3c
       0.01829752 0.08589611 0.05092261 0.022415584
000120 47 24 f8 3c d5 aa 41 bd eb 44 99 3c a9 18 bf bc
       0.030290736 -0.04728206 0.01870962 -0.023327189
000130 42 cf bd bc 3d 6a c0 bb 67 12 e2 3d cc 39 92 bc
       -0.023170117 -0.0058720396 0.11038666 -0.017849825
000140 38 bf 9e 3d ef ba 83 3c be 49 6d 3d 9d 08 24 3d
       0.07751316 0.016080348 0.057931654 0.040047277
000150 fa 68 4a bd ba a1 a7 3d 6c 35 ce 3b d8 00 16 bd
       -0.04941652 0.08185144 0.0062929895 -0.0366219
000160 3c f9 45 3d 1c d2 c3 3c d4 de 80 bc 4d eb 22 3d
       0.04833339 0.023903899 -0.015731253 0.03977518
000170 b6 8b 29 bd 73 73 6b bd 51 ba 8a bd 37 c2 93 3d
       -0.041393004 -0.057483148 -0.06773818 0.07214778
000180 56 c7 0b 3c 2d 64 9f 3d f9 67 58 3d 86 e4 50 bc
       0.008531412 0.07782779 0.05283353 -0.012749797
000190 bf 18 58 3d 4b 8d 73 3d 62 fd 11 3d 6f bd f8 bc
       0.052757975 0.05946092 0.035642035 -0.030363766
0001a0 1d a2 69 bd 72 89 2a bd 2a 52 42 bd 2c 75 b9 3c
       -0.05703937 -0.041634984 -0.04744164 0.02263888
0001b0 b4 53 b2 bc ec 8f 6e bd 0e 9e 0a 3d c3 f5 6f bb
       -0.021768428 -0.058242723 0.03384214 -0.0036614991
0001c0 14 6b 72 bd 35 f4 30 bd ea 68 b7 3d fe 0e 96 3d
       -0.05918415 -0.043201644 0.08955558 0.07327078
0001d0 1a 7e a6 3d aa 51 c0 bb 48 31 3f bd d5 05 91 3c
       0.08129521 -0.00586911 -0.046677858 0.017702976
0001e0 e3 43 22 3b 99 f8 8d 3d d8 77 42 bd b7 84 9b bd
       0.0024759702 0.06932182 -0.047477573 -0.07593673
0001f0 25 01 fc 3c c5 0d f8 bd c6 13 3a bd 1c a7 bc 3c
       0.030762265 -0.12112001 -0.045429014 0.023028903
000200 38 1f 65 bd 58 1a 44 3d bd dc 7e 3d 0b aa 8a 3d
       -0.055937976 0.047876686 0.06222223 0.06770714
000210 27 1a 47 bc 76 4a bf bc 44 11 f4 3c 00 33 2f bd
       -0.012152231 -0.023350935 0.02979339 -0.042773247
000220 fe 28 68 bd 7f cf 08 bd 88 e8 d4 3b 4b 13 4f bd
       -0.05667972 -0.03340101 0.0064974464 -0.05055551
000230 29 67 49 3d 3c 07 22 bd bc ee a4 3d 7b 78 8e bd
       0.049170647 -0.03955768 0.080533475 -0.069565736
000240 bd 24 fe bc cb 51 6d bc a8 ac 93 bb 3e c2 9b bc
       -0.031023378 -0.014484833 -0.004506666 -0.01901352
000250 c7 91 62 3c 1e 12 90 3d 0e 7c ae 3d dd c0 05 3d
       0.013828701 0.070347056 0.08519755 0.032654632
000260 bd 52 6f 3d 25 e0 51 3d b1 3b ba 3d 1a 7b bc 3c
       0.058428515 0.05123915 0.090934165 0.023007918
000270 a2 9e 4b 3d a6 df 8d 3d 17 bc a9 bc 11 5e 00 3e
       0.04971183 0.06927423 -0.020719571 0.12535883
000280 1c 06 d2 3b c7 e2 03 3d b9 3c 4a bd 6f 0e 0a 3d
       0.0064094197 0.032198694 -0.049374316 0.03370517
000290 ee 63 1a 3d 0e 51 f2 3c a3 5e 5e 3d 9e 89 ac 3d
       0.037692957 0.029579666 0.05428947 0.08424686
0002a0 53 50 f6 3b 4d e5 94 3d da 32 04 3e 3e c9 21 be
       0.0075168996 0.07270298 0.12910023 -0.15799424
0002b0 4d b9 16 bd 66 19 1a 3d a0 f3 af 3d 03 4a 26 3d
       -0.03679781 0.037621878 0.0859139 0.040597927
0002c0 68 40 0a bd ec 4e 03 3c b0 ae 3d 3d dc 79 8f 3d
       -0.03375283 0.008014422 0.046309173 0.07005665
0002d0 06 b5 2f bd 4e c1 be 3c ad 19 db 3c d5 90 a6 bb
       -0.042897247 0.023285534 0.026745642 -0.0050831833
0002e0 09 e9 35 bd fa 76 07 3d 54 3d ee 3d c6 d1 09 3d
       -0.044411693 0.03307245 0.11632791 0.03364732
0002f0 20 e8 26 bc 05 11 4d bd 47 02 9e 3c bd 20 eb bc
       -0.010187179 -0.05006506 0.019288195 -0.028702134
000300 38 51 d8 3c 38 57 97 3d eb c4 09 bc 86 83 1e bd
       0.026405916 0.073896825 -0.008408765 -0.03869965
000310 b1 44 57 3d bf 38 8a 3b 53 ac d7 3c 80 ad 81 3c
       0.052555744 0.0042181904 0.026327288 0.015829802
000320 b6 4e 89 bd fd e9 91 3d c8 4a 1d bc ac 5b 17 bd
       -0.06704466 0.07124708 -0.009600349 -0.03695266
000330 55 f1 00 bd bc 9a 14 bc 5e e6 b2 3d 5b 45 16 3d
       -0.031480152 -0.009070095 0.08735345 0.036687236
000340 e7 30 2c 3d 53 70 6d bd 5a 49 b7 3d e3 49 06 3c
       0.042038824 -0.05796845 0.089495376 0.008196327
000350 0d c0 7b 3d ce e5 a8 3d d1 a6 53 3c 34 a5 8e 39
       0.06146245 0.08246957 0.01291819 0.00027207437
000360 db a8 2c bd 6b e7 20 bd 24 3c ac 3d ec bc 45 3c
       -0.04215322 -0.039283197 0.084099084 0.012068968
000370 e7 4e ab 3c 7d 86 4b be 2a 90 b2 bd e5 2b 99 bd
       0.020911647 -0.19875522 -0.08718903 -0.07479075
000380 fe 91 47 bd 3f a2 a0 bd 7a 21 f0 bd 45 d5 25 3d
       -0.048723213 -0.07843446 -0.11725135 0.040486593
000390 65 a1 8d 3d 89 01 07 3d 3f 39 0f bd 95 50 b6 3d
       0.06915549 0.03296045 -0.034966704 0.089020886
0003a0 96 d2 bf bd b2 7f ee 3b 28 9b 97 3d 8c b0 90 3d
       -0.09366338 0.007278406 0.074026406 0.07064924
0003b0 a5 6a ba 3d 53 87 32 bd 4c 71 18 bd 22 e0 28 bd
       0.09102372 -0.043586086 -0.037217423 -0.041229375
0003c0 3c b2 af 3d 89 cc 0a ba f2 56 4f 3d f4 b3 44 3d
       0.085789174 -0.00052947603 0.050620027 0.04802318
0003d0 00 43 e3 bc 48 01 85 bd 5c 4e 4d 3c b8 04 7a 3d
       -0.027741909 -0.06494385 0.012530889 0.061039656
0003e0 cf 04 5a 3d 6a b1 90 bc 5b d4 20 bd ad 16 12 3c
       0.053227242 -0.017662723 -0.039265018 0.008916539
0003f0 58 48 06 bd fa 0e 43 bd 6e 86 b1 3d 41 46 da 3b
       -0.032783836 -0.047621705 0.086682186 0.006661207
