training_model/wandb/run-20200624_230624-ftckn29y/fir_conv6_3.pt (torch_old, 256892 bytes, 16 tensors)

encode_conv1.weight f4 [4, 12, 3]
000000 1a a3 28 bd 43 c2 07 3e 9b 47 38 3e ad 13 a9 3e
       -0.04117117 0.13257699 0.17996065 0.33022824
000010 6c ef 35 3e fc 91 ba be 43 47 a3 3c 36 95 08 bd
       0.17767113 -0.36439502 0.019931441 -0.033345424
000020 d7 82 0d bd 8e 75 76 3e 7d 7f 99 bd 51 0f a2 bc
       -0.034548607 0.24068281 -0.074950196 -0.019782694
000030 a9 9b b3 bc f8 70 9d 3c 60 3e 66 3e 5a 52 dc 3d
       -0.02192481 0.019218907 0.22484732 0.10757895
000040 ee 09 3d 3e 2c c8 b5 bd 42 93 c5 bd 3f dd 35 3e
       0.18460819 -0.088760704 -0.09647228 0.1776018
000050 3f cd 0d 3e f9 34 09 3e e0 3a 55 bd a2 a4 1f 3d
       0.13847826 0.13399114 -0.0520581 0.038975365
000060 5f 01 32 be 45 c2 65 3e 65 9e d0 3e 17 8d 1b 3e
       -0.17383336 0.22437389 0.40745845 0.1519054
000070 06 c8 6d 3e 33 62 cd bd e1 a5 c7 bd 68 d6 5a 3d
       0.23220834 -0.10028496 -0.09748436 0.05342713
000080 41 c8 dc 3d 7e 5e b3 bd 7b d3 2b 3e de ba 65 3d
       0.10780383 -0.08758257 0.16779892 0.056086414
000090 4a 9f 83 bd 53 b1 18 bd b9 df 8d bd 1a df ec bd
       -0.06426866 -0.037278485 -0.06927437 -0.11565991
0000a0 a5 84 a9 3d 39 60 d8 3e 9f 71 0a be 5b 4b 01 bc
       0.08277253 0.42260912 -0.13519906 -0.007891501
0000b0 5e 1c 92 bd a3 80 3f be 66 01 19 3e 84 2a 9f 3d
       -0.07134317 -0.18701415 0.1494194 0.07771781
0000c0 17 be 1f be 44 79 0e 3e f1 fd 17 be 6b 19 92 be
       -0.15599857 0.13913447 -0.14842965 -0.28535017
0000d0 2f 43 fd 3d 5c 7d 0d 3e ab 5f 47 be a0 e5 bf bd
       0.1236633 0.13817352 -0.19470088 -0.09369969
0000e0 60 60 0a 3e 4f b1 a9 3d 7d cb 54 3e 0a 2c da bd
       0.13513327 0.08285772 0.2078075 -0.10652931
0000f0 00 b5 9a 3d 39 09 cb bc f2 34 15 bd 12 ec f3 bd
       0.07554054 -0.024784671 -0.036427446 -0.11910261
000100 f9 d2 2f 3e fe 8d 5b 3d 5c 7a 31 be 86 56 9f 3d
       0.17170323 0.05360221 -0.17331833 0.07780175
000110 0c ad ea bb b5 a9 83 bd bf d9 3b bd 2d d7 e3 3d
       -0.007161742 -0.064288534 -0.045861956 0.11125026
000120 30 d0 8a 3c 89 c3 ce 3d c1 fc 14 3e bf fe 84 3e
       0.016944975 0.10095889 0.14549543 0.25975606
000130 f9 54 69 3d 0e 58 0c be 5c d5 0b 3e 80 8e 44 3d
       0.056965802 -0.13705465 0.13655609 0.04798746
000140 e8 a6 93 3d 53 e8 e2 3d 94 01 8c bd e6 06 97 3d
       0.07209569 0.110794686 -0.068362385 0.07374363
000150 44 0e 8a be be 2e 32 3e 4e 8c 19 3e b3 b1 7e 3d
       -0.2696401 0.17400643 0.14994928 0.062181186
000160 ac 2f 90 bd 2a 3a 0d 3d c0 5e 2b be 2f 5d 02 3e
       -0.07040343 0.034479298 -0.16735363 0.12730859
000170 26 1a 07 be ec 95 07 3d e6 6c d9 bd 84 2d 6e 3e
       -0.13193569 0.03310196 -0.10616474 0.2325955
000180 63 91 74 be 69 0d a2 3d ac 55 fd 3d 1b df 25 3e
       -0.23883586 0.07912714 0.12369856 0.16198389
000190 e8 db 91 3e b4 dd 16 be 63 f3 20 3e d6 cf 2e 3e
       0.28488088 -0.1473301 0.15717845 0.1707147
0001a0 5e 99 ec bd a7 2d 67 bc 92 da 20 3e 34 b6 4e 3c
       -0.1155269 -0.014110005 0.15708378 0.012616683
0001b0 7f 62 be 3e 34 08 94 3d 50 54 2c 3e 6d 0e bc be
       0.37184522 0.07228127 0.16829038 -0.36729756
0001c0 40 60 fb bd 73 c1 a0 bd df fc eb bc 05 23 23 3e
       -0.122742176 -0.078493975 -0.028807102 0.15931328
0001d0 c5 fa 3d 3d 3e 6a c1 3c e3 ce 14 be 50 81 86 3d
       0.04638173 0.02361023 -0.14532046 0.06567633
0001e0 bc 6d 8f 3e 1f 05 3d 3e ad a5 81 bd cf d7 92 bd
       0.28013408 0.18458985 -0.06330428 -0.071700685
0001f0 0b dd 2f be 48 4f 0a bd ef 70 67 3d 9e 4a c1 bd
       -0.17174165 -0.033767015 0.056504186 -0.0943806
000200 cc ad 04 3d 30 eb e9 3d b3 45 15 3e 93 30 ba bd
       0.032392308 0.114218116 0.1457737 -0.09091296
000210 42 6a 43 3e f1 a7 28 3e 2b 8f b7 bc c5 a3 39 be
       0.19083503 0.16470315 -0.022407135 -0.1812888
000220 44 64 c0 be 33 71 74 bd 02 f2 28 bd 23 17 4b 3d
       -0.37576497 -0.059678268 -0.04124642 0.04958261
000230 02 46 62 3d 21 77 46 3e da c5 8b 3d 3c a9 b3 bc
       0.055242546 0.19381382 0.068248466 -0.021931283

encode_conv1.bias f4 [4]
000000 2b 8a 9d be c2 13 95 bd 9a fa bc bc ed b4 ad be
       -0.30769476 -0.07279159 -0.023068715 -0.33927098

encode_conv2.weight f4 [4, 4, 3]
000000 4c 8a 68 bd 06 99 d3 3e 97 4e 52 3e fd ae 0c bf
       -0.056772515 0.41327685 0.20537792 -0.5495451
000010 1c a5 d1 3d 6f 43 44 bf d7 1f 3d 3e c4 33 11 3c
       0.1023657 -0.76665395 0.18469177 0.00886244
000020 0e 49 d2 3e 55 56 21 3f f3 72 3a 3f d1 53 51 3e
       0.4107136 0.6302236 0.7283165 0.2044213
000030 eb d7 00 bd 1f 6d 2a 3d 28 79 17 3e 9e ce 1e 3f
       -0.031455915 0.041607972 0.14792311 0.6203402
000040 6c 0f 2a 3f 2c a7 9b 3e 3c 84 39 3e b7 e4 6e be
       0.6642978 0.3040098 0.1811685 -0.23329435
000050 66 9a 21 3e 87 0e 86 bf 60 88 87 bf f1 81 59 bf
       0.15781555 -1.0473183 -1.0588493 -0.849639
000060 74 02 ba be 94 12 e1 be 4d 8d 19 be 27 37 f3 3b
       -0.36329997 -0.43959486 -0.14995308 0.007422346
000070 9d 3f c4 3e d6 51 8a 3e 63 e4 05 3d 40 f7 b3 be
       0.38329783 0.2701556 0.03268851 -0.35149574
000080 42 dd 34 bb 91 c5 7b 3d d5 0b 81 bf 32 61 cf bf
       -0.00275977 0.06146771 -1.0081736 -1.6201537
000090 14 f9 c9 3e 3d 87 11 3e f1 25 b2 3e 8c 3a 4c bf
       0.39447844 0.14211746 0.34794572 -0.79776835
0000a0 ac 2b 32 bf 5d 6e 38 bf 7a 39 aa 3e b0 a9 6f 3e
       -0.6959789 -0.720434 0.33246976 0.23404574
0000b0 93 5d 3e 3e ea 84 95 bf da 0e 15 bf a0 4a 9e be
       0.18590383 -1.1681187 -0.58225787 -0.3091631

encode_conv2.bias f4 [4]
000000 1f 73 39 3e b7 b5 10 be f0 8f 2f bd 90 a7 f6 be
       0.18110321 -0.14131819 -0.04286188 -0.48174715

encode_conv3.weight f4 [8, 4, 3]
000000 12 bb ca 3e 04 93 23 3d 42 3b 27 be 87 99 1d be
       0.39595848 0.039935127 -0.16331199 -0.15390597
000010 3e 3d 13 bf e2 97 29 3e 1c a0 9c bc b7 63 4a 3e
       -0.57515323 0.16561845 -0.019119315 0.197646
000020 f7 4e a1 be 9f 59 a8 3d 88 7e 6e be fb 49 7a be
       -0.31505558 0.08220219 -0.23290455 -0.24442284
000030 2f 1a 1c be 29 a4 20 3e 80 a8 08 3e f1 65 13 3f
       -0.15244363 0.15687622 0.13345528 0.57577425
000040 6a cb b2 3e d2 92 79 3f b0 42 12 3f f8 fc c2 3d
       0.34920818 0.97489655 0.5713301 0.09520906
000050 df ce 9a 3e af 37 44 bf 0f 22 8f bd eb 18 de 3e
       0.30235955 -0.76647466 -0.06988918 0.43378386
000060 69 21 dc bd eb 54 bd bd 64 1b a0 be a1 7c 80 be
       -0.1074856 -0.092447124 -0.31270897 -0.25095084
000070 0d e0 4c be 9c 47 07 bf 40 eb ce 3c b4 13 31 3e
       -0.20007344 -0.5284364 0.02525866 0.17292672
000080 7d 04 1f 3e 45 bf 93 be 47 33 0b bf 6e 70 9f be
       0.15529056 -0.28856865 -0.5437512 -0.31140465
000090 e9 3f 05 be 32 90 5d 3e a9 c5 41 be 93 7f 41 bf
       -0.13012661 0.21637037 -0.18923058 -0.7558529
0000a0 85 16 14 bf ff b7 6f be ae c6 d6 bc 9c 13 f0 3d
       -0.5784686 -0.23410033 -0.026217785 0.1172249
0000b0 3b 3a cd bd df a3 96 ba 49 c2 a5 3e ed 0c f3 3e
       -0.10020872 -0.0011492929 0.3237479 0.474708
0000c0 17 d0 a1 3e 07 7c 46 3e 15 45 7c bd 1d b1 22 bf
       0.31604072 0.1938325 -0.06158932 -0.63551503
0000d0 94 01 95 be 85 15 6e be 60 76 de ba eb 30 2b 3d
       -0.29102767 -0.23250397 -0.0016972534 0.0417947
0000e0 f8 b5 c5 be f1 92 e2 3e 52 12 e2 3e 07 d8 8c bd
       -0.38615394 0.44252732 0.44154602 -0.068771414
0000f0 8b ac 65 3e 94 4a 99 3d 0e 10 43 3e 96 af 10 3d
       0.22429101 0.07484928 0.19049093 0.0353237
000100 3e b3 e9 be aa e9 13 3d fd e7 07 be fc 86 12 bf
       -0.45644563 0.03611151 -0.1327209 -0.5723722
000110 ad 9a 92 be e6 63 89 3e dc f4 04 3f ef 30 34 bd
       -0.28633633 0.2683403 0.51936126 -0.04399198
000120 0b 05 a9 bd 9a 86 7f 3e a5 9e 76 3c f7 5d 30 be
       -0.08252915 0.2495369 0.015052472 -0.17223345
000130 a3 44 1b 3f 73 3f e8 3c 13 99 0f 3e ed ed 55 bd
       0.60651606 0.028350567 0.14023237 -0.052228857
000140 ee 7d 93 bd 4d 8e b2 be 52 f0 ba 3d e4 c5 d8 3e
       -0.072017536 -0.34874192 0.09127869 0.4233848
000150 7f b1 79 bd d6 90 b6 be b5 da 84 bb e4 f5 00 3e
       -0.06096029 -0.35657376 -0.004054392 0.125938
000160 4a 3a 69 be ff ad 16 be 13 60 3d 3e 9d bd 9f 3d
       -0.22776142 -0.14714812 0.1849368 0.07799838
000170 17 10 8b bd a7 e6 fe 3e a4 c6 a5 3e 95 d3 c5 3d
       -0.06790178 0.4978535 0.32378113 0.09659497

encode_conv3.bias f4 [8]
000000 3c 2d 82 3e ff 7b ff 3d fe da 97 be cd 18 08 3d
       0.25425136 0.12474822 -0.29659265 0.033226777
000010 27 10 d5 be df f0 a4 be b4 6d 40 3e d7 4c af 3d
       -0.41613886 -0.3221502 0.18791848 0.08559578

encode_conv4.weight f4 [8, 8, 3]
000000 54 16 c9 be de bf 0d be dd 8c ee bd 58 e4 be 3e
       -0.39274848 -0.13842723 -0.11647961 0.37283587
000010 a0 5c 8e be 5d c7 67 3c 95 46 6a be 97 c3 ec bd
       -0.27805042 0.014146653 -0.22878487 -0.11560743
000020 d6 02 b9 bd df 95 58 3e 9a bc f5 3b 68 79 0c 3e
       -0.09033744 0.21150921 0.0074992897 0.13718188
000030 84 19 d9 3c 20 aa f1 3e ad de d8 bc 66 77 16 3e
       0.026501425 0.47200108 -0.026473368 0.14693984
000040 50 7f b7 3e c9 7c 8a 3d 82 44 6a 3e 14 53 c1 bc
       0.3583932 0.06762082 0.22877696 -0.023599185
000050 f9 d4 10 3e ac c9 b9 bd d4 34 c3 3e ed ec aa 3e
       0.14143743 -0.09071669 0.38126242 0.33383885
000060 74 6f 72 bf b9 30 23 bf bd 52 10 be c9 69 24 3f
       -0.94701314 -0.6374622 -0.14094062 0.64223915
000070 96 b3 5a be 43 e1 19 bd da 34 8f be c9 8f 15 bc
       -0.21357569 -0.037568342 -0.2797001 -0.009128519
000080 b8 2e 07 be 98 1c 83 3e 54 a7 95 3e eb d6 d9 3d
       -0.13201416 0.25607753 0.29229224 0.106366955
000090 e3 c3 6e 3d b6 f9 fa 3e 4c 41 d4 3d e5 9a 3a 3e
       0.05829228 0.4901864 0.10364017 0.1822315
0000a0 4c d8 cc 3e 99 d8 a0 3e 0f 2b 88 3e 54 9e 8d bc
       0.4000877 0.3141525 0.2659535 -0.01728741
0000b0 b0 69 a1 be 1c 21 1a 3e d7 87 06 3f 41 ff ee 3e
       -0.31525946 0.15051693 0.52551025 0.46679118
0000c0 05 a0 29 be 37 72 9c 3e 11 cd cc 3d 63 a8 df 3d
       -0.16564949 0.3055589 0.10000051 0.10920789
0000d0 72 6d 01 be 1e 71 fd be 22 21 24 3c 9c 01 ac bd
       -0.12639406 -0.49500364 0.010017665 -0.083987445
0000e0 81 fc bb 3b 58 60 96 3d 1f 22 ad 3e 8c 2d 69 be
       0.005736888 0.07342595 0.33815095 -0.22771281
0000f0 5c 73 fd 3e b7 39 cf 3e 7b 23 b5 3d 1a f7 f3 3e
       0.49502075 0.4047372 0.08844658 0.4764946
000100 71 8f 14 3e ca ad ac 3e 2d d9 57 be e6 07 38 bb
       0.14507844 0.3372634 -0.2107894 -0.002808088
000110 ea b3 11 be d7 01 1a bb 16 a2 4e 3d ab 5e a0 be
       -0.14228788 -0.0023499632 0.050447546 -0.31322226
000120 df 15 73 be 21 a4 7e be d5 fa c0 bc 32 40 09 be
       -0.23738812 -0.24867298 -0.023557106 -0.13403395
000130 bd 56 67 3e b6 0a 2f be 4f cd 51 3e ae 0c 0f 3e
       0.22591682 -0.1709393 0.20488475 0.1396968
000140 84 80 f4 3c 83 28 c1 3d 4a be 09 3e b8 c2 6a 3e
       0.029846437 0.09431555 0.13451496 0.22925842
000150 ea 36 1d 3e ff f8 c3 3c 75 9f 97 3e fd c8 2d 3c
       0.1535298 0.023922442 0.29613844 0.010607001
000160 94 1e a5 bc 91 73 82 3e af 57 c9 3d 13 06 cf bd
       -0.020156182 0.25478795 0.098311774 -0.101085804
000170 1c b7 6e 3d 9b 40 43 3e 60 6b 12 be 36 6b 75 3d
       0.058280095 0.19067614 -0.14298773 0.059916697
000180 57 4a 73 be e9 f2 83 bd a8 e1 88 bd 52 54 1e 3e
       -0.23758827 -0.06442816 -0.066836655 0.15461853
000190 26 33 1e 3f 1e f5 a4 bc d5 87 17 be a1 24 89 be
       0.61796796 -0.020136412 -0.1479791 -0.26785758
0001a0 b5 68 72 be 46 11 0d 3e 7d b5 1a 3e ca 8f 04 3e
       -0.23672755 0.1377612 0.15108295 0.12945476
0001b0 8f af ef be 27 c8 51 be 87 b1 c7 3e e9 e4 bf be
       -0.46813628 -0.20486508 0.3900263 -0.37479332
0001c0 3c cb 7c 3e 2e 92 5e 3e 17 8b ac 3e dd e8 9a 3e
       0.24686903 0.2173545 0.33699867 0.30255786
0001d0 0e 67 1e 3e 19 5c 73 be 54 82 8c be 58 bc 43 3d
       0.15469 -0.23765601 -0.27443182 0.04778704
0001e0 5d da 4f bc 6f b9 98 3e c8 bf 92 be d6 eb 3a 3d
       -0.012686339 0.29828975 -0.28661942 0.045635067
0001f0 22 c3 61 bd 0c b7 5e be d0 a5 2e 3e 1f 78 95 3c
       -0.055117734 -0.21749514 0.1705544 0.018245755
000200 cf 09 35 3e d1 d3 47 3e 29 fd e0 bd 2a 2e 53 3d
       0.17679523 0.19514395 -0.109857865 0.051557697
000210 31 65 d6 3e 3c 66 5e 3e ab 61 6b 3e df 93 cb 3e
       0.41874078 0.21718687 0.22986476 0.39761254
000220 17 ac 7d 3e ef 9f e4 3c c5 ff cf 3b bb 28 8f bd
       0.24772678 0.027908294 0.006347629 -0.069901906
000230 78 8a bb bb ec de c8 3d 28 ee 0b 3e 54 54 0c bd
       -0.005723294 0.09808144 0.13665068 -0.03426011
000240 34 c9 3f be ab 82 82 bd 62 d3 b4 3e eb 60 80 3d
       -0.18729097 -0.06372579 0.35317522 0.06268486
000250 b4 b9 e7 3d 4f f6 14 3e c0 3a ff 3d 2d b6 45 bd
       0.11314717 0.14547084 0.124623775 -0.04826944
000260 2f 32 fd 3d cc a2 73 3d 6b 70 5d 3e 64 05 8b 3b
       0.123630874 0.059481427 0.21624915 0.004242586
000270 13 d8 71 bd 16 cd 6e 3e 1d 8c 22 3e a0 69 58 3d
       -0.059043955 0.23320422 0.15873761 0.052835107
000280 d8 45 ef bd 8a 29 08 3e 9f 23 fd bc 01 e6 5b 3e
       -0.116832435 0.13297096 -0.030900775 0.21474458
000290 41 ba 4d 3d 2d f3 cb be 75 d4 a6 be 5e aa 8e be
       0.050226454 -0.39833966 -0.32583967 -0.27864355
0002a0 7d dc 90 bd e1 98 c5 bd 39 d2 c2 bd 12 2c ba bd
       -0.07073305 -0.096483 -0.09512753 -0.09090437
0002b0 b2 44 b4 bd 15 3c 54 3e 58 4f 71 3e bc 59 97 bd
       -0.08802165 0.20726044 0.23565423 -0.07390162
0002c0 03 0e 10 3e d6 27 d9 3e 7c 8c 34 bf d2 4c d5 be
       0.14067845 0.42413205 -0.7052686 -0.41660172
0002d0 d6 18 3c 3e be fd 4b 3e d0 51 9a be b5 2c e3 bc
       0.18368849 0.19921014 -0.30140543 -0.027731279
0002e0 47 22 40 be 9c db 13 be 40 02 5b 3e a8 07 d3 be
       -0.18763076 -0.14439243 0.21387577 -0.4121678
0002f0 33 73 6d bd 3b 0d 8e be cb 6b 9d be 1b 08 e7 3d
       -0.05797119 -0.2774447 -0.30746302 0.11280843

encode_conv4.bias f4 [8]
000000 21 e4 ec bc ca 78 5a be b2 9a 5f 3d f3 1d d4 39
       -0.028917374 -0.2133514 0.05459089 0.00040458105
000010 0f 9c 51 3d 9e 2a 8c 3d f4 72 ea 3d 8e 9a 29 be
       0.05117422 0.06844066 0.11447707 -0.16562864

encode_conv5.weight f4 [16, 8, 3]
000000 c5 e1 cc 3c 4b 93 d4 b8 b7 1c e8 3d 6b bd 35 3d
       0.025009999 -0.00010136383 0.11333602 0.044370096
000010 60 d9 10 3e 5d 94 c3 3d d7 10 34 3e 1d 38 c2 bd
       0.14145422 0.095497824 0.17584549 -0.09483359
000020 be c8 09 3b 7f a1 fb 3d 7c 64 77 3e 55 c8 ed bc
       0.0021024193 0.12286662 0.24159425 -0.02902619
000030 a1 2d 3e be df 8c 35 3e 73 81 1a be f0 9b 62 bd
       -0.18572094 0.1772952 -0.15088443 -0.055324495
000040 9d 1e a5 bd e2 df 57 3e e2 a8 bd bc 91 c7 48 3e
       -0.0806248 0.21081498 -0.023151819 0.19607379
000050 13 a9 fb bd 8d 9c 5e be 40 14 02 3d 2f 48 35 be
       -0.12288108 -0.21739407 0.031757593 -0.17703317
000060 5c 9b 73 3d 60 5d 26 be ee d8 0b ba 93 c0 5a bb
       0.059474334 -0.16246557 -0.0005334754 -0.0033378943
000070 84 2b aa bd a8 be 00 3e ec 23 4d 3e 18 20 f5 3d
       -0.08309081 0.1257273 0.20033234 0.11969012
000080 42 bb 15 be db 99 82 bd cf f4 95 bd ee ed fc 3d
       -0.14622214 -0.06377002 -0.07322084 0.12350069
000090 e6 ab 8f 3e 4d 78 2b 3e 1a 95 b1 bd 25 d4 81 3e
       0.28060836 0.1674511 -0.08671017 0.25357166
0000a0 31 56 0b be d9 f9 79 3e 2c 67 16 be b7 43 d6 3c
       -0.13607098 0.24411716 -0.14687794 0.026155336
0000b0 c9 52 1e 3e c5 da 2a be 19 a5 18 bd 9d 23 3f 3e
       0.15461268 -0.16685016 -0.037266824 0.18665929
0000c0 60 56 9f be 4f 8f c0 3d 08 8d cc be d0 38 3c be
       -0.31120586 0.09402334 -0.39951348 -0.18381047
0000d0 6f a5 98 bc ec 81 64 bf 62 2f a1 3d f8 40 84 3e
       -0.018633572 -0.89260745 0.07870366 0.25830817
0000e0 9c 09 d0 bd 7b f5 f6 bc d8 4e 46 3e 4f be 18 3e
       -0.10158083 -0.030146351 0.19366014 0.14916347
0000f0 12 d0 89 3e 26 0e 0d bf cc 65 87 be f3 1e 16 be
       0.26916558 -0.55099714 -0.26444852 -0.14660244
000100 db 96 b0 3d 37 31 0a be 17 10 be 3d 87 93 23 3e
       0.086225234 -0.13495336 0.09280413 0.15974246
000110 ec e6 7f be 67 15 12 be 4a 3f d4 3e 24 aa 7b be
       -0.24990433 -0.14265977 0.41454536 -0.24576622
000120 2f 7d bf 3c d0 53 7d 3e 14 c5 21 3e c4 05 8a 3e
       0.023375122 0.24739003 0.15797836 0.26957524
000130 29 de d3 3e 0d 81 8b 3e ce 7c 6c be cf 5b d0 bd
       0.41380432 0.27246895 -0.23094484 -0.10173761
000140 8b 31 38 3e a5 a0 eb 3d 8b 50 4f bd 4d f9 6b 3d
       0.17987649 0.1150525 -0.05061392 0.0576108
000150 a2 64 8e 3e 36 94 cf be fb 41 42 be 32 e5 9f 3d
       0.27811152 -0.40542763 -0.18970482 0.078073874
000160 0b fb aa 3c 08 1e 48 be dc 81 48 be 20 8c 5e bc
       0.02087166 -0.19542706 -0.19580787 -0.013583213
000170 44 55 97 bd 0e ca 23 be 6c fa 8c bc a7 74 f2 bb
       -0.0738931 -0.15995046 -0.017209254 -0.00739916
000180 9c ae c2 3d b4 a9 bf 3d 33 df 7a bd 93 c7 1d be
       0.0950596 0.0935854 -0.061248016 -0.15408163
000190 84 29 e5 3d 9d f0 69 bd 47 14 7c 3c 00 d0 22 3e
       0.11189559 -0.057114232 0.015385694 0.15899658
0001a0 1c 40 7a 3e fd 98 b4 3d 08 f2 ea bc 76 4d 12 be
       0.24438518 0.08818243 -0.028679863 -0.14287362
0001b0 47 ed 0f be 82 70 0f be 65 f4 32 bd 7e 70 09 3d
       -0.14055358 -0.14007762 -0.043690104 0.033554547
0001c0 2c 4b 5f 3c 67 b3 0d 3e 97 04 d3 3d 01 86 d5 3d
       0.013628762 0.13837968 0.1030361 0.1042595
0001d0 9e 54 32 3e 9e eb 5d 3c 53 da ba bd cf 3a 1d be
       0.17415091 0.013544945 -0.09123673 -0.15354465
0001e0 c6 36 68 3e 29 d9 25 bd 7f 96 87 be 0b 6e 2d 3e
       0.22677144 -0.040490303 -0.26482007 0.1693651
0001f0 14 91 1e be 7e 8f df be 92 97 74 be de 4c d1 3d
       -0.1548503 -0.43664163 -0.23885944 0.102197394
000200 da 68 26 be 4e 05 7b be a8 7d 36 be 28 21 1c bd
       -0.16250935 -0.24513742 -0.17821372 -0.038117558
000210 a3 a2 7e 3e 91 cc 4b 3d af 15 e1 3d 51 96 cb 3b
       0.24866728 0.049755637 0.10990464 0.0062129875
000220 ec 82 2c be 45 cf 1e be a3 a1 81 be 3a d8 39 be
       -0.16846818 -0.15508755 -0.25318632 -0.1814889
000230 0a c0 0d be 2e eb 36 3d 67 43 b0 bd 80 c6 62 3c
       -0.13842788 0.04465788 -0.08606606 0.013841271
000240 f1 af 6f be 6e af 2b be 0f 41 1b be 35 5d 0d 3d
       -0.2340696 -0.1676614 -0.15161537 0.034512717
000250 5f 51 b9 3d 8c c7 12 3e 81 5f f1 bd 66 66 63 3d
       0.090487234 0.14333934 -0.11785794 0.055517577
000260 6a 4e 49 be 97 07 16 bb 67 7e 53 be 60 e2 4b bd
       -0.19658819 -0.0022892707 -0.20653687 -0.049776435
000270 bb 71 48 be 03 e4 4b 3e 5c 60 25 be 4b 24 00 3e
       -0.19574635 0.19911198 -0.1615004 0.12513845
000280 5e 90 b0 bd 1b 6f 18 3e 47 5b 1f be ab c9 85 bd
       -0.08621286 0.14886133 -0.15562163 -0.06532606
000290 4b 4b bf 3d 9c 51 3e 3d ed 94 10 3d 3c fc 2e be
       0.09340533 0.046464548 0.035298277 -0.17088407
0002a0 93 f1 43 3d da 4b ae be af 00 50 be 23 6a 4d be
       0.047837805 -0.34042245 -0.20312761 -0.20060019
0002b0 19 fc 1f bd f1 67 ec bc 3f ed fe bd 9e c3 3c be
       -0.03905878 -0.028858157 -0.12447595 -0.18433997
0002c0 cd c5 6a 3c ab a3 9a bc 5a 7a e5 3d bf ae fa 3d
       0.014329386 -0.018876871 0.11204977 0.122403614
0002d0 f2 9e 20 3e d4 32 75 3d ec ba c4 bd 8c f7 96 3d
       0.15685633 0.059862927 -0.09605965 0.073714346
0002e0 e3 8e b4 bd 77 80 f0 bd aa 43 bd bd 5b da cf bd
       -0.08816316 -0.11743253 -0.092414215 -0.1014907
0002f0 4c 93 c4 3d 16 88 5c bc 8b 35 77 be 14 20 10 be
       0.09598407 -0.01346018 -0.24141519 -0.14074737
000300 1d 5c e7 3d f6 bd 90 3e cd d1 5e be 11 76 0a 3e
       0.11296866 0.2826993 -0.2175972 0.13521601
000310 da d7 dc 3e 4c db 46 bc 1e 0b a4 3e 75 9d b3 3e
       0.43133432 -0.012137245 0.32039732 0.35081068
000320 38 b7 cf 3e b4 68 b7 3e 7c df 8f 3e 6f dd 91 3d
       0.40569472 0.3582207 0.28100193 0.07122313
000330 b9 8f 94 3e 22 67 b2 be 3d 5c c5 bd 67 ef 0e 3e
       0.29015902 -0.3484431 -0.09636734 0.13958512
000340 7f 5d 16 3e 41 66 96 3e 1d f7 b0 3e 86 d3 9f 3d
       0.14684103 0.2937489 0.34563532 0.07804017
000350 36 c5 8d bd 97 b0 72 3e 56 e8 64 3d 04 02 ea be
       -0.069223806 0.23700176 0.055885635 -0.45704663
000360 d2 78 f8 3c fd 20 02 be 03 83 c6 3e 9c 84 45 3e
       0.03033105 -0.12707897 0.3877183 0.19288868
000370 d0 48 15 bd 0c ab 72 3e 1a da 6f 3d 1e 99 26 be
       -0.036446393 0.23698062 0.058557607 -0.16269347
000380 70 79 29 3e b3 2e fa bc 4f b1 8f bd 06 cb 21 3d
       0.16550231 -0.030539846 -0.07016241 0.03950026
000390 ac 0e 68 3e 08 8c 9c 3e fd ab 3e be 5b bc d7 bd
       0.22661847 0.30575585 -0.18620296 -0.10533973
0003a0 c4 2a 28 be 09 ec b8 bd ee 2d 65 3e 47 a0 b6 bd
       -0.16422564 -0.09029395 0.22380802 -0.08917289
0003b0 a0 74 dd 3d d5 4a 81 be dd a3 a7 3d 2b a6 36 3e
       0.1081326 -0.25252405 0.08185551 0.17836826
0003c0 4c 98 dd 3e d4 d1 8d 3d 29 52 36 be 3a 83 f6 3e
       0.43280256 0.06924787 -0.17804779 0.48146993
0003d0 26 9b d2 be 68 17 1c be 9e 42 79 3e 14 09 78 3e
       -0.41133994 -0.15243304 0.24341819 0.24222213
0003e0 ce b0 6c bd ca 69 62 3d c4 6b 23 be 40 4f f0 bc
       -0.0577858 0.05527667 -0.15959078 -0.029334664
0003f0 a7 9a 2a bd 8a 16 45 bf 7d 91 2c 3d d3 ae 5f 3d
       -0.041651394 -0.76987517 0.042130936 0.054610085

encode_conv5.bias f4 [16]
000000 d8 10 38 3d ee 7a b2 3d f5 70 a3 be 0c 97 fa 3d
       0.04493794 0.08714853 -0.31922117 0.12235841
000010 d1 dc bf 3d 3d 1c 31 3e 67 2a 77 be 60 7a 56 be
       0.09368289 0.17295928 -0.24137269 -0.2094512
000020 ce 0b b1 be 34 f9 7b 3e d1 cb 98 3d 1e 97 23 3e
       -0.3457932 0.24606782 0.0746075 0.15975615
000030 0f d6 ab 3d c7 92 41 be 10 c5 74 bd bf 1e 63 be
       0.08390438 -0.18903647 -0.059758246 -0.22179697

encode_conv6.weight f4 [16, 16, 3]
000000 6d e2 16 3e ae 4a 79 3d 22 2c 01 3e 02 dd 28 3e
       0.14734812 0.060862236 0.12614492 0.16490558
000010 1c aa aa 3d b2 ff 2f 3d 3d 16 f5 bd a3 be a4 be
       0.08333227 0.04296846 -0.11967132 -0.32176694
000020 54 06 96 bd c5 02 12 b9 4a 63 20 3e 57 92 cf 3d
       -0.07325426 -0.00013924677 0.15662876 0.10135334
000030 b2 0f d6 bc 5b d0 37 3d ba 3b 43 3d 05 85 27 3e
       -0.026130531 0.044876438 0.04766438 0.16359337
000040 aa d2 99 3d 5c 72 03 3e 44 57 bb bc bb f1 20 be
       0.07510884 0.12836593 -0.02286876 -0.15717213
000050 72 76 3e be 33 43 1a bd ec 26 b2 bd b2 e3 c8 bd
       -0.18599871 -0.037661742 -0.0869883 -0.098090544
000060 dd 4a 51 be 33 e4 a8 3d 6c 3c 18 bc db 24 6a 3e
       -0.20438714 0.082466505 -0.009291749 0.22865622
000070 b9 0d f4 bd fd 4a 08 3d 76 57 19 bd 8e 07 0c bd
       -0.1191668 0.03327464 -0.037436925 -0.034186892
000080 03 b1 7e 3e 57 22 b2 bc 7d 6c d4 bd 11 af 23 be
       0.24872212 -0.02174489 -0.10372255 -0.15984751
000090 a5 94 06 be 29 13 f6 be 1b 55 2d 3d c6 c3 81 3d
       -0.13142641 -0.48061493 0.04231749 0.06336169
0000a0 3e 55 02 be 6a b4 f0 bc f4 73 d3 3e c2 6b bb bd
       -0.1272783 -0.029382903 0.41299403 -0.091514125
0000b0 f4 2b b1 be cb 6e d1 bd b0 c8 3e 3c 3e e0 05 be
       -0.34603846 -0.1022621 0.011644527 -0.13073823
0000c0 de 5e f9 3d be 60 55 3d 93 0a 05 be 89 84 fc bd
       0.121762976 0.052094214 -0.12992315 -0.123299666
0000d0 a1 52 10 3e bc ea c0 bd 6e 98 4d 3e 19 6e 25 be
       0.1409402 -0.09419772 0.20077679 -0.1615528
0000e0 c1 76 50 be 95 ea 0d be 6a b6 53 3e a9 7e 08 3e
       -0.20357801 -0.13859017 0.20675054 0.13329567
0000f0 18 d1 37 3d 19 8b 69 3c 82 23 85 3d 0d ba 8b bd
       0.04487714 0.014254355 0.06500913 -0.06822596
000100 58 99 cb 3d 3a 1c 31 3d 8d 09 d2 3d 16 05 de bc
       0.099413574 0.04323981 0.10255728 -0.027102035
000110 bf fe e3 bd 57 38 49 bd 84 98 91 bd 16 2b 01 be
       -0.11132573 -0.049125995 -0.07109168 -0.12614092
000120 21 07 5a be 69 45 c4 3b b6 11 04 3e 98 ab 1c bd
       -0.21291782 0.0059897196 0.12897381 -0.038249582
000130 b7 dd 61 3e 98 8b 8a 3c 14 b3 0c 3e ce 84 16 3e
       0.22057234 0.016912267 0.13740188 0.14699098
000140 f7 95 66 bd 61 38 cb 3d ce 40 0d be 97 65 be 3d
       -0.05629536 0.09922863 -0.13794252 0.092967205
000150 24 e8 1d be 52 f9 40 3e 3e 01 e9 be ba d6 03 bd
       -0.15420586 0.18845108 -0.4550876 -0.0321872
000160 05 0c b3 bd 9a 4e c0 bd 0e 00 ed 3b ee ec 19 be
       -0.08742527 -0.09389992 0.0072326725 -0.15031788
000170 53 42 0f be 1c c5 b1 3e fa 58 b2 3e 0d fc a2 3d
       -0.13990144 0.34720695 0.3483351 0.07958231
000180 4a c7 7d 3d fc 89 e4 3d dd 8d 09 3e 80 a8 26 3e
       0.061957635 0.11159131 0.13433023 0.16275215
000190 af 77 42 3d ba 7a 49 bd ff 8f 7d 3e 35 b9 be bc
       0.04747742 -0.049189307 0.24761961 -0.023281673
0001a0 ad e0 f3 bd 08 c1 d3 3d d7 2d 29 3e fb 37 88 bd
       -0.11908088 0.10339552 0.16521393 -0.066513024
0001b0 87 eb 0b 3d c4 05 63 bb 7b bc cd bb cd 9e a9 3a
       0.034160163 -0.0034640888 -0.006278572 0.0012941003
0001c0 91 52 0a bc 2f f4 a1 3c 1b 43 b6 3d 00 66 0b 3b
       -0.008442537 0.019769756 0.08899518 0.0021270514
0001d0 fb ff 20 be 5c 4b 8f 3d ae 66 80 3c e5 6e 08 be
       -0.15722649 0.069967955 0.015673961 -0.13323553
0001e0 ba 39 a2 bc 25 b8 ed bc 28 b1 25 be e5 21 87 bd
       -0.019802917 -0.029018471 -0.16180861 -0.06598262
0001f0 54 33 bc 3d 95 ea 8f 3d c4 d9 81 be a7 1a 39 3e
       0.091894776 0.07027165 -0.25361454 0.18076573
000200 2c 7e a8 3d b2 11 2e 3e 0c 55 96 be 51 d3 0c 3d
       0.082271904 0.16998938 -0.2936176 0.034381215
000210 4a 59 dc be 58 06 0e be 7e ba b7 3e a2 c3 3a be
       -0.43036872 -0.13869607 0.3588447 -0.1823869
000220 db 98 78 bd 00 d0 47 3d 54 d6 06 be eb bb ca be
       -0.06069265 0.04878235 -0.13167697 -0.39596495
000230 72 2b e6 bc e9 ab 0c 3d 45 0e 76 3e df 47 5d bd
       -0.028096888 0.034343634 0.24028881 -0.05402362
000240 21 f5 4f bf 7b f6 ae 3d 19 d8 d1 bd 3a 5a 7c 3b
       -0.8123341 0.08543106 -0.102462955 0.0038505928
000250 a7 22 33 bd c0 20 90 bd 49 aa 10 3f a3 52 48 be
       -0.04373422 -0.070374966 0.56509835 -0.19562773
000260 6f bb 99 bf 45 27 5d be 4b 9d 6f be db 3b c7 bc
       -1.2010325 -0.21597011 -0.23399846 -0.024320533
000270 4d 96 bf 3d eb 60 55 3a 65 11 a1 3b cb 50 5a be
       0.093548395 0.0008139747 0.0049154037 -0.21319883
000280 de 4d f6 bd f8 ef 3f be bc 74 4c bc 06 e5 a4 3b
       -0.12026571 -0.18743885 -0.0124790035 0.0050321845
000290 d1 de 8b bd 86 c5 1b 3d 1b 91 86 bd 3d 82 e0 3c
       -0.06829608 0.03803017 -0.065706454 0.027405852
0002a0 11 2a a9 3c 30 68 ae bd 86 7b e8 3d b4 64 4f bf
       0.020649942 -0.08515966 0.11351685 -0.81013036
0002b0 df 29 89 3c 67 db 9d bd 06 23 26 3e e3 5a 09 be
       0.016743599 -0.07707863 0.16224298 -0.13413577
0002c0 61 77 f7 3c b7 fd 0f 3e 48 0f 6f bf 7e 26 df 3d
       0.030208291 0.14061628 -0.9338269 0.10896014
0002d0 06 1d 05 bf 76 28 84 be 75 4c 38 bf bd d6 15 3e
       -0.5199741 -0.2581212 -0.71991664 0.14632697
0002e0 7b 72 86 bd 09 58 37 3d 5f 76 ef bd 2c 24 b0 bf
       -0.06564804 0.04476169 -0.11692499 -1.3761039
0002f0 18 d4 32 be d2 d5 c4 3e 21 67 e9 bd 2a a8 a9 3d
       -0.1746372 0.38444382 -0.113966234 0.08284028
000300 9f 3d 64 bd 2b 4f 0e 3d 75 6d e0 bc ae fe b3 3d
       -0.05572283 0.03474347 -0.027395943 0.08788811
000310 62 62 a4 bd f5 55 f9 3d 6c b9 4b be 7a de 22 bf
       -0.080265775 0.12174598 -0.19894952 -0.6362072
000320 e6 e8 52 bc 77 89 09 be 7b 33 0a 3e 08 8b 7f 3d
       -0.01287291 -0.13431345 0.134962 0.06238845
000330 df a1 f7 bd cc 56 02 3e 28 78 79 3b 80 eb 31 bd
       -0.12091421 0.12728423 0.0038066003 -0.04343748
000340 c2 b1 10 bc 2e 2d 6b 3c 12 f1 df 3d 6a 42 0a be
       -0.008831443 0.014354033 0.109346524 -0.13501897
000350 d1 6f bf bd 81 8a 6c 3d ac 82 c1 bd 95 6c c3 bd
       -0.09347499 0.057749275 -0.09448752 -0.09542195
000360 4a 91 cb be 6c 1c 5e 3c 4c 44 99 3e 27 1d 53 3e
       -0.39759284 0.013556581 0.2993492 0.2061659
000370 e0 64 de 3d 58 c1 41 bd 42 dc 94 3c 6f f6 35 be
       0.10859084 -0.047303528 0.018171433 -0.17769788
000380 13 c5 04 3d ed 41 a7 bd 68 39 53 3d 86 cc 12 3e
       0.032414507 -0.08166871 0.05156842 0.14335832
000390 1a f1 a4 3d 05 88 61 3d 15 94 97 3d fc 29 d6 bd
       0.08053799 0.05506136 0.07401291 -0.10457227
0003a0 22 5a 2a be 2d d0 b6 3d af 0f db 3e b6 53 35 3e
       -0.16635945 0.08926425 0.42785403 0.17707714
0003b0 ea da 85 be 89 c6 37 be 4e 50 25 3e bb 2a 30 be
       -0.2614358 -0.17946829 0.16143915 -0.172038
0003c0 55 03 46 be 23 2e f3 3d 7e e7 78 3d 32 83 14 bd
       -0.19337209 0.11874034 0.060767643 -0.03625793
0003d0 ac 2a 9f bd d9 c7 79 3d f1 a0 81 bd 6c 13 33 bc
       -0.07771811 0.060981605 -0.06329525 -0.0109299235
0003e0 f8 0e 0b 3c 76 3d 24 be 37 09 be bd db f7 88 3c
       0.008487456 -0.1603907 -0.09279101 0.01671975
0003f0 e3 9f 01 3e 0b 3b e4 3d d9 65 27 bb a8 64 b4 bd
       0.12658648 0.11144074 -0.0025542884 -0.08808261

encode_conv6.bias f4 [16]
000000 e7 d5 fd 3d 6c bd 78 3d 03 83 47 3e ee e5 a0 3d
       0.12394314 0.06072752 0.19483571 0.078563556
000010 9a ff a2 3d 1c ef 96 3c 6f ef 01 3e 9e 3b 18 3d
       0.079589084 0.018424563 0.12688993 0.03716623
000020 60 63 0b 3e 9a f9 13 be bc 1a fb 3d d2 11 1d 3e
       0.13612127 -0.14450684 0.122609586 0.15338829
000030 8c 45 2b 3e 7c fe 3f 3d 14 71 4c be 5f 5d 0f 3e
       0.16725749 0.046873555 -0.19965011 0.14000462

fc1.weight f4 [200, 208]
000000 cf 7d 21 3c 34 45 8d bc 04 e8 0e 3d f6 64 9a 3d
       0.009856655 -0.017244913 0.034889236 0.07538788
000010 5c 14 e8 3c c8 19 23 bc 80 74 87 bc 36 84 6c 3d
       0.02833002 -0.009954877 -0.016535044 0.057743274
000020 cd ae 2c 3c ed 42 d2 bc 4a 9b 0d 3d 58 14 7e bc
       0.010539723 -0.025666678 0.034571923 -0.01550778
000030 75 1c df bb ea ad 78 3c 9c a6 d9 bc 57 d1 88 3c
       -0.0068088123 0.015178183 -0.026568703 0.016701384
000040 a2 ef 8b bc f8 ea bb 3c a0 ab 7c 3d fe c8 cb bc
       -0.01708204 0.02293919 0.06168711 -0.024876114
000050 63 f9 f9 3c dd 25 57 3d 51 77 2d 3d 2d 3b c7 3c
       0.030514425 0.052526344 0.042350117 0.02432021
000060 03 ed 15 bd 94 a3 ec bd bf ba 5f 3d 52 32 a8 3d
       -0.036602985 -0.115546376 0.054621454 0.08212723
000070 2f d3 3f bc b5 0d 90 3c 2c c1 cb bc ec ab dc 3d
       -0.011708065 0.017584661 -0.024872385 0.10774979
000080 e9 7b 10 3a 86 31 aa bd 1a a8 b5 3d f6 b6 b2 bc
       0.0005511628 -0.08310227 0.088699535 -0.021815758
000090 6e 16 bf 3c 6c 9e e9 3c fc 5a a0 bc aa ae c0 bb
       0.023326125 0.028517924 -0.019574635 -0.0058801966
0000a0 40 43 12 bd 5a 6c 32 be 5f c4 c1 3d 3f d6 9a bd
       -0.035708666 -0.17424145 0.09461283 -0.075603954
0000b0 42 38 94 3c 17 94 05 3d ef de db 3c 29 85 76 3d
       0.018093232 0.032611933 0.026839701 0.060185585
0000c0 f9 c9 78 3d 9b 4a 5f bd 45 d9 0b bc 72 d0 16 bd
       0.06073949 -0.05451451 -0.008535688 -0.036819883
0000d0 4a 70 0d 3d b7 e8 2d bc fa 9c dd 3c cf 28 c7 3d
       0.034530915 -0.010614566 0.027052391 0.097245805
0000e0 44 45 9a bd 1e a2 57 3d 4c 8e 37 bd ba f5 7e 3e
       -0.075327426 0.05264484 -0.04481344 0.24898425
0000f0 6c dc e4 3b 7d ed 82 3d 30 c8 79 3d a1 63 88 bd
       0.006984284 0.063929535 0.06098193 -0.06659628
000100 99 30 35 3d 74 8b bf 3d 8a 74 8f bc ba 65 d1 bc
       0.0442358 0.093527704 -0.017511625 -0.025561202
000110 b9 a2 0b 3d 03 60 9b bc db f6 6b 3d 31 dd ee bc
       0.03409073 -0.01896668 0.057608467 -0.029158207
000120 df 02 0b bd ef b4 e6 3c a8 fd 27 bc b8 3b 6c bc
       -0.033938285 0.028162448 -0.010253347 -0.014418535
000130 30 6a d3 bc ad b3 8a 3d c4 b3 76 3d 1c 6e 42 3d
       -0.02580747 0.06772552 0.06023003 0.04746829
000140 b6 73 93 3d cc e4 81 bd 4b 8a 6d 3d c3 f7 f2 3c
       0.071998045 -0.06342468 0.057993215 0.029659158
000150 63 f8 00 bc 31 c3 42 3d 17 f5 9c 3d f7 8e 43 3d
       -0.00787172 0.04754943 0.07663935 0.047743764
000160 49 33 38 3c b2 29 92 3d 59 ae 99 3d 8f e8 1b bd
       0.011242696 0.07136859 0.07503957 -0.038063582
000170 a9 f9 9a 3d 3b 42 10 bd 9f 17 66 bd a8 0f 29 3d
       0.0756715 -0.035219412 -0.05617487 0.041274697
000180 3a 6f 9e 3c ec 2c 14 3c 40 d9 1a 3d 5d 03 99 3d
       0.019340146 0.009043913 0.037804842 0.074713446
000190 e3 50 af bc 38 5d 08 bd 26 69 b4 3d 49 1c b0 3d
       -0.021400874 -0.033292025 0.08809118 0.08599145
0001a0 35 34 84 3d dd 29 57 3e 8c 11 1a 3d cd a0 0d 3e
       0.0645527 0.21012063 0.03761439 0.13830872
0001b0 3c 71 03 bd 05 22 b8 3d 9c 97 e3 3b a6 86 2d 3c
       -0.03209041 0.08990864 0.0069455635 0.010591185
0001c0 90 18 e7 3c 3e 1c ad bd f0 2e fb 3c 9d a1 2f ba
       0.028209955 -0.084526524 0.03066203 -0.00066998025
0001d0 c0 35 34 3d d3 4a 8a bd c7 a7 38 3c 03 6c 31 bb
       0.043996572 -0.06752553 0.01127047 -0.0027072437
0001e0 3e a5 38 bc 88 13 a6 bc 40 24 09 bc 09 0b 75 bb
       -0.011269866 -0.020272985 -0.008370459 -0.003739061
0001f0 8b ce c6 bd 26 61 cb 3c b3 21 57 bd 62 d2 00 3d
       -0.09707364 0.024826597 -0.052522372 0.031450637
000200 1b b2 1e bd 4d 3d 43 3b cb 60 18 bc 7b 2b 0b 3e
       -0.038744073 0.0029791177 -0.009300421 0.13590805
000210 29 bf 5f 3d 17 c8 50 bb dc 5f 36 3d 86 5f 00 bd
       0.054625664 -0.0031857544 0.044525012 -0.0313411
000220 72 13 03 3d 89 94 90 ba 19 21 bf bd 3b 11 42 bc
       0.032000966 -0.0011030595 -0.09332485 -0.011844928
000230 e3 f9 48 3d ea 64 89 3d 61 bb 83 bc 4f 5a 0f 3d
       0.049066436 0.06708701 -0.01608056 0.034998234
000240 35 39 b1 bc 53 e9 d5 bc 37 a1 2c 3c fc 94 b6 3d
       -0.021633724 -0.026112234 0.0105364835 0.08915135
000250 56 9d 6c bc 55 95 8b 3c d5 1a 18 3c bb 80 13 bd
       -0.014441809 0.01703898 0.009283741 -0.03601144
000260 9e ea b1 3c c1 5e 55 3d 11 1f 22 3d 9e 2b 1a bd
       0.02171832 0.052092317 0.03958041 -0.037639253
000270 79 3d 30 3d d9 2c 58 bd 90 68 a0 bc bc dd 7b 3d
       0.043027375 -0.052777145 -0.01958111 0.06149076
000280 4b f0 13 3e 3f fe 3c 3d 8e ce 57 3d 67 a3 12 3e
       0.14447133 0.046140905 0.05268722 0.14320146
000290 c0 28 65 3d fc b1 07 bd 13 65 9f bb 13 0c 0a 3c
       0.055947065 -0.033128724 -0.004864344 0.00842573
0002a0 55 b0 ec 3c 9a cb e5 3b 68 55 8d bc 75 00 04 3c
       0.028892675 0.0070127966 -0.017252639 0.00805675
0002b0 f4 d1 75 3d 2b 79 a3 3d 24 d2 d8 3d 15 a4 e2 bc
       0.06001468 0.07982095 0.10586956 -0.027666131
0002c0 bb 1c 1f 3c 5c 0e 05 bd e2 34 1a bd d3 1d 84 bc
       0.00971144 -0.032484397 -0.03764809 -0.016127503
0002d0 29 fa 72 3c 90 61 2d be 9c a6 f7 bb 68 30 70 bd
       0.014830151 -0.16931748 -0.007557703 -0.058639914
0002e0 2d 70 ef 3c 3c 4e 01 be a3 df 6f bd fd 00 fe 3c
       0.029228294 -0.126275 -0.058562886 0.03100633
0002f0 32 4d 60 3b 7b 95 9e bc 3b be 7d bc c0 be 83 bc
       0.00342257 -0.019358387 -0.015487249 -0.016082168
000300 cf f2 c5 3c 1b 5e 7d 3d ff d7 b1 bd 9d 80 ac 3c
       0.024163632 0.061857324 -0.08683776 0.021057421
000310 bd 13 f0 3e 96 b3 3c 3e 23 c2 96 3d 00 ec c2 bc
       0.4689006 0.18427882 0.073612474 -0.023794174
000320 a4 e7 18 bd 43 c8 dd 3c 54 82 13 bd 2a 4b 58 3d
       -0.037330285 0.027073031 -0.036012962 0.052806057
000330 ab 4f 94 3e 8f 5c 7b bd 1a f3 f1 3c ab 08 82 3e
       0.28967032 -0.061367568 0.029534865 0.25397238
000340 f8 82 a6 3c f5 c0 ad bd b1 32 46 3e 7a 54 1e be
       0.020326123 -0.08484069 0.19355275 -0.15461913
000350 3b 59 85 3d 14 53 22 bf 04 2a 82 bc f4 cf 89 bd
       0.0651116 -0.6340802 -0.015889175 -0.06729117
000360 a4 48 58 39 c1 eb 1e bd c7 32 1c 3e 48 18 c9 bd
       0.00020626426 -0.03879905 0.15253745 -0.098190844
000370 ae 04 38 bc cb 67 f3 3c 7d 88 33 bb 7f 3e 89 bc
       -0.0112315845 0.029712578 -0.0027394586 -0.016753433
000380 7c 7e b9 bb 3b 33 8d 3d 89 c4 54 be 66 92 15 3d
       -0.00566083 0.06894537 -0.20778097 0.03651657
000390 7b 4c 56 bd 4f 88 4e bd 05 df 4d bd 39 46 5a bd
       -0.05231903 -0.050422963 -0.050261516 -0.053289626
0003a0 9f ce 79 3d 28 a4 f1 be 12 75 2d 3d d5 62 90 3d
       0.060988065 -0.47195554 0.042347975 0.07050101
0003b0 fe ef 34 3d ce fc f3 bc 6b 44 ac 3d 55 aa 1d 3e
       0.044174187 -0.029783633 0.08411487 0.15397008
0003c0 13 ad a7 bc b4 97 67 bb 74 4e ca bb d5 78 33 3d
       -0.02046827 -0.0035338225 -0.006173903 0.043816406
0003d0 64 86 79 bd 97 ba 39 be 15 db d6 3d 74 18 97 3d
       -0.06091918 -0.18137585 0.10491005 0.07377711
0003e0 6e e0 ae 3c aa 7a e1 3d 3a 26 c1 3d 4b 3e 11 ba
       0.02134725 0.110097244 0.09431119 -0.00055405934
0003f0 4e 6c d0 3d a4 82 2e 3d 92 e6 84 3d 40 fb d6 bc
       0.101769075 0.042605057 0.0648929 -0.026242852

fc1.bias f4 [200]
000000 61 9e 82 3d bc 3f 42 3d 97 69 fc bc fe 40 dd 3b
       0.06377865 0.047424063 -0.030812068 0.0067521324
000010 21 ed 4a 3d f5 b5 3e 3d f6 f2 c3 bd 83 ac cd 3d
       0.04954255 0.046560246 -0.095678255 0.100426696
000020 40 14 a6 3c 92 54 97 3d 8a 09 a3 3d 30 11 9e 3d
       0.020273328 0.073891774 0.07960804 0.07718122
000030 13 22 a5 3d d7 ad 8e 3d 05 b1 6a bd 09 16 24 3c
       0.0806314 0.06966751 -0.057297725 0.010015019
000040 8c 3c 29 3d 47 05 a8 3d 4f b1 b3 3d 6e 7f 55 3d
       0.041317508 0.082041316 0.08774053 0.05212348
000050 75 11 72 bd 08 c8 54 3d 4f 7a 7e bd d6 06 d6 3c
       -0.05909868 0.051948577 -0.06212836 0.026126307
000060 3d 23 b8 bd 90 19 b4 3c ef a1 e0 bd 14 be b8 3c
       -0.08991096 0.021984845 -0.109683864 0.022551574
000070 95 ef 99 3c 6e da 9c bd f6 b0 44 3d 66 bc 8f bd
       0.018791 -0.0765885 0.048020326 -0.07018356
000080 c9 09 59 3d 02 a4 7f bc b2 00 61 bd 51 18 07 bd
       0.052987847 -0.015603067 -0.054932304 -0.032982174
000090 42 f4 51 bd 5d 9e 89 3d bd 5a 8f bd a3 45 2e bd
       -0.051258333 0.067196585 -0.06999729 -0.04254688
0000a0 ef 5d 60 bd 79 2f e5 3c 84 d7 7e 3d d1 c9 16 3d
       -0.054777082 0.027976738 0.06221725 0.03681356
0000b0 a1 4e 15 3d 67 c3 b9 3c 45 c5 80 bd 75 d4 8a bb
       0.03645194 0.022676183 -0.06287626 -0.0042367526
0000c0 fe c7 c2 3c b3 53 b0 3d 32 b6 44 bd 34 81 67 3d
       0.023777004 0.08609714 -0.048025317 0.056519702
0000d0 8e 1e 74 bd 3c 64 3d bc eb 41 2a bd dc 6a dc bb
       -0.05959945 -0.011559542 -0.04156677 -0.006726606
0000e0 0d be 8d bd 11 08 d6 3d ca 4f bf 3d 89 56 31 bd
       -0.06921015 0.10450757 0.093413904 -0.043295417
0000f0 b9 5b 1f 3d 6d 60 a1 bd 71 8d 81 3d 22 b9 a5 3d
       0.038905833 -0.0787972 0.06325806 0.08091952
000100 b7 19 02 bb 04 b2 30 bc 3d 45 5c bd 6f b2 7d bc
       -0.0019851753 -0.01078463 -0.05377697 -0.015484436
000110 a1 42 a5 3d 8c 15 63 3d c0 81 80 bd 7d 9f ff 3c
       0.08069349 0.05544047 -0.06274748 0.03120398
000120 2d 57 a4 3d dd ee cc 3d 63 dd 8d bd bd 0c a7 3d
       0.0802444 0.10006497 -0.06926992 0.081567265
000130 02 40 79 bb a2 13 a8 3c 63 6a 9c 3d 59 96 16 3d
       -0.0038032536 0.020517174 0.07637479 0.036764476
000140 08 da b3 3d 61 21 05 3d 9d 8f a8 bd 3d c8 6f bd
       0.087818205 0.032502536 -0.08230517 -0.05854057
000150 41 b2 59 bd 34 92 d7 bc bc 28 6c 3d 98 fd 43 3d
       -0.05314851 -0.026314832 0.057656035 0.047849268
000160 14 22 c6 bc 1c 54 53 3d 61 d0 8e bd ea 52 9a 3d
       -0.024186172 0.051593885 -0.06973339 0.07535346
000170 c7 aa fc 3b 9b 2e f9 bb 5e ee ce 3d 41 72 a5 3d
       0.007710788 -0.0076044328 0.10104059 0.08078433
000180 55 31 be 3c e0 2c 37 3d 77 e1 8f bc 95 df 6a bd
       0.023216883 0.04472053 -0.017563565 -0.05734213
000190 39 9d 9b 3d be 62 50 3d 0e 8d 09 be 83 bf 64 3d
       0.07598347 0.050875418 -0.13432714 0.055846702
0001a0 e8 42 e4 bd 12 b8 27 3d 72 00 ff 3b 0b 20 ac bc
       -0.11145574 0.040947028 0.0077820355 -0.021011373
0001b0 2d 9f b8 bd d0 32 a1 bd 7d b4 f3 3c ea c7 86 3c
       -0.09014735 -0.0787102 0.02974915 0.016452748
0001c0 e9 94 f9 3c 7e cb f4 bc fd 4a 57 bd c0 c0 4e bd
       0.030466514 -0.029882189 -0.05256175 -0.05047679
0001d0 55 76 d9 3c 70 ca 8a bd 0e 6b 99 3c c1 02 9c 3d
       0.026545683 -0.06776893 0.018727805 0.07617713
0001e0 0d 75 4f bd 0c e9 6f bd 2c cf 21 bd 9e 5e 92 bd
       -0.050648738 -0.05857186 -0.039504215 -0.07146953
0001f0 85 c3 99 3d 52 02 a9 3d 57 c6 51 3b db 52 74 3d
       0.075079955 0.08252396 0.003200909 0.05964933
000200 1e 7e 0c 3d 09 b6 42 bd 6f 14 61 3d d5 15 94 3d
       0.034299962 -0.047536884 0.054951128 0.07230727
000210 82 79 81 bd 7a 35 9b 3d 99 9d 11 3d b3 a6 1b 3c
       -0.06322004 0.07578559 0.035550687 0.009500193
000220 d5 0b eb bc 75 e4 37 3d 51 ed 9f 3c 2f ba 52 3c
       -0.028692165 0.044895608 0.019522341 0.012861772
000230 f9 90 ac bd 2d 3d 36 3c 29 ee 39 bd d1 48 9b 3d
       -0.08426089 0.011122984 -0.045393143 0.07582248
000240 4e 30 b6 3d 22 18 66 3d c5 ae ba 3c 05 87 25 3d
       0.08895932 0.05617536 0.022788415 0.040411968
000250 dc 94 38 bd 75 56 6a 3d 25 bb ae bd 38 8d 60 bd
       -0.04506384 0.057211358 -0.08531789 -0.054822177
000260 7d 1e 8d bc 23 d2 41 bd 47 dc 67 3d a2 41 cf 3d
       -0.017226452 -0.047319543 0.056606557 0.1011994
000270 7e c6 bd 3c 91 e5 5c 3d d7 cb 09 3d ab 26 67 bd
       0.023165938 0.05392987 0.033641662 -0.05643336
000280 f2 72 3a bd d8 8a b2 bd f5 92 8e bc e8 7d 92 3c
       -0.045519777 -0.087178886 -0.017404059 0.017882302
000290 4e 7a bc 3c d3 e6 88 bd db c2 5a bd 83 07 ad 3d
       0.023007538 -0.06684651 -0.053408485 0.08448698
0002a0 ef 54 11 3d be 70 4d bd c1 7b 12 3c a6 1e b9 bd
       0.03548139 -0.050156347 0.008940638 -0.09039049
0002b0 b1 db c7 bd 0b 2e 2f 3d 48 0a 92 3c 7d 81 7e bd
       -0.097587 0.04276852 0.017827168 -0.06213521
0002c0 c5 64 bc 3d b2 88 8a 3c f6 ad 02 bc bd a3 ce bd
       0.09198908 0.016910885 -0.007976046 -0.10089824
0002d0 7b 14 dd 3c f0 8b b4 3d 33 21 62 3d 57 50 d4 bc
       0.026987305 0.088157535 0.055207442 -0.025917215
0002e0 f0 d0 d9 bb e7 f4 ce 3d 49 0f 53 3d 24 e4 62 3c
       -0.0066472217 0.10105305 0.05152825 0.013848338
0002f0 38 12 3c 3d c6 b5 3e b9 a6 d5 58 3d 64 e0 39 3d
       0.045915812 -0.00018187528 0.052938126 0.04538001
000300 46 e2 82 3d 7b fe cd 3c 54 92 c0 3c fe a1 db 3d
       0.063908145 0.02514576 0.023507275 0.10724257
000310 a8 3c 91 bd 17 c9 03 be f2 fc 2c 3d a0 17 96 3c
       -0.070916474 -0.12869678 0.042233415 0.018321812

fc3.weight f4 [100, 200]
000000 99 01 30 3d b0 4f 4e 3e a9 e6 e2 3d 94 18 4d 3d
       0.042970274 0.20147586 0.11079151 0.050072268
000010 46 52 01 3f d9 f1 be bc fc ee fc 3c b0 5f 0b ba
       0.50516164 -0.023308681 0.030875675 -0.0005316688
000020 e6 8e a1 3d d4 54 2e 3d d8 61 c1 3c d5 5d 5c bd
       0.07888584 0.042561367 0.023606226 -0.053800423
000030 dc b8 92 3d 3a 99 a8 bb eb a8 c4 bc 99 41 a2 bc
       0.071641654 -0.005145219 -0.024006328 -0.01980667
000040 54 b8 09 3e a0 ee 41 3d 07 48 84 ba 9a a0 d7 3c
       0.13449222 0.04734671 -0.0010092267 0.026321698
000050 65 b3 81 bd f7 a0 a0 3c 93 f8 91 be 3b e6 d1 be
       -0.06333045 0.019608004 -0.2850996 -0.40995964
000060 15 aa 08 3c e7 eb be bc b1 0f ff 3c 47 dc 3e bd
       0.008341332 -0.023305846 0.031135412 -0.04659679
000070 61 7c 8b bd 86 6b 8c bb a6 fb ba 3e 69 66 77 bd
       -0.06810833 -0.0042852787 0.36520118 -0.0604004
000080 cb ff 40 bd f8 32 c2 3d 34 31 9b 3d ef 1b b3 bd
       -0.047118943 0.09482378 0.07577744 -0.08745562
000090 f6 5c e1 bc 62 39 ff 3c 4d 19 72 bd 08 d0 53 bf
       -0.027510148 0.031155292 -0.05910616 -0.82739305
0000a0 ea ca a5 bc 7b 7c 2a be 23 44 13 bd 50 8c ea ba
       -0.020238359 -0.16649048 -0.035953652 -0.00178946
0000b0 53 5d d7 bb 26 f8 dd 3d e0 59 f6 bc bf da ab 3e
       -0.0065724044 0.10838346 -0.030072153 0.33565328
0000c0 21 1d 8f 3d 4d cc e8 3c b1 9b 27 3d d7 ca 38 3d
       0.06987978 0.02841773 0.040919963 0.04511532
0000d0 f5 56 da bc 71 10 68 bd 98 35 dc 3a c7 61 2c bc
       -0.026652792 -0.056656305 0.001680064 -0.010521359
0000e0 ab 37 7a bd ac 40 28 bd 53 5d ad 3d d3 0b 84 3d
       -0.061088245 -0.0410773 0.08465066 0.06447568
0000f0 de 13 cb bd 78 f9 87 bd 60 3e b7 3d 7b 39 2e bd
       -0.09915899 -0.06639379 0.08947444 -0.042535286
000100 1b 93 16 bd 7b 91 0b 3d 35 4f a5 bc 1a b0 5e bd
       -0.036761384 0.034074288 -0.02017937 -0.054367162
000110 5b b2 69 3d 8b 2e 45 3c 4b c0 2d bd ad 4a 18 3c
       0.05705486 0.0120350225 -0.042419713 0.009295148
000120 67 69 09 bd 07 8e 86 3d 65 d8 0e bd f5 14 a7 3d
       -0.033547785 0.06570058 -0.03487434 0.08158294
000130 1f 3a 8e 3d e0 cb 39 3d fa 67 90 bd 93 4b c8 3d
       0.069446795 0.045360446 -0.07051082 0.0978004
000140 f7 a3 80 3c e4 38 73 bc f8 42 d9 3c 70 bc 05 3f
       0.015703185 -0.014845107 0.026521191 0.5224066
000150 b6 b1 73 bd 01 86 af bd 0f 14 12 3d 85 93 84 3f
       -0.05949565 -0.08570481 0.03566366 1.0357519
000160 50 59 f1 be b3 dc 76 bd 50 a8 ee bc ef 65 0c bd
       -0.47138453 -0.06026907 -0.029132992 -0.0342769
000170 f6 dc 94 3d 63 b8 06 3c 5c 49 31 3d aa d2 cf bc
       0.072687075 0.008222672 0.04328285 -0.025369007
000180 69 6a 4b bc d0 bb a7 3d ad 8e 20 3c f5 23 91 3b
       -0.012415507 0.08190119 0.009799642 0.0044293352
000190 2d c4 55 bc 52 34 29 3e d0 af 25 3f 0d 08 50 3d
       -0.01304726 0.16523865 0.64721394 0.050788928
0001a0 a4 ce 84 be a1 f5 c6 3c 5e 98 aa bc 6a 6a 9d be
       -0.25938904 0.024287047 -0.020824607 -0.3074525
0001b0 d5 12 a7 bd 2f 1d 06 bf 9c fe 79 3d e4 bd 34 bd
       -0.08157889 -0.5238828 0.06103383 -0.044126406
0001c0 e9 b0 6e 3d de d8 82 3d 50 b2 8e bc 6b 5a 7f bd
       0.058274183 0.063890204 -0.01741901 -0.06234209
0001d0 bc 8a ea 3e 9e 34 db bd d5 16 a8 3d 9b af 99 be
       0.4580897 -0.10703395 0.0820748 -0.3001679
0001e0 53 08 84 bd dc 8c 83 bc 80 0c 82 bc 8e 47 f2 3b
       -0.064469 -0.016058378 -0.015875101 0.007393784
0001f0 7d bc ab 3c 0e ed 83 3c 06 cb 12 3d bd d9 77 3d
       0.020963902 0.016104247 0.03583815 0.060510386
000200 ee 15 65 3d 5e cc f6 bc d8 6a f2 3d fa 0c bc 3d
       0.055929117 -0.030126747 0.11836785 0.091821626
000210 94 63 c4 bd 9d 3e c0 38 30 c6 cc 3c b1 89 68 bd
       -0.095893055 9.166936e-05 0.024996847 -0.056771938
000220 93 58 14 3d 38 fe bf 3c 62 ee 12 3e 85 83 9a bd
       0.036217283 0.02343665 0.14348748 -0.075446166
000230 1f 24 b7 3b eb f1 2f 3d 8c 41 cb 3d e7 c4 12 3d
       0.0055890228 0.04295532 0.099246114 0.035832312
000240 b9 42 f8 3c aa 9d fd 3c 40 c9 84 bc 49 ae 37 bd
       0.030305253 0.03095897 -0.016209245 -0.044843946
000250 d6 9b ac bc a2 b7 a6 3d 28 40 22 3e b8 f8 8f be
       -0.021070402 0.08140494 0.15844786 -0.28119445
000260 23 d4 1d bd 27 16 8a bd 21 ad 16 bd 0b d4 43 bd
       -0.038532387 -0.067425065 -0.036786202 -0.04780964
000270 b1 6d 34 3e 93 63 a7 3d 18 d7 22 bd d9 81 f5 3a
       0.17619969 0.08173289 -0.03975591 0.0018730714
000280 77 19 a9 bd 5c 9f 19 bd 85 55 64 bc f1 41 85 bd
       -0.0825681 -0.037505493 -0.013936405 -0.06506718
000290 59 29 24 bd f4 7a 7c 3c f8 73 1a bd 7b 3b ef 3c
       -0.040078495 0.015410174 -0.037708253 0.029203167
0002a0 8b 3a bd bb 0f 9d 0e bd f3 98 2e 3d 2a e6 4b bd
       -0.005774801 -0.03481775 0.042626332 -0.04978005
0002b0 80 9f 8e bd 7b 4b 0c bc f8 ff ae bd 91 49 2c 3c
       -0.06964016 -0.008562918 -0.08544916 0.0105155865
0002c0 57 5d cf 3d eb 38 17 3d 44 59 31 3d 39 70 bb bd
       0.10125225 0.036919516 0.04329802 -0.09152264
0002d0 27 5f 0b 3d 78 15 26 bd 1a 7e c0 bb b6 8a 38 3c
       0.03402629 -0.040547818 -0.0058744075 0.01126354
0002e0 a4 83 56 bd 52 b7 5c 3d bd de db 3c b9 13 f0 3b
       -0.052371636 0.053885765 0.026839608 0.00732657
0002f0 f9 9f 46 3d 6f 5c 6e 3d 77 7f 60 bd b7 8c 33 bc
       0.048492406 0.05819362 -0.05480906 -0.010958842
000300 80 1d db 3b 22 29 0d 3c bd 25 cb 3c 11 02 16 3c
       0.0066868663 0.008615764 0.024798268 0.009155766
000310 24 8d 66 bf 51 72 73 be ab 9e 27 3d 4d f7 16 bd
       -0.90059114 -0.23774077 0.040922802 -0.03685694
000320 ba 18 53 bd 8d cc 6d 3e 90 46 ab 3d d4 65 91 3b
       -0.051537253 0.23222561 0.08363068 0.0044371877
000330 af d0 00 3f e9 19 07 3d 4f 4b 7d bd 50 f0 39 bc
       0.50318426 0.032983694 -0.061839398 -0.011348799
000340 84 cd c2 3c 9b f9 56 bd 4a 55 45 3c 54 6f 24 bd
       0.023779638 -0.052484136 0.01204426 -0.040145233
000350 48 2a 7e 3d 03 6d cd bc a8 6c ae bd 4f 89 ab 3d
       0.06205204 -0.025076395 -0.08516818 0.08375799
000360 4b d9 92 3d fb a2 ad 3d d2 4d 12 3d cb 5a 98 3d
       0.071703516 0.08478352 0.035718746 0.074391924
000370 56 8d 1a 3d 72 63 44 3d db 44 84 be 65 3f 26 be
       0.037732445 0.0479464 -0.25833783 -0.1623512
000380 60 ba 6b bd 93 9a 74 bc 35 63 88 bd 39 d4 35 3c
       -0.057550788 -0.0149294315 -0.06659547 0.011097961
000390 9c 31 1f bd e7 44 8f bd f4 d6 8a 3e bb 0c 05 3d
       -0.03886567 -0.06995564 0.2711712 0.032482844
0003a0 40 8e 9b 3d 49 af 8e 3d f2 bf 29 3e c7 ff 94 bb
       0.075954914 0.06967027 0.16577128 -0.0045470926
0003b0 b6 61 2a 3d c8 2b 8e bb 21 49 e4 bc 71 c6 0c bf
       0.04159709 -0.004338715 -0.027866902 -0.549903
0003c0 30 db e4 bc 90 fe e0 bd 80 40 8c 3d 52 6d ae 3d
       -0.027936548 -0.10986054 0.0684824 0.08516945
0003d0 28 5c 25 3c c2 58 34 bd fb 25 20 bc 03 a0 93 3e
       0.010092773 -0.04402996 -0.00977468 0.28833017
0003e0 f0 46 a4 3d fe cb 74 3c 39 36 a6 bc 45 6c c1 bc
       0.08021343 0.014941214 -0.020289527 -0.023611197
0003f0 0d 14 83 3c b9 ab a3 bb b7 e0 15 bd e1 ee b0 3d
       0.016000772 -0.004994836 -0.036591258 0.086393125
